results/TrainPeoplePuddlesHoles_NewPuddleBehaviour_ReplacedHoles_10Dicembre5/MoveToGoal/MoveToGoal-2499965.pt (torch, 630839 bytes, 40 tensors)

discrete_act_size_vector f4 [1, 2]
0	0x40400000	3.0
1	0x40400000	3.0

network_body._body_endoder.seq_layers.0.weight f4 [128, 66]
0	0x3bbb93db	0.005724413
1	0xbe826147	-0.25464842
2	0x3e6bc76f	0.23025297
3	0xbb8dac06	-0.0043234853
4	0xbdb8de7f	-0.09026813
5	0x3e5dc107	0.21655665
6	0xbcbaa408	-0.022783294
7	0x3e1e3ff9	0.15454091
8	0xbcfb4ccc	-0.030676268
9	0x3dcd1b9d	0.100150324
10	0x3d94f7c9	0.07273824
11	0xbce8f5b8	-0.02843748
12	0x3daa045a	0.08301611
13	0xbe45df97	-0.19323574
14	0x3ca19008	0.019722
15	0x3e089d4e	0.13341257
16	0xbe1469f4	-0.14493543
17	0x3ded73d4	0.11594358
18	0x3e80d325	0.2516109
19	0x3e741544	0.23836237
20	0xbc8fffe7	-0.017578078
21	0xbdba0761	-0.09083439
22	0x3e2a3e27	0.16625272
23	0x3e89ba56	0.26899976
24	0xbbeae35c	-0.0071682166
25	0xbe50b321	-0.20380832
26	0x3d145a34	0.036218837
27	0x3e7a6053	0.24450807
28	0x3dba83ad	0.091071464
29	0xbe9bc0a7	-0.3042042
30	0xbe840f95	-0.25793138
31	0x3dd8cd07	0.10585981
32	0xbeb4792f	-0.35248706
33	0x3ce58068	0.02801533
34	0xbd70d02a	-0.05879227
35	0x3e7da639	0.2477044
36	0x3d6ae5dc	0.057348117
37	0xbd8a8b5d	-0.06764863
38	0x3e0537a7	0.13009511
39	0x3ec32d2e	0.38120407
40	0x3be356d5	0.0069378414
41	0xbe3e5fd1	-0.18591239
42	0x3bfa9d06	0.007648113
43	0x3e02952f	0.12752222
44	0x399e36e9	0.0003017702
45	0xbd402a22	-0.04691518
46	0xbd0e0429	-0.034671936
47	0xbc53770c	-0.012906801
48	0x3dabf8fb	0.08397099
49	0xbd7b8056	-0.061401688
50	0x3d61ff2a	0.055174984
51	0x3c1dce4d	0.0096317055
52	0xbd455f35	-0.0481865
53	0x3d93c407	0.072151236
54	0x3dcf00bf	0.10107564
55	0x3dd3566a	0.103192165
56	0xbe3f6920	-0.18692446
57	0x3d321f44	0.04348685
58	0x3e1edc65	0.15513761
59	0x3e3a4a50	0.1819241
60	0xbd4cdd15	-0.050015528
61	0x3d216357	0.03940138
62	0x3db39c7e	0.08770083
63	0x3e2a547d	0.16633792
64	0x3df2b516	0.11850946
65	0xbe1960ab	-0.14978282
66	0x3e45d3c5	0.19319065
67	0x3e6af162	0.22943643
68	0x3c8fede8	0.017569497
69	0x3c37ce44	0.011218611
70	0xbe28b465	-0.16475065
71	0xbbc55931	-0.0060225953
72	0x3d6cfa7c	0.057856068
73	0x3d2f9eec	0.04287617
74	0xbdb82f6f	-0.08993422
75	0xbba6b6b8	-0.0050876997
76	0x3e3ff83b	0.18747036
77	0x3ca2cc26	0.019872736
78	0xbcd53a83	-0.026028877
79	0x3e2eefa6	0.17083606
80	0xbe47058f	-0.19435714
81	0x3d3f75dc	0.04674326
82	0xbe71801e	-0.23584029
83	0x3bc10b92	0.005891272
84	0x3e417d9b	0.18895571
85	0xbe74e2b3	-0.23914604
86	0xbdb0b6c3	-0.08628609
87	0xbdc417ed	-0.09574876
88	0xbe32e1b0	-0.17468905
89	0x3e461bce	0.19346544
90	0xbdce98a7	-0.1008771
91	0x3dabd081	0.08389378
92	0x3d967d5a	0.07348128
93	0xbcb2d951	-0.02183214
94	0x3e57c53d	0.21071334
95	0x3e008e08	0.1255418
96	0x3deb7030	0.114960074
97	0xbe1639d1	-0.14670493
98	0xbe13b110	-0.14423013
99	0x3db277e2	0.08714272
100	0xbe208692	-0.15676335
101	0xbd81e74b	-0.06342944
102	0xbe0a0ddd	-0.13481851
103	0xbca960c3	-0.020676022
104	0xbd887ffa	-0.066650346
105	0xbe48d506	-0.19612512
106	0xbdb2d99b	-0.08732911
107	0x3e14ef5a	0.1454443
108	0x3db340f0	0.0875262
109	0xbd86ddc4	-0.06585267
110	0x3d96f672	0.073712245
111	0xbdcc3950	-0.09971869
112	0x3e1e301b	0.15448038
113	0xbd055330	-0.032550037
114	0x3e582ce7	0.21110879
115	0xbdb676a9	-0.089093514
116	0xbc5fbf07	-0.013656384
117	0xbdbbf0ae	-0.091767654
118	0xbe153985	-0.14572723
119	0x3e29e650	0.16591763
120	0xbc116273	-0.00887357
121	0x3d3b01dc	0.04565607
122	0xbb205fbf	-0.0024471132
123	0xbdc4c482	-0.096077934
124	0x3d87a22e	0.0662273
125	0x3e66786b	0.22506873
126	0x3d8dd376	0.069250986
127	0x3cd2786e	0.025692191
128	0xbd0a8789	-0.033820663
129	0xbe23fdf3	-0.16014843
130	0x3e193a6f	0.14963697
131	0x3e4e5de5	0.20153005
132	0x3d9c3c06	0.07628636
133	0x3df0798f	0.117419355
134	0x3e135a85	0.14389999
135	0x3e896636	0.26835793
136	0xbe1dbaef	-0.15403341
137	0xbe507bd6	-0.2035974
138	0xbd6d7c5f	-0.057979938
139	0x3e3c5881	0.18393137
140	0x3d681940	0.056664705
141	0xbdb7ebf5	-0.08980552
142	0xbd5b2009	-0.053497348
143	0x3dab4ffd	0.08364866
144	0x3de597b0	0.11210573
145	0x3d7b187c	0.061302647
146	0xbe165362	-0.14680246
147	0xbd87a001	-0.06622315
148	0x3dd2d1c5	0.102939166
149	0x3d060995	0.032723982
150	0x3e4dca2f	0.20096658
151	0x3d3a9be5	0.04555883
152	0x3e5319f8	0.20615375
153	0xbdc53e06	-0.09630971
154	0x3e6da3e7	0.23207055
155	0x3d9ba787	0.07600313
156	0xbd818108	-0.06323439
157	0xbe1052ac	-0.14094037
158	0x3d65e4a7	0.056126263
159	0x3e5f0fbb	0.21783344
160	0xbd3ec3dc	-0.046573505
161	0x3d324d32	0.04353065
162	0xbda0148d	-0.0781642
163	0x3e867c95	0.26266924
164	0x3a8616c0	0.0010230169
165	0x3e278530	0.16359401
166	0x3de3e422	0.11127497
167	0x3e50f9f2	0.20407847
168	0x3e561ccc	0.20909423
169	0xbe6ffc17	-0.23436008
170	0xba7b6d39	-0.00095911656
171	0x3d97608f	0.07391464
172	0x3bb69702	0.0055722008
173	0x3d1326a0	0.035925508
174	0x3e145ba5	0.14488085
175	0xbc35b14e	-0.011089636
176	0xbe369688	-0.1783086
177	0xbe7ec99c	-0.24881595
178	0x3c3a8769	0.011384823
179	0x3de008d3	0.10939183
180	0x3da183c7	0.07886463
181	0xbe2e94c9	-0.17048945
182	0xbae32232	-0.0017328917
183	0xbdea7e06	-0.11449818
184	0xbcf5ada4	-0.029990025
185	0x3e1a172a	0.15047899
186	0xbe5257d5	-0.20541318
187	0x3da42ce5	0.080163755
188	0x3e2feebb	0.17180912
189	0xbea7a0f1	-0.32739976
190	0x3e0935e4	0.13399464
191	0x3dc1d196	0.094638035
192	0xbd764429	-0.060123596
193	0xbdf42b6e	-0.11922346
194	0x3e4e9c1d	0.2017674
195	0xbd978984	-0.07399276
196	0xbe05edaa	-0.13078943
197	0xbdaa69f8	-0.08320993
198	0xbcfa87cc	-0.030582331
199	0xbdccc017	-0.09997576
200	0xbd96b683	-0.0735903
201	0x3cfbf86c	0.030758105
202	0xbc430118	-0.011902116
203	0x3d88a8f8	0.06672853
204	0x3a8390c6	0.0010037653
205	0x3d3a2e55	0.045454342
206	0x3d350f4f	0.044204053
207	0x3e7223a9	0.23646416
208	0xbcd45e28	-0.025923803
209	0xbd9fa60c	-0.07795343
210	0x3dbc5c41	0.091972835
211	0x3d9c796b	0.07640346
212	0xbcd60adf	-0.02612823
213	0xbbbb668b	-0.005719011
214	0xbe4f6f02	-0.2025719
215	0xbe498e76	-0.19683251
216	0x3e68c037	0.22729574
217	0xbe433d9c	-0.19066471
218	0xbd10e7c2	-0.03537727
219	0x3d8be698	0.06831092
220	0x3e2510ef	0.16119741
221	0xbd0ba018	-0.034088224
222	0x3ccd61cf	0.025071053
223	0x3c8030ac	0.015648209
224	0xbe7a4d17	-0.2444347
225	0xbe51680e	-0.2044985
226	0x3e44272b	0.19155566
227	0x3c8d9b40	0.017285943
228	0x3e62f9db	0.22165625
229	0xbe53cbd2	-0.2068322
230	0x3e2c9d7d	0.16856952
231	0x3be4fa15	0.00698782
232	0x3e8e123a	0.2774828
233	0xbda0fa98	-0.07860297
234	0x3e2d4b62	0.16923288
235	0x3d887235	0.06662408
236	0xbe6172cb	-0.22016446
237	0x3e9e3e9e	0.30907148
238	0x3c903123	0.017601555
239	0x3e6c0dec	0.23052186
240	0x3e1b2133	0.15149383
241	0xbe2f7ce7	-0.1713749
242	0xbeaf0168	-0.3418076
243	0x3cfbbc14	0.030729331
244	0xbe0e599e	-0.13901374
245	0xbce09cb7	-0.027418477
246	0xbe4092bc	-0.18805975
247	0xbda49836	-0.080368444
248	0xbe1d3749	-0.15353121
249	0x3dad762a	0.08469804
250	0x3d4d69be	0.05014967
251	0x3de0313d	0.109468915
252	0x3d0c758e	0.034291796
253	0xbca3c537	-0.0199915
254	0xbd3beb28	-0.04587856
255	0x3e91c758	0.284724

network_body._body_endoder.seq_layers.0.bias f4 [128]
0	0x3d196a07	0.03745463
1	0x3d11d0f1	0.035599653
2	0x3bbe5818	0.0058088414
3	0xbc5dbbdc	-0.013533559
4	0x3d8bf431	0.06833685
5	0x3d49b2ef	0.04924291
6	0x3d13ac27	0.03605285
7	0x3da65a76	0.08122723
8	0x3d92da7d	0.071705796
9	0xbda58e4c	-0.080837816
10	0x3cf562fc	0.029954426
11	0xbbf75d9f	-0.0075490023
12	0x3c1f0540	0.009705842
13	0x3ccb31df	0.024804054
14	0xb8560bec	-5.103268e-05
15	0x3d334c95	0.043774206
16	0xbc238cea	-0.009982327
17	0x3df0055c	0.11719772
18	0x3d4e4be1	0.050365333
19	0xbd5a808f	-0.05334526
20	0xbd916b54	-0.07100549
21	0x3c9a9266	0.018868636
22	0x3d1ea571	0.038731996
23	0x3d540e83	0.051771652
24	0x3d35e77d	0.044410218
25	0x3d34b86c	0.04412119
26	0x3d84b0ba	0.064790204
27	0x3d1c67f8	0.03818509
28	0xbd1ccb46	-0.038279794
29	0xbce05f77	-0.027389271
30	0xbc05bc21	-0.008162529
31	0xbb41b161	-0.002955519
32	0x3cf22ff2	0.029563878
33	0x3d91dbe3	0.07122018
34	0x3d61bc1e	0.055111043
35	0x3d67f086	0.056625865
36	0x3db22678	0.086987436
37	0x3c7ad0a3	0.015308532
38	0x3d8d0bda	0.06887026
39	0xbce9045e	-0.028444465
40	0xbd69550c	-0.056965873
41	0xbd8431ce	-0.06454812
42	0x3d5ae729	0.053443108
43	0xbdc3756d	-0.095438816
44	0xbb4b7a21	-0.0031048136
45	0x3d85c93c	0.06532523
46	0x3d69190b	0.05690865
47	0x3d4ca179	0.04995868
48	0x3dbefcb3	0.09325542
49	0x3d23f78f	0.040031012
50	0x3d2aab9e	0.041667573
51	0x3dae26d3	0.08503499
52	0x3d979d9c	0.074031085
53	0x3dbab70b	0.09116944
54	0x3da8ccf6	0.08242218
55	0xbd8c9344	-0.06864026
56	0x3bd5202c	0.0065040793
57	0x3d0adaf2	0.03390021
58	0x3c8d0120	0.01721245
59	0xbb9b66e2	-0.004742489
60	0xbd800ccd	-0.062524416
61	0x3d1899a2	0.03725589
62	0x3ce9703e	0.028495904
63	0xbe4a53f5	-0.1975859
64	0x3cfa8aed	0.030583823
65	0x3d5a1fd8	0.053253025
66	0x3da17f5f	0.07885622
67	0x3d07f8a8	0.03319612
68	0x3d264874	0.04059644
69	0x3d00f5ff	0.0314846
70	0xbb8431d8	-0.004034262
71	0x3d8328c5	0.064042605
72	0x3d7b2ca0	0.061321855
73	0x3cd4289f	0.025898276
74	0xbbcbef6a	-0.0062236087
75	0xbc1c6dae	-0.009547634
76	0xbcaf51e0	-0.021401346
77	0x3d7707d7	0.06031021
78	0x3d9cbf71	0.07653702
79	0xbd854cde	-0.06508802
80	0xbcd32067	-0.025772287
81	0xbdaf1b10	-0.08550084
82	0x3d25ebed	0.0405082
83	0x3c260f8d	0.0101355435
84	0x3d18b3b8	0.03728077
85	0x3d586b16	0.0528365
86	0xbd88f344	-0.06687024
87	0x3dd9ccd8	0.10634774
88	0xbd354941	-0.044259313
89	0x3cf488d0	0.029850394
90	0x3d5578f5	0.052117307
91	0x3d93b2b8	0.07211822
92	0x3d0cc2b2	0.034365363
93	0xbd028281	-0.03186274
94	0xba3346df	-0.0006838869
95	0x3da549ba	0.08070703
96	0x3d70005a	0.058594085
97	0xbd52fb7c	-0.051509365
98	0xbc6ff0e0	-0.014644831
99	0x3da8c02a	0.082397774
100	0xbd31476a	-0.043280996
101	0xbc5e5f85	-0.013572578
102	0x3d8eaf70	0.06967056
103	0xbc27ad18	-0.01023414
104	0x3ccdb2ef	0.025109736
105	0xbc164a66	-0.009173011
106	0xbd312aa3	-0.043253552
107	0x3c88ecc9	0.01671447
108	0xbe33670a	-0.17519775
109	0x3d943a87	0.07237726
110	0x3d897c88	0.067132056
111	0x3d9faf56	0.077971146
112	0xbd56c690	-0.052435458
113	0xbc01dae2	-0.007925721
114	0x3cd4d1d2	0.025978956
115	0xbc8d87ce	-0.01727667
116	0x3d283cf4	0.041073754
117	0x3db4e1eb	0.08832153
118	0xbda9e038	-0.082947195
119	0xbd21df32	-0.039519496
120	0xbd3ab728	-0.045584828
121	0xbd037c76	-0.032101117
122	0xbd03c84f	-0.03217345
123	0x3ca0718f	0.019585399
124	0xbd81b025	-0.06332425
125	0x3c411339	0.011784368
126	0x3b2c9d32	0.0026338813
127	0x3dd40055	0.10351626

network_body._body_endoder.seq_layers.2.weight f4 [128, 128]
0	0xba0bf685	-0.00053391635
1	0x3d3d39e9	0.046197806
2	0xbe03dd64	-0.12877423
3	0xbdc18481	-0.09449101
4	0x3df58a3c	0.11989257
5	0xbd4d360b	-0.050100368
6	0x3cbce132	0.0230566
7	0x3d2a2cb1	0.041546527
8	0xbd353417	-0.04423913
9	0xbcf4fe54	-0.02990643
10	0xbc9d4526	-0.019198012
11	0xbd8ae45c	-0.06781837
12	0x3da183ec	0.0788649
13	0x3d8a04ae	0.06739174
14	0xbc476c25	-0.01217178
15	0xbdeea2e1	-0.116521604
16	0x3dfba8aa	0.122880295
17	0x3e0830e8	0.13299906
18	0x3db303c3	0.08740952
19	0xbd2096e6	-0.039206408
20	0x3d28fd49	0.041257177
21	0x3def722c	0.116916984
22	0x3c9d46af	0.019198744
23	0x3e2568d1	0.16153266
24	0xbe06b28f	-0.13154052
25	0xbdfa1caa	-0.122124985
26	0x3dcb7eaf	0.09936272
27	0xbd719d77	-0.05898806
28	0x3cafa47b	0.021440735
29	0xbe0542e8	-0.13013804
30	0xbe2f73f7	-0.17134081
31	0xbd6faef3	-0.058516454
32	0x3c0e2470	0.00867568
33	0xbc8f4b89	-0.017492073
34	0xbd95f59b	-0.07322236
35	0x3e08eaf2	0.13370875
36	0x3e77f45f	0.24214314
37	0xbe917754	-0.28411353
38	0xbd507efb	-0.050902348
39	0xbd546271	-0.051851694
40	0x3d00e23f	0.031465765
41	0xbdee72ae	-0.11642967
42	0x3e038fa1	0.12847759
43	0xbdbe017c	-0.09277627
44	0xbc9516e8	-0.0181994
45	0x3e1e09f6	0.15433487
46	0x3cf85238	0.030312642
47	0x3ce8d3c2	0.028421286
48	0x3d3ab799	0.04558525
49	0x3cd57016	0.026054423
50	0xbe329fee	-0.17443821
51	0x3c84a883	0.016193634
52	0x3d90a8b9	0.07063431
53	0x3ddb6ab9	0.10713715
54	0x3e252dc3	0.16130738
55	0x3c6f0daa	0.01459066
56	0x3cb721a1	0.022354903
57	0x3d6c96f2	0.05776114
58	0x3d093f13	0.033507418
59	0xbe48341f	-0.19551133
60	0xbd1cf8d9	-0.038323257
61	0xbd4e4267	-0.050356295
62	0xbe1a5dda	-0.15074864
63	0xbca8992e	-0.020580854
64	0x3d7facfc	0.06242083
65	0x3d8de0de	0.06927656
66	0xbc944a13	-0.018101728
67	0x3dce032d	0.100591995
68	0x3df8e4c5	0.12153009
69	0x3cb24a8a	0.021764059
70	0x3d8fd30a	0.070226744
71	0xbcd35a18	-0.025799796
72	0x3e8930fe	0.2679519
73	0x3d4a3dd5	0.049375374
74	0xbd49d35a	-0.049273826
75	0xbd86b6b8	-0.065778196
76	0x3d571507	0.052510288
77	0x3dcd4734	0.100233465
78	0x3de0c08f	0.10974228
79	0xbd6a5e3c	-0.057218775
80	0xbe029339	-0.12751473
81	0xbc30d7a8	-0.010793604
82	0xbe91a08c	-0.284428
83	0xbd23ddfd	-0.040006626
84	0x3ccb1b25	0.024793217
85	0x3d8087e7	0.06275921
86	0xbce32383	-0.027726894
87	0x3e46fb33	0.19431762
88	0xbc84257e	-0.016131159
89	0xbd88e1fd	-0.06683729
90	0x3e398b29	0.18119492
91	0x3e1de5f0	0.15419745
92	0x3d1e5e8f	0.038664397
93	0xbd2faf25	-0.04289164
94	0x3d8344a0	0.064095736
95	0x3d344851	0.04401428
96	0x3da55140	0.08072138
97	0xbdbbed26	-0.09176092
98	0x3dce833a	0.10083623
99	0x3e84cd69	0.25937966
100	0xbe50cd74	-0.20390874
101	0xbde61853	-0.11235108
102	0x3ded77c0	0.11595106
103	0x3d7fb63e	0.06242966
104	0x3da1c203	0.07898333
105	0xbdc241d2	-0.094852105
106	0x3daa18f7	0.08305543
107	0xbb341169	-0.0027476198
108	0xbd9ba181	-0.07599164
109	0xbd287400	-0.04112625
110	0xbe4ffca7	-0.20311223
111	0x3e3bff13	0.18359022
112	0xbccbead2	-0.024892244
113	0xbdfb06ff	-0.12257194
114	0x3dbc6d96	0.09200589
115	0x3d131cfa	0.035916306
116	0x3e2d9e65	0.16954954
117	0xbb9c548a	-0.00477082
118	0xbd96771f	-0.07346939
119	0xbcf08264	-0.02935905
120	0xbb9f0861	-0.0048532938
121	0xbdc6fe0b	-0.097164236
122	0xbbdf9374	-0.0068229977
123	0xbda34ebd	-0.079740025
124	0xbd3f9b65	-0.046779055
125	0xbcc54f70	-0.02408573
126	0x3e254ace	0.16141817
127	0x3d8f8c21	0.07009149
128	0xbe13c9a4	-0.14432389
129	0xbdfa37af	-0.12217652
130	0x3dd4b6f7	0.1038646
131	0xbe140093	-0.14453344
132	0x3d72960e	0.059225135
133	0xb8f60f0e	-0.00011732998
134	0x3dcdf014	0.10055557
135	0x3be0dacb	0.0068620197
136	0xbd84fed9	-0.06493921
137	0x3caa5a0d	0.020794893
138	0x3dada130	0.0847801
139	0xbd2def15	-0.042464335
140	0xbc0bcc03	-0.008532527
141	0x3d8379df	0.064197294
142	0xbcc37635	-0.023860076
143	0x3cf57d1f	0.029966889
144	0x3da45408	0.0802384
145	0x3dc327d3	0.0952908
146	0xbc4c1c8f	-0.012457981
147	0x3cdb9742	0.026805524
148	0xbdb10249	-0.08643014
149	0x3ddad804	0.10685733
150	0xbd4905bc	-0.049077734
151	0x3be08097	0.0068512666
152	0xba98bccb	-0.0011652944
153	0xbe108d7d	-0.14116473
154	0x3dcb76fb	0.09934803
155	0xbde18b58	-0.11012906
156	0x3d86c493	0.06580462
157	0xbdc42a64	-0.09578398
158	0xbd6af384	-0.05736114
159	0xbccaee8e	-0.024771955
160	0xbe30933c	-0.17243665
161	0xbd7fb0b1	-0.062424365
162	0x3de5f939	0.11229176
163	0x3d95ce47	0.07314735
164	0x3b54f7dd	0.003249637
165	0xbd5f925d	-0.054582942
166	0x3dd67a47	0.10472541
167	0x3db1c845	0.086807765
168	0x3dc41337	0.095739774
169	0xbd3235a1	-0.043508176
170	0xbdefb3c0	-0.117042065
171	0x3e745a6e	0.23862621
172	0x3cd80705	0.026370535
173	0x3d282e85	0.04105999
174	0xbcc8ca9f	-0.02451068
175	0xbd83ddb7	-0.06438773
176	0xbda91a0b	-0.082569204
177	0x3e09998a	0.13437477
178	0xbd81b0d4	-0.063325554
179	0x3cffbc86	0.031217825
180	0xbde18bef	-0.11013018
181	0x3e226b7e	0.15861318
182	0x3de41f69	0.111388035
183	0x3c801404	0.015634544
184	0xbd1857a4	-0.037192956
185	0xbe033495	-0.12813027
186	0x3d713ca6	0.05889573
187	0x3c38525e	0.011250107
188	0x3da64dca	0.08120306
189	0x3dbbb089	0.09164531
190	0xbdf508bf	-0.11964559
191	0x3bef3001	0.0072994237
192	0x3d8486bc	0.06471011
193	0x3d2b4f9b	0.041823965
194	0xbe1a4434	-0.1506508
195	0xbe01b2c8	-0.12665856
196	0x3e092e16	0.13396487
197	0x3d91e95d	0.07124589
198	0x3d3d8cf9	0.04627702
199	0x3d6b491a	0.057442762
200	0xbe336eef	-0.17522787
201	0x3e3cd425	0.18440302
202	0x3de82b6f	0.11336409
203	0x3d79321a	0.060838796
204	0xbd14d016	-0.03633126
205	0xbd79fbda	-0.0610312
206	0xbdbe5942	-0.09294368
207	0xbdc6269a	-0.096753314
208	0xbdaff4fb	-0.08591648
209	0xbd95134b	-0.072790705
210	0xbe193598	-0.1496185
211	0x3cf64185	0.030060539
212	0x3cce1475	0.025156239
213	0x3dd9567a	0.10612197
214	0xbdb382e1	-0.087651975
215	0x3c9ed8a4	0.019390412
216	0x3c930ba2	0.017949883
217	0xbd3aed39	-0.04563639
218	0xbb476184	-0.0030423114
219	0x3d97ad08	0.0740605
220	0x3dd15c7a	0.10222717
221	0xbddea52c	-0.10871348
222	0x3c8b7654	0.017024197
223	0x3cf429ce	0.02980509
224	0xbd97a12e	-0.074037895
225	0x3d900013	0.07031264
226	0x3df6f798	0.120589435
227	0x3e46d434	0.19416887
228	0xbd934c05	-0.07192234
229	0x3d5f9dcd	0.05459385
230	0x3ddd4037	0.10803264
231	0xbd840614	-0.06446472
232	0xbce8393e	-0.028347608
233	0xbd6fc983	-0.058541786
234	0x3e3eb6a3	0.18624358
235	0x3d42e0d8	0.04757771
236	0x3d5744d0	0.05255586
237	0xbd44836f	-0.047976907
238	0x3db8ee4d	0.09029827
239	0xbe0bc2fa	-0.13648596
240	0x3deae415	0.114692844
241	0xbe04f588	-0.12984288
242	0x3d58edc2	0.05296112
243	0x3d319709	0.04335693
244	0xbda74c2c	-0.081688255
245	0xbdd79eed	-0.105283596
246	0x3d8c7588	0.06858355
247	0xbd3547a1	-0.044257764
248	0x3e005f1a	0.12536278
249	0x3d2f3ba4	0.042781487
250	0x3dca8634	0.098888785
251	0x3cdfd55e	0.027323421
252	0x3c09699c	0.008386996
253	0x3e59cf21	0.2127042
254	0x3d64ba16	0.055841528
255	0xbe0dd595	-0.13851006

network_body._body_endoder.seq_layers.2.bias f4 [128]
0	0x3da5a535	0.08088151
1	0x3aa4348d	0.0012527868
2	0xbcb1137c	-0.021615736
3	0xbd0628b2	-0.032753654
4	0x3d726554	0.059178665
5	0x3cc5cfac	0.024146877
6	0x3d7900e4	0.060791865
7	0x3d90aaea	0.07063849
8	0xbd777b23	-0.060420167
9	0x3d0f4c8d	0.034985114
10	0xbd46c1d1	-0.04852468
11	0x3d370467	0.044681933
12	0x3d28aece	0.04118233
13	0x3d87ed03	0.06637003
14	0xbc7e9942	-0.015539469
15	0x3d5256fb	0.051352482
16	0x3d9432b9	0.07236237
17	0xbc8fb007	-0.017539991
18	0xbabceb78	-0.0014413437
19	0xb9cdc4e8	-0.00039247354
20	0x3d18101c	0.037124738
21	0x3d45c0c2	0.04827953
22	0x3d7d3419	0.061817262
23	0x3d4ba1d0	0.049714863
24	0x3d647262	0.055773146
25	0xbd2c0bca	-0.04200343
26	0x3cfdbbc1	0.030973317
27	0x3d46c299	0.048525427
28	0xbd157eaa	-0.03649775
29	0xbd13732c	-0.03599851
30	0x3cb16715	0.021655599
31	0xbcab5384	-0.020913847
32	0x3d9f8cc4	0.07790521
33	0xbc3b4649	-0.0114303315
34	0x3bc6bb98	0.0060648434
35	0xbc8eb33f	-0.017419456
36	0x3d62f29c	0.05540715
37	0xbd48b102	-0.048996933
38	0x3c22820e	0.009918703
39	0x3d86c14c	0.06579837
40	0x3d2ee468	0.042698294
41	0x3d88c5fe	0.06678389
42	0x3d435a26	0.047693394
43	0x3d58031e	0.052737348
44	0xbd182f73	-0.037154626
45	0x3cc58c12	0.024114642
46	0x3d72f57e	0.05931615
47	0x3d811a62	0.0630386
48	0x3d8d16c2	0.06889106
49	0x3c2ca711	0.010537879
50	0xbc1a31c9	-0.009411284
51	0x3d6c888e	0.057747416
52	0x3bed16b3	0.007235372
53	0x3d4ff879	0.05077407
54	0x3d005330	0.031329334
55	0x3d0f2d1f	0.03495514
56	0x3d978922	0.07399203
57	0xbd2bfbbd	-0.041988123
58	0x3d491330	0.049090564
59	0xbbbdfe64	-0.005798148
60	0xbc9e4f49	-0.019324915
61	0x3bfc24c4	0.0076948125
62	0xbb8f9a3c	-0.0043824
63	0x39d3b9b5	0.0004038342
64	0x3c9c6606	0.019091617
65	0x3dd09d03	0.101861976
66	0xbd025131	-0.03181571
67	0x3b95843f	0.004562884
68	0x3d29c854	0.041450813
69	0x3cd71d19	0.026258992
70	0x3dbf0565	0.09327201
71	0x3da64e3b	0.0812039
72	0xbd2b0720	-0.04175484
73	0x3cba1ca0	0.022718728
74	0x3c59684e	0.013269497
75	0x3b944295	0.0045245388
76	0x3db91522	0.09037234
77	0x3cc094a8	0.023508385
78	0x3d85c278	0.065312326
79	0xbde6398b	-0.11241444
80	0x3bba41e4	0.0056841243
81	0x3d907f42	0.070555225
82	0xbb1712db	-0.002305201
83	0x3da02ebc	0.07821414
84	0xbcbe7580	-0.023249388
85	0x3d2017b2	0.039085098
86	0x3d9c6ff3	0.0763854
87	0xbbed20a2	-0.007236556
88	0xbc8e3551	-0.017359408
89	0xbd287502	-0.041127212
90	0x3cc60618	0.024172828
91	0x3d193691	0.037405554
92	0xbd55d3c8	-0.052203923
93	0xbcad9911	-0.021191152
94	0x3d7b277e	0.06131696
95	0x3d150252	0.036379166
96	0xbd0b89a6	-0.03406682
97	0x3d5a86bf	0.05335116
98	0x3d860d0c	0.06545457
99	0x3d94bea9	0.07262928
100	0x3d8aa442	0.06769611
101	0xbbb72228	-0.0055887885
102	0x3d568871	0.052376214
103	0x3c8a0ee1	0.016852798
104	0x3d3848d2	0.04499132
105	0x3d96c5a2	0.07361914
106	0x3d2fda9d	0.042933095
107	0x3dcd4eb0	0.10024774
108	0x3dcb78bf	0.0993514
109	0xbd8fd680	-0.070233345
110	0x3dc38d4c	0.095484346
111	0x3d976909	0.07393081
112	0x3dac4e01	0.084133156
113	0x3d934393	0.07190623
114	0x3cfba97c	0.030720465
115	0x3d2938a7	0.041313794
116	0x3d0c29b8	0.034219474
117	0xbcd3bc10	-0.025846511
118	0x3d9b496d	0.07582364
119	0x3db0524a	0.086094454
120	0xbc968047	-0.018371714
121	0x3da1376c	0.07871899
122	0x3d8141e9	0.063113995
123	0x3d643879	0.05571792
124	0x3d20aef9	0.039229367
125	0x3daf2a80	0.08553028
126	0x3d9cd956	0.07658641
127	0x3da17c8b	0.07885083

action_model._discrete_distribution.branches.0.weight f4 [3, 128]
0	0x3d53e173	0.051728677
1	0xbc6f58af	-0.014608546
2	0xbdcc9ddd	-0.099910475
3	0xbde18891	-0.11012376
4	0x3d904951	0.07045234
5	0x3bbf353a	0.0058352025
6	0x3d4f597f	0.05062246
7	0x3db17dd3	0.08666577
8	0xbdab7203	-0.083713554
9	0x3cf46e86	0.029837858
10	0xbd141aed	-0.03615849
11	0x3a8367da	0.0010025457
12	0x3d0ddf48	0.034636766
13	0x3d72ca2b	0.059274834
14	0xbc5b1f41	-0.013374151
15	0x3b467bcd	0.0030286193
16	0x3d9349df	0.07191824
17	0xbcc527d7	-0.024066849
18	0xbd42904d	-0.047500897
19	0xbd0339ec	-0.03203766
20	0x3c2839d6	0.010267695
21	0x3c990b83	0.018682247
22	0x3d7319b5	0.059350688
23	0x3d266fef	0.040634092
24	0x3d0cc2cc	0.03436546
25	0xbdf6d393	-0.12052073
26	0x3cd189ef	0.025578467
27	0x3cac9172	0.021065447
28	0xbe09b5c8	-0.1344825
29	0xbd123a6e	-0.035700254
30	0x3b9393b3	0.004503691
31	0xbd853df9	-0.06505961
32	0x3da88df0	0.082301974
33	0xbd42e635	-0.047582824
34	0x3bf1eeef	0.0073832194
35	0xbd84aa2a	-0.06477769
36	0x3d79ef3b	0.061019164
37	0xbd619a78	-0.055078954
38	0x3a76f789	0.0009421041
39	0x3d9eb505	0.077493705
40	0x3c62ba81	0.013838411
41	0x3d801fcc	0.06256065
42	0x3d196a15	0.037454683
43	0x3d4d1eea	0.05007831
44	0xbdd872ba	-0.10568757
45	0xbc800f81	-0.015632393
46	0x3d07b31b	0.033129793
47	0x3d0c06ac	0.03418605
48	0x3d6664f6	0.056248628
49	0xbcb729e3	-0.02235884
50	0xbd814c8b	-0.063134275
51	0x3d76ab8a	0.060222186
52	0xbad76680	-0.0016433746
53	0x3da0c6bd	0.07850406
54	0x3bc5705d	0.0060253576
55	0x3cfef2e7	0.031121684
56	0x3d49816c	0.049195692
57	0xbdce7578	-0.10080999
58	0x3d7910b8	0.06080696
59	0xbc7dd920	-0.015493661
60	0xbd5a1194	-0.05323942
61	0xbc3940ad	-0.011306924
62	0xbdf1ba4a	-0.1180311
63	0xbc5e8012	-0.013580339
64	0x3d28ae7a	0.04118202
65	0x3d96c0c6	0.07360987
66	0xbdc7c9c3	-0.0975528
67	0xbd5203da	-0.051273204
68	0x3c888921	0.01666695
69	0xbcc8e5d4	-0.024523653
70	0x3d8a86ab	0.06763967
71	0x3db4dfa3	0.08831718
72	0xbd16978c	-0.03676562
73	0x3cb97210	0.022637397
74	0x3bf6c901	0.0075312858
75	0xbddd7e72	-0.10815133
76	0x3d8d3865	0.06895522
77	0x3cefaffb	0.029258719
78	0x3d0611ac	0.032731697
79	0xbd833f5e	-0.06408571
80	0xbc1bd1d2	-0.009510474
81	0x3d55de1c	0.052213773
82	0xbd375f8d	-0.04476886
83	0x3dba42fc	0.090948075
84	0xbd37b1fb	-0.04484747
85	0x3c54feb0	0.013000175
86	0x3d7723aa	0.060336746
87	0xbce1d43e	-0.027567025
88	0xbd0bc533	-0.03412361
89	0xbd32a1f0	-0.043611467
90	0x3c51887f	0.012788891
91	0x3d02ece4	0.031964198
92	0xbdb6e5bf	-0.08930539
93	0xbdb5b2c1	-0.08871985
94	0x3d074a22	0.033029683
95	0x3bd8e824	0.00661947
96	0xbd90f847	-0.07078605
97	0x3d916bfc	0.071006745
98	0x3da8a817	0.082351856
99	0x3d8fba21	0.07017923
100	0x3da673d2	0.0812756
101	0xbd445048	-0.047928125
102	0x3d87a270	0.06622779
103	0x3cab26bd	0.020892495
104	0xbb5a62d0	-0.0033323057
105	0x3d9e3f7b	0.07726952
106	0x3d1b548b	0.037922423
107	0x3da82a59	0.08211202
108	0x3dc4ef83	0.09615996
109	0xbdcdc418	-0.100471675
110	0x3dbc1f1f	0.091856234
111	0x3d9c7b73	0.076407336
112	0x3d862201	0.065494545
113	0x3da1647c	0.07880494
114	0x3ca027c5	0.019550214
115	0x3cbbc65e	0.022921737
116	0x3d64f17b	0.055894356
117	0xbde40273	-0.1113328
118	0x3d9440fc	0.07238957
119	0x3d9756dd	0.07389615
120	0xbdbaccc6	-0.09121089
121	0x3d6d615f	0.05795419
122	0x3d2a7c68	0.04162255
123	0x3d4a88dc	0.049446926
124	0x3d0b1292	0.033953257
125	0x3d44748b	0.047962707
126	0x3dbee59c	0.09321138
127	0x3d8c3cbc	0.06847522
128	0xbe0bca4d	-0.1365139
129	0xbcb8cb22	-0.022557799
130	0x3e13df76	0.14440712
131	0x3e01b8fa	0.12668219
132	0x3cfefbe7	0.031125976
133	0xbde9c40d	-0.11414347
134	0xbdf2ecec	-0.118615955
135	0xb968db16	-0.0002220686
136	0x3d840f7d	0.06448267
137	0xbd85c0fe	-0.06530951
138	0x3cf91a31	0.030407997
139	0xbddcce0a	-0.10781486
140	0xbd34064c	-0.043951318
141	0xbd0c26a7	-0.03421655
142	0x3d972521	0.07380129
143	0xbe3118a3	-0.17294554
144	0xbd3e6fc1	-0.046493296
145	0x3d19819a	0.037477113
146	0xbd03016c	-0.031983778
147	0x3d39e253	0.045381855
148	0xbcd8bca5	-0.02645714
149	0xbdfb11a3	-0.12259223
150	0x3d3b7576	0.045766316
151	0x3d95e5bb	0.07319208
152	0xbe21790b	-0.1576883
153	0x3d8ae836	0.06782572
154	0x3db05256	0.08609454
155	0xbd35707f	-0.044296738
156	0x3ddee4cd	0.10883484
157	0xbcafd39f	-0.021463213
158	0x3dd7b4ab	0.105325066
159	0xbd1fc916	-0.03901013
160	0xbd8741f4	-0.066043764
161	0x3c7b2b62	0.0153301675
162	0x3d80591b	0.062669955
163	0x3c5ec9b6	0.013597896
164	0x3d273a4f	0.04082709
165	0x3d4e983b	0.050438147
166	0xbddebbd1	-0.10875667
167	0x3c292afa	0.010325188
168	0xbe2fff7d	-0.17187305
169	0xbde69322	-0.11258532
170	0xbdb51100	-0.08841133
171	0x3ceeff7f	0.029174564
172	0x3d38db6f	0.045131143
173	0xbe02cc7f	-0.12773322
174	0xbe19ebd0	-0.15031362
175	0xbdefdeff	-0.11712455
176	0xbdd92573	-0.10602846
177	0x3dca277d	0.09870813
178	0x3dea538f	0.11441719
179	0xbdeab703	-0.11460688
180	0x3deb155f	0.114786856
181	0xbc5f368f	-0.013623848
182	0xbda7f9d7	-0.0820195
183	0x3d4f7fc2	0.05065895
184	0x3d9baac9	0.07600934
185	0x3ddf8694	0.109143406
186	0xbd053874	-0.03252454
187	0x3c888597	0.016665263
188	0xbb805cfa	-0.0039173337
189	0x3dfbd925	0.122972764
190	0x3e3c7282	0.18403056
191	0xbd0a7987	-0.033807304
192	0x3d8e1d58	0.069391906
193	0xbe0ab983	-0.1354733
194	0x3d1dce99	0.038527105
195	0x3de13eb1	0.109982856
196	0xbe098c92	-0.1343253
197	0xbdabe805	-0.083938636
198	0xbdf8d6ca	-0.12150343
199	0xbdbd91aa	-0.09256299
200	0x3d22c667	0.039739992
201	0xbd93064f	-0.07178938
202	0x3d9ec7e4	0.0775297
203	0x3e18f225	0.14936121
204	0xbe263b3d	-0.16233535
205	0x3daacbba	0.08339639
206	0xbd637f38	-0.055541247
207	0x3d1d0217	0.03833207
208	0x3db21bfe	0.08696745
209	0xbe0dff7f	-0.13866995
210	0x3df2c0d6	0.11853187
211	0xbccb7cbc	-0.024839751
212	0x3c7bf7fd	0.015378949
213	0xbdb1c4ae	-0.08680092
214	0xbde7f7e0	-0.11326575
215	0x3ca67342	0.020318631
216	0xbbd57abb	-0.0065148748
217	0x3c17608b	0.009239326
218	0x3dc7bf70	0.09753311
219	0x3dda496c	0.10658535
220	0x3c71004f	0.014709546
221	0x3d86b449	0.065773554
222	0xbe10fa44	-0.14157969
223	0xbde53e0a	-0.11193474
224	0x3e0c95e5	0.13729055
225	0x3d5660ce	0.052338414
226	0x3d67a5ab	0.056554478
227	0xbce7e7e1	-0.02830881
228	0x3d50c6d0	0.050970852
229	0x3ddace12	0.10683836
230	0x3d654111	0.055970255
231	0x3d3e4413	0.04645164
232	0xbdd53a84	-0.104115516
233	0xbd8f417e	-0.069949135
234	0x3da728df	0.081620924
235	0xbe08f3d4	-0.13374263
236	0xbdf0b457	-0.11753147
237	0x3da984b0	0.08277261
238	0xbe135773	-0.14388828
239	0x3caee9b7	0.021351678
240	0xbdd4546f	-0.10367667
241	0xbc28bd26	-0.010299003
242	0x3db55fb3	0.08856144
243	0x3d7457fb	0.059654217
244	0x3d8706aa	0.06593068
245	0x3d487e5b	0.048948627
246	0xbe0a8a0f	-0.13529228
247	0xbd0ddb46	-0.034632944
248	0x3d09aa3f	0.033609625
249	0xbe0297b9	-0.1275319
250	0xbe485bb5	-0.19566233
251	0x3d745071	0.059647027
252	0x3d670c4c	0.05640821
253	0xbe2e917f	-0.1704769
254	0xbcc493bc	-0.023996226
255	0xbde3655e	-0.11103319

action_model._discrete_distribution.branches.0.bias f4 [3]
0	0x3d903dcb	0.07043036
1	0xbd604725	-0.05475535
2	0xbd01ceb4	-0.031691268

action_model._discrete_distribution.branches.1.weight f4 [3, 128]
0	0x39ec861e	0.00045113353
1	0x3ae019c3	0.0017097521
2	0x3b5d32c5	0.0033752185
3	0xbd0b94e0	-0.034077525
4	0xbc3543e2	-0.011063548
5	0x3b81cba1	0.003961042
6	0xbc0063a5	-0.007836257
7	0x3c68a598	0.014199637
8	0xba34193b	-0.0006870215
9	0xbc261446	-0.0101366695
10	0xbd1c91e1	-0.03822506
11	0x3b77f3aa	0.0037834444
12	0xbc91e39c	-0.017808728
13	0x3d10e38c	0.035373256
14	0xbbdf06c5	-0.006806227
15	0xba20e285	-0.00061372697
16	0x3bae262d	0.0053146095
17	0x3cb9b43d	0.022668952
18	0xbcbc1d4d	-0.02296319
19	0x3d2328e6	0.039833926
20	0x3c7baae1	0.015360565
21	0xbca7afb0	-0.020469517
22	0x3ca96ac6	0.020680796
23	0x3a7ab9b3	0.00095644145
24	0xbc7b4624	-0.015336547
25	0xbd636d1d	-0.05552398
26	0x3b8016cb	0.003908967
27	0x3b57c341	0.0032922777
28	0xbd69dd6d	-0.057095934
29	0x3bbac44b	0.0056996695
30	0x3c232511	0.009957568
31	0x3b0e7dfc	0.0021742573
32	0xb9eb8bb0	-0.00044926768
33	0xbd60be95	-0.054869253
34	0xbcbc15b8	-0.022959575
35	0xbd29ff1f	-0.041503068
36	0x3d870230	0.06592214
37	0xbd289ec7	-0.041167047
38	0x3a2891c5	0.0006430413
39	0x3b6b5675	0.0035909687
40	0x3cbe56de	0.02323478
41	0x3cf95678	0.03043674
42	0xbccea4d9	-0.02522509
43	0x3c47a9e4	0.012186501
44	0xbd26442d	-0.04059236
45	0x3a015e23	0.0004934987
46	0xbb75c42e	-0.0037500965
47	0x3c1048c4	0.008806411
48	0xbbc76d97	-0.006086062
49	0xbd2db530	-0.042409122
50	0xbc8abc5a	-0.016935516
51	0x3d45524d	0.04817419
52	0x3c2d06d6	0.010560712
53	0x3bddcf15	0.006769071
54	0xbd312290	-0.043245852
55	0xbcfd41c4	-0.030915149
56	0x3d1850fc	0.037186608
57	0xbbc778e6	-0.0060874103
58	0x3d284e6f	0.041090425
59	0x3cda6596	0.026659768
60	0xbd6de17a	-0.05807636
61	0xbc6607f3	-0.014039981
62	0xbcb6ef05	-0.02233077
63	0x3bbe7195	0.00581188
64	0x3c706642	0.014672818
65	0x3cea7a01	0.02862263
66	0xbd8f3ae8	-0.06993657
67	0xbd2434e2	-0.040089495
68	0x3b1b61b4	0.0023709359
69	0xbc3ca42c	-0.011513751
70	0x3c3f24e2	0.011666508
71	0x3a2b0c18	0.00065249344
72	0xbda0aa44	-0.078449756
73	0xbcf2085d	-0.029545004
74	0xbcc4959e	-0.023997124
75	0xbd6ed486	-0.058308147
76	0xb9a82a62	-0.00032075035
77	0xbc356467	-0.011071301
78	0x3ca85230	0.020547003
79	0x3bbe4460	0.005806491
80	0xbcc5dd72	-0.024153445
81	0x3be4c347	0.0069812867
82	0xbd16ac4c	-0.03678541
83	0x3cc586ff	0.024112223
84	0xbc14846d	-0.009064776
85	0xbb9435c4	-0.004523011
86	0x3ca373ef	0.019952742
87	0xbd912631	-0.070873626
88	0xbd39f984	-0.045403972
89	0xbd717f56	-0.058959328
90	0xbc7a9f7e	-0.015296815
91	0xbc675bc4	-0.014121
92	0xbd2286fb	-0.03967951
93	0xbdc5b5f2	-0.09653844
94	0xbcdbcdeb	-0.026831588
95	0xbc336ea7	-0.010951675
96	0x3c549b01	0.012976409
97	0x3d0f88da	0.03504262
98	0x3c840e2d	0.01612004
99	0x3d0ae9d7	0.033914413
100	0x3c653723	0.013990196
101	0xbd3f4c98	-0.046703905
102	0x3c9db474	0.019251086
103	0x3c31158d	0.010808361
104	0xbd19fcf5	-0.037594754
105	0xbb19059d	-0.0023349293
106	0x3d14b133	0.036301803
107	0xbc3907c7	-0.011293358
108	0x3cc507cc	0.02405157
109	0xbc434ce2	-0.011920186
110	0x3cb47d5c	0.022032432
111	0x3c88f842	0.016719941
112	0x3c60c3f9	0.0137185985
113	0x3c2e00a8	0.010620274
114	0xbca480f1	-0.020081015
115	0x3c9ca917	0.019123597
116	0x3c9f780e	0.019466426
117	0xbd51e57d	-0.051244248
118	0x3b3c2f66	0.0028714775
119	0xbb354700	-0.0027660728
120	0xbda01505	-0.07816509
121	0x3bf48f3f	0.0074633653
122	0x3c28e3bc	0.010308202
123	0x3bffeca3	0.0078101917
124	0xbc939b17	-0.018018289
125	0x3c627f04	0.013824228
126	0x3cec648a	0.028856535
127	0xbba4771d	-0.005019082
128	0x3c23ff94	0.010009665
129	0x3c9262c2	0.017869357
130	0x3ac33626	0.0014893457
131	0x3ca1385e	0.019680198
132	0xbb9e8e26	-0.0048387228
133	0xbc603b91	-0.013686077
134	0x3d1a8296	0.037722193
135	0x3bae3110	0.0053159073
136	0x3cb20bc0	0.021734118
137	0x3d46095d	0.048348773
138	0xbc26f6c6	-0.010190671
139	0x3cd37691	0.025813373
140	0xbb38f9b4	-0.0028225007
141	0x3c12ce2b	0.008960287
142	0x3aeda517	0.0018130866
143	0xbc415070	-0.011798963
144	0x3cea161a	0.028574992
145	0xbb47cec1	-0.0030488225
146	0xbb8e3e31	-0.00434091
147	0x3c262fe4	0.010143254
148	0x3c4352cb	0.011921595
149	0x3d0ad8ba	0.033898093
150	0x3bed16d5	0.007235388
151	0xbc006b41	-0.007838071
152	0x3a9bf8c6	0.0011899702
153	0x3cd1f443	0.025629168
154	0x3ba26bb9	0.004956689
155	0x3c96a482	0.01838899
156	0x3cdf7875	0.027279118
157	0xbcacf76c	-0.021114074
158	0xbba33ada	-0.004981381
159	0xbc1a399e	-0.009413151
160	0x3cd4c7c2	0.025974158
161	0x3d55d97c	0.052209362
162	0x38b76731	8.745341e-05
163	0x3cb562e0	0.022141874
164	0x3ca6d338	0.020364389
165	0xb92acc4d	-0.00016288571
166	0x3ba5b691	0.005057164
167	0x3c8d4f0e	0.01724961
168	0xbbc97179	-0.00614756
169	0x3c688ad9	0.01419326
170	0x3c0ad86e	0.008474452
171	0x3a10dcfa	0.0005526092
172	0x3c78b2ab	0.0151793165
173	0xbcde1bb9	-0.027112829
174	0x3c96a6b2	0.018390033
175	0x3b6c0b4a	0.003601747
176	0x3c9f5ef5	0.019454459
177	0x3ca0b30b	0.019616624
178	0x3d243f60	0.0400995
179	0xbd525c48	-0.051357538
180	0x3cc214aa	0.023691494
181	0xbc9bacca	-0.01900329
182	0xbaf4503c	-0.0018639634
183	0x3c286039	0.0102768475
184	0x3ba045de	0.0048911413
185	0x3d02a82a	0.031898655
186	0x3ba13f90	0.0049209073
187	0x3c2e1379	0.01062476
188	0x3c2cf554	0.010556538
189	0xbbb0bdcf	-0.0053937207
190	0x3d59ac1e	0.05314266
191	0x3c9267c4	0.017871745
192	0xbd1ab126	-0.0377666
193	0x3b8a4578	0.004219707
194	0x3aed95c8	0.0018126303
195	0x3d38a7f0	0.045082033
196	0xbc701160	-0.01465258
197	0x3b10b14b	0.002207833
198	0x3c5ece3e	0.013598977
199	0x3c0ec9d4	0.008715112
200	0x3d167ed6	0.036742054
201	0xbc2c81ae	-0.010528965
202	0x3d027788	0.031852275
203	0x3d4c4cc8	0.04987791
204	0x3c43a472	0.011941062
205	0x3ce90149	0.028442996
206	0x3c4bca8a	0.012438426
207	0xbc84cf89	-0.016212242
208	0x3c80e818	0.01573567
209	0xbbec0f13	-0.0072039454
210	0x3b86565f	0.0040996517
211	0xbc21182e	-0.009832425
212	0x3cd07e83	0.02545095
213	0xba808dba	-0.0009807863
214	0x3c8230db	0.015892437
215	0x3d06eb22	0.032939084
216	0x38c2bc32	9.285695e-05
217	0x3c811795	0.015758315
218	0x3d3418d0	0.043968976
219	0x3d1116ec	0.03542225
220	0x3c27e9c1	0.010248602
221	0x3d6a6158	0.05722174
222	0x3cc49046	0.023994576
223	0xbb95a620	-0.004566923
224	0x3cd56323	0.026048249
225	0x3b8a955e	0.0042292317
226	0x3c2574bd	0.010098633
227	0x3ce2481f	0.02762228
228	0xbb8a562e	-0.004221699
229	0x3d36633c	0.04452823
230	0x3c2e7839	0.0106487805
231	0x3b573a4f	0.003284115
232	0x3cff7c98	0.03118734
233	0x3b6d5f23	0.0036220036
234	0x3a7cf8e3	0.0009650124
235	0x3c510d8c	0.0127595775
236	0x3cd0c8d7	0.025486393
237	0x3b1fbb9d	0.00243733
238	0xbbac4036	-0.005256678
239	0x3ba5bf6e	0.0050582206
240	0x3cc61a51	0.02418247
241	0x3ce35552	0.027750645
242	0x3c833e22	0.016020838
243	0x3c0b1bc2	0.008490505
244	0x3c573777	0.013135782
245	0x3d12be9d	0.035826314
246	0x3c2e5d53	0.010642367
247	0x3c708d5f	0.014682143
248	0x3ca8ef50	0.020621926
249	0xbc942f91	-0.018089088
250	0x3c1a971a	0.0094354395
251	0x3cdc07cb	0.026859185
252	0x3c245222	0.010029348
253	0x3c10881f	0.008821516
254	0xbcc2d514	-0.023783244
255	0x3c3da6a0	0.011575371

action_model._discrete_distribution.branches.1.bias f4 [3]
0	0xbb9a2a51	-0.0047047515
1	0x3b762ae0	0.0037562177
2	0x3ab1baa2	0.0013559649

exp_avg f4 [128, 66]
0	0x39b2755f	0.00034038254
1	0x38be9c2c	9.088995e-05
2	0xb5e2e850	-1.6905924e-06
3	0x395df31c	0.00021166768
4	0xb47b0e6b	-2.3381442e-07
5	0x389f6a80	7.601548e-05
6	0x3a069653	0.00051340944
7	0x388aa6a2	6.6113906e-05
8	0x358d9634	1.0549034e-06
9	0x386f2abf	5.702185e-05
10	0x380ac23e	3.3082666e-05
11	0x38c583b6	9.418225e-05
12	0x39fe3e08	0.00048492872
13	0xb8be5408	-9.075558e-05
14	0xb679c5eb	-3.7219095e-06
15	0x3925a792	0.00015798051
16	0xb62bc2af	-2.5594306e-06
17	0x38dd6322	0.00010556566
18	0x3a4ece10	0.0007888982
19	0xb8fbe0c6	-0.0001201048
20	0x36061c8c	1.9984172e-06
21	0x36ccb120	6.100294e-06
22	0x3839d504	4.4305823e-05
23	0x3976f7b7	0.00023552669
24	0x39eddc70	0.000453684
25	0xb8cb2235	-9.686166e-05
26	0xb58b2e22	-1.0369733e-06
27	0x390c0e89	0.00013356855
28	0x379a7b0a	1.8415525e-05
29	0x38bfd150	9.146577e-05
30	0x3a45e058	0.00075483834
31	0xb9483376	-0.00019092657
32	0x34c7f2fd	3.7243436e-07
33	0xb76be941	-1.40614e-05
34	0x388b239c	6.634669e-05
35	0x399360d8	0.0002811018
36	0x39d69416	0.00040927593
37	0xb915292b	-0.00014225084
38	0xb67b23fe	-3.7422865e-06
39	0x391d5092	0.00015002702
40	0x35a750e6	1.2466014e-06
41	0x387b6d56	5.994489e-05
42	0x3a30be11	0.0006742189
43	0xb9420154	-0.00018501777
44	0xb352a33a	-4.904289e-08
45	0xb5080ecc	-5.068548e-07
46	0x36f91907	7.423692e-06
47	0x395b2ae8	0.00020901451
48	0x39bb2467	0.0003569454
49	0xb90fce1f	-0.00013714329
50	0xb6244159	-2.4475942e-06
51	0x391137c8	0.00013849058
52	0x35f13341	1.7970816e-06
53	0x37fd56e9	3.0200421e-05
54	0x39f56598	0.00046805735
55	0xb8ab5a9e	-8.170794e-05
56	0xb4816346	-2.4100353e-07
57	0x369bd811	4.6445134e-06
58	0xb66bb666	-3.5123899e-06
59	0x38cff84d	9.916779e-05
60	0x39abfaa4	0.00032802403
61	0xb8eafe70	-0.00011205382
62	0xb562b664	-8.4456974e-07
63	0x3921275c	0.00015368819
64	0xb64ddf65	-3.0677413e-06
65	0x3789e4a7	1.6438147e-05
66	0xb98b5535	-0.0002657563
67	0xb86b92a5	-5.616494e-05
68	0x3583bbfa	9.814969e-07
69	0xb8253f65	-3.9398106e-05
70	0xb694b0c0	-4.43132e-06
71	0xb8969930	-7.181091e-05
72	0xb99a0b02	-0.0002938137
73	0xb86e0661	-5.6749563e-05
74	0xb511553f	-5.414076e-07
75	0xb6646170	-3.4031364e-06
76	0xb7bcc3bc	-2.2502492e-05
77	0xb81cac54	-3.735379e-05
78	0xb9a1896b	-0.00030810697
79	0x37d595ce	2.5461337e-05
80	0x360b16f0	2.0725965e-06
81	0xb82d8483	-4.1369825e-05
82	0x36a0368f	4.774723e-06
83	0xb8b1064f	-8.441193e-05
84	0xb9d76326	-0.00041081867
85	0x37c61e59	2.3617571e-05
86	0xb5ae2ad6	-1.2976477e-06
87	0xb64dfe38	-3.0695355e-06
88	0xb7b9c267	-2.2144244e-05
89	0xb90550d0	-0.00012713973
90	0xb9a388dc	-0.0003119175
91	0x38099ebe	3.2811186e-05
92	0x353e8af4	7.098272e-07
93	0xb801f9de	-3.0988704e-05
94	0xb6bb1e9b	-5.5765972e-06
95	0xb8bb17c3	-8.921281e-05
96	0xb9d368b8	-0.00040323078
97	0x389ac6d2	7.3803254e-05
98	0xb52c06ee	-6.4085077e-07
99	0x377def47	1.5135686e-05
100	0xb80ddc2c	-3.382207e-05
101	0xb9319edb	-0.00016939214
102	0xb97b0cb1	-0.00023941953
103	0x378389a3	1.5680509e-05
104	0x3601fca0	1.9369545e-06
105	0xb82a90c6	-4.066599e-05
106	0xb28fccdf	-1.6740556e-08
107	0xb874ad84	-5.8335732e-05
108	0xb9c31c90	-0.0003721458
109	0x38968d15	7.178836e-05
110	0xb4fcbc3b	-4.7075613e-07
111	0x36eef125	7.1210256e-06
112	0xb6e4e5c9	-6.82168e-06
113	0xb90e9c9b	-0.00013600515
114	0xb97488c9	-0.0002332061
115	0x380c452c	3.3443022e-05
116	0x35b0e74d	1.3180339e-06
117	0xb8107099	-3.443714e-05
118	0xb62e0d3a	-2.593572e-06
119	0xb81c7e02	-3.7310652e-05
120	0xb98d6acd	-0.00026973189
121	0x380c2e17	3.3421526e-05
122	0xb47f0e2b	-2.375388e-07
123	0xb6438cde	-2.913926e-06
124	0xb59d51f8	-1.1721268e-06
125	0xb8a87648	-8.032896e-05
126	0xb96a505a	-0.00022345912
127	0x37af66e7	2.0909543e-05
128	0x3507d6af	5.0603825e-07
129	0xb84a25d0	-4.819577e-05
130	0x351d67dc	5.8638193e-07
131	0xb8143c37	-3.534203e-05
132	0x38bb8b91	8.942851e-05
133	0x398458f5	0.0002524328
134	0xb58b2441	-1.0366858e-06
135	0x38fa3f84	0.0001193276
136	0xb6c2269c	-5.7861453e-06
137	0x3813e541	3.526104e-05
138	0x3965b1c5	0.00021905366
139	0x3980e3b9	0.0002458373
140	0x367b19c3	3.741691e-06
141	0x36fafd7a	7.480089e-06
142	0x37cc3f9c	2.4348315e-05
143	0x38f56c7d	0.00011702718
144	0x3962b11e	0.00021619021
145	0x38fc3b0a	0.00012027293
146	0xb61ec8a4	-2.3660623e-06
147	0x38242bdf	3.9141505e-05
148	0x3797eac1	1.8109919e-05
149	0x38af5e89	8.362259e-05
150	0x39b3da6a	0.00034304272
151	0x391e0957	0.00015071534
152	0x36566724	3.194852e-06
153	0x357990df	9.2970544e-07
154	0x383b3029	4.4629127e-05
155	0x39454269	0.00018812124
156	0x39a8dd7f	0.00032208484
157	0x385e4f9b	5.3003063e-05
158	0xb608ceea	-2.038602e-06
159	0x38a47697	7.8422185e-05
160	0xb790b151	-1.7248707e-05
161	0x37a8c4d6	2.011882e-05
162	0x39f1bdb2	0.00046108436
163	0xb8804b0d	-6.117495e-05
164	0xb47dcb6f	-2.363647e-07
165	0x375fca85	1.33389885e-05
166	0x387f7799	6.090812e-05
167	0x396d9dbb	0.0002266084
168	0x39a32406	0.00031116622
169	0xb82c4f24	-4.10817e-05
170	0xb65535e4	-3.1770842e-06
171	0x388933ae	6.542295e-05
172	0xb4a1e92a	-3.0158236e-07
173	0x36b47d06	5.3789727e-06
174	0x39c56fe8	0.00037658145
175	0xb6a46abc	-4.9000064e-06
176	0xb4c71256	-3.707998e-07
177	0x36bba51b	5.592255e-06
178	0x372a30ee	1.0144182e-05
179	0x3906e9bc	0.00012866309
180	0x398ccc48	0.00026855082
181	0xb7358787	-1.0819996e-05
182	0xb600a796	-1.9171034e-06
183	0x38a64d7b	7.929929e-05
184	0xb60559eb	-1.9870884e-06
185	0xb5fe0d02	-1.892826e-06
186	0x39d6e730	0.0004098951
187	0xb82d0378	-4.1249645e-05
188	0xb5998315	-1.1437538e-06
189	0x3682f5bd	3.9029096e-06
190	0xb796f3b5	-1.7994878e-05
191	0x384422a4	4.6762303e-05
192	0x39ad7aa0	0.00033088494
193	0xb7bad40c	-2.227167e-05
194	0xb599950d	-1.1442768e-06
195	0x3892cee5	7.0003596e-05
196	0xb4bb28b3	-3.4861077e-07
197	0x36ea1c01	6.9770035e-06
198	0xb9902add	-0.00027497756
199	0xb840fd7a	-4.6012436e-05
200	0x3549d8f5	7.519405e-07
201	0xb8041d77	-3.1498694e-05
202	0xb77d31b5	-1.5091548e-05
203	0xb8a9ce87	-8.097017e-05
204	0xb99dc3c8	-0.00030091242
205	0xb83820a4	-4.3899418e-05
206	0x350c0bd7	5.2171293e-07
207	0xb6ed6c1d	-7.0757364e-06
208	0xb7885f32	-1.6256792e-05
209	0xb7e545e6	-2.7331476e-05
210	0xb999f6a0	-0.00029366184
211	0x3702e37d	7.80157e-06
212	0x35968a6e	1.1216159e-06
213	0xb86e27da	-5.6780736e-05
214	0x371978dd	9.147651e-06
215	0xb8afb7a2	-8.3788545e-05
216	0xb9d516e3	-0.00040643578
217	0x3830b94a	4.2134234e-05
218	0xb53eef0a	-7.1128363e-07
219	0xb7851e44	-1.5868929e-05
220	0xb78fcafa	-1.7141447e-05
221	0xb8e84b48	-0.00011076644
222	0xb986d69b	-0.00025718365
223	0x35b4b92d	1.3464938e-06
224	0xb49b0954	-2.8877787e-07
225	0xb7c377a7	-2.3301529e-05
226	0xb795fb42	-1.7879185e-05
227	0xb8f1812e	-0.00011515837
228	0xb9bdd444	-0.0003620704
229	0x381a6780	3.6812853e-05
230	0xb50e557a	-5.3023507e-07
231	0x37467c6b	1.1830688e-05
232	0xb7d971a0	-2.5921327e-05
233	0xb91e9f04	-0.00015127292
234	0xb95e0fc2	-0.0002117744
235	0xb803b98d	-3.140564e-05
236	0x353a4480	6.939008e-07
237	0xb81c1423	-3.7212052e-05
238	0xb3837ddf	-6.123059e-08
239	0xb8b349c1	-8.549123e-05
240	0xb9b8d8a9	-0.0003525664
241	0x3851e172	5.0039445e-05
242	0xb4a41b43	-3.0567216e-07
243	0x35c4fef5	1.467734e-06
244	0xb6031ef1	-1.9538531e-06
245	0xb90b7312	-0.0001329894
246	0xb96dcf53	-0.00022679316
247	0x376cc7a1	1.4113176e-05
248	0x3541e41f	7.223006e-07
249	0xb80f4416	-3.4157267e-05
250	0xb6530b14	-3.1447898e-06
251	0xb85b93bd	-5.235126e-05
252	0xb974043b	-0.0002327123
253	0x36369434	2.720638e-06
254	0xb43a6002	-1.7357527e-07
255	0xb719084c	-9.121442e-06

exp_avg_sq f4 [128, 66]
0	0x3635aff5	2.7073522e-06
1	0x3542fde5	7.2640097e-07
2	0x346b54c2	2.1916915e-07
3	0x35481b67	7.454568e-07
4	0x328d13cd	1.6423565e-08
5	0x34fcf309	4.711549e-07
6	0x36445a0e	2.9258695e-06
7	0x35111873	5.405229e-07
8	0x342459a5	1.5306303e-07
9	0x353c5da0	7.01717e-07
10	0x329b027d	1.8045506e-08
11	0x34f1ac11	4.5014943e-07
12	0x3645a7fe	2.9453072e-06
13	0x351ffdad	5.960126e-07
14	0x3481bc81	2.4165277e-07
15	0x3521558c	6.010166e-07
16	0x32bbb6ca	2.1852788e-08
17	0x34ff3a18	4.753972e-07
18	0x36657915	3.4194138e-06
19	0x34dfb9c8	4.167216e-07
20	0x33fd0782	1.1782596e-07
21	0x34de2ee2	4.1384834e-07
22	0x3327527c	3.8957737e-08
23	0x34f144c0	4.493977e-07
24	0x3660c587	3.3493577e-06
25	0x34eafbee	4.37692e-07
26	0x34790e6e	2.3195182e-07
27	0x3503ab61	4.905069e-07
28	0x3262cc20	1.3201344e-08
29	0x34dbfa8e	4.097423e-07
30	0x366f5d4c	3.5668081e-06
31	0x34e2eea8	4.2269426e-07
32	0x33d6782d	9.9870114e-08
33	0x34d3ca2a	3.9448906e-07
34	0x321b7c87	9.050502e-09
35	0x34b7b2ff	3.4216643e-07
36	0x36713ce8	3.594725e-06
37	0x349ca619	2.9178116e-07
38	0x348f0661	2.6640467e-07
39	0x34ff35ea	4.753668e-07
40	0x31b691ee	5.3134874e-09
41	0x34c7c1c1	3.7207613e-07
42	0x36807e6a	3.829414e-06
43	0x34e6c716	4.2985693e-07
44	0x33800d4c	5.962883e-08
45	0x34a87d04	3.13834e-07
46	0x31943a35	4.3139843e-09
47	0x349f2964	2.9646174e-07
48	0x36808180	3.829773e-06
49	0x349e50d3	2.94886e-07
50	0x349eee8a	2.9603353e-07
51	0x34c9691a	3.751564e-07
52	0x3204b74b	7.725087e-09
53	0x34bcd706	3.517418e-07
54	0x36888ecd	4.06974e-06
55	0x34e1077f	4.191497e-07
56	0x33ce1c64	9.597787e-08
57	0x3477fd2c	2.3095771e-07
58	0x32128fc4	8.531007e-09
59	0x3492ada6	2.7320965e-07
60	0x3681bebb	3.8667035e-06
61	0x348eba74	2.6585224e-07
62	0x34a166f8	3.0063507e-07
63	0x34c42a44	3.6538597e-07
64	0x309a49be	1.1225934e-09
65	0x34a8b7cc	3.1426168e-07
66	0x357ef833	9.498355e-07
67	0x34c9d87b	3.7596678e-07
68	0x336a592d	5.4563476e-08
69	0x3436a311	1.7009394e-07
70	0x3167b0a8	3.3715342e-09
71	0x343b2ff8	1.7433183e-07
72	0x3594e08e	1.1092213e-06
73	0x347315ed	2.2639115e-07
74	0x333479e1	4.2020364e-08
75	0x34252666	1.5380792e-07
76	0x31ee32ba	6.9324786e-09
77	0x3444cbe1	1.8328093e-07
78	0x3586a6d6	1.0032334e-06
79	0x34c2dbc1	3.6295208e-07
80	0x33873d01	6.297524e-08
81	0x3402a2d8	1.2166436e-07
82	0x3206e217	7.851233e-09
83	0x343c34e1	1.7528102e-07
84	0x35ae8adf	1.3004427e-06
85	0x3410f61d	1.350058e-07
86	0x3313feef	3.4457965e-08
87	0x33910f2b	6.754848e-08
88	0x322f502f	1.0204572e-08
89	0x34339a83	1.6726885e-07
90	0x359b3808	1.1564707e-06
91	0x348f315f	2.6671748e-07
92	0x338ea23c	6.6419005e-08
93	0x33af55a1	8.164648e-08
94	0x32228471	9.459755e-09
95	0x343171ad	1.6525765e-07
96	0x35b6cc8d	1.3619589e-06
97	0x33e4d10c	1.0655103e-07
98	0x330688e3	3.1323804e-08
99	0x3387823e	6.310118e-08
100	0x30e5512b	1.6685012e-09
101	0x340af5f6	1.2941732e-07
102	0x35b368e8	1.3367071e-06
103	0x34254cb4	1.5394727e-07
104	0x3398a279	7.107605e-08
105	0x337d4354	5.8967387e-08
106	0x316f3e46	3.4814476e-09
107	0x341ce5d8	1.4612249e-07
108	0x35be7fde	1.4193317e-06
109	0x33ea1dd4	1.09019e-07
110	0x32c33af5	2.2727798e-08
111	0x3371d953	5.630984e-08
112	0x30c92050	1.4633859e-09
113	0x33ee85cb	1.11070754e-07
114	0x35bfe72e	1.4297891e-06
115	0x33ca4aab	9.41994e-08
116	0x33a4fd4e	7.682921e-08
117	0x3363423f	5.2912807e-08
118	0x318217ad	3.7861896e-09
119	0x3411efe2	1.3591446e-07
120	0x35c494f0	1.4646484e-06
121	0x33f088a3	1.1200725e-07
122	0x33329bed	4.158567e-08
123	0x3347127a	4.6350102e-08
124	0x31485b04	2.9155567e-09
125	0x33d4c2a5	9.907425e-08
126	0x35c10794	1.4381826e-06
127	0x33ab48e1	7.9760646e-08
128	0x33a2ff64	7.590168e-08
129	0x33891479	6.3832836e-08
130	0x300219d0	4.7330406e-10
131	0x34051819	1.2395357e-07
132	0x35bf3796	1.4246787e-06
133	0x355eeb39	8.304374e-07
134	0x34569464	1.9984287e-07
135	0x34b23e4c	3.320041e-07
136	0x3139337b	2.6950306e-09
137	0x34a09abe	2.9914912e-07
138	0x35c567cb	1.4707852e-06
139	0x355a2b42	8.1274277e-07
140	0x34352f99	1.6874255e-07
141	0x34a7ce19	3.125613e-07
142	0x3299f19e	1.7921419e-08
143	0x34a62153	3.0944156e-07
144	0x360b3513	2.0743507e-06
145	0x34d04bfc	3.8798305e-07
146	0x343008ed	1.6394524e-07
147	0x3476b703	2.2977115e-07
148	0x31cd4f51	5.9753025e-09
149	0x349641d0	2.7987562e-07
150	0x35f78387	1.8441214e-06
151	0x35229a0b	6.0573865e-07
152	0x34286cfe	1.568587e-07
153	0x34115fd0	1.3539034e-07
154	0x33592673	5.055922e-08
155	0x34b477b4	3.3614708e-07
156	0x361ce87b	2.3381133e-06
157	0x3486fca7	2.5143274e-07
158	0x34309d1e	1.6448436e-07
159	0x34552830	1.9851791e-07
160	0x3129af7f	2.4692495e-09
161	0x34613bc8	2.0976506e-07
162	0x360ed75c	2.1285005e-06
163	0x350be737	5.2117997e-07
164	0x33e813af	1.0806922e-07
165	0x34063908	1.250047e-07
166	0x328bebaf	1.6288906e-08
167	0x3497f06e	2.8300877e-07
168	0x362e08ad	2.593307e-06
169	0x33deb1dd	1.0370034e-07
170	0x3425e8a1	1.5451452e-07
171	0x342e4a0f	1.6231955e-07
172	0x30ae1db0	1.2668604e-09
173	0x345ec4d3	2.0746965e-07
174	0x361ffcee	2.384007e-06
175	0x34ed9e64	4.4259934e-07
176	0x3380d3ae	5.998969e-08
177	0x33b3f1f7	8.37935e-08
178	0x31fe478c	7.400507e-09
179	0x34831005	2.4412307e-07
180	0x36363c38	2.7155165e-06
181	0x3413e4c8	1.3773672e-07
182	0x342c4e16	1.6047156e-07
183	0x341893c8	1.4209866e-07
184	0x30c45bf1	1.4287008e-09
185	0x34617514	2.099735e-07
186	0x36246685	2.4497579e-06
187	0x34f45c22	4.5515577e-07
188	0x340c091d	1.3041831e-07
189	0x339d8050	7.334222e-08
190	0x31ea2778	6.8147834e-09
191	0x345fd02d	2.0844227e-07
192	0x3635e3fd	2.7103808e-06
193	0x341c7e6b	1.4574623e-07
194	0x34397236	1.7271017e-07
195	0x341a187a	1.4351272e-07
196	0x2f8c8f1f	2.5567545e-10
197	0x34576c86	2.0062916e-07
198	0x355a92cb	8.142494e-07
199	0x34b13d0e	3.3013242e-07
200	0x32eb0fc8	2.7364777e-08
201	0x34602ce6	2.087796e-07
202	0x321a87fc	8.994899e-09
203	0x34308d3c	1.6442658e-07
204	0x35837334	9.793789e-07
205	0x34274b76	1.558054e-07
206	0x330c1aef	3.2620786e-08
207	0x3459bf3f	2.0279275e-07
208	0x3195d3ca	4.3605484e-09
209	0x342ced88	1.6105162e-07
210	0x35673d67	8.614356e-07
211	0x34bddc23	3.5364164e-07
212	0x3302514f	3.0341933e-08
213	0x340dc34c	1.3202697e-07
214	0x3234f7ef	1.05337525e-08
215	0x343cb249	1.7573724e-07
216	0x359d2dc4	1.1710731e-06
217	0x33893133	6.388509e-08
218	0x32e6c8d4	2.686685e-08
219	0x340c4a25	1.306549e-07
220	0x318e66bd	4.144424e-09
221	0x3418ec3a	1.4242042e-07
222	0x358a18b8	1.0288995e-06
223	0x34887d89	2.5423313e-07
224	0x32d04834	2.4247221e-08
225	0x339b5c31	7.2345195e-08
226	0x325c47d1	1.2822015e-08
227	0x343e7d17	1.7740636e-07
228	0x35a44a39	1.2240554e-06
229	0x3312dc85	3.4193835e-08
230	0x32b34829	2.0871157e-08
231	0x34037737	1.2243696e-07
232	0x30b86cc3	1.3418674e-09
233	0x33f09b59	1.12041285e-07
234	0x359d1754	1.1704201e-06
235	0x3417b750	1.412966e-07
236	0x32d8b460	2.5227735e-08
237	0x33cd259e	9.552899e-08
238	0x3199b52c	4.473483e-09
239	0x3421159a	1.5002152e-07
240	0x35a931df	1.2605996e-06
241	0x334c22c1	4.752906e-08
242	0x323d19c5	1.1007107e-08
243	0x33f87773	1.15701276e-07
244	0x302aa044	6.207339e-10
245	0x33c29773	9.0613774e-08
246	0x35a5ab49	1.2343309e-06
247	0x33c16333	9.005307e-08
248	0x331fdea6	3.722257e-08
249	0x33e34f04	1.0584884e-07
250	0x3182fb22	3.8120485e-09
251	0x3404273f	1.2307736e-07
252	0x35abad9c	1.279102e-06
253	0x33876535	6.304837e-08
254	0x32b2baa3	2.08068e-08
255	0x33dc453a	1.02571406e-07
