results/TestDifferentGoalCurveReward/MoveToGoal/MoveToGoal-999951.onnx (onnx, 100836 bytes, 9 tensors)

action_model._discrete_distribution.branches.0.bias f4 [3]
00000000: ce3c e43c c718 d6bc f083 3cbb
0.027861025 -0.026134862 -0.0028765164

action_model._discrete_distribution.branches.0.weight f4 [3, 128]
00000000: cc79 80bb 3e49 a7bc 6b78 193c 0770 eb3c
00000010: e778 6c3d 6efb d0bc 2904 04bd 0abb 673d
00000020: 5044 453d 1cd3 3a3d 32f0 51bd 9358 a03d
00000030: a845 f0bc c944 043d a41f 32bd 1142 50bd
00000040: f614 093d fee8 c23c 26fd 85bd f5b9 873d
00000050: df61 703d 8db0 09bd 8811 1c3c 4226 7c3b
00000060: 15de 8cbd 944d 653d 035e 113d d016 14bd
00000070: a2c9 0abd 91bc 51bd 8731 e73c e693 92bc
00000080: 3c9c ecbc 1adc 14bd c44a 8ebd 3fbb f0bc
00000090: 6145 3e3d 1548 81bc 770e 593b a6db c13b
000000a0: 28e0 e93c 499d b0bc b0b8 753d 0ee9 af3c
000000b0: 8a10 563d 1cc6 c7bd 4ad9 4d3d b18e 46bd
000000c0: 49c6 08bd 37cd 40bd f22b 913d 2d25 003d
000000d0: c3c7 1dbd 8d41 603c cd45 4a3d 759e 0bbd
000000e0: 0633 ddbc a82d 233d e7b4 ac3d ce6c 3f3d
000000f0: 9b91 76bd f3f6 9e3c 8515 52bd 9004 aa3a
00000100: 9f7f 303d b8cc 5a3d f80a 4f3d 23f9 c2bc
00000110: e81f 10bd 7785 52bd 9edd 27bb f79a 69bd
00000120: 7f58 9d3d 1b8e 2d3c 5634 c1bc ef7b 0dbd
00000130: 17c9 fc3c 47ae 7a3d d55f 58bd 7c07 b63c
00000140: e01a 713d c4f6 c2bc b897 753d afd3 233c
00000150: 37e1 f03c e453 d7bc 711d 6cbc 5352 9bbc
00000160: 8cd7 253d eb5e 9dbd ee03 613b e769 dbbc
00000170: 8430 49bc b4ad 2f3d 8b10 893c 5b09 8dbd
00000180: 00ed a13c 2ceb 863d e918 863c c67c af3b
00000190: e617 3b3d 4fc3 3bbd ea2b f03b 7692 633d
000001a0: 4831 c93a 4909 c3bc 2ffd 03bd a00c 9f3d
000001b0: 4540 3a3d 2df7 c63c 1c5e 39bd b864 d13c
000001c0: 374f aa3c 9189 e4bb 49d7 1ebd fe35 4cbc
000001d0: 508c 95bc b720 0b3d 0580 f3bb 8af3 da3b
000001e0: dacb 50bc 525b 4fbc 3e10 fabb c2d5 b0bd
000001f0: d39e 36bd 44c7 253d 8a39 433c c616 27bb
00000200: 959e eb3b 9fcd 80bd ddca 723d ef2b 9cbd
00000210: c167 16bd 9b7f ae3d b1d9 be3d 29c8 a1bc
00000220: f3dd b5bd 0d31 6f3d e489 f4bc bfa7 64bd
00000230: 2a79 91bd 18bd eebd 207d 8abc c027 06bd
00000240: 6a15 a43c d590 203d bbd5 ddbb 8d67 41bd
00000250: 3569 39bd 12d3 b73d 8e52 8c3d 5a1d 7ebc
00000260: 7150 e63d 9d6a 0c3d 5e04 51bd 53e6 0d3d
00000270: 4c48 ae3d 1bd7 e83d 9197 ecbd 302f 97bd
00000280: e073 323c 2779 f43c 7654 bebc 7a06 9ebd
00000290: e50d 91bd a46e aa3d b406 87bd 46a9 b4bd
000002a0: 490a b1bd 6990 acbd ccab 943c 69df 403d
000002b0: 7d89 38bd eb9e a83d 19de 87bd b012 3a3d
000002c0: 2283 8a3c e78e 193d 15c2 45bd 8075 a6bd
000002d0: ec3e a4bc 4293 463d 0d18 aabd fc24 473d
000002e0: ce6c 9dbd e2aa 2f3d 1092 bcbd 7af2 36bd
000002f0: 77be b83d 2eab 85bd c6c6 36bd 2e27 133d
00000300: 4345 9cbd 649f ef39 c325 f03b 650e 0a3d
00000310: 17f9 2d3d 759d ad3b b01a 733d cd2b 933d
00000320: c48c 88bd c828 1cbd 4340 d13d 0c47 b13c
00000330: 0134 7dbd ebdc 73bd 66a4 e0bc 4477 48bd
00000340: 96c8 95bd fc85 a03d 677c a5bd 2b4a 76bd
00000350: dd18 073a 639f 8a3d 8e3a 3dbd 7371 0e3a
00000360: 92d1 193d cdb1 8e3d dcd7 e3bd f50d 6d3c
00000370: 7b3e d6bd ca96 223d 2876 753d 930d faba
00000380: cf73 11bc 7e8f 6dbc 12f3 45bd 9f2c 5cbd
00000390: e939 7abb 9257 88bd 9a86 ccbd a2f2 eabb
000003a0: 49f6 9f3d 5cc0 63bd a092 07bd ac40 cdbb
000003b0: b60a c7bc b354 febd e9af 7abd b818 1cbd
000003c0: 7f07 8cbd d341 dabd bbb0 d23d 0fc3 c9bc
000003d0: 09d6 da3c 933d 243d e809 703d 955b f9bc
000003e0: dc39 2d3a a8af e23c b323 8e3d 869b 8d3d
000003f0: bb88 c23d 9241 b53c d08f 90bd ec05 f3bd
-0.0039207693 -0.020420667 0.009367089 0.028739942 0.05773249 -0.025510516 -0.03223053 0.05657486
0.04816085 0.045611486 -0.05125446 0.07829394 -0.02933009 0.03229216 -0.043487206 -0.050844256
0.033467256 0.02379274 -0.06542425 0.06627265 0.058687087 -0.033615638 0.009525664 0.0038474952
-0.06878296 0.055982187 0.035490047 -0.03615457 -0.0338837 -0.05120522 0.028221859 -0.01789279
-0.028883092 -0.036342718 -0.06947854 -0.02938616 0.046452884 -0.015781442 0.0033120194 0.0059160767
0.028549269 -0.021559374 0.059990585 0.021473434 0.052261867 -0.09754583 0.05025605 -0.048475925
-0.033392224 -0.047070708 0.0708846 0.031285454 -0.038520586 0.0136875035 0.049382973 -0.034086663
-0.027001869 0.039838463 0.08432942 0.046734624 -0.060197454 0.019404864 -0.051290054 0.001297133
0.04309046 0.05341789 0.05054757 -0.023800438 -0.03518668 -0.051396813 -0.0025614272 -0.05703255
0.07682895 0.010592963 -0.023584526 -0.03454202 0.030857606 0.06120136 -0.052825768 0.022220366
0.05886352 -0.023799308 0.059959143 0.0099992 0.029404266 -0.02628512 -0.014411316 -0.018960154
0.040488765 -0.0768412 0.0034334618 -0.026783897 -0.012279633 0.042890266 0.016731521 -0.0688655
0.01976633 0.06587824 0.0163693 0.0053554503 0.04567709 -0.045840558 0.0073294537 0.055559598
0.001534977 -0.023808138 -0.032223877 0.0776608 0.04547145 0.024287784 -0.045255765 0.025560722
0.020789726 -0.006974407 -0.03877953 -0.012464045 -0.018255383 0.033966746 -0.0074310326 0.006681864
-0.0127439145 -0.01265605 -0.0076313308 -0.08634521 -0.04458506 0.040473238 0.011915574 -0.0025495752
0.0071905353 -0.06289219 0.059275497 -0.07625567 -0.03672004 0.085204326 0.09318865 -0.019748764
-0.08880224 0.058396388 -0.029850908 -0.055824038 -0.07103188 -0.116571605 -0.016905367 -0.032752752
0.020029742 0.039200623 -0.0067698634 -0.047217894 -0.04526635 0.08975805 0.068516836 -0.015509928
0.11245812 0.03428136 -0.051029555 0.034643482 0.08509883 0.11369153 -0.115523465 -0.07382047
0.010891885 0.029842926 -0.023233633 -0.07716079 -0.07082728 0.08321884 -0.065930754 -0.08821349
-0.0864454 -0.084259816 0.018148325 0.04708806 -0.045052994 0.08233436 -0.06634159 0.045427978
0.016908232 0.037489798 -0.048280794 -0.0812788 -0.020049535 0.04848028 -0.083053686 0.048619255
-0.076867685 0.042887576 -0.09207547 -0.044664837 0.09020703 -0.065267906 -0.04462316 0.035926037
-0.07630398 0.00045704388 0.0073287203 0.033705134 0.04247388 0.0052983114 0.059351623 0.07186089
-0.06667474 -0.03812483 0.10217335 0.021640323 -0.061817173 -0.059536856 -0.027422141 -0.048941866
-0.07313649 0.078380555 -0.080803685 -0.060129326 0.0005153546 0.06768682 -0.04619842 0.00054337754
0.037553377 0.069675066 -0.11125156 0.01446866 -0.10461136 0.039694585 0.059927136 -0.0019077532
-0.008877709 -0.014499543 -0.048327513 -0.05375349 -0.003818149 -0.06657328 -0.09986611 -0.0071700374
0.07810647 -0.05560337 -0.033098817 -0.006263813 -0.0242971 -0.12418499 -0.061202917 -0.03810951
-0.06837367 -0.10657086 0.10287615 -0.024629144 0.026713388 0.040097784 0.058603197 -0.030439178
0.0006608048 0.02767165 0.06940403 0.06914429 0.094987355 0.022125993 -0.0705868 -0.11866364

action_model._discrete_distribution.branches.1.bias f4 [3]
00000000: a46e 6bb7 334a d23b a8f7 b0bb
-1.4032852e-05 0.0064175366 -0.0054006167

action_model._discrete_distribution.branches.1.weight f4 [3, 128]
00000000: e906 0cbc 5d11 e43a 04c1 9f3c ee97 7b3b
00000010: c57a 153d 9c7f 8eba 648a 9fbb 1aaf 363c
00000020: eb80 713c fdac ff3a 90cc 3a3b b8ff 24bc
00000030: 7556 1a3c cf4a db3c f09b bc3b 76c7 473c
00000040: e9f6 febb affe 9abc 03fb 813a 9f83 763c
00000050: 44ae b83c 6e05 e23c fad8 ce3b c017 4abc
00000060: 0fe2 adbb 1a23 c3bc d29b 7a3c f740 02bc
00000070: d64c f6bb 49fc a13c 067f a3b9 e5ad 50bc
00000080: 4de9 f43c bb5b 513c 56e1 9b3c 35e4 55b9
00000090: e245 1e3d 7347 d63b 028a 77bc 1bc2 4ebb
000000a0: e3f8 84bb 434a afbb 8b93 17bb fae2 a6bc
000000b0: 73e3 493c 3987 79bc e7d0 633c 1e0f 613b
000000c0: 7f0b 3dbb 1d58 233b 978e c33b c764 acbb
000000d0: 4368 dbbb 3ca3 25bc d4be e93c 9570 de3b
000000e0: ca39 c33b 83ad 7838 65f1 773c bec8 2eba
000000f0: 7feb 3ebd 6d38 ca3b 2026 c63c a30a a13a
00000100: a78c a33a b876 ad3c c51d aebc 21fe 203c
00000110: e073 4dbc dbdc 8f3c 05a3 6cbc 98fb a4bc
00000120: ea79 5cbc a490 2b3d 1465 7cbc cc4b 913c
00000130: 1a12 03bc 0b4d 913c 17b6 dd3c 0661 803b
00000140: 6ef4 9c3b 9bb9 4fbb 658f 8fbc 7794 d23c
00000150: ee77 553c b239 45bc 52f0 423c 5a2b a9bb
00000160: 57da 4eba c08e 7ebc 95d1 503c bd88 f23b
00000170: 3098 a33b 05d5 0ebc 6f47 b5b9 54e0 123d
00000180: dee2 79bb d2be be3c 3556 073b 5ab1 f13c
00000190: 942a c93b 3109 593c a1dd a93c d0e7 6a3b
000001a0: e546 83bc aaab db3b 08a5 4f3c 988a c2bb
000001b0: 1065 e13a 5ac5 393b 839a fa3c 5ad9 9a3c
000001c0: 9275 c93b 4d5f 2f3c c724 a8bc e49c 053c
000001d0: 6335 503c 694a c2b9 9295 f63b cda3 d53a
000001e0: a7dc 4f3c 0181 0c3b ca21 ad3c 9450 5c3c
000001f0: 9690 973c 16b3 ffbb 2932 953b 9434 f63c
00000200: eef4 00bc 6b1a 91bb 2e1e 993b 8103 21bb
00000210: 81a1 083a 372a c1bb 5b96 42bb 1979 703c
00000220: 3654 3b3b f898 3b3c 3b97 8c3c 48de cdbb
00000230: 756b 67bb b444 383b 6a1c 9c3c 5c28 79bc
00000240: fa4d 983c 6f93 973b 18fd 443c 12bb 9d3c
00000250: 1d47 e539 4cd5 bd3a e52f 9b3c c266 99bc
00000260: ed4a 0f3c 94a0 523c 3a92 dd3c f9c1 18bb
00000270: 73b1 593c db64 5d3c a081 3f3b 765e fe3a
00000280: c2af fc3c c46c aeb9 9cd0 523c 299b ccbc
00000290: ef89 cabc 3d53 cebb cb59 50bb 2cc8 0abb
000002a0: 804e 27bc b537 10bc 4569 2f3c c801 0b3c
000002b0: 3076 16bb 9b3d faba 4970 ba3a 59ff 623b
000002c0: 16f1 bfbb 9aca 1abc 4e27 2c3b d83e e2bb
000002d0: a7ea 923b f55b 7d3c 2226 1b39 359f 933b
000002e0: 052f 2b3c 9143 653c a039 ae3a 4af4 adbb
000002f0: 9d91 843c f983 243b da6f be3b 61a2 053d
00000300: 07b2 8f3b c4b8 2b38 03f8 14bc d9c3 c4bc
00000310: e62f a23b 66c3 f1bb 9a8e 823c cd6b 183c
00000320: 5178 40bc 92c2 9ebc 96bd 8bbc 80a5 ee3a
00000330: 0b49 8ebb 0620 9c3b 3dea 4cbc efd0 1abc
00000340: f307 0fbc dcdd 2b3b d945 64bc 8741 8bbc
00000350: 37d1 5d3c 981f dd3c 8544 0e3c 984d abbc
00000360: 5620 f1bb 31b5 023b 6753 2f3c 5fcd 7c3b
00000370: 06ca 893b 7547 283c 015e 26bc 9352 dc3b
00000380: 4f66 773a 8399 fabb eec9 83bb 104c acb9
00000390: c1bf 813a 1777 03bc 67e1 aeba 1d9a d4ba
000003a0: 1f96 473c a5b2 4abc 7a72 53bc 6c22 e9b9
000003b0: 3a4b 22bc c0f9 50bc 7274 ea3b 2ba7 a3bb
000003c0: 8546 72bc eaf2 99ba 7ede f1bb 0457 7bbb
000003d0: e591 a43b d2d9 623b f2f8 183d 8904 dfbb
000003e0: 5498 643c 9207 ff3b 4390 5e3c 566f 4e3c
000003f0: b761 2a3b 8c84 103b ad9b 863b f7e1 79bb
-0.008546569 0.0017400194 0.019501217 0.0038390118 0.036494035 -0.0010871771 -0.0048687924 0.011150146
0.014740209 0.001950651 0.0028503276 -0.010070734 0.009420027 0.02676907 0.005755894 0.012193551
-0.007780899 -0.01892027 0.0009916726 0.015046029 0.022544034 0.02759048 0.0063124867 -0.012334764
-0.0053064893 -0.023820449 0.0152959395 -0.007950059 -0.007516484 0.01977362 -0.00031184423 -0.012736772
0.029896403 0.012778218 0.019028347 -0.00020398277 0.038640864 0.006539279 -0.015108587 -0.0031548801
-0.00405799 -0.005349429 -0.0023128714 -0.020371903 0.0123222945 -0.0152299935 0.013904787 0.0034341286
-0.0028845964 0.0024924346 0.005967926 -0.005261037 -0.0066957786 -0.010109719 0.028533377 0.006788323
0.0059578167 5.9289403e-05 0.015133237 -0.0006667486 -0.046611305 0.0061712773 0.024188101 0.0012286495
0.0012477831 0.021174774 -0.02125443 0.009826214 -0.012539834 0.017561367 -0.014443164 -0.0201395
-0.013456801 0.041885987 -0.015404958 0.017736338 -0.007999921 0.017736932 0.027064366 0.003917816
0.0047898805 -0.0031696323 -0.01752443 0.02570556 0.013029082 -0.012037681 0.011898117 -0.0051626386
-0.00078908115 -0.015536964 0.012745281 0.0074015544 0.0049925074 -0.00871778 -0.00034576232 0.035858467
-0.0038129608 0.02328435 0.0020650749 0.029503513 0.006139109 0.01324682 0.020735564 0.0035843737
-0.016025016 0.0067038136 0.012673624 -0.005936932 0.0017196257 0.002834639 0.030591255 0.01890247
0.0061480487 0.010703874 -0.02052535 0.008155081 0.012708041 -0.00037058003 0.0075251544 0.0016299427
0.012686885 0.0021439197 0.021134276 0.013446946 0.018501561 -0.007803331 0.0045530987 0.030054368
-0.007870896 -0.004428198 0.004672787 -0.002456874 0.0005212054 -0.005894925 -0.002969167 0.014677309
0.002858413 0.011450045 0.017161956 -0.0062826015 -0.0035311852 0.0028117122 0.019056518 -0.015207376
0.01859187 0.0046257298 0.012023233 0.019254241 0.00043731267 0.0014483123 0.018943736 -0.018725757
0.008745891 0.012855668 0.027047265 -0.0023308976 0.013286936 0.013512815 0.002922155 0.0019406814
0.030845527 -0.00033268903 0.012867119 -0.02497633 -0.024723975 -0.006296544 -0.0031791802 -0.002117644
-0.010211587 -0.008802344 0.010706251 0.008484311 -0.0022958629 -0.0019091846 0.0014224137 0.0034637062
-0.005857597 -0.009447718 0.0026268545 -0.006904464 0.004483539 0.015463819 0.00014796157 0.004505063
0.010448222 0.01399316 0.001329232 -0.0053086625 0.016182715 0.0025103076 0.0058116736 0.03262556
0.004385236 4.0941653e-05 -0.009092334 -0.024019169 0.0049495576 -0.0073780296 0.015937138 0.009303045
-0.011747436 -0.019379888 -0.017058175 0.0018207282 -0.0043422035 0.0047645597 -0.012507019 -0.009449228
-0.008729923 0.0026224768 -0.013932669 -0.01699902 0.01353865 0.026992604 0.0086833285 -0.020911023
-0.007358591 0.0019944424 0.010701037 0.003857456 0.0042049913 0.010270943 -0.010154248 0.006723711
0.00094375474 -0.0076476946 -0.0040218746 -0.00032863067 0.0009899066 -0.008023999 -0.0013342322 -0.0016220246
0.012181788 -0.012371694 -0.012905711 -0.0004446687 -0.009905631 -0.012754858 0.0071549946 -0.004994293
-0.014787321 -0.0011745368 -0.0073812595 -0.0038351426 0.005022275 0.0034614694 0.037346788 -0.0068059606
0.0139523335 0.007782885 0.013584199 0.012599787 0.0025998184 0.002205166 0.0041079135 -0.003812907

discrete_action_output_shape f4 [1, 2]
00000000: 0000 4040 0000 4040
3.0 3.0

network_body._body_endoder.seq_layers.0.bias f4 [128]
00000000: c111 3f3d 45c0 afbc a5e9 93ba e185 28bc
00000010: 8119 123d 4b57 1e3c c49e b5bc 8891 c83c
00000020: 49cc a4bc 4cda e93c 1158 193d f7bb ae3c
00000030: 3f08 d73c eeb9 eabc 0dbf 573d e24c 03bd
00000040: e1fc 2b3d c036 f13b 654e 603d 9127 f93c
00000050: f6aa 97bc 735e 443d 7c69 4fbb c58f b63c
00000060: ddf5 b13c b39f 943d 7f6e 6a3d 836f 033d
00000070: 2019 c13c ef3b 543d 7fc5 18bc 1dbd 29bc
00000080: 435a 113d 9f7e c03c aabe 9d3c f368 0e3d
00000090: c4a2 923c 3b7d f83c cc44 adbc 67f8 923a
000000a0: d6f0 dc3c 4fe2 963c c82b b23c 72fc 5e3b
000000b0: 879b 233d 4457 393d 8198 553d d7ad c5bb
000000c0: 60b0 143d b7fe 103d 1b87 c83c ebd1 0abd
000000d0: 42df ecbc d547 d0bc ba8f e83b be4e 413b
000000e0: c7dc 663c 8a1d 8dba 4536 df3c a5d4 1abc
000000f0: 42f2 a53c c24d 493d 96b8 be3b 5b4c 1039
00000100: 9a0f fe3c e09a 23bb 43a9 d33c e1f8 053d
00000110: 89d5 62bc 0d14 65bd a0ae d83b 5473 de3b
00000120: 5625 6d3d 3ffb 43bd 0811 8c3c 8f6b 13bd
00000130: 18d9 b0bc 353c 603c daa9 fb3c 136c b43c
00000140: 526b 5c3d e1c2 083d d053 153d 719e 8bbc
00000150: 1035 3e3d 192f 753d f488 84bc 758e c33c
00000160: 5da8 c93b 200f a9bc 0a5c 72bd c829 083d
00000170: 1107 393d 2039 8c3b 219f 463b b609 093c
00000180: 50cb 253d 2ab2 43bd 2cd4 ba3b 8aa3 b8bb
00000190: 9cb1 083d daf1 b73b c41d fe3c 9283 253d
000001a0: 8de2 1c3d dca1 603d de60 f33b 9fec e53c
000001b0: a6ea 3c3c 356f 2e3d f2d9 f43c dc27 c83c
000001c0: 223f e73c 8e04 213b 2a2a 5f3c d396 0cbd
000001d0: fde4 e4bc 917c 9b3d 4b87 ad3c 526d 023d
000001e0: 2313 acbc 152d ce3c fc6e 273d 901c ad3c
000001f0: 606e c43c ee87 5f3c 204b 49bd e002 3c3d
0.04664779 -0.021453986 -0.0011284841 -0.0102858255 0.035668854 0.009664367 -0.022170432 0.024483457
-0.020116942 0.028546475 0.037437502 0.021329863 0.02624905 -0.028653111 0.052672435 -0.032055743
0.04198921 0.007361263 0.054762263 0.030414375 -0.018514138 0.047941636 -0.0031648567 0.022285352
0.021723682 0.07257023 0.057234284 0.032088768 0.02357155 0.05181497 -0.0093244305 -0.0103600295
0.03548647 0.023497878 0.019255955 0.034768056 0.017899878 0.030333152 -0.021150969 0.0011212946
0.026970308 0.01841846 0.021749392 0.003402498 0.039943244 0.04524924 0.052147392 -0.006032686
0.036301017 0.035399165 0.024478486 -0.0338916 -0.028915051 -0.025424877 0.0070972117 0.0029496397
0.014090723 -0.001076625 0.027247557 -0.0094501125 0.02025712 0.04914642 0.005820344 0.00013761355
0.031013299 -0.002496414 0.025837546 0.032708053 -0.013844856 -0.055927325 0.006612614 0.0067886505
0.057896934 -0.04784703 0.017097965 -0.035991248 -0.021587893 0.0136862295 0.03072064 0.02202419
0.053813286 0.033388976 0.036456883 -0.017043324 0.046437323 0.05985937 -0.016178586 0.02387164
0.0061541037 -0.020637095 -0.059169807 0.03324297 0.045172755 0.004279271 0.003030725 0.008364132
0.040477097 -0.047777332 0.0057015624 -0.0056347298 0.033372506 0.0056135477 0.031020053 0.04040868
0.038301993 0.05484186 0.007427319 0.028066931 0.011530554 0.042586524 0.02988908 0.024433069
0.028228346 0.0024569365 0.013620893 -0.034323525 -0.027941221 0.075921185 0.021182677 0.031842537
-0.021005219 0.025167981 0.040877327 0.021131784 0.023978412 0.013643248 -0.04914391 0.04590118

network_body._body_endoder.seq_layers.0.weight f4 [128, 55]
00000000: fb64 bdbd 9583 f4bd cb42 24bd e816 473d
00000010: 8732 893e b250 e13d 598b 06be 1de4 3f3d
00000020: e8ee fd3d 75a4 4c3e ef66 e9bd e920 1fbd
00000030: 6766 d93d 29a7 11be 8487 873e 5c97 12bd
00000040: 077f 7a3c 524d 86bc c74a e93d 7fc8 063e
00000050: fe52 ffbd f311 103d 39b1 2bbe 89dc 1f3e
00000060: b2b2 833e 3b50 f8bc b7e8 2ebd 0616 df3d
00000070: f155 31be fb59 36be 887c da3c 88f4 113e
00000080: b399 23bd 512d 92bd e9b2 6c3d e29d 12be
00000090: 2fc9 603e 53fe 353e 23b2 83bd 6335 96bd
000000a0: 3d2b 9f3c bf61 10be 3ce1 133d 5582 0a3d
000000b0: d98f 55ba bf12 3e3e f24b 993b 0406 b0bd
000000c0: 449b 9b3d bbb6 ae3d 7b23 023e f166 babd
000000d0: 6f94 13be cf98 23bc 14e4 653d d257 d93d
000000e0: d4e3 76bd ed64 2c3e b754 053e fdf9 96bd
000000f0: ea04 853e ffaa 0b3c fa92 8abb ca2c 4a3d
00000100: d7f5 b63d 0fb1 adbd a24f 39bd c9b6 cabd
00000110: e5cc 91bc 6a69 2e3c 6fb3 bd3d 1b18 f63d
00000120: 7ac6 d9bc bef9 52ba 92d2 023e 2ee2 1e3e
00000130: 4c32 2bbe 87a3 d2bc dd44 403e 960b 9ebe
00000140: 0406 f03c 2640 1dbe 75bc 5dbd 8f1a 623e
00000150: c637 793e f83a 733d c9ab 04be 5574 8b3e
00000160: 4cd6 c03d d7d7 91bd f976 86bc dac9 d53b
00000170: 398c 183c 4e01 25be 408a 16bd 42c2 6c3c
00000180: b4a9 34be afcb b83e 37b5 2f3d ec41 1dbe
00000190: 392e 7d3e 8d4c acbd 9645 d73d 112e 2fbe
000001a0: dd5a 113e 4ce0 6f3e 010f 8a3c 1f0f 06bd
000001b0: 7ef6 f23d c551 19be 675e 5a3e 5978 393d
000001c0: 7ac8 883e 775d 043e dccd 89bd 899f 313e
000001d0: c3d1 b9bd 2b52 37be 972d aabd 5233 5d3e
000001e0: a272 423e 743d e9bd 3012 f8bd b49e 7ebd
000001f0: 61a2 cebe 3858 3abd 2206 1cbe 1991 c2bd
00000200: 59a7 cd3d a8b6 463d 6d60 0f3e 973b 25be
00000210: 0ecd a8bd 0276 f9bd 75f1 6fbe d731 223d
00000220: d9df 023d e629 32be d8eb 143e 08c9 da3d
00000230: 219d 033e 7bbb 26bd 1113 6f3b f554 4f3e
00000240: c661 88be 3c47 973c abb5 1c3e 092e e5bd
00000250: 5e65 25be b939 1b3e 4e36 e53c 5c76 3bbe
00000260: d90b 38be 8fa4 753d 8a30 053d 07ed a4bd
00000270: e898 2f3d 1314 4ebe d6c0 75bd e282 46bc
00000280: cbdf 593e 1eaf 33be 75a7 003e d68c d43d
00000290: f995 52bc aead 24be 32b3 1fbe 2d48 953e
000002a0: 4181 d0bd 3ec7 bfbd aacd e3bd 146f d0bb
000002b0: 1ff4 21bd 6187 883d 6b8b 163d ea02 ce3e
000002c0: fcab 1ebe 5dd9 993d cb8b 96bd 61ea 623d
000002d0: c1db 1cbe 6d5f bdbd 4ef8 a1bd 729b 16be
000002e0: 534f 8c3c ceb0 3cbd 9e4f 983d e17f 053d
000002f0: 37eb eebd 83c4 01be ed9d b63d 3c10 183e
00000300: 28a0 fdbd 9719 4d3d a82e 1bbd 2a19 db3d
00000310: 758b a3be af48 e7bd 38e1 a7bb c2cf 583d
00000320: c729 48be 6e01 a03e 1f6f d73d 5066 ebbd
00000330: fc86 293e 598e 13be 3eb7 bcbd bf1d 003e
00000340: 7709 c93d 3d2b 573d 7c97 e2bc 9904 c73c
00000350: c934 203d 2a91 87bc 4c3c 38be 9f10 76bd
00000360: b0ae b73b 8b5a a6bd 34b2 a2be 8956 ab3e
00000370: 9c4d f53d 61b9 c9bc f36e 72bd 3ffb 58bd
00000380: 30ed b93d 7f4f 5cbd 2b80 8fbe d1a5 033d
00000390: dd68 b63d ce5b be3d 8815 d33c 415c 603b
000003a0: 5e57 153d f2be 123e ad31 a13d 47f4 f43d
000003b0: 347e 78be 9db7 4e3e 3a6e 0ebc b874 e63d
000003c0: d6da 3bbd 29cf 713d 5343 b2bd cd1c f53d
000003d0: c46b d53d 8f1c 5b3d 3320 53be 86f2 0bbc
000003e0: 9475 193e 9ba3 03be b4cb aabd 2197 833e
000003f0: 6cc6 563e 3e09 8fbd 5826 063d 9fd6 5a3e
-0.09247776 -0.1193916 -0.04010276 0.04860583 0.26796362 0.110017195 -0.13139094 0.046848405
0.123990834 0.1998461 -0.11396586 -0.038849745 0.10615235 -0.14223923 0.26470578 -0.03578888
0.015289075 -0.016394291 0.11391216 0.1316242 -0.124670014 0.035173368 -0.16766824 0.15611471
0.2572227 -0.030311694 -0.042702403 0.108928725 -0.1731794 -0.17807762 0.02667071 0.14253438
-0.0399415 -0.0713755 0.05778781 -0.1431804 0.21951745 0.17772798 -0.06430461 -0.073344015
0.019429797 -0.14099787 0.036103472 0.0338157 -0.000814674 0.18561839 0.004678243 -0.085948974
0.07597974 0.08530947 0.12708847 -0.09101666 -0.14412092 -0.009985163 0.056125715 0.106124535
-0.060275868 0.16835375 0.13020597 -0.073719 0.25980312 0.008524655 -0.0042289468 0.04935912
0.08933609 -0.08481037 -0.04524196 -0.09898145 -0.017797897 0.01064525 0.0926274 0.120163165
-0.026583899 -0.0008048079 0.12775639 0.15515968 -0.16718405 -0.025712742 0.1877627 -0.30868214
0.029299743 -0.15356502 -0.054134805 0.22080444 0.24337682 0.05938241 -0.12956156 0.27237192
0.09415874 -0.07121246 -0.016414152 0.0065243067 0.009310775 -0.16113779 -0.03675294 0.014450612
-0.17642862 0.36092898 0.04289743 -0.15357178 0.24724664 -0.084130384 0.10511319 -0.17107417
0.14194818 0.23425406 0.016852858 -0.032729264 0.11863421 -0.14972599 0.21325074 0.045280788
0.2671545 0.12926279 -0.06728718 0.17346014 -0.09073212 -0.17902438 -0.08309477 0.21601608
0.18989041 -0.113886744 -0.12112844 -0.06216307 -0.4035826 -0.04549429 -0.15236714 -0.095003314
0.10041685 0.04851404 0.14001627 -0.16136013 -0.08242236 -0.12180711 -0.23431952 0.039598312
0.03195176 -0.17398795 0.14543092 0.10682875 0.12852909 -0.04070614 0.003647987 0.20247252
-0.26637095 0.018466584 0.15303676 -0.11190421 -0.1615195 0.15158738 0.027979996 -0.1830687
-0.1797327 0.05997139 0.032516994 -0.08053022 0.042870432 -0.20124845 -0.059998356 -0.012116166
0.21276776 -0.1754727 0.1256388 0.10378425 -0.012853139 -0.16081879 -0.15595701 0.29156628
-0.10180903 -0.09364174 -0.11123212 -0.006360898 -0.039539453 0.066664465 0.036754053 0.40236598
-0.15495294 0.07512162 -0.07350882 0.055399302 -0.15318204 -0.09246717 -0.079086885 -0.14707735
0.017127668 -0.04606705 0.07437061 0.032592658 -0.116659574 -0.1267262 0.08916841 0.14849943
-0.12384063 0.050073233 -0.03788629 0.10698159 -0.31942335 -0.1129316 -0.0051232837 0.05293251
-0.19547187 0.3125109 0.105192415 -0.11494124 0.16555399 -0.1440977 -0.09214638 0.12511347
0.098162584 0.05253147 -0.027660124 0.024294185 0.03911284 -0.016548712 -0.17991751 -0.060074445
0.005605541 -0.081227385 -0.31776583 0.3346446 0.119776934 -0.024624528 -0.05918784 -0.052973982
0.09078443 -0.05378675 -0.28027472 0.032140557 0.0890672 0.09294854 0.025767103 0.0034234675
0.036460273 0.14330652 0.07870803 0.11960655 -0.24266893 0.2018723 -0.008693272 0.11252731
-0.045862995 0.059035454 -0.08704247 0.11968384 0.10420945 0.053494032 -0.20617752 -0.008541709
0.14986259 -0.1285538 -0.083396345 0.2570124 0.2097413 -0.06984185 0.03275141 0.21370934

network_body._body_endoder.seq_layers.2.bias f4 [128]
00000000: 5d8d 3bbc 1b5e 203d 4c46 1939 4829 c53c
00000010: a9f2 d13c 0cde 3c3c 2421 993b d760 9b3c
00000020: 9691 463d 4ba6 a83c 1a1a 463c 52cb 233d
00000030: 0b40 ec3c 1ce6 573d b60d 653c 118c 0a3d
00000040: 4dce c83c 67a3 613c 495c 7a3c 7ea2 133d
00000050: e7b2 023d 7f22 083c 7b76 3f3c feb4 513c
00000060: 45b9 ff39 e3f7 a83c 2f07 c23c 45e7 03bc
00000070: 4f7f bf3b 43a3 77bc 28aa 6e3d 351a f63c
00000080: 30ad 7bbb 2440 d7bc 5d17 ea3c 1d5f df3c
00000090: ca11 403d 4976 e2bb 644d 023d 8b79 393d
000000a0: 69c4 333d 2abb 473d 74c6 b63c 0c03 2b3c
000000b0: 7fea 0e3d fb74 71bb cf08 173d f141 10bb
000000c0: 6bf5 16bc 35ef 0cbc 6948 0f3d ef06 023d
000000d0: 09a3 7e3c e110 a7b9 dab9 4e3d 7d6b 2cbc
000000e0: 8736 453d 0fbb b13c f2cf 453d d763 e13c
000000f0: cb13 60bc 040d c13c 4e71 a03c f0b0 74bb
00000100: 64d4 0d3d 79e3 793c 89dc aa3c e772 2ebc
00000110: 98ca 3fbc c71f 9b3b d587 0abc a0b5 2bbc
00000120: 85fd 183d 0d63 a63c e182 a9bb b185 813a
00000130: 99fd c93c 83bf 053d 6e59 ea3c 2f0f 523c
00000140: 6c83 143d 518e 34bb de6a 163d 4e31 0a3d
00000150: 5781 a63a c602 3f3a 322c bd3c 317d 0abc
00000160: 72b2 9b3c 78f9 593a d286 483d ca61 673b
00000170: cda9 0a3d 6386 7a3c 68e6 a7bb 6d36 2f3c
00000180: 8470 abbb 9851 0a3d 69da 353c 2128 033d
00000190: b19d 4b3c bc08 1b3d 9a78 263d 5f91 c33c
000001a0: 2865 8dbb 742b 893c f4e8 933c acc3 eb3c
000001b0: c12a ca3c ef7a 5c3d 82ee 143d 1ea7 683c
000001c0: 63e6 1d3d bc30 1a3d 9d22 c2bb 77ad 21ba
000001d0: 23bf ccbb b066 0ebc 42dc 23bc daf5 073c
000001e0: 9b8e 2cbc 6949 013c 4be5 df3b 1d01 533b
000001f0: 3144 1d3b f53f 553c b561 e13c f0d0 5c3d
-0.011447278 0.039152246 0.00014617405 0.024067536 0.025628405 0.0115275495 0.00467314 0.018967075
0.048478685 0.020587107 0.012091184 0.039988823 0.028839132 0.052709684 0.01398032 0.033824984
0.024512434 0.013771868 0.015280792 0.036043637 0.031908896 0.008309006 0.011685963 0.0127995
0.00048775427 0.020626014 0.023685066 -0.008050744 0.005844034 -0.015114608 0.058267742 0.030041793
-0.0038402788 -0.026275702 0.028575594 0.027267033 0.046891965 -0.0069110733 0.031812087 0.045281928
0.043888483 0.048762478 0.022311427 0.010437738 0.0348916 -0.0036843407 0.036873635 -0.002201196
-0.009213786 -0.008601953 0.034981165 0.031744894 0.0155418 -0.00031865298 0.05047021 -0.010523674
0.048147704 0.021695642 0.048294015 0.027513428 -0.013676594 0.023565777 0.019585278 -0.0037336908
0.03462638 0.015251988 0.020857112 -0.010647512 -0.011706017 0.0047340128 -0.008455236 -0.0104803145
0.03735115 0.020310903 -0.0051730727 0.0009881762 0.024657058 0.032653343 0.028607097 0.012821003
0.036258146 -0.0027550648 0.03672301 0.033738427 0.0012703341 0.0007286485 0.023092363 -0.0084526995
0.019005988 0.0008315067 0.0489567 0.003530609 0.03385334 0.015290829 -0.005123902 0.010694128
-0.0052319188 0.03376922 0.011099436 0.03202069 0.012427733 0.037850127 0.04064236 0.02387303
-0.0043150373 0.016744353 0.018055417 0.028779827 0.02467859 0.053828176 0.03636027 0.0142
0.038549792 0.037644133 -0.0059245364 -0.0006167511 -0.006248371 -0.008691475 -0.010001244 0.008298362
-0.010532047 0.0078910375 0.006832754 0.0032196708 0.0023996944 0.013015737 0.02751241 0.053910196

network_body._body_endoder.seq_layers.2.weight f4 [128, 128]
00000000: ba7c c7bd ee99 18bd af68 39bc e589 23be
00000010: 3484 febd 6189 83bd 20a4 463e c1d2 febb
00000020: 8cbd 8dbd 5ddd 1cbe 4c07 46bd 5c9c 603c
00000030: b6dc 533e 4e3e a63d d277 f5bd e819 2b3e
00000040: 9197 debd 4da8 22be 6c0c cbbc 62a6 3bbd
00000050: 24d0 1b3e b20d 04bd 5115 f53c cd7f abbd
00000060: fb86 4a3d 9cb0 083d 4af2 593d df8a a8bd
00000070: 732a f83d 42bb 543d 5308 42bd 7680 93bd
00000080: 441a 533d b907 123e 26de 413d dee2 55be
00000090: 49ca 70bc 6b36 fe3c e7d8 9a3c c6c9 38bc
000000a0: 00c7 343d 4389 efbd 97e3 a6bd f3a9 233e
000000b0: 4852 153c adac ab3c 6ffd 92bd e5a8 de3d
000000c0: 93f5 1b3d 38a6 fcbd 10e9 823d 2a98 abbd
000000d0: 23e9 b1bd f6a9 1abd cecd b1bc 02aa 75bd
000000e0: 62f4 47bd 3034 c5be e16d 30bd ba66 59bd
000000f0: adc5 0ebe 5eb3 203d 2c03 83bd 7d72 3abd
00000100: 3618 abbc 2023 553d 526a f23c c29a 2fbd
00000110: 457d 63bd 160f c33d 5c7c fd3d 15c0 7c3d
00000120: bb86 bd3d 8f9f 633d 5a52 173e 9213 97bd
00000130: e502 abbc 33f0 c83d 563a b93b 8529 853d
00000140: 1cad 2cbd 5a65 5d3d 7f72 853d f9ff 223e
00000150: 27b2 073e 4104 053e 4e49 103e 0aed 923d
00000160: b1b4 fa3d 8672 97bc 3181 0e3d 567c 243d
00000170: 401a 953d a34d 87bd 7a70 2a3d 7f6b 1c3d
00000180: 87a7 edbd e90b 6dbd f1f9 96bd 4852 babc
00000190: 7622 e9bc da8e 9abd f8d6 423e 6620 8f3c
000001a0: bb6a 4abd 54a4 c73c db55 e5bd 758f 40bd
000001b0: 2e7e e03d e8df 3abd 0a3e 603d 0ce4 583d
000001c0: a9a3 99bc be6c 6f3d ca45 253e ea59 0c3d
000001d0: 3375 b6b9 a83b a4bd e37c 5a3c 89f5 083e
000001e0: bf41 133c 3cb5 9d3b de4e 23be ff77 37bc
000001f0: 8b47 f33c 1c27 84bd 4fae fabd f6b7 903d
00000200: 0733 133e a9c7 58bd a66e 08bc 920e ad3c
00000210: 8a2d 8c3d c26f 92bd 2d8b 613d 8815 a2bd
00000220: d21b babd c864 353d 2fda d53d a1c8 bdbd
00000230: 65d4 753d 9f28 cabd 27ed 993b 54cd 55bd
00000240: ba31 0fbc 8933 95bd 6f1e 573c 6e8b 7b3d
00000250: cfc1 fdbd b3d4 533d cfce 08be fe2b ddbd
00000260: 6f82 b5bd dbb2 acbc 147e 843d edef 903d
00000270: cfc5 a73d 5c63 d53d f5ee 3bbe 26b1 23bd
00000280: 79b1 003e 8119 b43c dcc7 18be 702d 813d
00000290: abb0 a23d d4ce 203e 8952 93bd 73ba 9abd
000002a0: 71b0 953d 05e4 03be c67e dc3d 4e90 f0bc
000002b0: 265b 6f3d 6ab2 6e3e f7bc 68bc eb17 16bd
000002c0: af95 143d feb4 ff3c efde a1bc 5692 44bd
000002d0: f248 383d fa4e 6c3d 5a87 ba3c 3f6c 6cbc
000002e0: a6c1 93bc c264 5c3d 0008 1f3c 6aba 0bbd
000002f0: e6a9 2bbd 12a6 35bd 7eba 1dbb 4014 0ebe
00000300: 3fa4 6b3e 3577 94bd c0d9 89bd d5f1 a53d
00000310: 30c8 17be 1ef3 75bd 6033 d13d d27e 5cbd
00000320: 00cd 84bd fcd3 b5bd 35d5 89bc 8dd1 5a3d
00000330: 6024 59bd 931f 56bd 9720 c1bd 0aa1 27be
00000340: 19d5 223e 3cc3 c93c e10e c23d 4820 283d
00000350: 5b4d 4bbd 69a8 863c 01a7 b73b 26f0 f43c
00000360: a38e 1fbe ad0f 80bc dc3b 6dbd 4cc9 c03d
00000370: 2631 1dbd 56df 2ebd 54cf ac3d 08eb 0ebd
00000380: 2595 593c 6b6f 46be 1ddd eb3c 7bb0 3abd
00000390: 95a1 29be b0ba d73d 06ad f03d b5ed ab3d
000003a0: d82d 50bc 7de7 443c bdd9 913b ab32 d3bd
000003b0: e675 46be 1bd3 5c3d cdcb 183d 6fda a8bd
000003c0: 952b 4ebd 37c6 c7bd 64d4 663c ea83 d6bd
000003d0: 5c6d 10bd f321 cdbb 02cd 163e f6ea c33d
000003e0: 4178 423e dd92 da3d 1e34 bf3d c080 f73d
000003f0: 8431 cd3d 5dbc 0fbe 2cba ebbd 9428 a43c
-0.097405866 -0.037256174 -0.011316462 -0.15970571 -0.124275595 -0.06422687 0.19398546 -0.0077765887
-0.06920919 -0.15318818 -0.048346803 0.013709154 0.20689663 0.081173524 -0.119857445 0.16709101
-0.10868753 -0.15884514 -0.024786197 -0.045812972 0.15216118 -0.032239623 0.029917391 -0.083739854
0.049445134 0.033371553 0.05320958 -0.082296126 0.121174715 0.051936395 -0.04737122 -0.07202236
0.05153872 0.14260758 0.047330998 -0.20887324 -0.014696666 0.031031808 0.018902255 -0.011278575
0.044135094 -0.116961025 -0.08148878 0.15982799 0.009113856 0.020956362 -0.07177245 0.10872058
0.038075995 -0.12336391 0.063921094 -0.08378632 -0.086870454 -0.037759744 -0.02170458 -0.059976585
-0.048817046 -0.38516378 -0.04307354 -0.053076483 -0.13942595 0.039233558 -0.06397089 -0.04551934
-0.020885568 0.05203545 0.029591713 -0.042872198 -0.05553939 0.09524362 0.12377235 0.06170662
0.092542134 0.05557209 0.14777508 -0.073767796 -0.020875404 0.09811439 0.005652706 0.0650206
-0.042157277 0.054051735 0.06515979 0.15917958 0.13251553 0.12989904 0.14090464 0.07174118
0.122414954 -0.018487226 0.034791175 0.04015764 0.072803974 -0.06606605 0.041611172 0.038188454
-0.11604219 -0.057872687 -0.07371891 -0.022744313 -0.028458815 -0.07546778 0.19027317 0.017471503
-0.049418192 0.02437035 -0.11198016 -0.04701181 0.10961567 -0.04562369 0.054746665 0.052951857
-0.018754797 0.058453314 0.16139904 0.034265436 -0.00034801065 -0.08019191 0.013335439 0.13374914
0.008987843 0.0048128646 -0.15948054 -0.011198043 0.0296972 -0.06452772 -0.12240278 0.07066338
0.14374934 -0.052924786 -0.008327162 0.021125112 0.068446234 -0.07150222 0.05506437 -0.07914263
-0.090873376 0.044285566 0.10442006 -0.092667826 0.06001701 -0.09871029 0.00469746 -0.05219777
-0.008739883 -0.0728522 0.0131298145 0.061412267 -0.12390482 0.051716518 -0.13360141 -0.107994065
-0.08862769 -0.021081379 0.0646936 0.07077012 0.08192026 0.10419342 -0.18352874 -0.039963864
0.125677 0.021984817 -0.1491999 0.06307495 0.07943853 0.15703899 -0.07193477 -0.075550936
0.07309044 -0.12879951 0.107663676 -0.029365685 0.058436535 0.23310247 -0.014205209 -0.036643904
0.036275562 0.031214233 -0.019759623 -0.04799112 0.04499144 0.057692505 0.022769619 -0.014430105
-0.018036675 0.053807028 0.009706497 -0.034113325 -0.041910075 -0.04434783 -0.0024067457 -0.13874912
0.23011874 -0.072492994 -0.06730986 0.081027664 -0.14822459 -0.060046308 0.10214877 -0.053831883
-0.06484413 -0.088783234 -0.016825298 0.0534225 -0.053013206 -0.052276205 -0.09430044 -0.16370025
0.15901603 0.024629228 0.09475494 0.04104641 -0.04963432 0.016437726 0.005604625 0.029899668
-0.15581755 -0.015632475 -0.057918414 0.09413394 -0.03837695 -0.04269346 0.08437982 -0.034892112
0.013280188 -0.1937844 0.028791958 -0.04557846 -0.16565545 0.10533655 0.117517516 0.083949484
-0.0127062425 0.012018082 0.0044510053 -0.103123985 -0.19380912 0.053912263 0.037303735 -0.08244788
-0.05033453 -0.09754603 0.014088724 -0.10474379 -0.035260543 -0.0062601506 0.14726642 0.095662996
0.18991186 0.10672543 0.093361124 0.12085104 0.1001921 -0.14036699 -0.11510119 0.02003888
