results/TrainPeoplePuddlesHoles_NewPuddleBehaviour_ReplacedHoles_10Dicembre4/MoveToGoal/MoveToGoal-2499986.pt (torch, 637175 bytes, 40 tensors)

discrete_act_size_vector f4 [1, 2]
00000000: 0000 4040 0000 4040
3.0 3.0

network_body._body_endoder.seq_layers.0.weight f4 [128, 68]
00000000: 6876 ec3d cc99 54be 58b7 17bc 12d2 00bd
00000010: 6e48 0abd 7cb8 0e3e c844 dc3d 244b abbd
00000020: dcc1 e33d 7d95 74bd b9f3 323d cad6 873d
00000030: ec61 a33d 089b 3c3d eb41 053e 5a51 95bd
00000040: 7f69 ddbd 2103 3ebc 6af9 20be e9bf f2bc
00000050: f56f 00bd d291 75bd 4a15 e6bd a2a9 5f3c
00000060: e316 a53e f730 423e c3c4 6a3d b812 ca3c
00000070: f9b5 513e 1af8 2abd 7acc 20be 74fe d1bd
00000080: 83a4 a63a 370a ff3d 8194 be3b f25c a03a
00000090: 26fe 79bd 8859 493d 13db b73c 6a47 063e
000000a0: bb7d 1a3e 6f4a 683d e840 c5bc 6f87 cfbd
000000b0: e142 14be 3dc9 0c3e 69ec e03d 63f0 56be
000000c0: 006e 5d3d 31bf 00be b7bb d03d ff2c 69be
000000d0: dc01 cd3d a6ac d9bd 8787 84bd 0020 bd3d
000000e0: 2827 46bd f6bc 0e3e d13e 62bd eb5c 5abe
000000f0: 5447 f6bd 8e9d a8bc 1cc5 6dbc 04b9 0abd
00000100: d171 68be f142 6b3d ea91 1f3e 1f86 81bd
00000110: aac9 143e 30a9 233d 1657 d03c 53f2 9b3c
00000120: 51d0 48be f2a7 18be 0a71 703d 5faa 713e
00000130: 45f3 133d 5f26 383b 11b5 383e 8b4b efbd
00000140: 6853 8a3d 1914 773d 9f98 173d cdf4 8ebd
00000150: 1557 3b3e e619 2cbd 8cff 623d 0011 78bd
00000160: 343d 29be f9e2 10bd 656a 70bb 155c 3b3e
00000170: cb25 2fbc 3e26 84bc 4856 c5bc 3606 f43c
00000180: bd11 f4bd 61b6 28be 85a7 cf3d 7974 38bd
00000190: e7fc aebd e4b8 53bc 9ded 1abe feeb f63d
000001a0: c045 09be d7bc ccbc 5615 29be 7cec 643e
000001b0: ccad 9e3b 3b3e 80be 3ea9 06be 3328 343e
000001c0: f53d ee3c 823e 1a3e ca0e 7f3d ae21 da3b
000001d0: 44a4 1c3e d1b0 36be 1472 71bd a70d a6bd
000001e0: fc36 ecba e531 803a 4bd7 35be ed89 f43c
000001f0: 065e cb3d 51a9 ff3d 4c18 98bd 177b 59be
00000200: e7e4 943e 548b 49be 8c96 a33d 80ee 9c3d
00000210: 5d92 2f3d 8444 8abd 32bd 03bd 892b 54be
00000220: 3365 02be f75e be3d 0dbb 17be 09dd 473d
00000230: d39e 0d3e 787d 283e a534 563e 65ea 83bd
00000240: dd5a 10be ba3b 163d eba3 aa3e 473f 753d
00000250: f7c8 e03b 8363 5d3e f7ad 74bc 3cb0 a1bd
00000260: 91b4 05bd 902b 733e f6ef 263e c254 333e
00000270: dfe7 b5bd 6bcc 153e f15a a03d 851b 413d
00000280: b294 87bd 5c44 863e 16a1 2dbe b0e0 e7bd
00000290: a9c8 e23d 86fc efbd 6ee8 6ebc 96ad 4b3e
000002a0: c623 39bd 419a 1ebd d0e2 75bd eee8 253b
000002b0: 6936 933d 1cbb 043e 9dcf 18be c238 2a3d
000002c0: 1f3d 2bbd a4a2 2fbd 902d ea3d 51cd 55be
000002d0: a008 c73c 3bfc 0c3d 4730 8c3d 1a4e 323c
000002e0: 7245 b9bc 72d9 e8bd 1dfe 123d 917f ce3d
000002f0: 5d14 db3d 1ba3 d93c d4f7 6c3d 11af 54be
00000300: 6075 b5bd f192 e6bc 4e80 b33d c8c1 783d
00000310: a535 543d 0964 913d d8ca d2bd 480f 2c3d
00000320: 1b86 ddbb 0dff 8d3e 4269 64bc 12a8 853d
00000330: bf77 cebd b9d2 0e3c 573c 9f3d be0a fdbd
00000340: 0a78 543e e267 c63c 22ae 0ebd 424d 35bd
00000350: e508 ebbd 19eb 013e b1b5 153e 151e 1fbc
00000360: fd9c 30be 9eda d9bb b66c 34be f759 1a3d
00000370: 3c1a 133d a4fe 02be 5c91 273e 2b9b 3a3c
00000380: 680e 11be 293b 813c c791 113e d63b 263e
00000390: 2b86 6dbc 0832 303d 2a28 fa3c 01f2 453e
000003a0: b630 653d 58dc 27bc df1b 1ebe 9f8d 143e
000003b0: 8793 a5bd 8da0 3cbc 4456 15bd 22e5 99bd
000003c0: 66da eebd 1b6e 973d b79e fe3d 58e1 b2bc
000003d0: a7f6 0c3e 5ffd cbbc 509e a8be 0a7b d0bd
000003e0: 0939 f8bd 5110 183e 59e8 3bbe baea 293e
000003f0: 0eaf 123e 25e8 80be 467c 38bd 318f 973d
0.11546022 -0.20761794 -0.009260021 -0.03145034 -0.03376048 0.13937563 0.107553065 -0.08363941
0.1112096 -0.059712876 0.043689463 0.06632765 0.079776615 0.046046287 0.13013427 -0.07290907
-0.108111374 -0.011597426 -0.15720144 -0.029632526 -0.03135677 -0.05995352 -0.11234529 0.013651283
0.32244024 0.18963991 0.057316553 0.024667129 0.20479573 -0.041740514 -0.15703002 -0.10253611
0.0012713823 0.1245312 0.005816043 0.0012234731 -0.06103339 0.04915765 0.02244333 0.1311318
0.15087025 0.05671161 -0.024078801 -0.10133254 -0.14478637 0.13748641 0.10982592 -0.20990138
0.054059982 -0.12572934 0.10192054 -0.22771071 0.1001012 -0.10628633 -0.06471162 0.09234619
-0.048377186 0.1393927 -0.055235688 -0.21324508 -0.120253235 -0.02058294 -0.014512327 -0.03386785
-0.22699668 0.057436887 0.15583006 -0.0632441 0.14530054 0.03995627 0.02543215 0.019036448
-0.19610716 -0.14907816 0.058701552 0.23600148 0.03612067 0.0028099043 0.18037821 -0.116843306
0.0675419 0.0603219 0.037010785 -0.06980286 0.18294938 -0.042016886 0.05541949 -0.060563087
-0.16527253 -0.035372708 -0.003668451 0.18296845 -0.010690163 -0.016131517 -0.024088994 0.029788118
-0.11917446 -0.16475822 0.10139374 -0.045032952 -0.08544331 -0.012922499 -0.15129705 0.12056731
-0.13405514 -0.02499239 -0.16512045 0.22355837 0.0048424955 -0.25047478 -0.13150498 0.1759346
0.029082278 0.15062907 0.062269963 0.006656847 0.15297037 -0.17840888 -0.058946684 -0.08108073
-0.0018021758 0.0009780495 -0.17757909 0.029850924 0.09930043 0.124834664 -0.07426509 -0.21238361
0.2908089 -0.19682056 0.07987699 0.07662678 0.042864192 -0.067513496 -0.032162853 -0.20719732
-0.12733917 0.09295457 -0.14817448 0.04879478 0.13830118 0.16454113 0.2091852 -0.064411916
-0.14097162 0.036678053 0.33328184 0.0598748 0.0068598944 0.21619992 -0.014934055 -0.07894942
-0.032642905 0.23747087 0.16302475 0.17512801 -0.088821165 0.1462876 0.07829846 0.047145385
-0.06620158 0.2622403 -0.1695598 -0.113221526 0.11073429 -0.11718087 -0.014581783 0.19890437
-0.04520013 -0.038721327 -0.06003076 0.002531584 0.07188112 0.12962002 -0.14922948 0.041558035
-0.041806336 -0.042879716 0.114344716 -0.20879103 0.024296105 0.034420233 0.06845146 0.010882879
-0.022616122 -0.113695994 0.035886873 0.10082925 0.10697243 0.026567033 0.057853535 -0.20769908
-0.08860278 -0.028146239 0.087647066 0.06073168 0.051808972 0.07099158 -0.102925956 0.04200676
-0.0067603714 0.2773365 -0.013941111 0.065261975 -0.100814335 0.008717232 0.07775181 -0.123555645
0.20748916 0.024219457 -0.034834035 -0.044263132 -0.11476306 0.12687339 0.14620091 -0.009711762
-0.17247386 -0.0066483757 -0.17619595 0.037683453 0.03591369 -0.1279245 0.16364044 0.011389534
-0.14165652 0.01577528 0.14215766 0.16233763 -0.01449732 0.043016464 0.03053673 0.19330598
0.055954657 -0.010245405 -0.1544032 0.14507149 -0.08084779 -0.011512888 -0.036459222 -0.07514407
-0.1166275 0.07394048 0.12432616 -0.021835968 0.13765965 -0.02490109 -0.32933283 -0.10179718
-0.121202536 0.14849974 -0.18350352 0.16593447 0.1432459 -0.25177112 -0.04504039 0.074003585

network_body._body_endoder.seq_layers.0.bias f4 [128]
00000000: 11b4 a53c 08ce bd3b 9248 283d a4b9 e63a
00000010: d2f0 383d 9385 0ebb a538 d0bb 2f79 563c
00000020: 5b94 813d 7286 f0ba 7a64 043c 2c2d 223d
00000030: 8424 3f3c e353 f63c ac58 1a3d 7392 0a3c
00000040: be5d b73b 091e 6cb9 2cb9 863c 53b5 b03c
00000050: 3b29 acbc 4460 d33c 0bca f73c d157 85bc
00000060: 847b fd3c e7a4 c83c 1fe1 3fbc 87f3 1d3d
00000070: d95e c73a 5944 0c3d 0b24 90bc 1b9d 8b3c
00000080: 4fc9 febc 91ec 5a3d f9dd dd3c 63a4 bb3b
00000090: eb4e 8a3c 0e98 6e3d 2030 1f3c 7b60 0d3d
000000a0: 5f14 4abc fff0 f23c 1a5b 2e3d b9f9 863c
000000b0: 7d25 1d3d ef8d ad3c eb39 923c 88a9 353d
000000c0: 658e f43c 0f2b df3c 27e6 223d 56af 12bd
000000d0: 1e97 99bb 5b9f 003d 78c2 513d 48ff a23c
000000e0: 8ae0 b73b 759a d83c 99a4 353d 8b05 b23c
000000f0: 3d0a 9f3a 887b e239 be7b 583b fb5f 673d
00000100: 01e2 8a3d 3266 623c ddc3 ad3c 735e aa3c
00000110: a65f 4d3d 2c5a a23c 08b7 773d 55fe aebc
00000120: 9014 ec3c 3bff 423c 9b42 523d 770f a83c
00000130: e915 843d 6ad7 ba3c e248 ed3c 4470 ec3c
00000140: ac04 8a3c b522 cfbc a3fa b73c 3621 ec3c
00000150: 180a 13bd f142 24bc 3437 fb3b a45a 403c
00000160: 89a4 903c ab24 493c 99c0 11bb c78d 7a3b
00000170: 154d 103d 61e6 443d db88 313d 25c5 283d
00000180: 48c9 913d b327 1f3d b548 71bd a34e e3bc
00000190: e208 70bc 5949 a13c dcdf 643a 08d3 c83c
000001a0: 33f6 293d b680 093d be03 733c 10de f03a
000001b0: ec12 85bc b618 473d e344 113d d809 8f3d
000001c0: d7ff 88bc 3be2 16bc 5f7b 153d f9b6 113d
000001d0: 00d1 153d dac2 2bbc 3f61 b03c 067f 933c
000001e0: aec8 083d 3ac3 8d3c 3d85 cebc 4a38 423d
000001f0: 78db 4c3d 4d36 5e3c 70c8 6a3c b11d 04bd
0.020227464 0.005792383 0.041084833 0.0017602933 0.04515154 -0.0021747097 -0.006354409 0.013090416
0.06327125 -0.0018350615 0.008080596 0.03959386 0.011666421 0.030069297 0.03768222 0.008457768
0.0055958917 -0.00022517903 0.016445719 0.021570837 -0.021015754 0.025802739 0.030247709 -0.016277226
0.030942686 0.024492694 -0.011711388 0.038562324 0.0015210762 0.03424487 -0.017595312 0.017042687
-0.03110185 0.053448264 0.027083384 0.0057263835 0.016883334 0.05825048 0.009716064 0.03451584
-0.012333958 0.029655932 0.04256735 0.016476499 0.03836583 0.021185843 0.017849883 0.04435113
0.029853055 0.027242212 0.03977027 -0.035811745 -0.004687204 0.031401973 0.05121085 0.019897118
0.005611484 0.026440838 0.044346426 0.021731159 0.0012133789 0.00043198117 0.003303274 0.05648802
0.06781388 0.013818311 0.021211559 0.02079699 0.050140046 0.019818388 0.060477287 -0.02136151
0.028818399 0.011901672 0.05133305 0.020515187 0.064494915 0.022807796 0.028965417 0.028862126
0.01684793 -0.025285104 0.02245838 0.02882443 -0.035898298 -0.010025726 0.007666493 0.01174036
0.017656581 0.012276809 -0.0022240041 0.0038231479 0.03522976 0.04807127 0.043343406 0.041203637
0.071184695 0.03885622 -0.05890723 -0.027747458 -0.014650555 0.019688295 0.00087308674 0.02451469
0.04149456 0.033570014 0.014832435 0.0018376727 -0.016244374 0.04860755 0.035466086 0.069842994
-0.016723556 -0.009209211 0.03649461 0.035574887 0.03657627 -0.010483468 0.021530746 0.018004905
0.033394508 0.017305005 -0.025210017 0.047416963 0.05001399 0.013562751 0.014330015 -0.03225488

network_body._body_endoder.seq_layers.2.weight f4 [128, 128]
00000000: f5a4 e43d b3ab d1bd 2a63 b8bd d267 d3bd
00000010: 7606 5b3d 5301 0fbd 2afe 923c 2b2c d23d
00000020: cb55 ccbd 2c6e ca3c df16 a43c 80a8 ecba
00000030: 6f2d df3d 225d b1bd f624 f4bd 81d9 81bd
00000040: 712a 843d d89c 95bd 3000 983d e6ac 8cbd
00000050: 49cc 693e 7126 b0bc da55 033e 05a3 f53c
00000060: d830 463d c4fe ce3d 82ef bbbd f02b cd3d
00000070: d079 b93d f8b3 e6bd 81dd c2bd eb84 d93d
00000080: c23b 3e3a 710c 18be ad1f 15bd ef04 943b
00000090: f34a 0f3d 9e4f cbbd 7753 e4bc fffd e43d
000000a0: 2d09 5ebd d12a 33bd 716a ebbc a85c 923e
000000b0: c6ff ecbd c1f1 0b3d f9e2 f33c 83f8 48bb
000000c0: 62f5 013d e62d 383d 5d6b 78bd 17b3 913c
000000d0: 6a59 dbbd 798a 5f3e 308b aabd d385 7a3d
000000e0: e8a8 923d da7a 6e3d 7ad8 f1bd 4741 24bb
000000f0: cf49 ebbd c8c1 1c3d 910f dd3c 76d5 d0bc
00000100: e738 613d 6663 6b3e 8eb7 483e 9133 813d
00000110: b761 2d3e 7505 133d 5fdd dc3d fdca b2bd
00000120: 3322 d83c 2ddc e9bd 4728 5e3d 0cb0 12bc
00000130: c4fa ffbd 7fc8 4b3e fd05 ed3d ab67 693d
00000140: e6fa 013d 7d22 b5bc db43 e2bc 0de1 f03d
00000150: d4f9 bc3c fbf6 1bbd 7ba1 ce3c 00b8 963d
00000160: 5048 6cbd 8913 6d3d 352a 173d fcb4 d2bc
00000170: 687a 183d 6a62 113d 01b2 9c3d 778c d0bd
00000180: 5c4f 00be 60de b6bd 989a 7ebd 0071 6abd
00000190: 0a09 da3d 18df 433e 4a28 7ebb 6cf8 473c
000001a0: 4561 3f3c 287c 2dbc 318d 143e bec5 0d3e
000001b0: b907 eb3b b115 8c3c 8964 223d e216 d5bd
000001c0: 0c2d 65bd f19d 263e 611c 1cbe 5059 07be
000001d0: 4c3d b9bd 9ba6 64bd 8f60 b03d af69 81bd
000001e0: 7459 913d 6c66 213e f316 053d 7a14 86bc
000001f0: 1a87 08bc 027e 49be 3bb6 f53d 8488 4ebd
00000200: 6bd4 b2bd c571 323d e509 2d3b 4b49 563d
00000210: 567e 723e 7f5f d83c 5e63 9f3d 8210 983d
00000220: 0576 a03e de4e 413d f3f3 ddbd 068e 2bbd
00000230: 0537 eabd 7159 f23d b9fa 803c 665d e83d
00000240: 66f1 0bbe 91df da3d 353a 5bbd ca33 a93d
00000250: 08f1 2cbe 486e 8fbd b851 bdbb 41b5 c1bc
00000260: a957 1c3e 4eba 0bbe 30e4 d5bb 073e 0abe
00000270: c636 023e e24b b53c 44b4 cdba 4a65 3abd
00000280: 958a c1bc f549 733e 6687 85bd f49a 003e
00000290: c32c 683d dacb 9b3c 8cae 2fbb 5384 233b
000002a0: df02 e0bd d9b3 833e 49fc 1fbe ed76 823c
000002b0: d5c8 4d3e d348 5ebe 3138 b03a 0720 653d
000002c0: 0c72 7b3d 8d25 673e 78a9 febd e0b3 3fbd
000002d0: 4bba b8bd becb c83d 7382 62bc e3f2 aebc
000002e0: 05fc 11be 66a9 6abd b23a 6e3d 0ef5 63bc
000002f0: 6695 b83d 346a 66be 72f6 d4bd 1efc 793d
00000300: 8229 f5bd 2eea 98bd b0f4 4b3e 3f80 f83b
00000310: 608d 21be 7bac b3bd 3ec5 403e 172c 98bd
00000320: 7897 cfbd 1246 903d b9c2 fb3b 77fa b23d
00000330: c5e4 563c 3275 2e3e 3b60 e83d 015b 983d
00000340: daa9 03be 738c 023d 5fe3 923d 66b1 cfbc
00000350: e93e a2bd 7baf a53d 26b9 693d 3696 b8bd
00000360: dc18 b23d e7f8 593d fc8f babd 5c48 c5bc
00000370: 8d0b 593e 2403 26bd a417 c83b 9fb2 2a3d
00000380: bb27 4b3e 5552 a2bd 4454 bfbd 265d 46be
00000390: af5e a5bd 436f 383e 1bd0 853d 7b5a 4a3e
000003a0: f695 453d 7ce8 0dbe 402a 7d3d fd9b 743e
000003b0: 1f3c 62be d331 d0bd a239 d4bd 2923 123e
000003c0: 708b 5b3d 36b5 b4bc 2b9e 053e 5a77 333e
000003d0: 1373 043e 367c 4cbe 46d2 aebb d3a0 f53c
000003e0: 9a65 d33c b6f9 41be 92a4 bebd 1064 253d
000003f0: 9e04 f6bc 2103 54bd e1ac 77bd 014d 11be
0.111642756 -0.10237827 -0.09003289 -0.103225365 0.05347296 -0.034913372 0.01794346 0.102623306
-0.09977301 0.024710737 0.020030437 -0.0018055588 0.10897338 -0.08660342 -0.11921112 -0.06340314
0.064534076 -0.07305306 0.07421911 -0.06868915 0.22831835 -0.021502705 0.12825719 0.02998496
0.048386425 0.101071864 -0.09176542 0.10018146 0.09056437 -0.11264795 -0.09514905 0.10621055
0.00072568294 -0.14848496 -0.03640716 0.0045171897 0.034983587 -0.09927295 -0.02787183 0.111812584
-0.05420797 -0.043742005 -0.028737279 0.28586316 -0.115722224 0.0341661 0.029771315 -0.0030665703
0.031728156 0.044965647 -0.060649265 0.017785592 -0.10710414 0.21830167 -0.08327329 0.06116278
0.071611226 0.05822263 -0.11808868 -0.0025063322 -0.11488687 0.03827074 0.026984962 -0.025492411
0.054985907 0.22987136 0.1960127 0.06308664 0.16931807 0.035893876 0.10784411 -0.08730123
0.026383495 -0.11418948 0.05423763 -0.008953106 -0.124990016 0.19900702 0.11573408 0.05698363
0.031733416 -0.022111172 -0.027620247 0.11761675 0.023068346 -0.038077336 0.025223484 0.07359314
-0.05768615 0.05787996 0.036905486 -0.025721066 0.03722611 0.035494246 0.07651139 -0.101830415
-0.12530273 -0.089291334 -0.06215915 -0.05723667 0.10646255 0.19128072 -0.0038781338 0.0122052245
0.011680906 -0.010588683 0.14506985 0.13844964 0.0071725515 0.017100187 0.03964666 -0.10404755
-0.055951163 0.16271187 -0.152452 -0.13217664 -0.090448946 -0.05582295 0.08612167 -0.06318986
0.0709714 0.15761727 0.03249259 -0.016367186 -0.008332992 -0.19676974 0.11997648 -0.05042316
-0.08731922 0.04356553 0.0026403603 0.05231599 0.23681006 0.026412724 0.07782625 0.074250236
0.31340042 0.047194354 -0.10837545 -0.04188349 -0.114362754 0.11833466 0.015744554 0.11345939
-0.13666305 0.10687173 -0.053522307 0.08261831 -0.16888821 -0.07003456 -0.005777564 -0.023645999
0.15267815 -0.13645288 -0.006527446 -0.13500224 0.12716207 0.02213091 -0.0015693982 -0.045506753
-0.023625651 0.23758681 -0.06519966 0.1255911 0.056683313 0.019018102 -0.002680692 0.0024950698
-0.109380476 0.2572315 -0.15623583 0.015925849 0.20096143 -0.21707468 0.0013444481 0.055938747
0.06138806 0.22572918 -0.12434667 -0.0468024 -0.090199076 0.09804486 -0.013825047 -0.021356052
-0.14256294 -0.057290457 0.058161445 -0.013913406 0.090128705 -0.22501451 -0.10398568 0.061031453
-0.119708076 -0.07466541 0.1991756 0.0075836475 -0.15776587 -0.087731324 0.18825242 -0.074302845
-0.10136312 0.07044615 0.007683125 0.08739179 0.013116066 0.17036894 0.113464795 0.074392326
-0.12857762 0.031872224 0.07172274 -0.025353145 -0.079221554 0.08090111 0.057061337 -0.090130255
0.08696148 0.053215887 -0.09109494 -0.024082355 0.21195813 -0.04053034 0.006106334 0.041674253
0.19839375 -0.0792586 -0.09342244 -0.19371471 -0.080747 0.18011193 0.065338336 0.19761078
0.048238717 -0.13858217 0.06180787 0.2388763 -0.22093247 -0.10165753 -0.10362555 0.14271225
0.053599775 -0.022059064 0.13048618 0.17525998 0.12934522 -0.19969258 -0.005335125 0.029983914
0.025805283 -0.18942913 -0.09308733 0.04037863 -0.030031499 -0.051760796 -0.060467605 -0.14189531

network_body._body_endoder.seq_layers.2.bias f4 [128]
00000000: 2766 d13a f6e4 0d3d 6464 dc3c 60bd c13b
00000010: 906e a13b 8f35 fdbb fec2 1a3c 82ac 233c
00000020: 747d 393d 5fef fb3c 83f3 de3c d3b1 0a3d
00000030: d1f1 ef3c f19e dbbb 9560 383c a224 0d3d
00000040: 4ca5 2a3c 3640 3a3d 13df 02bc 3314 2f3d
00000050: 3bfc 1f3d 8735 aa3b 867d 323c 47f6 783b
00000060: 1e91 283b 2d13 283d 13d8 2b3d a8bf 1a3d
00000070: 83c8 763a 48ce 18bc a066 0a3c 303f 143d
00000080: 151f c63c 0772 213d d884 d73c 89b3 0a3d
00000090: 60d6 2b3c 9c68 b9bb f36a 723d 7865 4d3c
000000a0: 4318 f43c d410 1dbc 7ec3 063d dbd9 243d
000000b0: caac 673c 7a0e 053d 0381 7f3c 96c3 ae3c
000000c0: c17c e13c ec7d c23c a978 133d a73b c5bb
000000d0: 51a1 243d 2c5e 373d 108b 6fbb cc92 803d
000000e0: 6271 1fbc efb8 da3c a8b3 523c 94a2 703d
000000f0: 2ce0 6e3d 0896 213d 4477 d73c 10d9 0f3d
00000100: c83b be3b b465 373d 6acf d23c 0c27 90bc
00000110: f411 953c 018d 9a3b c6b0 253c 1e25 823b
00000120: 625d 3c3d 318a 673d 6535 bebb 0a37 0e3c
00000130: e0ea 7c3b 7371 8b3a fb12 33bb b5ab 43bc
00000140: 1925 0abc bdfb 793b 2409 97bb 4c36 b4bb
00000150: dccd 7b3d 3a1e c13c 1941 1d3d aaba bd3c
00000160: 26d9 193d e1b8 af3b 4a71 013c b9be 0f3c
00000170: b0ae b13c fa4e 193d e9de 64bc 171c 393c
00000180: e2ec 3b3d 4c4a b23c 5176 4bb8 3485 0f3d
00000190: 6024 833a 2126 1cbc 27f7 213c 729e 5abb
000001a0: 9c92 a53c ccfd 833c 656b 9b3b c657 323d
000001b0: bb2d cf3c c445 d03c eda3 883c 452f 283d
000001c0: b8a4 a93b b041 3c3d 2e28 233d 12f0 583c
000001d0: 462d a03b 0624 393d 3049 f63b 0432 173d
000001e0: 4906 a33c 31a9 4a3b 7764 7fbc 74de 013d
000001f0: aa16 cf3b 5fc0 d93c 8a60 a7bc 5120 073d
0.0015975878 0.034642182 0.026903339 0.005912468 0.00492651 -0.007727332 0.009445904 0.00998986
0.045285657 0.03075379 0.027215725 0.033860993 0.029290112 -0.006702297 0.011253496 0.034458764
0.010415386 0.045471393 -0.007987755 0.042743873 0.039058905 0.0051943692 0.010894185 0.003798859
0.0025721262 0.041033912 0.04195411 0.037780434 0.0009414034 -0.009326525 0.008447319 0.036193073
0.024184743 0.039415386 0.026308462 0.033862624 0.010488123 -0.0056582224 0.059184026 0.012536399
0.029796725 -0.009586532 0.03290128 0.040246826 0.014140317 0.03248451 0.015594724 0.021333497
0.027525308 0.023741685 0.036003742 -0.006019074 0.040192906 0.044767544 -0.0036551394 0.06277999
-0.009731622 0.026699511 0.012860216 0.058748797 0.058319256 0.03944972 0.026301987 0.035119116
0.0058054663 0.044774726 0.025733668 -0.017596744 0.018197037 0.004716516 0.010112947 0.00397171
0.045987494 0.056528274 -0.005804705 0.0086801145 0.0038592145 0.0010638669 -0.0027324546 -0.011942794
-0.008431696 0.0038144432 -0.004609244 -0.0054996368 0.06147562 0.023573983 0.03839216 0.023160297
0.037560605 0.0053626155 0.007900545 0.008773499 0.021689743 0.037428834 -0.013969162 0.011298201
0.045880206 0.021763943 -4.8509162e-05 0.03503914 0.0010005347 -0.009530575 0.009885586 -0.00333586
0.02021151 0.01611223 0.004743027 0.04354074 0.02529036 0.025423892 0.016679728 0.041060705
0.0051771067 0.045961082 0.03983324 0.013240831 0.0048882095 0.04520037 0.007516049 0.036912933
0.019900458 0.00309236 -0.0155879175 0.03170629 0.0063198404 0.026580987 -0.020431776 0.032989804

action_model._discrete_distribution.branches.0.weight f4 [3, 128]
00000000: ff01 a1bc 0775 7c3d b1cc 423d bf61 45bc
00000010: 2c1b fcbc bcc4 4fbc d5a8 0cbd 54cc 91bd
00000020: c04f b63d c8b6 9f3d 87db d03c 1d07 503d
00000030: 7492 ad3d 8883 6ebd bfd2 6dbd 7c4d 7c3c
00000040: eb9f 13bd 6bc7 b83d feed abbd 5e82 9b3d
00000050: 7270 d8b7 be1e 58bc 9762 053c eb43 a4bd
00000060: dbf6 8f3b f608 8e3d a2f7 ae3d b161 a73d
00000070: 95b2 d9bc 9932 eabc bbb5 20bd 5731 023d
00000080: 876b 1f3d 6ab4 b03c be1a 473c ac8f 913d
00000090: 57a0 70bd ffc2 32bd 17d0 943d 1824 8abc
000000a0: c3b2 87bb 87b9 51bd 8666 73bc b4db 343d
000000b0: 79aa 82bd 5b0e a03d 6bac d1bc ca9c 953a
000000c0: 4409 2fbd 1f23 c33c dfa5 813d c907 033c
000000d0: 9e5e ae3d 6b76 c53c 59e7 ffbc b647 1c3d
000000e0: af09 53bd c3b8 ffbc 0d66 1cbb 061c c93d
000000f0: 1d85 813d 8eec 713d 2f80 9bbb 389b 133d
00000100: f8a3 aabd 2a95 c43d 5558 9c3c 362a 85bd
00000110: d4e9 233d 97bc f5bc 0dcf 91ba d2b5 9abd
00000120: de5a e73c 15df ca3d 9d0c 86bd c36c 063c
00000130: 53a9 95bb 363c fcbc e7c2 0b3b 357d 22bd
00000140: ecc9 a5bc acca 2bbc ea79 67bd 36e8 8bbd
00000150: b068 a53c aac8 5ebc ba6c 8e3d e421 ff3c
00000160: fb09 fd3c e3ce b4bd 4945 48bd 69bb c7bc
00000170: a733 c83c a148 893d a5f6 83bc 5ee8 75bd
00000180: ef2a b53d 0c43 2f3d 9ce6 74bd de2f 8d3d
00000190: 936e 28bd a4ce 7abd 7ff9 3e3d e303 d8bc
000001a0: 5af8 95bc cd5c 2fbd 1e11 abbc fa5d b23d
000001b0: cb13 8b3d c63b 59bc b0ef d93c 5147 993d
000001c0: be7c ac3c b2a4 633d 4072 953d b4aa a43c
000001d0: 7ab4 7bbd e541 ac3d cfdc 27bc cd97 cfbc
000001e0: 31fc d03c 28ca 89bd fa2e 7dbd 8f0d 263d
000001f0: b13a 94bd 0e04 2cbd a148 9fbd 104d d43c
00000200: b122 dcbc 9783 953d 41db 90bd 270e 12bd
00000210: be73 7d3d b2da a53c deb7 e9bc d7d5 5f3d
00000220: cd00 173b 396c 79bd bb59 e9bd 59ba d0bd
00000230: 2fc1 eabc c77f 403d 7973 803d 8b57 f7bd
00000240: fd9d 1c3d 9426 80bd 5253 a23c 0d97 aebc
00000250: fb45 c5bc d54a 12bd 753e 8f3c a7b1 553d
00000260: 5d18 603d 9c0f bd39 efe1 15bd 7e88 59bb
00000270: 0897 82bc 5197 a3bc 2340 7b3d 40c2 b2bd
00000280: 0a61 e1bd a78f 89bd 1d45 a4bd 3af8 933c
00000290: 17ef 2d3d 840c 133b 79fe a8bc 7407 533c
000002a0: ea63 9abd a8ab 813b a0f4 b9bd b713 d4bd
000002b0: 81d4 963b f7fd 1dbd 60ac 00bc f6a2 533d
000002c0: 735c b2bd 3c85 de3c a6c1 e03c 761a 0abc
000002d0: 2c60 7fbd 0f6a 903d c090 f93a 71f8 3cbd
000002e0: f03b ea3b a006 8e3c 51eb a9bd 74c6 85bd
000002f0: a644 9fbd 372b 87bd 248f acbd d45b 833d
00000300: f14b a23d e75b 76bd 19d7 d1bd 1b61 133d
00000310: 774e 32bc 17a9 c53d 7ce9 d73c f458 3abb
00000320: 3124 bcbd 9eee 90bd 8695 df3c 4e28 96bd
00000330: 1199 8abc 60c9 3b3d 6d39 85bc e976 5f3c
00000340: cba5 333d 22b6 f4bb 585e 323c a486 4e3d
00000350: 0516 9cbd a642 df3c d073 ecbc f8f1 473d
00000360: e057 efbd 92cd ac3c b170 56bc ee1d 99bd
00000370: 2a5b ebbd 61d5 81bd 5dbb f93c 0212 acbc
00000380: b383 96bc 28dd 2b3d 9140 80bc 2304 0abd
00000390: 8dfe 4cbc 54b1 a73c 88ec 27bd 76b5 0b3d
000003a0: c536 c53d d851 eb3c de79 a93c 99fb 99bd
000003b0: 68a9 40bd 5ed8 ae3d 3cff c03c 0da6 4b3c
000003c0: 9e15 70bd 930d 09be c6d1 5dbc e423 233d
000003d0: 5e13 03bc 3214 d8bc c132 943d 81ba 973d
000003e0: 611f 91bd 93c3 a23d bcb9 343c 98a8 84bd
000003f0: 5f9c 823d ee6b cd3d 1918 4c3d 4690 fbbd
-0.019654272 0.061635043 0.04755849 -0.01204723 -0.030774675 -0.0126811825 -0.0343407 -0.071190506
0.0890193 0.07798535 0.025495304 0.050788034 0.08475199 -0.058230907 -0.05806231 0.015399333
-0.03604118 0.09022411 -0.08395003 0.07593225 -2.5801568e-05 -0.013190923 0.008141181 -0.08020767
0.004393441 0.06935303 0.08543326 0.0817293 -0.026574412 -0.02858858 -0.03923581 0.031785335
0.038920905 0.021570403 0.012152372 0.07107481 -0.058746662 -0.043642994 0.072662525 -0.016862914
-0.004141183 -0.051202323 -0.014855986 0.044154838 -0.06380171 0.07815238 -0.02559491 0.0011414525
-0.042733446 0.023820458 0.063304655 0.007997462 0.085141405 0.024104318 -0.031238245 0.038154326
-0.051522907 -0.031216031 -0.0023864538 0.09819798 0.063242175 0.059063487 -0.0047455053 0.0360367
-0.08332056 0.09598763 0.019085089 -0.06502192 0.040017918 -0.029997153 -0.0011124328 -0.07554211
0.028241571 0.09905831 -0.065453745 0.008204642 -0.004567304 -0.03079043 0.0021325888 -0.039670188
-0.020237885 -0.010485332 -0.05651275 -0.068314 0.02019152 -0.013597647 0.06954332 0.03114409
0.030888548 -0.08828523 -0.0488942 -0.024381356 0.024438692 0.06703306 -0.01610882 -0.060036056
0.088460796 0.04278855 -0.05979024 0.068938956 -0.041121077 -0.061232224 0.046624657 -0.02636904
-0.0183069 -0.04281311 -0.020882186 0.08709331 0.067908846 -0.01325888 0.02660355 0.07484306
0.021055575 0.055576988 0.07297182 0.020100929 -0.061451413 0.08411006 -0.010245516 -0.025340939
0.02551088 -0.06728011 -0.06181238 0.040540274 -0.07237757 -0.041996054 -0.07777525 0.025915653
-0.02687201 0.073004894 -0.07073069 -0.035658028 0.06187796 0.020245884 -0.028530058 0.054647293
0.0023041249 -0.060894225 -0.11394068 -0.10191793 -0.02865657 0.046996858 0.06272025 -0.12077244
0.038236607 -0.06257358 0.01981512 -0.021312261 -0.02408122 -0.035715897 0.017485837 0.052171376
0.054710735 0.0003606052 -0.03659242 -0.0033192928 -0.015941158 -0.019969614 0.061340462 -0.087284565
-0.11004837 -0.06716853 -0.08020995 0.0180627 0.042464342 0.002243788 -0.020629155 0.012880195
-0.07538588 0.0039572306 -0.09079862 -0.10355323 0.004602969 -0.038572278 -0.007853597 0.051669084
-0.087090395 0.02716314 0.027436089 -0.00842916 -0.062347576 0.07051479 0.0019040331 -0.04613537
0.0071482584 0.017337143 -0.08296836 -0.065319926 -0.077767655 -0.066000395 -0.084257394 0.06413999
0.07924641 -0.06014624 -0.10246105 0.03598128 -0.010882965 0.09651392 0.026356451 -0.0028434368
-0.091865905 -0.070767626 0.027292978 -0.07331906 -0.01691869 0.045846343 -0.016262734 0.01363919
0.043859284 -0.007468001 0.010886751 0.050421372 -0.076213874 0.02725346 -0.028863817 0.048814744
-0.11686683 0.021094117 -0.013088391 -0.07476412 -0.114919975 -0.06339527 0.03048485 -0.02100468
-0.018373346 0.041958958 -0.015655788 -0.03369535 -0.0125118615 0.020470299 -0.04099706 0.0341086
0.09629587 0.02872555 0.020687994 -0.075186916 -0.04703656 0.085373625 0.023559205 0.012429726
-0.058614366 -0.13384084 -0.013538783 0.03982915 -0.008000223 -0.026376817 0.07236243 0.0740862
-0.07086063 0.07947459 0.011030611 -0.06477469 0.06377482 0.100303516 0.04982767 -0.12283377

action_model._discrete_distribution.branches.0.bias f4 [3]
00000000: f628 073d ebce 81bc 1bc0 8fbc
0.032998048 -0.015845736 -0.017547658

action_model._discrete_distribution.branches.1.weight f4 [3, 128]
00000000: 89cc 44bd fe31 58bc cfbd 283c c705 49bc
00000010: 4c3e 3cbd 6fa9 cd3a 45ff cd3c 21de 91bc
00000020: c833 513c 7965 5b3d 28b3 ae3b 0cd5 6f3c
00000030: ab9f f83c 3040 0fbd a162 a2bd d6a4 553c
00000040: 5251 74bd 9462 4a3c 26cf 453b e002 193d
00000050: eaad 973d f79c 133c a5ca 9bbd 46d3 e1bc
00000060: d2bd 34bd d7e7 d3bc e85f 3a3d b4f2 153c
00000070: 1b80 1bbd 6d52 cdbc 89a1 96bd 91fd 793d
00000080: 0efd 67bc f438 8c3d 5e53 993b 0cf8 0b3c
00000090: 8511 29bd 0522 4b3c 1b3a 4d3c 84d3 f13c
000000a0: c298 363d cb21 38bb 8cad 833d a526 943d
000000b0: 5f9f e3bc ed54 093c 5de2 7dbc cd29 37bd
000000c0: 201b 403c e8ad fd3c 522f c7bc 7f9d 82bc
000000d0: bd26 203d 2d51 d8bc b2f1 583d 42f0 d23c
000000e0: c9c4 af3c ca83 013d 000b 023b 0714 123c
000000f0: 9be6 3e3c fb50 2c3c d536 053c 2d60 a3bc
00000100: 6621 3dbd fa40 863d 70e6 4b3d c778 ec3c
00000110: 3b6a 23bc d580 53bd 5ec4 5abd 6007 edbb
00000120: 1b70 013d 4e91 603d b3c9 bcbc 0781 663b
00000130: c289 c6bc 43ac 43bd 6947 39bd 35e7 24bc
00000140: e045 f4bb 2a35 c8bc 1557 8dbb 625f 25bd
00000150: b8e3 813d db4e a3bd a02e 2ebc 1572 e0bc
00000160: 4d1d 2e3d 7704 25bb b627 513c 2a29 563a
00000170: 8c95 f03c 3c9b 4c3d bd3d b8bc 74a3 b83a
00000180: 0ff3 07bd 3a23 83bc 56e5 50bb 32ef 94bc
00000190: 57f1 09bd f1b3 dc3c 6f50 9f3c 974b 963c
000001a0: 70ef 3abd a5cb 34bc 71e1 0e3c 6c8e ae3b
000001b0: 4d0e 623d 556c 2dbd 1b11 16bd 2f51 173c
000001c0: 975f 273d 6369 8d3c b822 983c 6641 10bd
000001d0: 696b afbb 6c81 8f3c a9a8 b8bc 8f5a 9ebd
000001e0: d35b 13bc 8007 31bd 28f5 c33b 2b5c 8d3b
000001f0: 7e6e 88bc 1a03 7bbd 187e 10bc eafb aa3c
00000200: e889 293d 6ca3 e03b 5bb2 3f3c f64b 073d
00000210: 43d5 79bc 9db8 903c 7e17 1f3c 0881 3b3d
00000220: ce3b 05ba 6e88 d6bb 56ee 2b3c 8440 ec3b
00000230: c785 39bb 1879 023c 9621 833c 01aa 8e3c
00000240: dd91 43bc 414b c63a f2d5 933c 2ab3 abba
00000250: a53d ac3b 8ae8 5ebc 165f a43c e64e 5f3c
00000260: 7b91 303c d654 863c 9af6 d23b a4c8 e4bc
00000270: ddb6 2d3c e01d be3c 67a4 ed3a 2306 843c
00000280: 49b8 a03b a47c 113c 6395 393c 2324 ddbb
00000290: 20f2 4d3d e5a7 34bc b528 6fbb f440 24bc
000002a0: 39e3 463c a01d b2bb bf0d 023d e233 4ebc
000002b0: 2c7c cf3c 2905 6cbc 2a23 1d3d fc33 573c
000002c0: b00d 323c 3a3d aabc 3e06 833c b2ef 5f3c
000002d0: dab3 243d 8cfc 623c cacf 32bd a1cf bc3c
000002e0: da22 25bb d0ea 2c3c a659 94bc b6b7 97bb
000002f0: 7cd7 f5bc 0b1a 83bc ea7b aa3c 4709 753c
00000300: 6671 233d 2376 6fb8 d7ea 5dbc e874 a23c
00000310: 7f52 c6bc d2e2 4e3d 254f ff3b 4982 9b39
00000320: dd5e c43c 8f37 073c a329 523b 57b1 c93c
00000330: 10c9 06bd 316a c6bb 2244 aebc 2a71 db3b
00000340: 3701 4a3c 793f 30bc 448b aa3c dd39 9b3c
00000350: a671 26bc ea5f 5d3c 6bd9 9abc 43c0 243d
00000360: 357f 64bc 7a50 b1bb 3b20 b9bc f582 813a
00000370: e966 673c 37a1 f1bc dd44 8c3c c243 b53c
00000380: a3b7 b9ba ee0b 1b3b ae4e e13b c940 92bc
00000390: ab88 e53c 7308 c7b9 e8ed ed3c 6439 3d3c
000003a0: 993a 0f3d 39b9 0b3d deaa 643b 432d c4bb
000003b0: b69e 10bb df5c 5c3c 7464 813b 7bcd 513c
000003c0: 419f 7f3a 521a 923c 8c0a 98bc bcb4 6abc
000003d0: 45be 1b3d 68dc 6cbc 5239 7e3b 7e70 d83c
000003e0: c8d7 70bc ae39 01bb 999b 76ba b9d2 e2bc
000003f0: 6211 a43b c8a5 2b3c 497a 073d 8705 11bc
-0.048046622 -0.013195513 0.01029916 -0.012269444 -0.04595785 0.0015690754 0.025146136 -0.017806115
0.012768693 0.05356357 0.0053314157 0.014638197 0.030349573 -0.034973323 -0.07928968 0.013039788
-0.059647866 0.012352604 0.0030183285 0.037356257 0.07406218 0.009009591 -0.07607011 -0.027566563
-0.04412634 -0.025867386 0.04550162 0.009152103 -0.037963968 -0.025063718 -0.07355029 0.061032835
-0.014159454 0.068468004 0.0046791276 0.008543026 -0.041276474 0.012398248 0.01252606 0.029519804
0.044579275 -0.0028096314 0.06429586 0.07233933 -0.027785955 0.008382064 -0.015495864 -0.0447176
0.011725217 0.030966714 -0.024314556 -0.01594424 0.039099444 -0.026405895 0.052964874 0.02574933
0.02145614 0.031619824 0.0019842982 0.008915908 0.01165166 0.010517354 0.008130749 -0.019943321
-0.04617443 0.06555362 0.04978031 0.028866185 -0.009974058 -0.051636536 -0.053409927 -0.007233545
0.031601053 0.054826073 -0.023045396 0.003517212 -0.02423561 -0.047771703 -0.045234118 -0.01006489
-0.007454619 -0.024439413 -0.0043133595 -0.040374167 0.06342262 -0.07974025 -0.010631233 -0.027398149
0.042508412 -0.0025179663 0.0127658155 0.0008169586 0.029368185 0.04995273 -0.022490377 0.0014086799
-0.033190783 -0.016008008 -0.0031874976 -0.018180463 -0.033677425 0.026941271 0.019447533 0.01834659
-0.0456385 -0.011034881 0.008720742 0.0053270366 0.05518942 -0.04233964 -0.036637407 0.009235664
0.040862646 0.017262166 0.018571243 -0.03521862 -0.0053533805 0.017517768 -0.02254136 -0.077321164
-0.008994061 -0.043220043 0.0059801526 0.004313966 -0.01665425 -0.061282255 -0.008819126 0.020872075
0.041391283 0.006855419 0.011700238 0.033031426 -0.015248599 0.017666155 0.009710191 0.04577735
-0.0005082459 -0.0065470254 0.010493835 0.0072098393 -0.0028308497 0.007963441 0.016007226 0.017415049
-0.011936632 0.0015128629 0.018046353 -0.001309966 0.005256372 -0.013605246 0.020064872 0.013629651
0.010776873 0.016397875 0.0064380886 -0.027927704 0.01060268 0.023207605 0.0018130661 0.016116207
0.004904781 0.008879814 0.0113271205 -0.0067486926 0.050279737 -0.011026357 -0.003649277 -0.010025252
0.012139135 -0.0054356605 0.03175139 -0.012585612 0.025327764 -0.014405527 0.038363613 0.013134953
0.010867521 -0.020781148 0.015994187 0.013667988 0.040210582 0.013854157 -0.043655194 0.023048224
-0.0025197775 0.010554031 -0.018109154 -0.0046300543 -0.030009978 -0.01600363 0.02081104 0.014955825
0.039903067 -5.7092064e-05 -0.01354476 0.019831136 -0.02420926 0.05050928 0.007791417 0.00029660974
0.023971016 0.008252992 0.0032068274 0.024620695 -0.032906592 -0.0060551395 -0.021272723 0.00669684
0.012329391 -0.010757321 0.02081836 0.01894849 -0.010158932 0.013511637 -0.018902501 0.040222418
-0.013946344 -0.005411205 -0.022598376 0.0009880947 0.014123657 -0.029495819 0.01712268 0.022127036
-0.0014169108 0.0023658234 0.0068758344 -0.017853158 0.02801927 -0.00037962533 0.029044107 0.0115493275
0.034967992 0.03411219 0.0034891884 -0.005986841 -0.0022067255 0.013449877 0.0039487425 0.012805338
0.00097512087 0.017834816 -0.018559717 -0.014325317 0.038023252 -0.014456846 0.003879149 0.026420828
-0.014699884 -0.0019718218 -0.0009407341 -0.027688371 0.005006955 0.010476537 0.033075605 -0.0088514155

action_model._discrete_distribution.branches.1.bias f4 [3]
00000000: 8f39 63bc 6a68 b93b 4343 1d3c
-0.0138687035 0.005658199 0.009598556

exp_avg f4 [128, 68]
00000000: bab1 0e39 6823 2a38 425d 3bb7 6aa7 61b6
00000010: c209 60b5 b3cd 7e38 f43a 2039 d0bc b337
00000020: eea3 acb4 1ac6 4db7 8c84 c3b4 6f37 1838
00000030: b9c2 a338 c999 a838 8199 b836 4a41 b7b6
00000040: 6845 3936 2d44 6d38 a3a0 0339 4317 4038
00000050: 92ad 85b5 8c23 76b7 0ca7 bc36 e4f6 8038
00000060: e8e2 1c39 2c7e be38 e1ec 96b8 d695 84b7
00000070: 3b54 1037 388c 4a38 989c 1039 f8f0 5a38
00000080: e775 86b5 ffa4 5eb7 a441 74b7 b68a 1538
00000090: 6d98 6739 0bae 9638 3960 0eb9 824f bc36
000000a0: 75d0 a9b5 ab2c fa37 97a9 ff38 6a0e 4138
000000b0: 312e 82b5 74bc d9b6 ecf2 5735 b239 2438
000000c0: 30c7 3839 392e 0638 8474 c7b8 1725 4938
000000d0: 4772 7134 39ab d837 6277 9738 5d12 8538
000000e0: 81ec 0038 84ac aab6 7736 48b3 20ab 1638
000000f0: ab95 5239 fb67 d3b5 6fab 9cb8 50e0 1938
00000100: 7249 7833 9573 cf37 eaf3 2e3a 392e 3034
00000110: f255 b538 f749 bab7 fddc 91b6 3b9f 4f36
00000120: aa67 10b6 3f3b 28b8 2724 2a38 d9fb 0f38
00000130: e91a ddb2 ee17 69b7 7f49 ffb3 bc67 1eb8
00000140: d327 a038 2206 05b8 7b06 bd37 d137 6a36
00000150: 14c6 24b7 2379 8537 e018 1e38 975a 2638
00000160: 6472 0eb4 7dab 6cb7 83b6 17b6 733d 26b7
00000170: d9bf 0cb7 83b3 0db8 e5dc ed38 52dd aab5
00000180: 9902 19b7 1180 93b7 d7d7 3d38 fe93 1438
00000190: 8781 22b4 042d 4bb7 def4 fdb6 d310 48b7
000001a0: b6b0 3bb8 5a2c 27b8 e638 1a39 c09b 27b6
000001b0: 717a 6c35 a672 8bb4 5609 4538 8984 da37
000001c0: a0bb f2b3 ea82 4db7 a536 4d34 ab63 a6b6
000001d0: 1978 48b8 d3b8 f8b7 e076 fc38 2501 9137
000001e0: 3f44 2935 fd4d 8837 a887 c838 f14f 1e37
000001f0: aa14 05b8 1fb8 50b7 a272 07b3 ac0a c536
00000200: a71b 0038 16eb 9fb7 e735 e737 e200 b837
00000210: 90c4 e5b3 94c2 ac37 3258 74b9 9ed9 86b5
00000220: 977a b038 84d1 4b38 3882 c5b7 4101 1a38
00000230: c7ca 29b7 15b2 a037 9751 0239 3242 9c37
00000240: a6a9 4a35 e288 5fb7 5022 b736 803e 46b8
00000250: 8bbb a637 f358 ba37 ea22 4d38 f9f4 6b38
00000260: db37 40b7 b30e 3038 7c60 75b7 6e99 2e39
00000270: 3a2a cdb4 2b8b bdb7 dd33 e736 6604 3238
00000280: a56c 0538 4575 9538 982e 30b7 ace3 5638
00000290: 286c 06b7 4bf3 5e37 c65c 6438 636d 0439
000002a0: c0ae b0b4 b275 84b7 5cc2 f1b7 78cc 67b7
000002b0: c51a b938 71b4 6438 8fee ceb8 d104 bc38
000002c0: c7da 0736 213b c036 fa5e 6637 bbf6 0c39
000002d0: a16b 9cb4 196c 40b7 fea7 22b5 70d1 1537
000002e0: 9d7b dc35 6055 e037 9e67 4bb8 5846 2139
000002f0: 093f 0d36 100a 0638 cf51 7538 e911 d738
00000300: 42c0 25b6 157f beb7 71c1 8bb3 f6b3 8737
00000310: 0564 ba38 b839 4eb7 cb3c d8b8 5470 2a39
00000320: 80ba 9fb4 5bd0 1938 9d63 e339 211c 73b6
00000330: 4798 b537 80c8 e7b7 7f5b 5035 eb87 30b7
00000340: a953 0334 90d4 3db8 d4f7 80b8 699f 7838
00000350: de6e 94b4 6997 6ab7 2567 6a35 bd47 d6b7
00000360: e89c 5b38 5c30 4fb8 792f f036 d802 95b7
00000370: a099 05b7 7d39 b1b7 7a51 3fb7 ae2b 2637
00000380: 62b3 2fb1 8c4e 03b7 1fac d2b6 691d 04b8
00000390: 09ce 8ab6 9e88 62b8 60e5 9338 ec33 8fb7
000003a0: 190f 37b7 499a 0cb8 6b20 ebb7 175f 8237
000003b0: 6338 c3b2 25ff 12b7 ee1c be36 0514 8db7
000003c0: 663d 62b7 6f62 7fb8 cefb ae38 b4a7 d6b7
000003d0: 272b 7635 9406 78b7 be06 90b2 65bf 74b6
000003e0: 7028 0932 7287 3fb7 c085 0fb5 cb91 55b7
000003f0: b8c4 bcb6 0e86 53b8 784b 9238 6f1f f9b7
0.00013608384 4.0564133e-05 -1.1167782e-05 -3.362506e-06 -8.34607e-07 6.074989e-05 0.00015280751 2.1426386e-05
-3.215677e-07 -1.2265076e-05 -3.641802e-07 3.629125e-05 7.8087156e-05 8.039509e-05 5.5014975e-06 -5.4614256e-06
2.7607548e-06 5.6568697e-05 0.00012552975 4.579803e-05 -9.959788e-07 -1.4671019e-05 5.6222834e-06 6.1495026e-05
0.00014961849 9.083407e-05 -7.1966795e-05 -1.5805399e-05 8.60268e-06 4.8291142e-05 0.00013791246 5.219967e-05
-1.0018092e-06 -1.3270647e-05 -1.45588165e-05 3.5653553e-05 0.0002208666 7.1849754e-05 -0.00013578021 5.6120925e-06
-1.265215e-06 2.9823123e-05 0.00012190936 4.602821e-05 -9.699198e-07 -6.489043e-06 8.044724e-07 3.915438e-05
0.0001762181 3.1991138e-05 -9.510762e-05 4.7956677e-05 2.2486448e-07 2.5828938e-05 7.222478e-05 6.3453546e-05
3.073784e-05 -5.0864783e-06 -4.6615664e-08 3.592216e-05 0.00020082916 -1.5750987e-06 -7.470592e-05 3.668695e-05
5.7808798e-08 2.4730145e-05 0.0006673919 1.6408093e-07 8.646761e-05 -2.220737e-05 -4.347063e-06 3.0938088e-06
-2.1518013e-06 -4.01095e-05 4.0564828e-05 3.432841e-05 -2.5740023e-08 -1.3893454e-05 -1.1887732e-07 -3.7766746e-05
7.6368124e-05 -3.1715383e-05 2.2533573e-05 3.4901207e-06 -9.82128e-06 1.5911244e-05 3.7693302e-05 3.9661852e-05
-1.3266396e-07 -1.4106624e-05 -2.260699e-06 -9.908678e-06 -8.389318e-06 -3.3784203e-05 0.000113421855 -1.27304e-06
-9.1201155e-06 -1.7583401e-05 4.5262128e-05 3.5423778e-05 -1.5134547e-07 -1.2110224e-05 -7.568494e-06 -1.1924846e-05
-4.474885e-05 -3.985721e-05 0.00014707781 -2.4975598e-06 8.8095027e-07 -2.5974185e-07 4.6977155e-05 2.6049342e-05
-1.1303132e-07 -1.2249433e-05 1.9111992e-07 -4.9587884e-06 -4.7795565e-05 -2.964997e-05 0.000120384386 1.728588e-05
6.305672e-07 1.624878e-05 9.562011e-05 9.436147e-06 -3.1728916e-05 -1.2440635e-05 -3.1536395e-08 5.8723e-06
3.054333e-05 -1.9063747e-05 2.7562446e-05 2.193492e-05 -1.0699398e-07 2.0594605e-05 -0.00023302509 -1.0047113e-06
8.415168e-05 4.85941e-05 -2.3544868e-05 3.671763e-05 -1.0120398e-05 1.9156412e-05 0.0001242816 1.8627474e-05
7.5497735e-07 -1.3323706e-05 5.4578195e-06 -4.7265086e-05 1.9876074e-05 2.2214348e-05 4.8908325e-05 5.6256515e-05
-1.1457097e-05 4.197536e-05 -1.46256025e-05 0.0001665109 -3.821495e-07 -2.259536e-05 6.890374e-06 4.2442603e-05
3.1810854e-05 7.126717e-05 -1.0501266e-05 5.1233612e-05 -8.0122045e-06 1.3288877e-05 5.4445838e-05 0.0001262925
-3.2909702e-07 -1.5790432e-05 -2.8819944e-05 -1.38162795e-05 8.826474e-05 5.4527485e-05 -9.8672805e-05 8.965436e-05
2.0243913e-06 5.7289294e-06 1.3731182e-05 0.00013443355 -2.9135575e-07 -1.146926e-05 -6.0594164e-07 8.9298555e-06
1.6427254e-06 2.6742637e-05 -4.8495473e-05 0.00015380362 2.1047329e-06 3.195746e-05 5.8488742e-05 0.00010255335
-2.4698825e-06 -2.2708942e-05 -6.507879e-08 1.6177055e-05 8.887801e-05 -1.22919955e-05 -0.00010311006 0.00016254309
-2.9751754e-07 3.667209e-05 0.00043371032 -3.6226195e-06 2.1647791e-05 -2.7630711e-05 7.761918e-07 -1.0522063e-05
1.2230761e-07 -4.5259076e-05 -6.149677e-05 5.927627e-05 -2.7647815e-07 -1.398274e-05 8.732189e-07 -2.5544194e-05
5.23598e-05 -4.9397684e-05 7.158084e-06 -1.7763508e-05 -7.963186e-06 -2.1126814e-05 -1.1403457e-05 9.904541e-06
-2.556782e-09 -7.826497e-06 -6.2785252e-06 -3.1498643e-05 -4.136706e-06 -5.4009834e-05 7.052231e-05 -1.7071106e-05
-1.0911165e-05 -3.352229e-05 -2.8029279e-05 1.5541487e-05 -2.272663e-08 -8.761684e-06 5.665809e-06 -1.6817832e-05
-1.3484945e-05 -6.088841e-05 8.343869e-05 -2.558888e-05 9.1704936e-07 -1.47834835e-05 -1.6766872e-08 -3.647024e-06
7.983644e-09 -1.1416023e-05 -5.3466283e-07 -1.2729734e-05 -5.6257377e-06 -5.043117e-05 6.97588e-05 -2.969775e-05

exp_avg_sq f4 [128, 68]
00000000: 1cc9 7634 8aaa ac32 7cc6 5f31 c718 b232
00000010: 4aa1 b72f 6a4f d532 46a8 5934 2dda 4733
00000020: e3c4 bf30 bf45 b832 819b a731 12d1 2333
00000030: 0eb2 7134 e1cb ce32 6f44 ae31 9610 7c32
00000040: e874 de30 6d31 b232 1675 2a34 a64f 7f33
00000050: d45c 0931 9023 d032 0a90 7632 241c 5d33
00000060: 5deb 7334 9bf6 bf32 abc4 ff31 c2db 3c32
00000070: ba15 8430 7166 a932 99b4 3b34 e8eb 9133
00000080: 4203 1931 60d9 9b32 8b88 5c31 d28c 3133
00000090: 8c95 6c34 79e3 8332 8679 5a32 4591 a932
000000a0: 563e 9330 3b4d 9b32 8d11 6b34 a9c5 0533
000000b0: 310d ec30 15af 7b32 4ec9 d031 7148 0b33
000000c0: da6d 6734 5de5 4932 8218 8532 3758 d332
000000d0: 015d 7c2f d734 8932 4b8a 7134 197b 1833
000000e0: 2963 0531 9e48 1d32 c833 9f30 4e4a b232
000000f0: 47b8 6834 9d3e 2c32 0b34 2f32 20bd de32
00000100: 599c fa2e b580 8532 28c9 c235 567b c32e
00000110: 4299 3d34 1bf3 d432 4157 9130 8756 3a32
00000120: 3faa 032f ee8b a632 b603 2634 93ab 3233
00000130: 5b5f 0330 e6d6 4b32 bbde f030 7b86 c032
00000140: b2e9 2d34 eb4e 1733 68e2 0631 36e9 2832
00000150: d2a0 1c31 b6df a732 7c93 2534 d76e 1633
00000160: 7003 ba2f a1b6 3b32 27e4 bc31 e6f4 db32
00000170: faa8 2634 a14a 1d33 47a6 8631 0b14 3632
00000180: a525 ea30 9153 a632 42d4 3134 e3b8 1e33
00000190: 85da 6830 a8f3 1632 e9d6 ce30 a090 b032
000001a0: f09e 2734 f9c7 a232 0343 a331 1b35 e332
000001b0: f235 a630 1222 8132 8ddf 3434 8470 e932
000001c0: 92e3 6e30 da3d 0132 63b6 7731 a3ac a032
000001d0: 28f7 2c34 b0c0 2b32 5bde a631 e1ab 0533
000001e0: 1248 ab2f eec4 5932 3a1b 3c34 21d5 f232
000001f0: 6767 b730 9529 9731 8dbc 2330 0d05 5532
00000200: 1a5f 2a34 c7ba 9c31 764e 7031 23cd 2033
00000210: 58f4 b32e da94 3632 46be 8c35 4c9a f72d
00000220: d861 8435 184c 3f34 a9a9 9a32 4ffd cd33
00000230: 7266 4731 20fe 0434 5a5c 6935 ae7f b434
00000240: 194d 4931 178c bd33 cc2d f232 0b27 7534
00000250: db55 8835 e607 3834 7643 e232 f9bf bd33
00000260: d7eb b331 2e0e 9433 33e1 3535 0624 d334
00000270: bb83 8c31 8286 b433 4288 c533 3e8e a634
00000280: 8a7e 8a35 3f32 1934 7e60 0833 8328 bc33
00000290: caac bb31 7e96 8133 1b1e 4935 67ee fa34
000002a0: ff71 d831 80d8 3633 37d1 5032 1015 8234
000002b0: ee8f 8f35 09b5 b533 6a7c 2d33 34d2 d733
000002c0: 41ac e531 d613 6633 da95 8d35 fa00 3534
000002d0: dc1f a931 4698 eb32 cae9 aa32 2e16 4734
000002e0: e6cf 9135 703f 7c33 d3c4 3633 c38c ff33
000002f0: ccb3 2831 27a9 4833 fbdb 9335 d373 2534
00000300: 2f68 8931 c679 a132 51c7 2432 bfff 0134
00000310: dd13 9535 a472 2733 a8df ab32 a578 fa33
00000320: 9efb 1731 1444 5733 bd56 c136 177a cb2f
00000330: 92b5 1334 f6e0 4a33 15a4 dd30 d39b 9932
00000340: 565a 1230 1af0 c732 ea77 1a34 d1a1 1e33
00000350: d868 2830 9736 a132 2a4f 2b31 5a09 c032
00000360: 441e ee33 d520 9433 2b10 2431 d575 7b32
00000370: fdd0 6131 5141 ef32 ca29 1f34 3939 0a33
00000380: 35dc dc2f 29b7 8632 f9a5 ba31 e985 bb32
00000390: 0f65 ec33 c66a 9833 9502 8b31 3d45 6032
000003a0: 1b1b 8c31 c682 fa32 176e 1f34 215b 2033
000003b0: 08e0 1a30 1c45 4f32 3966 0131 76cb 9b32
000003c0: d34f 0634 5df5 4733 97b2 ba31 7ca8 c232
000003d0: f681 0331 955d d832 3e50 3134 e07a db32
000003e0: fcca 1830 7a8b 1732 0ff1 f030 7ba6 7d32
000003f0: 8140 1334 0eaf dd32 2e23 8d31 ae22 1233
2.2983698e-07 2.0100988e-08 3.2563596e-09 2.0733195e-08 3.340211e-10 2.4832577e-08 2.0270917e-07 4.6531728e-08
1.3953038e-09 2.1452136e-08 4.8780184e-09 3.8141543e-08 2.250965e-07 2.407427e-08 5.0718465e-09 1.4672102e-08
1.6185853e-09 2.0744404e-08 1.587508e-07 5.9444254e-08 1.998889e-09 2.4230559e-08 1.4351835e-08 5.1481166e-08
2.2716763e-07 2.234747e-08 7.4438353e-09 1.0993007e-08 9.610439e-10 1.9720774e-08 1.7481433e-07 6.795e-08
2.2266282e-09 1.8143226e-08 3.209183e-09 4.13391e-08 2.2033618e-07 1.535385e-08 1.2716901e-08 1.974025e-08
1.0713375e-09 1.8079495e-08 2.1892465e-07 3.1146246e-08 1.7175009e-09 1.4649932e-08 6.0764824e-09 3.2429345e-08
2.1553515e-07 1.1751891e-08 1.5494383e-08 2.4603748e-08 2.2952308e-10 1.5972928e-08 2.2495185e-07 3.5502215e-08
1.9410413e-09 9.155114e-09 1.158349e-09 2.0755717e-08 2.1673723e-07 1.0025954e-08 1.0198174e-08 2.5930206e-08
1.1396457e-10 1.5541767e-08 1.451267e-06 8.889482e-11 1.7657752e-07 2.47906e-08 1.0574938e-09 1.0846299e-08
1.1974864e-10 1.9388576e-08 1.5461305e-07 4.15999e-08 4.779303e-10 1.1865017e-08 1.7525602e-09 2.2412896e-08
1.6196898e-07 3.5229203e-08 1.9628263e-09 9.831913e-09 2.2792404e-09 1.954309e-08 1.5420477e-07 3.5025405e-08
3.3835645e-10 1.0926358e-08 5.497458e-09 2.5606322e-08 1.5521428e-07 3.6622286e-08 3.918817e-09 1.05983515e-08
1.703644e-09 1.9362945e-08 1.6561629e-07 3.6955395e-08 8.4711643e-10 8.78655e-09 1.5049554e-09 2.0554864e-08
1.5610908e-07 1.895022e-08 4.7515427e-09 2.6450428e-08 1.2093422e-09 1.503307e-08 1.6845134e-07 2.7175936e-08
8.690729e-10 7.522852e-09 3.6046905e-09 1.8704958e-08 1.6108663e-07 9.997322e-09 4.8565147e-09 3.11228e-08
3.1155928e-10 1.2675839e-08 1.751877e-07 2.8269428e-08 1.3344391e-09 4.3994057e-09 5.9567e-10 1.239938e-08
1.5867082e-07 4.5614317e-09 3.4969196e-09 3.7439474e-08 8.183382e-11 1.0627639e-08 1.048619e-06 2.814917e-11
9.863243e-07 1.7815944e-07 1.8005112e-08 9.592133e-08 2.9016545e-09 1.2385908e-07 8.6933653e-07 3.3620512e-07
2.9293175e-09 8.8264805e-08 2.8193334e-08 2.2831607e-07 1.0157777e-06 1.7139209e-07 2.634054e-08 8.835918e-08
5.2363975e-09 6.894366e-08 6.775546e-07 3.9328023e-07 4.0895123e-09 8.40637e-08 9.1983125e-08 3.1023404e-07
1.0318629e-06 1.4267515e-07 3.1752727e-08 8.761801e-08 5.46206e-09 6.034405e-08 7.4922144e-07 4.673959e-07
6.2993872e-09 4.2572083e-08 1.2154763e-08 2.4229712e-07 1.0696219e-06 8.4613994e-08 4.0392855e-08 1.00499534e-07
6.68436e-09 5.356909e-08 1.0548931e-06 1.6857294e-07 4.9221693e-09 2.7426847e-08 1.989692e-08 1.8541388e-07
1.0863848e-06 5.873102e-08 4.2554188e-08 1.1899967e-07 2.454942e-09 4.6719972e-08 1.1016376e-06 1.5408959e-07
3.999069e-09 1.8798243e-08 9.591376e-09 1.2107101e-07 1.1107146e-06 3.8986983e-08 2.0008727e-08 1.1663477e-07
2.211642e-09 5.0120505e-08 5.761946e-06 3.7012235e-10 1.3756497e-07 4.723639e-08 1.6126501e-09 1.7882405e-08
5.3242866e-10 2.3275835e-08 1.4385992e-07 3.6934413e-08 6.1267036e-10 1.8767691e-08 2.4928775e-09 2.2355994e-08
1.1088244e-07 6.897759e-08 2.3874331e-09 1.4636915e-08 3.2860605e-09 2.7852964e-08 1.4823232e-07 3.2182673e-08
4.0174233e-10 1.5682945e-08 5.4321814e-09 2.183056e-08 1.1007989e-07 7.0974735e-08 4.045726e-09 1.3054259e-08
4.077618e-09 2.91633e-08 1.484808e-07 3.7335784e-08 5.634324e-10 1.20646995e-08 1.8830077e-09 1.8136898e-08
1.2508762e-07 4.6556455e-08 5.433616e-09 2.266119e-08 1.9136883e-09 2.5188266e-08 1.6513602e-07 2.5550833e-08
5.5585736e-10 8.82107e-09 1.7530811e-09 1.47643915e-08 1.3713908e-07 2.5807392e-08 4.1076396e-09 3.4024815e-08

exp_avg f4 [128]
00000000: fe14 2939 3062 7f38 2676 0e39 72f8 82b7
00000010: ef96 08b7 1671 3fb9 f7fe 0ab7 f0ab b538
00000020: 76ae d038 362c 90b7 bdec 7738 f80e 3939
00000030: eae9 6538 e5ed 5839 bc12 3fb8 ad8e 9eb7
00000040: 2aa9 7ab9 13a3 61b8 df3d 85b8 f5cf 0db9
00000050: 0aba 0cb9 37a8 d438 c839 1eb8 3f35 46b7
00000060: bb5c 1939 3198 b8b5 90d6 7737 ccae cc38
00000070: 9a9a aa38 666c df38 7708 6537 2bc2 0138
00000080: 506d ed37 0a09 8fb8 274d b1b7 5989 9738
00000090: 1da4 86b8 0adf ce38 a736 9638 ab83 b838
000000a0: 2fb0 8a38 5854 30b8 6d83 19b6 4a0a 1f39
000000b0: 7405 0237 f0eb 0939 0ee1 c038 661d 0839
000000c0: 88f5 8138 0d41 98b8 2347 3737 6241 39b8
000000d0: 0393 a738 628c ed38 daaf 8037 8ed6 c5b9
000000e0: 7e69 30b7 70bb 20b7 160b b037 f0a7 16b9
000000f0: ffd0 10b9 d543 2a39 1544 0739 173a e2b6
00000100: bd13 2438 d0ce 0bb8 1af4 5637 9efd efb8
00000110: 6844 3cb9 ca93 2e38 4eae 5739 d9f1 e4b8
00000120: 30af 0339 f661 0939 0b3f f737 b725 a2b8
00000130: d28f 6f38 93d0 ddb8 18e3 8838 d64e db37
00000140: 718d b137 53af d7b8 9fb8 f338 3d86 8c37
00000150: 724a 8db8 6383 dd38 6375 8e38 4cc1 1739
00000160: 3a2b a3b8 3b34 92b8 1e7d 2f39 e9ca c537
00000170: 79fe b737 504c 2a39 65ff 93b8 d03e 0239
00000180: 1d46 e738 02da 2239 fbae 91b7 b543 f4b7
00000190: f88b ef36 b42b bfb8 9bc2 4138 a868 f8b8
000001a0: 9ac3 2639 a8f4 1ab9 bfde 90b7 87b9 9337
000001b0: 757f 48b8 23c2 1c39 71e2 8b38 915e 9bb7
000001c0: e864 4438 b9eb c735 d47c 09b7 ff4e 41b9
000001d0: f877 6d38 55fb ecb8 d931 2a38 60ee ddb8
000001e0: 6467 60b8 b588 f838 136c c437 bd9b 5839
000001f0: 852d 4339 bf91 1ab6 28cf e2b8 aa10 d2b8
0.00016124916 6.0888182e-05 0.00013586189 -1.5612899e-05 -8.141374e-06 -0.00018257307 -8.284805e-06 8.6627784e-05
9.950709e-05 -1.7186725e-05 5.910987e-05 0.00017648551 5.4815704e-05 0.00020687988 -4.5555396e-05 -1.8901506e-05
-0.00023904876 -5.3796055e-05 -6.3534586e-05 -0.00013524278 -0.00013420745 0.0001014028 -3.772395e-05 -1.1814117e-05
0.00014625762 -1.3753362e-06 1.4772304e-05 9.7600365e-05 8.1350285e-05 0.000106536594 1.36514345e-05 3.093683e-05
2.8303504e-05 -6.820455e-05 -2.1135971e-05 7.225824e-05 -6.4201864e-05 9.86439e-05 7.162737e-05 8.798329e-05
6.6131695e-05 -4.204022e-05 -2.2875276e-06 0.00015167255 7.7498735e-06 0.00013153232 9.197193e-05 0.00012980922
6.196933e-05 -7.2600415e-05 1.0924213e-05 -4.416833e-05 7.9905636e-05 0.00011327189 1.5340676e-05 -0.00037734624
-1.0514979e-05 -9.580384e-06 2.0985997e-05 -0.00014367676 -0.00013810767 0.00016237733 0.00012899966 -6.7420874e-06
3.911903e-05 -3.333279e-05 1.2812228e-05 -0.00011443648 -0.0001795456 4.1622472e-05 0.00020568931 -0.00010916935
0.00012558396 0.00013101831 2.9474051e-05 -7.731787e-05 5.7115984e-05 -0.00010576951 6.527285e-05 2.6143545e-05
2.1165908e-05 -0.000102846556 0.00011621531 1.675181e-05 -6.7372705e-05 0.00010562574 6.7929526e-05 0.00014472491
-7.780497e-05 -6.971551e-05 0.0001673591 2.3578717e-05 2.1933798e-05 0.00016240892 -7.057077e-05 0.00012421166
0.00011027998 0.00015530738 -1.7366829e-05 -2.9118595e-05 7.1390496e-06 -9.11573e-05 4.6196026e-05 -0.00011845055
0.00015903861 -0.00014777726 -1.7269862e-05 1.7610158e-05 -4.780242e-05 0.00014949641 6.6702145e-05 -1.8521476e-05
4.6824018e-05 1.489526e-06 -8.1949e-06 -0.00018435343 5.6616933e-05 -0.00011300171 4.0577583e-05 -0.00010582502
-5.350205e-05 0.00011851025 2.3415347e-05 0.00020657382 0.00018613607 -2.3032624e-06 -0.000108151056 -0.00010016684
