results/ppo/MoveToGoal.onnx (onnx, 73881 bytes, 9 tensors)

action_model._continuous_distribution.log_sigma f4 [1, 2]
0.0074462085 0.010244198
00000000: 53ff f33b 48d7 273c

action_model._continuous_distribution.mu.bias f4 [2]
0.0024122156 -0.0015262291
00000000: 4316 1e3b c00b c8ba

action_model._continuous_distribution.mu.weight f4 [2, 128]
-0.02216508 -0.011673697 0.010495535 -0.0075311167 0.0062864665 -0.017819284 0.0047231284 0.005302313
0.003816377 -0.00095842726 0.015149681 -0.00862394 -0.028135411 0.004769382 -0.023811426 -0.029521551
0.023788735 -0.0035289475 0.0068645147 -0.013294031 0.017475352 -0.004622157 0.0017014344 0.01769867
0.007540021 0.0019609577 0.014129404 -0.011795194 0.008322661 -0.0069064423 -0.03658362 -0.031538844
0.007458639 0.0008127272 0.025303394 0.0043235295 -0.012075654 -0.017013181 -0.009870546 -0.011335434
-0.017198782 -0.0040899375 0.0028247873 -0.032928087 -0.00886498 0.016594457 0.019189242 -0.0051537766
-0.004595343 3.9501215e-06 -0.02652248 0.021216854 0.0071209297 0.0021240918 -0.030969828 0.03205805
0.0049882256 0.027287489 -0.00880357 -0.011378824 0.007914129 -0.014127362 0.0019321212 -0.007892507
-0.019349018 -0.010480515 0.009385014 -0.0019897849 -0.014852453 -0.023970336 -0.0031849311 -0.028697845
-0.023463666 0.03512649 0.0075247623 -0.0069357404 -0.031332135 0.00787815 0.023610624 -0.019422164
-0.0022799596 0.009022453 -0.0006434181 -0.00917407 -0.025148464 -0.0022650885 -0.024829838 0.0019557225
0.0019432947 0.017714662 -0.017215094 0.0116924 0.0008090845 -0.0008293896 0.028271781 0.027101774
0.01121811 -0.042328402 -0.042110756 -0.025166282 -0.01073844 -0.018804142 -0.042436887 0.0037051188
-0.013333156 -0.0070895464 -0.025282865 0.016602803 0.0019592168 0.03537728 -0.009234701 0.023079364
-0.03832322 -0.021082632 -0.008856648 -0.020211108 0.0025825226 0.0030940564 -0.004236442 -0.0075241495
-0.0027006324 -0.0029733088 -0.01002759 -0.006316198 -0.0010022939 -0.0021332877 -0.04061464 -0.03137066
0.0035120074 0.029745692 0.024757572 0.008120846 -0.015244223 0.018621977 0.0015342749 -0.032512255
-0.028688269 0.003488743 0.0010476441 0.0050285864 0.015369531 0.010544154 -0.006477746 -0.008457639
-0.0034659866 -0.03357968 -0.0041098287 -0.00017487338 0.017296048 0.005079888 0.006858759 0.009598572
0.0009633163 0.025980415 0.007360116 0.02362246 -0.0003814335 0.0103913415 0.029483732 -0.010866621
-0.0016794687 0.024664415 -0.022302965 -0.0005209202 0.018333236 0.0027997238 0.020654459 -0.02457669
0.006326752 0.006221807 -0.019673042 -0.0033621353 -0.018688645 0.038194213 -0.035511266 0.028008746
0.022834763 0.015584653 0.008431423 0.019674208 0.04057428 -0.022386916 -0.0018244152 -0.015996693
0.043648515 0.019768655 0.050943106 0.003782588 0.0034296748 -0.013289118 0.0023168845 0.029788263
-0.01792508 0.005045056 0.011523016 0.01730118 0.0061175334 -0.0013174557 0.00613368 -0.0105789425
0.04025839 0.030361746 -0.0009557382 0.007931658 0.019191494 0.006969896 0.012092189 0.027785337
0.029682128 -0.030109618 -0.0241224 0.006856843 0.02702166 0.0049709473 -0.015069648 0.014435398
0.022298472 0.012035267 0.017483225 -0.0028266516 -0.026155138 -0.007672829 0.0046436097 0.0065451493
-0.004045444 -0.012352086 0.035025336 0.00159822 0.013068463 0.050775446 0.035029758 0.027002543
-0.0012732124 -0.006251217 -0.005945181 0.03062958 0.009491324 0.006130616 0.016129171 -0.0037477517
0.010893617 -0.002342773 0.014604279 0.020047825 -0.0040657744 0.026199052 -0.017456805 0.01915161
0.01766506 -0.026565202 0.00995451 0.021790532 -0.023780467 0.012142244 0.0054360484 -0.023925377
00000000: 8b93 b5bc 0943 3fbc 77f5 2b3c 96c7 f6bb
00000010: b4fe cd3b bff9 91bc 79c4 9a3b 06bf ad3b
00000020: 2e1c 7a3b f73e 7bba 5e36 783c 6d4b 0dbc
00000030: 3c7c e6bc 7a48 9c3b 2e10 c3bc 2ed7 f1bc
00000040: 98e0 c23c ea45 67bb b9ef e03b 35cf 59bc
00000050: 7828 8f3c 7775 97bb aa02 df3a cdfc 903c
00000060: 4812 f73b 6983 003b 047f 673c a140 41bc
00000070: c55b 083c 704f e2bb b5d8 15bd e02e 01bd
00000080: 9967 f43b 330d 553a 1049 cf3c 65ac 8d3b
00000090: f7d8 45bc 3a5f 8bbc 12b8 21bc 42b8 39bc
000000a0: 76e4 8cbc e204 86bb 1120 393b 9adf 06bd
000000b0: 6c3e 11bc 19f1 873c c232 9d3c 03e1 a8bb
000000c0: 8894 96bb 498b 8436 ac45 d9bc f8ce ad3c
000000d0: b056 e93b 5934 0b3b 70b4 fdbc 4d4f 033d
000000e0: 4574 a33b 038a df3c d93c 10bc 3f6e 3abc
000000f0: 43aa 013c 7376 67bc 3b3f fd3a 934f 01bc
00000100: d581 9ebc 77b6 2bbc 9ac3 193c 0d67 02bb
00000110: b457 73bc 705d c4bc 47ba 50bb be17 ebbc
00000120: e036 c0bc cbe0 0f3d 4892 f63b 3545 e3bb
00000130: 2056 00bd 5b13 013c 116b c13c 3b1b 9fbc
00000140: 606b 15bb e9d2 133c 0fab 28ba d74e 16bc
00000150: 2704 cebc e171 14bb f267 cbbc 942b 003b
00000160: 26b6 fe3a 571e 913c ab06 8dbc 7b91 3f3c
00000170: be18 543a 656b 59ba 399a e73c 8a04 de3c
00000180: 2acc 373c 8c60 2dbd 547c 2cbd 8529 cebc
00000190: 48f0 2fbc 250b 9abc 4dd2 2dbd 94d1 723b
000001a0: 4f73 5abc 6d4f e8bb 031e cfbc 9a02 883c
000001b0: 3466 003b c4e7 103d 254d 17bc ef10 bd3c
000001c0: cff8 1cbd 7cb5 acbc 791b 11bc c491 a5bc
000001d0: 8a3f 293b a7c5 4a3b dad1 8abb 248d f6bb
000001e0: 18fd 30bb d8db 42bb c34a 24bc 1cf8 cebb
000001f0: 675f 83ba a1ce 0bbb 895b 26bd 857e 00bd
00000200: b529 663b 3dad f33c 64d0 ca3c 4c0d 053c
00000210: e8c2 79bc 1e8d 983c b919 c93a 922b 05bd
00000220: a903 ebbc 65a3 643b 1a51 893a d7c6 a43b
00000230: 7cd0 7b3c 63c1 2c3c 4643 d4bb e991 0abc
00000240: 9b25 63bb d98a 09bd beab 86bb 375e 37b9
00000250: 71b0 8d3c 3075 a63b 71bf e03b 5443 1d3c
00000260: 1087 7c3a e1d4 d43c 212d f13b e483 c13c
00000270: 23fb c7b9 7240 2a3c de87 f13c e909 32bc
00000280: 9e21 dcba 070d ca3c b5b4 b6bc 5d8e 08ba
00000290: 952f 963c 927b 373b 8a33 a93c 0e55 c9bc
000002a0: a450 cf3b 4de0 cb3b 5c29 a1bc 4557 5cbb
000002b0: ee18 99bc 8971 1c3d 4374 11bd 9972 e53c
000002c0: f80f bb3c c656 7f3c f423 0a3c ce2b a13c
000002d0: 3731 263d c464 b7bc 3721 efba 7f0b 83bc
000002e0: c9c8 323d e0f1 a13c b8a9 503d 4ce5 773b
000002f0: 65c4 603b 9aba 59bc dfd6 173b 8406 f43c
00000300: 9ed7 92bc ff50 a53b 08cb 3c3c 34bb 8d3c
00000310: 9775 c83b 7aae acba 0afd c83b 4d53 2dbc
00000320: fbe5 243d 32b9 f83c 818a 7aba c9f3 013c
00000330: 7b37 9d3c ba63 e43b 511e 463c 139e e33c
00000340: ef27 f33c 72a8 f6bc 579c c5bc 5eaf e03b
00000350: 875c dd3c 54e3 a23b afe6 76bc 7382 6c3c
00000360: 49ab b63c 922f 453c fb38 8f3c 583f 39bb
00000370: 4d43 d6bc 5b6c fbbb 6c29 983b b178 d63b
00000380: a58f 84bb 6760 4abc ba76 0f3d 5d7b d13a
00000390: 1b1d 563c eaf9 4f3d 5d7b 0f3d 7034 dd3c
000003a0: ebe1 a6ba 02d7 ccbb cbcf c2bb e3ea fa3c
000003b0: 8081 1b3c 56e3 c83b 5321 843c d79c 75bb
000003c0: 247b 323c 3589 19bb c946 6f3c 563b a43c
000003d0: 303a 85bb 659f d63c 9301 8fbc d6e3 9c3c
000003e0: 51b6 903c 449f d9bc 3e18 233c 0f82 b23c
000003f0: 41cf c2bc 43f0 463c e120 b23b 27ff c3bc

action_model._discrete_distribution.branches.0.bias f4 [5]
-0.004653526 -0.0008699454 0.0014255025 -0.001580735 0.0011467976
00000000: 9b7c 98bb 0c0d 64ba edd7 ba3a aa30 cfba
00000010: 2450 963a

action_model._discrete_distribution.branches.0.weight f4 [5, 128]
-0.005476517 0.010440502 -0.0074458104 -0.00450848 -0.00040470017 -0.010996892 0.004260489 -0.01716903
-0.004307277 -0.006220445 -0.0029938424 0.0013064428 -0.008137185 -0.017573847 0.009141463 0.023988215
-0.0059655067 -0.0036649546 -0.0015244919 0.0033934284 -0.02098449 0.0070292754 -0.0018897094 -0.004718011
-0.0060054185 -0.0053725676 -0.008316229 -0.0073609427 0.004814502 0.012066916 0.006314074 -0.014382361
0.008928259 -0.0069496655 -0.007784548 0.014440575 -0.0014403033 -0.0059812595 -0.00088761316 -0.009547196
0.0128808 0.010478299 -0.013132023 -0.0024164359 -0.0069166278 -0.014259886 0.0015824117 0.015205639
-0.007447969 -0.0033718755 0.012570827 -0.0010370195 -0.0021555915 0.00088349794 -0.0034817029 0.015699944
0.0005667385 0.010022102 0.01995669 0.0022308743 0.014485643 -0.007662544 -0.0028187055 -0.0019371784
-0.005576233 0.0064089866 0.0016811565 0.00048107465 0.014824958 -0.001619624 0.01650716 0.00344122
0.007157893 -0.00035574666 -0.018472563 -0.0056086197 0.00081044063 -0.011973366 -0.002977608 0.0061882716
-0.00849378 -0.018388217 -0.010012013 0.0017014651 0.0026120644 -0.010388436 0.010495128 0.0070339097
0.003431364 -0.015968187 -0.0026472732 -0.01047218 -0.00080730004 0.0032315394 0.0007058408 -0.0036014828
0.021426382 -0.012322284 0.017091194 0.010516902 0.010629234 0.0018732094 0.0050194333 0.0065400857
0.013685165 -0.00040697248 -0.009540855 0.00035605338 -0.01860459 0.005888893 -0.0001971896 -0.0023560636
0.015907574 0.018662747 0.009138186 0.00978735 -0.0013624021 0.004146464 0.0036251787 -0.0019179255
0.012478905 0.007969673 0.00384688 -0.0050636656 -0.0067009265 0.009099183 -0.005644761 -0.0071997866
0.014368985 0.00856783 0.01635459 0.00471322 -0.0042576874 -0.0017560872 -0.0075612036 0.0060533457
0.011558907 0.0011526094 0.009246347 -0.010867087 0.0043051327 -0.0012777484 0.0064292955 0.01258327
-0.0007147207 -0.0058949376 -0.0006943037 -7.067615e-05 -0.011268739 -0.0031535293 0.0031867041 0.00335602
0.00059423485 0.006517026 -0.00020130751 0.020576159 -0.00038990093 0.0042245016 -0.0018694155 0.0061367396
-0.0051542907 9.925272e-05 0.010186288 0.005522127 -0.010031381 0.016768554 0.0023522542 0.010175898
0.009294882 -0.018337797 0.015948111 0.0031820964 -0.007666247 0.00075007725 0.014033881 -0.0060971845
-0.0073260684 -0.023446327 -0.018819317 0.0109106 0.0021080733 -0.0022560023 -0.011898384 0.008611392
0.016019968 -0.0036278104 0.0015102522 -0.0039351536 -0.0013210508 -0.0052633327 -0.012868626 -0.0027411405
-0.003082742 0.010523289 0.019123217 0.0051815915 0.004187201 0.0029885594 0.0053168354 0.008757369
8.142447e-05 0.0053651035 0.0038174063 -0.0047170785 -0.005366211 0.005265684 0.003975156 0.025748275
0.0016668272 -0.0008141092 -0.00904897 0.0010630161 -0.0005432501 -0.02291529 -0.010548463 0.0055816737
-0.0049995664 0.0021985455 0.0062794294 0.014346318 0.0039509293 -0.0005314859 0.019582441 -0.010246054
0.0034714187 -0.00014562088 0.0028859507 0.0107986815 0.0039784764 0.01173445 0.00785776 0.011899665
-0.017359786 -0.008400573 -0.005743997 -0.011715103 -0.0019166215 0.001772547 0.007118656 0.00075331866
-0.011247802 0.0034477124 0.013627993 -0.00516699 0.0057061906 0.008051451 0.005698326 0.016667366
0.015459023 0.0015986325 0.0009572113 -0.004537007 0.012159942 0.0030170842 -0.017094249 0.00016687743
00000000: 5b74 b3bb a40e 2b3c fcfb f3bb dfbb 93bb
00000010: f02d d4b9 4f2c 34bc 929b 8b3b 11a6 8cbc
00000020: 0f24 8dbb e0d4 cbbb 5734 44bb f23c ab3a
00000030: d451 05bc 07f7 8fbc 13c6 153c ef82 c43c
00000040: 4c7a c3bb bc2f 70bb 76d1 c7ba 4864 5e3b
00000050: aae7 abbc d655 e63b 20b0 f7ba 8b99 9abb
00000060: 1ac9 c4bb 5d0c b0bb cb40 08bc 1034 f1bb
00000070: f8c2 9d3b 50b4 453c 4be6 ce3b ffa3 6bbc
00000080: d547 123c 05ba e3bb 8615 ffbb 2998 6c3c
00000090: 8fc8 bcba 71fe c3bb b6ae 68ba d86b 1cbc
000000a0: fe09 533c 2cad 2b3c b227 57bc 115d 1ebb
000000b0: e1a4 e2bb 4ca2 69bc ed68 cf3a 1321 793c
000000c0: 180e f4bb affa 5cbb dff5 4d3c 9aec 87ba
000000d0: d344 0dbb 8b9a 673a 482d 64bb 2b9d 803c
000000e0: 2d91 143a be33 243c 367c a33c dc33 123b
000000f0: 3155 6d3c 1416 fbbb 08ba 38bb ece8 fdba
00000100: d5b8 b6bb 7a02 d23b 405a dc3a bf38 fc39
00000110: 61e4 723c 9049 d4ba 063a 873c 1786 613b
00000120: c28c ea3b 8283 bab9 c653 97bc 83c8 b7bb
00000130: c073 543a f02b 44bc f923 43bb fcc6 ca3b
00000140: 7f29 0bbc e3a2 96bc 6d09 24bc b203 df3a
00000150: 2b2f 2b3b 4234 2abc c2f3 2b3c b67c e63b
00000160: bce0 603b b7cf 82bc e07d 2dbb 8293 2bbc
00000170: fda0 53ba 3cc8 533b 2d08 393a db06 6cbb
00000180: 6186 af3c 68e3 49bc d502 8c3c 164f 2c3c
00000190: 3d26 2e3c 7a86 f53a 0f7a a43b 374e d63b
000001a0: be37 603c ec5e d5b9 3f51 1cbc adac ba39
000001b0: a768 98bc 9df7 c03b aec4 4eb9 3068 1abb
000001c0: 9a50 823c 9ee2 983c 55b8 153c 1f5b 203c
000001d0: a192 b2ba 10df 873b 6894 6d3b e762 fbba
000001e0: 5274 4c3c 3b93 023c f01b 7c3b 1bed a5bb
000001f0: 7293 dbbb bd14 153c b0f7 b8bb 30ec ebbb
00000200: e46b 6b3c 1560 0c3c 10fa 853c 5b71 9a3b
00000210: 1284 8bbb 822c e6ba f9c3 f7bb 255b c63b
00000220: 9261 3d3c 2713 973a fd7d 173c de0b 32bc
00000230: 1212 8d3b 1f7a a7ba d7ac d23b 0f2a 4e3c
00000240: 185c 3bba 522a c1bb ef01 36ba f837 94b8
00000250: 84a0 38bc 71ab 4ebb 06d8 503b acf0 5b3b
00000260: 6dc6 1b3a c78c d53b 1316 53b9 558f a83c
00000270: 9e6b ccb9 b06d 8a3b 2d07 f5ba b416 c93b
00000280: 53e5 a8bb e625 d038 63e4 263c f5f2 b43b
00000290: a95a 24bc 355e 893c 4728 1a3b cfb8 263c
000002a0: 9049 183c 2639 96bc 9da5 823c b88a 503b
000002b0: 2435 fbbb d5a0 443a 5dee 653c e4ca c7bb
000002c0: 840f f0bb 8312 c0bc f82a 9abc 60c2 323c
000002d0: 9a27 0a3b 70d9 13bb 71f1 42bc cc16 0d3c
000002e0: 4f3c 833c 8fc0 6dbb a8f3 c53a 76f2 80bb
000002f0: 1c27 adba 0978 acbb eed6 52bc b5a4 33bb
00000300: d407 4abb e069 2c3c 4ba8 9c3c 57ca a93b
00000310: ca34 893b b5db 433b d938 ae3b 117b 0f3c
00000320: 6ec2 aa38 c0cd af3b 732d 7a3b b991 9abb
00000330: 0ad7 afbb c28b ac3b 0742 823b 0cee d23c
00000340: 7179 da3a f269 55ba 2242 14bc e754 8b3a
00000350: e668 0eba d9b8 bbbc 76d3 2cbc 79e6 b63b
00000360: 67d3 a3bb 7915 103b acc3 cd3b d20c 6b3c
00000370: cc76 813b 6a53 0bba 5b6b a03c 11df 27bc
00000380: be80 633b cfb1 18b9 3822 3d3b f4ec 303c
00000390: e15d 823b da41 403c d6bd 003c d0f6 423c
000003a0: 1c36 8ebc 8fa2 09bc 2438 bcbb b4f0 3fbc
000003b0: 2537 fbba cf54 e83a 9d43 e93b 5c7a 453a
000003c0: b348 38bc 04f3 613b f247 5f3c db4f a9bb
000003d0: fffa ba3b 3cea 033c 06b9 ba3b 008a 883c
000003e0: d847 7d3c 3589 d13a 5ded 7a3a 2cab 94bb
000003f0: 7e3a 473c 46ba 453b 3d09 8cbc d2fb 2e39

network_body._body_endoder.seq_layers.0.bias f4 [128]
-0.0014937498 0.0021912968 0.008578649 0.004591795 -0.0019949488 0.009076626 -0.0015820557 0.0070482832
0.0012204106 -0.0077806134 0.0024618423 -0.0021582379 -0.003260048 -0.0034465885 -0.0077519487 -0.0062030833
0.011012144 -0.0018942101 -0.0038463818 -0.0026217396 -0.0026316252 -0.009945926 -0.0025435449 -0.0024939098
-0.008965987 0.007459735 -0.004897242 0.0012342703 -0.0028113388 -0.003529413 0.0015961404 0.0013051365
0.00018297532 -0.009105354 -0.0025205999 -0.0039911987 -0.008865417 -0.0077277115 -0.0022610803 6.2741296e-05
0.009331229 0.0013646964 0.010414441 -0.003911271 -0.0026943071 -0.001421116 -5.9342797e-06 -0.004190015
0.0018066886 -0.0010270496 0.0014891142 0.00085173134 0.0007478059 -0.0017405774 0.0019754418 -0.009891568
-0.0047890106 0.0019037523 -0.0016736357 -0.0040930295 -0.0057193167 0.0016461973 -0.0023105831 0.0085573895
0.009452401 -0.0021565075 -0.002904339 -0.009078336 -0.010721042 -0.0040840646 0.010193858 -0.008209077
0.0065305624 0.01145183 0.0016551695 0.009298921 0.009643209 0.009998324 -0.008207078 -0.00052894966
0.010603398 0.0087069925 0.0015173277 -0.0013519078 -0.0024423897 -0.00024857497 0.00029896412 -0.003885769
0.000782698 -0.010931919 0.006972156 0.0027911544 -0.0077630547 0.009242798 0.00048369856 -0.0013163298
0.001015856 -0.00047245965 -0.0021281864 0.0009660924 0.010170483 -0.00010937136 -0.001563096 -0.003517283
0.009391843 -0.010162336 0.004333375 -0.010086522 -0.0056059887 -0.0012595389 -0.0014862332 0.00049706106
0.0113323815 -0.00076947454 -0.0012098621 0.001363151 -0.009029125 0.000561382 -0.008051253 -0.0026341772
0.0020836366 0.010548762 0.00034192632 0.009636113 -0.0014675527 -0.0044173803 0.0014164422 0.0026690832
00000000: edc9 c3ba dc9b 0f3b 768d 0c3c c576 963b
00000010: b0bd 02bb 21b6 143c fb5c cfba 49f5 e63b
00000020: 2ff6 9f3a 84f4 febb dc56 213b 3971 0dbb
00000030: 88a6 55bb 29e0 61bb 0f04 febb 3c43 cbbb
00000040: 486c 343c 2547 f8ba 9413 7cbb 7ed1 2bbb
00000050: 5877 2cbb 3df4 22bc 9ab1 26bb dd70 23bb
00000060: 13e6 12bc cb70 f43b 0b79 a0bb 3dc7 a13a
00000070: 703e 38bb b94d 67bb 9635 d13a 1d11 ab3a
00000080: 10dd 3f39 9f2e 15bc a630 25bb 9ac8 82bb
00000090: 4140 11bc be38 fdbb a22e 14bb fa93 8338
000000a0: 03e2 183c 9ddf b23a 55a1 2a3c 1f2a 80bb
000000b0: f992 30bb bd44 baba 131f c7b6 654c 89bb
000000c0: 69ce ec3a 119e 86ba 622e c33a b946 5f3a
000000d0: 6808 443a 1624 e4ba 6a76 013b 3e10 22bc
000000e0: 22ed 9cbb 5487 f93a e55d dbba d21e 86bb
000000f0: 1b69 bbbb 37c5 d73a 276d 17bb 4b34 0c3c
00000100: 3ede 1a3c 3154 0dbb b956 3ebb 4dbd 14bc
00000110: 4fa7 2fbc 9ed3 85bb 2404 273c 5d7f 06bc
00000120: 54fe d53b 75a0 3b3c 46f2 d83a 805a 183c
00000130: 8dfe 1d3c 03d0 233c fb76 06bc 36a9 0aba
00000140: e0b9 2d3c c6a7 0e3c 12e1 c63a 8032 b1ba
00000150: 8010 20bb 2b53 82b9 49be 9c39 63a8 7ebb
00000160: f92d 4d3a cb1b 33bc af76 e43b cdeb 363b
00000170: 3961 febb 1b6f 173c ec98 fd39 b388 acba
00000180: 7926 853a 76b4 f7b9 0b79 0bbb 5d41 7d3a
00000190: 19a2 263c 4d5e e5b8 cce0 ccba 3782 66bb
000001a0: 3fe0 193c ed7f 26bc fcfe 8d3b f141 25bc
000001b0: 71b2 b7bb 1d17 a5ba b6cd c2ba 344d 023a
000001c0: 74ab 393c 90b6 49ba 3c94 9eba c2ab b23a
000001d0: e5ee 13bc b529 133a 67e9 03bc 29a2 2cbb
000001e0: 9f8d 083b b7d4 2c3c 9344 b339 cae0 1d3c
000001f0: e65a c0ba acbf 90bb eaa7 b93a c9eb 2e3b

network_body._body_endoder.seq_layers.0.weight f4 [128, 1]
-0.294662 -0.8528334 0.085512355 0.47280717 -2.2746289 0.5409409 -0.44285068 0.84588015
-0.16371135 0.35235903 -1.244881 -0.57415736 2.9154427 -1.4653115 0.54738283 0.322351
0.8726024 -0.120010704 -2.3112354 -1.8273683 -0.34447864 1.0099211 -1.4672011 -0.8202637
1.1463608 0.36959863 0.0080061415 -0.072163805 -1.1880102 -0.9404649 -0.11503132 -0.1555485
-0.17667049 1.2370301 -1.1932179 -1.6527228 1.5457586 0.6738041 -1.0085579 -1.0143186
0.9727243 -0.18536794 0.75656796 1.5646628 -1.9707532 -0.19642049 -0.049956344 -1.4860475
-1.373601 -0.112512976 -0.47635224 -0.21087085 -0.28562084 -0.08827117 -0.8158099 0.38457325
-2.05544 -0.95705384 -1.3063245 1.5650382 0.0069736983 -2.8963957 -1.2333826 1.48094
0.92263335 -0.41726097 -1.8507684 0.6812614 0.13811591 0.45451158 1.39407 0.67426765
0.65082437 1.4120054 -0.43121955 0.14820714 1.5531952 1.6569402 0.27593338 -0.5644595
1.2664315 0.3331613 -0.7416129 -0.2677524 -0.1729407 -0.73610026 1.089858 -1.7093438
-0.1873164 0.06114827 0.37173674 -0.94538796 1.384538 0.8734437 -0.78699523 -0.02096253
-0.34283814 -0.664883 -0.85724205 -0.5853666 1.2209374 -0.08579447 -0.6605565 -0.5217333
0.8903824 0.17791879 0.2433704 1.7501869 -0.3498555 -0.11053354 -0.12843767 -0.4977478
1.6666629 -1.6283062 0.5064592 -0.30666488 0.5326919 -1.6547977 1.1141369 -0.5539587
-1.3261856 1.2797376 -0.9084154 0.5389054 -0.47537062 -0.7793135 -0.16491827 -0.4232438
00000000: f0dd 96be 4a53 5abf 1a21 af3d c813 f23e
00000010: 8593 11c0 1a7b 0a3f 53bd e2be 9a8b 583f
00000020: f3a3 27be 6768 b43e 4358 9fbf fafb 12bf
00000030: 9d96 3a40 548f bbbf 4821 0c3f 310b a53e
00000040: df62 5f3f 2cc8 f5bd 48eb 13c0 34e7 e9bf
00000050: 815f b0be 1845 813f 3fcd bbbf cdfc 51bf
00000060: f3bb 923f 083c bd3e 312c 033c 9eca 93bd
00000070: b810 98bf 4fc2 70bf 8a95 ebbd 1b48 1fbe
00000080: 1ce9 34be 0157 9e3f 5dbb 98bf 6c8c d3bf
00000090: 6bdb c53f 6d7e 2c3f 6d18 81bf 31d5 81bf
000000a0: 7604 793f 18d1 3dbe 70ae 413f df46 c83f
000000b0: a441 fcbf 7422 49be 069f 4cbd ce36 bebf
000000c0: 28d2 afbf 346d e6bd 71e4 f3be 87ee 57be
000000d0: e53c 92be 84c7 b4bd ebd8 50bf c9e6 c43e
000000e0: 548c 03c0 7b01 75bf a435 a7bf 2c53 c83f
000000f0: 9f83 e43b 8c5e 39c0 7bdf 9dbf 718f bd3f
00000100: b331 6c3f 3ba3 d5be fbe5 ecbf 2667 2e3f
00000110: 426e 0d3e beb5 e83e e370 b23f ce9c 2c3f
00000120: 6d9c 263f 98bc b43f cfc8 dcbe 9dc3 173e
00000130: 1acf c63f 9e16 d43f 2447 8d3e 6b80 10bf
00000140: 6d1a a23f 1e94 aa3e 58da 3dbf d816 89be
00000150: 5e17 31be 1171 3cbf 7880 8b3f c7cb dabf
00000160: dfcf 3fbe 9c76 7a3d 4754 be3e f204 72bf
00000170: 8b38 b13f 029a 5f3f 8578 49bf 9db9 abbc
00000180: 7b88 afbe c635 2abf 3774 5bbf 96da 15bf
00000190: ad47 9c3f 03b5 afbd 3b1a 29bf 5090 05bf
000001a0: 1af0 633f 5830 363e 1736 793e 2006 e03f
000001b0: 4320 b3be 695f e2bd 2a85 03be cdd8 febe
000001c0: 3655 d53f 566c d0bf 4fa7 013f 2e03 9dbe
000001d0: 7f5e 083f 69d0 d3bf 0a9c 8e3f 3dd0 0dbf
000001e0: 73c0 a9bf 71ce a33f e98d 68bf b4f5 093f
000001f0: c763 f3be 1781 47bf 56e0 28be 69b3 d8be

network_body._body_endoder.seq_layers.2.bias f4 [128]
-0.009719545 -0.0074135326 -0.001564266 0.0055315467 0.0008977487 -0.002446757 0.0004359049 0.0019965102
0.001700311 -0.0012599338 0.0022825655 -0.0025820318 0.008882776 1.9541541e-05 -0.0043394067 -0.00033891408
0.0025401763 0.0013971418 0.001826282 -0.00026804506 0.0015988038 -0.0031040923 0.008572647 -0.008978112
0.0011847168 -0.0013359303 0.00088972226 0.001637398 0.0017268469 0.0025722466 -0.0068636006 0.0020004136
-0.0004967281 -0.0015652678 0.001214594 -0.008428511 -0.0019628098 0.0075555197 -0.003596869 0.003951967
0.010762166 -0.0018196446 0.0085430425 0.0083056055 0.00046546396 -0.0014226796 0.0021937925 -0.002229052
-0.0023411266 -0.0029082196 0.0061352346 -0.0076190354 0.005598159 0.0007118435 0.011002975 0.002053431
0.007599093 0.007930744 0.0006611021 -0.0037677747 0.0023395917 0.00026414273 0.0077682626 -0.0027297863
-0.00024389024 -0.003413261 -0.0004772456 -0.003066288 -0.0052650217 -0.001998934 -0.005847455 -0.0064990567
-0.0019422714 0.0008020112 0.0009068682 -0.002009077 -0.0065077813 0.00017293352 0.0015280137 0.0061583947
-0.0016994767 0.0022745705 0.00092335814 0.0013669209 0.00684473 -0.0004985206 -0.0019299816 -0.0025252753
-0.0011868122 0.011789151 -0.002663135 0.01049219 0.0015859981 0.0003854437 0.00809302 0.00218231
-0.009210799 -0.0026704187 -0.0028680624 0.00062942633 -0.0065470524 0.009715968 -0.002355622 -0.0014623296
-0.0014450393 -0.0028882818 -0.0027795148 0.0033943402 -0.0019155013 0.001347193 -0.0024080996 0.00866584
-0.002820785 -0.0051234784 0.0034659994 -0.0024289573 0.010883863 -0.0008129341 0.00074748613 0.0052003013
-0.004623763 0.0075745615 0.008071717 0.008092916 0.006243985 0.00130886 -0.0023061659 -0.0016481321
00000000: ba3e 1fbc 38ed f2bb 0f08 cdba fa41 b53b
00000010: e556 6b3a c559 20bb 2a8a e439 e2d7 023b
00000020: f8dc de3a 5d24 a5ba 1897 153b 4e37 29bb
00000030: 1089 113c 24ed a337 9531 8ebb 47b0 b1b9
00000040: 1679 263b 4d20 b73a db5f ef3a 6688 8cb9
00000050: f48e d13a 076e 4bbb 4a74 0c3c ee18 13bc
00000060: 8048 9b3a 621a afba 403c 693a f69d d63a
00000070: 5e57 e23a 2393 283b 0ee8 e0bb 5f19 033b
00000080: dc36 02ba ac29 cdba 0333 9f3a bd17 0abc
00000090: 7ca2 00bb 4b94 f73b 73b9 6bbb 817f 813b
000000a0: cc53 303c 2481 eeba 1ef8 0b3c 3c14 083c
000000b0: 8409 f439 3579 baba bbc5 0f3b 4915 12bb
000000c0: 966d 19bb d497 3ebb 140a c93b 1aa9 f9bb
000000d0: c370 b73b 029b 3a3a d245 343c db92 063b
000000e0: d001 f93b f4ef 013c d04d 2d3a c5ec 76bb
000000f0: d653 193b a37c 8a39 e98c fe3b 37e6 32bb
00000100: cabc 7fb9 04b1 5fbb d236 fab9 c7f3 48bb
00000110: 3486 acbb 8c00 03bb 029c bfbb 0af6 d4bb
00000120: d093 feba 103e 523a e5ba 6d3a b8aa 03bb
00000130: 3a3f d5bb 7d55 3539 a247 c83a 5ccc c93b
00000140: fac0 deba f610 153b 840d 723a 412a b33a
00000150: c249 e03b 27af 02ba 70f7 fcba 177f 25bb
00000160: cf8e 9bba 4827 413c fe87 2ebb 6fe7 2b3c
00000170: 44e1 cf3a 6115 ca39 9698 043c 1605 0f3b
00000180: e4e8 16bc 3102 2fbb 1af6 3bbb 1600 253a
00000190: a888 d6bb b92f 1f3c c760 1abb a4ab bfba
000001a0: 7967 bdba 5449 3dbb 8528 36bb 9473 5e3b
000001b0: 8f11 fbba 4c94 b03a 35d1 1dbb 2bfb 0d3c
000001c0: ebdc 38bb dae2 a7bb d225 633b 242f 1fbb
000001d0: 3b52 323c 151b 55ba f2f2 433a 4a67 aa3b
000001e0: ef82 97bb 0734 f83b 3c3f 043c 2698 043c
000001f0: 589a cc3b 0e8e ab3a 0b23 17bb 2306 d8ba

network_body._body_endoder.seq_layers.2.weight f4 [128, 128]
-0.15391247 -0.06190223 0.074620776 -0.1328314 -0.04624484 -0.08449471 0.11228528 0.054006796
-0.063499145 0.014615529 0.07992313 0.0025791356 0.032939535 0.025157401 0.044364527 -0.13863622
0.10513458 -0.120880656 0.015837437 0.062812656 -0.13584304 -0.057363994 -0.024718702 -0.03584402
-0.065951005 0.050482623 -0.15099365 0.075545825 -0.13079868 0.07167063 -0.094616175 -0.01117662
0.06686204 0.016496511 0.0026036603 -0.21423107 -0.087603584 0.12000708 0.13036491 0.06471737
-0.07188958 0.03653481 -0.027075155 0.023290018 -0.04044213 -0.03884265 0.0034676662 -0.077201955
-0.046380784 0.046425402 -0.21662475 -0.08588464 0.13586782 -0.0059310286 0.076797076 -0.14635222
0.03387095 0.04771245 -0.059486795 -0.10516027 0.032063738 -0.02553563 0.13608922 -0.052203164
-0.12312619 0.124538854 -0.06402158 -0.010188372 0.15722194 -0.072568655 0.051173843 -0.03208181
0.14860463 -0.088963374 0.21046333 -0.018390993 0.082189694 0.053514577 0.062145643 -0.08540795
-0.017734395 0.043943424 0.11562836 -0.063459866 0.008832249 0.037122484 0.07643085 0.11144605
-0.021360982 -0.03214024 0.10183363 -0.107777305 -0.14942618 -0.014519582 0.07469304 0.019272419
0.0001857039 0.038073532 0.16272427 -0.11431414 0.0779684 0.09913026 0.1337803 0.01886847
0.09555488 -0.113683246 0.054061104 0.044577207 -0.04282133 0.014923405 -0.14402255 -0.058485057
-0.09994839 -0.13632695 -0.07755944 -0.05317885 -0.0648703 -0.0078197885 0.07584253 -0.020906916
-0.075211644 0.15418357 -0.038658988 -0.032148294 -0.1592563 -0.052721597 -0.019846018 -0.031735156
0.04397697 -0.062389016 0.05423011 -0.11727479 -0.06644684 -0.1598592 0.051858015 0.09045212
-0.06737303 0.11062881 -0.13091035 -0.0044471174 0.11784718 -0.04249381 -0.08597913 0.0283259
0.14019738 -0.17101495 0.11526632 -0.01394001 -0.0040059774 -0.0403305 -0.14736561 -0.06582974
0.002461088 -0.050568134 -0.06305359 0.020017304 -0.027052144 0.07013413 -0.14424607 0.052113865
0.055326346 -0.022191416 0.10042752 0.009187288 0.1354965 -0.025602946 -0.11861272 -0.022560626
-0.056705434 0.10222864 -0.06842411 0.13804187 -0.17072205 -0.023882547 0.06921295 0.14149587
0.253852 -0.09119819 -0.0008600003 0.018157141 0.010322698 0.14433713 0.10268763 0.030454269
0.10962042 0.096207336 -0.14543208 0.01032023 0.008492505 -0.027625928 0.06990201 0.1690089
0.1558659 -0.05717764 -0.06902668 -0.06921118 -0.08113147 0.12520517 0.05837571 -0.016086953
-0.039290737 -0.09005836 -0.019954942 0.066089004 0.055613462 0.0293244 0.13710685 0.025175758
-0.027484545 0.01240849 0.061300777 -0.093921274 0.11745587 -0.073914394 0.022752484 -0.0031904432
-0.026644243 0.047194663 0.10643571 -0.061720915 0.17422253 0.036706932 0.02577897 0.06770434
-0.10378589 -0.018674796 0.020561127 -0.032766107 -0.05737338 0.0602821 -0.046188038 0.08168634
-0.07346207 0.06554394 0.11970706 0.19047226 0.02731422 -0.16201587 0.023931816 -0.05368688
-0.10612961 -0.016525127 -0.021633085 -0.10758088 0.1274469 -0.07912428 -0.06783216 0.08405224
-0.09658568 0.048248466 0.014002926 0.029288998 -0.08787812 0.089999504 0.05202062 -0.07660778
00000000: 3b9b 1dbe 318d 7dbd c7d2 983d f404 08be
00000010: 3b6b 3dbd 900b adbd d3f5 e53d 3b36 5d3d
00000020: d70b 82bd f975 6f3c bdae a33d b706 293b
00000030: 9beb 063d e516 ce3c 94b7 353d a7f6 0dbe
00000040: cc50 d73d 4790 f7bd 83bd 813c eca3 803d
00000050: 701a 0bbe 82f6 6abd e07e cabc 2ed1 12bd
00000060: 5211 87bd dec6 4e3d 149e 1abe c5b7 9a3d
00000070: 17f0 05be 0dc8 923d 20c6 c1bd 241e 37bc
00000080: f7ee 883d b123 873c 2ca2 2a3b 645f 5bbe
00000090: 8269 b3bd 46c6 f53d 617e 053e 8a8a 843d
000000a0: d83a 93bd 86a5 153d b7cc ddbc b5ca be3c
000000b0: a6a6 25bd 7819 1fbd c941 633b 0f1c 9ebd
000000c0: c7f9 3dbd 9028 3e3d e1d2 5dbe 49e4 afbd
000000d0: ef20 0b3e 1359 c2bb c947 9d3d 5bdd 15be
000000e0: 44bc 0a3d 216e 433d 6da8 73bd 455e d7bd
000000f0: 4455 033d 1930 d1bc f95a 0b3e fcd2 55bd
00000100: 9529 fcbd 3a0e ff3d bf1d 83bd 21ed 26bc
00000110: cafe 203e e09e 94bd aa9b 513d 3768 03bd
00000120: d02b 183e 6e32 b6bd b383 573e b5a8 96bc
00000130: 1253 a83d 1a32 5b3d 6e8c 7e3d 5dea aebd
00000140: b947 91bc 05fe 333d 90ce ec3d 3ff7 81bd
00000150: 23b5 103c bf0d 183d c787 9c3d d43d e43d
00000160: 3afd aebc 7ca5 03bd 268e d03d 59ba dcbd
00000170: 2d03 19be 8ae3 6dbc aaf8 983d 31e1 9d3c
00000180: 83b9 4239 fef2 1b3d 31a1 263e 881d eabd
00000190: e6ad 9f3d ce04 cb3d b4fd 083e 0d92 9a3c
000001a0: 47b2 c33d c3d2 e8bd 2d6f 5d3d 9796 363d
000001b0: 6b65 2fbd 4c81 743c a67a 13be 078e 6fbd
000001c0: beb1 ccbd 4b99 0bbe 7cd7 9ebd 11d2 59bd
000001d0: b8da 84bd 921e 00bc 5453 9b3d fb44 abbc
000001e0: 9008 9abd 4ce2 1d3e e358 1ebd eead 03bd
000001f0: 1514 23be 9af2 57bd 1e94 a2bc b9fc 01bd
00000200: 3221 343d a08b 7fbd 6420 5e3d c42d f0bd
00000210: 4815 88bd 21b2 23be 1269 543d f63e b93d
00000220: dffa 89bd 5c91 e23d 5d0d 06be 20b9 91bb
00000230: dd59 f13d fd0d 2ebd d315 b0bd b80b e83c
00000240: e78f 0f3e 8b1e 2fbe c010 ec3d a464 64bc
00000250: 9344 83bb 9831 25bd 03e7 16be bed1 86bd
00000260: 344a 213b 8820 4fbd 3e22 81bd 54fb a33c
00000270: 759c ddbc 7ca2 8f3d 3eb5 13be 5975 553d
00000280: e19d 623d c6ca b5bc f2ac cd3d 4786 163c
00000290: 98bf 0a3e 45bd d1bc 3aeb f2bd 10d1 b8bc
000002a0: f543 68bd 405d d13d f121 8cbd d95a 0d3e
000002b0: c3d1 2ebe 55a5 c3bc 85bf 8d3d 4be4 103e
000002c0: e4f8 813e 1ec6 babd a571 61ba 49be 943c
000002d0: 8920 293c 1dcd 133e e44d d23d 3b7b f93c
000002e0: ac80 e03d 5a08 c53d 26ec 14be 2f16 293c
000002f0: 2624 0b3c c54f e2bc c928 8f3d ab10 2d3e
00000300: 4f9b 1f3e 1a33 6abd dc5d 8dbd 97be 8dbd
00000310: 4228 a6bd c935 003e 5e1b 6f3d c9c8 83bc
00000320: 53ef 20bd 8470 b8bd 8c78 a3bc ac59 873d
00000330: f1ca 633d b939 f03c bd65 0c3e 643d ce3c
00000340: 4527 e1bc fb4c 4b3c 8616 7b3d cc59 c0bd
00000350: b48c f03d 6e60 97bd 6b63 ba3c c116 51bb
00000360: 0745 dabc 314f 413d f7fa d93d 12cf 7cbd
00000370: 6467 323e 025a 163d 6b2e d33c 93a8 8a3d
00000380: b28d d4bd e3fb 98bc cf6f a83c c135 06bd
00000390: 5900 6bbd 5dea 763d ab2f 3dbd 2b4b a73d
000003a0: 4873 96bd e73b 863d fa28 f53d 290b 433e
000003b0: 12c2 df3c 7de7 25be a80c c43c c6e6 5bbd
000003c0: 7b5a d9bd b45f 87bc de37 b1bc 5d53 dcbd
000003d0: 7181 023e e90b a2bd 96eb 8abd 9523 ac3d
000003e0: b7ce c5bd 2fa0 453d 876c 653c 7bef ef3c
000003f0: 72f9 b3bd a951 b83d 9313 553d 8ae4 9cbd
