results/Test06Dicembre4MLN2/MoveToGoal/MoveToGoal-3499941.pt (torch, 630839 bytes, 40 tensors)

discrete_act_size_vector f4 [1, 2]
3.0 3.0
00000000: 0000 4040 0000 4040

network_body._body_endoder.seq_layers.0.weight f4 [128, 66]
-0.07458111 0.3426399 0.1702605 0.091553524 -0.12104948 -0.1004232 -0.01640606 -0.13489762
0.04242202 0.043732967 0.2231186 -0.07423395 -0.043099742 -0.06697744 -0.11573576 0.16537611
-0.04925212 -0.027748132 0.010232773 -0.07547032 0.05223955 0.004530036 0.023660256 0.027940057
-0.078791514 -0.1583651 0.11327658 0.02821633 0.09654301 0.02656209 -0.056450672 0.07733725
-0.092130765 0.10701676 -0.013693209 0.039459698 -0.07327724 0.32173783 0.08336062 -0.13539518
0.22544506 0.2854671 0.014450968 0.025033811 -0.0061799935 0.11641174 -0.09564454 -0.061697125
-0.0063404148 0.20739283 -0.12188579 -0.0020941216 -0.029087221 0.38957787 -0.14667271 0.014852408
0.2224162 0.092290364 -0.15986907 -0.16727287 0.093504936 0.061784916 -0.0728971 -0.050559293
0.030346287 -0.24834786 -0.010786042 0.08336767 -0.10741647 -0.084890135 -0.051062357 0.20239155
-0.0811391 -0.23355861 0.008097833 0.04472022 -0.2195878 0.22742118 0.026876908 0.14093953
-0.019364689 0.088021465 0.19737971 0.2839086 -0.0044178753 0.07677222 -0.051202994 -0.013903159
-0.10058085 0.32903582 0.0590889 0.061336294 0.014019983 -0.16176501 0.28975433 -0.16852781
-0.0043194206 -0.037287865 -0.055059183 -0.11956085 0.13483714 0.17007907 -0.11402422 0.06301124
-0.016782694 -0.07107581 0.03317585 -0.013900454 -0.04279434 0.021921752 -0.0023215793 0.0103800045
0.04356449 -0.20961912 0.010796757 0.07741688 0.23736422 0.055210937 -0.021303825 0.30598226
0.07193272 -0.053312518 -0.071537435 0.0017672434 0.13425668 -0.13990845 0.13492645 -0.18051495
0.10412698 -0.11245027 0.08192453 0.052554913 -0.0038763022 0.17447856 -0.04110897 -0.04446467
-0.011133734 0.061132725 -0.17047068 0.06844957 0.07646344 0.07549347 0.1003111 -0.09356832
0.123437054 -0.09928257 0.038215958 -0.0031097105 -0.0067739496 -0.11298249 -0.14722383 -0.043591235
-0.13554378 0.1533043 0.06025308 0.0076372786 0.071833655 -0.34003425 0.22550774 0.053548023
-0.04977316 -0.01822608 0.21365507 -0.0039324234 -0.16950206 -0.112161264 -0.0054366705 0.004899442
0.14848493 -0.12129753 0.03665751 0.27077845 -0.020866236 -0.19855335 0.25779992 0.07826405
-0.080742694 -0.16546436 0.04924064 0.11706695 0.07030625 -0.14991093 -0.10420193 0.094261475
0.08376154 0.046941537 -0.059302278 0.1980022 0.052239195 -0.025075128 0.04562915 0.15921862
0.117420726 -0.033584356 -0.006452373 0.17836852 -0.044880573 -0.04077113 0.11437064 0.0050971457
0.028108759 0.13398457 0.039012108 -0.016383316 0.15636869 -0.12260098 0.023719698 0.17436314
-0.28300336 0.032170177 0.11335195 -0.022550208 0.15097313 0.17288804 0.08566044 -0.08571374
0.031048058 -0.23992911 0.080697164 0.115467966 -0.08494784 -0.07331675 0.018646773 0.1140642
0.2061236 -0.05109696 0.27934834 -0.01468511 0.02445775 -0.015465397 0.13808283 0.14659303
-0.03881271 -0.12186842 0.032299545 0.17473035 0.011462068 -0.18642487 -0.10792104 -0.052809432
0.05560698 0.090220615 -0.13001758 0.18243949 -0.05707286 0.19738218 0.05013041 -0.099071085
0.116057105 -0.063636 0.106558375 0.29366088 0.15378681 -0.073279895 0.22563589 -0.20482373
00000000: fbbd 98bd 7f6e af3e c558 2e3e 6a80 bb3d
00000010: cae8 f7bd aeaa cdbd 0066 86bc 9a22 0abe
00000020: b6c2 2d3d 5721 333d 3479 643e f807 98bd
00000030: 5b89 30bd 782b 89bd df06 edbd 5b58 293e
00000040: 97bc 49bd 0d50 e3bc 5ca7 273c 2f90 9abd
00000050: 23f9 553d b270 943b 27d3 c13c 8ce2 e43c
00000060: 725d a1bd 762a 22be 8dfd e73d ef25 e73c
00000070: 57b8 c53d bd98 d93c d238 67bd fe62 9e3d
00000080: 0eaf bcbd 9a2b db3d 7b59 60bc 7ea0 213d
00000090: 6112 96bd d2ba a43e f9b8 aa3d 09a5 0abe
000000a0: 12db 663e be28 923e c1c3 6c3c b513 cd3c
000000b0: 8b81 cabb 4769 ee3d 49e1 c3bd 20b6 7cbd
000000c0: 41c3 cfbb c95e 543e 429f f9bd 883d 09bb
000000d0: 5348 eebc c076 c73e 5f31 16be 8457 733c
000000e0: 13c1 633e bb02 bd3d b8b4 23be 9449 2bbe
000000f0: 847f bf3d 2e12 7d3d 134b 95bd 4317 4fbd
00000100: c798 f83c e74e 7ebe f0b7 30bc abbc aa3d
00000110: 2bfd dbbd e1da adbd c326 51bd bb3f 4f3e
00000120: 422c a6bd fd29 6fbe c6ac 043c 8d2c 373d
00000130: a0db 60be 19e1 683e f62c dc3c 7452 103e
00000140: b2a2 9ebc 9944 b43d e81d 4a3e 785c 913e
00000150: d3c3 90bb c13a 9d3d 3bba 51bd 13ca 63bc
00000160: 55fd cdbd 6277 a83e 3407 723d c43b 7b3d
00000170: 12b4 653c baa5 25be ae5a 943e 8e92 2cbe
00000180: ed89 8dbb 29bb 18bd bd85 61bd 52dc f4bd
00000190: bf12 0a3e 3529 2e3e 8885 e9bd 090c 813d
000001a0: dc7b 89bc 3290 91bd 66e3 073d bbbe 63bc
000001b0: 1e49 2fbd 3f95 b33c a325 18bb e510 2a3c
000001c0: ae70 323d 65a6 56be e2e4 303c be8c 9e3d
000001d0: 9b0f 733e dd24 623d 5c85 aebc b5a9 9c3e
000001e0: 7651 933d 3a5e 5abd 3882 92bd d9a2 e73a
000001f0: 957a 093e 2944 0fbe 292a 0a3e e9d8 38be
00000200: 8740 d53d 544c e6bd 0cc8 a73d d243 573d
00000210: 8f09 7ebb 82aa 323e e161 28bd 9620 36bd
00000220: 446a 36bc 4f66 7a3d de8f 2ebe 4a2f 8c3d
00000230: dd98 9c3d 529c 9a3d e86f cd3d bfa0 bfbd
00000240: 91cc fc3d a954 cbbd 5688 1c3d 49cc 4bbb
00000250: 02f8 ddbb 5d63 e7bd d8c1 16be b98c 32bd
00000260: fdcb 0abe cdfb 1c3e efcb 763d 2342 fa3b
00000270: 861d 933d f818 aebe 80eb 663e 2c55 5b3d
00000280: f1de 4bbd dc4e 95bc 65c8 5a3e 8fdb 80bb
00000290: f391 2dbe ceb4 e5bd 1926 b2bb 808b a03b
000002a0: 6f0c 183e d76a f8bd 2f26 163d 79a3 8a3e
000002b0: abef aabc 9251 4bbe 5afe 833e e748 a03d
000002c0: 6d5c a5bd 7d6f 29be 8eb0 493d ccc0 ef3d
000002d0: b9fc 8f3d 4082 19be d267 d5bd 290c c13d
000002e0: 2c8b ab3d c545 403d f2e6 72bd 17c1 4a3e
000002f0: c4f8 553d 5b6a cdbc a2e5 3a3d 350a 233e
00000300: 477a f03d c08f 09bd 6e6e d3bb 3da6 363e
00000310: b1d4 37bd a1ff 26bd 273b ea3d f505 a73b
00000320: 5744 e63c 4033 093e 29cb 1f3d 4e36 86bc
00000330: 1d1f 203e 3916 fbbd d04f c23c 408c 323e
00000340: d1e5 90be e0c4 033d 1125 e83d 37bb b8bc
00000350: b398 1a3e 9009 313e be6e af3d af8a afbd
00000360: 7f58 fe3c faaf 75be 8e44 a53d 787a ec3d
00000370: 22f9 adbd 1827 96bd 1ec1 983c 7e9a e93d
00000380: 1112 533e 0c4b 51bd bf06 8f3e d199 70bc
00000390: 9f5b c83c 9462 7dbc 9665 0d3e 7c1c 163e
000003a0: 14fa 1ebd 2696 f9bd 874c 043d 83ec 323e
000003b0: 66cb 3b3c 29e6 3ebe b505 ddbd b44e 58bd
000003c0: 25c4 633d 96c5 b83d 5423 05be 6bd1 3a3e
000003d0: 3bc5 69bd 8e1e 4a3e 8b55 4d3d c8e5 cabd
000003e0: 59af ed3d 9753 82bd 473b da3d b85a 963e
000003f0: 4a7a 1d3e c513 96bd 180d 673e 50bd 51be

network_body._body_endoder.seq_layers.0.bias f4 [128]
-0.00019439966 0.035188396 0.059577603 -0.0147941355 0.063297406 -0.06771315 -0.13253146 0.0755443
0.051234074 -0.016755955 0.08676005 0.0135601675 0.067632936 0.040881563 -0.033283457 0.01251362
0.0676374 0.043952186 0.04484791 0.017968182 0.01973459 -0.1407644 -0.010635912 0.060904842
0.029475786 0.056063976 -0.06542998 -0.004091338 -0.11233869 0.056319714 0.07672752 -0.14124066
0.024836976 -0.008629436 0.03463996 -0.040164456 -0.0013229083 0.012037473 -0.017212914 -0.04410538
0.043546293 0.06798751 0.035107248 0.025899962 0.10918955 -0.03277803 0.04703713 0.07350601
-0.038536057 0.044422925 0.08718567 -0.09705903 0.087584294 -0.12899931 -0.0051149544 -0.0217143
0.035751067 0.0055159335 0.044750243 -0.093365125 -0.042800307 0.057586573 -0.057433393 -0.040753987
0.042846516 0.11577891 0.027298408 -0.13982324 -0.1300583 0.07481676 -0.044883225 -0.035709597
0.08562695 -0.039059713 0.0021409597 0.014890734 0.0023347032 -0.021087676 -0.013237698 0.019872036
0.026473714 -0.03206201 0.09443462 0.07906257 0.017025756 0.058511317 -0.016213972 0.054124665
-0.00764413 -0.025446823 -0.17387575 -0.07543129 0.008990091 0.06270515 0.038295608 0.021908656
0.018027611 -0.010818399 0.03505286 -0.015835484 0.036021683 0.02658977 -0.047975324 0.049931344
0.0324206 -0.073032096 0.05191947 0.104769476 0.025693392 0.064172976 -0.043614615 0.045128528
0.028643083 0.07349536 0.05420039 0.030270495 0.022705264 0.05928287 0.022805145 0.026611071
0.05960993 -0.05057262 0.04020988 0.06407018 0.064839266 0.07552971 0.051626742 0.0020525972
00000000: c3d7 4bb9 b521 103d a507 743d 1a63 72bc
00000010: 12a2 813d 31ad 8abd 54b6 07be f8b6 9a3d
00000020: d2da 513d c943 89bc 41af b13d 772b 5e3c
00000030: 2383 8a3d 6d73 273d 3c54 08bd ed05 4d3c
00000040: 7a85 8a3d 3507 343d 71b2 373d 0232 933c
00000050: 6faa a13c 8b24 10be 4042 2ebc 5b77 793d
00000060: 3477 f13c 57a3 653d 2700 86bd a110 86bb
00000070: d411 e6bd 80af 663d 5123 9d3d 64a1 10be
00000080: ea76 cb3c 7a62 0dbc a1e2 0d3d 7c83 24bd
00000090: 7065 adba d238 453c 1902 8dbc d8a7 34bd
000000a0: 995d 323d 093d 8b3d 9ecc 0f3d 282c d43c
000000b0: c59e df3d 4142 06bd 01aa 403d 528a 963d
000000c0: fcd7 1dbd d0f4 353d 678e b23d e2c6 c6bd
000000d0: 655f b33d 6518 04be 599b a7bb 30e2 b1bc
000000e0: b66f 123d 01bf b43b 084c 373d 3736 bfbd
000000f0: 604f 2fbd e6df 6b3d 473f 6bbd a7ed 26bd
00000100: d47f 2f3d 7e1d ed3d e9a0 df3c d32d 0fbe
00000110: 012e 05be 8839 993d 79d7 37bd 3a44 12bd
00000120: 2f5d af3d 14fd 1fbd 584f 0c3b 44f8 733c
00000130: d201 193b 10c0 acbc eee2 58bc aeca a23c
00000140: 67df d83c 7453 03bd f066 c13d 8feb a13d
00000150: 9979 8b3c 90a9 6f3d 2ad3 84bc d3b1 5d3d
00000160: 9c7b fabb db75 d0bc 7c0c 32be b87b 9abd
00000170: 2d4b 133c 8f6b 803d dbdb 1c3d c879 b33c
00000180: a4ae 933c a73f 31bc 9693 0f3d 6bb9 81bc
00000190: 798b 133d cad2 d93c c681 44bd cf84 4c3d
000001a0: 77cb 043d da91 95bd 83a9 543d 6191 d63d
000001b0: f37a d23c 1f6d 833d 3da5 32bd b1d8 383d
000001c0: e6a4 ea3c bc84 963d 3a01 5e3d d4f9 f73c
000001d0: 6400 ba3c 98d2 723d dbd1 ba3c 76ff d93c
000001e0: 8b29 743d 3c25 4fbd 1db3 243d 3a37 833d
000001f0: 73ca 843d 52af 9a3d 9076 533d de84 063b

network_body._body_endoder.seq_layers.2.weight f4 [128, 128]
-0.02763199 0.13796489 0.06804848 0.021555997 -0.12094503 -0.021554356 0.019358858 -0.009979283
-0.0005140723 0.090400465 -0.101737246 0.14308669 0.08214317 -0.12914999 0.19794586 0.29203787
-0.018019294 0.04083128 -0.023438912 0.038082007 -0.13154009 0.06304328 -0.080470145 -0.08567222
0.088585824 0.21120477 -0.044728197 0.0634092 -0.07165458 0.04514835 0.07732496 -0.080379404
0.108383395 -0.11387622 0.056382876 0.0036161796 0.15057534 0.005990779 -0.15012121 -0.028213544
-0.073420726 -0.023588821 0.05052753 0.103988305 0.0518532 0.15962204 0.047161743 -0.13315248
0.04713875 -0.07200899 0.10002649 -0.019872047 -0.049936038 -0.050629463 0.025783656 0.07016702
-0.0033913376 0.12037717 0.04054444 -0.08290695 -0.046499886 0.11941063 0.014881276 -0.10725723
-0.08343398 7.057622e-05 0.115803294 -0.10037413 -0.17846271 0.12583594 -0.09266836 0.12809856
-0.050162353 -0.102588125 -0.17239581 -0.14159214 0.24814914 0.0051372736 0.08733108 -0.03173018
-0.07683313 -0.08702606 -0.07924848 0.014855049 -0.11799721 0.18050948 0.051880777 0.14269008
-0.022795828 0.07359622 -0.06905747 0.043295927 0.11996856 -0.104512766 -0.09919429 0.07878974
0.18136643 -0.038314458 0.14843641 -0.15349741 -0.0034570626 -0.11623172 -0.0054894714 -0.13797684
0.07629942 -0.03681478 -0.13069879 0.013671883 0.26192957 -0.0227887 0.13927996 0.043424916
-0.13217995 0.07173088 0.075429924 -0.022233892 -0.022365903 0.031129377 0.11065024 -0.004397082
-0.120103605 -0.04695585 -0.030670661 0.08865381 0.030178726 -0.06838884 -0.13755274 -0.124547064
-0.0067892536 0.10023387 0.025361622 -0.033334047 0.10291983 0.046209026 0.112068534 0.051247783
0.03372066 0.062275354 0.1135827 0.0071518617 0.14101398 0.0011446243 0.07242584 0.05116483
-0.051936593 -0.04031602 0.106349565 0.028840255 -0.11439579 -0.020001883 0.09272732 -0.040096663
0.10193141 0.025709156 -0.22830728 -0.015750393 -0.19264887 -0.041659966 -0.046751022 -0.105866924
0.025214974 -0.09719108 -0.004792324 0.059940286 -0.081495546 -0.05753162 0.0736689 0.032540243
0.13901502 -0.093126506 0.0062547214 0.0539086 0.20322636 -0.01257998 -0.1361634 -0.044891436
-0.12058957 0.13497414 -0.0042560613 -0.06478176 0.21732114 -0.16930777 -0.15058435 -0.08322351
0.026906345 -0.06524444 -0.14478123 -0.03058764 -0.22886796 0.05408681 -0.06864593 -0.18864019
0.048937686 0.24382472 0.045755792 -0.19262898 -0.2836302 0.17312421 0.009683301 -0.11398408
0.07283638 -0.008107876 -0.084811784 0.08224666 -0.047661677 0.05229515 0.083286434 0.026106283
0.020591235 -0.14712003 0.219498 0.029011646 0.057503104 -0.020675067 0.056426555 -0.044027578
0.030541876 -0.074080855 -0.0036172708 -0.17937493 0.109640844 0.051508453 0.11206254 0.12311697
-0.021591522 -0.2313967 0.20763332 0.03459637 -0.05194129 0.01700457 -0.10031448 0.0060255765
-0.02193809 -0.06202895 0.01632251 0.1075963 -0.055369426 0.06087204 -0.081418134 0.01568443
0.044918932 -0.016461518 0.008404264 -0.12620778 -0.102084585 0.05696583 0.04011596 0.024264593
0.01909575 -0.11298062 0.0012141917 0.09028355 -0.006558321 0.13783038 0.012647901 0.0026201431
00000000: 7c5c e2bc ab46 0d3e 005d 8b3d 3496 b03c
00000010: 07b2 f7bd c392 b0bc 7896 9e3c 2680 23bc
00000020: cfc2 06ba e123 b93d 9e5b d0bd 5185 123e
00000030: ae3a a83d e53f 04be 52b2 4a3e fd85 953e
00000040: 339d 93bc b33e 273d f602 c0bc e1fb 1b3d
00000050: 72b2 06be d61c 813d 88cd a4bd eb74 afbd
00000060: 7c6c b53d 1046 583e ea34 37bd afdc 813d
00000070: a3bf 92bd 7aed 383d 8c5c 9e3d f59d a4bd
00000080: 1df8 dd3d f037 e9bd bbf1 663d 6dfd 6c3b
00000090: 6c30 1a3e 4c4e c43b 60b9 19be 1720 e7bc
000000a0: 9b5d 96bd 583d c1bc f5f5 4e3d d2f7 d43d
000000b0: 0564 543d f673 233e ac2c 413d 2059 08be
000000c0: 9014 413d 7379 93bd b0da cc3d b4ca a2bc
000000d0: bb89 4cbd d760 4fbd 3f38 d33c bab3 8f3d
000000e0: 3441 5ebb 4e88 f63d ed11 263d 1ecb a9bd
000000f0: aa76 3ebd 8f8d f43d 98d0 733c aea9 dbbd
00000100: 6fdf aabd 5202 9438 472a ed3d f490 cdbd
00000110: eebe 36be 23db 003e e9c8 bdbd 452c 033e
00000120: 0a77 4dbd b919 d2bd 8788 30be 88fd 10be
00000130: cf1a 7e3e 9356 a83b a3da b23d 81f7 01bd
00000140: b05a 9dbd b83a b2bd 074d a2bd 9762 733c
00000150: 85a8 f1bd 7ad7 383e f080 543d 591d 123e
00000160: 51be babc 9db9 963d 016e 8dbd 1257 313d
00000170: 14b2 f53d ca0a d6bd 6026 cbbd 845c a13d
00000180: 1fb8 393e 9fef 1cbd b7ff 173e 6d2e 1dbe
00000190: e38f 62bb e50a eebd 06e1 b3bb cd49 0dbe
000001a0: df42 9c3d 18cb 16bd e7d5 05be 0900 603c
000001b0: a21b 863e 5eaf babc 689f 0e3e 53de 313d
000001c0: 2e5a 07be a4e7 923d 017b 9a3d da23 b6bc
000001d0: b338 b7bc 0903 ff3c 989c e23d 6615 90bb
000001e0: e1f8 f5bd c754 40bd 0a41 fbbc 2190 b53d
000001f0: 6039 f73c 730f 8cbd a0da 0cbe 8812 ffbd
00000200: 6378 debb 6a47 cd3d 2dc3 cf3c 4889 08bd
00000210: a2c7 d23d ad45 3d3d 3084 e53d 32e9 513d
00000220: ad1e 0a3d 7114 7f3d 0c9e e83d 2a5a ea3b
00000230: f865 103e 3807 963a 0054 943d 3692 513d
00000240: 77bb 54bd 6922 25bd cdcd d93d 6642 ec3c
00000250: 5748 eabd fdda a3bc d2e7 bd3d 663c 24bd
00000260: 6ac1 d03d 029c d23c 62c9 69be f806 81bc
00000270: bf45 45be a4a3 2abd 007e 3fbd c2d0 d8bd
00000280: a28f ce3c 1e0c c7bd ed08 9dbb f283 753d
00000290: 23e7 a6bd 47a6 6bbd b8df 963d eb48 053d
000002a0: f459 0e3e 1cb9 bebd 68f4 cc3b 44cf 5c3d
000002b0: 921a 503e 431c 4ebc 6b6e 0bbe 15e0 37bd
000002c0: aaf7 f6bd a936 0a3e 6e76 8bbb 4dac 84bd
000002d0: 6f89 5e3e 045f 2dbe c932 1abe 1671 aabd
000002e0: b26a dc3c e19e 85bd 8841 14be ee92 fabc
000002f0: 5d5c 6abe 228a 5d3d 3d96 8cbd e52a 41be
00000300: e272 483d 30ad 793e 6d6a 3b3d 8840 45be
00000310: fa37 91be 7947 313e b5a6 1e3c 7c70 e9bd
00000320: 3d2b 953d e6d6 04bc cdb1 adbd f070 a83d
00000330: e438 43bd 7033 563d 1492 aa3d d8dc d53c
00000340: f3ae a83c a2a6 16be 15c4 603e d5a9 ed3c
00000350: 6088 6b3d c25e a9bc 881f 673d 4356 34bd
00000360: f532 fa3c b4b7 97bd bc0f 6dbb 10ae 37be
00000370: 618b e03d 87fa 523d 0c81 e53d c024 fc3d
00000380: b4e0 b0bc 42f3 6cbe d49d 543e ecb4 0d3d
00000390: 64c0 54bd 2b4d 8b3c ae71 cdbd 3372 c53b
000003a0: 82b7 b3bc 1112 7ebd c9b6 853c 735b dc3d
000003b0: 0dcb 62bd f654 793d 8dbe a6bd a27c 803c
000003c0: eafc 373d 4eda 86bc 0ab2 093c 9d3c 01be
000003d0: b911 d1bd 0155 693d a250 243d 8ac6 c63c
000003e0: b16e 9c3c 6262 e7bd 8325 9f3a 95e6 b83d
000003f0: 2fe7 d6bb 6823 0d3e 2439 4f3c b5b6 2b3b

network_body._body_endoder.seq_layers.2.bias f4 [128]
0.027767172 0.064815335 0.075230405 -0.0007526355 0.056506768 0.056853686 0.039644595 0.05460875
0.02596802 0.028228082 0.00021331027 0.032362804 0.028291827 0.024169631 0.015386112 0.050160974
0.084934205 -0.0054674544 -0.004462094 0.07508961 -0.029169692 -0.09206045 0.079674944 0.02767142
0.013618245 0.046988036 0.017908413 0.08091519 -0.025455996 0.016130693 0.037263118 0.036826514
-0.057905924 0.056662105 0.026518099 0.081351936 0.046430703 -0.0652111 0.04299281 -0.08664864
0.05392858 -0.014893455 0.005275522 0.026609678 0.037473034 0.066688545 -0.027480299 0.04384243
-0.042557497 -0.061867017 0.03262303 0.016064962 0.06764497 0.03524402 0.06482158 0.07801647
0.020987079 -0.022968996 0.03249011 0.031988077 -0.014231007 -0.0024925037 0.07529191 0.05995276
-0.053403012 0.05655933 0.063817345 0.07076057 0.08951633 0.060536154 -0.035969675 0.039141554
-0.042686794 0.0072793346 -0.0632851 -0.024848295 0.0605925 0.022746947 0.01572112 -0.08980115
-0.014405223 -0.025206542 0.06147433 0.017166195 -0.024802491 -0.035942823 0.016543053 0.053432167
-0.055770166 -0.06981421 0.026034057 0.08471588 0.049570214 0.053423584 -0.024066668 0.068494275
-0.0102699585 0.06014823 0.03936032 0.033984452 0.06112524 -0.030882241 -0.06505841 0.044106815
0.007078234 0.08007816 0.055769213 -0.004105504 0.046169735 0.020378552 0.04937333 -0.027045613
0.04079219 0.012080752 0.07184759 0.021807395 0.0019786726 0.07318705 -0.042586297 -0.007063645
-0.01028544 0.035665832 0.051931985 0.07782214 0.07159672 0.08704015 0.010244314 0.050660927
00000000: fb77 e33c e7bd 843d 6612 9a3d 834c 45ba
00000010: a473 673d 69df 683d 5f62 223d 6dad 5f3d
00000020: e3ba d43c 943e e73c 0aac 5f39 dc8e 043d
00000030: 43c4 e73c 64ff c53c 0816 7c3c 9875 4d3d
00000040: fcf1 ad3d 5528 b3bb c236 92bb 95c8 993d
00000050: 47f5 eebc 308a bcbd 9e2c a33d 2caf e23c
00000060: 0f1f 5f3c 8776 403d aab4 923c ddb6 a53d
00000070: 1889 d0bc 8424 843c 36a1 183d 66d7 163d
00000080: c32e 6dbd 8616 683d 7c3c d93c d89b a63d
00000090: 1f2e 3e3d 668d 85bd 3b19 303d d874 b1bd
000000a0: 37e4 5c3d ae03 74bc 49de ac3b 8afc d93c
000000b0: 537d 193d 0194 883d 5d1e e1bc 1f94 333d
000000c0: c550 2ebd 4568 7dbd ba9f 053d ab9a 833c
000000d0: 7289 8a3d 095c 103d 2dc1 843d 19c7 9f3d
000000e0: 18ed ab3c 7a29 bcbc 5914 053d ee05 033d
000000f0: 2b29 69bc 4659 23bb a532 9a3d 0691 753d
00000100: 1ebd 5abd c2aa 673d abb2 823d ebea 903d
00000110: 5654 b73d c2f4 773d f054 13bd e552 203d
00000120: 59d8 2ebd 7c87 ee3b 9e9b 81bd a78e cbbc
00000130: d72f 783d ce57 ba3c 94c9 803c aae9 b7bd
00000140: e203 6cbc f37d cebc 82cc 7b3d 1fa0 8c3c
00000150: 982e cbbc c838 13bd 4c85 873c b0db 5a3d
00000160: 426f 64bd c1fa 8ebd 6045 d53c 857f ad3d
00000170: 230a 4b3d b0d2 5a3d 7627 c5bc ba46 8c3d
00000180: 5443 28bc fe5d 763d 4938 213d 4833 0b3d
00000190: 765e 7a3d c1fc fcbc 583d 85bd 59a9 343d
000001a0: 88f0 e73b 0500 a43d 426e 643d 7787 86bb
000001b0: 7a1c 3d3d ecf0 a63c b03b 4a3d c38e ddbc
000001c0: b615 273d 59ee 453c d424 933d 6ca5 b23c
000001d0: 9eac 013b 18e3 953d f86e 2ebd 2676 e7bb
000001e0: 4384 28bc 5616 123d a2b6 543d 3761 9f3d
000001f0: 4da1 923d 1b42 b23d c4d7 273c d581 4f3d

action_model._discrete_distribution.branches.0.weight f4 [3, 128]
-0.011526183 0.08516231 0.08561626 -0.045072623 0.050233524 0.039698444 0.036441334 0.027531976
0.036183063 0.020845301 -0.0767312 -0.024189003 0.0008151281 0.014979431 0.021589996 0.034086343
0.086958915 -0.09868841 -0.035373405 0.08537448 -0.11426626 -0.061644133 0.050886333 -0.02501542
-0.026584582 0.06446863 0.012524153 0.07673753 -0.04321698 -0.008565351 0.023395803 -0.0012389503
-0.10884091 0.050318502 0.000855655 0.0865805 0.052958123 -0.061368827 0.026927205 -0.10893686
0.053292062 -0.06708787 -0.02941473 0.008271669 -0.008426145 0.0432052 -0.085396 0.023637362
-0.05396859 -0.07213228 0.006190152 -0.017400116 0.073604286 0.034205616 0.09921992 0.09100079
-0.008618057 -0.035103388 -0.008302142 0.00061638834 -0.032072663 -0.1287884 0.09637954 0.03957432
-0.06697228 0.07333047 0.09837833 0.09565644 0.06565911 0.048511263 -0.072557196 0.03402954
-0.08313513 -0.038579676 -0.071044326 -0.05408699 0.06935784 0.012051477 -0.017924074 -0.08172678
-0.020699948 -0.06669357 0.092367806 0.021200893 -0.020143589 -0.100624725 0.023646785 0.055417933
-0.09125042 -0.09780776 0.0014470052 0.10698282 0.024314184 0.062362608 -0.062429085 0.09279816
-0.07909134 0.043523382 0.041701306 -0.02150147 0.033192124 -0.10802642 -0.10177886 0.04548213
-0.016597597 0.08700305 0.09287334 -0.047467776 -0.004308287 -0.028906533 0.014294104 -0.06699887
0.025435671 -0.01996933 0.086577944 -0.03383906 -0.08790463 0.099351995 -0.068826824 -0.05546004
-0.08372027 -0.021362195 0.05526755 0.06552807 0.018070951 0.06931884 -0.0044618617 0.04514619
-0.09993629 -0.07261376 -0.094885975 -0.038277607 0.07598986 -0.01824024 -0.115833335 0.042078327
-0.09179904 -0.12414758 0.14660487 0.14485613 -0.13253668 -0.10536591 0.08985521 -0.12615393
-0.14761046 0.15856963 -0.03785483 -0.0709207 0.1538767 0.04488236 -0.15782642 0.10039792
0.12895699 -0.04686181 0.0443093 -0.13468817 0.12808199 -0.05440339 -0.12683931 -0.1256024
0.045293197 0.052637026 0.119055025 -0.030551689 -0.07987073 0.002979138 0.089628555 0.068632394
0.0010565296 0.09566379 -0.06020343 -0.14127333 0.109980054 0.0673598 0.0046800636 0.08447385
0.09074355 0.014499459 -0.11791253 -0.11746494 0.090763666 0.010929667 -0.038325682 -0.13483822
-0.122718975 0.11433837 0.12818952 -0.1260937 -0.0014654945 0.16446407 -0.01636428 0.04970882
0.03410386 -0.09420122 -0.06807513 -0.039998483 -0.18878736 0.049296904 0.13823333 -0.07633385
0.03803101 0.11622168 0.032852583 0.14627081 -0.056050457 0.028664898 0.12761642 0.048382636
0.09456999 0.13929899 -0.07952132 0.06360378 0.008706572 0.15091322 0.028764073 -0.08447302
0.078905724 0.06577424 -0.13047412 -0.06380321 0.09090284 -0.094717965 0.13149838 -0.03226989
0.091339186 0.08178568 0.006046123 -0.13828866 0.10091984 0.10294452 0.09361078 0.015656522
-0.069282554 0.045158215 0.0067752665 -0.05218356 0.12886827 0.1334594 0.084232286 -0.018888617
-0.10667177 -0.095265135 -0.003978433 0.10545569 0.13663927 0.03231747 0.0038457266 0.1448093
0.15418978 -0.13299547 -0.053602736 -0.12897578 -0.1955557 -0.12730902 0.05558698 -0.1254983
00000000: 51d8 3cbc 9469 ae3d 9457 af3d 129e 38bd
00000010: abc1 4d3d d69a 223d 8243 153d bd8a e13c
00000020: b134 143d c4c3 aa3c 3f25 9dbd 0428 c6bc
00000030: 52ae 553a 4a6c 753c 81dd b03c 1f9e 0b3d
00000040: 8417 b23d 261d cabd b4e3 10bd d1d8 ae3d
00000050: 6e04 eabd 8f7e 7cbd 306e 503d 23ed ccbc
00000060: e9c7 d9bc 2108 843d 1b32 4d3c 9128 9d3d
00000070: 4a04 31bd b055 0cbc 8ea8 bf3c 4664 a2ba
00000080: fce7 debd c61a 4e3d 094e 603a 1e51 b13d
00000090: 9eea 583d e15d 7bbd 7196 dc3c 4a1a dfbd
000000a0: c748 5a3d 5d65 89bd 29f7 f0bc e585 073c
000000b0: d00d 0abc f0f7 303d 19e4 aebd 24a3 c13c
000000c0: 2b0e 5dbd 17ba 93bd c2d6 ca3b b08a 8ebc
000000d0: d8bd 963d 301b 0c3d d033 cb3d 9f5e ba3d
000000e0: c032 0dbc 92c8 0fbd b505 08bc 1f95 213a
000000f0: a05e 03bd 1be1 03be a362 c53d af18 223d
00000100: c328 89bd 492e 963d 947a c93d 86e7 c33d
00000110: 4978 863d bfb3 463d de98 94bd 8f62 0b3d
00000120: c042 aabd b905 1ebd b07f 91bd 528a 5dbd
00000130: 7c0b 8e3d 8f73 453c 82d5 92bc 5f60 a7bd
00000140: f092 a9bc a396 88bd 552b bd3d 7fad ad3c
00000150: 2b04 a5bc 5614 cebd e7b6 c13c eafd 623d
00000160: 80e1 babd 6f4f c8bd 70a9 bd3a cf19 db3d
00000170: 8a2e c73c ef6f 7f3d a4b5 7fbd f60c be3d
00000180: a4fa a1bd 9345 323d fdce 2a3d da23 b0bc
00000190: 77f4 073d f53c ddbd 6f71 d0bd 784b 3a3d
000001a0: aff7 87bc a82e b23d 6134 be3d 926d 42bd
000001b0: 882c 8dbb 65cd ecbc d131 6a3c b436 89bd
000001c0: 785e d03c b896 a3bc c74f b13d d49a 0abd
000001d0: 5807 b4bd 0f79 cb3d 14f5 8cbd 112a 63bd
000001e0: 8875 abbd c5ff aebc 3a60 623d 9533 863d
000001f0: 8809 943c 09f7 8d3d cf34 92bb 36eb 383d
00000200: 66ab ccbd 86b6 94bd 9453 c2bd fbc8 1cbd
00000210: 92a0 9b3d 8e6c 95bc 073a edbd 535a 2c3d
00000220: 2301 bcbd 1641 febd 961f 163e 2a55 143e
00000230: b2b7 07be 15ca d7bd 0206 b83d 7f2e 01be
00000240: 3227 17be 1460 223e ab0d 1bbd df3e 91bd
00000250: db91 1d3e 91d6 373d 409d 21be 6d9d cd3d
00000260: 4d0d 043e 2bf2 3fbd ab7d 353d b2eb 09be
00000270: ed27 033e 17d6 5ebd 2ae2 01be ea9d 00be
00000280: 5c85 393d ec99 573d 1fd3 f33d 8947 fabc
00000290: 4493 a3bd a43d 433b 2d8f b73d 248f 8c3d
000002a0: 407b 8a3a 61eb c33d df97 76bd f5a9 10be
000002b0: 393d e13d eff3 893d 385b 993b a000 ad3d
000002c0: c1d7 b93d 248f 6d3c 207c f1bd 7591 f0bd
000002d0: 4de2 b93d 5912 333c 64fb 1cbd 0813 0abe
000002e0: 1654 fbbd 3c2a ea3d 1d44 033e b51e 01be
000002f0: d615 c0ba 4569 283e 620e 86bc 7a9b 4b3d
00000300: 7db0 0b3d 92ec c0bd f96a 8bbd 73d5 23bd
00000310: 7951 41be 8deb 493d 0a8d 0d3e ec54 9cbd
00000320: 68c6 1b3d a205 ee3d 6e90 063d 04c8 153e
00000330: 2a95 65bd a6d2 ea3c e1ad 023e df2c 463d
00000340: e9ad c13d 65a4 0e3e 13dc a2bd b342 823d
00000350: 03a6 0e3c ff88 1a3e a2a2 eb3c 3100 adbd
00000360: 5399 a13d a5b4 863d 029b 05be 42ab 82bd
00000370: 452b ba3d 7efb c1bd 83a7 063e 6f2d 04bd
00000380: 0a10 bb3d 407f a73d 8e1e c63b 8b9b 0dbe
00000390: 10af ce3d 94d4 d23d 02b7 bf3d 1b42 803c
000003a0: 03e4 8dbd d2f7 383d 0e03 de3b 6ebe 55bd
000003b0: 0bf6 033e 95a9 083e fa81 ac3d 4dbc 9abc
000003c0: bb76 dabd 5e1a c3bd 845d 82bb 27f9 d73d
000003d0: 2aeb 0b3e 535f 043d 9608 7c3b e448 143e
000003e0: ede3 1d3e f72f 08be 8b8e 5bbd 3a12 04be
000003f0: c13f 48be 4c5d 02be 2caf 633d a082 00be

action_model._discrete_distribution.branches.0.bias f4 [3]
0.066279285 -0.04249406 -0.039146878
00000000: 6fbd 873d 400e 2ebd 7a58 20bd

action_model._discrete_distribution.branches.1.weight f4 [3, 128]
0.0068638474 0.039840553 0.01721352 -0.0156181315 0.008679666 0.017383555 -0.0025229878 0.01382895
-0.0009253387 -0.014473354 -0.016027128 -0.015819687 0.024379563 -0.00509707 0.008462852 0.014027481
0.022585893 -0.044021722 -0.0067004645 0.002132241 -0.025406776 -0.016027441 0.040615022 0.008102438
0.004475312 0.01659647 -0.015177898 0.020409632 -0.042059314 0.00935401 -9.4380855e-05 0.0042218375
-0.026199145 0.013519942 0.014497153 0.009753722 -0.009011972 -0.014368304 0.012294754 -0.041323755
-0.00022714728 -0.016198268 0.0015407908 0.0025766145 0.00091492274 0.008145216 -0.0045077954 0.0027578606
-0.026715143 -0.00341009 0.017782563 -0.008044117 0.024836674 -0.015001559 0.01606182 0.03333896
0.010856393 -0.01575668 0.0018327872 0.02533772 -0.009267793 -0.03609868 0.0062602707 0.010324282
-0.025172384 -0.012343487 0.0012323749 0.015619921 0.012367856 0.0127167255 -0.027371561 -0.0015199514
-0.034333877 -0.005307587 -0.0032411641 -0.028426247 0.01508026 0.0076797376 0.0044624507 -0.010023232
-0.0347669 -0.0020480303 0.013359415 -0.00270485 0.0059713786 -0.016369194 0.003018836 0.011401566
-0.01282534 -0.015928037 0.039348725 0.036858886 -0.002071154 -0.00067479163 -0.030399242 0.0021237812
-0.008101527 -0.01071065 0.0036059497 0.014498977 0.006454443 -0.045943476 -0.018713668 0.00043761468
-0.018989503 0.0059598875 0.029162958 0.007885704 0.018029442 0.0031519532 0.008351782 -0.004090016
0.025117481 -0.0038949924 0.004715578 0.006781173 -0.01068531 0.018755138 -0.027896032 -0.0003514702
-0.032030538 0.021255141 0.013738097 0.026189394 0.018029004 0.021331025 -0.009675235 -0.010353199
-0.036976896 -0.01039586 -0.0058419476 0.023236226 -0.0026103074 0.0059522837 0.037577316 0.008596527
0.0264796 0.0008399437 0.019545937 0.004686912 -0.023842018 0.024451682 0.015008077 0.007175282
-0.01105988 0.02987404 0.007408986 0.0034783422 0.021724168 -0.015936788 -0.014267006 0.026150482
0.012972398 0.0032562667 0.041836265 -0.016453827 0.02544466 0.03225052 0.00028405164 -0.02901835
0.0022813305 -0.003971392 0.0024629184 0.0033767214 0.023967583 0.0038353915 0.019807685 -0.013461821
0.008603758 0.030321661 -0.029739434 0.022369504 0.0014753032 -0.0146535635 0.019372823 0.0031335244
-0.02208506 -0.008328047 -0.006864914 0.016133903 0.001534468 0.022688722 0.0004425929 -0.004686302
0.0069960416 0.009384163 0.012522819 -0.0087789865 0.01621881 0.011943296 -0.010211409 0.004524876
0.011983573 -0.008059971 0.008053555 -0.0012010622 -0.013127728 0.009961589 0.006541397 0.014688524
0.015415235 0.032019228 0.016804796 0.019496875 -0.0023239113 -0.021670643 -0.013490981 -0.020592771
0.023475744 0.016624728 -0.018507509 0.027642075 -0.015461719 0.018176978 0.002557007 -0.013075142
-0.013093717 0.0080949785 0.0035087566 -0.01238153 0.0013898402 0.017608639 0.01906069 0.0048109475
0.045185827 0.010445617 0.019201348 0.023414966 -0.020224009 0.040735543 -0.004718781 0.032247398
0.009780094 -0.0064625433 -0.033639878 0.0011054375 0.0026435058 -0.0036867966 0.023861395 -0.0074810623
-0.05090907 0.01922833 -0.0070893588 0.031745084 0.038799427 -0.010666856 0.009909609 -0.0038939808
0.009652014 0.0021394384 0.015119847 -0.007739986 -0.0085948715 -0.014368586 0.030307505 0.028482085
00000000: 20ea e03b d92f 233d 5e03 8d3c 31e3 7fbc
00000010: 2835 0e3c f567 8e3c b658 25bb d292 623c
00000020: 6e92 72ba a621 6dbc 534b 83bc 4a98 81bc
00000030: a6b7 c73c 5205 a7bb c6a7 0a3c 85d3 653c
00000040: 0d06 b93c 1f50 34bd 928f dbbb 11bd 0b3b
00000050: df21 d0bc fb4b 83bc f05b 263d 17c0 043c
00000060: a3a5 923b 52f5 873c b8ac 78bc 1a32 a73c
00000070: 6346 2cbd 9041 193c 56ee c5b8 5757 8a3b
00000080: 979f d6bc bf82 5d3c 7885 6d3c 13ce 1f3c
00000090: f3a6 13bc 0969 6bbc f06f 493c 1943 29bd
000000a0: 622e 6eb9 3bb2 84bc 5cf4 c93a 6bdc 283b
000000b0: 6dd7 6f3a 8373 053c 21b6 93bb 39bd 343b
000000c0: b7d9 dabc d17b 5fbb bdac 913c 79cb 03bc
000000d0: 4876 cb3c 19c9 75bc 1494 833c 6f8e 083d
000000e0: 03df 313c 2714 81bc 223a f03a 0d91 cf3c
000000f0: f1d7 17bc 36dc 13bd f522 cd3b 2d27 293c
00000100: 5136 cebc 563c 4abc a487 a13a b2ea 7f3c
00000110: 8ca2 4a3c d059 503c 533a e0bc 1b39 c7ba
00000120: aea1 0cbd 44eb adbb b669 54bb 29de e8bc
00000130: 3213 773c 4fa6 fb3b c039 923b 7b38 24bc
00000140: bd67 0ebd 3f38 06bb 73e1 5a3c da43 31bb
00000150: 8eab c33b b018 86bc aad7 453b a2cd 3a3c
00000160: 6021 52bc 847b 82bc 212c 213d 58f9 163d
00000170: 33bc 07bb 80e4 30ba d507 f9bc 232f 0b3b
00000180: 44bc 04bc b97b 2fbc cc51 6c3b 1e8d 6d3c
00000190: cb7f d33b 3a2f 3cbd 684d 99bc a66f e539
000001a0: e08f 9bbc 294b c33b 28e7 ee3c 0a33 013c
000001b0: 7bb2 933c 0091 4e3b ead5 083c 8a05 86bb
000001c0: 2dc3 cd3c 2143 7fbb 2385 9a3b 9a34 de3b
000001d0: 7011 2fbc 60a4 993c 3886 e4bc 8845 b8b9
000001e0: 7432 03bd 431f ae3c c115 613c 248b d63c
000001f0: 90b1 933c 67be ae3c e084 1ebc 77a0 29bc
00000200: 1675 17bd 6653 2abc cf6d bfbb e659 be3c
00000210: b111 2bbb 600b c33b acea 193d 73d8 0c3c
00000220: bfeb d83c ab2f 5c3a cd1e a03c ab94 993b
00000230: 5650 c3bc e54e c83c 70e4 753c a11e eb3b
00000240: 8034 35bc 67ba f43c 14c7 f23b e6f4 633b
00000250: e2f6 b13c de8d 82bc 29c0 69bc 8939 d63c
00000260: 2e8a 543c 1767 553b 815c 2b3d 2dca 86bc
00000270: 5271 d03c 1f19 043d c4ec 9439 e4b7 edbc
00000280: 6082 153b 7322 82bb ea68 213b fc4b 5d3b
00000290: aa57 c43c 315b 7b3b ba43 a23c f88e 5cbc
000002a0: c7f6 0c3c 2265 f83c 1da0 f3bc 4040 b73c
000002b0: f65e c13a 8015 70bc c1b3 9e3c d15b 4d3b
000002c0: baeb b4bc 5c72 08bc 13f3 e0bb 3f2b 843c
000002d0: 3420 c93a b3dd b93c d00b e839 8d8f 99bb
000002e0: 0d3f e53b 08c0 193c 832c 4d3c bdd5 0fbc
000002f0: 4fdd 843c d0ad 433c c14d 27bc 6945 943b
00000300: c056 443c f80d 04bc 0ff3 033c f66c 9dba
00000310: af15 57bc ef35 233c 3759 d63b 23a8 703c
00000320: 2f90 7c3c 9826 033d 36aa 893c e9b7 9f3c
00000330: c34c 18bb a286 b1bc 4709 5dbc 2cb2 a8bc
00000340: 3450 c03c 9530 883c 0f9d 97bc a271 e23c
00000350: 2653 7dbc e3e7 943c 7593 273b 1f39 56bc
00000360: 0887 56bc cda0 043c 2bf3 653b e7db 4abc
00000370: 4c2b b63a fe3f 903c 2a25 9c3c 27a5 9d3b
00000380: c614 393d 1824 2b3c 254c 9d3c bed0 bf3c
00000390: d2ac a5bc 50da 263d 01a0 9abb d915 043d
000003a0: b03c 203c bec3 d3bb f8c9 09bd 54e4 903a
000003b0: ab3e 2d3b 2f9e 71bb f978 c33c b323 f5bb
000003c0: 0786 50bd bb84 9d3c da4d e8bb 2207 023d
000003d0: 26ec 1e3d 09c4 2ebc ea5b 223c 2832 7fbb
000003e0: 7b23 1e3c d235 0c3b 3cb9 773c b59f fdbb
000003f0: 81d1 0cbc 386a 6bbc 7247 f83c 4353 e93c

action_model._discrete_distribution.branches.1.bias f4 [3]
0.0160224 0.0081537375 -0.025967592
00000000: 6941 833c 4197 053c fdb9 d4bc

exp_avg f4 [128, 66]
-0.00013768712 8.919081e-05 -1.4513037e-16 -2.3856903e-06 1.8087777e-06 4.98954e-07 -0.00010623782 5.2393327e-05
-3.366338e-16 -6.04915e-07 3.986833e-06 -2.9047146e-06 -6.5949804e-05 3.0156596e-05 2.0445302e-17 -3.7779985e-06
1.6750139e-06 1.1605522e-06 -7.655499e-05 2.5631018e-05 -3.1937068e-16 -1.1040522e-06 1.7455378e-07 1.149626e-05
-2.2870052e-05 3.4272583e-05 -5.1670937e-16 -1.7875121e-06 4.891111e-07 1.8797264e-05 -6.083672e-05 8.218832e-06
-3.8175486e-16 -1.6590923e-06 1.2257053e-06 1.8939618e-05 -5.5360302e-05 4.7531346e-05 -2.0913104e-38 -1.6588255e-06
4.738179e-06 -1.283386e-05 -1.3340211e-05 -1.0004237e-05 -4.9367854e-16 -1.2680684e-06 -4.0635723e-37 1.8827446e-05
-7.808759e-05 3.997246e-05 7.005681e-39 1.2009656e-06 -2.9659416e-06 -2.8673565e-05 3.756723e-05 -3.0655196e-05
-4.759697e-16 -5.520798e-06 -1.6265026e-34 1.34512975e-05 -9.633022e-05 5.3857417e-05 5.4308704e-18 1.6437882e-06
-1.1549441e-06 -8.720852e-06 -0.00016100881 1.4380838e-05 -1.5958352e-15 -7.060451e-06 6.7749243e-06 1.3676111e-05
-0.00013939169 -3.3022745e-05 -1.8572474e-15 2.2619179e-06 1.5384541e-05 1.2332822e-05 -2.781092e-05 -7.073885e-05
-9.411312e-16 -4.034083e-06 -9.547323e-06 2.5816247e-05 -8.487172e-05 -8.739675e-05 -1.8785135e-15 5.7241796e-06
1.1973636e-06 4.4288085e-05 -3.9291088e-05 -1.5843232e-05 -9.810593e-16 -6.049495e-06 1.844286e-07 4.9088707e-05
-3.594848e-05 -0.00013924703 -2.0312464e-15 2.6500313e-06 3.6278132e-06 4.6692716e-05 -9.4900024e-05 2.0916554e-05
-1.3454022e-38 -6.30429e-06 1.1725259e-06 2.5588271e-05 -2.2822256e-05 -9.800393e-05 -2.5088313e-15 -3.9893672e-07
-1.6316935e-36 3.3373766e-05 -0.00010177671 -7.089751e-06 1.0509675e-37 -9.802386e-07 2.9117127e-06 2.4152972e-05
4.4787663e-05 -0.00010381333 -2.3662823e-15 -4.5041816e-06 -4.038518e-34 3.1745723e-05 -0.00014837769 4.122923e-05
-4.748971e-18 5.642626e-07 2.628494e-07 -1.9666617e-05 0.000118055024 -0.00012229569 1.5730433e-16 -1.2601693e-06
-2.252176e-06 -1.34520815e-05 5.508228e-05 -5.821457e-05 4.1594948e-16 6.6407074e-07 -5.546331e-06 -3.4205734e-06
4.3712982e-05 -4.7657526e-05 1.5045873e-16 2.9756732e-06 -8.709582e-06 -1.269505e-05 3.6335914e-05 -4.8792717e-05
3.7975378e-16 3.177315e-06 -5.772921e-07 -4.403207e-06 -2.1169413e-05 -2.410617e-05 1.3714909e-16 -1.0175661e-06
-3.2595233e-06 -6.6994406e-05 4.8136455e-05 -7.090633e-05 4.179911e-16 5.0172234e-06 -6.556217e-08 -6.6235175e-06
1.0473955e-05 -4.9980114e-05 2.9510328e-38 -2.1805188e-06 -7.226612e-06 2.3901028e-05 -9.301213e-06 -3.7852496e-05
2.9078855e-16 7.970364e-07 -7.05786e-37 -1.1168451e-05 3.501999e-05 -5.6293986e-05 -9.59214e-38 -3.5545265e-06
6.30856e-06 4.6779332e-05 -3.730728e-05 -6.3815933e-06 3.2708955e-16 2.8977538e-06 -8.030996e-35 -8.019447e-06
4.8098635e-05 -5.937292e-05 -1.6950949e-17 -4.9925106e-06 8.5031525e-07 -2.3206903e-05 -3.7544032e-05 0.000103840204
-1.3020566e-15 5.8530845e-06 -2.9137868e-06 -1.0066792e-05 8.964325e-06 6.564147e-05 -1.7268928e-15 -1.1970213e-06
-5.5721154e-07 -6.0432044e-06 -2.8231556e-05 6.732205e-05 -1.2304919e-15 8.7258803e-07 1.2471021e-05 -2.1037702e-05
1.4165996e-05 6.6466484e-05 -1.6776983e-15 -4.4812978e-06 1.5979874e-07 -1.9277099e-05 4.9463364e-05 -5.3819135e-06
-1.2631539e-16 3.1792185e-06 2.6515318e-06 6.293333e-06 -2.0044798e-05 0.000113031274 -1.664346e-15 -6.846405e-06
-1.774369e-06 -1.7044997e-05 4.0736893e-05 7.05925e-06 -2.7426068e-38 4.382475e-06 4.43232e-06 -4.0138504e-05
2.427596e-05 5.5014716e-05 -1.416825e-15 -1.3547715e-06 -6.798932e-37 -8.968916e-06 2.446108e-05 2.652568e-05
4.696534e-37 2.3916189e-06 -6.38929e-06 -6.0073406e-05 1.5932346e-05 3.1044412e-05 -1.474654e-15 -9.1029875e-07
00000000: 1b60 10b9 f40b bb38 ed52 27a5 d919 20b6
00000010: 21c5 f235 dcef 0535 ffcb deb8 e8c0 5b38
00000020: 610e c2a5 7161 22b5 a2c6 8536 9eee 42b6
00000030: 884e 8ab8 ccf8 fc37 1b93 bc23 8589 7db6
00000040: 0ad1 e035 45c4 9b35 268c a0b8 3102 d737
00000050: cb1a b8a5 f22e 94b5 fa6c 3b34 10e0 4037
00000060: 10d9 bfb7 e8bf 0f38 6cee 14a6 73ea efb5
00000070: 754b 0335 d1ae 9d37 ee2a 7fb8 9de3 0937
00000080: 1311 dca5 faad deb5 ea82 a435 85e0 9e37
00000090: ac32 68b8 655c 4738 3ab9 e380 cfa4 deb5
000000a0: a6fc 9e36 0251 57b7 c5cf 5fb7 dfd7 27b7
000000b0: 0c4b 0ea6 8032 aab5 b546 0a83 a2ef 9d37
000000c0: f5c2 a3b8 1aa8 2738 fd48 4c00 dd30 a135
000000d0: 7d0a 47b6 0388 f0b7 8291 1d38 c493 00b8
000000e0: 5d30 09a6 4b3f b9b6 0433 5887 e2ac 6137
000000f0: e504 cab8 f6e4 6138 1f5d c822 22a0 dc35
00000100: 9403 9bb5 c64f 12b7 79d4 28b9 3b45 7137
00000110: edfb e5a6 d0e8 ecb6 2854 e336 7372 6537
00000120: ac29 12b9 e781 0ab8 2bd4 05a7 74cb 1736
00000130: 0d0e 8137 11e9 4e37 7f4b e9b7 a259 94b8
00000140: 9da1 87a6 825c 87b6 712d 20b7 f88f d837
00000150: 28fd b1b8 c648 b7b8 755c 07a7 5412 c036
00000160: 1ab5 a035 f8c1 3938 7ccc 24b8 15e7 84b7
00000170: b362 8da6 c4fc cab6 5907 4634 99e4 4d38
00000180: 63c7 16b8 d702 12b9 e25d 12a7 31d7 3136
00000190: 5b75 7336 ecd7 4338 1005 c7b8 f575 af37
000001a0: 5780 9280 7089 d3b6 af5f 9d35 65a6 d637
000001b0: 6c72 bfb7 7687 cdb8 c5c7 34a7 722d d6b4
000001c0: 23cf 0a84 cffa 0b38 f570 d5b8 7fe4 edb6
000001d0: df0c 0f02 be90 83b5 d866 4336 1d9c ca37
000001e0: 63da 3b38 5bb6 d9b8 3482 2aa7 a022 97b6
000001f0: e933 0688 b626 0538 d595 1bb9 8ced 2c38
00000200: c334 afa2 d577 1735 bf1d 8d34 bdf9 a4b7
00000210: 4f94 f738 803c 00b9 0b5c 3525 1623 a9b5
00000220: 1724 17b6 40b0 61b7 2608 6738 6b2b 74b8
00000230: 4fc7 ef25 9842 3235 9f1a bab6 018d 65b6
00000240: 7558 3738 e1e3 47b8 9477 2d25 adb1 4736
00000250: 5f1f 12b7 d3fc 54b7 6467 1838 c8a6 4cb8
00000260: c4e9 da25 db39 5536 36f7 1ab5 43bf 93b6
00000270: f894 b1b7 9b37 cab7 441f 1e25 4e93 88b5
00000280: 2fbe 5ab6 597f 8cb8 20e6 4938 8cb3 94b8
00000290: 99f4 f025 9f59 a836 2fcb 8cb3 953f deb6
000002a0: 4bb9 2f37 bda1 51b8 65ab 2001 0755 12b6
000002b0: 207c f2b6 117f c837 680c 1cb7 cfc3 1eb8
000002c0: d1a0 a725 edf3 5535 a22a 7083 2260 3bb7
000002d0: 6ee2 1238 351d 6cb8 bb8f 0282 4d8a 6eb6
000002e0: 1eae d336 ed34 4438 637a 1cb8 7821 d6b6
000002f0: e68d bc25 0877 4236 2080 d586 438b 06b7
00000300: 84bd 4938 3007 79b8 4c58 9ca3 5785 a7b6
00000310: 3841 6435 72ac c2b7 9978 1db8 c9c4 d938
00000320: 69a5 bba6 9d65 c436 7a8a 43b6 8be4 28b7
00000330: 7c65 1637 ffa8 8938 19df f8a6 57a9 a0b5
00000340: 4993 15b5 bbc6 cab6 ced2 ecb7 402f 8d38
00000350: 2355 b1a6 cb3b 6a35 a13a 5137 1f7a b0b7
00000360: 7daa 6d37 ec63 8b38 24c8 f1a6 0e5e 96b6
00000370: 2595 2b34 41b5 a1b7 e276 4f38 4996 b4b6
00000380: b9a1 11a5 8f5a 5536 f8f0 3136 522b d336
00000390: e025 a8b7 340b ed38 88db efa6 2cba e5b6
000003a0: db26 eeb5 dafb 8eb7 e8dc 2a38 7fde ec36
000003b0: 5c52 1581 2c0d 9336 57b9 9436 645a 28b8
000003c0: 3aa4 cb37 9abf 6638 9e2f cca6 98d5 b5b5
000003d0: 0d5b 6783 3379 16b7 c531 cd37 7783 de37
000003e0: 95d0 1f03 b37f 2036 9563 d6b6 54f7 7bb8
000003f0: 74a6 8537 af35 0238 2185 d4a6 415b 74b5

exp_avg_sq f4 [128, 66]
9.7951855e-08 8.7916995e-08 3.221129e-10 1.2803626e-10 9.8567605e-11 1.7506128e-08 9.6702976e-08 8.763433e-08
7.024762e-10 1.3442417e-10 3.6995762e-10 1.4131547e-08 1.3003513e-07 6.405424e-08 1.9134948e-10 2.2910358e-10
2.378115e-10 1.6834143e-08 9.8907634e-08 8.099724e-08 1.4742603e-09 2.0618697e-10 4.4599593e-10 1.2466858e-08
1.7198907e-07 2.8511582e-08 5.980416e-11 1.536166e-10 1.8483644e-10 1.719091e-08 1.0736639e-07 6.865594e-08
4.1659787e-09 5.351016e-10 5.7858834e-10 1.318382e-08 1.7810349e-07 2.8286603e-08 2.0755182e-11 1.4673777e-10
5.898722e-10 1.3600851e-08 1.2610431e-07 5.7319237e-08 5.6090195e-09 1.5369937e-10 4.6006007e-10 1.23431e-08
1.7768214e-07 3.0788648e-08 9.308314e-12 1.2843639e-10 4.700848e-10 1.3127413e-08 1.3620793e-07 5.5190846e-08
6.061782e-09 2.7922437e-10 3.5507475e-10 1.1416777e-08 1.8718912e-07 3.0373513e-08 2.9746337e-11 7.937597e-11
4.1442758e-10 1.1949694e-08 3.4949005e-07 2.3245639e-07 3.0051675e-10 3.1868364e-10 1.3175182e-09 7.661458e-08
2.8051147e-07 2.9746377e-07 1.215816e-09 2.5372565e-10 1.1079921e-09 5.6549066e-08 4.5221896e-07 1.643737e-07
4.1257653e-10 5.4584237e-10 1.4439239e-09 6.139389e-08 3.2639406e-07 2.2855964e-07 3.6589922e-09 3.428944e-10
1.8868325e-09 5.0825776e-08 5.519836e-07 8.396194e-08 1.0648348e-10 4.577175e-10 2.844686e-10 4.359002e-08
3.8258315e-07 1.6708901e-07 6.639983e-09 9.222483e-10 3.7526857e-09 5.1177693e-08 5.7982965e-07 6.938482e-08
4.7297243e-11 4.4730786e-10 1.0953767e-09 2.677762e-08 4.7141654e-07 1.3074519e-07 7.955239e-09 1.846827e-10
1.220666e-09 4.8465616e-08 5.906133e-07 6.0567466e-08 3.6549486e-11 3.972528e-10 1.1349711e-09 2.7302669e-08
5.282216e-07 9.832031e-08 7.954656e-09 5.3148036e-10 9.510387e-10 4.50913e-08 6.250301e-07 4.6546404e-08
3.8211788e-11 2.5154623e-10 8.522314e-10 2.7931694e-08 3.2801816e-07 2.4914925e-07 1.799032e-09 1.137592e-10
5.659887e-10 8.221145e-08 4.809565e-07 9.151166e-08 1.1524429e-09 5.3979266e-10 1.8305074e-09 7.294168e-08
3.50315e-07 2.3856413e-07 1.3922632e-09 2.7865082e-10 1.053133e-09 6.620673e-08 4.988056e-07 5.396643e-08
2.102554e-09 9.802082e-10 5.279431e-10 5.1705747e-08 5.144477e-07 7.670363e-08 5.2581373e-11 2.0360523e-10
1.1193547e-09 5.10923e-08 5.3273067e-07 3.1838706e-08 3.550247e-09 7.207162e-10 4.9825777e-10 4.4174207e-08
5.29207e-07 6.091634e-08 3.0344897e-11 2.5562952e-10 9.333161e-10 3.1091062e-08 5.2743e-07 4.3073392e-08
4.333356e-09 3.3918648e-10 5.4088944e-10 3.271207e-08 5.520232e-07 3.961141e-08 2.583742e-11 2.9633665e-10
8.333703e-10 2.6053934e-08 4.935499e-07 1.06367544e-07 4.9205826e-09 2.3770266e-10 5.2598154e-10 2.752332e-08
5.633213e-07 3.4864374e-08 2.4366545e-10 3.6646008e-10 7.498196e-10 2.9595471e-08 3.223289e-07 2.9886513e-07
3.9100185e-09 3.1537012e-10 2.490016e-09 8.9771035e-08 4.5461735e-07 1.6327702e-07 1.9808768e-09 8.619221e-10
3.955158e-09 8.1699945e-08 3.1487744e-07 3.111069e-07 3.0867306e-09 3.0017686e-10 2.1541995e-09 8.042715e-08
5.2917284e-07 7.461907e-08 4.086396e-09 1.126598e-09 6.4417965e-10 6.022588e-08 4.319388e-07 2.1243221e-07
1.4653094e-10 1.3125642e-10 1.5705306e-09 5.991097e-08 5.596031e-07 5.4823854e-08 5.205349e-09 1.0123756e-09
1.2594054e-09 5.1636473e-08 4.752489e-07 1.7239456e-07 6.6369535e-11 1.6711327e-10 1.8635022e-09 4.690699e-08
5.67618e-07 5.7769732e-08 5.1251257e-09 3.9616252e-10 1.3568422e-09 4.0610434e-08 5.1637466e-07 1.3007408e-07
1.811361e-10 1.7755049e-10 1.4844076e-09 4.0687734e-08 5.590144e-07 9.300162e-08 5.665059e-09 1.8233375e-10
00000000: 9a59 d233 e1cc bc33 5c15 b12f 01c7 0c2f
00000010: a1c0 d82e 6260 9632 06ab cf33 7b31 bc33
00000020: 5e18 4130 0acd 132f e862 cb2f 33c7 7232
00000030: c99f 0b34 318e 8933 1764 522f ede6 7b2f
00000040: febc 822f ac9a 9032 0c67 d433 b4f0 ad33
00000050: ec9e ca30 79b4 622f 5930 f52f d22d 5632
00000060: ffab 3834 a2e9 f432 c082 832e 3be7 282f
00000070: d53a 4b2f 36ab 9332 4c91 e633 0170 9333
00000080: 5624 8f31 6d16 1330 890a 1f30 0e7f 6232
00000090: b73c 3f34 e6fa f232 8490 b62d 0357 212f
000000a0: 9124 2230 2da9 6932 4a67 0734 2b2f 7633
000000b0: 75b9 c031 87fe 282f b3eb fc2f 870d 5432
000000c0: e5c8 3e34 7a3c 0433 ebc0 232d a137 0d2f
000000d0: 4737 0130 f986 6132 8d40 1234 fa0a 6d33
000000e0: 0048 d031 5681 992f 5434 c32f 8423 4432
000000f0: 27fe 4834 0874 0233 66d3 022e b38c ae2e
00000100: 7fd5 e32f 4f4b 4d32 8ca1 bb34 2099 7934
00000110: f935 a52f bc32 af2f 0d14 b530 5087 a433
00000120: 3499 9634 1cb3 9f34 b919 a730 b67c 8b2f
00000130: 0248 9830 5be0 7233 80c8 f234 b37e 3034
00000140: fcd0 e22f 3e0a 1630 8e73 c630 a6d7 8333
00000150: 423b af34 ff69 7534 ac71 7b31 1982 bc2f
00000160: 82a9 0131 884b 5a33 062c 1435 914e b433
00000170: df28 ea2e 03a2 fb2f 6563 9c2f bc37 3b33
00000180: d465 cd34 1469 3334 e825 e431 7481 7d30
00000190: f9f0 8031 78ce 5b33 97a5 1b35 b500 9533
000001a0: f603 502e fce8 f52f 248c 9630 9c04 e632
000001b0: ff16 fd34 f762 0c34 83ab 0832 8f0f 4b2f
000001c0: 5ec4 a730 8228 5033 a38a 1e35 5111 8233
000001d0: 10bf 202e 5c64 da2f 3ffd 9b30 3487 ea32
000001e0: 1dcb 0d35 2924 d333 f2a8 0832 9b17 1230
000001f0: b3b5 8230 69aa 4133 bec7 2735 50ea 4733
00000200: a60e 282e fc49 8a2f 7442 6a30 72ee ef32
00000210: 791a b034 d0c2 8534 d041 f730 bd28 fa2e
00000220: ea93 1b30 398c b033 141b 0135 1185 c433
00000230: fb63 9e30 8860 1430 4195 fb30 1da4 9c33
00000240: ed12 bc34 0114 8034 e859 bf30 9e30 992f
00000250: d3bd 9030 892d 8e33 a9e5 0535 b8c8 6733
00000260: 857c 1031 03b8 8630 b11e 1130 1213 5e33
00000270: 9418 0a35 44b8 a433 5d41 672e c7dd 5f2f
00000280: cbd7 9930 9470 5b33 f900 0f35 07bf 0833
00000290: 9bf8 7331 e51b 4630 c6f5 0830 0eba 3d33
000002a0: d40e 0e35 1dd1 8233 5175 052e a888 8c2f
000002b0: 2446 8030 fc88 0533 b794 0d35 b2ff 3833
000002c0: 9ae4 9431 4178 ba2f b6ad 1430 4d7f 0c33
000002d0: bf2e 1435 3521 2a33 b344 e32d ade9 a22f
000002e0: 3913 6530 35cd df32 7e7c 0435 2d6c e433
000002f0: e711 a931 adad 822f a994 1030 6c6c ec32
00000300: 2537 1735 c9bd 1533 ddf4 852f ac76 c92f
00000310: dd1b 4e30 2139 fe32 8c0c ad34 b673 a034
00000320: e358 8631 6660 ad2f d31c 2b31 26c8 c033
00000330: 2212 f434 3f51 2f34 f41f 0831 60ec 6c30
00000340: f0e5 8731 0573 af33 6d0c a934 3506 a734
00000350: 571e 5431 2306 a52f 1409 1431 4bb7 ac33
00000360: 7b0c 0e35 443e a033 5268 8c31 a5d6 9a30
00000370: 1d12 3130 8755 8133 37e5 e734 ec18 6434
00000380: cb1c 212f 6651 102f 22da d730 67a8 8033
00000390: a237 1635 7777 6b33 bcda b231 cd23 8b30
000003a0: 6317 ad30 e7c6 5d33 b625 ff34 751b 3934
000003b0: baf2 912e 34be 372f 140f 0031 c876 4933
000003c0: 695e 1835 7e1e 7833 1519 b031 ebca d92f
000003d0: a47b ba30 a56b 2e33 ff9c 0a35 7eaa 0b34
000003e0: 4829 472f 0538 432f f303 cc30 a3c0 2e33
000003f0: 2d0f 1635 2eb8 c733 63a6 c231 637a 482f

exp_avg f4 [128]
-3.8399652e-05 -0.00010933025 -2.1956626e-05 5.0548802e-05 -2.9865712e-05 1.8029394e-05 3.813238e-05 -0.00017927994
-6.775455e-05 -5.7836518e-05 -4.7169087e-07 -0.0001040101 -4.8823935e-05 0.00021946989 0.00011679022 -7.987893e-06
-0.00017214855 2.744194e-05 0.00012207484 -2.1753664e-05 0.00017120015 1.4367962e-05 0.0001833221 7.158107e-05
-3.094823e-06 -0.00013006195 5.5785666e-05 0.000121767844 1.3539323e-05 -9.1023576e-05 -0.00016197714 6.57685e-06
2.162087e-05 0.0002156653 -5.1487314e-05 0.00017923723 -8.861718e-05 0.00014294886 0.0003926672 6.202073e-05
1.6725731e-05 -0.000115090115 -0.00017316791 -0.00012907338 -0.00017988906 -3.9878996e-06 -0.0001621613 -1.7747157e-05
-4.627901e-05 -9.409106e-05 -0.00013374421 2.459327e-05 -0.00016217011 -4.619348e-06 4.0621464e-05 0.0002247473
-9.4249175e-05 1.9035584e-05 3.0546893e-05 5.840444e-06 0.00023676718 -0.00011471545 0.00018985568 0.00017072534
-5.17619e-05 -0.000201742 -4.459028e-05 -4.703272e-06 5.451883e-06 -0.00010491696 9.157203e-05 4.3320222e-05
-0.00012127003 6.9935904e-06 0.00021836294 -1.8528095e-05 1.2519263e-05 0.0001248772 2.4155173e-05 8.1673395e-05
0.00018397543 0.000380104 -0.00016778929 -7.696193e-05 0.00019056325 -8.876498e-05 -1.4887387e-05 -0.00022785708
-2.6544212e-05 0.00028954403 -5.126722e-06 0.00033258158 4.6974208e-05 -0.00010480466 -6.487852e-05 0.00020456272
-5.0601644e-05 0.0001790297 -0.0001028485 4.9966293e-05 -0.00014421823 3.663161e-05 -1.5051373e-06 1.7152517e-05
-4.174745e-05 5.4521584e-05 1.1866791e-05 -0.00020520584 0.000249162 -2.2120377e-05 9.7069875e-05 -3.5167544e-05
0.00014178459 -9.640131e-05 -1.0214272e-05 -7.088168e-06 -2.5566716e-05 -0.00010047113 2.881677e-07 7.5754106e-05
-0.00010921611 0.00015803751 -0.00013865119 -0.00011197713 -4.0468694e-05 -7.488806e-05 -0.00013450469 -1.9223886e-05
00000000: 500f 21b8 3b48 e5b8 7f2f b8b7 5d04 5438
00000010: 2188 fab7 d43d 9737 55f0 1f38 18fd 3bb9
00000020: 7217 8eb8 7d95 72b8 b33c fdb4 ff1f dab8
00000030: 4dc8 4cb8 8021 6639 46ed f438 bd03 06b7
00000040: c682 34b9 1e33 e637 3701 0039 a37b b6b7
00000050: 3184 3339 ed0d 7137 273a 4039 cb1d 9638
00000060: a7b0 4fb6 3d61 08b9 67fb 6938 9d5d ff38
00000070: f326 6337 e9e3 beb8 68d8 29b9 b6ae dc36
00000080: 775e b537 3724 6239 15f4 57b8 a1f1 3b39
00000090: fcd7 b9b8 8be4 1539 e6de cd39 2011 8238
000000a0: 3c4e 8c37 895c f1b8 6894 35b9 df57 07b9
000000b0: 9aa0 3cb9 cccf 85b6 d809 2ab9 bbdf 94b7
000000c0: b51b 42b8 c152 c5b8 b03d 0cb9 a54d ce37
000000d0: 350c 2ab9 e6ff 9ab6 f760 2a38 25aa 6b39
000000e0: a4a7 c5b8 9bae 9f37 7a1f 0038 08f9 c336
000000f0: b544 7839 6393 f0b8 ff13 4739 bc04 3339
00000100: eb1a 59b8 b58a 53b9 7306 3bb8 cdd0 9db6
00000110: 52ef b636 dd06 dcb8 5c0a c038 bcb2 3538
00000120: 5a52 feb8 7caa ea36 5bf8 6439 c86c 9bb7
00000130: d309 5237 78f1 0239 d7a0 ca37 1248 ab38
00000140: 87e9 4039 b248 c739 98f0 2fb9 9f66 a1b8
00000150: efd1 4739 5627 bab8 d7c4 79b7 ebec 6eb9
00000160: 43ab deb7 f1cd 9739 3506 acb6 585e ae39
00000170: 2c06 4538 93ca dbb8 640f 88b8 e37f 5639
00000180: 1a3d 54b8 ebb9 3b39 5eb0 d7b8 e692 5138
00000190: 4939 17b9 e4a4 1938 2004 cab5 c0e2 8f37
000001a0: fc19 2fb8 1bae 6438 7b17 4737 862c 57b9
000001b0: f5a1 8239 268f b9b7 fe91 cb38 dd80 13b8
000001c0: 03ac 1439 0f2b cab8 f75d 2bb7 e6d6 edb6
000001d0: 1b78 d6b7 07b4 d2b8 78b5 9a34 2dde 9e38
000001e0: f40a e5b8 dfb6 2539 e562 11b9 44d5 eab8
000001f0: eebc 29b8 390d 9db8 d409 0db9 fb42 a1b7
