results/Test06Dicembre4MLN2/MoveToGoal/MoveToGoal-4000079.pt (torch, 630839 bytes, 40 tensors)

discrete_act_size_vector f4 [1, 2]
3.0 3.0
00000000: 0000 4040 0000 4040

network_body._body_endoder.seq_layers.0.weight f4 [128, 66]
-0.07449769 0.34285858 0.16965497 0.09294084 -0.12319922 -0.10019565 -0.014744219 -0.13599508
0.041442413 0.045605864 0.22263443 -0.073537275 -0.043531366 -0.06637305 -0.11620299 0.16725846
-0.048700303 -0.028020617 0.012135836 -0.07674637 0.05127617 0.0057953824 0.022825338 0.028149081
-0.078936785 -0.15890394 0.112797424 0.029294575 0.09653394 0.026728254 -0.05690754 0.07863104
-0.092575714 0.10732879 -0.015214566 0.037878536 -0.073111035 0.32032552 0.083289 -0.13414913
0.22496158 0.28634763 0.013551182 0.027106427 -0.0052355435 0.12057544 -0.09769643 -0.063180074
-0.0064533455 0.20702231 -0.12174917 -0.0018987263 -0.028837044 0.39090854 -0.14775158 0.016957026
0.22247438 0.095136814 -0.16022587 -0.16808112 0.09380036 0.060835335 -0.07303692 -0.0489872
0.030301457 -0.2466323 -0.010011557 0.08323947 -0.1083491 -0.08421698 -0.054072876 0.20258893
-0.079118654 -0.23430005 0.0073688067 0.044576965 -0.22232446 0.22745076 0.027265131 0.1408691
-0.019669475 0.09034918 0.19911529 0.28456894 -0.0036751477 0.07702299 -0.051758297 -0.014044788
-0.101075426 0.32846302 0.059143588 0.061617184 0.014210621 -0.16025445 0.28686795 -0.16835654
-0.004066391 -0.03583457 -0.05533323 -0.12292888 0.13387287 0.16890231 -0.11414752 0.06388135
-0.016505161 -0.06945776 0.029826676 -0.012975012 -0.042651467 0.023818173 -0.0003793349 0.010942866
0.041690126 -0.21151942 0.010703683 0.078815885 0.23787029 0.055289507 -0.022930218 0.30663517
0.07117026 -0.050345737 -0.071310095 0.0037052964 0.13383672 -0.14145428 0.13504447 -0.17941698
0.104566894 -0.11190917 0.08098316 0.054414436 -0.0024393692 0.17345186 -0.041065574 -0.0461594
-0.011251813 0.061714053 -0.17002158 0.068459146 0.07645768 0.07460089 0.09938711 -0.09367215
0.12506571 -0.10037772 0.03845408 -0.001609396 -0.00552381 -0.11131675 -0.14815497 -0.0406463
-0.13506836 0.15306105 0.06173548 0.007330414 0.07278932 -0.34016854 0.22571157 0.054592628
-0.05252315 -0.01702024 0.21403055 -0.0034185383 -0.1690541 -0.115325026 -0.0041782004 0.005513141
0.148641 -0.119472004 0.036783397 0.27134505 -0.02192337 -0.19789328 0.25841698 0.07812068
-0.08142061 -0.16816938 0.05083587 0.11670318 0.07100816 -0.14931504 -0.104269736 0.09399753
0.083194725 0.046278004 -0.058999147 0.19839215 0.052271 -0.025586044 0.04587225 0.15819804
0.117860585 -0.032275364 -0.0064466684 0.17611681 -0.045048743 -0.040617943 0.11256595 0.00653809
0.028156683 0.13528599 0.040201884 -0.017169585 0.15484978 -0.121045634 0.024246017 0.17638667
-0.28223407 0.031861696 0.112192936 -0.02174111 0.15085469 0.17143238 0.08438192 -0.086795285
0.03166384 -0.24219523 0.081095204 0.11712195 -0.08632657 -0.07332148 0.018060574 0.114288665
0.20607004 -0.052850477 0.28175777 -0.015828485 0.024485601 -0.017202152 0.13814002 0.15101886
-0.039990425 -0.12196388 0.032339495 0.17378409 0.011289572 -0.18763413 -0.10567953 -0.0536642
0.055259667 0.089530826 -0.131161 0.18488039 -0.055795204 0.19882867 0.049589105 -0.09894758
0.116079554 -0.06256996 0.1068052 0.2940635 0.15429431 -0.07519505 0.22518711 -0.20520796
00000000: 3f92 98bd 298b af3e 08ba 2d3e c457 be3d
00000010: df4f fcbd 6033 cdbd bd91 71bc 4b42 0bbe
00000020: 85bf 293d 37cd 3a3d 48fa 633e b69a 96bd
00000030: f24d 32bd 98ee 87bd d5fb edbd cd45 2b3e
00000040: f879 47bd 7e8b e5bc 63d5 463c 332d 9dbd
00000050: f606 523d 31e7 bd3b 34fc ba3c e798 e63c
00000060: 9ca9 a1bd b7b7 22be 5602 e73d 2dfb ef3c
00000070: 96b3 c53d 36f5 da3c e117 69bd 5009 a13d
00000080: 5698 bdbd 32cf db3d 8446 79bc 8626 1b3d
00000090: 3dbb 95bd b501 a43e 6c93 aa3d 645e 09be
000000a0: 545c 663e 289c 923e c705 5e3c 4c0e de3c
000000b0: ec8e abbb 42f0 f63d 1115 c8bd 8e64 81bd
000000c0: 9676 d3bb a8fd 533e a157 f9bd afde f8ba
000000d0: aa3b ecbc 2a25 c83e 314c 17be 76e9 8a3c
000000e0: 53d0 633e 17d7 c23d 4012 24be 751d 2cbe
000000f0: 671a c03d 792e 793d 6194 95bd cda6 48bd
00000100: c33a f83c 2d8d 7cbe 8307 24bc 7579 aa3d
00000110: 22e6 ddbd f479 acbd 857b 5dbd 7973 4f3e
00000120: f608 a2bd 5aec 6fbe 0876 f13b 5696 363d
00000130: 06a9 63be dae8 683e 205b df3c fd3f 103e
00000140: e121 a1bc fe08 b93d e1e4 4b3e 05b3 913e
00000150: bfda 70bb 3bbe 9d3d 8200 54bd 1c1c 66bc
00000160: a200 cfbd 4e2c a83e 8c40 723d 4d62 7c3d
00000170: aad3 683c be19 24be 5be0 923e a865 2cbe
00000180: 5c3f 85bb 45c7 12bd 19a5 62bd 23c2 fbbd
00000190: f815 093e baf4 2c3e 2dc6 e9bd 3ad4 823d
000001a0: d535 87bc df3f 8ebd 1357 f43c 2595 54bc
000001b0: 4eb3 2ebd 541e c33c 78e1 c6b9 b549 333c
000001c0: 44c3 2a3d 8c98 58be 805e 2f3c 396a a13d
000001d0: 4594 733e 4077 623d 27d8 bbbc 49ff 9c3e
000001e0: b7c1 913d 5537 4ebd 070b 92bd 8fd4 723b
000001f0: 7e0c 093e 64d9 10be 1949 0a3e 16b9 37be
00000200: 2b27 d63d a330 e5bd 80da a53d ace1 5e3d
00000210: d3dd 1fbb 5d9d 313e 6034 28bd a411 3dbd
00000220: 8659 38bc e0c7 7c3d 231a 2ebe 4f34 8c3d
00000230: d895 9c3d 5ac8 983d 788b cb3d 2fd7 bfbd
00000240: 3a11 003e d692 cdbd 0682 1d3d 5ef2 d2ba
00000250: 1401 b5bb 09fa e3bd f0b5 17be bc7c 26bd
00000260: 5c4f 0abe 09bc 1c3e 58de 7c3d f833 f03b
00000270: 9112 953d 922a aebe ef20 673e 859c 5f3d
00000280: 8422 57bd 086e 8bbc d32a 5b3e 8e09 60bb
00000290: 851c 2dbe 872f ecbd 49e9 88bb 94a7 b43b
000002a0: 5935 183e bdad f4bd 30aa 163d bded 8a3e
000002b0: a498 b3bc 89a4 4abe 3b4f 843e bcfd 9f3d
000002c0: d9bf a6bd 9834 2cbe 4639 503d 1402 ef3d
000002d0: ba6c 913d 0be6 18be 5f8b d5bd c781 c03d
000002e0: ff61 aa3d 018e 3d3d 17a9 71bd 5027 4b3e
000002f0: 1e1a 563d d399 d1bc 8ae4 3b3d abfe 213e
00000300: e460 f13d 2c33 04bd 933e d3bb f757 343e
00000310: 0885 38bd 005f 26bd fa88 e63d 793d d63b
00000320: d8a8 e63c 6988 0a3e bbaa 243d 3ba7 8cbc
00000330: f190 1e3e c6e6 f7bd 959f c63c b59e 343e
00000340: fc80 90be 6981 023d 69c5 e53d 6a1a b2bc
00000350: a779 1a3e f88b 2f3e 6ed0 ac3d bac1 b1bd
00000360: f1b1 013d 0702 78be 3e15 a63d a2dd ef3d
00000370: fccb b0bd 9229 96bd c5f3 933c 2d10 ea3d
00000380: 0604 533e be79 58bd 8e42 903e bdaa 81bc
00000390: 0796 c83c 87eb 8cbc 9474 0d3e b0a4 1a3e
000003a0: 00cd 23bd 33c8 f9bd 6b76 043d 75f4 313e
000003b0: e6f7 383c 2923 40be 826e d8bd fece 5bbd
000003c0: f657 623d f05b b73d 124f 06be 4951 3d3e
000003d0: 8389 64bd be99 4b3e f21d 4b3d 07a5 cabd
000003e0: 1ebb ed3d ae24 80bd afbc da3d 7e8f 963e
000003f0: 54ff 1d3e ddff 99bd 7397 663e 0922 52be

network_body._body_endoder.seq_layers.0.bias f4 [128]
4.5191555e-05 0.03564785 0.06006451 -0.015052608 0.064204335 -0.06884149 -0.13384119 0.07626398
0.051694937 -0.017419958 0.08813871 0.01381207 0.06832181 0.041292462 -0.034226406 0.0124598555
0.06785554 0.044563197 0.045240298 0.017728264 0.020157224 -0.14260428 -0.010766425 0.061272338
0.029674081 0.05642002 -0.06602342 -0.004354512 -0.114912316 0.05716054 0.077079475 -0.14265488
0.024780752 -0.00885058 0.03455701 -0.040918514 -0.0014363353 0.012542739 -0.017355444 -0.04566714
0.044338565 0.068418376 0.03522471 0.025891826 0.10906108 -0.034039617 0.046952687 0.07398624
-0.037725467 0.045139555 0.08735854 -0.098664 0.08813106 -0.1309742 -0.005250002 -0.022349445
0.03566999 0.005517031 0.045374315 -0.09437738 -0.043236442 0.05755679 -0.0575301 -0.040812034
0.042631153 0.11635339 0.027368298 -0.14109398 -0.13164833 0.07475065 -0.04594055 -0.03621787
0.08667947 -0.038558174 0.0014023904 0.015242875 0.0016628834 -0.020805078 -0.013900745 0.019559389
0.026739614 -0.032092642 0.09531124 0.07939325 0.017284693 0.058396693 -0.015773842 0.05456056
-0.0077126157 -0.025846317 -0.17404476 -0.0754726 0.009088174 0.063382685 0.038061284 0.022245826
0.017842162 -0.010595339 0.03590313 -0.015968531 0.036427543 0.025989553 -0.049881347 0.050631434
0.032115214 -0.07452466 0.052567314 0.10566037 0.026120117 0.064837866 -0.044195816 0.045552477
0.028933452 0.07273212 0.055031925 0.030376103 0.02282299 0.060266525 0.022383524 0.02769484
0.060103297 -0.05132145 0.039939377 0.06381828 0.06554376 0.076135136 0.051490955 0.0023057337
00000000: 108c 3d38 7b03 123d 3406 763d 379f 76bc
00000010: 907d 833d c4fc 8cbd aa0d 09be 4a30 9c3d
00000020: 12be 533d 4db4 8ebc 1182 b43d 054c 623c
00000030: 4eec 8b3d 4922 293d fd30 0cbd 6c24 4c3c
00000040: d8f7 8a3d e687 363d e44d 393d dd3a 913c
00000050: c320 a53c db06 12be a965 30bc b4f8 7a3d
00000060: 0f17 f33c ae18 673d 4937 87bd 4bb0 8ebb
00000070: 2657 ebbd 2c21 6a3d d8db 9d3d 1f14 12be
00000080: 0101 cb3c 0602 11bc a78b 0d3d 2c9a 27bd
00000090: 6a43 bcba 0f80 4d3c 012d 8ebc 780d 3bbd
000000a0: 5b9c 353d ef1e 8c3d c947 103d 181b d43c
000000b0: 6a5b df3d 206d 0bbd 7651 403d 1986 973d
000000c0: 0586 1abd 41e4 383d 09e9 b23d 5a10 cabd
000000d0: 0f7e b43d 1a1e 06be 3508 acbb 2f16 b7bc
000000e0: b21a 123d 36c8 b43b 6bda 393d ee48 c1bd
000000f0: b218 31bd abc0 6b3d afa4 6bbd 852a 27bd
00000100: 019e 2e3d b04a ee3d 7b33 e03c f17a 10be
00000110: d2ce 06be de16 993d 282c 3cbd 3059 14bd
00000120: 0285 b13d 2def 1dbd 6ad0 b73a 40bd 793c
00000130: 1cf5 d93a 696f aabc f3bf 63bc 033b a03c
00000140: 090d db3c 9373 03bd 8a32 c33d ee98 a23d
00000150: a198 8d3c 5f31 6f3d 2538 81bc e57a 5f3d
00000160: 1cba fcbb a8bb d3bc ca38 32be 6191 9abd
00000170: 91e6 143c c8ce 813d 26e6 1b3d e13c b63c
00000180: ba29 923c 1398 2dbc 290f 133d 70d0 82bc
00000190: 0c35 153d 0be8 d43c 6250 4cbd e862 4f3d
000001a0: 3e8b 033d 63a0 98bd d350 573d 7764 d83d
000001b0: dbf9 d53c b7c9 843d ac06 35bd 3c95 3a3d
000001c0: d905 ed3c 94f4 943d 2869 613d 4ed7 f83c
000001d0: 47f7 ba3c 08da 763d a75d b73c 4ae0 e23c
000001e0: e02e 763d 7136 52bd 7997 233d 29b3 823d
000001f0: cf3b 863d bdec 9b3d 2ee8 523d cb1b 173b

network_body._body_endoder.seq_layers.2.weight f4 [128, 128]
-0.026939202 0.13809001 0.06825585 0.02168379 -0.12130043 -0.021136055 0.01900067 -0.010225469
-0.00053985877 0.0913193 -0.1026713 0.14317377 0.082539 -0.12991004 0.19800916 0.2927055
-0.017521612 0.04058954 -0.023613142 0.039111543 -0.13171674 0.0625699 -0.081095606 -0.08594523
0.0887911 0.21197541 -0.045008693 0.06304724 -0.07192007 0.045481317 0.078156695 -0.08071014
0.1089842 -0.11461178 0.058231145 0.0030654522 0.15132675 0.005812605 -0.15053667 -0.02835297
-0.07408485 -0.022779487 0.05118403 0.10424799 0.052444033 0.1588763 0.047917813 -0.13225834
0.046549097 -0.07248058 0.100197166 -0.020373892 -0.050250884 -0.05096272 0.026125891 0.07113063
-0.0024170838 0.12129578 0.04080385 -0.08303579 -0.047013048 0.12054088 0.0142942285 -0.107573375
-0.08269085 -5.008189e-05 0.11683087 -0.10068789 -0.17880803 0.12733026 -0.09308511 0.12779516
-0.05011139 -0.104133286 -0.17227836 -0.1419035 0.24888387 0.004926015 0.088196136 -0.031323135
-0.07815756 -0.087968916 -0.07942891 0.015793981 -0.118392155 0.18107443 0.05104195 0.14341775
-0.021574548 0.07331754 -0.069544435 0.04317217 0.12136821 -0.10426204 -0.098528415 0.07843613
0.18177113 -0.037838034 0.14821972 -0.15419224 -0.0025553706 -0.11613144 -0.0057301135 -0.13865037
0.07561001 -0.03700424 -0.13067888 0.013749617 0.26165766 -0.022448013 0.13982265 0.043879863
-0.13223977 0.07290681 0.075265326 -0.021927794 -0.021845628 0.031145781 0.11047792 -0.00441659
-0.11947962 -0.04612309 -0.030040545 0.089328624 0.030131936 -0.06837658 -0.13632911 -0.12425426
-0.0048344545 0.1007456 0.02440551 -0.033430744 0.10343682 0.045983985 0.11111909 0.05128791
0.033191677 0.06444937 0.11321707 0.009374151 0.14264575 -0.00030204988 0.07420785 0.052149404
-0.051779877 -0.041364122 0.1052124 0.030595621 -0.113647066 -0.02060633 0.09233914 -0.041083023
0.1018895 0.026459945 -0.22911614 -0.016826788 -0.19330542 -0.039499905 -0.04570849 -0.1067952
0.025514321 -0.09730357 -0.0038140658 0.060466133 -0.08215583 -0.05846916 0.07374207 0.032705277
0.13795324 -0.092652656 0.007176082 0.053283267 0.20289136 -0.011509308 -0.1356626 -0.043589525
-0.121544056 0.13537325 -0.0053893165 -0.065405644 0.21755096 -0.16995482 -0.14923096 -0.081735365
0.028991815 -0.0655717 -0.14453633 -0.031188367 -0.22922052 0.053627156 -0.06967241 -0.19015169
0.049007166 0.24463849 0.046217825 -0.19352876 -0.2844869 0.16967613 0.009157808 -0.11418928
0.07351554 -0.0105996765 -0.08437602 0.0827864 -0.044821758 0.050829954 0.08522884 0.029446308
0.019890781 -0.14692417 0.21967721 0.029371511 0.05647938 -0.019294808 0.05474726 -0.04181481
0.03222823 -0.07281276 -0.004695846 -0.18127386 0.11039108 0.052078236 0.11139727 0.12351737
-0.022461066 -0.23492233 0.20960467 0.033454563 -0.052475516 0.016546018 -0.10057411 0.006546266
-0.024412919 -0.06218482 0.01735919 0.1090559 -0.055972535 0.06140443 -0.08079492 0.015793812
0.044823963 -0.0163155 0.008575701 -0.12594038 -0.10217072 0.058690585 0.04093412 0.023022236
0.019833643 -0.11210525 0.0021818173 0.089525625 -0.0066792616 0.13839413 0.013590413 0.0036110282
00000000: 9aaf dcbc 7867 0d3e b9c9 8b3d 34a2 b13c
00000010: 5c6c f8bd 8525 adbc 4ba7 9b3c ba88 27bc
00000020: 4f85 0dba 9d05 bb3d 5545 d2bd 259c 123e
00000030: 350a a93d 2307 05be eac2 4a3e 7fdd 953e
00000040: 7c89 8fbc 3841 263d 5970 c1bc 6d33 203d
00000050: c1e0 06be a624 803d 7415 a6bd 0e04 b0bd
00000060: 1cd8 b53d 1510 593e 095b 38bd e91e 813d
00000070: d44a 93bd 9e4a 3a3d 9e10 a03d 5c4b a5bd
00000080: 1c33 df3d 95b9 eabd c883 6e3d c1e5 483b
00000090: 66f5 1a3e aa77 be3b 4926 1abe 7d44 e8bc
000000a0: ccb9 97bd 0c9c babc 58a6 513d f87f d53d
000000b0: 8ecf 563d 78b0 223e 7845 443d bb6e 07be
000000c0: 44aa 3e3d b370 94bd 2c34 cd3d 26e7 a6bc
000000d0: dfd3 4dbd 49be 50bd f705 d63c f0ac 913d
000000e0: f067 1ebb ec69 f83d f021 273d ab0e aabd
000000f0: c190 40bd 23de f63d 5732 6a3c 6e4f dcbd
00000100: d259 a9bd 050f 52b8 0645 ef3d 7435 cebd
00000110: 7419 37be dd62 023e 68a3 bebd bcdc 023e
00000120: 9a41 4dbd d543 d5bd bd69 30be 274f 11be
00000130: 6adb 7e3e 696a a13b 2da0 b43d b04c 00bd
00000140: 1211 a0bd 0c29 b4bd a0ab a2bd 6162 813c
00000150: 9677 f2bd 936b 393e 5d11 513d 1adc 123e
00000160: 1bbd b0bc 8227 963d 506d 8ebd 4dd5 303d
00000170: e58f f83d 5687 d5bd 44c9 c9bd 1fa3 a03d
00000180: 3622 3a3e 0efc 1abd e9c6 173e 92e4 1dbe
00000190: 0178 27bb 52d6 edbd adc3 bbbb 5dfa 0dbe
000001a0: 6cd9 9a3d c291 17bd afd0 05be 1346 613c
000001b0: fef7 853e e5e4 b7bc ab2d 0f3e 5fbb 333d
000001c0: dd69 07be 2a50 953d b524 9a3d eba1 b3bc
000001d0: 9af5 b2bc 7025 ff3c 3f42 e23d 0bb9 90bb
000001e0: bbb1 f4bd 91eb 3cbd 9717 f6bc edf1 b63d
000001f0: 40d7 f63c 0509 8cbd dc99 0bbe 0479 febd
00000200: 586a 9ebb b653 ce3d 10ee c73c adee 08bd
00000210: afd6 d33d b459 3c3d 6892 e33d 4613 523d
00000220: fff3 073d 08fe 833d 5ade e73d 0a96 193c
00000230: ba11 123e 735c 9eb9 49fa 973d 9d9a 553d
00000240: 2317 54bd 6d6d 29bd 9979 d73d aba3 fa3c
00000250: cbbf e8bd 9bce a8bc 4e1c bd3d ac46 28bd
00000260: 71ab d03d 87c2 d83c 6c9d 6abe 55d8 89bc
00000270: dbf1 45be a7ca 21bd d338 3bbd 71b7 dabd
00000280: 6903 d13c 1847 c7bd 68f5 79bb 56ab 773d
00000290: 5141 a8bd 5c7d 6fbd 1506 973d f8f5 053d
000002a0: 9d43 0d3e adc0 bdbd 5725 eb3b 8e3f 5a3d
000002b0: c1c2 4f3e 8991 3cbc 23eb 0abe ee8a 32bd
000002c0: 17ec f8bd 499f 0a3e dd98 b0bb 65f3 85bd
000002d0: aec5 5e3e a308 2ebe 00d0 18be df64 a7bd
000002e0: 3e80 ed3c 754a 86bd 5501 14be bf7e ffbc
000002f0: c9b8 6abe 26a8 5b3d 69b0 8ebd 20b7 42be
00000300: bdbb 483d 8382 7a3e e74e 3d3d 672c 46be
00000310: 44a8 91be 94bf 2d3e a10a 163c 12dc e9bd
00000320: 518f 963d 44aa 2dbc 56cd acbd eb8b a93d
00000330: 0597 37bd 1233 503d 758c ae3d 6239 f13c
00000340: fef1 a23c 4a73 16be 10f3 603e 869c f03c
00000350: ec56 673d 2510 9ebc aa3e 603d 0246 2bbd
00000360: c001 043d db1e 95bd 9cdf 99bb db9f 39be
00000370: b814 e23d fd4f 553d 4024 e43d adf6 fc3d
00000380: 4500 b8bc 7b8f 70be 9ba2 563e a707 093d
00000390: 91f0 56bd 848b 873c cdf9 cdbd 0f82 d63b
000003a0: 9afd c7bc 83b5 7ebd dc34 8e3c b358 df3d
000003b0: 7543 65bd 3683 7b3d cf77 a5bd 0662 813c
000003c0: 5599 373d 15a8 85bc 1981 0c3c 84f6 00be
000003d0: e23e d1bd 8a65 703d 89aa 273d 2199 bc3c
000003e0: 2a7a a23c 7097 e5bd d2fc 0e3b 3659 b73d
000003f0: b5dd dabb 31b7 0d3e 53aa 5e3c 00a7 6c3b

network_body._body_endoder.seq_layers.2.bias f4 [128]
0.028110083 0.06563725 0.07584334 -0.0016287919 0.057050176 0.05762172 0.039849523 0.0553464
0.02637695 0.028099066 0.00023457277 0.03295872 0.028979179 0.023975404 0.01584139 0.050805915
0.08563082 -0.0058119353 -0.004668676 0.07521272 -0.029743878 -0.09276912 0.080571264 0.028081369
0.0142082935 0.04740266 0.017566532 0.08175534 -0.025481684 0.01646104 0.038330384 0.036646817
-0.05968028 0.05755529 0.02731716 0.08147408 0.04647778 -0.067470916 0.04387111 -0.08631595
0.053894483 -0.0153622 0.005296228 0.027002413 0.038348332 0.06762298 -0.028130675 0.0448008
-0.043165326 -0.06292417 0.03321706 0.01569224 0.06862327 0.035150014 0.06472096 0.0789103
0.021705315 -0.022489423 0.03296544 0.032637425 -0.015406265 -0.0026782532 0.07548026 0.06091617
-0.055100217 0.056262933 0.063792415 0.071123146 0.090169646 0.0611959 -0.035961285 0.03914634
-0.044597548 0.0074099186 -0.06499707 -0.024572337 0.061249133 0.023470355 0.016521506 -0.089627296
-0.015003049 -0.025181983 0.06194609 0.017571993 -0.025031846 -0.03610411 0.017176013 0.05415828
-0.057072308 -0.07168946 0.026878137 0.085360646 0.050364707 0.05322439 -0.023995625 0.06838362
-0.0110731255 0.060845938 0.03984848 0.034458164 0.06218452 -0.031803284 -0.06655342 0.044297483
0.0067419056 0.08052396 0.056097817 -0.0041883388 0.04716833 0.021074684 0.050155282 -0.027547412
0.041843046 0.0119239995 0.07203302 0.02201816 0.001769462 0.073521875 -0.043506 -0.0066301404
-0.01022137 0.035887945 0.052165486 0.078664176 0.0720395 0.0878735 0.010374551 0.05089837
00000000: 1e47 e63c d36c 863d c153 9b3d 307d d5ba
00000010: 72ad 693d c104 6c3d 4139 233d e8b2 623d
00000020: 7914 d83c 0330 e63c a6f7 7539 b9ff 063d
00000030: be65 ed3c 1168 c43c cdc5 813c dd19 503d
00000040: 365f af3d 0c72 bebb b1fb 98bb 2009 9a3d
00000050: 6fa9 f3bc bdfd bdbd 8c02 a53d e60a e63c
00000060: e7c9 683c 4b29 423d b0e7 8f3c 586f a73d
00000070: f7be d0bc 4ed9 863c 5200 1d3d f91a 163d
00000080: 4f73 74bd 19bf 6b3d 3dc8 df3c e2db a63d
00000090: 7c5f 3e3d 312e 8abd 31b2 333d 6bc6 b0bd
000000a0: 76c0 5c3d bdb1 7bbc fb8b ad3b 2a34 dd3c
000000b0: 2413 1d3d eb7d 8a3d 4d72 e6bc 0b81 373d
000000c0: 20ce 30bd 63de 80bd 9d0e 083d 038d 803c
000000d0: 5b8a 8c3d 76f9 0f3d 6c8c 843d b99b a13d
000000e0: 58cf b13c bd3b b8bc c506 073d d2ae 053d
000000f0: 8f6a 7cbc a285 2fbb 6595 9a3d 3c83 793d
00000100: c4b0 61bd f673 663d 99a5 823d 03a9 913d
00000110: ddaa b83d 8da8 7a3d 244c 13bd ea57 203d
00000120: ebab 36bd e7ce f23b 2f1d 85bd ed4b c9bc
00000130: 5fe0 7a3d e744 c03c 1c58 873c 848e b7bd
00000140: 59cf 75bc 724a cebc 2fbb 7d3d 24f3 8f3c
00000150: 960f cdbc e7e1 13bd b6b4 8c3c 13d5 5d3d
00000160: a7c4 69bd ecd1 92bd 8a2f dc3c 90d1 ae3d
00000170: 394b 4e3d d101 5a3d 7992 c4bc b60c 8c3d
00000180: 0e6c 35bc 9739 793d 2938 233d 0124 0d3d
00000190: 32b5 7e3d 2944 02bd 294d 88bd 4771 353d
000001a0: 34eb dc3b bfe9 a43d d3c6 653d 553e 89bb
000001b0: 9433 413d d1a4 ac3c a06f 4d3d 1cab e1bc
000001c0: 9d63 2b3d e15c 433c 0c86 933d 6e5f b43c
000001d0: 4bed e73a a392 963d 5933 32bd a641 d9bb
000001e0: 8877 27bc 3dff 123d 7aab 553d af1a a13d
000001f0: 7289 933d 06f7 b33d 05fa 293c cf7a 503d

action_model._discrete_distribution.branches.0.weight f4 [3, 128]
-0.011626554 0.08503731 0.085486405 -0.04454546 0.049635693 0.038372412 0.035996225 0.02674693
0.035979837 0.02084319 -0.07725949 -0.02488136 0.00094941293 0.01446646 0.020774368 0.03378102
0.0864231 -0.09828568 -0.034773543 0.08522539 -0.11350562 -0.06224841 0.05078732 -0.025469732
-0.027448868 0.06389643 0.011796657 0.0762675 -0.044324983 -0.009087583 0.023340771 -0.0016188507
-0.10857298 0.05024511 -0.00011844578 0.08627052 0.05231999 -0.061515994 0.026426915 -0.10958647
0.052561544 -0.06659697 -0.029456915 0.007844644 -0.009026995 0.042536773 -0.08425537 0.023249064
-0.05431375 -0.07218164 0.0058097956 -0.017555756 0.07324871 0.03343643 0.09854294 0.09086848
-0.008840265 -0.035987485 -0.009061999 0.00038932424 -0.030968912 -0.12849687 0.09595392 0.03919889
-0.06682422 0.07325415 0.09807734 0.095498614 0.065355316 0.048088066 -0.0729242 0.033319622
-0.082302995 -0.03925889 -0.07083694 -0.054736555 0.06929407 0.0116280615 -0.018357763 -0.082359344
-0.020906763 -0.06676951 0.092399314 0.020930693 -0.019582734 -0.10071656 0.024041547 0.055384696
-0.090886645 -0.09798658 0.0014809122 0.106599376 0.0237863 0.06195893 -0.06282449 0.09238892
-0.07832647 0.04313329 0.04164785 -0.021558957 0.0326848 -0.10707739 -0.10158148 0.045096394
-0.016483843 0.08669974 0.09250575 -0.04705223 -0.0050091865 -0.029345768 0.013732986 -0.06631581
0.025451686 -0.020143216 0.08612939 -0.03441708 -0.08820772 0.09885348 -0.06806354 -0.05628208
-0.08426163 -0.021332929 0.055411182 0.065052085 0.01801306 0.06872831 -0.005394655 0.044940818
-0.10049334 -0.07223049 -0.09547046 -0.03849808 0.076790005 -0.01728669 -0.11669463 0.043348305
-0.09367387 -0.12484915 0.14778472 0.14600877 -0.13301119 -0.10617623 0.09071421 -0.12648559
-0.14761442 0.15870404 -0.0386903 -0.07054654 0.15391488 0.04497508 -0.15836325 0.10134075
0.13027878 -0.04659516 0.04523614 -0.13535458 0.12986512 -0.054169588 -0.12840077 -0.12579627
0.044781968 0.053085454 0.12032636 -0.030350976 -0.08083011 0.0027892948 0.09066761 0.06908322
0.0017266856 0.09604372 -0.06066967 -0.14254731 0.11100481 0.06836389 0.0040013175 0.08534663
0.09049223 0.014310873 -0.11808604 -0.117826924 0.09171625 0.01186761 -0.037890624 -0.1350856
-0.123363964 0.11607452 0.1292479 -0.12639104 -0.0012699235 0.16452798 -0.015781347 0.05069834
0.0336607 -0.09417646 -0.06820653 -0.039574075 -0.18998557 0.050083973 0.13930292 -0.07634629
0.03708467 0.11750701 0.03259394 0.14738429 -0.05588198 0.029738635 0.12848046 0.0488065
0.095200226 0.13973378 -0.08001265 0.06437562 0.008179918 0.15179761 0.02893879 -0.084497206
0.078245565 0.06562158 -0.13109179 -0.06367703 0.09183446 -0.09554801 0.13316713 -0.03229453
0.09149937 0.08254747 0.0068127033 -0.13902985 0.101899624 0.10188491 0.09287554 0.016373072
-0.06974047 0.045724224 0.0073092366 -0.053036492 0.13011563 0.13434763 0.085253194 -0.020164954
-0.10806748 -0.09523108 -0.0035289063 0.10675347 0.13782276 0.033080567 0.0033004116 0.1459536
0.15523748 -0.13348848 -0.05357579 -0.13039643 -0.1962402 -0.12761691 0.057425328 -0.12625098
00000000: 4d7d 3ebc 0b28 ae3d 7f13 af3d 4d75 36bd
00000010: cc4e 4b3d 642c 1d3d c770 133d 611c db3c
00000020: 985f 133d 56bf aa3c 393a 9ebd fed3 cbbc
00000030: 06e2 783a bb04 6d3c 022f aa3c f85d 0a3d
00000040: 98fe b03d 014a c9bd b46e 0ebd a68a ae3d
00000050: a275 e8bd 30f8 7ebd 5d06 503d e6a5 d0bc
00000060: 73dc e0bc 22dc 823d c446 413c 2332 9c3d
00000070: 1d8e 35bd 16e4 14bc 2535 bf3c 9e2f d4ba
00000080: 835b debd d1cd 4d3d 1866 f8b8 99ae b03d
00000090: 7c4d 563d 32f8 7bbd 427d d83c df6e e0bd
000000a0: c64a 573d fe63 88bd a14f f1bc d286 003c
000000b0: f6e5 13bc 0a3b 2e3d 148e acbd d274 be3c
000000c0: 1878 5ebd f8d3 93bd 1960 be3b 17d1 8fbc
000000d0: 6b03 963d a3f4 083d e2d0 c93d 4119 ba3d
000000e0: c2d6 10bc 9d67 13bd c778 14bc 371e cc39
000000f0: 84b2 fdbc af94 03be 7d83 c43d 048f 203d
00000100: 23db 88bd 4606 963d c6dc c83d c794 c33d
00000110: 02d9 853d fef7 443d 4859 95bd 287a 083d
00000120: 798e a8bd eecd 20bd f512 91bd 7033 60bd
00000130: 0dea 8d3d a083 3e3c 0563 96bc 04ac a8bd
00000140: a944 abbc 74be 88bd da3b bd3d d876 ab3c
00000150: f86b a0bc 7c44 cebd c7f2 c43c 10db 623d
00000160: c722 babd 30ad c8bd 2b1b c23a c650 da3d
00000170: 7ddb c23c a6c8 7d3d 20aa 80bd 6736 bd3d
00000180: a169 a0bd 88ac 303d f096 2a3d 699c b0bc
00000190: 7fe0 053d 644b dbbd f309 d0bd ffb6 383d
000001a0: 2009 87bc a28f b13d a873 bd3d d7b9 40bd
000001b0: 1a24 a4bb 8966 f0bc 5100 613c 95d0 87bd
000001c0: 0e80 d03c 6303 a5bc 9b64 b03d edf8 0cbd
000001d0: 40a6 b4bd b173 ca3d e664 8bbd 0a88 66bd
000001e0: 5d91 acbd 65c2 aebc d6f6 623d 073a 853d
000001f0: 2090 933c 6ec1 8c3d a5c5 b0bb dd13 383d
00000200: 74cf cdbd 94ed 93bd 0486 c3bd 2ab0 1dbd
00000210: 1444 9d3d d19c 8dbc 98fd eebd fe8d 313d
00000220: 16d8 bfbd e9b0 ffbd e154 173e 5383 153e
00000230: 1634 08be ec72 d9bd 5fc8 b93d 7085 01be
00000240: 3c28 17be 5083 223e b879 1ebd b47a 90bd
00000250: dd9b 1d3e ca37 383d fa29 22be bd8b cf3d
00000260: cd67 053e 91da 3ebd 8849 393d 649a 0abe
00000270: 5dfb 043e eee0 5dbd 7e7b 03be bdd0 00be
00000280: 4c6d 373d 2270 593d ab6d f63d 9ca2 f8bc
00000290: 428a a5bd 9acc 363b f1af b93d 817b 8d3d
000002a0: f451 e23a 92b2 c43d c380 78bd ecf7 11be
000002b0: 7d56 e33d 5e02 8c3d 7c1d 833b 37ca ae3d
000002c0: fe53 b93d 2778 6a3c 18d7 f1bd 3e4f f1bd
000002d0: bbd5 bb3d 5d70 423c 3333 1bbd e153 0abe
000002e0: 3fa6 fcbd 7ab8 ed3d 9059 043e a76c 01be
000002f0: 9073 a6ba 067a 283e e247 81bc 10a9 4f3d
00000300: cddf 093d 96df c0bd ddaf 8bbd 6d18 22bd
00000310: 948b 42be da24 4d3d 6da5 0e3e 725b 9cbd
00000320: 18e6 173d 84a7 f03d 3981 053d e8eb 163e
00000330: 81e4 64bd 709e f33c 6290 033e 53e9 473d
00000340: 56f8 c23d 5f16 0f3e acdd a3bd 5dd7 833d
00000350: 1005 063c d570 1b3e 0b11 ed3c df0c adbd
00000360: 363f a03d 9b64 863d ed3c 06be 1a69 82bd
00000370: b513 bc3d adae c3bd f75c 083e 4547 04bd
00000380: 0664 bb3d a60e a93d 193d df3b d75d 0ebe
00000390: c0b0 d03d 09a9 d03d 8835 be3d d220 863c
000003a0: 17d4 8ebd 5349 3b3d 5282 ef3b cb3c 59bd
000003b0: 083d 053e 6d92 093e 3a99 ae3d f930 a5bc
000003c0: 7c52 ddbd 8308 c3bd 3945 67bb 90a1 da3d
000003d0: 6921 0d3e 7d7f 073d b84b 583b dc74 153e
000003e0: 93f6 1e3e 34b1 08be 4a72 5bbd a486 05be
000003f0: 31f3 48be 02ae 02be d236 6b3d f047 01be

action_model._discrete_distribution.branches.0.bias f4 [3]
0.06665648 -0.042619724 -0.03947874
00000000: 3183 883d 0592 2ebd 76b4 21bd

action_model._discrete_distribution.branches.1.weight f4 [3, 128]
0.0095766615 0.04084455 0.018691154 -0.015679115 0.008385758 0.017428815 -0.00058030017 0.01370258
0.0010960178 -0.012201256 -0.016375318 -0.01578243 0.026962683 -0.003677508 0.008001329 0.01626614
0.02447493 -0.0436566 -0.0053093615 0.002938389 -0.025839273 -0.017483888 0.042711798 0.008234881
0.0047357604 0.016933495 -0.016561717 0.022156337 -0.043204155 0.010777801 0.0024699117 0.0066568693
-0.027146552 0.01376683 0.014460559 0.010229549 -0.0069989986 -0.015453982 0.012397161 -0.043123253
-0.00035201942 -0.016184343 0.00402226 0.0043951976 0.0010024925 0.008401863 -0.0053030555 0.0030643619
-0.027718736 -0.0042425753 0.020365028 -0.0058306106 0.025250139 -0.015189755 0.016748764 0.03516402
0.013230775 -0.01617611 0.0019876282 0.027374104 -0.009132236 -0.036557883 0.0065880106 0.010483399
-0.02644166 -0.011328843 0.0025210287 0.016269859 0.01432747 0.012883424 -0.02817665 0.00028487193
-0.03515834 -0.0050011724 -0.004410022 -0.028723465 0.01646761 0.007401914 0.00418535 -0.011440715
-0.035801824 -0.0020380951 0.014394938 -0.0031522221 0.0055569927 -0.016565125 0.0025069516 0.013070828
-0.013866154 -0.017415656 0.041457385 0.038049087 -0.0021216087 0.0010910813 -0.030940745 0.0025070324
-0.008123968 -0.010667268 0.0040972466 0.017107796 0.006457233 -0.04649198 -0.019833716 0.0005517272
-0.018728713 0.0057835644 0.029409744 0.009584655 0.018147338 0.0031502193 0.008577311 -0.0024614765
0.028335448 -0.0029075558 0.004746083 0.0061356016 -0.010560137 0.0189803 -0.028508322 -0.00016392616
-0.031987183 0.023659326 0.014777403 0.027931334 0.020067958 0.023720523 -0.010092285 -0.008272551
-0.038355865 -0.010443683 -0.0061067683 0.022527952 -0.0031322523 0.0067142714 0.036748867 0.007570975
0.02583426 -1.7450164e-05 0.018371917 0.0032821794 -0.025131432 0.023809852 0.014275377 0.0063418876
-0.011650316 0.028089967 0.006437865 0.0032666165 0.021064067 -0.01522214 -0.014899587 0.024596505
0.011153395 0.0033135323 0.04131616 -0.016827844 0.025115822 0.03129239 -0.00061697356 -0.030327125
0.002988841 -0.004479153 0.0012343196 0.003491073 0.023644894 0.004370354 0.018654296 -0.012762985
0.008603721 0.029360574 -0.03133886 0.021717139 3.5791443e-05 -0.015836537 0.019698428 0.002151089
-0.021728942 -0.007876338 -0.008082555 0.014955735 0.0009757364 0.022225974 0.00037841577 -0.0052701402
0.0060691093 0.008321617 0.011041033 -0.009684803 0.014999455 0.011266466 -0.010373984 0.0039797947
0.0126560135 -0.00834557 0.0077978955 -0.0010979649 -0.01363195 0.009200519 0.005596957 0.013923639
0.015829122 0.030116664 0.01756022 0.018141685 -0.0027678667 -0.021823645 -0.014460689 -0.020284886
0.023399986 0.015237352 -0.018557912 0.026683139 -0.015508794 0.01732214 0.002268915 -0.013652061
-0.012604256 0.008994672 0.002641804 -0.012563543 0.00034908083 0.016885836 0.018322553 0.0050854916
0.04361679 0.009176495 0.018974593 0.022229364 -0.02088987 0.040532168 -0.0042020013 0.03127141
0.009577809 -0.006840698 -0.033580113 0.00020891322 0.0012740564 -0.005160836 0.022691378 -0.008545057
-0.052017227 0.01851589 -0.007129347 0.030613072 0.037286863 -0.010870861 0.010248861 -0.0056302175
0.008533992 0.0010005161 0.014831596 -0.008233087 -0.0094246175 -0.015304761 0.029075839 0.027834654
00000000: 6ee7 1c3c 9d4c 273d 311e 993c 7d71 80bc
00000010: 6b64 093c e0c6 8e3c 491f 18ba c980 603c
00000020: 41a8 8f3a c7e7 47bc 8825 86bc 284a 81bc
00000030: d8e0 dc3c 5902 71bb 0218 033c 9140 853c
00000040: a67f c83c 43d1 32bd 27fa adbb fd91 403b
00000050: e2ac d3bc 5f3a 8fbc 91f2 2e3d 98eb 063c
00000060: 702e 9b3b 1db8 8a3c 70ac 87bc 3581 b53c
00000070: d7f6 30bd 6095 303c 3ede 213b de21 da3b
00000080: 7262 debc 458e 613c fbeb 6c3c d799 273c
00000090: db57 e5bb b332 7dbc 761d 4b3c 02a2 30bd
000000a0: 3f8f b8b9 0795 84bc 2acd 833b 9705 903b
000000b0: 1166 833a f8a7 093c 41c5 adbb 76d3 483b
000000c0: 6712 e3bc 4d05 8bbb 8fd4 a63c b50e bfbb
000000d0: 61d9 ce3c 73de 78bc b434 893c 2608 103d
000000e0: e4c5 583c c383 84bc de42 023b a83f e03c
000000f0: 609f 15bc b8bd 15bd 3de0 d73b 90c2 2b3c
00000100: 2e9c d8bc 9d9c 39bc d837 253b 5e48 853c
00000110: c4bd 6a3c ff14 533c b8d2 e6bc dd5a 9539
00000120: 3102 10bd e0e0 a3bb f281 90bb 794d ebbc
00000130: 15e7 863c c18b f23b 4325 893b d671 3bbc
00000140: efa4 12bd 9091 05bb bfd8 6b3c 8395 4ebb
00000150: 6f17 b63b 96b3 87bc ab4b 243b 0727 563c
00000160: dd2e 63bc 47ab 8ebc 38cf 293d 5cd9 1b3d
00000170: b00a 0bbb 9d02 8f3a 7277 fdbc 064d 243b
00000180: 641a 05bc c4c5 2ebc 3242 863b a625 8c3c
00000190: 3297 d33b 606e 3ebd 517a a2bc c9a1 103a
000001a0: f56c 99bc 0e84 bd3b b4ec f03c f508 1d3c
000001b0: baa9 943c e973 4e3b da87 0c3c b950 21bb
000001c0: be1f e83c b18c 3ebb 0885 9b3b 280d c93b
000001d0: 6d04 2dbc 937c 9b3c 498a e9bc 98e3 2bb9
000001e0: fe04 03bd 34d1 c13c ec1c 723c 41d0 e43c
000001f0: 8f65 a43c 8b51 c23c 1d5a 25bc 9889 07bc
00000200: 0a1b 1dbd fb1b 2bbc 491b c8bb 8a8c b83c
00000210: 7946 4dbb 6403 dc3b fb85 163d f115 f83b
00000220: 5fa2 d33c f161 92b7 b480 963c d519 573b
00000230: 6fe0 cdbc e10c c33c 45e3 693c 9ccf cf3b
00000240: f8e0 3ebc ee1c e63c baf4 d23b bb14 563b
00000250: 8d8e ac3c 4866 79bc 661d 74bc 9c7e c93c
00000260: bbbc 363c d927 593b 223b 293d 8cda 89bc
00000270: b2bf cd3c 732c 003d 65bc 21ba 9770 f8bc
00000280: 6ee0 433b dcc5 92bb e5c8 a13a 7cca 643b
00000290: f0b2 c13c 3035 8f3b e5d0 983c d71b 51bc
000002a0: 9ff6 0c3c 9685 f03c 2d5d 00bd 24e8 b13c
000002b0: c51e 1638 a0bb 81bc 995e a13c 49f9 0c3b
000002c0: e500 b2bc c20b 01bc b16c 04bc e608 753c
000002d0: 90c8 7f3a 3f13 b63c 1b66 c639 24b1 acbb
000002e0: 61df c63b 6457 083c 73e5 343c 02ad 1ebc
000002f0: 46c0 753c fc96 383c a5f7 29bc f068 823b
00000300: 2b5b 4f3c dcbb 08bc 7d85 ff3b 97e9 8fba
00000310: 8b58 5fbc c6bd 163c ae66 b73b fa1f 643c
00000320: 13ac 813c 39b7 f63c 73da 8f3c df9d 943c
00000330: 1965 35bb 80c7 b2bc 87ec 6cbc 7d2c a6bc
00000340: 54b1 bf3c 16a6 793c c306 98bc 9996 da3c
00000350: 9918 7ebc 29e7 8d3c 14b2 143b e5ac 5fbc
00000360: 1582 4ebc 645e 133c 1e22 2d3b 52d7 4dbc
00000370: d604 b739 2a54 8a3c 2e19 963c 32a4 a63b
00000380: 85a7 323d 0259 163c 9b70 9b3c 5b1a b63c
00000390: 3c21 abbc 0f05 263d f1b0 89bb 7316 003d
000003a0: 3eec 1c3c ef27 e0bb 4d8b 09bd b70f 5b39
000003b0: 3dfe a63a 3b1c a9bb 45e3 b93c 9100 0cbc
000003c0: 0410 55bd a3ae 973c 4c9d e9bb 44c8 fa3c
000003d0: 1cba 183d b21b 32bc d7ea 273c b07d b8bb
000003e0: 28d2 0b3c c023 833a 3900 733c 12e4 06bc
000003f0: b669 1abc d2c0 7abc 7430 ee3c 8005 e43c

action_model._discrete_distribution.branches.1.bias f4 [3]
0.017443446 0.007498602 -0.02699003
00000000: 8fe5 8e3c d5b6 f53b 321a ddbc

exp_avg f4 [128, 66]
-9.414986e-05 -0.00013022429 1.5621807e-06 1.2953908e-06 4.6883065e-06 -3.4835277e-05 -6.101203e-05 -0.00013823638
1.4765739e-06 -4.1057726e-07 -8.177805e-06 -3.486316e-05 -5.591897e-05 -0.00014102887 2.1762905e-06 -1.5750477e-06
-3.8000996e-06 -2.5057236e-05 -7.992461e-05 -0.00012164377 1.4872763e-06 -1.8899877e-06 -2.4441395e-06 -3.501349e-05
-0.00013265466 -6.968745e-05 -2.1619976e-06 -1.0315476e-06 5.7529733e-06 -1.35388e-05 -0.00010236741 -0.00011331838
1.8680062e-06 8.7171575e-06 -2.1214223e-06 -3.1979573e-05 -0.00010790476 -8.996774e-05 -9.6486146e-14 -8.567002e-07
-3.0543288e-06 -1.1983382e-05 -0.00014962697 -6.143179e-05 5.370819e-06 -2.6494529e-06 9.692335e-26 -2.2685648e-05
-0.00015421081 -6.1969025e-05 -6.3540984e-20 8.16767e-08 1.318241e-07 -5.369206e-06 -0.0001121146 -8.800073e-05
7.926604e-06 -1.3517415e-06 1.0040546e-25 -2.9738092e-05 -0.00015464821 -5.879288e-05 3.2312728e-20 -3.5310745e-06
3.772353e-07 -1.4371607e-05 -4.8465485e-05 -3.8817634e-05 -3.4530863e-06 3.4402753e-06 3.7058307e-06 3.9104634e-06
2.9766983e-05 -6.097061e-05 -3.1344712e-06 -9.3214106e-07 -1.8254941e-05 -1.783623e-06 -8.3940446e-05 5.0784958e-05
-2.1749493e-06 -4.5197357e-06 -1.0535374e-05 1.1807799e-05 5.341531e-05 -7.224756e-05 -3.162561e-06 1.8011991e-06
-8.110947e-06 -4.67933e-05 -0.00012629633 8.8464556e-05 -4.024723e-06 -4.1238313e-06 2.6594325e-06 -1.0756884e-05
-5.5988814e-05 2.3365357e-07 -2.1512321e-06 1.4171587e-05 -4.21312e-06 -3.4394518e-05 -5.414217e-05 2.1778156e-05
1.8024527e-15 -3.4323439e-06 -6.9057455e-06 -9.792305e-06 -0.00017618803 0.00011614833 -2.9141988e-06 -1.7336023e-06
2.1117146e-25 -7.480404e-05 -9.037354e-05 3.9093873e-05 -3.893143e-19 -2.7725587e-06 2.7616015e-06 -5.0143735e-06
-0.00012936571 0.00011733181 -1.9308375e-06 -5.604796e-06 2.2765392e-25 -5.0679297e-05 -7.898786e-05 3.8000875e-05
-2.0113424e-19 -8.437716e-06 -2.027257e-06 -1.586969e-05 0.00023115818 0.00013457569 -7.395978e-08 1.2806548e-06
-1.1576764e-05 9.923363e-05 0.00025529184 9.220688e-05 8.6675875e-08 1.3877238e-06 2.9353353e-06 0.00010512784
5.36752e-05 0.00030247925 -1.5494119e-07 -3.051035e-06 -4.13128e-06 8.753097e-05 0.00027674617 7.7511955e-05
1.2420057e-07 3.8949806e-06 1.2306717e-06 6.1094855e-05 0.00023746776 0.00012304632 1.5349303e-07 -4.3134582e-06
-3.3014676e-06 -1.5962733e-05 0.00025382373 0.000102032864 -4.583544e-07 -6.023051e-07 3.6537867e-07 4.8559446e-05
0.00023594458 0.00012169379 1.6955557e-13 -3.3173696e-06 4.910739e-07 1.0741059e-05 0.00022395495 0.00013499013
-8.406796e-06 2.1419498e-06 -8.791454e-26 -2.7045928e-05 0.00030294457 7.311808e-05 2.406118e-19 -5.1933903e-06
-3.9430142e-07 4.412898e-06 0.00018812723 0.00018163856 -1.0260454e-05 -1.8667419e-06 -9.493225e-26 3.0828e-05
0.0003286159 3.9924063e-05 1.5139916e-19 1.2436865e-06 -1.3267017e-06 1.2476186e-05 -0.00015520409 -0.00011867335
-4.15686e-06 -5.56371e-06 1.4471764e-05 -5.7445002e-05 -0.00026045096 -2.251691e-05 -4.6351865e-06 -4.2614474e-06
8.171124e-06 -8.494286e-05 -8.199209e-06 -0.00027964154 -3.1661377e-06 1.4481893e-06 7.781828e-06 -9.823185e-05
-0.0002781428 -7.5572234e-06 -4.7457297e-06 -5.231113e-06 2.9624475e-06 -1.0608091e-05 -0.00011130917 -0.00017762685
-2.1332036e-07 3.2369996e-06 -1.1776441e-06 -8.652404e-06 -0.00025024364 -2.5816362e-05 -3.9341753e-06 -7.867601e-06
1.0970421e-06 -8.2883025e-06 -0.0001848113 -0.00010995707 -1.5847631e-13 1.0309178e-06 4.4515186e-06 -7.0685414e-06
-0.00016147923 -0.000115125935 1.6424381e-06 -1.2993929e-06 9.367393e-26 7.4713964e-05 -0.00033176228 2.4732755e-05
-1.7718613e-19 2.6264934e-06 -6.9254725e-07 2.4941555e-05 -0.0001692145 -0.00013340142 1.975015e-06 5.260462e-07
00000000: 5272 c5b8 d18c 08b9 1fac d135 4add ad35
00000010: 3f50 9d36 181c 12b8 2be7 7fb8 8cf3 10b9
00000020: b12e c635 4f6d dcb4 6833 09b7 083a 12b8
00000030: 898a 6ab8 26e1 13b9 630c 1236 3a66 d3b5
00000040: 3705 7fb6 0132 d2b7 339d a7b8 001b ffb8
00000050: 6d9e c735 7cab fdb5 ff05 24b6 73db 12b8
00000060: 3719 0bb9 2a25 92b8 d616 11b6 b573 8ab5
00000070: aa09 c136 b424 63b7 16ae d6b8 58a5 edb8
00000080: 34b8 fa35 e83f 1237 c25d 0eb6 ce21 06b8
00000090: ed4a e2b8 10ad bcb8 7a44 d9a9 fdf7 65b5
000000a0: f8f8 4cb6 3c0c 49b7 2fe5 1cb9 f1d4 80b8
000000b0: fc36 b436 41cd 31b6 79f8 ef15 0f4d beb7
000000c0: a6b3 21b9 5ef5 81b8 2b08 969f 3e66 af33
000000d0: 888b 0d34 2129 b4b6 111f ebb8 088d b8b8
000000e0: 81fc 0437 7c6d b5b5 8597 f815 1176 f9b7
000000f0: 1029 22b9 6098 76b8 b197 181f 66f7 6cb6
00000100: d386 ca34 951d 71b7 6b47 4bb8 1ed0 22b8
00000110: 92bb 67b6 7bdf 6636 b0b1 7836 a036 8336
00000120: 1cb4 f937 b2ba 7fb8 ce59 52b6 3f38 7ab5
00000130: 3022 99b7 d264 efb5 2f09 b0b8 ef01 5538
00000140: 58f5 11b6 3ca8 97b6 16c1 30b7 1c1a 4637
00000150: 410a 6038 9d83 97b8 623c 54b6 bbc0 f135
00000160: 4114 08b7 ec43 44b8 6a6e 04b9 0c86 b938
00000170: 1b0c 87b6 715f 8ab6 b478 3236 7778 34b7
00000180: 88d5 6ab8 34e2 7a34 e35d 10b6 81c2 6d37
00000190: 6d5e 8db6 d542 10b8 b616 63b8 3cb0 b637
000001a0: 62e1 0127 3857 66b6 e7b7 e7b6 a149 24b7
000001b0: 1dbf 38b9 a994 f338 8e91 43b6 1fae e8b5
000001c0: 74b5 8216 1de0 9cb8 ed86 bdb8 baf8 2338
000001d0: 83cf e5a0 3210 3ab6 f453 3936 2441 a8b6
000001e0: 58a6 07b9 0910 f638 8993 01b6 d510 bcb6
000001f0: 34e9 8c16 7b90 54b8 49a6 a5b8 2163 1f38
00000200: 1875 6da0 b78f 0db7 030c 08b6 e61f 85b7
00000210: 0d63 7239 e31c 0d39 d2d3 9eb3 f7e2 ab35
00000220: d339 42b7 a61b d038 b1d8 8539 315f c138
00000230: 9122 ba33 d441 ba35 adfc 4436 1478 dc38
00000240: 4f21 6138 1496 9e39 e95d 26b4 62c0 4cb6
00000250: 6d9f 8ab6 d590 b738 3e18 9139 ea8d a238
00000260: fe5b 0534 a1b1 8236 8f2d a535 0d20 8038
00000270: c400 7939 ff05 0139 d8cf 2434 53bc 90b6
00000280: c88e 5db6 b5e7 85b7 a513 8539 7afa d538
00000290: c013 f6b4 17ae 21b5 4329 c434 4fac 4b38
000002a0: e467 7739 db35 ff38 11e7 3e2a fa9f 5eb6
000002b0: 57d2 0335 7f34 3437 73d5 6a39 238c 0d39
000002c0: ea0a 0db7 6bbe 0f36 76aa d995 b0e0 e2b7
000002d0: 88d4 9e39 f856 9938 3a08 8e20 e242 aeb6
000002e0: 60b0 d3b4 8112 9436 0544 4539 3b76 3e39
000002f0: 5024 2cb7 c38c fab5 760a eb95 504d 0138
00000300: 144a ac39 2374 2738 97bd 3220 beec a635
00000310: 2011 b2b5 d050 5137 48be 22b9 45e0 f8b8
00000320: 287b 8bb6 e8af bab6 c1cb 7237 1af1 70b8
00000330: 238d 88b9 b2e2 bcb7 f387 9bb6 8efd 8eb6
00000340: b616 0937 5a23 b2b8 568f 09b7 da9c 92b9
00000350: d579 54b6 685f c235 b28e 0237 d301 ceb8
00000360: b2d3 91b9 0e94 fdb6 823d 9fb6 eb86 afb6
00000370: 76ce 4636 67f9 31b7 a86e e9b8 5841 3ab9
00000380: 0e0d 65b4 3b3b 5936 8b0f 9eb5 cb29 11b7
00000390: 2233 83b9 3790 d8b7 4f02 84b6 17ff 03b7
000003a0: 143e 9335 fd0d 0bb7 e8c9 41b9 c198 e6b8
000003b0: b06d 32aa 115e 8a35 415e 9536 4f2e edb6
000003c0: c052 29b9 c46f f1b8 be71 dc35 cd66 aeb5
000003d0: e8ec e715 c1af 9c38 61f0 adb9 3079 cf37
000003e0: 392f 51a0 d042 3036 7ce7 39b5 9539 d137
000003f0: 2c6f 31b9 ace1 0bb9 808a 0436 9f35 0d35

exp_avg_sq f4 [128, 66]
1.2123436e-07 1.06384086e-07 1.5380421e-09 7.5882606e-11 2.4260988e-10 2.0731642e-08 1.2792543e-07 9.931102e-08
4.607286e-09 8.95945e-11 2.7105015e-10 1.698458e-08 1.6323968e-07 7.21494e-08 1.08683e-09 1.5763053e-10
3.457696e-10 1.9064375e-08 1.1783033e-07 9.9041415e-08 5.4357554e-09 1.4896616e-10 2.0094232e-10 1.3987465e-08
2.1351707e-07 3.2815535e-08 9.2352603e-10 1.00519607e-10 6.637741e-10 2.3035078e-08 1.4662358e-07 6.913845e-08
6.1532472e-09 5.8461064e-10 3.0353264e-10 1.4706086e-08 2.1960116e-07 3.2481353e-08 9.1612656e-10 9.69395e-11
2.1164612e-09 1.9225926e-08 1.6975103e-07 5.680979e-08 5.558611e-09 1.4238181e-10 1.1527916e-09 1.4973043e-08
2.2797425e-07 2.3946823e-08 2.2601022e-11 8.516255e-11 7.5518913e-10 1.4245961e-08 1.8472566e-07 5.575307e-08
5.415841e-09 2.2948327e-10 2.1181762e-10 1.3012201e-08 2.3271008e-07 2.5274042e-08 2.3685321e-11 4.73993e-11
6.7164474e-10 1.4681742e-08 4.0720306e-07 2.6404535e-07 3.5564848e-10 1.9893281e-10 1.8436423e-09 8.881407e-08
3.284561e-07 3.2018147e-07 1.00205915e-08 9.889274e-11 9.645967e-10 6.310232e-08 5.526104e-07 1.5702578e-07
2.5741162e-10 3.7740278e-10 1.3042831e-09 6.229423e-08 3.752485e-07 2.4974022e-07 1.9152724e-08 1.9499515e-10
1.1858341e-09 5.4260195e-08 6.585469e-07 8.168683e-08 1.892088e-10 3.1641556e-10 8.053507e-10 3.9679687e-08
4.893421e-07 1.5287968e-07 1.9781222e-08 1.0970354e-09 1.7726673e-09 5.2380972e-08 6.8403205e-07 6.306538e-08
1.6280141e-10 3.1197908e-10 1.6828234e-09 2.9397404e-08 5.707443e-07 1.2039699e-07 7.1483917e-09 2.2514869e-10
1.3490416e-08 6.1776745e-08 6.8903756e-07 4.9418198e-08 1.4126147e-10 2.8175984e-10 1.3605216e-09 2.9656936e-08
6.2815633e-07 1.0016433e-07 4.5251074e-09 4.3369394e-10 7.168909e-10 4.734716e-08 7.158438e-07 4.1808196e-08
8.727739e-11 1.5322064e-10 1.1587705e-09 3.1969282e-08 4.4096913e-07 3.727281e-07 3.2221517e-09 7.243977e-11
4.974663e-10 1.2520833e-07 6.563283e-07 1.8429832e-07 4.247487e-09 3.7022366e-10 8.7343704e-10 1.05452095e-07
4.52227e-07 3.672414e-07 2.2137232e-09 2.0054862e-10 2.8491924e-09 1.05358126e-07 7.222035e-07 1.3038162e-07
4.6869992e-09 6.809901e-10 5.0126336e-10 7.745451e-08 6.973324e-07 1.4873332e-07 1.6983667e-09 1.2798258e-10
4.5003477e-09 1.0708873e-07 8.102626e-07 3.0059773e-08 5.144133e-09 5.348794e-10 2.0714806e-10 6.511823e-08
7.542258e-07 1.001514e-07 1.7944957e-09 1.6253231e-10 9.062658e-09 6.263064e-08 8.067022e-07 3.8005496e-08
5.115279e-09 2.5505298e-10 5.3830396e-10 5.0223708e-08 8.2446326e-07 4.1587246e-08 1.13171535e-10 1.8590109e-10
2.2490092e-09 3.0554816e-08 7.920229e-07 7.435152e-08 5.160884e-09 1.4866766e-10 3.840899e-10 4.1794642e-08
8.4375e-07 3.642724e-08 1.608457e-10 2.8680383e-10 2.0220894e-09 3.943288e-08 3.7593784e-07 4.5835043e-07
5.4595657e-09 2.268232e-10 1.4292999e-09 1.317761e-07 6.0185425e-07 2.5562633e-07 6.8848807e-09 5.6076804e-10
1.2762924e-09 1.18570604e-07 3.7143354e-07 4.838592e-07 4.3728337e-09 2.2144181e-10 4.551123e-09 1.16522486e-07
7.482925e-07 1.3559338e-07 8.719385e-09 7.191236e-10 8.3692137e-10 9.403398e-08 5.4924743e-07 3.4771264e-07
3.4975525e-09 8.3732264e-11 4.822848e-09 1.2137848e-07 8.3324164e-07 4.9653096e-08 8.849949e-09 7.692328e-10
6.9539735e-10 7.443984e-08 6.396546e-07 2.347177e-07 3.5119396e-09 1.1333727e-10 1.0747232e-08 9.2827335e-08
8.3515044e-07 5.6516974e-08 7.130271e-09 2.8434918e-10 2.3827382e-09 5.9606585e-08 7.6160893e-07 1.2700907e-07
1.409566e-10 1.2220389e-10 7.913784e-09 6.831428e-08 8.3833953e-07 7.300986e-08 7.0767574e-09 1.2641088e-10
00000000: a62c 0234 4575 e433 0c63 d330 1cde a62e
00000010: 4e60 852f 5d15 b232 e05b 0934 d044 d533
00000020: 1e4e 9e31 3805 c52e eb02 952f 7de5 9132
00000030: fb46 2f34 8df0 9a33 6e5f 9530 0d51 2d2f
00000040: bf16 be2f 01c3 a332 e909 fd33 98b0 d433
00000050: 69c5 ba31 3fca 232f 3cf0 5c2f 864d 7032
00000060: 2043 6534 10f1 0c33 5edb 7d30 820b dd2e
00000070: f374 3630 acde c532 956f 1d34 4479 9433
00000080: 896c d331 51b2 2030 6cde a62f 0da6 7c32
00000090: 82cb 6b34 a081 0b33 add2 7b30 162c d52e
000000a0: 2e71 1131 4226 a532 cf44 3634 06ff 7333
000000b0: 0ffe be31 eb8c 1c2f 4070 9e30 129e 8032
000000c0: 16c9 7434 9fb3 cd32 facc c62d 4146 bb2e
000000d0: b695 4f30 66be 7432 0159 4634 2675 6f33
000000e0: 3e16 ba31 cc51 7c2f 5ce5 682f 448c 5f32
000000f0: dcde 7934 351a d932 9a56 d02d de76 502e
00000100: cc9e 3830 fc3a 7c32 909d da34 1ec2 8d34
00000110: 1385 c32f 9cba 5a2f 6663 fd30 0dba be33
00000120: aa56 b034 68e5 ab34 0727 2c32 aa77 d92e
00000130: bb92 8430 de82 8733 1957 1435 eb9a 2834
00000140: 7783 8d2f b87a cf2f 6242 b330 9dc6 8533
00000150: c375 c934 0914 8634 4985 a432 4166 562f
00000160: d4fa a230 b70b 6933 00c7 3035 cf6b af33
00000170: 8b09 502f 88f3 ad2f 845f 5d30 476c 2a33
00000180: 555b 0335 3f27 2434 5eeb a932 80c6 9630
00000190: 30a2 f330 7df9 6033 539e 3735 8f6e 8733
000001a0: 8600 332f 2783 ab2f 1649 e730 9385 fc32
000001b0: 4035 1935 7946 0134 eb9d f531 b98d 772f
000001c0: 7ac3 6732 20aa 8433 4df6 3835 e23f 5433
000001d0: 9251 1b2f 2ce6 9a2f 19fd ba30 4bc0 fe32
000001e0: 939e 2835 ec19 d733 447b 9b31 ff6c ee2f
000001f0: b60e 4530 c15a 4b33 6928 4035 9990 3333
00000200: cdec bf2e c777 282f 9d42 9f30 994e 0933
00000210: 56be ec34 5c1b c834 b16c 5d31 f74b 9f2e
00000220: 14be 0830 0171 0634 8a2e 3035 89e3 4534
00000230: 4af1 9131 5988 cb2f ab16 7030 e774 e233
00000240: 9bc9 f234 4629 c534 3b20 1831 6b81 5c2f
00000250: 86cb 4331 3e41 e233 72dd 4135 07ff 0b34
00000260: 480b a131 6b30 3b30 46c9 0930 1155 a633
00000270: 5130 3b35 81b3 1f34 f76b e930 e5b7 0c2f
00000280: 7aa1 9a31 a7f8 e533 d280 5935 121b 0133
00000290: 46c0 b031 cb06 1330 ffc2 632f 20d7 8b33
000002a0: 0176 4a35 d012 d733 34a2 f630 c7b4 322f
000002b0: feb1 1b32 8f7f 8633 278c 5835 7c3b 2333
000002c0: 78c2 af31 8437 8c2f c6f7 1330 8db5 5733
000002d0: af50 5d35 a99d 3233 e9dd f82e 8166 4c2f
000002e0: fd8c 1a31 603b 0333 669b 5435 2eab 9f33
000002f0: 9e53 b131 3a76 232f d927 d32f b281 3333
00000300: 0f7e 6235 2d74 1c33 0ada 302f 0dac 9d2f
00000310: f9f4 0a31 e95c 2933 81d4 c934 3413 f634
00000320: d996 bb31 0e65 792f 0571 c430 577e 0d34
00000330: 1c8f 2135 043d 8934 0d90 ec31 8b24 1a30
00000340: 8c69 af30 e1a0 fe33 7069 c734 8de2 0135
00000350: da3f 9631 547a 732f 1a60 9c31 ea3a fa33
00000360: 45de 4835 a097 1134 43cc 1532 d3ab 4530
00000370: 1b0d 6630 baef c933 ff6f 1335 43ad ba34
00000380: 9859 7031 1321 b82e 38b6 a531 4354 0234
00000390: eeab 5f35 2842 5533 7d0a 1832 f271 5330
000003a0: 3d26 3f30 bcdb 9f33 bbb4 2b35 b606 7c34
000003b0: b256 7131 363b f92e d4a2 3832 5e58 c733
000003c0: 1a2f 6035 12bd 7233 87fe f431 9752 9c2f
000003d0: 93bd 2331 1101 8033 5e71 4c35 fd5f 0834
000003e0: c1fb 1a2f 565d 062f 31f5 0732 2cb4 9233
000003f0: 410a 6135 98c9 9c33 d127 f331 80fd 0a2f

exp_avg f4 [128]
-0.00021018098 -4.9633243e-05 0.00035607352 -0.00028761767 0.00042856028 -0.00011112272 7.4051087e-07 0.0007226779
0.0005075211 -0.00033113445 0.00038671034 -0.00025342722 -4.3028417e-06 0.00056951144 -0.00023152596 -0.00037297112
6.978534e-05 0.00037831703 0.0007320527 -0.00065606047 0.00048079688 -9.671252e-06 0.0001349131 0.00049252494
-0.00014300854 -0.00021875039 2.2886277e-05 0.00013290382 -6.0280145e-06 7.764249e-05 -2.6397509e-05 4.126122e-06
-0.00043087397 0.00019566261 -0.00012115828 6.3583146e-05 -0.0005144112 0.0001877107 0.00021711983 8.603261e-07
0.00012757824 -0.00014198277 -0.00051348045 -0.00022934492 -1.7203818e-05 -0.00012609843 -0.0006460169 -0.00028095604
2.2708442e-05 0.0005937043 -8.5058884e-05 -1.5109299e-05 0.00029576992 -3.011756e-05 -0.0003912552 -0.00017387352
-0.00043517994 -0.00041730024 0.00040389877 -3.8023187e-05 5.7847647e-06 -0.0002036461 3.6786063e-05 0.00011702644
-0.0006027261 5.87542e-05 -0.0005893592 -1.18523385e-05 -1.8582241e-05 9.441676e-05 -0.00020840227 -0.0003798548
0.00031701266 4.589419e-05 0.00012686133 -4.2918393e-05 -0.000415221 0.00013739936 -0.00023077709 -0.00023057181
0.00025218242 0.00032426836 0.00044393877 -5.4023407e-05 0.00033875258 -0.0009271135 8.9458874e-05 -0.00024928316
-0.0001512397 3.8780803e-05 1.3972529e-05 0.00020352784 -0.000402071 0.00060013117 -0.0004177072 0.00030378322
-0.00040965722 0.00013531384 0.00012652353 5.769558e-05 -0.0001748184 0.00023272005 -7.570191e-05 0.0007863697
3.380265e-05 -6.4280044e-05 0.00062254304 0.00042305852 0.00038434885 2.867065e-05 -0.00018405948 0.00019427612
0.00032347426 -9.991246e-05 0.00060207496 -0.00017138146 -0.00034252324 0.00024404074 -0.00034562108 0.00015775225
5.8716298e-05 6.443759e-06 -0.00040055846 -0.00012786797 0.0002012997 5.481962e-05 -0.00034976364 -0.00018975543
00000000: 0764 5cb9 4a2d 50b8 61af ba39 64cb 96b9
00000010: 63b0 e039 8e0a e9b8 85c7 4635 1872 3d3a
00000020: 2a0b 053a 1d9c adb9 62bf ca39 6dde 84b9
00000030: 2161 90b6 444b 153a c7c5 72b9 568b c3b9
00000040: b859 9238 da58 c639 3ae7 3f3a 79fb 2bba
00000050: 7713 fc39 b641 22b7 7677 0d39 ca1c 013a
00000060: 90f4 15b9 5c60 65b9 e8fb bf37 195c 0b39
00000070: 4044 cab6 ffd3 a238 3870 ddb7 1e73 8a36
00000080: ede6 e1b9 c82a 4d39 5b16 feb8 f157 8538
00000090: 8dd9 06ba 35d4 4439 a9aa 6339 29f1 6635
000000a0: 86c6 0539 36e1 14b9 179b 06ba 4f7c 70b9
000000b0: eb50 90b7 4a39 04b9 7659 29ba 484d 93b9
000000c0: 027e be37 d2a2 1b3a a461 b2b8 f27d 7db7
000000d0: 9111 9b39 f8a4 fcb7 6221 cdb9 d151 36b9
000000e0: dd28 e4b9 17c9 dab9 60c2 d339 167b 1fb8
000000f0: c01a c236 d589 55b9 bc4a 1a38 176c f538
00000100: 4400 1eba d86e 7638 3a7f 1aba 68d9 46b7
00000110: 0fe1 9bb7 9d01 c638 8f86 5ab9 4027 c7b9
00000120: b834 a639 837e 4038 1406 0539 4603 34b8
00000130: 05b2 d9b9 dc12 1039 c1fc 71b9 a6c5 71b9
00000140: 5a37 8439 9002 aa39 74c0 e839 3197 62b8
00000150: 9a9a b139 8909 73ba de9b bb38 38b2 82b9
00000160: 1996 1eb9 92a8 2238 8e6b 6a37 176a 5539
00000170: 0ecd d2b9 1f52 1d3a b6ff dab9 1845 9f39
00000180: 43c7 d6b9 08e3 0d39 67ab 0439 28fe 7138
00000190: 754f 37b9 5006 7439 27c2 9eb8 6124 4e3a
000001a0: 52c7 0d38 16ce 86b8 2832 233a f4cd dd39
000001b0: 6e82 c939 c181 f037 1700 41b9 99b6 4b39
000001c0: fb97 a939 1888 d1b8 91d4 1d3a dcb4 33b9
000001d0: b194 b3b9 30e5 7f39 7a34 b5b9 4c6a 2539
000001e0: 2546 7638 7837 d836 0c02 d2b9 4c14 06b9
000001f0: fa13 5339 1eee 6538 7b60 b7b9 16f9 46b9
