results/Test06Dicembre4MLN2/MoveToGoal/MoveToGoal-2999994.pt (torch, 630839 bytes, 40 tensors)

discrete_act_size_vector f4 [1, 2]
00000000: 0000 4040 0000 4040
3.0 3.0

network_body._body_endoder.seq_layers.0.weight f4 [128, 66]
00000000: cd9a 9dbd 9445 af3e f46c 2c3e 234d c73d
00000010: 86ec ecbd 2c8c d4bd ec1c 94bc 54b1 0bbe
00000020: 6c27 223d f121 223d 790e 653e 3a51 9abd
00000030: 5817 2abd 5db8 8bbd 9f4d eabd 737c 2b3e
00000040: 815a 4ebd 9a82 e4bc a0a2 273c 13bd 9fbd
00000050: 8bf3 413d 6f3c 293b 59c3 ba3c a943 e23c
00000060: ec7c 9dbd 4340 24be 626d e73d 09e5 fa3c
00000070: 98ca c23d 0d46 e93c 7f6b 68bd 3fd0 9a3d
00000080: 9fa7 c3bd 1c43 ce3d dd88 57bc f4de 293d
00000090: 0692 95bd 795f a33e c7b4 a93d bd48 09be
000000a0: 3583 683e b091 923e 5ff4 753c 6079 bc3c
000000b0: 309e c6bb 7c4b e13d 5bc4 c3bd 6908 72bd
000000c0: 2f6f d4bb 45dc 503e d603 f9bd 5259 9eba
000000d0: 4f69 dbbc a6d6 c63e 4599 13be f84d 1f3c
000000e0: 8d34 633e af01 ca3d 5945 24be 00fe 26be
000000f0: ace3 c23d 471f 663d b186 8cbd 3cc0 6abd
00000100: f6ec ee3c 14e6 7ebe ef8e 60bc c668 af3d
00000110: b110 d3bd 18a8 a1bd d86d 31bd 553f 4f3e
00000120: 75fd a7bd b794 70be 8680 693b eb57 643d
00000130: 1a9d 53be 906b 6a3e 46b5 f43c 1c68 0f3e
00000140: 2fdd 67bc e498 b43d 4fab 433e acb1 913e
00000150: c2c9 a3bb 1bd1 9a3d f338 6dbd 1020 09bc
00000160: 4722 d0bd c258 a93e 9aa4 783d b15c 7f3d
00000170: 4b33 5c3c f13d 25be 1d21 953e d92c 28be
00000180: e2bd 83bb a60b 20bd 6e34 76bd 97bd f4bd
00000190: 1a4f 093e 7bd3 303e d0be e9bd bca5 813d
000001a0: d52f 8fbc 43e4 90bd 7aa2 093d 7e3f 26bc
000001b0: f973 2cbd 62d5 a63c c1db 06bb 3d88 153c
000001c0: 231a 343d 64bc 54be a298 403c fd0f 983d
000001d0: 7fc4 723e 96ac 643d 2904 aebc 5637 9e3e
000001e0: 45f2 9a3d 8433 7cbd 13df 8fbd dcd9 ca3b
000001f0: 4a9b 073e 8f67 0abe d5e2 0b3e c690 3ebe
00000200: 138b d53d 5cca efbd 8baa a93d ef21 5a3d
00000210: 073c aabb e276 343e 542d 19bd be0a 4dbd
00000220: 0525 25bc 62ff 803d 0469 2dbe 58c9 8a3d
00000230: f8a0 9d3d b6ff a93d f02c d43d c082 bdbd
00000240: 3345 fb3d 3b6a c9bd 0c2f 213d 23ff 3fbc
00000250: 2e5a 5abc 22e7 ebbd 4cb7 16be 9f07 33bd
00000260: fd30 08be a636 1e3e 6b7e 7b3d f29b 133c
00000270: 83b5 8e3d 1660 adbe de29 673e 8ebb 3e3d
00000280: ce7f 36bd 407c a6bc 5486 5a3e a43e a5bb
00000290: 3b95 2bbe 1da9 d0bd 6936 9fbb fd0a 8e3b
000002a0: 66cd 153e 8ffc f3bd 090a 183d 7ebf 883e
000002b0: a063 c0bc b3fc 4cbe c7ef 833e 5d65 9c3d
000002c0: 5fe0 a5bd 8c4c 25be 4352 473d a238 ed3d
000002d0: 9e6e 8e3d 5da5 18be b562 d8bd 4706 bf3d
000002e0: 6542 a53d dca9 3d3d 0836 6ebd fa6d 453e
000002f0: 4078 603d 870f 04bd 31fa 393d 5cf7 223e
00000300: e8df ee3d 65e0 0abd 376f 47bc 09d8 3a3e
00000310: b8e8 3bbd ba09 3dbd 9fbe f23d e03c 4e3b
00000320: 390d c63c 80ea 073e 9a05 193d 2149 89bc
00000330: 6dbb 213e 0cde fabd bd33 c33c 0b06 2a3e
00000340: d9d3 91be 7500 023d 540c e83d 180c bcbc
00000350: 3ab8 183e c8e0 363e b0b7 c03d a103 abbd
00000360: c578 073d b1d1 75be 3807 a43d 23f6 e23d
00000370: 590a abbd deea 98bd 3759 9c3c 32af ea3d
00000380: a472 523e 6bf6 43bd e4b7 8c3e 1401 73bc
00000390: afed d43c 80af 5ebc 4bde 0c3e cc1d 0b3e
000003a0: 5a07 23bd c2eb fbbd 5c90 063d 0657 343e
000003b0: f816 3b3c 5368 3fbe 748d d6bd b4ce 57bd
000003c0: 8df6 673d 722f bd3d 26ce 05be 79c1 343e
000003d0: f84b 74bd d38a 483e 7b05 4c3d c257 c5bd
000003e0: 9e85 f33d 7e68 8abd 5b31 e43d 40ed 963e
000003f0: f842 1c3e 5bc1 84bd a1b2 633e 2272 52be
-0.076955415 0.3423277 0.16838437 0.097315095 -0.11568551 -0.10378298 -0.018080197 -0.13641864
0.039588377 0.03958315 0.22368802 -0.07535024 -0.04152617 -0.06822274 -0.11440586 0.16746692
-0.05037928 -0.027894307 0.010231644 -0.07799735 0.0473514 0.0025823375 0.022798227 0.027620154
-0.076898426 -0.16040139 0.1130016 0.03062679 0.09511298 0.028475786 -0.05674314 0.07559251
-0.095534556 0.10071394 -0.013155189 0.04147239 -0.073032424 0.31908777 0.08286434 -0.13406654
0.22706302 0.28626776 0.015011876 0.023007095 -0.006061338 0.110007256 -0.09558936 -0.05909005
-0.0064829807 0.20396526 -0.12158935 -0.0012081063 -0.026783613 0.3883564 -0.14413936 0.009723179
0.22188015 0.09863602 -0.16042079 -0.16307831 0.09516081 0.056182172 -0.06861628 -0.057312235
0.029165726 -0.24892455 -0.013705953 0.08564906 -0.10305918 -0.078933895 -0.043317646 0.20239003
-0.0820264 -0.2349423 0.0035629584 0.055747908 -0.20665398 0.22892594 0.029871594 0.14004558
-0.014151855 0.08818224 0.19108318 0.28455865 -0.0049984166 0.07559415 -0.05791564 -0.008369461
-0.10162788 0.3307553 0.06070385 0.062344257 0.013439964 -0.1613691 0.29126826 -0.16423358
-0.0040204385 -0.03907361 -0.060108595 -0.11950224 0.13409081 0.17268173 -0.11413348 0.063304394
-0.017478863 -0.070747875 0.033602215 -0.010146974 -0.042102788 0.02036542 -0.002057776 0.00912672
0.04397024 -0.2077499 0.0117551405 0.074249245 0.2370777 0.055828653 -0.021242218 0.30901593
0.075657405 -0.061572567 -0.0702497 0.0061905216 0.13242832 -0.13516067 0.13660748 -0.18609914
0.10426917 -0.11708519 0.082844816 0.053255018 -0.005195144 0.17623475 -0.037396744 -0.050059073
-0.010079627 0.062987104 -0.16934592 0.067766845 0.07696718 0.08300726 0.10360134 -0.09253454
0.12269058 -0.09834715 0.039351508 -0.011718544 -0.013327165 -0.115186945 -0.1471836 -0.04370844
-0.13299938 0.15450534 0.06139986 0.009009348 0.06968214 -0.3386237 0.22574565 0.046565585
-0.044555478 -0.020322919 0.21340305 -0.0050428677 -0.16756146 -0.10188506 -0.004858781 0.004334806
0.14629135 -0.11913406 0.037118945 0.26708597 -0.023485005 -0.20018272 0.25768873 0.07636521
-0.08099436 -0.16142482 0.048662435 0.115830675 0.06954692 -0.14906831 -0.10565702 0.09327369
0.080693044 0.04630457 -0.058156997 0.19280234 0.05480218 -0.03224137 0.045404617 0.15914673
0.116638005 -0.033905406 -0.012172512 0.18246473 -0.045876235 -0.046151854 0.11852764 0.003146939
0.024176227 0.13273048 0.037358858 -0.016758503 0.15794154 -0.12249383 0.023828382 0.16603868
-0.2848194 0.031738717 0.113304764 -0.022954985 0.14914027 0.17859185 0.094100356 -0.083503015
0.03307416 -0.24005772 0.08009189 0.11082103 -0.08351583 -0.07466672 0.01908551 0.11459197
0.20551544 -0.047842424 0.27484047 -0.0148318 0.025992243 -0.013591647 0.13756673 0.13585585
-0.039801933 -0.123008266 0.032852516 0.17611322 0.01141905 -0.1869214 -0.10476199 -0.05268736
0.056631614 0.09237565 -0.1306692 0.17651929 -0.059642762 0.19584207 0.049809914 -0.09635879
0.1189072 -0.067582116 0.11142226 0.29477882 0.15259922 -0.06482192 0.2223611 -0.2055135

network_body._body_endoder.seq_layers.0.bias f4 [128]
00000000: 0a4e d1ba 0dfb 0d3d 722f 703d c5f3 5bbc
00000010: 64ad 813d 2750 87bd 3567 04be 0a54 993d
00000020: ef34 503d 411f 83bc 74aa af3d 8b0b 4c3c
00000030: 097f 863d e5b7 243d 9b75 05bd a7e0 613c
00000040: ea83 873d 7ba9 2f3d 743d 363d e2e9 913c
00000050: 133d ac3c d849 0dbe 5f28 19bc cdc0 783d
00000060: be16 f03c e0da 603d aad6 7dbd ab14 39bb
00000070: 8c02 dbbd 6351 5c3d 9c62 9a3d 75f9 06be
00000080: bd1f cc3c c326 f9bb 73f0 0a3d b230 1cbd
00000090: 018c 08ba 489e 3e3c f321 84bc bc0c 36bd
000000a0: d3d6 263d fe59 883d c49a 0b3d fa73 d83c
000000b0: 6150 de3d 186d 09bd 204e 413d ad8a 963d
000000c0: 5b92 24bd d5bb 323d 0080 af3d 20ec c0bd
000000d0: 02a2 b03d 4450 febd ca23 86bb 10c5 a8bc
000000e0: 0dc0 0f3d 8210 e23b 4f8f 363d fdff bcbd
000000f0: cd58 25bd 6d33 6b3d 88d5 5fbd 80a6 22bd
00000100: 50c7 2d3d 7ee7 e83d 500b df3c 53bf 0bbe
00000110: ca09 00be 46fa 963d 3a68 2abd 3852 0bbd
00000120: 238e ac3d a857 20bd 2c81 aa3b 2aa3 4a3c
00000130: 3326 143b f7d8 a5bc fa8b 63bc f606 9e3c
00000140: 5e11 e73c 6be3 febc 59da be3d 3d46 a13d
00000150: ca24 8e3c 0fb7 6e3d 3d29 97bc efa3 533d
00000160: 3e80 13bc f0f9 c3bc 6d22 2fbe f599 98bd
00000170: d86e 153c 7086 7d3d cd1d 1c3d 9b5f b83c
00000180: 4fd8 913c 7cb5 21bc cd3f 013d fef8 7fbc
00000190: 2cee 0d3d 761f dc3c e70d 4fbd 6e2a 4c3d
000001a0: d0b8 023d 539f 8fbd 89d9 543d 7f0e d13d
000001b0: c7ea d23c 1397 7b3d b65e 2abd 4c8f 383d
000001c0: 85f2 f03c 91f8 913d 2d68 5b3d 17ed 023d
000001d0: 6fb3 bd3c 8948 6b3d b8f9 b63c a44a df3c
000001e0: 1ffd 6f3d eecb 43bd ce4c 1e3d 99c3 7f3d
000001f0: 6ab4 823d 0c31 973d 4bda 4e3d 4c00 3d3b
-0.0015968692 0.03466325 0.058638997 -0.013424818 0.063319 -0.06607085 -0.12929995 0.07486732
0.05083173 -0.016006114 0.08577433 0.012453924 0.06567199 0.040214438 -0.03258286 0.013786471
0.066169575 0.04288624 0.0444922 0.01781172 0.021025216 -0.137977 -0.009348004 0.060730744
0.02930772 0.054896235 -0.061972298 -0.0028241079 -0.10693845 0.053788554 0.075383395 -0.13181098
0.024917478 -0.0076034977 0.033920716 -0.038132377 -0.00052088505 0.011634417 -0.01612947 -0.04444574
0.040732216 0.0665779 0.034083143 0.02642249 0.10855175 -0.033551306 0.047193646 0.07350669
-0.040178638 0.04363616 0.08569336 -0.09420037 0.086246505 -0.12417653 -0.004093622 -0.02060178
0.035095263 0.0068989405 0.044570263 -0.092285134 -0.04036789 0.05742209 -0.054647 -0.039709568
0.042426407 0.11372279 0.027227074 -0.13647203 -0.12503734 0.073719546 -0.041603304 -0.034013957
0.08425548 -0.039146096 0.005203387 0.012368003 0.0022605776 -0.020245058 -0.0138883535 0.019290429
0.028206524 -0.0311143 0.0931899 0.07874725 0.017351527 0.058280047 -0.018452281 0.05167001
-0.009002743 -0.02392289 -0.17102976 -0.0745124 0.0091206655 0.061895788 0.038114358 0.022506526
0.01780334 -0.009869929 0.031554986 -0.015623329 0.034650967 0.02687047 -0.050550368 0.04984515
0.031914532 -0.070128106 0.05196527 0.10207843 0.025746716 0.061423372 -0.04159423 0.045058534
0.029412517 0.071274884 0.053566147 0.031964388 0.02315685 0.05744222 0.022335872 0.027257271
0.058591004 -0.047801904 0.038647465 0.062442396 0.063820675 0.07382402 0.05050115 0.0028839288

network_body._body_endoder.seq_layers.2.weight f4 [128, 128]
00000000: 8ef1 d8bc 1bcb 103e e69c 8d3d 588b c63c
00000010: ad3b febd 23c0 a9bc 637b 993c f47e 3cbc
00000020: 1a56 46bb 1abd c73d 0d84 cfbd 68ae 153e
00000030: d3ab a73d a307 03be 3078 4e3e 6106 973e
00000040: 6e65 87bc 5838 243d 2032 cebc a13e 273d
00000050: d927 08be 4177 7f3d 7a88 a4bd 89c6 aebd
00000060: 91d1 b73d 1c91 583e 31f2 38bd 9a4c 803d
00000070: 83bd 93bd 47b4 363d 108c a23d 4324 a5bd
00000080: 7a37 e33d 313f e7bd 74fa 7f3d c2b0 833b
00000090: 3f1d 1d3e 5cb3 013c 8b3a 19be 0c26 e4bc
000000a0: 9e70 93bd 239d bfbc 3d89 563d 5be6 d53d
000000b0: 531a 583d 3462 253e 46cf 493d 29ef 05be
000000c0: 4144 3c3d 02fb 92bd 2d30 cb3d 50e7 9dbc
000000d0: 33c0 4dbd d3c7 4fbd bd4a e53c cc2d 943d
000000e0: 12c1 9cba fb3c fc3d a1fe 203d 1d6c abbd
000000f0: ee0b 43bd 0422 f73d 0725 623c 81f0 dcbd
00000100: 8847 a9bd e8b4 b439 32e6 f13d 6145 cebd
00000110: 58b8 36be ccab fd3d a9bf c0bd 28d1 033e
00000120: 2859 4dbd 7384 d4bd 10dc 32be b944 11be
00000130: 5f63 803e 73e1 923b 80db bb3d a59b d5bc
00000140: 9f8d a1bd a090 b2bd d728 a3bd 21c3 8e3c
00000150: fa0d f4bd 59e0 3b3e 205b 4c3d 6bc4 133e
00000160: 4bae b0bc 4cbf 983d 237a 8dbd 66fa 2d3d
00000170: 49c8 fb3d 3e9d d8bd cfd0 c6bd 8c4b a13d
00000180: 0332 3b3e 38d1 21bd 2bf9 163e 3ee5 1bbe
00000190: e0f7 9cbb a5cc f0bd 081d b5bb 9b5c 0fbe
000001a0: 09c4 9d3d f8e0 18bd 3ac8 07be b912 4b3c
000001b0: 32ce 853e fd6b cbbc 7fb1 103e 6d21 313d
000001c0: e6d4 07be 36c4 933d 18f7 9b3d d770 b1bc
000001d0: e8c5 a8bc 8522 f43c 00dc e53d fb87 04bb
000001e0: 8aa4 f2bd c9a4 36bd f4f2 f2bc 5513 b23d
000001f0: b880 023d bc41 8dbd af54 0bbe 12dc fabd
00000200: b63a 04bc 99da d33d 2fc0 d13c 87f1 fcbc
00000210: e527 ce3d 55fa 3e3d ee4c ea3d b8ab 513d
00000220: 4ad7 0c3d bb05 843d aa0f eb3d b06f 5f3b
00000230: 0583 0d3e ae5b fb3b c7f3 963d a797 4e3d
00000240: e83f 52bd 60b3 22bd 9207 d83d 5da9 d93c
00000250: 1e58 eebd fb9c 92bc b5bd be3d 9d23 24bd
00000260: 32e7 d23d 7f93 c43c 0545 68be 823a 6cbc
00000270: 3886 43be 145d 38bd 7ebc 48bd ba65 d5bd
00000280: c355 e73c b93c c8bd 7cbe 7aba fb44 6b3d
00000290: d326 a1bd f5e3 55bd 4b1c 943d 66c5 043d
000002a0: e62f 0f3e aea3 c2bd 28ea 863b b956 623d
000002b0: b617 523e 49d1 1bbc a209 0dbe d9d8 39bd
000002c0: 1a17 fbbd c2ac 0a3e 19f9 c4bb 70fa 81bd
000002d0: 7490 5e3e ec6b 2bbe 1861 19be 27ed a9bd
000002e0: cb9e c93c 6f23 81bd ae0d 15be 50f4 eebc
000002f0: 2ad4 6abe 2293 603d 94a5 8dbd 66d8 3fbe
00000300: e358 4b3d 3298 783e f689 323d 09e7 42be
00000310: 8520 90be 41eb 333e 904a 243c b470 e9bd
00000320: 4c7d 933d 71f5 f9bb 2a16 b8bd 53ee a53d
00000330: 2f74 4bbd 2d31 623d c529 ac3d 2d12 dc3c
00000340: a5d1 a43c c674 14be 9d65 603e ca33 fa3c
00000350: 541a 6a3d 71a0 b1bc 0990 603d 24e2 43bd
00000360: b8ad c53c d942 98bd 2513 1dba 0e28 36be
00000370: 6da3 e43d bd85 473d 1d80 ea3d 86c2 f93d
00000380: 62b9 91bc 88ef 69be 2360 503e fe16 1a3d
00000390: 1172 56bd eb91 573c 947d cabd 5968 833b
000003a0: 1df6 9abc d22b 7dbd 2cd8 5c3c 045f d43d
000003b0: 2865 67bd 0d46 6e3d 317b acbd 8e77 903c
000003c0: cd40 373d d2e9 8bbc 2683 1a3c a190 00be
000003d0: d40b cabd 30e3 593d 9e23 303d 21c6 cb3c
000003e0: f140 a23c 39ee e9bd d042 be3a b443 ba3d
000003f0: 4ead 1fbb 741d 0f3e eb07 693c c7a6 bd3a
-0.02648237 0.14139979 0.069146916 0.024236366 -0.12413726 -0.0207215 0.018735593 -0.011504877
-0.0030263723 0.09752865 -0.101326086 0.14617312 0.0818707 -0.12795882 0.20163035 0.29497054
-0.016527858 0.040092796 -0.025170386 0.040831212 -0.1329645 0.06236959 -0.08033843 -0.08533961
0.089755185 0.21149105 -0.045152847 0.062646106 -0.07213881 0.04460552 0.07936871 -0.08063557
0.11094566 -0.1129135 0.06249471 0.004018874 0.15343188 0.007916298 -0.14963739 -0.027850173
-0.071992144 -0.023390358 0.052376974 0.104443274 0.05275948 0.16150743 0.049269937 -0.13079514
0.04596353 -0.07176782 0.09921298 -0.019275337 -0.050232124 -0.050727677 0.02798974 0.072352976
-0.0011959395 0.123163186 0.039305333 -0.0837023 -0.0476188 0.12067035 0.013802773 -0.1078806
-0.08265597 0.0003446706 0.118114844 -0.10071827 -0.17843759 0.12386283 -0.09411556 0.12872756
-0.050133854 -0.10376825 -0.1746676 -0.14186372 0.25075814 0.004482442 0.09172726 -0.026075194
-0.0788834 -0.08718991 -0.07966774 0.01742703 -0.11916728 0.183473 0.04989159 0.14430396
-0.021567484 0.07458362 -0.06908061 0.042475127 0.12294061 -0.105768666 -0.09707796 0.078757375
0.18280797 -0.039506167 0.14743488 -0.15224168 -0.004790291 -0.11757783 -0.0055271424 -0.1400017
0.07703406 -0.037323922 -0.13259974 0.012394601 0.26133877 -0.024831766 0.1413021 0.043244768
-0.13264808 0.07215159 0.07615489 -0.021660252 -0.020602182 0.029801616 0.11223602 -0.0020222652
-0.118477896 -0.044590745 -0.029656865 0.086950935 0.031861037 -0.068973035 -0.13606523 -0.12249006
-0.008070638 0.103444286 0.025604336 -0.030876888 0.10066203 0.046625454 0.114404544 0.051189154
0.034385003 0.064464055 0.11477597 0.003409367 0.13819511 0.007670841 0.073707156 0.050437596
-0.051330477 -0.039721847 0.10548319 0.026570017 -0.11637901 -0.01789712 0.093135275 -0.040073026
0.10298003 0.023996113 -0.22682579 -0.014418246 -0.19094169 -0.04501064 -0.049007885 -0.104197934
0.028239137 -0.09777207 -0.00095651275 0.05743883 -0.07868733 -0.05221935 0.07231959 0.032414816
0.13983116 -0.09503876 0.004117269 0.055258486 0.20516858 -0.009510347 -0.13773206 -0.045372818
-0.12260266 0.13542464 -0.00601114 -0.06346595 0.21734792 -0.16740388 -0.14978445 -0.08297186
0.024611851 -0.063055865 -0.14556 -0.029169232 -0.22932497 0.054827817 -0.06916347 -0.18734893
0.049645316 0.24276808 0.0435886 -0.19033445 -0.2814981 0.17570211 0.010027543 -0.113984495
0.07201633 -0.007628136 -0.089886025 0.08102097 -0.04967135 0.05522268 0.084064044 0.026864136
0.020119498 -0.1449767 0.21913762 0.030542273 0.057154015 -0.02168295 0.054824863 -0.047823086
0.024130687 -0.07434625 -0.00059919275 -0.17788717 0.111639835 0.048711527 0.11450217 0.121953055
-0.017788593 -0.2284528 0.20349173 0.037619583 -0.052354876 0.013157348 -0.098872334 0.004010242
-0.018916184 -0.06180937 0.013479274 0.10369685 -0.056492954 0.058172274 -0.084219344 0.017635133
0.044739533 -0.017079268 0.009430682 -0.12555172 -0.09865537 0.05319518 0.043002717 0.024874749
0.019806357 -0.114223905 0.0014515761 0.090949446 -0.0024364772 0.13976079 0.014223079 0.0014469259

network_body._body_endoder.seq_layers.2.bias f4 [128]
00000000: 4f98 e33c 3d4b 803d c949 953d cd4b 7f3a
00000010: 51dd 683d 2978 613d adf4 213d 4636 5b3d
00000020: 0123 ca3c f3dd e73c 8170 4b3a f4dc 053d
00000030: 1ebe e83c 6d40 c53c 01e9 7c3c c877 4b3d
00000040: 1c14 aa3d d7fc 14bb 0d20 0bbb b2f0 963d
00000050: b06c dcbc 6953 b9bd f61b a03d e762 df3c
00000060: fd65 5f3c e8e2 3a3d 2111 a03c 6096 a13d
00000070: c090 b8bc 9ecb 8f3c 25e9 163d 624f 173d
00000080: ef59 5dbd 283f 663d 7084 d63c 4ae0 a43d
00000090: 2697 363d a326 79bd 455d 2e3d 25cd afbd
000000a0: 9cbd 5e3d 6e46 59bc 71e1 c43b eb67 dc3c
000000b0: 640b 1a3d 232f 883d ebf7 c6bc d175 323d
000000c0: 090f 21bd 4166 6dbd 02ae 073d 63a0 8c3c
000000d0: a267 893d 4cdc 153d 0fe1 823d 17a3 9b3d
000000e0: 9153 af3c abe6 acbc a8cf 033d 29fd 063d
000000f0: 2f24 44bc bb83 6dba bc9b 983d 7c86 753d
00000100: c2c4 47bd 6e83 613d 3ff9 7e3d 2cf1 8d3d
00000110: 510f b43d 3c2f 753d 86bf 0dbd a339 1c3d
00000120: 75ea 1bbd cb58 043c 9727 73bd e44c babc
00000130: ae5c 703d ae59 b23c 3fc0 783c aeb6 b9bd
00000140: 1739 38bc 3ba4 c7bc 1c14 733d 74ac 973c
00000150: 8959 c1bc c089 0bbd f870 863c ae5d 523d
00000160: 6a93 5bbd 9b87 86bd 842d d63c 014b a93d
00000170: 4d13 4d3d 22b9 543d 681b b2bc aa52 8a3d
00000180: ccab 04bc 12ff 753d 7c13 1f3d 1acc 0d3d
00000190: 0777 783d 4698 debc c498 82bd 8e78 383d
000001a0: 8f0e 0d3c f176 a43d 9f30 613d 7e43 1cbb
000001b0: 0d99 393d dd0c a63c 3664 493d d5a3 cebc
000001c0: f94a 233d 8aab 5b3c d186 913d 7414 b53c
000001d0: 0326 3f3b fc53 953d a8a4 23bd 9ef8 eabb
000001e0: cb6d 0fbc 6cea 143d 7006 4e3d 20aa 9b3d
000001f0: 4369 913d 1de3 ae3d a021 413c 57c6 4b3d
0.027782587 0.062643506 0.07289464 0.0009738773 0.05685169 0.055046234 0.03953998 0.053518556
0.024674894 0.028304076 0.00077606 0.03268142 0.028410967 0.024078572 0.015436412 0.04967478
0.08304617 -0.0022733712 -0.002122882 0.07370128 -0.026907295 -0.09049112 0.07817833 0.02726884
0.013635156 0.04562655 0.019539418 0.0789001 -0.02252996 0.017553147 0.036843438 0.03694094
-0.054040845 0.056212574 0.026186198 0.08050592 0.04457774 -0.060827862 0.042569418 -0.0858405
0.054380044 -0.013261421 0.00600832 0.02690502 0.03760852 0.066496156 -0.024288138 0.04356939
-0.03932098 -0.057958845 0.03312493 0.017166322 0.067092195 0.036587045 0.06390583 0.07599466
0.021402152 -0.021106085 0.03218046 0.032956276 -0.0119715175 -0.0009060462 0.07451579 0.059942707
-0.048771627 0.05505698 0.06224942 0.069307655 0.08791984 0.0598595 -0.03460648 0.038140904
-0.038065393 0.0080778105 -0.059363928 -0.022741742 0.058682136 0.021771278 0.015182554 -0.090680465
-0.01124408 -0.024370303 0.05934535 0.01851485 -0.023602264 -0.034066916 0.01641129 0.05135887
-0.053607382 -0.065688334 0.02614475 0.08266259 0.050067235 0.05193437 -0.021741584 0.06754048
-0.0080976 0.060057707 0.03883694 0.034618475 0.06066039 -0.027172219 -0.06376794 0.045036845
0.008609428 0.08030499 0.05497801 -0.002384394 0.045311976 0.020269806 0.049167834 -0.025224606
0.03986642 0.013407597 0.07105792 0.02210448 0.0029166944 0.072914094 -0.03995195 -0.0071707508
-0.008754204 0.036356375 0.050299108 0.07600808 0.07100155 0.08539412 0.011787802 0.0497497

action_model._discrete_distribution.branches.0.weight f4 [3, 128]
00000000: 7b06 73bc 462d ae3d ddc0 ab3d 8dc1 40bd
00000010: dd70 4a3d f8ab 293d aac9 0c3d 64b6 e63c
00000020: 23e7 083d 03c7 963c 9413 98bd 8d54 c1bc
00000030: 1ca9 dfba 4ec8 503c 7f8b b03c a0d8 033d
00000040: 5128 af3d 1f28 cbbd f42b 1fbd a5a0 ad3d
00000050: ae22 e9bd a959 74bd f8e8 483d bba9 d1bc
00000060: 2361 d8bc 3539 833d 08cc 483c 8f19 9a3d
00000070: 4504 2bbd b154 2fbc 765a ac3c f157 64bb
00000080: 574c dcbd 8f43 4c3d 3b18 223b 2c04 b23d
00000090: 6f2c 543d 6458 76bd cd57 db3c 4342 d9bd
000000a0: 8822 593d 7b13 85bd 58cc 04bd ad12 c43b
000000b0: c836 06bc 3d0e 2c3d b2ac b2bd fc05 bb3c
000000c0: 9c1e 57bd c6af 92bd fe19 8f3b 4073 a2bc
000000d0: 6f59 963d 9f5a 0e3d 8840 ca3d 98ab b63d
000000e0: 2430 33bc 4509 0abd 7e14 0fbc f335 d5ba
000000f0: 6250 0cbd 21f3 01be 2067 c33d 5d5f 203d
00000100: 2f6b 86bd 3b6e 933d 469e c63d 0eae c33d
00000110: ecf8 823d ef14 433d be5e 8fbd f5ed 013d
00000120: 528f aabd 44d0 1bbd d7cf 8ebd ed31 5bbd
00000130: d38f 8c3d b857 813c 9166 8abc 9edc a2bd
00000140: f2f8 a2bc 7fdf 84bd b959 ba3d 85f8 af3c
00000150: 9a4b b1bc 41bc c9bd f4ad be3c ab10 5c3d
00000160: 31f8 b7bd 25dd c3bd 4018 5aba 38a3 d93d
00000170: 915b c23c 4749 763d 2f5d 7dbd 8adc bb3d
00000180: 8fa3 a3bd ae78 2b3d e47e 2e3d ae56 c7bc
00000190: da43 053d 126a dbbd e3bf cbbd 4fbd 333d
000001a0: e314 a2bc 0aa0 b03d d623 c13d b05b 4ebd
000001b0: 124f 5abb 1935 e9bc c0a6 673c 1f6a 91bd
000001c0: 3fd8 b93c 64ed b4bc 9d4d af3d 43c2 07bd
000001d0: c589 b0bd e039 cb3d 494f 8dbd 4c70 5bbd
000001e0: 7525 a5bd 9810 c3bc 90ce 5d3d c982 813d
000001f0: 9cd7 813c d83c 8a3d 4185 45bb f815 313d
00000200: 7729 cdbd e4ac 92bd e5e7 b9bd 5f92 20bd
00000210: 9de8 9b3d 4622 89bc cd31 e4bd c246 273d
00000220: d187 adbd 0270 fabd 413a 123e 9de3 123e
00000230: 6733 08be 60c2 cfbd 9918 b73d 00d1 febd
00000240: 3547 14be ee31 223e a64f 17bd 85df 8dbd
00000250: c189 1b3e 69d3 333d fec6 1fbe 37c2 cc3d
00000260: f1a2 023e 6790 3bbd 463d 353d 1da3 06be
00000270: 023e 013e cbb2 5abd 5864 febd c46c 00be
00000280: e991 363d 3cc5 573d 5a65 ef3d 9b77 eebc
00000290: 202e 9bbd 3e26 1a3b 9a65 b63d c961 893d
000002a0: 0052 333b 8e9b bc3d 33ff 7bbd f2d8 0cbe
000002b0: ab4d df3d 624c 8a3d 8961 763b be1f ad3d
000002c0: dddc b83d c057 623c b5ee f2bd 46d4 eebd
000002d0: 8e25 b93d 6d0d 323c 9791 15bd 0259 07be
000002e0: 1b35 f7bd 49ec e43d 6683 023e 36d1 00be
000002f0: ce3f 09bb d923 263e deba 6cbc 1863 4b3d
00000300: cb25 0a3d 0d45 bbbd 62f4 84bd c566 1abd
00000310: d3d5 3dbe 1f7f 4b3d 307f 0a3e abc0 94bd
00000320: b3b2 1a3d dcc3 ea3d e04d 023d f876 143e
00000330: 5b81 5ebd fbb4 dc3c b620 013e c814 3e3d
00000340: 17c1 bd3d dd31 0c3e a0eb 9bbd a837 813d
00000350: 4b2c 273c 744d 173e 8e90 eb3c c45d a8bd
00000360: e000 a13d 853f 853d 16ba 04be f148 7ebd
00000370: e239 b93d 1603 b9bd 680d 043e 9445 f1bc
00000380: 5cde bb3d 1b61 a73d 438f d13b b1db 0abe
00000390: 6980 ce3d fe59 d03d a780 bc3d b635 893c
000003a0: 0a21 8abd 5728 393d 3a0f df3b 239e 57bd
000003b0: 6f84 023e 4e1a 073e 8636 ab3d 562e a2bc
000003c0: c3c8 dcbd c4ea bebd 7667 14bb bc94 d63d
000003d0: 9240 093e ba7a 063d d936 273b 47b1 113e
000003e0: aa51 193e 3799 07be 78c8 51bd 3aae fdbd
000003f0: fbea 45be feec ffbd f4a8 583d b53d f7bd
-0.014833088 0.08504729 0.08386395 -0.047059584 0.04942404 0.041423768 0.03437201 0.028163143
0.033423554 0.018405443 -0.07425609 -0.023599887 -0.0017063948 0.012743069 0.021550892 0.03218901
0.085526116 -0.09919762 -0.038860276 0.08477906 -0.11383568 -0.05965582 0.0490503 -0.02559363
-0.026413506 0.06407396 0.012255676 0.07524406 -0.04175212 -0.010701344 0.021039229 -0.0034842456
-0.10756748 0.049869116 0.002473368 0.08692202 0.051800188 -0.06014289 0.026775265 -0.106083415
0.053011447 -0.06497856 -0.03242144 0.0059836716 -0.008191772 0.042005766 -0.08724345 0.022830002
-0.052519426 -0.071624324 0.004367112 -0.019830346 0.07341277 0.03475439 0.098755896 0.08919448
-0.010936771 -0.033700246 -0.008732913 -0.0016266688 -0.034256347 -0.12690403 0.09541154 0.039153446
-0.065634124 0.07198759 0.09698157 0.09554683 0.06395134 0.047627386 -0.070004925 0.031721074
-0.083281174 -0.038040414 -0.06973236 -0.05351441 0.0686337 0.015788898 -0.01689461 -0.07952236
-0.019894097 -0.06487941 0.090991445 0.021480808 -0.021642495 -0.0985036 0.023276307 0.053726833
-0.08982886 -0.09563664 -0.00083196536 0.10626835 0.023725303 0.060128476 -0.061856445 0.09172924
-0.07990181 0.041863136 0.04260148 -0.024333324 0.03253541 -0.10713591 -0.09948709 0.04388171
-0.01978535 0.08624275 0.09430663 -0.05038041 -0.003331129 -0.028467702 0.014138877 -0.07100319
0.022686122 -0.022085853 0.085597254 -0.033144247 -0.086200275 0.09923148 -0.06899888 -0.05357389
-0.08063785 -0.023811623 0.05415207 0.063237734 0.01584988 0.06749886 -0.003013924 0.04323384
-0.100176744 -0.071618825 -0.090774335 -0.03920209 0.07612727 -0.016739976 -0.11142311 0.040838964
-0.084731705 -0.12228395 0.14280035 0.1434464 -0.13300858 -0.10144496 0.089402385 -0.12442207
-0.14480288 0.15839359 -0.036941193 -0.069273986 0.15189268 0.04390279 -0.15603253 0.09997981
0.1275747 -0.04579201 0.044247888 -0.1314816 0.1262131 -0.053393167 -0.12421483 -0.12541491
0.044572745 0.05267833 0.11689253 -0.029109767 -0.07577157 0.002352133 0.08906098 0.06708104
0.0027362108 0.09209357 -0.061522674 -0.13754633 0.10903486 0.0675285 0.0037594757 0.0845332
0.09026501 0.013814867 -0.11861936 -0.11661582 0.09040366 0.010867459 -0.0365158 -0.13217548
-0.12070676 0.1117788 0.12745437 -0.12579808 -0.0020942572 0.16224612 -0.0144488495 0.04965505
0.03372745 -0.0914403 -0.06491925 -0.037695665 -0.18538599 0.04968178 0.1352508 -0.07263311
0.037768077 0.114631385 0.03181255 0.14498508 -0.05432258 0.026941767 0.12610134 0.046406537
0.092653446 0.13690896 -0.07613301 0.06309444 0.010203431 0.1477564 0.028755452 -0.082210094
0.07861495 0.06506256 -0.12961611 -0.06208128 0.090442434 -0.09033792 0.12895739 -0.029452123
0.09173271 0.08172818 0.006395252 -0.13560368 0.10083086 0.10173415 0.09204226 0.016749244
-0.06744583 0.045204487 0.006807235 -0.052641045 0.12745832 0.13193628 0.08360009 -0.019797485
-0.1078048 -0.09322122 -0.0022644675 0.104775876 0.13403538 0.032831885 0.002551487 0.14227782
0.14972559 -0.1324204 -0.051216573 -0.12386747 -0.19327919 -0.124963745 0.0528955 -0.120723166

action_model._discrete_distribution.branches.0.bias f4 [3]
00000000: 85fc 833d 9abf 29bd 39a2 1abd
0.06444649 -0.04144249 -0.037752364

action_model._discrete_distribution.branches.1.weight f4 [3, 128]
00000000: 65d5 183c c8e7 1d3d 0141 883c 2f91 26bc
00000010: 1a16 af3b 9375 793c a3af 5a38 6fed 0a3c
00000020: eeae 90ba 3aac 5ebc 2550 b4bc e6be b5bc
00000030: 4731 dd3c 9cc6 55ba b4df 033b 8346 853c
00000040: faf2 bf3c 8d6f 4dbd 2821 80bb 6e59 cc3a
00000050: 4138 e3bc f865 59bc 3382 293d 63e1 dd39
00000060: 4c03 40bb 15bb a13c cebc 9fbc 17ae a63c
00000070: 8d5a 3fbd cb5c 543c 98f9 193a 1985 023c
00000080: b3b1 d0bc 0f33 013c ab4c 073c 1790 0e3c
00000090: e7cf 17bc 4441 4ebc 3f0a db3b b055 1abd
000000a0: 1fe6 d8ba cf3b 9ebc 08e4 af3b b17d cf3b
000000b0: 528e afbb ecb5 523b 517e 39bb 1903 2dbb
000000c0: 3c65 d2bc 429c f9ba bb3b ac3c f472 a3bb
000000d0: cae2 9f3c beb6 96bc 20c1 6b3c b6ad 0a3d
000000e0: 5872 5e3c f8f2 98bc 66b3 91bb 1597 fb3c
000000f0: 8204 c3bb d3a3 1dbd 99f0 623b 482d b33b
00000100: 215f c5bc ab17 42bc adc6 6d39 bf13 433c
00000110: 51f3 5d3c b5d5 083c 690f fcbc 8ccd f538
00000120: a67e 0bbd 0002 44bc 0325 2abb c530 0cbd
00000130: 59bd 603c 2467 b63b 4496 a2bb 80fa a3bb
00000140: 28fb 13bd cb9b 05bc 797f 483c 4e34 31bc
00000150: 4b45 d03b 016c a2bc 0b22 45bb 114a 393c
00000160: 70e7 4cbc f24f 63bc 541c 2b3d 8ea1 123d
00000170: 2cfc e5bb 10fd bb3a 829a 0bbd 5c1c b2b9
00000180: 5840 53bc 505b 7cbc 63cd 82b7 2e1c 803c
00000190: 1b3b b83a 413a 41bd cf42 92bc c8fc 6dbb
000001a0: 0b32 6bbc ee6d d13a d2fe e23c c8a7 1b3c
000001b0: e0f2 343c 8cb5 84bb 9e64 143b 181e 1eba
000001c0: 9830 d63c 8615 4639 7874 483b ce78 83ba
000001d0: ead5 88bc a511 7a3c 4f51 d6bc d746 b0bb
000001e0: bd62 10bd 363f cc3c 20ad 663c 0bbd e93c
000001f0: 5038 aa3c bbdc bc3c af02 72bc 0aae 29bc
00000200: e986 1abd 4bc2 29bc 10fd bcbb 0f90 af3c
00000210: 99f8 d7ba cfd4 d73b 45a8 153d 12e4 2a3c
00000220: de28 d83c 31a6 383a 2729 c63c 4b46 013c
00000230: 9e6e cebc 7fd0 bc3c e479 913c 6b46 cb3b
00000240: 43f3 40bc 8dcc 0e3d 4a16 e53b 2088 573b
00000250: 5e3f ca3c c5c6 91bc 4104 73bc d84a f63c
00000260: 4224 843c 3566 be3a 14e1 333d 9591 87bc
00000270: f2ea ea3c a132 003d 28d9 36b8 2655 fdbc
00000280: 35ed 3e3a d39f 09bb e937 a53b 469d 493b
00000290: 411b c63c 686f 1e3b 2b88 b23c 2bf2 84bc
000002a0: d9b8 133c 7c22 0b3d 02c7 febc e42b ac3c
000002b0: 04f1 8d3b 6289 5bbc 4e9f 983c 6796 a03b
000002c0: 14b7 babc 0b1d 25bc ee73 0abc ae4b 793c
000002d0: 0728 4c3b 3dfa bd3c 0e92 1e3a c8c1 abbb
000002e0: 9d10 b13b d5b8 3a3c 1f13 823c 86e9 3fbc
000002f0: d0fe 873c 3228 7b3c 6fd3 24bc 82c3 c43b
00000300: f4a1 343c ca15 0abc bdbd 003c 3d81 7aba
00000310: d164 60bc 2268 393c 8405 1c3c 1817 6d3c
00000320: 3405 7b3c b2f4 133d 2b5d 813c 6f1a bd3c
00000330: 0902 1ebb 5a0d b6bc c9db 14bc 6aa6 c0bc
00000340: 6c03 c93c 1dec ad3c 109a 97bc 1c27 023d
00000350: e1b2 82bc 6012 af3c 8644 bf3b 57f7 57bc
00000360: 68a8 59bc 87d5 cb3b 5371 243b 0e2e 48bc
00000370: ef04 683b 1e82 873c 3b85 b53c 0982 bb3b
00000380: 2c0e 4a3d 4d3e 483c e441 a83c f6c4 bd3c
00000390: 3d46 98bc 7d73 303d a1a5 a9bb bdd0 0a3d
000003a0: 5801 073c b904 b2bb 6a01 0dbd 032b 9c3a
000003b0: 6dcf b33b 52a6 4c3a 669a d73c 2459 19bc
000003c0: 8f27 55bd 788a 8d3c cd7d edbb 0685 113d
000003d0: edd6 343d 2ae9 24bc 48ed 163c 8638 2bba
000003e0: 0bfd 4f3c b2c4 4d39 1ca4 753c 263c 18bc
000003f0: d8f8 1ebc b357 7cbc 58a7 0c3d 6f24 e93c
0.009328221 0.038551122 0.016632559 -0.01016645 0.005343211 0.015225786 5.2138825e-05 0.00847946
-0.0011038461 -0.013590867 -0.022010872 -0.022185754 0.027001036 -0.00081549 0.002012235 0.016268974
0.02343129 -0.05015521 -0.0039102025 0.0015590617 -0.027736785 -0.01326894 0.041383933 0.0004232033
-0.002929884 0.019742528 -0.019499209 0.020346684 -0.046717215 0.012961577 0.0005873679 0.007966303
-0.025475359 0.0078857085 0.008258025 0.008701346 -0.009265876 -0.012588803 0.006684571 -0.037679374
-0.0016548074 -0.019315628 0.0053677596 0.0063321223 -0.005357542 0.003215189 -0.002830405 -0.0026399551
-0.025683038 -0.0019043761 0.021024575 -0.0049880687 0.019517321 -0.018397685 0.014389306 0.03385707
0.013577066 -0.018670544 -0.004446435 0.03071169 -0.005951465 -0.038486313 0.003462827 0.0054680444
-0.024093213 -0.011846463 0.00022676094 0.011906563 0.013546781 0.008351733 -0.030769067 0.000117207965
-0.03405633 -0.011963367 -0.0025962002 -0.034226198 0.013717019 0.0055664945 -0.0049617607 -0.005004227
-0.036128193 -0.00815482 0.012237423 -0.010815693 0.0063559166 -0.01982689 -0.0030080106 0.011309163
-0.012506351 -0.013874041 0.041775063 0.0357986 -0.0070185866 0.0014342386 -0.034082897 -0.00033971935
-0.012893759 -0.01540263 -1.5592848e-05 0.015638437 0.0014055701 -0.047174696 -0.017854122 -0.0036314
-0.014355193 0.0015978196 0.027709398 0.009500451 0.011044234 -0.0040499624 0.002264298 -0.0006031706
0.026146218 0.0001889077 0.0030587 -0.001003051 -0.016703565 0.015262996 -0.026161818 -0.0053795385
-0.035250414 0.024932485 0.014079362 0.028532526 0.020778805 0.023054471 -0.014771148 -0.010356436
-0.037726317 -0.010361264 -0.005767472 0.021430997 -0.0016477286 0.006586648 0.036537427 0.010430353
0.026386674 0.00070438074 0.024189545 0.007890294 -0.02519923 0.023048637 0.017758317 0.006203463
-0.011776748 0.034863044 0.0069911825 0.0032887533 0.024688419 -0.017794976 -0.014832557 0.030064985
0.01613057 0.001452631 0.043915823 -0.016548911 0.028676484 0.031298283 -4.3594424e-05 -0.030924391
0.00072832714 -0.0020999804 0.0050420654 0.0030763908 0.024182918 0.002417529 0.021793446 -0.016228756
0.009016239 0.033968434 -0.031100754 0.021017022 0.00433171 -0.013399454 0.01863065 0.004900742
-0.022792377 -0.010077725 -0.008450491 0.015215797 0.0031151788 0.023190612 0.00060489855 -0.0052416064
0.005403592 0.011396606 0.015878258 -0.011713391 0.016600996 0.0153294075 -0.010060175 0.0060047517
0.011024941 -0.0084280465 0.007857737 -0.0009556001 -0.0136959115 0.011316331 0.009522799 0.014470838
0.015321065 0.03612203 0.015791496 0.023083894 -0.00241101 -0.022223163 -0.009085604 -0.023516852
0.024537764 0.021230752 -0.01850608 0.03177558 -0.015954437 0.021371067 0.005837026 -0.013181529
-0.01328478 0.006220523 0.002509196 -0.012218012 0.0035403331 0.016541537 0.022158256 0.0057222885
0.04932992 0.012221885 0.020539232 0.023165207 -0.01858818 0.04307889 -0.005177215 0.033890475
0.0082400665 -0.005432692 -0.034425177 0.0011914674 0.0054873736 0.0007806766 0.02631874 -0.009359632
-0.05203968 0.017277941 -0.0072476626 0.03552725 0.04415028 -0.010065356 0.009211846 -0.0006531555
0.0126946075 0.00019623598 0.01499274 -0.009291684 -0.009702884 -0.0154017685 0.03433928 0.028459756

action_model._discrete_distribution.branches.1.bias f4 [3]
00000000: 344b 663c 4bdc 1c3c 0e36 cebc
0.014056016 0.009574006 -0.02517226

exp_avg f4 [128, 66]
00000000: c6d2 2bb8 1fcb 4238 ffdf 6c35 e652 6db6
00000010: f8f6 acb5 91f1 4637 72a2 ec36 2103 1137
00000020: af3a 3435 f9b6 b135 0e1d c8b4 8ee3 ab35
00000030: 1d76 9337 5d13 34b7 981a cf35 4597 b536
00000040: 5f3e 8236 9fe1 8a37 6a7b 29b7 bfbc 0938
00000050: 76fb f034 6339 7eb5 9bee 46b6 8b5d 6ab7
00000060: 4616 4838 3276 1bb7 0938 9198 3590 16b6
00000070: 4e77 3036 f1f1 a737 a31a 83b6 eecc b337
00000080: c752 1cb4 035e e3b5 ea46 2936 9dbb 45b6
00000090: 7703 2437 94ee 9b35 a3b0 ad90 3e7d d9b5
000000a0: fa09 5b36 d849 0038 01b8 7bb6 602e e337
000000b0: 5b1b f0b5 f95c 25b6 0400 0000 9bb5 83b7
000000c0: db3e 9236 4362 8e37 a3b0 ad90 272a 1234
000000d0: 3b48 cd36 9141 2438 3403 23b8 dce4 ce37
000000e0: 75df 28b6 7bbc a3b4 0d00 0080 a081 afb7
000000f0: 4183 91b7 bc60 b737 a3b0 ad90 af3d 8a34
00000100: 9490 d934 4d90 c537 db3a 1638 cbab e6b7
00000110: 5e5e d7b6 622e 74b6 17e1 acb7 3aab aeb6
00000120: f12d 1539 c312 05b9 c986 ccb6 4d1a 4b36
00000130: 23cf c2b4 2c18 77b7 697f 1239 3bd1 03b9
00000140: 8045 91b5 ef48 3536 e7dc 82b6 28ba af37
00000150: b00e b338 68c4 36b8 4f10 abb6 db8d d635
00000160: 97d5 38b7 055d 28b8 bcc9 2539 5603 ecb8
00000170: 8fe3 5999 822c 6eb6 79f1 7235 008f 5438
00000180: ef87 9138 923e 4eb8 42f9 a2b6 2ebf 68b6
00000190: 1bf5 bc36 aca9 10b7 4c51 1a39 2579 0bb9
000001a0: 3ab5 bf90 a38d 06b6 3fd6 9936 faf0 7938
000001b0: 2cd6 c338 b0ab 99b8 3c0a 38b6 1a22 7ab6
000001c0: 0400 0000 9383 94b7 c655 ef38 4446 bcb8
000001d0: 3fb5 bf90 542e ea33 058e 1737 5ef5 8438
000001e0: 3ca2 c237 70b3 fbb7 5c5c 2db6 4026 71b6
000001f0: 3900 0080 cddc c8b7 b85c 3638 4b37 ebb7
00000200: 3fb5 bf90 56b5 1436 fb05 2636 2a6f 6038
00000210: 5dea 6839 5064 0eb9 bc95 01b6 ad6c 9136
00000220: 6a42 7836 503b 2db7 959b 1339 8e07 10b8
00000230: 0d41 e8b5 d597 9eb5 3b3e 9db7 c582 04b6
00000240: cb7c fc38 a8bb a3b7 1b4b 7db4 6b3f 94b6
00000250: 565e 6cb7 824d 45b7 32d5 1339 59f6 65b8
00000260: 909e c7b5 0a7a 7335 adbe 9735 c41a ce37
00000270: 61eb 0b39 7a81 52b8 c807 b617 3d12 48b5
00000280: 5ebe 91b5 0f13 9937 aac9 f838 f590 27b8
00000290: e324 84b4 64f8 ec35 9f13 f4b4 47c2 b037
000002a0: d37b 3939 8a95 a0b8 c39e dc10 3320 c535
000002b0: b21e 82b5 e789 a837 e574 0c39 6222 6bb8
000002c0: 846c b236 9f00 b634 0400 0080 68bb 1338
000002d0: 860a 3339 912f 98b8 c39e dc10 fa40 3034
000002e0: e057 37b7 e08c 7bb4 1ebf 3439 66ea 37b8
000002f0: f01d fd36 551d 92b5 0400 0080 220c 5038
00000300: e2db 4739 f011 92b8 c39e dc10 00c8 8a36
00000310: 5915 e935 06e6 d737 ead9 30b9 b8c2 3439
00000320: 81f1 a937 37bc 9ab6 ba04 2437 1360 3438
00000330: 0e43 c0b8 75f5 8138 b8ba a337 4665 4ab6
00000340: 42b1 0438 1313 0538 7808 98b8 6e8f 8938
00000350: ce64 4db5 894a 2536 e6ed e337 e03c 8e38
00000360: 6a07 58b8 26a2 4638 9223 9937 9ed7 82b6
00000370: 7939 6f36 05e5 9937 f071 20b9 afc8 2839
00000380: dddc 5398 48a7 0636 3f23 bab5 8ba0 7cb7
00000390: 638b 09b8 616a 2a38 1713 8437 e0f1 fdb5
000003a0: 9131 d8b5 5b46 41b7 7184 54b9 400e 5339
000003b0: 95e5 9c90 13ed 8eb2 756d 0437 3ebc 18b7
000003c0: db64 4fb8 f390 7a38 bd45 1537 5a51 9034
000003d0: 0400 0000 eb8c 9eb7 9749 2eb9 46d0 3239
000003e0: 95e5 9c90 d2f3 20b5 15e2 da36 9616 5a36
000003f0: 20d5 80b8 cdbb 3438 b4af df36 2bc0 8835
-4.0965875e-05 4.6442376e-05 8.824281e-07 -3.5364005e-06 -1.2886876e-06 1.1857964e-05 7.052259e-06 8.643402e-06
6.714062e-07 1.324078e-06 -3.7274043e-07 1.280672e-06 1.7578766e-05 -1.0733344e-05 1.5430442e-06 5.4118304e-06
3.881563e-06 1.6555945e-05 -1.01019195e-05 3.283913e-05 4.4886445e-07 -9.470588e-07 -2.9643186e-06 -1.3969267e-05
4.770446e-05 -9.266239e-06 -3.7538203e-24 -2.2435681e-06 2.6295488e-06 2.0020614e-05 -3.907205e-06 2.143389e-05
-1.4558746e-07 -1.6940179e-06 2.522424e-06 -2.9464493e-06 9.7759685e-06 1.1617835e-06 -6.850862e-29 -1.620421e-06
3.263935e-06 3.058635e-05 -3.750902e-06 2.7082104e-05 -1.7889355e-06 -2.4641033e-06 6e-45 -1.5700984e-05
4.3584564e-06 1.6973476e-05 -6.850862e-29 1.3612645e-07 6.117885e-06 3.916171e-05 -3.886521e-05 2.4663685e-05
-2.516402e-06 -3.0498254e-07 -1.8e-44 -2.0921987e-05 -1.7346467e-05 2.1860345e-05 -6.850862e-29 2.5749384e-07
4.0524594e-07 2.3551425e-05 3.58176e-05 -2.7498134e-05 -6.418485e-06 -3.6385832e-06 -2.0608813e-05 -5.2055375e-06
0.00014226862 -0.00012690858 -6.095365e-06 3.0264666e-06 -3.6286028e-07 -1.4727975e-05 0.00013971109 -0.00012571078
-1.0823569e-06 2.7013555e-06 -3.9000183e-06 2.0948311e-05 8.538121e-05 -4.35751e-05 -5.0980957e-06 1.5985528e-06
-1.1016985e-05 -4.0140952e-05 0.00015810778 -0.00011253978 -1.1264592e-23 -3.549067e-06 9.0503414e-07 5.0677918e-05
6.9394584e-05 -4.91725e-05 -4.8569937e-06 -3.4681975e-06 5.6313706e-06 -8.622574e-06 0.0001471687 -0.00013301203
-7.561544e-29 -2.005e-06 4.584697e-06 5.9590653e-05 9.338217e-05 -7.327588e-05 -2.7424094e-06 -3.7272753e-06
6e-45 -1.7704244e-05 0.000114123846 -8.9776266e-05 -7.561547e-29 1.0904901e-07 9.033368e-06 6.339954e-05
2.3202148e-05 -3.0005089e-05 -2.583277e-06 -3.5934063e-06 -8e-44 -2.3944676e-05 4.3478532e-05 -2.803993e-05
-7.561547e-29 2.215927e-06 2.4739409e-06 5.350929e-05 0.00022212551 -0.00013579545 -1.9309655e-06 4.3339883e-06
3.6993538e-06 -1.0325413e-05 0.00014076971 -3.433931e-05 -1.7304279e-06 -1.1816106e-06 -1.8744837e-05 -1.974565e-06
0.00012039541 -1.9518498e-05 -2.3589784e-07 -4.4181265e-06 -1.40886605e-05 -1.1760161e-05 0.00014098434 -5.4827284e-05
-1.4872803e-06 9.0702144e-07 1.1305871e-06 2.4569577e-05 0.00013343758 -5.0188486e-05 1.1763439e-24 -7.4532346e-07
-1.0858746e-06 1.8247896e-05 0.000118631244 -3.9950904e-05 -2.4613755e-07 1.7655661e-06 -4.5462818e-07 2.1071302e-05
0.00017689103 -7.657248e-05 8.701931e-29 1.4687015e-06 -9.694688e-07 2.0091376e-05 0.00013394987 -5.6060388e-05
5.3174463e-06 3.3900594e-07 -6e-45 3.5222067e-05 0.0001707469 -7.256785e-05 8.701931e-29 1.6414916e-07
-1.092811e-05 -2.3427447e-07 0.00017237334 -4.38489e-05 7.5434727e-06 -1.0886384e-06 -6e-45 4.9602364e-05
0.00019060032 -6.9651636e-05 8.701931e-29 4.1360036e-06 1.7366066e-06 2.573711e-05 -0.00016865847 0.00017238676
2.0258829e-05 -4.6114687e-06 9.776262e-06 4.300482e-05 -9.167763e-05 6.196919e-05 1.9518062e-05 -3.0159295e-06
3.1636337e-05 3.1727435e-05 -7.249502e-05 6.559385e-05 -7.651514e-07 2.4630301e-06 2.7171289e-05 6.7824265e-05
-5.1505318e-05 4.735789e-05 1.8255585e-05 -3.899403e-06 3.5647229e-06 1.8345667e-05 -0.00015301234 0.00016096489
-2.7382618e-24 2.0064927e-06 -1.3868338e-06 -1.505775e-05 -3.279316e-05 4.063023e-05 1.5744516e-05 -1.8920364e-06
-1.610768e-06 -1.1520077e-05 -0.00020267234 0.00020127837 -6.188488e-29 -1.6638785e-08 7.893298e-06 -9.103735e-06
-4.9446575e-05 5.973964e-05 8.897329e-06 2.688128e-07 6e-45 -1.8900688e-05 -0.00016621347 0.00017052991
-6.188488e-29 -5.995945e-07 6.5232257e-06 3.2497678e-06 -6.143213e-05 4.3090247e-05 6.6663724e-06 1.0188718e-06

exp_avg_sq f4 [128, 66]
00000000: a56a 9833 8ea2 c933 dd23 8930 6c18 812f
00000010: 5799 172f 711b 7832 5d9f 8733 83b4 d133
00000020: d040 e830 9310 842f 7596 3230 23f7 7c32
00000030: c101 f833 69d2 8333 bb33 c12f 8ee2 c22f
00000040: 276f b12f bfa4 6b32 993b 9d33 9a8c af33
00000050: a9ec 5731 a9f8 8f2f e21c dd30 0d1b 7632
00000060: c18c 2034 59f4 2133 8df7 782f e50f 6b2f
00000070: b696 d42f 7d5b 8a32 c251 be33 58a4 8e33
00000080: 7f25 8331 9317 1230 5ea4 df30 afd4 5e32
00000090: 459b 2534 3dec 1733 2c17 c52e 2cbe 5c2f
000000a0: 524f 1631 b90e 9232 cb76 f533 b2eb 6033
000000b0: f071 8231 ac23 4b2f 4a5e d230 75bc 5f32
000000c0: 5f86 2f34 3dbb 0d33 cc29 242e 97f5 3b2f
000000d0: c98f de30 afb5 7d32 d62f 0434 266d 4d33
000000e0: 56cb 7a31 15b7 b82f 0233 d130 c0f9 5632
000000f0: 25fb 3634 61fb 0533 4b7f 082e f139 052f
00000100: 6e05 dc30 4d26 6f32 803e a134 a835 7f34
00000110: 900d 3b30 1785 1830 b9f9 b230 0875 9a33
00000120: ea87 4134 6a5d b534 b3ce 3c31 fba0 9f2f
00000130: b5cf e830 1fd0 9533 472c e634 eb9b 2734
00000140: 6a24 dc2f f41f 6230 9e14 c730 dc80 5d33
00000150: 4fc8 8e34 ea8e 7b34 c58e a631 c1e7 902f
00000160: a863 b631 4184 8533 3050 0935 26ad d933
00000170: 3ad9 b82f eb4c 2530 5190 eb2f 7ee4 1633
00000180: 8998 bc34 5a6c 2234 7a1f b831 f877 6f30
00000190: a7fc 9431 e13d 6733 4a94 0f35 9a85 ab33
000001a0: 9a6e 5e2f 2e8e 2130 c24c 7f31 bcda 0033
000001b0: b2ac f034 8e48 f133 bf5d 9a31 80f3 902f
000001c0: 0d00 8a31 4f3b 5e33 2c71 1635 66c2 8733
000001d0: ab4a ee2e 47d0 0f30 8c86 6d31 a1da fd32
000001e0: 81a7 0235 a940 c333 96e6 5e31 c494 3e30
000001f0: 413f 8331 7bc5 4a33 34bd 1d35 5ee7 4033
00000200: a5ef af2e 9399 be2f 50d6 6431 dd16 0333
00000210: 03f0 6734 98ed 7934 adc7 0b31 f5f1 1c2f
00000220: 62ae 6630 c0e4 8633 f068 ac34 ed40 0134
00000230: b887 1b31 7683 1c30 90bf 6531 5348 a033
00000240: d08f 8e34 3f78 4e34 a13b f42f 983f ca2f
00000250: b55e ab30 e2e2 5f33 edcd cc34 eca1 6c33
00000260: ae77 8d31 b636 8530 ac45 0131 2a39 6733
00000270: 807d c134 ad24 c733 8bd9 432f 7698 b12f
00000280: 7c57 0631 60f5 8533 057d e234 c4e6 d732
00000290: ead9 9d31 6587 4630 b2c1 0231 e59b 3733
000002a0: 3237 da34 beb7 8a33 40ff 0f2f d390 d82f
000002b0: 0a3d 5a31 33c2 2d33 724c e934 6fd0 cd32
000002c0: a6da 9a31 83d5 942f c55b 0331 286c 1733
000002d0: 2d04 ef34 f3f9 0633 a98b a52e ac20 e32f
000002e0: 14ea 1431 3446 ca32 a288 e634 d47e 2333
000002f0: f781 9431 a9a9 802f 4993 0b31 3516 0733
00000300: 71da ee34 4ac4 0933 75e0 722e 3535 1230
00000310: 6048 1331 eff7 df32 5e34 9834 8ba3 c334
00000320: b4bd b831 c6ac ff2f 331b bb31 f074 e133
00000330: f4dc db34 8cb3 7234 77a0 cf31 1da5 9030
00000340: 0348 f831 41e3 f833 984c a934 5670 c134
00000350: 131a 1631 9663 da2f a0e7 3331 4a3e be33
00000360: d957 1735 1eba a033 1cc9 2f32 c344 b330
00000370: 3ba4 0831 fdfe b633 e7d0 cd34 0c9d 9634
00000380: 6fe8 1930 da6d 492f 7c3b 4531 4c8c e133
00000390: 634a 2335 9830 3c33 8fe1 3c32 8e9b 9a30
000003a0: fb93 0b31 36d1 8b33 a831 0935 3afa 4d34
000003b0: 5e2f 9e2f a21e 812f deca dc31 5bc9 9833
000003c0: 39e1 2635 edac 3a33 4aa2 3732 91da d92f
000003d0: bc23 0c31 7cc3 5b33 2702 1c35 1303 0934
000003e0: aea8 782f 9851 832f cf68 3e31 b83b 3733
000003f0: b959 2835 f0f7 6733 60f6 3032 7c5d 672f
7.09745e-08 9.3893604e-08 9.978255e-10 2.3482316e-10 1.3787847e-10 1.4441739e-08 6.3154154e-08 9.765156e-08
1.6898642e-09 2.4022437e-10 6.4969835e-10 1.4724523e-08 1.1548719e-07 6.138436e-08 3.5143252e-10 3.544937e-10
3.227509e-10 1.3716259e-08 7.321723e-08 8.174648e-08 3.1421143e-09 2.6188232e-10 1.6088075e-09 1.4325235e-08
1.4952367e-07 3.7707967e-08 2.2643416e-10 2.1378772e-10 3.8669662e-10 1.6106918e-08 8.862436e-08 6.642284e-08
3.8168646e-09 5.314799e-10 1.6272101e-09 1.2970459e-08 1.5423309e-07 3.5372285e-08 8.962639e-11 2.0076446e-10
2.1872961e-09 1.7003332e-08 1.143031e-07 5.2368428e-08 3.796451e-09 1.8475416e-10 1.530631e-09 1.30231586e-08
1.6347029e-07 3.2999413e-08 3.7326406e-11 1.7094802e-10 1.6193492e-09 1.4767848e-08 1.231086e-07 4.7829552e-08
3.6495371e-09 3.3599493e-10 1.5221249e-09 1.2513226e-08 1.7041437e-07 3.1195103e-08 3.103588e-11 1.2116864e-10
1.600865e-09 1.39203395e-08 3.0034062e-07 2.3768246e-07 6.8049477e-10 5.548641e-10 1.302218e-09 7.192472e-08
1.8023971e-07 3.3781845e-07 2.7475096e-09 2.9036315e-10 1.6939256e-09 6.97621e-08 4.2873054e-07 1.560981e-07
4.004364e-10 8.226373e-10 1.4485015e-09 5.157277e-08 2.6595305e-07 2.3428188e-07 4.847467e-09 2.6358118e-10
5.3082267e-09 6.217352e-08 5.1153165e-07 1.01363455e-07 3.3623754e-10 6.013596e-10 4.2848794e-10 3.513241e-08
3.5128713e-07 1.5126844e-07 5.3586833e-09 8.711818e-10 4.33609e-09 5.3840157e-08 5.348744e-07 7.98711e-08
2.0230076e-10 5.877351e-10 3.7151016e-09 3.000126e-08 4.4829136e-07 1.1235635e-07 4.4926476e-09 2.6366465e-10
4.0163344e-09 5.1742344e-08 5.604404e-07 6.321788e-08 1.08362506e-10 5.2319077e-10 3.456452e-09 2.9552497e-08
4.8672524e-07 9.092157e-08 3.2436325e-09 6.9333006e-10 3.819793e-09 4.7211397e-08 5.8762384e-07 4.491391e-08
8.000648e-11 3.466992e-10 3.330019e-09 3.052161e-08 2.1600867e-07 2.3276368e-07 2.0340665e-09 1.4274078e-10
8.3921325e-10 6.2814706e-08 3.211385e-07 1.2037681e-07 2.2632616e-09 5.6939287e-10 3.3432777e-09 7.463736e-08
2.6554198e-07 1.922899e-07 4.442571e-10 3.6788772e-10 1.2468805e-09 5.2127582e-08 3.8147792e-07 5.50953e-08
4.117246e-09 9.692573e-10 1.8811575e-09 5.383587e-08 3.6040365e-07 9.273331e-08 1.7812433e-10 3.2304442e-10
1.9549296e-09 6.2379286e-08 4.2186744e-07 2.5134234e-08 4.5940753e-09 7.222439e-10 1.9027593e-09 4.2749793e-08
4.0645824e-07 6.459548e-08 1.3096457e-10 3.9393075e-10 3.1757872e-09 4.0456325e-08 4.3455253e-07 2.3959926e-08
4.5068473e-09 2.7072752e-10 1.9115174e-09 3.5255795e-08 4.4520257e-07 3.1426634e-08 7.52814e-11 4.1314274e-10
2.1669893e-09 2.354782e-08 4.2940252e-07 3.8066744e-08 4.322142e-09 2.3403615e-10 2.0310884e-09 3.1452334e-08
4.4489892e-07 3.2076322e-08 5.5223787e-11 5.31901e-10 2.1432456e-09 2.6073364e-08 2.8350308e-07 3.6440574e-07
5.3766716e-09 4.6506993e-10 5.4455085e-09 1.049865e-07 4.0952693e-07 2.2603325e-07 6.0427356e-09 1.0524307e-09
7.2259367e-09 1.1589737e-07 3.1534432e-07 3.6030787e-07 2.1842694e-09 3.972473e-10 2.6179592e-09 8.858895e-08
5.637972e-07 7.484435e-08 1.0232068e-08 1.3043507e-09 1.988396e-09 8.5214175e-08 3.8336222e-07 2.8053944e-07
5.5991384e-10 1.831987e-10 2.8701086e-09 1.0502899e-07 6.083048e-07 4.3816357e-08 1.0994326e-08 1.1249186e-09
2.031128e-09 6.510747e-08 5.1108736e-07 1.9183145e-07 2.877369e-10 2.348673e-10 6.425906e-09 7.114678e-08
6.216756e-07 4.3463775e-08 1.0688902e-08 3.962737e-10 2.0392994e-09 5.1167703e-08 5.811766e-07 1.2760238e-07
2.2615396e-10 2.3886737e-10 2.7708216e-09 4.266232e-08 6.271544e-07 5.4009377e-08 1.03005675e-08 2.104254e-10

exp_avg f4 [128]
00000000: b1b8 a636 ff88 a837 dd7a 0539 125e 9cb7
00000010: beed 1238 524d e3b8 0a11 5bb8 551a 9e38
00000020: 9a94 b838 db43 0e38 deb4 e838 473b eab7
00000030: 47ca b4b8 0bc4 1c39 793f 99b8 1751 10b9
00000040: b55b 6bb6 57ed 2539 de59 8239 286a ffb7
00000050: 0366 9738 ac41 2a37 9f2b 9cb8 2a76 0739
00000060: d5fd 2fb7 3144 0838 4961 12b8 0e8e b537
00000070: 9177 9c37 bc01 19b9 b5fe f9b7 e456 fbb7
00000080: 6ee7 cbb8 eb36 17b8 9656 f2b7 767f 6eb8
00000090: 7732 5fb9 7f26 b038 2dd4 f0b8 9f64 9db8
000000a0: 9a16 e538 936c 0038 2e87 c738 5399 1138
000000b0: 37f3 dbb7 9676 8637 af92 32b8 29d3 a0b8
000000c0: fa60 de37 bbc7 e5b7 8d65 b238 590e b1b7
000000d0: 4a8a 0cb8 22ad b937 7658 4634 4ee4 9ab8
000000e0: 4a66 a637 8916 c5b8 6a91 a938 ff11 ab35
000000f0: d464 efb8 8bc3 b7b8 c982 01b9 2f3b 01b8
00000100: 032c afb8 5488 a7b8 6553 53b8 4b61 edb6
00000110: 102a 7ab7 5f9d 6638 acf4 dfb8 83a8 99b8
00000120: 49df 9838 a832 0b38 1126 23b8 5009 aab7
00000130: d9e1 85b8 756f 0c38 6ef4 44b9 b29e 3cb8
00000140: 51fc d137 0326 5bb8 ed85 4fb8 7c15 5038
00000150: 69e2 a338 95d0 77b8 099d 2f38 8700 84b8
00000160: 34ed 6eb8 2890 d7b8 f594 ef36 f3fb aab8
00000170: 0e33 7b38 fc5d 4838 af41 0036 752d 0837
00000180: 2d8f cdb8 2c8f 6537 0427 08b9 82fa 07b8
00000190: ccbd b337 4844 9638 66a4 12b8 bf04 1939
000001a0: 1367 8537 0f89 1d37 760d 4438 2075 50b9
000001b0: 98c2 5938 5045 29b8 9605 d9b8 f6b6 d6b7
000001c0: 20aa a038 aa67 2fb9 cd81 f038 5973 2e38
000001d0: 6807 2938 ef96 28b8 4563 3738 c9b9 6f38
000001e0: 0258 08b8 14a4 aab8 45ad 11b9 7c36 99b7
000001f0: 1dbc ef38 2a32 9537 9766 1bb7 25ec d638
4.9686864e-06 2.0090954e-05 0.00012729639 -1.8640454e-05 3.5030527e-05 -0.000108386055 -5.2229538e-05 7.538932e-05
8.801483e-05 3.3918634e-05 0.00011096311 -2.7922577e-05 -8.620746e-05 0.00014950351 -7.307431e-05 -0.00013763118
-3.507111e-06 0.00015824042 0.00024862488 -3.0447802e-05 7.219242e-05 1.014808e-05 -7.446785e-05 0.00012918623
-1.0489913e-05 3.2488435e-05 -3.4899716e-05 2.164303e-05 1.8652327e-05 -0.00014591863 -2.980172e-05 -2.9961993e-05
-9.7229015e-05 -3.605235e-05 -2.8888968e-05 -5.686233e-05 -0.00021285737 8.3995044e-05 -0.000114836126 -7.5050855e-05
0.00010923781 3.0618696e-05 9.5142386e-05 3.471349e-05 -2.622009e-05 1.6029266e-05 -4.2575117e-05 -7.668726e-05
2.650962e-05 -2.7391934e-05 8.506617e-05 -2.1106725e-05 -3.3507393e-05 2.213434e-05 1.8472369e-07 -7.385817e-05
1.9836374e-05 -9.3978895e-05 8.0856335e-05 1.274573e-06 -0.00011415189 -8.762543e-05 -0.0001235112 -3.0811116e-05
-8.352848e-05 -7.9885736e-05 -5.0383987e-05 -7.074477e-06 -1.4910955e-05 5.4982836e-05 -0.00010679042 -7.326996e-05
7.289515e-05 3.318736e-05 -3.889768e-05 -2.0269916e-05 -6.3840016e-05 3.3482404e-05 -0.00018783074 -4.497049e-05
2.5032235e-05 -5.224907e-05 -4.9477374e-05 4.9611073e-05 7.814618e-05 -5.9083646e-05 4.18695e-05 -6.294349e-05
-5.6964534e-05 -0.0001027885 7.140096e-06 -8.153161e-05 5.989061e-05 4.7771246e-05 1.911172e-06 8.1168155e-06
-9.80183e-05 1.3682798e-05 -0.00012984505 -3.241981e-05 2.1426844e-05 7.165276e-05 -3.496222e-05 0.00014592985
1.5902833e-05 9.389841e-06 4.6742578e-05 -0.00019880058 5.191806e-05 -4.0357292e-05 -0.00010348407 -2.5595986e-05
7.661083e-05 -0.00016727918 0.00011468269 4.159226e-05 4.0299637e-05 -4.019489e-05 4.3723052e-05 5.7155066e-05
-3.250689e-05 -8.1367936e-05 -0.00013892826 -1.8264393e-05 0.00011431447 1.7785544e-05 -9.262606e-06 0.000102483005
