results/ppo/MoveToGoal/MoveToGoal-63565.pt (torch, 528967 bytes, 33 tensors)

network_body._body_endoder.seq_layers.0.weight f4 [128, 35]
00000000: 5415 9f3d 501b 403d af50 4bbd 306f 7cbd
00000010: 03a0 3bbd f183 afbc 119d 2ebe 1369 893d
00000020: e107 b93e 94c7 8cbd 85e2 fcbd a26f 793e
00000030: 2e42 cabd 3e2f 8e3e f4a4 843d 7762 f93c
00000040: a5a2 ef3d fffb 023d 4cc4 d93c 4675 943c
00000050: 9e59 c2bd 07eb 413d a40a 643e 2297 8ebe
00000060: 4eb6 b73e 79ea 6fbd 787a 273e c929 11be
00000070: c7e1 1e3e 82c3 cebb e4b2 ab3c b10a b6bd
00000080: 643d ad3d ab8b 523e 5e71 d8bc 9b54 4dbe
00000090: 0481 21be e37f 333c 38d7 a33d 5cb1 48bd
000000a0: 3ec8 173c 046d 1ebe cb5e e53c 7e3c b2be
000000b0: ad24 01bf ed79 203e fa52 d73d 9f93 943e
000000c0: 6443 babd 8703 0cbe 36c2 87be e293 343e
000000d0: ac59 463e 57c4 0a3e fc94 27bc 80b7 fd3c
000000e0: d34c e43c eaf8 41be 0e8f 6bbd fe1b b3be
000000f0: 1bb8 6dbe 0cb9 bf3d d777 063e d30a 1d3e
00000100: 5487 1a3e 0933 26be c562 1dbd 88d8 9abe
00000110: 3efc f13d ead3 29be cc01 33be 8422 313e
00000120: ccaf 4abc f75a 3c3e de18 4b3d 5f31 cbbd
00000130: 5acc 5d3e 7297 ca3d 1aac e5bc 52f6 d43d
00000140: b571 55be f92c 963c 69a4 44be ce31 24be
00000150: f204 d0bd 10d0 46bd 7794 86bd ff23 f13d
00000160: a1e5 8c3e 9d96 1f3c c079 b93e 85e3 adbe
00000170: 54b3 e13c 9f20 57be ba36 b73d 387f 57be
00000180: 0bb0 643a 17a3 dd3d a7ae 503d f986 8c3d
00000190: 844f 323e 1013 a83d a5b2 24be daf7 343b
000001a0: d376 6cbe cb0d 9c3d 95e4 f53b a499 54bd
000001b0: dabf 253e 95c5 0bbe 688b e03d 5bf7 0bbe
000001c0: 61ff 673e aef0 e5bd 4b0f a63e 6faf 24be
000001d0: a2fc 813d 1ba1 17be 28b2 91bc 68db babe
000001e0: 2391 03be 8af7 03be c3a5 633d f02b 9d3e
000001f0: 3823 84be bee0 3a3e 42d1 d43d 0a23 623e
00000200: fada 57bd c0ae 37be 8ac1 e8bd 8d1e 28be
00000210: da2a b7bd 2a63 853d bc9b 8dbd 8fb1 02bd
00000220: 67dc 613e ba54 78be 4658 d73d 0297 abbc
00000230: 7ff0 93bd 1be1 98be 8919 3ebc 35b6 54be
00000240: 088d ad3e f1ac 753d a3a1 ba3e a3f1 4abe
00000250: 8561 0f3e 41a6 ebbc 39eb 103e 778d 1b3c
00000260: 40ea 3dbe ca70 77be 9ec5 f6bd a42d 20bd
00000270: b394 6dbd 7cad 53bc 8b5b 233d 6543 36bc
00000280: e1b1 493e 0a18 4b3d da34 5c3d 601b 56be
00000290: 6073 87be fe34 87be 6107 00be 8616 94bd
000002a0: 7e85 14be 9c9b 57be a642 993e 8b58 85bb
000002b0: f926 4d3e 5a3e 3a3d a3a9 813e 7b22 a73d
000002c0: ecac 06be eedb 323e b1cc 513e 4469 763e
000002d0: 825f 993e faba 45be 3148 993d 02e7 8c3d
000002e0: 30f9 763d e2d6 3a3e f5f4 f83d 02f7 063e
000002f0: 4acd 263e 52f0 ef3d 1dc1 493e 090d 8bbe
00000300: 25ca 42bc 7dec 883e 0ff9 99be 83a3 a1bd
00000310: f2ef a1ba 8868 f1bc cbd1 8a3c 98a3 ce3d
00000320: 6190 c6bd 6cb9 1abd 550b 27be 7328 ae3c
00000330: d4dd 703e d619 033e ae4f 993e e1ea d1bd
00000340: bb48 a7bd 5009 bb3d 59c3 3bbd 5a41 2e3e
00000350: 425b 1fbd 673e 01be f153 0b3e d13b 1ebe
00000360: 86d1 a23e bdfd c9bd d148 edbe 2a2f 4b3e
00000370: ff12 bcbd bb8f ef3d 1152 d7bd a09b 183d
00000380: 0dad b13d aae3 153d 7adb 493e 7094 b4bd
00000390: 458b 243d 6e8f 56bd f36f 5dbc 8ffe cdbc
000003a0: 068d 073e 5098 a8bd a5b8 d1bd e7ad b4bd
000003b0: 48c0 c8bd 2bb8 5dbd 9d00 0c3e 8b7b ff3d
000003c0: 57a0 3b3d 3f21 45bd 18d7 8ebc 0b18 173e
000003d0: bc45 8b3e 6606 6ebe 0c1c 8abe 71b9 de3d
000003e0: aae4 563e 8bee a53d e82a 2f3e 3433 803e
000003f0: de13 c93d 988e 42bd f4b1 b5bb 00a4 1a3c
0.0776774 0.046901047 -0.049637493 -0.061629474 -0.045806896 -0.02142522 -0.17052104 0.067094944
0.36138824 -0.06874004 -0.12347893 0.24358991 -0.09875904 0.27770418 0.06476775 0.03044246
0.11700944 0.031978603 0.02658286 0.018122327 -0.09489749 0.04734328 0.22269684 -0.2784968
0.35881275 -0.05857322 0.16355312 -0.14176096 0.15515815 -0.0063099274 0.020959325 -0.08888758
0.08458975 0.20561092 -0.026421245 -0.20051806 -0.15771872 0.010955784 0.08000034 -0.048997268
0.00926405 -0.15471274 0.027999302 -0.34811777 -0.5044659 0.15671511 0.105138734 0.29018876
-0.09094885 -0.1367322 -0.2651536 0.17634538 0.19370145 0.1355146 -0.010228392 0.030971289
0.027868664 -0.1894261 -0.057509474 -0.34982294 -0.23214762 0.09361467 0.13131653 0.1533616
0.15090686 -0.16230406 -0.038424272 -0.30243325 0.118156895 -0.16584745 -0.17481154 0.17298323
-0.012371015 0.18394075 0.049584262 -0.09921526 0.21659985 0.09892167 -0.028036166 0.10398544
-0.20844157 0.018331992 -0.19203342 -0.16034624 -0.10157193 -0.048538268 -0.06571286 0.11774444
0.27518943 0.009740499 0.362257 -0.33962646 0.02755133 -0.21008538 0.08945985 -0.21044624
0.0008723742 0.108221225 0.05094781 0.068616815 0.17413145 0.08206761 -0.16083772 0.0027613551
-0.23092203 0.07619818 0.0075040557 -0.051904336 0.16186467 -0.1364959 0.1096409 -0.13668577
0.22656013 -0.11227547 0.32433543 -0.16082548 0.06347014 -0.1480755 -0.017785147 -0.3649552
-0.12848334 -0.12887397 0.055578005 0.30697584 -0.2580812 0.18249795 0.10391475 0.22083679
-0.052699067 -0.17937756 -0.1136504 -0.16417904 -0.0894372 0.06513055 -0.069144696 -0.031907614
0.22056733 -0.2425107 0.10514884 -0.02094603 -0.07223605 -0.29859242 -0.011602768 -0.20772631
0.3389666 0.059979383 0.36451444 -0.1981874 0.14002044 -0.0287658 0.1415223 0.009494177
-0.1854639 -0.2416412 -0.12049411 -0.039106026 -0.05800314 -0.01291978 0.039882224 -0.011124467
0.19696762 0.049583472 0.05376134 -0.2090888 -0.26455212 -0.26407617 -0.12502815 -0.072308585
-0.14504048 -0.21055454 0.2993366 -0.004069393 0.20034398 0.04546962 0.25324735 0.081608735
-0.13151902 0.17466709 0.2048824 0.24063593 0.2995568 -0.19309607 0.074844725 0.06879999
0.060296237 0.18246034 0.12156097 0.13180164 0.16289249 0.11715759 0.19702573 -0.27158383
-0.011889015 0.26742926 -0.3007283 -0.078925155 -0.0012354834 -0.02946879 0.01694574 0.10089797
-0.09695507 -0.03777449 -0.16312917 0.021259522 0.2352212 0.12802824 0.29943603 -0.10249878
-0.08168169 0.091326356 -0.045840595 0.17017117 -0.03890539 -0.12621461 0.1360624 -0.15452506
0.3180048 -0.0986285 -0.46344617 0.1984221 -0.09183311 0.11697336 -0.105137 0.03725779
0.08675585 0.03659407 0.1971263 -0.08817375 0.04017188 -0.05238288 -0.01351546 -0.025145797
0.1323739 -0.08232176 -0.10240296 -0.08822232 -0.098023 -0.054130714 0.13672109 0.12474736
0.04580721 -0.04812741 -0.017436549 0.14755265 0.2720164 -0.23244628 -0.26974523 0.10875214
0.20985666 0.08102139 0.17106211 0.25039065 0.098182425 -0.04749927 -0.0055448953 0.009438515

network_body._body_endoder.seq_layers.0.bias f4 [128]
00000000: e100 28bb 478d 833b cf39 9fbb 1e48 b5b7
00000010: 2dcf 063b 0212 0b3b 2648 633b 2f6f 0fbc
00000020: 0d0f 44bb d262 b2bb 22a2 743b 1db3 053c
00000030: 5a87 b7ba 9e2c 5a3b ee01 193b 1cf0 863b
00000040: bfc3 cbba 6b0b 5abb f5fb a83b e764 e33a
00000050: 7770 ee3a ee6a abba fb9f c4bb b251 9cbb
00000060: 0794 79b9 5fc8 b4bb c267 9c3b 74e5 05bc
00000070: 22ad 233b a4f8 dd3b da48 83ba 00c1 72b8
00000080: 76e7 43ba ae21 a8bb 3e2a 25bb 158c 30bb
00000090: 095d 84ba fc94 053a 9f5b aa3b 55c8 b13b
000000a0: 17da 11bb 1ce8 d8b8 82b2 873b 4f50 993b
000000b0: 72de ffba f75b 4d3b ea26 4db9 b27c b3b9
000000c0: 3eaa 803a adf5 08bb 2c50 35bb 34bc 463b
000000d0: 5eab 433a 132b d73b 1aec 203b 456d dd3a
000000e0: d562 c13b 0390 853b 24bf 993b 250d 223c
000000f0: 4ccc 5f3b 88a4 a9ba d01d 38bb 6101 253c
00000100: c0ef c43a d22e d13b 9c1e 143c ec2e ddb9
00000110: f63d 1a3c 5301 7b3b ea96 7c3b de63 36bb
00000120: 490f c33b 9631 853b b7fd 833b 03b2 1f3b
00000130: 1163 623a 6a43 b8b9 c531 cdba 2913 143b
00000140: 645b 813a bc8e 213b 64d6 4c3b 7d1c 87bb
00000150: 6c0c 973a 92c0 86bb 2a1f 2f3a b653 d2ba
00000160: d2fd 9f3b 4833 91ba 4651 9939 b7bb ecb9
00000170: 96db a73b 5197 3bbb 764e e13a ad76 d2ba
00000180: 1402 e037 dfb8 acbb c7c4 96ba fc7e ad3a
00000190: bc4f e73a 3b00 9dba 4460 a63a dcce 4bbb
000001a0: d7ed 86bb 2a3f 7dba 2422 a8ba b847 4cbb
000001b0: 0c05 1cbb 1876 633b ea94 9839 9d71 8e3b
000001c0: 15c5 62ba d0bb efba d8b8 6a39 6a91 50bc
000001d0: 9c94 06bb bd04 19bb 74e8 60bb 069d 5bba
000001e0: 7854 273b 63aa 8fba 4f80 b53b 4f81 e03b
000001f0: c190 b03a 8a02 543b 0138 d73a 836a 103b
-0.002563529 0.0040146443 -0.0048591862 -2.1610464e-05 0.0020570264 0.002122045 0.0034680455 -0.008754536
-0.0029916198 -0.005443909 0.0037328084 0.00816038 -0.001400213 0.0033290754 0.0023347097 0.0041179787
-0.0015546008 -0.0033270966 0.0051569887 0.0017348797 0.0018191476 -0.0013078132 -0.0060005165 -0.004770481
-0.00023801635 -0.00551705 0.004773111 -0.008172382 0.0024975021 0.006774025 -0.0010016218 -5.787704e-05
-0.000747315 -0.005130968 -0.002520218 -0.0026938964 -0.0010098527 0.0005095748 0.0051989104 0.005425493
-0.0022255236 -0.00010342916 0.004141153 0.004678763 -0.001952125 0.0031335333 -0.0001956482 -0.00034234446
0.0009816361 -0.0020898387 -0.0027666194 0.003032458 0.00074641954 0.006566414 0.002455479 0.0016893527
0.0059016743 0.0040760054 0.004691975 0.009890829 0.003414887 -0.0012942711 -0.0028093942 0.01007113
0.0015025064 0.0063837552 0.009040501 -0.00042187364 0.009414187 0.003830035 0.00385421 -0.0027830522
0.00595275 0.004064749 0.004028048 0.0024367578 0.0008635978 -0.00035145442 -0.0015655091 0.0022594428
0.0009869155 0.0024651727 0.0031255716 -0.004123269 0.0011524088 -0.0041123116 0.0006680364 -0.0016046676
0.0048825527 -0.0011077905 0.00029242988 -0.00045153286 0.005122612 -0.0028624127 0.0017189521 -0.0016057097
2.6703849e-05 -0.005271062 -0.0011502736 0.0013236697 0.0017647664 -0.0011978218 0.0012693484 -0.003109864
-0.004117708 -0.0009660596 -0.0012827558 -0.0031170677 -0.002380672 0.003470784 0.0002910265 0.00434704
-0.00086505833 -0.0018290225 0.00022384839 -0.012729982 -0.0020535355 -0.0023348772 -0.003431824 -0.00083775853
0.0025532525 -0.0010960813 0.005538977 0.0068513523 0.0013470874 0.0032350146 0.0016419889 0.0022036142

network_body._body_endoder.seq_layers.2.weight f4 [128, 128]
00000000: 8aef 8cbd 978d a3bc 79f2 993d b2ae d13c
00000010: ee9b 2cbd 8fee 463c dd7d 96bb 45c0 8a3d
00000020: d0b9 a6bd edb0 debd f8cb 4d3d 2dcb 25be
00000030: 7150 0ebd d5b8 163d ac26 cabb 1233 80bd
00000040: f2e0 703d bdc3 803c b66b 023d 267b 05be
00000050: 7257 6cbd 69f4 e9bd 4aae c83d aedc 123e
00000060: 013d 39bc 2891 02bc ca44 41bd 2910 70bd
00000070: 8df0 5dbc 163e 08bd b762 a4bd ad10 8abd
00000080: f123 6d3c f74c 80bc ecca 2fbd 0fc6 bbbd
00000090: 28e1 c4bd d8d7 143e 0cba 0c3d 525c 9cbd
000000a0: 1c9a 853d 8ab4 553d a4bf 8ebc 5c89 0a3d
000000b0: d78f 5c3c 44c9 f53d d836 2cbe df39 fbbd
000000c0: 53d6 f73c 6046 b63a 6010 a53c 50f5 d83c
000000d0: 8de5 853d 3604 643b 090a e23d bebe e03c
000000e0: 4f2a a83c d3e3 f2bc b46e 453e e670 b9bd
000000f0: ebbc de3d cc4d eabd fb69 2f3d a5f2 f13c
00000100: 5b8d b43d 0e6e 4a3d 3d37 8b3c c3a8 af3b
00000110: e9f4 16bd ba0d 223e 2785 ea3c 5eaf fc3c
00000120: eab9 7e3d 4265 8c3d 7ca6 ba3d ee7e 143d
00000130: 439c bd3d e895 a33c 8c00 363d d0e1 683c
00000140: a834 833d 1137 8bbc 4571 82bd b6c7 76bd
00000150: 61d4 c8bd 8467 e0bc 5680 7ebd aabe a43d
00000160: 5b49 c6bd 47c5 ffbc 864b a83c 00d4 fbbd
00000170: b03d b33d dfab 7d3d 6edf ac3d 3852 7fbd
00000180: 989c eebd fc01 bcbd 401f 363d e44b c2bd
00000190: 6982 60bd 71dc 0a3d 2d2d c9bc 3623 15b8
000001a0: 45f3 bdbc 9837 063d 3f6f 223d 7790 1bbe
000001b0: 24d0 473e bff2 68bd b5d3 30bd 188b 04be
000001c0: a046 b93c da93 aebc 973c 333e 597b b1bb
000001d0: 4bb7 30be 2dee 743c 1e00 9fbd 0a88 c53c
000001e0: 6fed 52bc 4ce9 8f3c 96b8 bbbc 303f 903d
000001f0: 8cb0 183e a302 5ebe d082 873c 9ee7 dc3c
00000200: 46dd 8d3d 65a3 523d 5a29 0fbd 4845 033d
00000210: 35ba a23d a553 853b 8b91 70bc 262b a4bc
00000220: 4e54 85bd 4b47 f8bd ec95 ef3d 3eeb 75bd
00000230: 0033 943d 9d73 f3bd 7a01 293e cf57 f5bd
00000240: b4e2 363d 93c3 f4bd 92e0 3dbd f942 843d
00000250: 2eea a9bc a12b 403d 2b14 82be ae3a 513e
00000260: 2a3b b53c 1d8d aa3d a04f e7bd 4a1b 03bd
00000270: 0e1d c9bc 579a 21bc fa64 9a3d 71b5 1bbe
00000280: 2ea5 fcbd 0905 85bd 5fa1 a73d c37a 33bd
00000290: ba1e b8bc 23ef 6cbc 5f8c e8bc 37a1 f23d
000002a0: 0b2f 5cbc a488 c73d 8075 55bc dc05 a9bb
000002b0: 33a2 f7bc dcad c4bd bd39 363c 4a67 1b3d
000002c0: 3050 a8bc f0aa d53c 12f2 23bd 20bf babd
000002d0: 9bbb 04be 9869 56bd e92d 3bbd 6118 163d
000002e0: 62ed 1e3e d170 d5bc c7ba 663d 1fd6 cc3c
000002f0: 27ac 68bd 071f b5bd c99f f73d e316 a53d
00000300: 16e0 6d3d 4a9c 513e d9bf d93d e54b 693d
00000310: 294f 9cbd fc1f 35bd 6d44 123e 032c 003d
00000320: 9ba2 b63c c957 33bd 9f8f dd3d 3590 01bd
00000330: e512 43be e7ba 963d e04a 56bd 1d5d 843c
00000340: ad2a 4c3e 1328 aabc b5f6 8fbc 0292 0cbd
00000350: cd14 26be 290f 353d 27a2 913d dbc3 57be
00000360: 4d9b 953d 64ed 2c3e 4af9 853d 17bc 493d
00000370: 281f 68bc 925f 443d 918d 893d 5c78 bebd
00000380: ed18 53bd 2389 29bd 488e 823d 1168 6ebc
00000390: ce43 ad3c ceb5 1c3e 82f9 063d 8e4b 333d
000003a0: 93b8 d43c e2e2 c4bc 9236 dc3d fced 85bd
000003b0: 5ad5 03be d8c5 09be 983d e13d e78e 43be
000003c0: 5e23 0e3e 2874 e43d fda0 09bd 00fc 90bd
000003d0: d889 41bc 33db 833d 6f7f 50be b7a4 873d
000003e0: 4a1a 1a3d 0b14 51be d691 d73c 808b 2dbe
000003f0: b6d2 45bc b205 413e 9fdd 9fbc ac29 143e
-0.06881626 -0.019964976 0.07516951 0.025595997 -0.042140894 0.012141838 -0.004592641 0.06774954
-0.0814091 -0.1087359 0.050243348 -0.16190787 -0.034744684 0.036797363 -0.006169161 -0.06259741
0.058808275 0.015718335 0.031841002 -0.13035259 -0.05770058 -0.11423571 0.09798868 0.14341995
-0.011306048 -0.007969178 -0.047184743 -0.05860916 -0.013546121 -0.033262335 -0.08026641 -0.06741462
0.014473901 -0.0156617 -0.04291813 -0.09168636 -0.09613258 0.14535463 0.034357116 -0.07634796
0.06523535 0.05217413 -0.017425366 0.033822402 0.0134620285 0.12001279 -0.16817796 -0.122668974
0.030253565 0.0013906471 0.02014941 0.026484162 0.06537924 0.003479255 0.1103707 0.027434703
0.020527987 -0.02964965 0.19280511 -0.09054737 0.10875877 -0.1144062 0.04282568 0.029534647
0.08816024 0.049421363 0.016994113 0.005360694 -0.03685466 0.15825549 0.028627945 0.03084534
0.06218902 0.06855251 0.091137856 0.036253862 0.0925832 0.019968942 0.044434115 0.014213994
0.06406528 -0.016994031 -0.06369261 -0.060249053 -0.09806133 -0.02739311 -0.06213411 0.08044179
-0.0968196 -0.031221999 0.020543825 -0.12296295 0.08752 0.061931487 0.08441053 -0.06233427
-0.11650962 -0.09180066 0.044463396 -0.09487131 -0.05481187 0.033901636 -0.024557674 -3.555716e-05
-0.023187289 0.032767862 0.039656874 -0.15191828 0.19512993 -0.056872126 -0.04317065 -0.12943685
0.022616684 -0.021310735 0.17503582 -0.0054163155 -0.1725742 0.014949364 -0.07763694 0.02411272
-0.012873991 0.0175673 -0.022915166 0.07043302 0.14911097 -0.21680693 0.016541868 0.026965912
0.0692697 0.051425356 -0.034951545 0.032048494 0.079456724 0.004068809 -0.014683138 -0.020040106
-0.065102205 -0.12122973 0.11698517 -0.060038798 0.0723629 -0.11887286 0.1650447 -0.11979639
0.044649795 -0.11951365 -0.046356745 0.064580865 -0.020741548 0.046916608 -0.25406012 0.20432541
0.022122938 0.083276965 -0.11294484 -0.032008447 -0.024549987 -0.009863458 0.07538791 -0.15205933
-0.12336193 -0.06495101 0.08185076 -0.043818247 -0.022475589 -0.0144613115 -0.028387247 0.118471555
-0.01343895 0.09742859 -0.013028502 -0.005158169 -0.03022871 -0.096034735 0.011122164 0.0379403
-0.020546049 0.026082486 -0.040025778 -0.091184855 -0.12962191 -0.052346796 -0.04569808 0.036644343
0.15520242 -0.026054772 0.05633047 0.025004445 -0.056804802 -0.088438086 0.120910235 0.08061006
0.058075033 0.20469776 0.10632295 0.056957144 -0.07632286 -0.044219956 0.14283915 0.031291973
0.022294333 -0.04378489 0.10818409 -0.031631667 -0.19050176 0.073598675 -0.0523175 0.016157681
0.19938155 -0.020771062 -0.017573694 -0.03431893 -0.16218872 0.04420391 0.07111006 -0.21070807
0.07305012 0.16887432 0.06541689 0.049251642 -0.0141675845 0.047942705 0.06716455 -0.093003005
-0.051537443 -0.04139055 0.06374794 -0.014551179 0.021150496 0.15303728 0.032952793 0.043773226
0.025966918 -0.024033967 0.10752596 -0.065395325 -0.12874356 -0.13454378 0.10998076 -0.19097482
0.13880679 0.111549675 -0.033600796 -0.07079315 -0.01181265 0.06438293 -0.20361112 0.06623214
0.037622727 -0.20417802 0.026314657 -0.16947746 -0.012074163 0.18849829 -0.019514857 0.14469022

network_body._body_endoder.seq_layers.2.bias f4 [128]
00000000: f641 e1ba 000b d73a 4bf3 5abb 02fb 3a3b
00000010: f7f4 9dbb 7ad7 02ba 0159 e9b9 8560 38bc
00000020: ec59 5b39 058f e339 853d d4ba d620 36bb
00000030: c288 a1bb be85 d43a 540c 663a 05c0 81bb
00000040: 489a ac3b 9158 b83a 08ad b2bb 0145 33bb
00000050: d4c0 913a 8852 e138 167d 373b e06f 543b
00000060: b24a c93a bc4e 5c3b d294 e03a 37c9 743a
00000070: 65cb 243b 5cef 12bc 84a3 1d3b bf5f 343b
00000080: 9e93 29bb 2a59 06bb c682 25bb 74d1 2abb
00000090: 0dd1 8ab9 db9b 89bb c27e 93ba dbf4 2e3b
000000a0: 0124 6c3b 98ad 02bb b233 953b 4cb7 803b
000000b0: 837d 163b 957e 113b e20f 2bbb ce3d 4eb7
000000c0: e9b6 0fba 09bf e8ba 85af a7bb 6d66 953b
000000d0: 435a 96bb efdd 57bb 70e3 61bb 052e 60bb
000000e0: fd9b 6dbb 8e17 abbb 1760 3f3b 575e 9eba
000000f0: 019d ee3a fc92 c43a 7c2d 34bb f26b 80ba
00000100: 330a 8f3a bcd8 1c3b 457e 273b 3dad a0ba
00000110: 66c9 e538 877a 03bb d723 9fba e1a8 a7bb
00000120: 68ba 913a 2fba 80bb 4776 f437 f5cf 3c3b
00000130: cef9 81bb 4a6b 00b9 a086 c03a 0d6e a9bb
00000140: 823d 0aba 37d7 a5bb beae 3fbb 0a36 3238
00000150: 286f 5d3b 6777 4d38 dfe3 093b 91b5 823a
00000160: e3a1 96ba e4dc d83b 42a4 3038 c8ac 943b
00000170: 4383 ff3a b9c0 0ebb eb36 9d3b 5f57 9f3b
00000180: 9b01 733b f130 8bba 7f51 e33a 0bd5 0b3b
00000190: 684f d2b9 f7a5 73ba fc78 133b 532a 5b3a
000001a0: fe1b 04ba c4cf 153a 71c1 86bb 8597 4f3b
000001b0: b7de 5d3b acd8 733b b3a7 8eb7 b290 853b
000001c0: dc5b feba 0b7c 51bb c3a1 c43a 27df 70ba
000001d0: 6f09 403a f1db b7ba 1c5b 9fba dd65 af3a
000001e0: 4015 883b f523 1c3b 05a3 89bb 1241 d3b9
000001f0: 4c3d 873a 82f6 20bb 27db 4c3b 931a 6d3a
-0.0017185796 0.0016406476 -0.0033409174 0.002853096 -0.004820462 -0.0004991215 -0.00044507536 -0.011253481
0.00020918966 0.00043403372 -0.0016192651 -0.0027790568 -0.004929633 0.0016214175 0.0008775641 -0.003959658
0.005267415 0.0014064481 -0.005452756 -0.0027354362 0.0011120089 0.00010744209 0.002799814 0.0032415316
0.0015357344 0.0033616265 0.0017134196 0.00093378447 0.0025145647 -0.008968201 0.0024053762 0.002752289
-0.002587534 -0.0020499923 -0.002525495 -0.0026064785 -0.00026477166 -0.0041994876 -0.0011252987 0.0026696238
0.0036032202 -0.0019939896 0.0045532817 0.0039281007 0.0022962994 0.0022200693 -0.0026101996 -1.2292947e-05
-0.0005482273 -0.0017757128 -0.005117359 0.0045593292 -0.0045883968 -0.003293868 -0.0034467839 -0.0034207117
-0.0036256306 -0.005221314 0.002920156 -0.0012082559 0.001820475 0.0014997418 -0.002749293 -0.0009797795
0.0010913074 0.0023932895 0.002555744 -0.001225866 0.00010957084 -0.0020062046 -0.0012141418 -0.0051165675
0.0011118175 -0.003928445 2.9142144e-05 0.0028810475 -0.0039665466 -0.00012247 0.0014688559 -0.00517059
-0.00052734476 -0.005061056 -0.0029248442 4.2488835e-05 0.0033788178 4.898701e-05 0.0021040363 0.0009972324
-0.0011492338 0.006618129 4.2114647e-05 0.0045371987 0.0019494075 -0.0021782352 0.0047978065 0.0048627104
0.0037079814 -0.0010619444 0.0017343013 0.00213367 -0.00040113484 -0.0009294445 0.0022502532 0.0008360494
-0.00050395716 0.00057148584 -0.0041124155 0.0031676006 0.0033854672 0.0037208004 -1.700581e-05 0.004076087
-0.0019406038 -0.0031964805 0.0015001822 -0.0009188526 0.00073256245 -0.001402734 -0.001215789 0.0013381798
0.004152924 0.0023825143 -0.0042003416 -0.00040293537 0.001031795 -0.0024560993 0.0031258555 0.00090447924

action_model._discrete_distribution.branches.0.weight f4 [3, 128]
00000000: 447d b63b 707c 57bc 1d54 353b 6415 80bb
00000010: af27 e7ba 4ebc 04bb 94c4 baba c959 35bc
00000020: b2e6 083c 2876 39bc 4bc4 fc3b 25f2 7dbc
00000030: f15c 753c 20c7 dc3b 4b02 6f3c 36bb 14bc
00000040: 9f58 49bb 98b0 8939 d90a 8e3c 5e66 4e3b
00000050: f46d 863c 4deb f93c 719c 103b a37d 86ba
00000060: 01e8 863c 4e40 683b 0bdb 58ba a99b 79bc
00000070: 084c 48bc 2d58 99ba 1e1b 593b ea21 f13b
00000080: 8888 92bb dfde f7b9 ea64 56ba f237 95ba
00000090: 1b1e 183c 3224 a2bb 42c4 14bc 0663 a0ba
000000a0: 3545 a03b 9322 183c 36ce 65bc c2c9 b93c
000000b0: 9e3b 8cbb 31d6 813b ef03 8bbb a0df a23c
000000c0: 4e02 b8b9 9036 1bbb fb54 20bc 09a5 5f3c
000000d0: bf2d 7fbb 2730 233c 4ddc 0fbc 0cba 8abb
000000e0: a034 da3a effb bdba a86f b1bb c1c9 3c3c
000000f0: a8f7 9cbc 7e58 793c 465e c23c bbfd 7b3c
00000100: a6f3 423c eec0 6d3b 4303 b63c a83d 85bc
00000110: 32c9 96bc 0237 22bb db28 263b a4b0 6fba
00000120: 9558 763c 14b4 f03b ece0 30bb 4788 6d3b
00000130: 8002 98ba c027 123c dc67 0b3b b733 143b
00000140: 9bc3 04bc a217 07bc fb90 ea3b 84de 9ebb
00000150: 0a2e 88bb a6b4 0dbc 389f 3c3b c9ba 25bc
00000160: 01f9 a2bc a2cc 0a3b fe5a 71bc 3d6a c23a
00000170: 3f0e d1bb 9c1c 893b a0aa 733b 764e 443a
00000180: 730b 4dbb 6b1a 2c3c 30ba db3b 179a 58bb
00000190: c5f8 6f3b 40e1 983b 4f04 cbbb 11bf 03bc
000001a0: 8078 893a 9904 44bc c422 4f3c 9fd8 7fbb
000001b0: 4db1 9e3c b8e2 14bc d38e 533b 814b 313c
000001c0: f59a 923c f067 95bb 08b2 433b 60a1 523a
000001d0: a06d e5bb 744e c1ba 4c8b 04bc b808 36bc
000001e0: c72d 16bc 237e e43b 5588 623b dcd5 0ebc
000001f0: 3e54 96bc 6c1e f33b 8295 61bc 9103 88bc
00000200: 3117 17bc a466 69ba 8221 03bb f6c0 8cbb
00000210: 1f92 87ba 0854 4c3c 8fcb 683b 24d0 d3bb
00000220: 1a8a 233c a404 693b 7e63 cdbb 0f68 b4ba
00000230: f665 2f3c 9e54 9bbc 32b1 b53a bfe9 7d3c
00000240: 9222 b1bc 4e5e 15ba e12e b23c 5866 653c
00000250: 9cb7 00bb 3cf6 83bb fc13 b43b 3e7e 52bb
00000260: 1f8e 46bb 11d5 113c ceb5 c638 8ed6 653c
00000270: 1ea7 8dbb 3dd1 933b 30e5 60bc 09ad b0bb
00000280: 63a0 18bc 7b51 233b a29b f6b9 e9e3 d63b
00000290: cf22 92bc 8d8a 2839 98b2 733c cc8d 9e3b
000002a0: 0b79 c8bb 27de ed3c 2e75 44bb d77e b4bb
000002b0: 96a7 00bb ac3e 413c 2c54 d23c 8200 47bc
000002c0: 4bfb 503c 8af6 5f39 3d0a 9a3a 03ce 3dbc
000002d0: 373b c5bb 398f dd3b d285 97bc 9365 21bb
000002e0: f5fd 873c 5e33 9d3b 26ca 02bc b597 d53b
000002f0: 6bbe 78ba c7cb 3ebc 17fb ae3c 6648 e43b
00000300: 41c2 b2bb 5590 90bb 46b9 9ebb 8064 0d3c
00000310: 62f4 3d3c aa48 d4bb 7027 433c 00c9 493b
00000320: 1c2c 4ebc ac0e 1dbb 9a73 553c 00d9 a238
00000330: 9ddf 7b3c 9a07 b63b 8d9d 99bc 5ce2 efba
00000340: 03be cf3c 4210 f83b 1bb8 043c 31dc 963a
00000350: 36f8 3dbc ea27 d33c 74f4 a8bc 467e adbb
00000360: 4fc0 fd3b 7b0d afb9 6a56 163c 0535 09bc
00000370: 7235 b0bb fa86 febb 152e 0dbb ffdd e3bb
00000380: a92f 79ba b12f 1c3c 5bf7 413c 50de 003c
00000390: e4ab 413c 5fe6 84bb 7194 bbbb 686b 903b
000003a0: c469 ccbb d11f 2639 e956 253c d60f 94bb
000003b0: 3bd4 19bc aafc 18bb eded 3e3c cea7 11bb
000003c0: 55b4 483c 996d f43c f6ee a33b b2fe 28bc
000003d0: 1634 0d3c af69 983b 93c7 b73b 9ed2 84bb
000003e0: 4bae 87bc 3050 81bc f22c 9e3a 1861 c639
000003f0: 6427 84bc 94d9 ce3a 4fba e4bb 5cd5 98bb
0.005569132 -0.013152227 0.0027668544 -0.0039088 -0.0017635728 -0.002025384 -0.0014249259 -0.01106877
0.008355783 -0.011319675 0.0077138296 -0.015499626 0.014975772 0.0067376047 0.014587949 -0.009077838
-0.0030722988 0.0002626225 0.017339157 0.003149412 0.016409852 0.030507708 0.0022065903 -0.0010260831
0.01646805 0.003543872 -0.0008272386 -0.015234866 -0.0122251585 -0.0011699252 0.0033127735 0.007358779
-0.004471842 -0.00047277563 -0.00081784895 -0.0011384471 0.009284521 -0.0049481625 -0.009079995 -0.0012236543
0.0048910626 0.009285587 -0.014026215 0.022679213 -0.004279568 0.003962301 -0.0042424123 0.019882023
-0.00035096932 -0.0023683645 -0.009785886 0.013650187 -0.003893718 0.009960211 -0.008780551 -0.0042336043
0.0016647764 -0.0014494638 -0.005414922 0.011522711 -0.01916106 0.015218852 0.023726594 0.015380318
0.011898911 0.0036278325 0.022218352 -0.016264752 -0.018406484 -0.0024752025 0.0025353942 -0.0009143448
0.015035768 0.0073456857 -0.0026989533 0.0036244558 -0.0011597425 0.00892061 0.0021271622 0.0022613832
-0.008103277 -0.008245381 0.0071583963 -0.0048483033 -0.004155879 -0.008649027 0.0028781425 -0.010115334
-0.019894125 0.00211791 -0.014731167 0.0014832687 -0.006379872 0.0041843187 0.0037180558 0.0007488498
-0.0031287342 0.010504345 0.006705545 -0.003305083 0.0036616784 0.004665524 -0.006195582 -0.008041159
0.0010488182 -0.011963987 0.012642566 -0.0039039028 0.019371653 -0.009087257 0.0032281175 0.010821224
0.017896155 -0.0045595095 0.0029860754 0.0008034911 -0.0070015937 -0.0014748112 -0.008089852 -0.011110477
-0.009166188 0.0069730445 0.0034566124 -0.00871798 -0.018350717 0.007419398 -0.013768556 -0.016603263
-0.009221838 -0.0008903539 -0.0020008986 -0.0042954637 -0.001034323 0.0124712065 0.003552172 -0.0064640213
0.009981656 0.0035555745 -0.006267964 -0.0013763922 0.010705462 -0.018961247 0.0013862012 0.015497624
-0.02162293 -0.00056979514 0.02175087 0.014001451 -0.001964069 -0.004027156 0.0054955464 -0.0032118703
-0.0030297113 0.008900897 9.4752395e-05 0.014028205 -0.0043229004 0.004511027 -0.013726518 -0.005391721
-0.009315583 0.0024920392 -0.00047036732 0.0065579307 -0.017838864 0.00016073343 0.014874123 0.004838681
-0.006117945 0.029036595 -0.002997707 -0.0055082846 -0.001963114 0.011794727 0.025674902 -0.012146117
0.012755225 0.0002135878 0.0011752319 -0.011584762 -0.006019022 0.0067614582 -0.018496428 -0.0024627193
0.016600588 0.004797383 -0.007982766 0.006518329 -0.00094888237 -0.011645264 0.021359963 0.0069666384
-0.005455286 -0.004411737 -0.0048438637 0.008629918 0.01159391 -0.006478389 0.011911258 0.0030789971
-0.012583759 -0.0023965044 0.01302805 7.765181e-05 0.015373138 0.0055551054 -0.018751884 -0.0018301713
0.02535916 0.0075702975 0.008100535 0.0011509714 -0.011594823 0.025775868 -0.020624377 -0.005294594
0.0077438722 -0.00033388645 0.009175876 -0.008374457 -0.005377465 -0.0077675553 -0.002154236 -0.006953954
-0.0009505698 0.009532855 0.011838759 0.007865503 0.011820767 -0.0040557827 -0.0057244827 0.004407335
-0.006238194 0.00015842846 0.010091522 -0.0045184894 -0.009388979 -0.002334396 0.011653406 -0.0022225264
0.012250026 0.029837416 0.0050028516 -0.01031463 0.008618375 0.0046512703 0.005608508 -0.004053428
-0.016562602 -0.015785307 0.0012067838 0.00037837843 -0.016132064 0.0015781396 -0.0069802175 -0.0046641063

action_model._discrete_distribution.branches.0.bias f4 [3]
00000000: 5de1 18ba f7a4 2abb ab0d 673b
-0.00058319216 -0.0026038268 0.003525595

exp_avg f4 [128, 35]
00000000: d0e2 dbb6 0000 0000 2b94 e1b6 0000 0000
00000010: 744f 0eb6 c631 54b7 0000 0000 bc4f 24b5
00000020: 0000 0000 38b1 0db6 fd04 d6b6 0000 0000
00000030: 0e66 f9b6 0000 0000 c8e8 34b6 64da 21b7
00000040: 0000 0000 875e fd35 0000 0000 815b 7eb6
00000050: bd27 db35 0000 0000 7231 74b7 0000 0000
00000060: 672a 33b6 bd9c 92b7 0000 0000 dc2c 4837
00000070: 0000 0000 6117 8bb6 31b1 3636 0000 0000
00000080: d52a 72b7 0000 0000 9824 5bb6 b9f5 0335
00000090: 0000 0000 a146 9b36 0000 0000 8809 b434
000000a0: e5b0 e136 0000 0000 3612 9ab5 0000 0000
000000b0: 5a7e d234 91a6 1535 0000 0000 92b5 9536
000000c0: 0000 0000 583c b734 661f a936 0000 0000
000000d0: bcf0 b6b5 0000 0000 b577 be35 bd53 81b6
000000e0: 0000 0000 bdd9 0337 0000 0000 f8fd 1835
000000f0: 5be7 7e37 0000 0000 0d30 cdb7 0000 0000
00000100: 36ad 8836 917e deb6 0000 0000 8d32 2937
00000110: 0000 0000 2032 9d35 f102 1036 0000 0000
00000120: f12c 02b6 0000 0000 a163 5334 3231 f236
00000130: 0000 0000 0d93 eeb6 0000 0000 25e9 fb33
00000140: 7d83 db35 0000 0000 4b82 a9b5 0000 0000
00000150: 0fc5 be34 d6ad 1937 0000 0000 98d6 d6b6
00000160: 0000 0000 0b69 3835 9bfb ccb6 0000 0000
00000170: 9303 9f36 0000 0000 d52c 3935 4580 1b37
00000180: 0000 0000 70f2 c1b7 0000 0000 8bee 4036
00000190: 3e90 f7b6 0000 0000 0332 bd36 0000 0000
000001a0: ade5 8c35 7795 2737 0000 0000 4020 d337
000001b0: 0000 0000 308a 4d36 9fc4 b237 0000 0000
000001c0: 82ad 7437 0000 0000 89f0 5a36 ec80 1337
000001d0: 0000 0000 e131 e537 0000 0000 e45e 8336
000001e0: 35e4 9437 0000 0000 25a8 be36 0000 0000
000001f0: 37de 0437 d7d6 c6b6 0000 0000 be66 2438
00000200: 0000 0000 ee10 9936 8f4e 3f38 0000 0000
00000210: eecb 08b8 0000 0000 8467 2e37 7ec7 52b7
00000220: 0000 0000 9f00 2d38 0000 0000 2c42 d936
00000230: 2829 00b7 0000 0000 a507 f3b5 0000 0000
00000240: d9ae 16b6 1888 71b7 0000 0000 06b4 ac36
00000250: 0000 0000 4b58 feb5 a95a eab6 0000 0000
00000260: 0e83 5ab6 0000 0000 c5af 47b6 2866 5db7
00000270: 0000 0000 c592 a136 0000 0000 b840 51b6
00000280: e15f 7336 0000 0000 9ac9 41b7 0000 0000
00000290: fd0e 54b6 4f2f 81b7 0000 0000 2b4a a137
000002a0: 0000 0000 cd77 9cb6 df1b 8136 0000 0000
000002b0: 3a7d 41b7 0000 0000 24da 73b6 f869 30b7
000002c0: 0000 0000 2574 18b8 0000 0000 2dbe 70b6
000002d0: 328b fcb7 0000 0000 2e0a c4b7 0000 0000
000002e0: 85b6 6db6 8752 49b7 0000 0000 70e7 30b8
000002f0: 0000 0000 cb33 8bb6 d5a6 73b7 0000 0000
00000300: 81aa 21b7 0000 0000 3774 32b7 bd0e a534
00000310: 0000 0000 2718 46b8 0000 0000 b9d8 99b6
00000320: 435b 51b8 0000 0000 8525 9337 0000 0000
00000330: b6d8 34b7 b15f 6137 0000 0000 8e5c 60b8
00000340: 0000 0000 4a50 e2b6 a857 e835 0000 0000
00000350: 3586 d1b7 0000 0000 f031 cd35 8165 23b7
00000360: 0000 0000 170e b0b7 0000 0000 f5aa b235
00000370: c719 6a34 0000 0000 ca95 f8b7 0000 0000
00000380: cf37 0636 a941 ef36 0000 0000 9040 4ab7
00000390: 0000 0000 021a 66b6 0786 53b5 0000 0000
000003a0: ae17 afb7 0000 0000 72d0 ce35 7a4f 96b7
000003b0: 0000 0000 8402 a1b6 0000 0000 c1c7 10b6
000003c0: 398b 4f37 0000 0000 8e5c ebb7 0000 0000
000003d0: 54d3 eb33 09fd dbb6 0000 0000 7b69 88b7
000003e0: 0000 0000 eb3b 4fb6 9b8b 3cb7 0000 0000
000003f0: 6fd8 03b7 0000 0000 322b 70b6 fad8 64b6
-6.553113e-06 0.0 -6.7227716e-06 0.0 -2.1205897e-06 -1.26477735e-05 0.0 -6.121079e-07
0.0 -2.1113792e-06 -6.3782777e-06 0.0 -7.432659e-06 0.0 -2.6957587e-06 -9.647196e-06
0.0 1.887748e-06 0.0 -3.7902212e-06 1.6328337e-06 0.0 -1.4555046e-05 0.0
-2.669776e-06 -1.7477543e-05 0.0 1.1931374e-05 0.0 -4.1452445e-06 2.7223252e-06 0.0
-1.4434297e-05 0.0 -3.2654843e-06 4.9158876e-07 0.0 4.6275823e-06 0.0 3.3534548e-07
6.7261158e-06 0.0 -1.1479194e-06 0.0 3.920748e-07 5.574921e-07 0.0 4.4616836e-06
0.0 3.4130312e-07 5.0402477e-06 0.0 -1.363012e-06 0.0 1.4190942e-06 -3.854248e-06
0.0 7.858905e-06 0.0 5.6993986e-07 1.5193446e-05 0.0 -2.446028e-05 0.0
4.0732803e-06 -6.63085e-06 0.0 1.0084955e-05 0.0 1.1712e-06 2.1459384e-06 0.0
-1.939767e-06 0.0 1.9687151e-07 7.217889e-06 0.0 -7.1100717e-06 0.0 1.1730507e-07
1.635504e-06 0.0 -1.2629401e-06 0.0 3.5533637e-07 9.159985e-06 0.0 -6.402679e-06
0.0 6.86982e-07 -6.1089645e-06 0.0 4.7389854e-06 0.0 6.898311e-07 9.268585e-06
0.0 -2.3120287e-05 0.0 2.874908e-06 -7.3779656e-06 0.0 5.638461e-06 0.0
1.0497657e-06 9.988776e-06 0.0 2.5168178e-05 0.0 3.0627816e-06 2.1310812e-05 0.0
1.4583931e-05 0.0 3.2624541e-06 8.7919e-06 0.0 2.7322154e-05 0.0 3.915151e-06
1.7749242e-05 0.0 5.682016e-06 0.0 7.9195515e-06 -5.9258705e-06 0.0 3.9196333e-05
0.0 4.561726e-06 4.5611112e-05 0.0 -3.261485e-05 0.0 1.039531e-05 -1.2563423e-05
0.0 4.1246993e-05 0.0 6.4748074e-06 -7.638977e-06 0.0 -1.8107136e-06 0.0
-2.2453517e-06 -1.4396406e-05 0.0 5.146957e-06 0.0 -1.8950171e-06 -6.9842977e-06 0.0
-3.2560815e-06 0.0 -2.9755622e-06 -1.3196412e-05 0.0 4.81526e-06 0.0 -3.1181098e-06
3.626563e-06 0.0 -1.15506355e-05 0.0 -3.1599186e-06 -1.5400028e-05 0.0 1.9227233e-05
0.0 -4.663109e-06 3.847744e-06 0.0 -1.1532853e-05 0.0 -3.6336796e-06 -1.051509e-05
0.0 -3.6347792e-05 0.0 -3.5873484e-06 -3.0105559e-05 0.0 -2.3369761e-05 0.0
-3.5421992e-06 -1.19997485e-05 0.0 -4.2177213e-05 0.0 -4.1485523e-06 -1.4522772e-05 0.0
-9.636046e-06 0.0 -1.0636685e-05 3.0744368e-07 0.0 -4.7229372e-05 0.0 -4.584985e-06
-4.9914477e-05 0.0 1.7541237e-05 0.0 -1.0779293e-05 1.3433325e-05 0.0 -5.349196e-05
0.0 -6.7446717e-06 1.7310858e-06 0.0 -2.4977237e-05 0.0 1.5288224e-06 -9.73919e-06
0.0 -2.0987396e-05 0.0 1.3311789e-06 2.1802326e-07 0.0 -2.9633655e-05 0.0
2.000004e-06 7.130399e-06 0.0 -1.205517e-05 0.0 -3.428781e-06 -7.879866e-07 0.0
-2.0872652e-05 0.0 1.5408862e-06 -1.7918403e-05 0.0 -4.7984668e-06 0.0 -2.1573944e-06
1.2370577e-05 0.0 -2.8057282e-05 0.0 1.09814806e-07 -6.5561658e-06 0.0 -1.6261582e-05
0.0 -3.088028e-06 -1.1238178e-05 0.0 -7.858601e-06 0.0 -3.578793e-06 -3.4100945e-06

exp_avg_sq f4 [128, 35]
00000000: 2c17 c12e 0000 0000 8632 8e2f 0000 0000
00000010: fd64 d32c 0bad f82e 0000 0000 3409 612f
00000020: 0000 0000 b9ee 082d 91b8 8d2e 0000 0000
00000030: ad35 a12f 0000 0000 ef3e d62c 5ed9 4d2f
00000040: 0000 0000 77e3 ed2e 0000 0000 fa51 912d
00000050: f154 5b2d 0000 0000 52a4 cb2f 0000 0000
00000060: f792 072d 3992 922f 0000 0000 9411 642e
00000070: 0000 0000 c1bf 892d 2890 7b2e 0000 0000
00000080: 013e c32f 0000 0000 aaea 352d de75 232c
00000090: 0000 0000 84cf 6a2f 0000 0000 d37c 942b
000000a0: 7d62 7b2d 0000 0000 8972 6d2f 0000 0000
000000b0: 74ef e02b 77bf fe2b 0000 0000 2413 732f
000000c0: 0000 0000 e22f 992b ddef 342e 0000 0000
000000d0: 91e3 412f 0000 0000 d7e8 962c cb4b ce2c
000000e0: 0000 0000 b38e 662f 0000 0000 a39e c02b
000000f0: 6362 c62e 0000 0000 3782 dc2e 0000 0000
00000100: 9430 042d d4a5 b12d 0000 0000 e2a7 692f
00000110: 0000 0000 19ac 3e2c 6ec4 452c 0000 0000
00000120: c43d 122f 0000 0000 2903 1c2c 1719 542d
00000130: 0000 0000 f7a2 0e2f 0000 0000 b903 432c
00000140: 1ae1 902c 0000 0000 faf2 0f2f 0000 0000
00000150: c973 1d2c 0e4d 312e 0000 0000 43d5 d12e
00000160: 0000 0000 3ea8 a72c c474 852d 0000 0000
00000170: a32c 052f 0000 0000 e5f5 212c 2e14 922e
00000180: 0000 0000 08c4 9b2e 0000 0000 13da b92c
00000190: 49e1 202e 0000 0000 c855 062f 0000 0000
000001a0: cfbb 592c d848 242f 0000 0000 6c32 8a30
000001b0: 0000 0000 7287 712d cd8d 312f 0000 0000
000001c0: cdc1 8530 0000 0000 0da2 ab2d 153e e42e
000001d0: 0000 0000 0fc5 9930 0000 0000 5ca8 702d
000001e0: 9d5c 0e30 0000 0000 4075 1c30 0000 0000
000001f0: 0c61 312e 9a75 832e 0000 0000 5bfc a330
00000200: 0000 0000 322d 982d 6b62 4f30 0000 0000
00000210: af90 b92f 0000 0000 f2ce 4d2e 2b99 342f
00000220: 0000 0000 cacd a030 0000 0000 6309 dc2d
00000230: ee6b c72d 0000 0000 6376 182f 0000 0000
00000240: b4bd c42c b763 522e 0000 0000 6a8d 022f
00000250: 0000 0000 b487 e02c 2dd5 e32d 0000 0000
00000260: 8ffd 112f 0000 0000 dc03 b72c 3ccd b02e
00000270: 0000 0000 860b ab2e 0000 0000 3d80 0a2d
00000280: 9146 d12d 0000 0000 c10a 132f 0000 0000
00000290: 715f ab2c eeb3 e22e 0000 0000 3be1 b22e
000002a0: 0000 0000 bca9 0b2d 5eee 522e 0000 0000
000002b0: be1b 142f 0000 0000 ac10 c82c 955c bb2e
000002c0: 0000 0000 9142 4230 0000 0000 a643 832d
000002d0: a6db 5f2f 0000 0000 7338 2a30 0000 0000
000002e0: 0621 962d ce64 bf2e 0000 0000 7fef 5330
000002f0: 0000 0000 4956 622d 5065 e02f 0000 0000
00000300: 14ac 582f 0000 0000 28c8 0a2e 8579 172e
00000310: 0000 0000 d574 6630 0000 0000 712a 8c2d
00000320: cba5 1e30 0000 0000 accf 442f 0000 0000
00000330: 1024 0f2e 56ae c12e 0000 0000 f454 5030
00000340: 0000 0000 f238 cf2d 230c 872f 0000 0000
00000350: a152 5f30 0000 0000 0e6b 062e 854f 9a2f
00000360: 0000 0000 7a8b 3d30 0000 0000 dfb1 362e
00000370: 7c14 6e2f 0000 0000 8857 7530 0000 0000
00000380: be61 fa2d 9c09 2b30 0000 0000 6942 822f
00000390: 0000 0000 e8ba 672e c92a b22e 0000 0000
000003a0: c5ce 9930 0000 0000 e0c0 0f2e 3fb3 5030
000003b0: 0000 0000 d393 422f 0000 0000 30b5 6d2e
000003c0: 748a 5e2f 0000 0000 7caa 8c30 0000 0000
000003d0: c437 322e 17a9 632f 0000 0000 88a7 3230
000003e0: 0000 0000 8b13 b52d 98ab 902f 0000 0000
000003f0: 0495 0e30 0000 0000 a7f4 dc2d 82bf 712f
8.78074e-11 0.0 2.5865549e-10 0.0 6.0081926e-12 1.1308473e-10 0.0 2.04669e-10
0.0 7.783712e-12 6.444723e-11 0.0 2.9323868e-10 0.0 6.089233e-12 1.8721866e-10
0.0 1.0817918e-10 0.0 1.6520996e-11 1.24675695e-11 0.0 3.7042241e-10 0.0
7.706494e-12 2.6661143e-10 0.0 5.185681e-11 0.0 1.5660253e-11 5.719883e-11 0.0
3.551435e-10 0.0 1.0340765e-11 2.3229123e-12 0.0 2.13559e-10 0.0 1.0550678e-12
1.4289567e-11 0.0 2.1595715e-10 0.0 1.5982619e-12 1.8100928e-12 0.0 2.2107521e-10
0.0 1.0884594e-12 4.1140303e-11 0.0 1.7634096e-10 0.0 4.289107e-12 5.863287e-12
0.0 2.0969075e-10 0.0 1.3686451e-12 9.0214745e-11 0.0 1.00275725e-10 0.0
7.514118e-12 2.0196213e-11 0.0 2.125087e-10 0.0 2.7096157e-12 2.8104424e-12 0.0
1.3300566e-10 0.0 2.2170688e-12 1.2056376e-11 0.0 1.2972722e-10 0.0 2.7713233e-12
4.1177175e-12 0.0 1.3092097e-10 0.0 2.2375316e-12 4.031358e-11 0.0 9.5421025e-11
0.0 4.765104e-12 1.5172204e-11 0.0 1.2112138e-10 0.0 2.3015975e-12 6.642896e-11
0.0 7.083406e-11 0.0 5.2822273e-12 3.657988e-11 0.0 1.2217705e-10 0.0
3.094181e-12 1.4941592e-10 0.0 1.0055152e-09 0.0 1.3729339e-11 1.6148434e-10 0.0
9.732105e-10 0.0 1.9512414e-11 1.03792676e-10 0.0 1.1188223e-09 0.0 1.3679804e-11
5.179091e-10 0.0 5.691909e-10 0.0 4.0331335e-11 5.9780805e-11 0.0 1.1931535e-09
0.0 1.730047e-11 7.544602e-10 0.0 3.3754108e-10 0.0 4.6795408e-11 1.6425321e-10
0.0 1.1700021e-09 0.0 2.5015273e-11 2.2671611e-11 0.0 1.3866379e-10 0.0
5.5917163e-12 4.7837036e-11 0.0 1.1873671e-10 0.0 6.381529e-12 2.5901581e-11 0.0
1.3277755e-10 0.0 5.2016013e-12 8.04001e-11 0.0 7.778227e-11 0.0 7.872866e-12
2.3791887e-11 0.0 1.3373393e-10 0.0 4.8707084e-12 1.0309252e-10 0.0 8.134512e-11
0.0 7.938924e-12 4.7960184e-11 0.0 1.3470378e-10 0.0 5.686193e-12 8.520221e-11
0.0 7.0671385e-10 0.0 1.4923018e-11 2.0359767e-10 0.0 6.192586e-10 0.0
1.7067691e-11 8.703581e-11 0.0 7.71017e-10 0.0 1.2865772e-11 4.081735e-10 0.0
1.970622e-10 0.0 3.155534e-11 3.4441356e-11 0.0 8.383954e-10 0.0 1.5935005e-11
5.771567e-10 0.0 1.7899876e-10 0.0 3.2546466e-11 8.807592e-11 0.0 7.5790685e-10
0.0 2.3558464e-11 2.456498e-10 0.0 8.124435e-10 0.0 3.0563156e-11 2.806894e-10
0.0 6.895601e-10 0.0 4.153999e-11 2.1653251e-10 0.0 8.925487e-10 0.0
2.8465116e-11 6.2223093e-10 0.0 2.369405e-10 0.0 5.2689325e-11 8.102103e-11 0.0
1.1190983e-09 0.0 3.2685743e-11 7.5924683e-10 0.0 1.7696715e-10 0.0 5.4048488e-11
2.0239971e-10 0.0 1.0234795e-09 0.0 4.0522044e-11 2.0705603e-10 0.0 6.49941e-10
0.0 2.0585996e-11 2.6315372e-10 0.0 5.1871063e-10 0.0 2.5119752e-11 2.198686e-10

exp_avg f4 [128]
00000000: 0c8c 5fb7 042b 9a36 4638 0eb5 bd63 0b38
00000010: d1b9 1fb7 74e5 3ab8 0bea 97b7 0301 bbb7
00000020: 9d72 46b8 b43c ef37 2811 59b8 24b2 2f36
00000030: f6e4 c636 6388 5137 43ff 80b7 a4d1 4037
00000040: 274f a136 999d 05b8 f1c2 d936 81ed 03b9
00000050: af6c 0135 5d76 26b5 d3e9 2f36 8757 1436
00000060: cc47 3338 4655 c537 b5fd 88b8 6a4b 2037
00000070: 45fd bcb7 0e20 9eb8 a928 e535 afa9 01b6
00000080: b537 5237 9c8c 57b8 3051 0838 99ae ffb6
00000090: c050 80b7 1345 a238 cf71 14b8 18a2 6bb7
000000a0: 4479 36b7 2c38 e3b5 2dc2 03b8 166b 9ab8
000000b0: 2fdb 0938 40cc 9637 b6d6 b635 b5a4 66b7
000000c0: 275d 9bb8 7f02 0436 94cc f336 55ec e6b7
000000d0: 11f8 4836 dc3b f7b7 7e12 ea36 8b05 deb6
000000e0: 3310 4136 9d52 00b8 8db8 55b8 6225 b6b7
000000f0: f81b ab37 ac33 d8b6 5e87 b5b7 3544 9cb6
00000100: 2dd6 bbb6 00d4 97b7 891d 3ab7 5c7f 5137
00000110: 8b29 a7b8 8dee 8237 e5f5 1f38 9d97 f0b7
00000120: 9a98 f9b5 95ba bd36 8a13 5db8 6ec8 e335
00000130: 1497 6b37 1ee0 94b6 60f9 c037 ea69 9a36
00000140: 4bc9 e3b6 13ef 83b7 3cad 6db8 39c7 d337
00000150: 8da0 dbb7 4b10 1938 935a 49b8 2823 9037
00000160: 33f3 d136 2e67 7938 6d97 6437 1482 cfb6
00000170: 91cd 9ab7 c6a4 1938 df7c 45b7 3f19 99b7
00000180: da2e 5c35 ecac bcb7 34be 5738 5f07 4337
00000190: 4d57 b536 aec8 9837 3d65 20b7 c2ec 4b38
000001a0: 5d88 8937 5190 c3b8 177a b236 1453 0238
000001b0: 8c21 5736 a637 9eb8 3297 9c37 8574 5937
000001c0: 3a62 c2b6 6788 53b7 def6 f337 9479 5f37
000001d0: 5f7b dc36 21e6 02b8 dcff 32b5 ff4d adb6
000001e0: 87c1 4237 1e13 8a36 93d9 53b8 345b 4f36
000001f0: f0dd c2b7 2b5e e9b7 58fd f137 4b01 58b7
-1.3324443e-05 4.5945653e-06 -5.298101e-07 3.323307e-05 -9.520402e-06 -4.455955e-05 -1.8109587e-05 -2.2292608e-05
-4.731362e-05 2.8519287e-05 -5.175281e-05 2.6180724e-06 5.9275144e-06 1.2489126e-05 -1.5377655e-05 1.1492903e-05
4.8073884e-06 -3.1856445e-05 6.489798e-06 -0.0001258161 4.82144e-07 -6.201206e-07 2.6213136e-06 2.2104666e-06
4.274379e-05 2.3523939e-05 -6.532242e-05 9.554302e-06 -2.2529284e-05 -7.539998e-05 1.7073663e-06 -1.9321267e-06
1.2529946e-05 -5.1390947e-05 3.250054e-05 -7.619918e-06 -1.5296391e-05 7.737628e-05 -3.5391942e-05 -1.4044832e-05
-1.087628e-05 -1.6929166e-06 -3.1413674e-05 -7.3632385e-05 3.2867476e-05 1.7976505e-05 1.3622546e-06 -1.3747417e-05
-7.408327e-05 1.9670986e-06 7.2657804e-06 -2.7528187e-05 2.9946716e-06 -2.9472569e-05 6.975896e-06 -6.616761e-06
2.876867e-06 -3.0594518e-05 -5.0955034e-05 -2.1713498e-05 2.0397812e-05 -6.443317e-06 -2.1639917e-05 -4.6571026e-06
-5.5979676e-06 -1.8099323e-05 -1.1093341e-05 1.2487024e-05 -7.9709185e-05 1.5608292e-05 3.813756e-05 -2.868083e-05
-1.8596359e-06 5.65436e-06 -5.2708703e-05 1.6971151e-06 1.4042267e-05 -4.4368344e-06 2.3004308e-05 4.6018877e-06
-6.7885608e-06 -1.5727745e-05 -5.666654e-05 2.524593e-05 -2.6181597e-05 3.6493217e-05 -4.800649e-05 1.7182509e-05
6.2569975e-06 5.946232e-05 1.3625116e-05 -6.184224e-06 -1.8453955e-05 3.66315e-05 -1.1771189e-05 -1.8250777e-05
8.2024565e-07 -2.249187e-05 5.1437135e-05 1.1624622e-05 5.4043835e-06 1.821326e-05 -9.5603145e-06 4.861947e-05
1.6395172e-05 -9.3252056e-05 5.3190265e-06 3.1071788e-05 3.2057023e-06 -7.5443924e-05 1.8667055e-05 1.2961337e-05
-5.7930856e-06 -1.2608339e-05 2.9082814e-05 1.3320143e-05 6.570873e-06 -3.120874e-05 -6.668249e-07 -5.1648817e-06
1.160836e-05 4.114946e-06 -5.0508952e-05 3.089849e-06 -2.322995e-05 -2.7819615e-05 2.8847411e-05 -1.2874904e-05

exp_avg_sq f4 [128]
00000000: b338 d62f e186 762f b4d4 1b2f 0c44 af30
00000010: c688 422f fcf0 7230 4596 a930 7b20 8330
00000020: 4b58 a130 7143 5a30 7f39 1c31 6253 b02e
00000030: ffe3 972e bd83 b32f db73 eb2f c430 1330
00000040: 22d1 4130 5ca0 6231 7563 1930 85ab 1e32
00000050: b0ef 8730 fc75 b72e 8872 9830 ed6e a430
00000060: 6187 4631 b727 6d30 12f9 6431 c999 502f
00000070: ed19 c230 dea5 3031 5f8c e42e bfea 5e30
00000080: bf7c 6b30 0ebc ad30 9c89 3130 2100 592f
00000090: e787 cb2f 8fa0 ab31 5755 fc30 2bfa 6230
000000a0: 5c06 af30 0c3d 512f a125 3630 6797 9e31
000000b0: e5e0 8830 a3e0 6d2f 386f 3730 9931 2b30
000000c0: e030 0231 2b5a 522e 9558 2331 20bc fe30
000000d0: cb32 1330 8c9e d930 2db4 522f a1a2 8a30
000000e0: a522 3a2f 842c 2c30 d9f8 8d30 0742 942f
000000f0: 54b2 e52f dd4b 2530 ff06 8330 8030 a22e
00000100: 899c e52e a1be 7430 f5e4 022f edae 912f
00000110: 16ac 3931 0c6c 1430 f3f5 1531 a4a3 3e31
00000120: d71f 992e b773 622f c532 4430 10ad 4030
00000130: 1415 2e30 3c20 1d31 433a 3430 35d0 2a2e
00000140: 6dc6 7b2f 5bdd 402f f95b 3c31 155b 0031
00000150: 15f5 9630 0ce0 5530 8556 9430 2b9c 1c30
00000160: b38a 312f 61b1 c231 4c30 cd31 10d6 a52f
00000170: 60ca b22f 6ab4 9c30 e03d e530 c280 1f30
00000180: bbca e42e fc38 862f 3516 5331 e463 5530
00000190: 766b 162e 9221 902f 9516 e92f d1e6 2931
000001a0: 78a6 712f b053 5331 4125 872f 5851 a531
000001b0: dd2b 6d30 6337 4e31 5570 2630 3acf ae2f
000001c0: b7ca 5a30 bdf4 1931 1887 1931 e72e 622f
000001d0: 3e5b 092f fd1d eb2f c503 c32e 76cc c32f
000001e0: db0d a92e 5d91 052e 6f6d bd30 5f30 8c2f
000001f0: 99ec 6530 dee3 8230 8fff 6231 700c 312f
3.896666e-10 2.2421488e-10 1.4172735e-10 1.2752266e-09 1.7692789e-10 8.8381547e-10 1.2339078e-09 9.540736e-10
1.1739386e-09 7.940378e-10 2.273367e-09 8.018365e-11 6.907185e-11 3.2653516e-10 4.282857e-10 5.354759e-10
7.0510187e-10 3.2978482e-09 5.580241e-10 9.2358095e-09 9.890666e-10 8.342835e-11 1.1092007e-09 1.1964097e-09
2.8889746e-09 8.6276536e-10 3.3319947e-09 1.8972125e-10 1.4122726e-09 2.5705655e-09 1.03931745e-10 8.1096724e-10
8.5669777e-10 1.2640855e-09 6.458778e-10 1.9736081e-10 3.702205e-10 4.9950084e-09 1.8359668e-09 8.257383e-10
1.2734733e-09 1.9030127e-10 6.626469e-10 4.6156177e-09 9.959221e-10 2.1634831e-10 6.6733064e-10 6.227992e-10
1.8945272e-09 4.7828557e-11 2.3769975e-09 1.8534401e-09 5.355047e-10 1.583389e-09 1.91634e-10 1.0087043e-09
1.692891e-10 6.2636496e-10 1.0329827e-09 2.6967958e-10 4.1781567e-10 6.013446e-10 9.533493e-10 7.3755224e-11
1.04415206e-10 8.9037583e-10 1.1904773e-10 2.6499639e-10 2.7018863e-09 5.399563e-10 2.182216e-09 2.7741658e-09
6.9632904e-11 2.059569e-10 7.137653e-10 7.009513e-10 6.3330785e-10 2.286483e-09 6.5566413e-10 3.883845e-11
2.2898812e-10 1.754094e-10 2.740988e-09 1.8678226e-09 1.0983593e-09 7.780734e-10 1.0793008e-09 5.69744e-10
1.6147332e-10 5.6663088e-09 5.971776e-09 3.0165426e-10 3.2521807e-10 1.1401771e-09 1.6679529e-09 5.802684e-10
1.0404252e-10 2.4414948e-10 3.0717164e-09 7.76309e-10 3.4201496e-11 2.62173e-10 4.2398499e-10 2.472394e-09
2.1977964e-10 3.0752112e-09 2.4582827e-10 4.8113797e-09 8.628243e-10 3.000843e-09 6.055008e-10 3.179766e-10
7.9596013e-10 2.2403548e-09 2.2341222e-09 2.0571243e-10 1.2492493e-10 4.276756e-10 8.868243e-11 3.5615572e-10
7.6876915e-11 3.0369807e-11 1.3782663e-09 2.550022e-10 8.364594e-10 9.523509e-10 3.3032597e-09 1.6102475e-10
