results/ppo/MoveToGoal/MoveToGoal-3598.onnx (onnx, 73881 bytes, 9 tensors)

action_model._continuous_distribution.log_sigma f4 [1, 2]
0	0x00000000	0.0
1	0x00000000	0.0

action_model._continuous_distribution.mu.bias f4 [2]
0	0x00000000	0.0
1	0x00000000	0.0

action_model._continuous_distribution.mu.weight f4 [2, 128]
0	0xbc120701	-0.008912803
1	0xbc546658	-0.012963854
2	0xbcac0312	-0.020997558
3	0x3ce1130b	0.0274749
4	0xbd214592	-0.039372988
5	0xbd01fad3	-0.031733345
6	0xbc3baae3	-0.011454317
7	0x3c747dad	0.014922542
8	0x3be6af38	0.0070399307
9	0x3b90cf77	0.004419263
10	0x3c26e959	0.01018747
11	0xbcfa7e03	-0.030577665
12	0xbcac88ec	-0.021061383
13	0xbc484f8c	-0.012225997
14	0xbcc81d43	-0.024428016
15	0x3ccca723	0.02498204
16	0x378a13e9	1.6460153e-05
17	0xbc5e7f8f	-0.013580217
18	0xbd07e37a	-0.033175923
19	0xbbb0a073	-0.005390221
20	0xbc424560	-0.011857361
21	0xbb6efec2	-0.0036467765
22	0xbc98a9e6	-0.018635701
23	0x3c8ac119	0.01693778
24	0x3b470e92	0.0030373675
25	0x3bc6d823	0.006068246
26	0x3b116d5d	0.002219043
27	0x3c8bf078	0.017082438
28	0xbbf0c557	-0.0073477435
29	0x3b8f7889	0.0043783826
30	0xbb4e2bf8	-0.0031459313
31	0xbc120d4d	-0.008914304
32	0xbbcd8ef2	-0.006273144
33	0xbbd65347	-0.006540689
34	0xbb76d3b7	-0.0037662813
35	0xbcfe8aba	-0.03107201
36	0x3c1399da	0.009008849
37	0xbcb49b97	-0.022046847
38	0xba6ddc35	-0.0009073646
39	0xbc058da0	-0.008151442
40	0x3d18a9b5	0.03727122
41	0x3b65e55f	0.0035079343
42	0xbc2bc080	-0.010482907
43	0xbc1ed14a	-0.009693453
44	0xbbfd176f	-0.007723741
45	0xbc6a2e8f	-0.014293327
46	0xbba5390a	-0.0050422
47	0x3cc5e30b	0.024156114
48	0xbb4ed410	-0.0031559505
49	0xbc08f122	-0.008358272
50	0xbc63058a	-0.013856301
51	0xbab60fcf	-0.0013890209
52	0xbc2ee23b	-0.010674055
53	0xbcd7bd02	-0.026335243
54	0x3c433c8f	0.011916294
55	0xbc9c32d3	-0.019067204
56	0x3c01d04b	0.007923196
57	0xbaa1ba64	-0.0012338874
58	0xba00f947	-0.0004919958
59	0xbc77a453	-0.015114862
60	0x3cb60c27	0.022222592
61	0x3be665cf	0.0070311795
62	0xbc8e0bb4	-0.017339565
63	0xbc3d37a6	-0.011548912
64	0x3c02db5e	0.0079868715
65	0x3cbf4997	0.02335052
66	0xba1ffec9	-0.00061033346
67	0x39efced0	0.0004573972
68	0xbb519035	-0.0031976823
69	0x3b05c2e6	0.0020410358
70	0x3bc8fc51	0.006133594
71	0xbce84825	-0.028354714
72	0x3cb80784	0.022464521
73	0xbc15df34	-0.009147454
74	0xbcfdcf5d	-0.030982668
75	0x3bb40205	0.005493405
76	0x39bc7a42	0.00035949243
77	0xbd060c9e	-0.032726876
78	0x3cf70d1f	0.030157624
79	0xbc702662	-0.014657589
80	0xbbea0340	-0.0071415007
81	0xbc88c546	-0.01669563
82	0xbc8b83c3	-0.017030602
83	0x3c9acd8f	0.018896846
84	0xbc3cb78b	-0.011518369
85	0xbbec0913	-0.00720323
86	0xbc30f7dd	-0.010801283
87	0x3cd3b237	0.025841815
88	0xbb9582d5	-0.0045627155
89	0xbc1e69ff	-0.009668826
90	0x3cdb1e6a	0.026747901
91	0x3c6fdad7	0.014639578
92	0xbc2dbf9f	-0.010604768
93	0x3cfe4fa7	0.03104384
94	0xbb21e0ca	-0.0024700635
95	0x3c9c0b33	0.019048309
96	0x3c0e26b0	0.008676216
97	0xbc21ca7b	-0.009874935
98	0x3ab1bdd6	0.0013560604
99	0xbbcf0a95	-0.0063184
100	0x3c95976c	0.01826068
101	0xbcb10c0d	-0.021612192
102	0x3c2c0205	0.010498528
103	0x3b19b65f	0.002345465
104	0xbbfa008f	-0.007629461
105	0x3cf0930b	0.02936699
106	0xbbd03790	-0.00635428
107	0xbc720dab	-0.0147737665
108	0xbc42a13e	-0.011879263
109	0xbc8cb26f	-0.017174928
110	0xbc1bd670	-0.009511575
111	0x3b8eae01	0.004354239
112	0xbc4796e2	-0.012181969
113	0x3abce40b	0.0014411224
114	0xbc587b25	-0.013212954
115	0xbbf40980	-0.0074474216
116	0xbc612ad7	-0.013743124
117	0xbcce29ff	-0.02516651
118	0xbcdbf79a	-0.026851464
119	0xbc7fef4a	-0.015621016
120	0x3bff7a48	0.0077965595
121	0x3d2bc363	0.041934382
122	0x3b5c552b	0.00336201
123	0xbc8c2fab	-0.017112574
124	0xbab38317	-0.0013695684
125	0x3d04a98e	0.032388262
126	0xbd012fc1	-0.031539682
127	0x3c11afbb	0.008891995
128	0x3c9c1942	0.019055013
129	0x3ca4ca7b	0.020116081
130	0xbc871b21	-0.016492428
131	0x3b6e5655	0.0036367376
132	0x3c67bac3	0.014143649
133	0xbb2c9c45	-0.002633826
134	0x3c28c723	0.010301384
135	0xbc1bedf6	-0.0095171835
136	0xba5adf65	-0.00083493284
137	0xbca06bd7	-0.019582672
138	0xbcd1eb38	-0.025624856
139	0x3cf6976f	0.030101506
140	0x3d02b1a5	0.031907696
141	0x3c38797d	0.011259434
142	0xbc35d205	-0.011097436
143	0x3bdf5b00	0.006816268
144	0x3be0ed75	0.0068642446
145	0xbc24e959	-0.0100654
146	0xbcbfb698	-0.023402497
147	0xbc783fe2	-0.01515195
148	0x3bc8ad5d	0.006124182
149	0xbbb2b764	-0.005453991
150	0x3cc48aed	0.023992026
151	0xbc057046	-0.008144444
152	0x3c9f40c9	0.019440072
153	0xbcd9f528	-0.026606157
154	0xbc5cde4a	-0.013480732
155	0xbb3bd90b	-0.0028663303
156	0xbbc970a6	-0.006147462
157	0xbc58c63b	-0.013230856
158	0xbd1accb4	-0.037792876
159	0xbcaade87	-0.020858062
160	0xbc6286f5	-0.013826122
161	0x3ccd208b	0.025039932
162	0xbb864f41	-0.0040988033
163	0xba36cb83	-0.00069730746
164	0x3c6b2fd5	0.014354666
165	0x3c34b6ac	0.0110298805
166	0x3a34b575	0.0006893494
167	0x3c33ebe4	0.010981534
168	0x3bec1ff7	0.007205959
169	0x3bc7ecb3	0.006101215
170	0x3c5793b0	0.01315777
171	0xbcbea8e3	-0.02327389
172	0xbc8356a2	-0.01603252
173	0x3c2a5b62	0.010397764
174	0xbc82c661	-0.015963735
175	0x3c0188ac	0.00790612
176	0x3ada2f1d	0.0016646121
177	0xbc494397	-0.012284181
178	0xbcb20849	-0.021732466
179	0x3d263774	0.040580228
180	0xbb08e97f	-0.0020891128
181	0x3b5588e8	0.0032582823
182	0xbc5c243f	-0.013436376
183	0x3c838ed1	0.016059311
184	0x3c84fcff	0.01623392
185	0x3bb0b9d2	0.0053932453
186	0xbc719667	-0.014745331
187	0xbc42d4f2	-0.01189159
188	0xbae6784f	-0.0017583462
189	0x3c229b1f	0.009924679
190	0x3c5cb243	0.013470235
191	0x3c342057	0.010994039
192	0xbba85309	-0.0051368517
193	0xbc6b63dd	-0.014367071
194	0xbcd631e3	-0.026146835
195	0xbcc8c2bf	-0.024506925
196	0x3c310dd4	0.01080652
197	0xbceec1f7	-0.029145224
198	0x3b69c34d	0.0035669387
199	0x3c208811	0.009798066
200	0x3b6aee07	0.0035847442
201	0x3d45eb5b	0.048320156
202	0x3ad85e55	0.0016507605
203	0x3be44852	0.006966629
204	0xbc0b6b2a	-0.008509437
205	0xbc45296b	-0.012033801
206	0x3bb772ed	0.005598417
207	0x3bde8e78	0.006791886
208	0xbc821092	-0.015877042
209	0x3ce4b96b	0.027920445
210	0xbbf382f3	-0.007431382
211	0xbc835355	-0.016030947
212	0xbbe01688	-0.0068386234
213	0x3d3083ca	0.043094434
214	0x3b311292	0.0027019125
215	0xbc76f6f2	-0.015073525
216	0x3a02c7ff	0.0004988908
217	0xbbfdfa10	-0.007750757
218	0xbac37407	-0.0014911898
219	0x3c30de97	0.010795257
220	0xbcb2e2e7	-0.021836711
221	0xbcbbb727	-0.022914482
222	0xbb44f1fb	-0.0030051458
223	0x3c999dd3	0.018752014
224	0x3c8410f4	0.016121365
225	0xbce00767	-0.02734728
226	0xbd3162a0	-0.043306947
227	0xbba56639	-0.0050475863
228	0xbc95f2d2	-0.018304262
229	0xbb414a8e	-0.00294939
230	0x3b0345e3	0.002003067
231	0xbc5896ab	-0.013219516
232	0xbb77a7eb	-0.0037789296
233	0x3ca2c6ef	0.01987025
234	0x3cf76788	0.030200735
235	0xbcccf4ca	-0.025019068
236	0xbba3e2ca	-0.0050014006
237	0xbc4d5d30	-0.012534425
238	0x3c4ed33d	0.012623605
239	0xbc699caa	-0.014258543
240	0xbca640bf	-0.020294545
241	0x3c6926b5	0.01423042
242	0xbc987095	-0.01860837
243	0xbcab09c7	-0.020878686
244	0xbc97bcdb	-0.01852267
245	0xba9cbd06	-0.0011958189
246	0x3c68196f	0.01416622
247	0xbc083497	-0.00831332
248	0x3d265fa2	0.040618546
249	0x3ad743db	0.0016423421
250	0x3bc8beb4	0.006126249
251	0xbb76699b	-0.0037599567
252	0x39926033	0.00027918964
253	0x3ce6173d	0.028087253
254	0x3c1126ef	0.00885938
255	0x3ae6a383	0.0017596338

action_model._discrete_distribution.branches.0.bias f4 [5]
0	0x00000000	0.0
1	0x00000000	0.0
2	0x00000000	0.0
3	0x00000000	0.0
4	0x00000000	0.0

action_model._discrete_distribution.branches.0.weight f4 [5, 128]
0	0xbb049079	-0.0020227714
1	0xbbf0c403	-0.007347585
2	0xb95502b8	-0.00020314276
3	0xbb2f0fac	-0.0026712222
4	0x3b2b37f2	0.0026125875
5	0xbc32cc8a	-0.010913024
6	0x3c399b87	0.0113285845
7	0xbc3f74f6	-0.0116856005
8	0x3b9ef2d3	0.0048507242
9	0x3c10a6b8	0.008828811
10	0x3b5a2b57	0.0033289993
11	0xbb59527d	-0.003316074
12	0xbbe66a9a	-0.007031751
13	0x3c7d09e7	0.015444255
14	0x3b1e9107	0.002419533
15	0x3cc3f21b	0.023919156
16	0xbbee8bff	-0.0072798724
17	0xb74eec13	-1.2333522e-05
18	0x3c3ce0f1	0.01152824
19	0xbc2f597c	-0.010702487
20	0xbcb36ba7	-0.021901919
21	0x3bb47e04	0.0055081863
22	0xbc827e80	-0.01592946
23	0x3b24fd43	0.002517537
24	0xbb6a351f	-0.003573723
25	0xbc6fb7c0	-0.014631212
26	0xbc19098f	-0.009340658
27	0xbaf6907a	-0.0018811368
28	0xbc87b327	-0.016564919
29	0xbc15d0d8	-0.0091440305
30	0xbb0dd160	-0.002163969
31	0x3a2ef22d	0.000667366
32	0xbb434148	-0.002979355
33	0x3b1729f3	0.0023065775
34	0xbc116da7	-0.008876241
35	0x3aa6a380	0.0012713522
36	0x3c8dc8ff	0.017307756
37	0xbbde72db	-0.006788594
38	0x3c5c0c98	0.013430737
39	0x3c3365fc	0.010949608
40	0x3bb27fcc	0.0054473635
41	0xbb6dd79a	-0.0036291839
42	0x3c3a6547	0.011376685
43	0xbac88c92	-0.0015300682
44	0xbbad38e6	-0.005286324
45	0xbb85abef	-0.004079334
46	0x3bc03645	0.0058658444
47	0x3aa2d01d	0.0012421642
48	0xbb8c81c2	-0.0042879293
49	0x3c2b6bb4	0.01046269
50	0xba8e342e	-0.0010849291
51	0xbb21b020	-0.002467163
52	0xbbb4f153	-0.005521932
53	0x3af4bbbf	0.0018671675
54	0x3c7a0128	0.015259065
55	0x3ba65d9c	0.005077077
56	0xbb52df22	-0.0032176455
57	0xbaf6bc58	-0.0018824441
58	0xbc549628	-0.012975253
59	0xbbe85f2a	-0.0070914226
60	0xbba7293c	-0.005101351
61	0x3c935563	0.017985051
62	0xbb9987b1	-0.004685365
63	0x3c40283c	0.011728343
64	0xbb9a51e8	-0.004709471
65	0x3b36baeb	0.0027882408
66	0x3b6942da	0.0035592825
67	0x3c3ca071	0.011512862
68	0xbb97da9c	-0.0046342146
69	0xba37ab2a	-0.00070064014
70	0x3c50344f	0.012707784
71	0xbbfce9e7	-0.007718313
72	0x3aa311bd	0.00124412
73	0xbbcaf5c3	-0.006193848
74	0xbbde427b	-0.0067828274
75	0xbb229100	-0.0024805665
76	0xbbb51741	-0.0055264537
77	0x3b2c375e	0.0026278119
78	0x3a8b7262	0.0010638947
79	0xbbddee13	-0.0067727654
80	0x3c2ba53f	0.010476409
81	0xbc6c4de8	-0.014422871
82	0xbb121958	-0.0022292938
83	0x3b947992	0.004531094
84	0x3bf7a16d	0.0075570852
85	0xbc8f9334	-0.017526247
86	0xbb57dbfa	-0.0032937513
87	0xbcce620f	-0.025193242
88	0xbc717823	-0.0147381155
89	0x3be8a087	0.0070992145
90	0xbc5d8b8a	-0.013522038
91	0xbc85b1b1	-0.016320081
92	0x3c455373	0.012043822
93	0xbc6ea403	-0.014565471
94	0xb9216543	-0.0001539188
95	0xbb755fe2	-0.0037441184
96	0xba7119e0	-0.0009197276
97	0x3a52de9d	0.0008044036
98	0xbbc346ab	-0.005959352
99	0xbc197ba6	-0.009367859
100	0x3a20404c	0.00061130966
101	0x3c54a33b	0.01297837
102	0xbbc7aa7f	-0.0060933228
103	0xbae50948	-0.001747408
104	0xbc5ef98d	-0.013609302
105	0x3bbf7517	0.0058428156
106	0x3c8d7633	0.017268276
107	0x3c5988d7	0.013277254
108	0xb9cfdd00	-0.00039646775
109	0xbbdba095	-0.0067024925
110	0x3cb3e52b	0.021959862
111	0x3bde6663	0.006787108
112	0x3c253a03	0.010084632
113	0xba6c610d	-0.0009017147
114	0x3b2231b1	0.0024748857
115	0x3cb8d474	0.022562243
116	0x3c8ca31f	0.017167626
117	0xbc6c1f43	-0.01441175
118	0x3c0c0bef	0.008547767
119	0xbc5c3282	-0.013439776
120	0x3c091e54	0.008369047
121	0xbc88f8c7	-0.016720189
122	0xbbd67982	-0.0065452466
123	0x3a9efc3a	0.0012129613
124	0xbbaffe9b	-0.0053709275
125	0x3bd992e8	0.006639827
126	0xbc2143f3	-0.0098428605
127	0xbbaa6be7	-0.0052008512
128	0xbb7ef5ff	-0.003890395
129	0x3c64bf7d	0.01396167
130	0x3c2d721e	0.01058629
131	0xbbd68f08	-0.0065478124
132	0xbc575417	-0.013142607
133	0x3af6bb97	0.0018824217
134	0x3ad7b92a	0.0016458381
135	0xbb71fc1f	-0.0036923958
136	0xbc256af7	-0.010096303
137	0x3a91338b	0.0011077983
138	0xbb535925	-0.003224918
139	0xbbb2e3a1	-0.0054592644
140	0x3c191d0b	0.009345303
141	0xbb9dea30	-0.004819177
142	0x3c344394	0.01100244
143	0x3c1e3087	0.0096551245
144	0x3928fad3	0.00016115168
145	0x3bf0e267	0.007351208
146	0x3c0d74ca	0.008633802
147	0x3bd298d2	0.006426909
148	0xbc32fa22	-0.010923894
149	0xbb761953	-0.0037551716
150	0x3ba9b52b	0.0051790676
151	0xbc183dd9	-0.009292089
152	0x3bb84ced	0.0056244046
153	0x3b2d4964	0.002644145
154	0x3c0bd849	0.008535453
155	0x3b429744	0.0029692212
156	0xbad07220	-0.0015903153
157	0x3c5fffc7	0.013671822
158	0xbc11fd2e	-0.00891046
159	0xbabbb557	-0.0014321011
160	0x3c166f0e	0.009181751
161	0x3bb47a22	0.0055077234
162	0x3b265190	0.0025378205
163	0x3c34d1f7	0.011036388
164	0xbc45933a	-0.012059027
165	0x3bb67215	0.005567799
166	0xbac4f8b7	-0.0015027736
167	0x39715b9b	0.00023017677
168	0xbb1cd013	-0.0023927733
169	0xbbae519b	-0.0053197867
170	0x3a61c835	0.0008612902
171	0xbb88a78f	-0.004170365
172	0xb90605be	-0.00012781375
173	0xba3ef621	-0.0007284601
174	0xba172f2f	-0.0005767224
175	0x3bce9622	0.0063045183
176	0xbbca5cba	-0.0061756046
177	0x3aed427f	0.0018101482
178	0xbc32ae83	-0.010905865
179	0x3bda1d48	0.0066563226
180	0x3c3b24e1	0.011422367
181	0x3be62a25	0.007024067
182	0x3bff9f80	0.0078009963
183	0xbc5acbc0	-0.013354242
184	0x3b334e88	0.002736004
185	0xbbd33892	-0.0064459527
186	0x3ba8f2c3	0.0051558926
187	0xbbca20af	-0.006168447
188	0x3c532083	0.012886169
189	0x3c608488	0.013703473
190	0xbbc7a190	-0.006092258
191	0xba1e92c9	-0.00060490944
192	0x38601795	5.3427724e-05
193	0xbbc02ccf	-0.0058647166
194	0x3bf98117	0.0076142657
195	0x3b08de60	0.00208845
196	0x3b2b0dd7	0.0026100778
197	0xbc3d2180	-0.011543632
198	0xbbdbbf6a	-0.006706168
199	0xbc2569ff	-0.010096072
200	0xbc514943	-0.012773815
201	0xbcd06663	-0.025439447
202	0xbbbb3d63	-0.005714105
203	0xbc3bf83e	-0.01147276
204	0x3a2c71a8	0.00065782154
205	0xbc4f9fd7	-0.012672386
206	0x3b113104	0.002215446
207	0x3af1808a	0.0018425148
208	0xbb85e33a	-0.0040859254
209	0x3a48cb50	0.00076596905
210	0xbba53fdf	-0.0050430144
211	0xbc193a1e	-0.009352235
212	0xbc2a2881	-0.010385633
213	0xbc51d25d	-0.012806502
214	0x3c547d13	0.012969273
215	0x3b820937	0.0039683837
216	0xba5d524f	-0.0008442746
217	0xbb8d2215	-0.0043070414
218	0x3b92b166	0.004476714
219	0x3c197bb4	0.009367872
220	0xbc43b44e	-0.011944843
221	0xbb07ad62	-0.002070271
222	0xbc0b405b	-0.00849923
223	0x3ca9a86a	0.020710189
224	0x3bb36816	0.0054750545
225	0x3c52480d	0.012834561
226	0xbc35476d	-0.0110643925
227	0x3c606455	0.013695796
228	0x3b58d932	0.0033088443
229	0x3bf534d5	0.0074831047
230	0xbb83b2db	-0.004019124
231	0xbba8f530	-0.0051561818
232	0x3c6a2e0b	0.014293204
233	0x3ada58b7	0.0016658519
234	0xbbf0aba3	-0.0073446794
235	0xba8225a2	-0.0009929428
236	0xbb7a1f87	-0.0038165764
237	0xbb9b2dbc	-0.0047356766
238	0x3c2812a3	0.01025835
239	0x3bd33b22	0.006446258
240	0xbb735790	-0.0037131049
241	0x3c6e8232	0.014557408
242	0x3ab8145f	0.0014044157
243	0xbb9d3d94	-0.0047986005
244	0x3a985225	0.0011621161
245	0xbbf39338	-0.0074333213
246	0xbaa711e4	-0.0012746421
247	0xbc2d1123	-0.010563168
248	0xbc03e58b	-0.008050333
249	0xbbe83fd7	-0.0070876884
250	0xbbcce443	-0.006252797
251	0xbba569e9	-0.005048026
252	0xbbe0a4f7	-0.006855603
253	0xbb722e8a	-0.003695401
254	0x3b7dfb17	0.0038754398
255	0x3c4134fb	0.011792417

network_body._body_endoder.seq_layers.0.bias f4 [128]
0	0x00000000	0.0
1	0x00000000	0.0
2	0x00000000	0.0
3	0x00000000	0.0
4	0x00000000	0.0
5	0x00000000	0.0
6	0x00000000	0.0
7	0x00000000	0.0
8	0x00000000	0.0
9	0x00000000	0.0
10	0x00000000	0.0
11	0x00000000	0.0
12	0x00000000	0.0
13	0x00000000	0.0
14	0x00000000	0.0
15	0x00000000	0.0
16	0x00000000	0.0
17	0x00000000	0.0
18	0x00000000	0.0
19	0x00000000	0.0
20	0x00000000	0.0
21	0x00000000	0.0
22	0x00000000	0.0
23	0x00000000	0.0
24	0x00000000	0.0
25	0x00000000	0.0
26	0x00000000	0.0
27	0x00000000	0.0
28	0x00000000	0.0
29	0x00000000	0.0
30	0x00000000	0.0
31	0x00000000	0.0
32	0x00000000	0.0
33	0x00000000	0.0
34	0x00000000	0.0
35	0x00000000	0.0
36	0x00000000	0.0
37	0x00000000	0.0
38	0x00000000	0.0
39	0x00000000	0.0
40	0x00000000	0.0
41	0x00000000	0.0
42	0x00000000	0.0
43	0x00000000	0.0
44	0x00000000	0.0
45	0x00000000	0.0
46	0x00000000	0.0
47	0x00000000	0.0
48	0x00000000	0.0
49	0x00000000	0.0
50	0x00000000	0.0
51	0x00000000	0.0
52	0x00000000	0.0
53	0x00000000	0.0
54	0x00000000	0.0
55	0x00000000	0.0
56	0x00000000	0.0
57	0x00000000	0.0
58	0x00000000	0.0
59	0x00000000	0.0
60	0x00000000	0.0
61	0x00000000	0.0
62	0x00000000	0.0
63	0x00000000	0.0
64	0x00000000	0.0
65	0x00000000	0.0
66	0x00000000	0.0
67	0x00000000	0.0
68	0x00000000	0.0
69	0x00000000	0.0
70	0x00000000	0.0
71	0x00000000	0.0
72	0x00000000	0.0
73	0x00000000	0.0
74	0x00000000	0.0
75	0x00000000	0.0
76	0x00000000	0.0
77	0x00000000	0.0
78	0x00000000	0.0
79	0x00000000	0.0
80	0x00000000	0.0
81	0x00000000	0.0
82	0x00000000	0.0
83	0x00000000	0.0
84	0x00000000	0.0
85	0x00000000	0.0
86	0x00000000	0.0
87	0x00000000	0.0
88	0x00000000	0.0
89	0x00000000	0.0
90	0x00000000	0.0
91	0x00000000	0.0
92	0x00000000	0.0
93	0x00000000	0.0
94	0x00000000	0.0
95	0x00000000	0.0
96	0x00000000	0.0
97	0x00000000	0.0
98	0x00000000	0.0
99	0x00000000	0.0
100	0x00000000	0.0
101	0x00000000	0.0
102	0x00000000	0.0
103	0x00000000	0.0
104	0x00000000	0.0
105	0x00000000	0.0
106	0x00000000	0.0
107	0x00000000	0.0
108	0x00000000	0.0
109	0x00000000	0.0
110	0x00000000	0.0
111	0x00000000	0.0
112	0x00000000	0.0
113	0x00000000	0.0
114	0x00000000	0.0
115	0x00000000	0.0
116	0x00000000	0.0
117	0x00000000	0.0
118	0x00000000	0.0
119	0x00000000	0.0
120	0x00000000	0.0
121	0x00000000	0.0
122	0x00000000	0.0
123	0x00000000	0.0
124	0x00000000	0.0
125	0x00000000	0.0
126	0x00000000	0.0
127	0x00000000	0.0

network_body._body_endoder.seq_layers.0.weight f4 [128, 1]
0	0x3ee20d1a	0.4415062
1	0xbeb0bf98	-0.34521174
2	0xbfa37aad	-1.2771813
3	0xc0183c7f	-2.3786924
4	0xbf917216	-1.1362941
5	0x3f01adcd	0.50655824
6	0xbfeb93e7	-1.8404511
7	0xbd46c3b9	-0.0485265
8	0x3ebd794a	0.370066
9	0xbfd76de1	-1.6830407
10	0x3f84f070	1.0385876
11	0xbe3c8783	-0.18411069
12	0x40319cb0	2.7751884
13	0xbf4d6ad3	-0.80241126
14	0x3f16451a	0.5869919
15	0x3f547a65	0.8299926
16	0x3f43a271	0.7641974
17	0xbfc4e6e5	-1.5382963
18	0x3e72d8cd	0.23715515
19	0xbd4ca1c4	-0.04995896
20	0x3fa5d674	1.2956071
21	0x3f4bf7bf	0.79674906
22	0xbf42d32d	-0.7610348
23	0x3ea39ad8	0.31954074
24	0x3f9eae10	1.239687
25	0xbf538970	-0.8263159
26	0x400f78ce	2.2417483
27	0xbea2103b	-0.31653008
28	0xbfa21528	-1.2662706
29	0xc0057152	-2.0850415
30	0xbf9e3d36	-1.236243
31	0xbf9b1063	-1.2114376
32	0x3ecef788	0.40423226
33	0x3f1b1fc5	0.6059535
34	0xbfdcccc1	-1.7249986
35	0x3debf886	0.115220115
36	0xbfaf1fd0	-1.3681583
37	0x3f34699a	0.70473635
38	0xbf2e9668	-0.6819825
39	0xbfd32427	-1.6495408
40	0xbf88ad0e	-1.0677812
41	0x3eb7a96f	0.35871455
42	0xbf9adfab	-1.2099508
43	0x3fa98399	1.3243285
44	0xbfbec751	-1.4904577
45	0x3f0b11db	0.5432412
46	0xbf961c34	-1.1727357
47	0x3fcdfb3f	1.6092299
48	0x3f12d53e	0.5735663
49	0xbe627461	-0.22114708
50	0xbf0d6d6c	-0.5524509
51	0x3d9e5e6c	0.07732853
52	0xbe338800	-0.17532349
53	0x3f80bb0a	1.005708
54	0x3f088231	0.53323656
55	0xbf4390e7	-0.7639298
56	0x3ca1ad84	0.019736059
57	0x3ed49acb	0.41524348
58	0x3f769170	0.9631567
59	0x3fa63285	1.2984167
60	0x3ff53a43	1.9158405
61	0xbf2dd638	-0.67904997
62	0x3fb33037	1.3999089
63	0x3e287dac	0.1645419
64	0xbf9b2cb4	-1.2123017
65	0xbedf9eac	-0.43675745
66	0x3fe9cb57	1.8265179
67	0x3f8618f4	1.0476365
68	0x3ebe245e	0.3713712
69	0x3f1a3403	0.60235614
70	0x3dbb174b	0.09135302
71	0x3fb03795	1.3766962
72	0xbfc2baf5	-1.5213305
73	0xc00316b1	-2.04826
74	0xbffa44fb	-1.9552301
75	0x3f52ff43	0.8242075
76	0x3fbf877b	1.496322
77	0x3e267117	0.16254078
78	0xbff89f4a	-1.9423611
79	0xbfd98965	-1.6995054
80	0xbe237091	-0.1596091
81	0x3e948ac5	0.29012123
82	0xbf7575cd	-0.95882875
83	0x3ee305fc	0.44340503
84	0xbf43dd5c	-0.7650964
85	0x3ea4b2da	0.32167703
86	0x3e6c531f	0.23078583
87	0xbdc6ac79	-0.09700865
88	0xbfadf18e	-1.3589342
89	0x3eb32c55	0.3499476
90	0xbf814abb	-1.0100931
91	0x3f44efce	0.7692841
92	0xbfbcac49	-1.4740077
93	0xbf9b48f7	-1.2131642
94	0x40145ac8	2.3180408
95	0xbdd6f85c	-0.104965895
96	0xbef814b9	-0.4845331
97	0xbf8341cc	-1.0254455
98	0xbf4dee5b	-0.80441827
99	0xbfe8dd9a	-1.8192627
100	0x3e428251	0.18995024
101	0x3f9cd6cc	1.2253051
102	0xbfa8bd1e	-1.3182714
103	0xbe7b7a4b	-0.2455837
104	0x3fcea1a5	1.614308
105	0x3d41b76f	0.047294077
106	0x3f038035	0.51367503
107	0xbe1e97a7	-0.15487538
108	0x3f74afdf	0.9558086
109	0xbd653052	-0.055954285
110	0xbd5a0b83	-0.053233635
111	0x3f06800c	0.52539134
112	0xbfcff338	-1.62461
113	0x3e8bf42c	0.27334726
114	0x3fb7d80f	1.4362811
115	0x3ea6e522	0.3259669
116	0xbd3f9b5c	-0.04677902
117	0x3f718cc2	0.94355404
118	0x3f9295e4	1.1451993
119	0xbd21696c	-0.03940718
120	0x3fa9352e	1.3219354
121	0x4014d518	2.3255062
122	0xbeb376f2	-0.35051686
123	0xbf0f37f5	-0.5594476
124	0xbfbd4682	-1.4787142
125	0x40394503	2.8948371
126	0xbdd71583	-0.1050215
127	0xbfb2537b	-1.3931726

network_body._body_endoder.seq_layers.2.bias f4 [128]
0	0x00000000	0.0
1	0x00000000	0.0
2	0x00000000	0.0
3	0x00000000	0.0
4	0x00000000	0.0
5	0x00000000	0.0
6	0x00000000	0.0
7	0x00000000	0.0
8	0x00000000	0.0
9	0x00000000	0.0
10	0x00000000	0.0
11	0x00000000	0.0
12	0x00000000	0.0
13	0x00000000	0.0
14	0x00000000	0.0
15	0x00000000	0.0
16	0x00000000	0.0
17	0x00000000	0.0
18	0x00000000	0.0
19	0x00000000	0.0
20	0x00000000	0.0
21	0x00000000	0.0
22	0x00000000	0.0
23	0x00000000	0.0
24	0x00000000	0.0
25	0x00000000	0.0
26	0x00000000	0.0
27	0x00000000	0.0
28	0x00000000	0.0
29	0x00000000	0.0
30	0x00000000	0.0
31	0x00000000	0.0
32	0x00000000	0.0
33	0x00000000	0.0
34	0x00000000	0.0
35	0x00000000	0.0
36	0x00000000	0.0
37	0x00000000	0.0
38	0x00000000	0.0
39	0x00000000	0.0
40	0x00000000	0.0
41	0x00000000	0.0
42	0x00000000	0.0
43	0x00000000	0.0
44	0x00000000	0.0
45	0x00000000	0.0
46	0x00000000	0.0
47	0x00000000	0.0
48	0x00000000	0.0
49	0x00000000	0.0
50	0x00000000	0.0
51	0x00000000	0.0
52	0x00000000	0.0
53	0x00000000	0.0
54	0x00000000	0.0
55	0x00000000	0.0
56	0x00000000	0.0
57	0x00000000	0.0
58	0x00000000	0.0
59	0x00000000	0.0
60	0x00000000	0.0
61	0x00000000	0.0
62	0x00000000	0.0
63	0x00000000	0.0
64	0x00000000	0.0
65	0x00000000	0.0
66	0x00000000	0.0
67	0x00000000	0.0
68	0x00000000	0.0
69	0x00000000	0.0
70	0x00000000	0.0
71	0x00000000	0.0
72	0x00000000	0.0
73	0x00000000	0.0
74	0x00000000	0.0
75	0x00000000	0.0
76	0x00000000	0.0
77	0x00000000	0.0
78	0x00000000	0.0
79	0x00000000	0.0
80	0x00000000	0.0
81	0x00000000	0.0
82	0x00000000	0.0
83	0x00000000	0.0
84	0x00000000	0.0
85	0x00000000	0.0
86	0x00000000	0.0
87	0x00000000	0.0
88	0x00000000	0.0
89	0x00000000	0.0
90	0x00000000	0.0
91	0x00000000	0.0
92	0x00000000	0.0
93	0x00000000	0.0
94	0x00000000	0.0
95	0x00000000	0.0
96	0x00000000	0.0
97	0x00000000	0.0
98	0x00000000	0.0
99	0x00000000	0.0
100	0x00000000	0.0
101	0x00000000	0.0
102	0x00000000	0.0
103	0x00000000	0.0
104	0x00000000	0.0
105	0x00000000	0.0
106	0x00000000	0.0
107	0x00000000	0.0
108	0x00000000	0.0
109	0x00000000	0.0
110	0x00000000	0.0
111	0x00000000	0.0
112	0x00000000	0.0
113	0x00000000	0.0
114	0x00000000	0.0
115	0x00000000	0.0
116	0x00000000	0.0
117	0x00000000	0.0
118	0x00000000	0.0
119	0x00000000	0.0
120	0x00000000	0.0
121	0x00000000	0.0
122	0x00000000	0.0
123	0x00000000	0.0
124	0x00000000	0.0
125	0x00000000	0.0
126	0x00000000	0.0
127	0x00000000	0.0

network_body._body_endoder.seq_layers.2.weight f4 [128, 128]
0	0xbe193d50	-0.14964795
1	0x3db46111	0.088075764
2	0xbdd3996b	-0.103319965
3	0x3e18dc62	0.1492782
4	0xbe55e484	-0.20887953
5	0xbd854dc9	-0.06508977
6	0x3dcc27ac	0.09968504
7	0xbdaffa1d	-0.08592627
8	0xbe0ae9d0	-0.13565755
9	0xbdc92bcd	-0.098228075
10	0xbd46a8ee	-0.048500948
11	0x3da81dcf	0.082088105
12	0x3d2f6631	0.042822067
13	0xbdf28102	-0.118410125
14	0xbddd7b0c	-0.10814485
15	0xbd4a9cd3	-0.049465965
16	0x3defd7d1	0.117110856
17	0xbe015d21	-0.12633182
18	0xbe25e943	-0.16202264
19	0x3d94651b	0.07245847
20	0xbc53b9a2	-0.012922676
21	0x3c59ceef	0.013293966
22	0xbd018173	-0.031617593
23	0x3ca79e3f	0.0204612
24	0xbe19f49c	-0.15034717
25	0x3dd35d49	0.10320527
26	0xbdd30692	-0.103039876
27	0xbe24bf6a	-0.16088644
28	0xbe56c8a5	-0.20974977
29	0xbd4717c1	-0.048606638
30	0x3de8a024	0.113586694
31	0x3d9e4f85	0.07730011
32	0xbd4ba344	-0.04971625
33	0x3d938345	0.07202772
34	0x3e244ae0	0.16044188
35	0xbd9a3988	-0.075305045
36	0x3e1328f2	0.14371088
37	0xbcd6ecf0	-0.026236027
38	0x3df5bea6	0.11999254
39	0xbe1d60c9	-0.15368952
40	0xbe0a7357	-0.13520561
41	0x3d518bc3	0.051158678
42	0xbcea8697	-0.02862863
43	0xbd1acf73	-0.037795495
44	0x3c370b07	0.011172063
45	0xbe108397	-0.14112698
46	0xbc840a0f	-0.016118078
47	0x3baf1e20	0.0053441674
48	0x3e5e1235	0.21686633
49	0xbdeb4e0e	-0.11489497
50	0x3db21036	0.08694498
51	0xbdc9c510	-0.0985204
52	0xbd22701b	-0.039657693
53	0x3d356511	0.044285838
54	0xbcd762c1	-0.026292207
55	0x3e410053	0.1884778
56	0xbdbf8d7d	-0.093531586
57	0xbcfdcd1d	-0.030981595
58	0x3d44bc2c	0.048031017
59	0xbda47038	-0.080292165
60	0xbc22644a	-0.009911606
61	0x3dc6ade1	0.097011335
62	0xbd2e002b	-0.04248063
63	0x3dd646ea	0.104627445
64	0x3d791b53	0.060817074
65	0xbd39baf7	-0.04534432
66	0xbe08fa83	-0.13376813
67	0x3c451413	0.012028712
68	0x3c968e79	0.018378483
69	0x3c6b5a77	0.01436483
70	0xbdf20f41	-0.11819316
71	0xbd257644	-0.04039599
72	0x3e26b05c	0.16278213
73	0x3df4264a	0.119213656
74	0xbdc1fac0	-0.09471655
75	0x3c934b1d	0.017980153
76	0x3d49b20b	0.04924206
77	0xbd35c53a	-0.044377543
78	0x3d809e15	0.06280152
79	0xbe06e8e1	-0.13174774
80	0x3ca6a0d8	0.020340368
81	0x3ca80e99	0.020514773
82	0xbcbfe5bc	-0.023424976
83	0x3d26e413	0.040744852
84	0x3d57fa18	0.052728742
85	0xbde36f3e	-0.11105202
86	0xbddedbf0	-0.108817935
87	0x3d17f2f4	0.037096933
88	0xbc956ad9	-0.018239425
89	0xbe14846c	-0.1450364
90	0x3bc4c2b6	0.0060046567
91	0x3db93f3d	0.09045265
92	0xbcaa31f7	-0.020775778
93	0xbb00a8f2	-0.001963195
94	0xbd88f97b	-0.066882096
95	0xbda73ffa	-0.081664994
96	0x3e9c78dc	0.30560958
97	0x3e2dac1f	0.1696019
98	0xbd5c13bd	-0.05372976
99	0x3cfee985	0.03111721
100	0xbdae05f2	-0.08497228
101	0xbc95eedc	-0.018302374
102	0xbd055cca	-0.032559194
103	0x3c463d8a	0.012099633
104	0xbe7b465c	-0.24538559
105	0x3d9f2aa8	0.07771808
106	0x3ca5df38	0.02024804
107	0x3c64ba8b	0.013960491
108	0xbcd1d92d	-0.025616253
109	0xbe1ba669	-0.15200199
110	0xbdf0588f	-0.11735641
111	0xbb68cc68	-0.0035522226
112	0xbd11dcdc	-0.03561102
113	0xbb8ea8d6	-0.004353623
114	0xbde03b48	-0.10948807
115	0x3d9262a1	0.07147718
116	0x3e30b305	0.1725579
117	0xbcffefab	-0.031242212
118	0x3d68ef24	0.056868687
119	0xbc910cc2	-0.017706279
120	0xbd89b198	-0.067233264
121	0xbbde5227	-0.0067846957
122	0xbda9a2f5	-0.08283035
123	0x3e2a106e	0.1660783
124	0x3da08e09	0.07839591
125	0x3d2b011c	0.041749105
126	0xbc5395a9	-0.0129141
127	0x3d0eeace	0.034891896
128	0x3cdafa9b	0.026730826
129	0xbdda335c	-0.10654327
130	0x3ba6b072	0.005086952
131	0x3d8f5f41	0.0700059
132	0xbdaaccc7	-0.083398394
133	0x3d8973cc	0.067115396
134	0xbd999113	-0.07498374
135	0xbcf82780	-0.030292273
136	0xbda43388	-0.08017641
137	0xbcbf3896	-0.023342412
138	0x3e3d4c9d	0.18486257
139	0x3e3a1bf6	0.18174729
140	0xbd68aba3	-0.05680431
141	0xbda6403b	-0.0811772
142	0x3c2d5930	0.010580346
143	0x3cf66114	0.030075587
144	0x3e2705f6	0.16310868
145	0xbda1f838	-0.07908672
146	0xbda9742d	-0.08274112
147	0x3cca50b7	0.024696691
148	0xbdac308c	-0.08407697
149	0x3dc59c24	0.09648922
150	0x3bd3af2a	0.00646009
151	0x3c6e2ee1	0.014537544
152	0x3dac8b74	0.08425036
153	0xba7daa95	-0.0009676603
154	0x3ac97de2	0.0015372599
155	0xbc329820	-0.010900527
156	0x3d1b5010	0.03791815
157	0x3cb948d4	0.022617735
158	0xbd11d971	-0.03560776
159	0xbd9845e0	-0.074352026
160	0xbd1bd9e1	-0.038049582
161	0x3d5dd5f0	0.054159105
162	0x3cce0ab6	0.025151592
163	0x3d8ea3a5	0.069648065
164	0xbd92e6bb	-0.071729146
165	0x3d7af86b	0.061272066
166	0x3db6aa5a	0.08919211
167	0xbd588907	-0.052865054
168	0x3db9ac1d	0.09066031
169	0xbd85fefe	-0.065427765
170	0x3da650a0	0.08120847
171	0xbd5cf2d6	-0.053942524
172	0x3e138b2a	0.14408556
173	0xbd8eede0	-0.06978965
174	0x3d3d2767	0.046180155
175	0xbd491c17	-0.049099054
176	0x3d0372cd	0.032091904
177	0xbce72765	-0.028217027
178	0xbaf6d248	-0.0018830979
179	0x3deff5e1	0.117168196
180	0x3e54691d	0.20743223
181	0xbe0af032	-0.1356819
182	0xbd34f237	-0.044176307
183	0x3dec87f0	0.115493655
184	0x3d0eefbd	0.0348966
185	0x3cba8ef1	0.022773238
186	0xbdda075d	-0.10645936
187	0x3e16bb9f	0.1472001
188	0xbdc7109f	-0.09719967
189	0xbe091583	-0.13387112
190	0xbcbc5409	-0.02298929
191	0x3d210456	0.039310776
192	0xbe13a324	-0.14417702
193	0x3be229fb	0.006901977
194	0x3dc8d30c	0.09805879
195	0xbcf6bccb	-0.03011932
196	0x3cd00afa	0.025395859
197	0xbd9cd7a1	-0.076583154
198	0x3e009bfa	0.125595
199	0x3d5f1598	0.054463953
200	0x3d8f7950	0.070055604
201	0x3d30beb6	0.043150626
202	0x3d2a540f	0.04158407
203	0xbd70de75	-0.0588059
204	0x3e3de9ba	0.18546191
205	0x3d970b01	0.07375146
206	0x3e36eb9f	0.1786332
207	0x3da7ebdd	0.08199284
208	0x3e09d676	0.13460717
209	0xbd4e5390	-0.05037266
210	0xbe0fcee4	-0.14043766
211	0xbd846e27	-0.064663224
212	0x3c07728b	0.008267055
213	0x3dc5122f	0.09622609
214	0xbc565288	-0.0130812
215	0x3d308074	0.043091252
216	0xbde1831d	-0.11011336
217	0xbc0e0fe9	-0.008670785
218	0xbbbfc791	-0.0058526476
219	0x3dd3ce95	0.10342137
220	0x3d9ffdc8	0.07812077
221	0xbe1d8d1a	-0.15385857
222	0x3d93e061	0.07220531
223	0xbd6e3652	-0.058157273
224	0xbe1de60b	-0.15419786
225	0x3d231692	0.039816447
226	0xbd200e6f	-0.039076265
227	0x3d798eb1	0.060927097
228	0x3b829b63	0.0039858087
229	0x3cb0a9c1	0.02156532
230	0xbd202ece	-0.039107136
231	0xbe366a41	-0.1781397
232	0xbd3315c8	-0.043721944
233	0x3db9814d	0.09057865
234	0xbbdc47ba	-0.0067224177
235	0x3aaa1b75	0.0012978154
236	0xbdbb87af	-0.09156739
237	0x3ded11ff	0.11575698
238	0xbc64ffed	-0.013977033
239	0x3d5ce785	0.05393173
240	0xbcdb7f0a	-0.026793975
241	0x3d85a350	0.0652529
242	0xbd99591b	-0.07487699
243	0x3d34962b	0.044088524
244	0x3de97e5f	0.114010565
245	0xbdce95ed	-0.1008719
246	0x3d898e97	0.0671665
247	0xbd8ca35d	-0.068670966
248	0xbd2c7b21	-0.042109612
249	0x3dbbab56	0.09163539
250	0x3d9e6af2	0.07735242
251	0x3e3d2798	0.18472135
252	0x3bacdc76	0.0052753044
253	0xbda212e8	-0.07913762
254	0xbd033181	-0.032029632
255	0xbcc7e8bd	-0.02440297
