results/ppo/MoveToGoal/MoveToGoal-5964.pt (torch, 179527 bytes, 11 tensors)

network_body._body_endoder.seq_layers.0.weight f4 [128, 35]
000000 c2 84 47 be 93 83 05 3f ad 3e a2 be 9d 61 64 be
       -0.19484237 0.5215389 -0.31688443 -0.22302862
000010 3e 17 65 3e da b7 60 be 6e 5d 66 bc 0e 59 d8 be
       0.22372147 -0.21945134 -0.014060361 -0.42255443
000020 80 72 8c bc a3 75 5f bb 25 75 03 bd 9a b4 6c be
       -0.017144442 -0.0034097217 -0.03209414 -0.23115769
000030 33 8b e3 bd 7e 3b 11 3e 55 01 4b 3d 4b ca 29 be
       -0.111105345 0.1418285 0.049561817 -0.16581075
000040 0b b3 64 bd cd f7 ab be 0c 25 29 bd 08 42 ad bd
       -0.05583481 -0.33587494 -0.041295096 -0.0845986
000050 40 40 22 3e f6 b6 80 3d 29 e4 22 be d6 cb 87 bd
       0.15844822 0.06284897 -0.15907349 -0.066306755
000060 0f 4b b1 3e a9 38 19 3e b0 f8 b6 bd 49 69 21 be
       0.34627578 0.1496302 -0.08934152 -0.1576282
000070 8c 57 d5 3c bf 98 b0 be 75 ff af 3e 04 4a 36 bd
       0.026042722 -0.34491536 0.34374586 -0.04450418
000080 6f b8 96 3d 26 a4 0b 3d 14 42 bb bd 1c 66 4f be
       0.07359397 0.03409209 -0.09143463 -0.20253795
000090 2f 3a 6d 3e 55 97 22 3d c3 57 d9 bb b9 4f 8a 3d
       0.23166727 0.039695103 -0.0066327765 0.06753487
0000a0 e4 64 3e 3e 43 6b 83 3e a3 c3 a9 bc cd 8c 39 be
       0.18593174 0.25667772 -0.02072317 -0.18120117
0000b0 ef 58 fd bd 25 18 71 3e e2 91 2d 3c 9e 00 1b be
       -0.12370478 0.23544367 0.010593863 -0.15136954
0000c0 7e 54 f2 3d 11 33 2f 3c d6 d6 87 3d 8c 41 56 be
       0.11832522 0.0106933275 0.066327736 -0.20923442
0000d0 f2 4e 86 be ed 1b 8a be 5d 94 56 3e 82 45 49 3d
       -0.26232105 -0.2697443 0.20955034 0.049138553
0000e0 22 52 cf 3d 6d 56 27 3e b9 d9 73 bd 8a 5a 84 bd
       0.101230875 0.16341563 -0.05953381 -0.064625815
0000f0 3f 42 06 3e 04 fa 39 bd 11 db 43 be 03 8c 93 be
       0.13111208 -0.04540445 -0.19126536 -0.28817758
000100 1e 1c 32 3e 44 70 e9 3d 6b e2 38 be 86 1f 3e 3e
       0.17393538 0.11398366 -0.18055122 0.18566713
000110 8f ba 35 3d fa 64 7d 3e 51 9e 02 be 4e d9 1e be
       0.04436737 0.24745551 -0.12755705 -0.15512583
000120 fe 13 11 be 0d 23 9c bd 0c 4f 19 3d 17 7d 37 3d
       -0.14167783 -0.07623873 0.0374289 0.04479703
000130 93 40 ba 3d 9e 44 f0 3d 16 00 74 be d3 d3 91 bc
       0.09094348 0.11731838 -0.23828158 -0.017801201
000140 ab 5b 20 be 02 03 9d be 0b 00 43 be 5c 09 19 3d
       -0.15659969 -0.30666357 -0.19042985 0.03736244
000150 73 ff 00 ba 08 84 bf bd 15 0f dc bd ab 32 73 3d
       -0.00049208774 -0.09351355 -0.10745064 0.059374493
000160 48 0c 63 3d 22 4a a5 3e 0d 98 0e 3e 21 28 d3 3e
       0.055431634 0.3228312 0.1392519 0.41241553
000170 a4 45 2c 3e 94 0a 09 3b 22 70 33 be 23 e1 e0 bd
       0.16823441 0.0020910846 -0.17523244 -0.109804414
000180 58 70 14 bc 7e 56 83 bd 80 82 14 3c 9f 76 03 be
       -0.009059988 -0.064129815 0.009064317 -0.12838219
000190 1b 7c 43 bd 03 e4 ef 3d 75 99 2d be 91 59 0d be
       -0.047725778 0.11713412 -0.1695307 -0.13803698
0001a0 07 b5 63 3d 2c 3d 27 be c3 c1 1f 3d d6 88 4f bd
       0.055592563 -0.16331929 0.039003145 -0.050667606
0001b0 72 da 98 3c 36 d5 7d 3b da d1 45 3e e0 51 3f 3e
       0.01865885 0.003873182 0.19318333 0.18683577
0001c0 9f 70 f1 bc a7 57 c7 bd 1f 51 c1 3d 47 24 7f be
       -0.029472647 -0.09733515 0.09439301 -0.24916182
0001d0 e3 31 87 be 5c 8d 46 3c 05 2a 8a bb 06 a7 c4 3d
       -0.26405248 0.012118664 -0.004216435 0.0960217
0001e0 dd 0d 44 3e a5 04 43 be ee 17 a7 3d a4 fa dc bc
       0.19145913 -0.1904474 0.08158861 -0.026974984
0001f0 6c 01 e5 bc 47 14 91 3e 4a 0f 7b be 7a 17 74 be
       -0.02795478 0.28335783 -0.24517551 -0.2383708
000200 e4 7c 2e 3e 92 95 ea 3e b0 b9 c8 bd 95 ee 62 3e
       0.1703983 0.45817238 -0.09801042 0.22161324
000210 a6 15 69 3e 9f b9 9d bc 8e 5d 24 3e 4d 15 51 3d
       0.22762164 -0.01925355 0.16051313 0.051045705
000220 b7 f5 39 3e 31 43 21 3e 7f 1a ae 3d 54 ce 54 3d
       0.18160139 0.15748288 0.085011475 0.051954582
000230 d6 1a e3 bc d0 f8 2f 3e e6 ec 6b bd 15 65 bd be
       -0.027722757 0.17184758 -0.05759897 -0.36991182
000240 ce 78 86 3e 0e 2c a0 3e e9 51 2d 3c c8 de cd 3d
       0.26264042 0.3128361 0.010578611 0.10052258
000250 5f d9 87 3d 2a 1d 4c be a8 8b 3f be 3d 62 1b be
       0.06633257 -0.19933 -0.18705618 -0.15174194
000260 da 8a 74 bd f5 01 07 3d ad 0a e6 bd 7e 71 40 be
       -0.05970273 0.03296085 -0.11232505 -0.18793294
000270 8f b8 11 be 89 b8 43 bd 07 d1 66 3e d7 69 07 3d
       -0.1423056 -0.04778341 0.22540675 0.03305992
000280 94 7a 32 3e e9 d5 27 3d 6d ff 7b be 38 16 ca bd
       0.17429572 0.040975485 -0.24609156 -0.09867519
000290 f2 26 0e 3c 1a 81 01 3e f3 60 c7 3d f9 93 00 3d
       0.0086762775 0.12646905 0.097352885 0.031391118
0002a0 13 ad 76 be 2e a2 8c 3c f4 b4 dc 3d be ba b4 3d
       -0.2408946 0.017167177 0.107767016 0.08824681
0002b0 34 19 e7 bd b6 cf 23 3e 6f de 24 bc b1 01 8c bd
       -0.11284104 0.15997204 -0.010062798 -0.0683626
0002c0 85 f1 88 3d ea 66 9b 3e bb 28 93 3e ec 9c df 3b
       0.06686691 0.30351955 0.28742012 0.0068241265
0002d0 9e 11 a3 be 5d b1 d7 bd 39 4b aa be c0 8e 09 3e
       -0.31849378 -0.10531876 -0.33260515 0.13433361
0002e0 7c d7 a0 be 52 3f cc be 1c 92 07 3e 27 87 ff bd
       -0.31414402 -0.3989206 0.1323933 -0.1247695
0002f0 c2 c3 68 bc dd 0b 62 3d 37 2b 28 be 3f f2 0d be
       -0.014206829 0.055187095 -0.16422735 -0.13861941
000300 ec cc 09 3c 02 6a aa 3e 89 75 56 bd 85 bf 1e be
       0.008410674 0.33284003 -0.052358184 -0.15502746
000310 be 27 7e 3c 61 44 a8 bc c3 e2 89 be df ad c9 bd
       0.015512405 -0.020540418 -0.26930818 -0.098476164
000320 d0 86 b4 3d cb 07 f4 bd c7 f8 93 be 3d 3e c2 3d
       0.08814776 -0.11915549 -0.2890074 0.09484527
000330 6e b7 d1 bd af 3a 88 3d e7 89 46 be a5 65 bc 3d
       -0.102400646 0.06651818 -0.19388543 0.09199075
000340 29 fd fa bc 1a bd 00 3e f5 98 1d bd 17 00 0e bd
       -0.030638294 0.12572137 -0.03847595 -0.034668054
000350 ce a7 83 3e 89 10 5f 3e 09 8f f6 3d f2 f0 ff bd
       0.25713962 0.21783651 0.120390005 -0.124971285
000360 0b 14 1e 3c 9f 50 0f 3e 9c 8a 0f bd 3d dd 82 3b
       0.009648333 0.13995598 -0.035044298 0.003993659
000370 02 e6 77 be 06 2a 81 3e 59 6c 69 3e 9a 23 8d 3e
       -0.24208835 0.25227374 0.22795238 0.27566224
000380 2c 80 57 be ba dc 81 3e 94 db ce 3d 0e 3f cc bd
       -0.21044987 0.25363714 0.10100475 -0.09972964
000390 10 5e 35 3e 97 8f b5 3d 8d ef 11 3c a5 be 11 3e
       0.17711663 0.08865278 0.008907211 0.14232881
0003a0 14 44 37 3e dd 3d 3b bd 83 45 3b 3d 7e 7e dc ba
       0.17897063 -0.045713294 0.04572059 -0.0016822366
0003b0 c7 7b a2 bc 1b 3d 04 be 92 2b 3f 3e 7c b0 b4 be
       -0.019834412 -0.12913935 0.18668965 -0.35290897
0003c0 f4 c4 cf bd f6 7c 86 ba 58 a6 54 3e ff f0 da 3e
       -0.10144988 -0.001026063 0.2076658 0.4276199
0003d0 82 50 22 3e ec c5 93 bd 1d 4a ef 3d fb 72 85 3e
       0.15851024 -0.07215485 0.11684058 0.26064286
0003e0 76 59 70 3d 25 11 ab 3d c4 1f 27 be bd 7c cf 3d
       0.058679067 0.083528794 -0.16320711 0.10131214
0003f0 2f 25 57 be ea 08 bd be d1 84 2d 3c 9a 43 7b bc
       -0.21010278 -0.36920863 0.010590748 -0.015335942

network_body._body_endoder.seq_layers.0.bias f4 [128]
000000 00 00 00 00 00 00 00 00 00 00 00 00 00 00 00 00
       0.0 0.0 0.0 0.0
000010 00 00 00 00 00 00 00 00 00 00 00 00 00 00 00 00
       0.0 0.0 0.0 0.0
000020 00 00 00 00 00 00 00 00 00 00 00 00 00 00 00 00
       0.0 0.0 0.0 0.0
000030 00 00 00 00 00 00 00 00 00 00 00 00 00 00 00 00
       0.0 0.0 0.0 0.0
000040 00 00 00 00 00 00 00 00 00 00 00 00 00 00 00 00
       0.0 0.0 0.0 0.0
000050 00 00 00 00 00 00 00 00 00 00 00 00 00 00 00 00
       0.0 0.0 0.0 0.0
000060 00 00 00 00 00 00 00 00 00 00 00 00 00 00 00 00
       0.0 0.0 0.0 0.0
000070 00 00 00 00 00 00 00 00 00 00 00 00 00 00 00 00
       0.0 0.0 0.0 0.0
000080 00 00 00 00 00 00 00 00 00 00 00 00 00 00 00 00
       0.0 0.0 0.0 0.0
000090 00 00 00 00 00 00 00 00 00 00 00 00 00 00 00 00
       0.0 0.0 0.0 0.0
0000a0 00 00 00 00 00 00 00 00 00 00 00 00 00 00 00 00
       0.0 0.0 0.0 0.0
0000b0 00 00 00 00 00 00 00 00 00 00 00 00 00 00 00 00
       0.0 0.0 0.0 0.0
0000c0 00 00 00 00 00 00 00 00 00 00 00 00 00 00 00 00
       0.0 0.0 0.0 0.0
0000d0 00 00 00 00 00 00 00 00 00 00 00 00 00 00 00 00
       0.0 0.0 0.0 0.0
0000e0 00 00 00 00 00 00 00 00 00 00 00 00 00 00 00 00
       0.0 0.0 0.0 0.0
0000f0 00 00 00 00 00 00 00 00 00 00 00 00 00 00 00 00
       0.0 0.0 0.0 0.0
000100 00 00 00 00 00 00 00 00 00 00 00 00 00 00 00 00
       0.0 0.0 0.0 0.0
000110 00 00 00 00 00 00 00 00 00 00 00 00 00 00 00 00
       0.0 0.0 0.0 0.0
000120 00 00 00 00 00 00 00 00 00 00 00 00 00 00 00 00
       0.0 0.0 0.0 0.0
000130 00 00 00 00 00 00 00 00 00 00 00 00 00 00 00 00
       0.0 0.0 0.0 0.0
000140 00 00 00 00 00 00 00 00 00 00 00 00 00 00 00 00
       0.0 0.0 0.0 0.0
000150 00 00 00 00 00 00 00 00 00 00 00 00 00 00 00 00
       0.0 0.0 0.0 0.0
000160 00 00 00 00 00 00 00 00 00 00 00 00 00 00 00 00
       0.0 0.0 0.0 0.0
000170 00 00 00 00 00 00 00 00 00 00 00 00 00 00 00 00
       0.0 0.0 0.0 0.0
000180 00 00 00 00 00 00 00 00 00 00 00 00 00 00 00 00
       0.0 0.0 0.0 0.0
000190 00 00 00 00 00 00 00 00 00 00 00 00 00 00 00 00
       0.0 0.0 0.0 0.0
0001a0 00 00 00 00 00 00 00 00 00 00 00 00 00 00 00 00
       0.0 0.0 0.0 0.0
0001b0 00 00 00 00 00 00 00 00 00 00 00 00 00 00 00 00
       0.0 0.0 0.0 0.0
0001c0 00 00 00 00 00 00 00 00 00 00 00 00 00 00 00 00
       0.0 0.0 0.0 0.0
0001d0 00 00 00 00 00 00 00 00 00 00 00 00 00 00 00 00
       0.0 0.0 0.0 0.0
0001e0 00 00 00 00 00 00 00 00 00 00 00 00 00 00 00 00
       0.0 0.0 0.0 0.0
0001f0 00 00 00 00 00 00 00 00 00 00 00 00 00 00 00 00
       0.0 0.0 0.0 0.0

network_body._body_endoder.seq_layers.2.weight f4 [128, 128]
000000 73 40 8d bc 0b ca b5 3d d5 1f 05 be b8 69 a0 3d
       -0.017242646 0.08876427 -0.13000424 0.07832664
000010 83 da 16 be a9 9f 1f bd dd 98 ba 3c 8e 95 b6 bc
       -0.14731793 -0.038970623 0.022777969 -0.02228811
000020 3e 42 d2 3c 01 83 7a be 57 38 07 bd ce b8 7e bc
       0.025666352 -0.24464037 -0.033012714 -0.015546991
000030 cd 3d 28 3e c2 2b 78 3c 9d 56 fd 3c c7 eb 42 bd
       0.16429825 0.015147151 0.03092509 -0.047588136
000040 54 78 09 be b3 0d 6d 3d 9f 8d 66 3b bc 94 f1 3d
       -0.13424808 0.057874393 0.0035179628 0.11795947
000050 5a 12 15 3d ff 27 68 bd 1e 85 a1 3c 83 53 aa 3d
       0.036394455 -0.05667877 0.019716796 0.0831671
000060 92 b9 b4 3d 09 d6 48 bd 06 57 93 bc 87 b3 00 3d
       0.08824457 -0.049032245 -0.017985832 0.03142121
000070 80 83 3f 3d d4 3e 93 bc 41 b9 ee bd 99 f6 3c 3d
       0.046756268 -0.017974295 -0.11656428 0.04613361
000080 82 5c 43 3d bf 7a 82 3d a7 1e eb 3c 6e 91 ee 3c
       0.047695644 0.06371068 0.02870114 0.02912208
000090 c4 df 0e 3e 0c 43 f3 3d cf 99 13 be 82 93 5f bb
       0.13952547 0.118780226 -0.14414142 -0.003411502
0000a0 5e 61 ac 3d 1f 22 1a bd 57 43 f6 3a 7a eb ef bb
       0.08417009 -0.037630197 0.0018788379 -0.007321772
0000b0 63 54 1e be c7 62 c1 bd 94 ef 38 3d 15 70 cf 3c
       -0.15461878 -0.094426684 0.045150355 0.025322
0000c0 92 74 40 bd ca 92 de bd 51 04 8d bd 91 28 06 bc
       -0.04698617 -0.108678415 -0.06885589 -0.008188383
0000d0 f7 08 37 3d a1 38 da 3c 07 f4 57 3d 37 5b 58 bd
       0.044686284 0.02663833 0.052722957 -0.052821364
0000e0 3e 55 77 3c c6 56 34 3e 9b 51 36 bd e3 82 a3 bc
       0.015096007 0.17611226 -0.04451142 -0.019959873
0000f0 54 d1 2e 3d d4 c7 45 3d c6 29 8f 3d e7 ee 4d 3d
       0.0426801 0.048286274 0.069903895 0.050276663
000100 44 22 1e 3d 76 f4 01 3e 15 ce 95 3d 54 08 bb 3d
       0.038606897 0.1269091 0.07314698 0.09132448
000110 bd f5 75 bd 2b 96 c2 3d 09 6b a6 3c 8b ca 00 3e
       -0.060048807 0.095012985 0.02031471 0.12577264
000120 0d 75 6d bd d1 ff 8c 3d f3 72 b6 bd c8 98 b8 bd
       -0.057972956 0.068847306 -0.089086436 -0.09013516
000130 99 54 43 bd 01 98 81 bd dd d7 6d bd dc 50 64 3d
       -0.0476881 -0.063278206 -0.05806719 0.055741176
000140 90 cf 70 bc 22 00 82 3d ef 55 92 bc 32 eb 81 3e
       -0.014697924 0.063476816 -0.017863242 0.25374752
000150 de dc 60 3d 4f b8 e1 bd 14 66 93 bd d6 87 30 be
       0.054898135 -0.11021482 -0.07197204 -0.17239317
000160 ce 4c 95 3d 0e c7 99 bd 83 a6 24 be 23 9f 14 3e
       0.0729004 -0.0750867 -0.16079144 0.14513831
000170 2c 22 7f 3e b1 0f 0f be 9b ff 92 3d 86 08 5d be
       0.2491538 -0.1397083 0.07177659 -0.21585283
000180 a3 03 8d bd 8d 06 73 3c ad d2 07 3d 71 5d 04 bd
       -0.06885459 0.014833105 0.0331599 -0.032315675
000190 87 07 53 bc a0 27 70 3d 6e 5e 28 3d 24 74 12 bd
       -0.012880213 0.05863154 0.04110568 -0.03575529
0001a0 d4 66 08 bd 8e d0 18 be a4 3c 48 3d ef a6 06 3e
       -0.03330119 -0.14923307 0.048885956 0.13149618
0001b0 ad e1 7b 3e 44 ab 30 3e 4d 92 79 3d 2f a0 e7 bd
       0.24597807 0.17252833 0.06093054 -0.113098495
0001c0 50 1f e9 3d 8d 7d 80 bc 2f 5e 5b 3d 35 d3 da 3c
       0.113829255 -0.015684867 0.053556617 0.02671204
0001d0 68 a7 45 3d 46 95 9c bd eb 6b 30 bd e0 0b 55 be
       0.048255354 -0.07645659 -0.04307167 -0.20805311
0001e0 1d fb 0f be e7 2c 30 3b cb 31 d8 bd 38 c1 69 3d
       -0.14060636 0.0026882233 -0.10556372 0.057069033
0001f0 ef 33 4e be 28 34 e5 3d 3f 89 d3 bc da 8b e2 bb
       -0.20136999 0.11191589 -0.02582228 -0.0069136443
000200 1e fa af 3d 1b c2 b9 3b 1e cf e5 3d 02 5f 2e 3d
       0.08592628 0.005668891 0.11221145 0.042571075
000210 65 56 89 bd 50 4f 0c 3e 1e 64 1d ba 20 8f 6b 3d
       -0.067059316 0.1370213 -0.00060039933 0.05750954
000220 b5 33 dd bd f5 b5 10 be da 00 fe bd 5a 07 71 bd
       -0.10800878 -0.14131911 -0.12402506 -0.0588449
000230 95 0b 00 3d ba 4a 36 bd b2 d4 a1 3b c2 12 a9 bc
       0.031261045 -0.04450486 0.0049386853 -0.020638827
000240 27 7f a4 bc b0 a4 0d 3d dd 31 98 bd 9a df 64 3d
       -0.020080162 0.034580886 -0.07431386 0.055877306
000250 5d 6e 1d bd ab 71 e5 3d 97 75 8a 3d bd ed ca ba
       -0.03843533 0.11203321 0.0676071 -0.0015482228
000260 8e 7d 58 be 75 d5 4d bd a2 22 f9 bc c3 07 80 bd
       -0.21141645 -0.050252397 -0.030412022 -0.062514804
000270 3c 0b 22 bd 60 e3 31 bc 50 7b 0a 3d e9 fe 2c be
       -0.039561495 -0.010857433 0.033809006 -0.16894116
000280 9c 5c df 3c 57 15 3c 3d 29 83 86 3d 4c ac 93 ba
       0.02726584 0.04591879 0.065679856 -0.0011266558
000290 e4 82 19 3d 4f 30 ec 3b c1 c2 d4 3d cd 60 9a bd
       0.037478343 0.0072079073 0.10388709 -0.075379945
0002a0 5f a2 81 bc b2 05 ca bc e1 a3 7b 3c f3 da 01 3e
       -0.015824495 -0.024660919 0.015358896 0.12681179
0002b0 69 5b 29 3c e9 ef fb 3d 84 1e 9c 3c 9f 3c d9 bd
       0.010336735 0.123016186 0.01905752 -0.10607266
0002c0 d8 25 17 3c 28 e4 80 bd f0 8d 91 bd 01 84 56 3d
       0.009225331 -0.06293517 -0.071071506 0.052371982
0002d0 59 f4 57 bd 81 82 dc 3d d2 fb 15 3e ab 58 44 bd
       -0.052723262 0.10767079 0.14646843 -0.047936123
0002e0 fc 72 51 3e c3 46 1a be 5f b4 5e 3d f4 7c 91 bd
       0.2045402 -0.15066056 0.054371234 -0.07103911
0002f0 f4 04 45 bc 4b 5a f4 bc f9 0b 36 bc 44 2f 09 3d
       -0.012025107 -0.029828211 -0.011111253 0.03349234
000300 cd 45 05 3d b6 70 11 3d 67 f2 e8 3d 8f 00 1f 3d
       0.03253727 0.03550788 0.113743596 0.038818892
000310 cd 22 ab 3d af 1f e2 3c 1a 43 c1 bb b2 8b 16 3d
       0.08356247 0.027602999 -0.0058978917 0.036754318
000320 e4 44 64 3e d6 c6 3a 3c 55 d7 29 3d 5c af 3c bd
       0.22291905 0.011399945 0.041465122 -0.046065673
000330 bf 88 dc bd b9 e4 99 3d 80 5f bf 3c e3 be 84 bd
       -0.1076827 0.075143285 0.023360968 -0.06481721
000340 cb f9 05 be 80 94 10 3d be 38 f6 3c 48 e9 43 bd
       -0.1308357 0.03529787 0.030056354 -0.047829896
000350 4c d2 b5 3c 37 c9 5e 3d c3 32 ac bd d3 fd f9 bb
       0.022195004 0.054391112 -0.084081195 -0.007629135
000360 0d cb b3 3b 75 05 aa bd 14 18 58 3d 82 5b 2a bc
       0.005486852 -0.08301822 0.052757338 -0.010397794
000370 9b 86 f7 3d 91 31 8a 3a 10 44 a6 3c 46 5e 3b bb
       0.12086221 0.0010543336 0.020296127 -0.0028590127
000380 43 da d1 3d 1d da 04 be da ab 9b bd 19 4a e8 bc
       0.10246708 -0.12973829 -0.076011375 -0.028355645
000390 f8 67 aa bc c8 6d 8b bc 1f ed 27 bc 6e 01 82 3d
       -0.02080153 -0.017020121 -0.010249405 0.06347929
0003a0 f9 3c 5f bd 6f c4 0c 3e d6 0f a3 3c 0c 28 ce bd
       -0.054501507 0.13746808 0.019905012 -0.10066232
0003b0 65 0e 3f bd fc 49 12 3e 52 72 87 3d 86 84 b6 bd
       -0.046644587 0.14286035 0.06613602 -0.089119956
0003c0 d5 03 fb bd 00 97 80 3b f0 1d 60 3c 13 a5 42 bc
       -0.1225659 0.0039242506 0.013679013 -0.011880177
0003d0 11 e6 b4 3d 57 97 07 3d 05 8c 4c 3d d3 e1 fd 3d
       0.08832944 0.033103313 0.04993822 0.12396588
0003e0 44 22 c9 3c 21 18 9c bb 59 b2 f6 3d 43 81 cd 3d
       0.024552472 -0.0047636186 0.12045736 0.1003442
0003f0 79 b4 95 bc 71 65 62 3e 55 33 de 3c ff 7a 82 bc
       -0.018274533 0.2210901 0.027124086 -0.01592779

network_body._body_endoder.seq_layers.2.bias f4 [128]
000000 00 00 00 00 00 00 00 00 00 00 00 00 00 00 00 00
       0.0 0.0 0.0 0.0
000010 00 00 00 00 00 00 00 00 00 00 00 00 00 00 00 00
       0.0 0.0 0.0 0.0
000020 00 00 00 00 00 00 00 00 00 00 00 00 00 00 00 00
       0.0 0.0 0.0 0.0
000030 00 00 00 00 00 00 00 00 00 00 00 00 00 00 00 00
       0.0 0.0 0.0 0.0
000040 00 00 00 00 00 00 00 00 00 00 00 00 00 00 00 00
       0.0 0.0 0.0 0.0
000050 00 00 00 00 00 00 00 00 00 00 00 00 00 00 00 00
       0.0 0.0 0.0 0.0
000060 00 00 00 00 00 00 00 00 00 00 00 00 00 00 00 00
       0.0 0.0 0.0 0.0
000070 00 00 00 00 00 00 00 00 00 00 00 00 00 00 00 00
       0.0 0.0 0.0 0.0
000080 00 00 00 00 00 00 00 00 00 00 00 00 00 00 00 00
       0.0 0.0 0.0 0.0
000090 00 00 00 00 00 00 00 00 00 00 00 00 00 00 00 00
       0.0 0.0 0.0 0.0
0000a0 00 00 00 00 00 00 00 00 00 00 00 00 00 00 00 00
       0.0 0.0 0.0 0.0
0000b0 00 00 00 00 00 00 00 00 00 00 00 00 00 00 00 00
       0.0 0.0 0.0 0.0
0000c0 00 00 00 00 00 00 00 00 00 00 00 00 00 00 00 00
       0.0 0.0 0.0 0.0
0000d0 00 00 00 00 00 00 00 00 00 00 00 00 00 00 00 00
       0.0 0.0 0.0 0.0
0000e0 00 00 00 00 00 00 00 00 00 00 00 00 00 00 00 00
       0.0 0.0 0.0 0.0
0000f0 00 00 00 00 00 00 00 00 00 00 00 00 00 00 00 00
       0.0 0.0 0.0 0.0
000100 00 00 00 00 00 00 00 00 00 00 00 00 00 00 00 00
       0.0 0.0 0.0 0.0
000110 00 00 00 00 00 00 00 00 00 00 00 00 00 00 00 00
       0.0 0.0 0.0 0.0
000120 00 00 00 00 00 00 00 00 00 00 00 00 00 00 00 00
       0.0 0.0 0.0 0.0
000130 00 00 00 00 00 00 00 00 00 00 00 00 00 00 00 00
       0.0 0.0 0.0 0.0
000140 00 00 00 00 00 00 00 00 00 00 00 00 00 00 00 00
       0.0 0.0 0.0 0.0
000150 00 00 00 00 00 00 00 00 00 00 00 00 00 00 00 00
       0.0 0.0 0.0 0.0
000160 00 00 00 00 00 00 00 00 00 00 00 00 00 00 00 00
       0.0 0.0 0.0 0.0
000170 00 00 00 00 00 00 00 00 00 00 00 00 00 00 00 00
       0.0 0.0 0.0 0.0
000180 00 00 00 00 00 00 00 00 00 00 00 00 00 00 00 00
       0.0 0.0 0.0 0.0
000190 00 00 00 00 00 00 00 00 00 00 00 00 00 00 00 00
       0.0 0.0 0.0 0.0
0001a0 00 00 00 00 00 00 00 00 00 00 00 00 00 00 00 00
       0.0 0.0 0.0 0.0
0001b0 00 00 00 00 00 00 00 00 00 00 00 00 00 00 00 00
       0.0 0.0 0.0 0.0
0001c0 00 00 00 00 00 00 00 00 00 00 00 00 00 00 00 00
       0.0 0.0 0.0 0.0
0001d0 00 00 00 00 00 00 00 00 00 00 00 00 00 00 00 00
       0.0 0.0 0.0 0.0
0001e0 00 00 00 00 00 00 00 00 00 00 00 00 00 00 00 00
       0.0 0.0 0.0 0.0
0001f0 00 00 00 00 00 00 00 00 00 00 00 00 00 00 00 00
       0.0 0.0 0.0 0.0

action_model._discrete_distribution.branches.0.weight f4 [3, 128]
000000 e3 a3 11 bc 14 28 48 3c 8f 37 90 3b af b8 80 ba
       -0.008889171 0.012216587 0.0044011544 -0.0009820665
000010 58 28 f0 3b 80 2c a2 bb c7 08 5e bb 33 20 f1 bb
       0.007329028 -0.0049491525 -0.0033879743 -0.007358575
000020 7b 7d 3b 3a d3 c3 e7 3b 78 18 0d 3b 6f ff a7 bb
       0.0007152182 0.0070729046 0.0021529477 -0.0051268856
000030 6d f3 f2 bb d8 2c 0f 39 f5 ec 68 3a 03 74 60 bb
       -0.0074142725 0.00013654248 0.0008885407 -0.0034248836
000040 e3 4c e5 bb 0f 0a 4c 3b f8 94 53 3c 0a 59 8c bc
       -0.006997691 0.0031133925 0.012913935 -0.0171323
000050 7b fe 83 bc 0a e9 b2 3b 49 4e 17 3b 3c 95 99 bb
       -0.016112557 0.0054599093 0.0023087433 -0.0046869796
000060 f5 dd e3 3b 76 74 82 37 ea d1 78 3b 4a 12 f6 ba
       0.0069539496 1.5551439e-05 0.0037966915 -0.0018773761
000070 ab 35 6c 3b 89 b4 b9 bb cb 04 08 3b ef 37 cf 39
       0.003604273 -0.0056672734 0.002075481 0.0003952379
000080 2d 94 6a bb c3 b0 0e 3c 27 a6 21 3c 53 04 1f bc
       -0.0035793886 0.008709135 0.009866274 -0.009705621
000090 f5 d3 db 3b 97 5e 80 bc c8 a2 1a 3c a8 ff 36 3c
       0.006708617 -0.015670104 0.009438224 0.011169352
0000a0 7b 4e a2 bb 8c 5c 85 3b 36 3d c0 ba a2 01 0e 3c
       -0.0049532033 0.0040698703 -0.001466668 0.0086673815
0000b0 9f 65 10 bb 7e 9c 25 3c cd b4 b3 3b 2f 8f 3c 3c
       -0.0022033227 0.010108111 0.0054841996 0.011508747
0000c0 28 46 64 3b 32 19 92 b9 73 dc 20 bc 5b 36 6f ba
       0.0034831855 -0.00027866062 -0.009818184 -0.0009125226
0000d0 f2 38 34 3c 7a 5a 9a 3c ea c4 a9 bb 30 f6 1f bb
       0.010999905 0.01884197 -0.0051809447 -0.0024408214
0000e0 e8 5b 00 bc 68 ff 77 3c b2 41 57 ba b3 e3 60 3a
       -0.007834412 0.015136577 -0.00082113885 0.00085788517
0000f0 0c eb a9 39 ea 00 4c ba 8b c5 88 ba 7a 1b 58 3b
       0.00032409315 -0.00077821186 -0.0010434849 0.0032975362
000100 ef c7 54 3b 35 0e 7a bb dd c8 57 bb fd bd 51 3b
       0.0032467803 -0.003815544 -0.003292612 0.003200411
000110 ed 51 e4 ba 23 7b 13 3b db 03 2d bc 1d 9d b7 3c
       -0.0017419435 0.0022503815 -0.010560001 0.022413785
000120 9d d7 d5 bb 1f 18 00 3c bb 9e 3a bc 02 28 2d 3b
       -0.0065259472 0.007818251 -0.011390383 0.0026421552
000130 ca 71 7f 3c 01 cc b8 ba 83 aa 8a bc 58 56 6c bb
       0.015591094 -0.0014098884 -0.01692701 -0.0036062207
000140 e5 0b 13 3c f3 82 4c bc 7c 8b c4 bb 80 b2 45 b7
       0.008975004 -0.012482393 -0.005998073 -1.1783675e-05
000150 47 2f 70 bb a7 b7 af 3a a8 a1 0a 3b e3 b8 80 3b
       -0.0036649273 0.0013406173 0.0021153484 0.00392829
000160 f7 f2 81 bb f0 3f 7c 3b 70 54 80 3c 16 c8 35 bb
       -0.0039657312 0.0038490258 0.015665263 -0.0027737669
000170 07 d2 29 3b 32 72 87 bb 7a 31 31 3a 0e d0 49 bb
       0.002591254 -0.004133486 0.0006759387 -0.0030794176
000180 e0 e8 ab 3b 74 3e cb bb 4a 5a 52 3b 07 0b 14 bc
       0.0052462667 -0.0062025134 0.0032097274 -0.009035832
000190 8f c9 aa 3b 8f 6d 7a 3b 7d 12 6b 3c cb 8c b4 3a
       0.005212016 0.0038212275 0.01434767 0.001377487
0001a0 db 5d ed 3b 10 48 f8 bb e7 1c 1f bb 46 07 84 bc
       0.0072438545 -0.00757695 -0.0024278702 -0.01611675
0001b0 68 cf 06 bc a5 38 13 bc cb 7d 63 3c 1d 4b 28 bc
       -0.00822816 -0.008985673 0.013884972 -0.010271815
0001c0 4a b0 98 bb a8 89 56 bc e2 71 d6 3b 10 ca 08 bc
       -0.004659687 -0.013094343 0.0065443376 -0.008348957
0001d0 3c 1f 0c 3c a3 5c 3b bb c0 6f b5 bb 73 98 87 b9
       0.008552369 -0.0028589151 -0.0055370033 -0.0002586279
0001e0 18 69 d2 bb 7d b6 71 bb a9 95 20 3b 79 f9 23 3c
       -0.0064212196 -0.0036882453 0.0024503267 0.010008209
0001f0 50 8a fe 3b 37 4a 2c 3c 5b 77 3c bc 95 a7 5d bc
       0.007767953 0.010515741 -0.011503066 -0.013528724
000200 26 79 c7 ba 46 5b 37 bc 9e 18 21 bb 0d f0 6b bb
       -0.00152186 -0.011191195 -0.0024581323 -0.0036001236
000210 d5 d5 55 3a e6 c6 37 bc d7 b8 dc ba 4b a7 97 bb
       0.00081571686 -0.011216855 -0.0016839755 -0.004628097
000220 86 b3 45 3c 00 b5 d9 bb 43 c8 12 bc ca 3c 7a bc
       0.0120667275 -0.0066438913 -0.008958879 -0.015273282
000230 d3 dd 43 3b 7a 91 7f 3c 5f c7 4a 3c 92 37 69 3a
       0.0029886856 0.015598649 0.012376635 0.0008896525
000240 12 2f 6f 3b 29 f7 96 3b 92 e0 5c bc cb 5b d5 3b
       0.0036496562 0.0046071005 -0.013481276 0.0065111867
000250 32 2e 83 ba 3b 1a 4a 3a 88 dc 0f 3c 07 f5 54 3c
       -0.0010008274 0.0007709597 0.008780606 0.012997872
000260 8f c4 98 bc 7f dd e5 3a 37 ca 4b 3c 7e 52 11 3c
       -0.018648414 0.0017537324 0.0124383485 0.008869765
000270 f2 68 5a 3c b0 66 1c 3c a7 d6 12 bc d3 fe ac 3a
       0.013330685 0.009545967 -0.00896231 0.0013198502
000280 63 cc ac bb 74 46 9c bc 9d f6 d2 bb 60 e3 1f bb
       -0.0052733882 -0.019076563 -0.00643809 -0.0024397
000290 22 f1 69 bb db f6 28 3c bf d1 f4 3b 5a 26 22 3b
       -0.0035696705 0.010312761 0.0074712927 0.0024742098
0002a0 b6 38 9a 3b 73 d3 21 3c 9f 61 b1 bb dd 42 b4 3b
       0.0047064675 0.009877074 -0.0054132487 0.005501135
0002b0 d3 36 0b 3c 8f b8 d0 ba ff 01 99 3b 80 44 6e 3a
       0.008496958 -0.0015924143 0.0046694274 0.0009089187
0002c0 33 ea 81 bc e4 6a 08 3a 4b 61 d7 bb 7f bf 0c bc
       -0.015858745 0.0005203916 -0.0065728775 -0.008590578
0002d0 96 0b 28 bb d1 df 91 bb d7 04 e4 bb 71 0d 93 bb
       -0.0025641671 -0.00445173 -0.0069585848 -0.0044876863
0002e0 35 86 fc 3b d1 27 3e bc d0 b9 5a bc 17 d7 f9 bb
       0.0077064284 -0.011606173 -0.013349965 -0.0076245177
0002f0 fb 17 54 bc 55 29 d6 bb 38 85 e1 3b b1 15 00 bc
       -0.0129451705 -0.006535689 0.006882336 -0.007817672
000300 c5 a6 8b 3c aa b2 1f bc df 9a c6 3b 17 d6 d0 ba
       0.017047295 -0.009747187 0.0060609425 -0.0015932944
000310 7a a0 8e bc cc a7 bf bb 4c 87 20 3c 3f f4 83 3a
       -0.017410506 -0.0058488604 0.009797882 0.0010067298
000320 da 0a 35 bc 2a fe 67 3c d4 8d c8 3a c6 db 31 bc
       -0.0110499505 0.0141597185 0.0015301057 -0.010855621
000330 52 97 50 bb 7c 56 a4 bb 25 81 34 bc 5b 85 d2 ba
       -0.0031828475 -0.0050151926 -0.011017119 -0.0016061472
000340 85 72 9a 3b ae 03 97 bb f0 ab 3e bc 91 9a 93 bb
       0.004713359 -0.004608593 -0.011637673 -0.0045045097
000350 4b b8 60 ba 74 1d 19 bc b3 4f a3 bb 8a 55 72 3c
       -0.00085723837 -0.009345401 -0.004983866 0.014790902
000360 2d bf 61 3c 83 e7 a5 3b db d3 44 3a a7 fc 66 3c
       0.01377849 0.0050629987 0.00075083756 0.014098323
000370 73 0a fe ba 95 ec eb 3b df c4 33 bb f7 2b c1 bb
       -0.0019381776 0.0071998336 -0.0027430577 -0.0058951336
000380 48 e4 3e 3c a5 74 18 bc d8 10 7d 3b a0 ef 75 bc
       0.011651106 -0.009305154 0.0038614776 -0.015010744
000390 66 4a 13 bc da 1e 0e bb 68 d3 e3 bb c7 24 24 bc
       -0.008989906 -0.002168587 -0.006952692 -0.010018534
0003a0 3d fa 3e bb 9c a5 b4 bb 67 6e 91 bb f7 86 2b 3c
       -0.0029140853 -0.0055129062 -0.00443821 0.01046919
0003b0 e6 7e 40 3c 39 ff a9 3b bc 16 1e 38 46 27 3e bb
       0.011749005 0.0051878956 3.769131e-05 -0.0029015108
0003c0 35 e2 e5 ba 75 fb 7b bb 28 6f fb ba 14 74 ab 3b
       -0.0017538728 -0.003844944 -0.0019182907 0.0052323435
0003d0 47 ce 31 bb f4 ed 37 3c 57 bb cf 39 84 e2 80 3b
       -0.0027131008 0.011226166 0.00039621696 0.0039332528
0003e0 65 f8 6f 3c fe 3f 9d bb 88 95 67 3c bb 41 32 bc
       0.014646624 -0.004798888 0.014134772 -0.010879929
0003f0 af e9 5a 3c 2a d4 c9 3b 75 d3 61 bc ea 28 d3 3b
       0.013361379 0.006159325 -0.013783325 0.0064440863

action_model._discrete_distribution.branches.0.bias f4 [3]
000000 00 00 00 00 00 00 00 00 00 00 00 00
       0.0 0.0 0.0

network_body._body_endoder.seq_layers.0.weight f4 [128, 35]
000000 e9 9c f9 bd 26 e4 a5 3d 68 d2 42 bd cd f2 ba be
       -0.12188131 0.081001565 -0.04756394 -0.36513367
000010 d0 89 62 bd 65 b1 9e 3e 03 bb 71 3e 86 85 9f be
       -0.05530721 0.30994716 0.23606496 -0.31156558
000020 fb 52 b4 bd de eb 9e bd 65 28 e5 3d 45 f0 18 3e
       -0.0880489 -0.07759832 0.11189345 0.14935406
000030 68 d2 55 3e dd 32 54 bc 92 67 50 bc ec eb 9c bd
       0.20881045 -0.01295158 -0.012720006 -0.07662186
000040 f8 99 0a be 24 bf 40 be 60 4d d8 3e 5b e0 a7 be
       -0.13535297 -0.18822914 0.42246532 -0.32788357
000050 09 13 cc 3d 0a 88 9b 3d 4d 34 1c 3d 68 56 28 bc
       0.09964568 0.07594307 0.038135815 -0.010274507
000060 7e 09 09 bd de 85 1e 3e a5 30 27 3d 89 64 f0 bd
       -0.033456318 0.15480754 0.040817875 -0.117379256
000070 eb f8 a4 bc eb 82 13 3d 06 e6 8f be 9e 35 c0 3b
       -0.020138225 0.036013525 -0.2810518 0.0058657667
000080 66 49 9e be bc ff 0c be 2d 0e a7 3d 04 f0 9d 3d
       -0.30915374 -0.1376943 0.08157001 0.07711795
000090 17 26 2c bc f1 c8 92 bd 4d 31 0c 3e d6 8a 8b 3d
       -0.010507128 -0.07167233 0.13690682 0.0681359
0000a0 ee 4b d0 be 48 ce 92 bd 08 34 94 bc fd 38 1a 3e
       -0.4068293 -0.07168251 -0.018091217 0.15060802
0000b0 0a 37 ac bd 29 40 7d 3d 68 60 77 be bd f7 c5 be
       -0.08408935 0.061828766 -0.2415787 -0.38665572
0000c0 f1 3a 7d be 1a 0b 14 3c f5 b6 e3 3e f9 b7 86 be
       -0.24729516 0.00903585 0.44475523 -0.26312235
0000d0 2a 9e 24 be 56 b6 05 3e 17 22 17 be 9a cb f7 bc
       -0.1607596 0.13057837 -0.14759098 -0.030248452
0000e0 ae 55 fe 3d e1 b3 1e be 13 23 67 be b3 d9 84 bd
       0.12418686 -0.15498306 -0.22571974 -0.06486835
0000f0 35 62 5c bb 92 a0 01 be cf 58 06 3e 41 ad 05 bd
       -0.0033627872 -0.12658909 0.13119815 -0.03263593
000100 4a c8 07 3d 09 a8 53 3d 03 ff bd bd 62 5c 1f be
       0.033149995 0.051673923 -0.09277155 -0.15562585
000110 9c 4a 7b be d5 8e 83 be e2 29 bc 3d f3 0f f2 3d
       -0.2454018 -0.2569491 0.09187676 0.11819448
000120 37 9f 95 be 21 e1 3f 3a 49 57 6d be cf 67 61 bd
       -0.29223034 0.00073196186 -0.23177828 -0.05503064
000130 c3 26 83 3d 50 9f 45 3e 76 0d 46 be 0f 4e 84 3e
       0.064038776 0.19299054 -0.19341072 0.25840804
000140 ad 15 1d bc 0a fc b9 bc 3d 6f b1 bd c3 d0 85 3e
       -0.009587687 -0.02270319 -0.08663795 0.26135835
000150 c4 7f b1 bd c4 07 a2 3d 7d 98 91 bd 2a 84 4c be
       -0.086669475 0.079116374 -0.07109163 -0.19972292
000160 61 6b bf bd 89 b6 e2 3b ed d8 0b 3d 68 3d 4f bc
       -0.09346653 0.0069187325 0.034142423 -0.012648918
000170 c3 77 59 bd b6 13 80 be a2 c3 62 bd f6 ad e8 bd
       -0.05309273 -0.25015038 -0.05536235 -0.113613054
000180 84 78 a0 3e b7 16 de 3d 51 6a 2a be 81 15 af bc
       0.31341946 0.10844176 -0.16642119 -0.021372559
000190 29 1b ca bc c0 e8 a3 3e 9c f5 56 3e a8 7d d5 bd
       -0.024671154 0.32013512 0.2099213 -0.10424358
0001a0 26 36 64 3e 4e 58 20 3e 5f 88 ba 3d d4 a0 9d bd
       0.22286281 0.15658686 0.09108042 -0.07696691
0001b0 9f 41 42 bd ec e5 e0 bc 39 a9 91 be 87 bb 5b be
       -0.047425862 -0.027453385 -0.2844942 -0.21458255
0001c0 0d 18 84 bd ab 32 06 be 93 d6 80 3e 9b df a2 bd
       -0.064499 -0.13105266 0.25163707 -0.079528056
0001d0 74 d5 bc bd 6d 8b dd 3d 6b cb 68 3e df 66 86 bc
       -0.092204005 0.10817609 0.22733848 -0.016406475
0001e0 68 f7 e1 bd 1c d2 89 be c1 a2 93 3b 3a 42 ef 3c
       -0.11033517 -0.26918113 0.0045054858 0.029206384
0001f0 e2 e8 96 3e 7e 1b e3 bd b0 12 40 be 2d 62 17 be
       0.2947455 -0.11089228 -0.18757129 -0.14783545
000200 e3 f4 e4 3d dd b4 a0 bd 07 21 85 bd cb 39 30 3e
       0.11179521 -0.07846997 -0.0650044 0.17209546
000210 11 d6 75 3e ae eb 70 bd 10 b6 3a bb 81 e2 64 3e
       0.24007441 -0.05881851 -0.0028489865 0.2235203
000220 ce e1 1f 3e 91 b1 8c be 17 0b 3b 3e b5 e9 95 3d
       0.15613481 -0.27479222 0.18265949 0.07319967
000230 ff 46 a0 3a 63 6e ac be 1c 04 e0 3d 2c 69 d5 3b
       0.001222819 -0.33677968 0.10938284 0.0065127816
000240 e4 87 2f be 1b 00 9c bc b8 3f a4 bc c0 80 97 bc
       -0.17141682 -0.019043019 -0.020049915 -0.01849401
000250 d2 62 51 3e b7 c3 4e 3e d5 ad 36 3e bd 35 f6 3d
       0.20447853 0.20191847 0.17839749 0.120219685
000260 da e3 4d 3e 3f 8b 69 3c 56 b9 eb bd 5d 1d ba bd
       0.2010645 0.01425439 -0.115099594 -0.09087632
000270 cf 5b 14 bb 24 74 8d 3d 41 e2 0f be c7 49 77 be
       -0.002263773 0.06906918 -0.14051153 -0.24149238
000280 8e dc ef bd dd f2 e5 3c 8a 2c 0b be 20 d0 0c 3e
       -0.11711989 0.028069908 -0.13591209 0.13751268
000290 dc 34 50 be 6f b7 d0 be 96 56 e3 bc fc 5d b3 bd
       -0.20332664 -0.4076495 -0.027751248 -0.087581605
0002a0 35 8e 1c 3d 1c b1 32 be 98 89 1e be fb ee df 3d
       0.038221557 -0.17450374 -0.15482175 0.10934254
0002b0 a2 80 2c bc 76 be 75 be e7 e5 06 3e d4 fe a5 3e
       -0.010528715 -0.23998436 0.13173638 0.3242098
0002c0 6e 2d 19 3d bb d3 a1 bd 09 eb ff bc bf 47 a1 3e
       0.03739684 -0.079017125 -0.031240003 0.3150005
0002d0 23 c4 86 be 48 9b 9b 3c fc d7 a0 3c 68 8a 69 be
       -0.26321515 0.018994942 0.01963424 -0.22806704
0002e0 67 a7 16 3e a4 50 72 3d 28 7b 81 bc ab bd 77 be
       0.14712296 0.059158936 -0.015805796 -0.24193446
0002f0 c9 bf a7 bd f8 08 0c 3e 4e 78 2d be a7 21 24 be
       -0.08190877 0.13675296 -0.16940424 -0.16028462
000300 46 9a b2 bc 08 b1 9a bd 56 ed 61 3e f3 18 e9 3d
       -0.021802079 -0.07553297 0.22063193 0.11381712
000310 00 f5 98 bc 01 ad 83 be 62 87 08 be 45 a2 30 3e
       -0.018671513 -0.2571793 -0.13332894 0.17249401
000320 6c b4 2a be a7 94 bb bd 19 d5 30 3d f1 fd 9a be
       -0.16670388 -0.091592126 0.043171976 -0.30271867
000330 04 4c 32 3e bc 28 a2 3c 96 15 9e be e2 87 17 3e
       0.1741181 0.019794814 -0.30875844 0.14797929
000340 fd da ab be ee 28 85 bc 82 a7 40 3e 4a 1f ab bd
       -0.33565512 -0.016254868 0.18813899 -0.08355577
000350 22 6a c5 3d 55 d7 9a bd 60 36 09 be 4d aa ae 3e
       0.09639384 -0.075606026 -0.13399649 0.34114304
000360 df ef 5e be e7 d0 e1 3d af 5f a0 3b 0c 0a 0f 3e
       -0.21771191 0.11026173 0.004894219 0.13968676
000370 75 51 9d 3d 1a e5 3f 3e 80 f8 96 3e 99 6d 94 3c
       0.07681552 0.18739739 0.29486465 0.018118666
000380 d1 3c 54 bd 47 9a cd be 54 c4 14 bb ad 09 c5 bd
       -0.05181581 -0.40156767 -0.0022700028 -0.09620986
000390 4c a0 5d bc b7 1e 94 3d 2e 60 cc 3d 33 03 3f be
       -0.013526987 0.07232421 0.09979282 -0.18653564
0003a0 42 0d 57 be 9a 94 8c 3e be 7e 56 be 4c f7 09 3e
       -0.21001151 0.27457124 -0.20946786 0.13473243
0003b0 00 c9 2b 3d 51 45 e8 3b 58 a1 2d be 7a c5 c1 3d
       0.041939735 0.0070883413 -0.16956079 0.09461494
0003c0 14 8e 8d 3e 0d f1 30 3e 85 06 e7 3d 09 81 02 be
       0.2764746 0.17279454 0.112805404 -0.12744536
0003d0 c7 18 01 3e a0 9f 52 3e 98 b9 86 3e bf 6f 84 be
       0.12607108 0.20568705 0.26313472 -0.25866506
0003e0 5c 38 2d 3e aa ac 24 be 9d 63 1d bd 18 dc 7b bd
       0.1691603 -0.16081491 -0.038425077 -0.061489195
0003f0 9a 29 b2 be e9 0b 3c be 3a c9 32 3e 56 7c 1a be
       -0.34797364 -0.18363918 0.17459574 -0.15086493

network_body._body_endoder.seq_layers.0.bias f4 [128]
000000 00 00 00 00 00 00 00 00 00 00 00 00 00 00 00 00
       0.0 0.0 0.0 0.0
000010 00 00 00 00 00 00 00 00 00 00 00 00 00 00 00 00
       0.0 0.0 0.0 0.0
000020 00 00 00 00 00 00 00 00 00 00 00 00 00 00 00 00
       0.0 0.0 0.0 0.0
000030 00 00 00 00 00 00 00 00 00 00 00 00 00 00 00 00
       0.0 0.0 0.0 0.0
000040 00 00 00 00 00 00 00 00 00 00 00 00 00 00 00 00
       0.0 0.0 0.0 0.0
000050 00 00 00 00 00 00 00 00 00 00 00 00 00 00 00 00
       0.0 0.0 0.0 0.0
000060 00 00 00 00 00 00 00 00 00 00 00 00 00 00 00 00
       0.0 0.0 0.0 0.0
000070 00 00 00 00 00 00 00 00 00 00 00 00 00 00 00 00
       0.0 0.0 0.0 0.0
000080 00 00 00 00 00 00 00 00 00 00 00 00 00 00 00 00
       0.0 0.0 0.0 0.0
000090 00 00 00 00 00 00 00 00 00 00 00 00 00 00 00 00
       0.0 0.0 0.0 0.0
0000a0 00 00 00 00 00 00 00 00 00 00 00 00 00 00 00 00
       0.0 0.0 0.0 0.0
0000b0 00 00 00 00 00 00 00 00 00 00 00 00 00 00 00 00
       0.0 0.0 0.0 0.0
0000c0 00 00 00 00 00 00 00 00 00 00 00 00 00 00 00 00
       0.0 0.0 0.0 0.0
0000d0 00 00 00 00 00 00 00 00 00 00 00 00 00 00 00 00
       0.0 0.0 0.0 0.0
0000e0 00 00 00 00 00 00 00 00 00 00 00 00 00 00 00 00
       0.0 0.0 0.0 0.0
0000f0 00 00 00 00 00 00 00 00 00 00 00 00 00 00 00 00
       0.0 0.0 0.0 0.0
000100 00 00 00 00 00 00 00 00 00 00 00 00 00 00 00 00
       0.0 0.0 0.0 0.0
000110 00 00 00 00 00 00 00 00 00 00 00 00 00 00 00 00
       0.0 0.0 0.0 0.0
000120 00 00 00 00 00 00 00 00 00 00 00 00 00 00 00 00
       0.0 0.0 0.0 0.0
000130 00 00 00 00 00 00 00 00 00 00 00 00 00 00 00 00
       0.0 0.0 0.0 0.0
000140 00 00 00 00 00 00 00 00 00 00 00 00 00 00 00 00
       0.0 0.0 0.0 0.0
000150 00 00 00 00 00 00 00 00 00 00 00 00 00 00 00 00
       0.0 0.0 0.0 0.0
000160 00 00 00 00 00 00 00 00 00 00 00 00 00 00 00 00
       0.0 0.0 0.0 0.0
000170 00 00 00 00 00 00 00 00 00 00 00 00 00 00 00 00
       0.0 0.0 0.0 0.0
000180 00 00 00 00 00 00 00 00 00 00 00 00 00 00 00 00
       0.0 0.0 0.0 0.0
000190 00 00 00 00 00 00 00 00 00 00 00 00 00 00 00 00
       0.0 0.0 0.0 0.0
0001a0 00 00 00 00 00 00 00 00 00 00 00 00 00 00 00 00
       0.0 0.0 0.0 0.0
0001b0 00 00 00 00 00 00 00 00 00 00 00 00 00 00 00 00
       0.0 0.0 0.0 0.0
0001c0 00 00 00 00 00 00 00 00 00 00 00 00 00 00 00 00
       0.0 0.0 0.0 0.0
0001d0 00 00 00 00 00 00 00 00 00 00 00 00 00 00 00 00
       0.0 0.0 0.0 0.0
0001e0 00 00 00 00 00 00 00 00 00 00 00 00 00 00 00 00
       0.0 0.0 0.0 0.0
0001f0 00 00 00 00 00 00 00 00 00 00 00 00 00 00 00 00
       0.0 0.0 0.0 0.0

network_body._body_endoder.seq_layers.2.weight f4 [128, 128]
000000 3b 98 86 bc aa f9 f4 ba c2 e6 c1 3c ad 96 31 3c
       -0.016430011 -0.0018690128 0.023669604 0.010839147
000010 39 5a a5 bd ba 92 e5 bb fa 33 6d 3d 00 f3 83 3d
       -0.08073849 -0.0070060166 0.057910897 0.06442833
000020 20 35 74 3d 9e 9b 30 3d 90 85 86 3c 01 2d 2b be
       0.059620976 0.043117158 0.01642111 -0.16716386
000030 59 23 7a 3d ed 84 a6 3d b8 2a 5a be a4 53 6f bd
       0.061068866 0.08130822 -0.21305358 -0.058429375
000040 f9 e5 ec bb 3a e9 ee 3b 97 b9 bd bd b4 ef 24 3e
       -0.0072295633 0.0072909864 -0.09263914 0.16107064
000050 c8 69 08 bd 86 06 c2 bd ac d6 c2 3c a2 62 25 3c
       -0.033304006 -0.094739005 0.023784004 0.010094317
000060 fa 43 10 3d f2 50 82 3d 81 04 c2 3c 91 41 21 bd
       0.035221078 0.06363095 0.023683788 -0.03936917
000070 80 90 9b 3d 95 1c 89 bd 2e 34 b3 3d 26 e8 3f bd
       0.075959206 -0.06694905 0.08750187 -0.046852253
000080 25 91 11 bd 4c 50 cb bd 4c 7e b3 3d 4b fa ba 3d
       -0.03553881 -0.09927425 0.087643236 0.09129771
000090 2e 90 0a bd 03 35 55 be ae b2 a9 bd ea 45 f0 bd
       -0.033828907 -0.20821004 -0.082860336 -0.11732085
0000a0 30 36 48 be f6 d5 d0 bd 26 db 9f 3c cc b6 95 bb
       -0.19551921 -0.1019706 0.019513678 -0.00456891
0000b0 8b 04 a5 bc 6d 25 91 3d 28 9c 9a 3d e2 a7 5c 3d
       -0.020143768 0.070872165 0.07549316 0.053871043
0000c0 20 39 fe 3c 08 20 0d 3e 84 bb 1f 3e ec 0f 1d bd
       0.031033099 0.1378175 0.15598875 -0.038345262
0000d0 cf 22 72 bc c8 bc 9d 3c 12 bb d7 bc 84 50 04 be
       -0.014778807 0.019255057 -0.02633432 -0.1292134
0000e0 0c a8 38 be c7 ba 65 bb 22 c7 9a 3d be 85 1d be
       -0.18032855 -0.0035053955 0.07557513 -0.1538305
0000f0 88 58 05 3e 7f 11 e0 3d 56 cf 01 3d 80 04 3d 3e
       0.13022053 0.10940837 0.03169187 0.18458748
000100 2d 57 3a 3e 4a f3 94 3d 85 99 cd 3d 50 70 43 3d
       0.18197317 0.07272966 0.10039047 0.04771453
000110 6b 5e 3b 39 3b 8c ab bd a7 ca 81 3d a7 d1 96 3c
       0.00017868883 -0.08376356 0.06337481 0.018410517
000120 87 20 f9 3d 6b c4 bd bd a4 6b 91 bc ee 66 de bd
       0.12164407 -0.092659794 -0.017751522 -0.10859476
000130 32 62 25 bc a6 4e b9 bc 25 cf 0a 3e 5d 6c 09 be
       -0.010094212 -0.02262051 0.13555582 -0.13420244
000140 78 ac fe 3c 65 ae 8f bd d1 16 79 bd 3c 46 18 be
       0.031088099 -0.07015685 -0.060812775 -0.14870542
000150 54 1c ca 3d 6f 69 e5 3c f8 98 01 bd 0d fa fa bc
       0.098686844 0.028004376 -0.031640023 -0.030636812
000160 44 73 0e be f0 cb dc 3d 36 70 86 bc 14 c4 13 3d
       -0.13911158 0.107810855 -0.016410928 0.036075667
000170 e2 df 5b 3e 0f 07 2b 3d f5 f7 89 3d 2e 03 17 3d
       0.21472123 0.04175478 0.06736747 0.036868267
000180 b6 84 cf 3c a9 51 04 3d 31 19 69 bd d0 a1 f1 bc
       0.025331836 0.03230444 -0.05690879 -0.029496104
000190 89 bf 8d be 89 f8 07 bd 77 22 17 bc 73 c6 a7 bd
       -0.27685192 -0.033196006 -0.009224526 -0.08192148
0001a0 4c 51 0b 3e 6f e0 1c 3e 9d 3a 05 be 8e 4e 0c 3e
       0.13605231 0.1531999 -0.1301064 0.13701841
0001b0 ae 0f 04 bd c6 22 0c bc 71 d8 37 bc 43 05 da bd
       -0.032241516 -0.0085532125 -0.011221037 -0.10645535
0001c0 a2 10 a2 3d c6 5a e8 3c f4 65 04 be 8c 4d 44 3d
       0.07913329 0.028363597 -0.12929517 0.047925517
0001d0 a3 35 2a be 2e 44 c3 bd 50 b2 a5 3d 27 88 67 bd
       -0.16622023 -0.095344886 0.08090651 -0.05652633
0001e0 78 34 e2 3b 07 ad d3 bb 1c 37 90 3d c4 a7 92 bb
       0.0069032274 -0.0064598355 0.07041761 -0.0044755656
0001f0 6a dc 76 bd 86 ef b4 3d af a5 95 3d 3c bb 4f bc
       -0.060268797 0.08834748 0.07306992 -0.0126789175
000200 09 09 82 bd 2b c4 b7 3d e8 84 20 bd 24 5b 05 be
       -0.063493796 0.08972963 -0.03918925 -0.13023049
000210 54 9e a0 3d cf f8 20 3d ac f3 ce 3d b7 da 12 3d
       0.07842699 0.039299782 0.101050705 0.035853114
000220 e7 cb 91 bc db fa f1 3d 01 82 10 bd 81 38 9e bd
       -0.017797424 0.11815425 -0.03528023 -0.07725621
000230 58 40 a4 3d 21 0e a8 bc b5 4b c3 bd 50 11 b8 bb
       0.08020085 -0.02051455 -0.09535924 -0.005617298
000240 fe 4a fb 3c ea 91 f9 3d 1f 2c ec 3c d4 a3 50 bc
       0.030675407 0.12186034 0.028829632 -0.012734372
000250 c4 1b 33 be a1 7f 2c 3c fc 36 54 be eb f7 51 bd
       -0.1749106 0.010528476 -0.207241 -0.051261824
000260 46 07 81 bd 49 87 f9 bb 48 99 2d be b5 6e f4 3c
       -0.063002154 -0.007615004 -0.16953003 0.029837945
000270 9a b9 da bd aa a2 ed 3d 21 30 8d 3d 58 d9 86 bd
       -0.10679932 0.11603291 0.068939455 -0.06584424
000280 ef 89 94 3d 0c 46 33 bc b1 45 13 3e 38 93 8e bd
       0.07252871 -0.010941993 0.14382054 -0.069616735
000290 29 7f 2f bd 4f 4f ff bd 4b 05 00 bc 9b 39 f4 bd
       -0.04284588 -0.12466299 -0.007813762 -0.1192505
0002a0 b2 b0 e7 3c 14 f8 16 bd 5d c0 09 3d 36 a9 63 3d
       0.028282497 -0.03685768 0.033630718 0.055581294
0002b0 f1 15 38 bb aa a4 be bc b8 db 39 3d d9 a2 c0 3d
       -0.002808925 -0.023271877 0.045375556 0.09406061
0002c0 4e 1c 41 bd 5d d6 f4 3d f7 48 09 3e dc 91 ee bc
       -0.047146134 0.11954949 0.1340674 -0.029122286
0002d0 ce 6a 0d 3d 09 97 89 bb 56 9c d7 ba 4b 46 98 bd
       0.034525685 -0.004198913 -0.001644979 -0.07435282
0002e0 b1 c4 93 3d 08 40 06 bd 74 e1 6a 3e cd 43 a1 3c
       0.0721525 -0.03277591 0.22937566 0.01968565
0002f0 bc 57 ea bd 03 fd db bd 0d 34 0c be 59 4d d8 bb
       -0.11442515 -0.107416175 -0.13691731 -0.0066010174
000300 20 b5 85 3b b9 c0 03 be a4 24 0c 3e 75 b9 9e bc
       0.0040804297 -0.12866487 0.13685852 -0.019375542
000310 6b 40 ca 3d 34 7a bf 3d ae 3f 7a 3d 14 e0 bb 3d
       0.09875568 0.0934948 0.061095886 0.09173599
000320 aa 04 a9 3d 68 d4 b3 bd 9d 54 34 3d f4 fc 85 3d
       0.08252843 -0.08780748 0.044026006 0.065423876
000330 98 13 d7 bc 73 3b 43 3d 34 c6 4a bc 7c 1d 3c bd
       -0.02625446 0.047664117 -0.012376357 -0.045926556
000340 95 72 c2 bd 07 35 4c be 12 ef f5 3d 08 bb a5 3c
       -0.09494511 -0.19942103 0.1200849 0.020230785
000350 20 92 53 bd d7 d3 3d bd 4e ec 95 3d 57 cd 30 3d
       -0.051653028 -0.046344604 0.07320462 0.043164577
000360 61 f9 d4 3d 2f 26 83 3d 87 01 db bc 11 31 d8 bd
       0.10399128 0.06403767 -0.026734127 -0.10556234
000370 62 8b 33 bd de 8d a9 3d 5a 32 0c 3e 03 1b 15 be
       -0.043834098 0.08279012 0.13691083 -0.14561085
000380 b6 e1 8a bd 08 03 1a bd d9 c1 12 bd 5c 71 61 3e
       -0.06781332 -0.037600547 -0.0358294 0.220159
000390 49 91 7a 3d d4 d5 cf bd e5 a5 d1 bd 3a 44 40 3d
       0.06117371 -0.10148206 -0.1023672 0.046940066
0003a0 c5 6e d2 3d d2 32 87 3c 10 66 3d be 30 61 ad 3d
       0.10275034 0.016503725 -0.18495965 0.08465803
0003b0 0f 7c 28 3b 0a 01 77 be 49 c8 86 3d 08 a6 d9 bd
       0.002570871 -0.2412149 0.0658117 -0.10627371
0003c0 71 b0 aa bd 17 da fa 3c 09 b8 36 3e 87 21 b9 3d
       -0.08334435 0.030621571 0.17843641 0.09039598
0003d0 98 88 dc 3d 06 a2 e7 bd 65 1a d8 bc 08 3c e0 3d
       0.10768241 -0.113102004 -0.026379773 0.1094895
0003e0 09 f8 df bc b7 de 1e 3d 01 17 37 bd 2b 3b 8d 3b
       -0.027339952 0.038786616 -0.044699673 0.004310032
0003f0 d4 6e 09 3e 92 dc 08 bd 0f 3d cc bc b1 a2 d7 3d
       0.13421184 -0.033413477 -0.024931459 0.10529078

network_body._body_endoder.seq_layers.2.bias f4 [128]
000000 00 00 00 00 00 00 00 00 00 00 00 00 00 00 00 00
       0.0 0.0 0.0 0.0
000010 00 00 00 00 00 00 00 00 00 00 00 00 00 00 00 00
       0.0 0.0 0.0 0.0
000020 00 00 00 00 00 00 00 00 00 00 00 00 00 00 00 00
       0.0 0.0 0.0 0.0
000030 00 00 00 00 00 00 00 00 00 00 00 00 00 00 00 00
       0.0 0.0 0.0 0.0
000040 00 00 00 00 00 00 00 00 00 00 00 00 00 00 00 00
       0.0 0.0 0.0 0.0
000050 00 00 00 00 00 00 00 00 00 00 00 00 00 00 00 00
       0.0 0.0 0.0 0.0
000060 00 00 00 00 00 00 00 00 00 00 00 00 00 00 00 00
       0.0 0.0 0.0 0.0
000070 00 00 00 00 00 00 00 00 00 00 00 00 00 00 00 00
       0.0 0.0 0.0 0.0
000080 00 00 00 00 00 00 00 00 00 00 00 00 00 00 00 00
       0.0 0.0 0.0 0.0
000090 00 00 00 00 00 00 00 00 00 00 00 00 00 00 00 00
       0.0 0.0 0.0 0.0
0000a0 00 00 00 00 00 00 00 00 00 00 00 00 00 00 00 00
       0.0 0.0 0.0 0.0
0000b0 00 00 00 00 00 00 00 00 00 00 00 00 00 00 00 00
       0.0 0.0 0.0 0.0
0000c0 00 00 00 00 00 00 00 00 00 00 00 00 00 00 00 00
       0.0 0.0 0.0 0.0
0000d0 00 00 00 00 00 00 00 00 00 00 00 00 00 00 00 00
       0.0 0.0 0.0 0.0
0000e0 00 00 00 00 00 00 00 00 00 00 00 00 00 00 00 00
       0.0 0.0 0.0 0.0
0000f0 00 00 00 00 00 00 00 00 00 00 00 00 00 00 00 00
       0.0 0.0 0.0 0.0
000100 00 00 00 00 00 00 00 00 00 00 00 00 00 00 00 00
       0.0 0.0 0.0 0.0
000110 00 00 00 00 00 00 00 00 00 00 00 00 00 00 00 00
       0.0 0.0 0.0 0.0
000120 00 00 00 00 00 00 00 00 00 00 00 00 00 00 00 00
       0.0 0.0 0.0 0.0
000130 00 00 00 00 00 00 00 00 00 00 00 00 00 00 00 00
       0.0 0.0 0.0 0.0
000140 00 00 00 00 00 00 00 00 00 00 00 00 00 00 00 00
       0.0 0.0 0.0 0.0
000150 00 00 00 00 00 00 00 00 00 00 00 00 00 00 00 00
       0.0 0.0 0.0 0.0
000160 00 00 00 00 00 00 00 00 00 00 00 00 00 00 00 00
       0.0 0.0 0.0 0.0
000170 00 00 00 00 00 00 00 00 00 00 00 00 00 00 00 00
       0.0 0.0 0.0 0.0
000180 00 00 00 00 00 00 00 00 00 00 00 00 00 00 00 00
       0.0 0.0 0.0 0.0
000190 00 00 00 00 00 00 00 00 00 00 00 00 00 00 00 00
       0.0 0.0 0.0 0.0
0001a0 00 00 00 00 00 00 00 00 00 00 00 00 00 00 00 00
       0.0 0.0 0.0 0.0
0001b0 00 00 00 00 00 00 00 00 00 00 00 00 00 00 00 00
       0.0 0.0 0.0 0.0
0001c0 00 00 00 00 00 00 00 00 00 00 00 00 00 00 00 00
       0.0 0.0 0.0 0.0
0001d0 00 00 00 00 00 00 00 00 00 00 00 00 00 00 00 00
       0.0 0.0 0.0 0.0
0001e0 00 00 00 00 00 00 00 00 00 00 00 00 00 00 00 00
       0.0 0.0 0.0 0.0
0001f0 00 00 00 00 00 00 00 00 00 00 00 00 00 00 00 00
       0.0 0.0 0.0 0.0

value_heads.value_heads.extrinsic.weight f4 [1, 128]
000000 8e 20 02 be f3 3e 3b 3e ec 67 24 3e 49 fb 55 be
       -0.12707731 0.18285732 0.16055268 -0.20896639
000010 48 31 18 be f3 ba 88 3b 77 fb d7 bd 53 ed d3 3d
       -0.1486255 0.0041726767 -0.1054601 0.103480004
000020 2f 48 4f bc d5 26 31 3e df de 3a be ed c7 3a be
       -0.012651487 0.1729997 -0.18249081 -0.18240328
000030 42 5b 81 bd 56 7a 58 3d 45 81 09 3e af 53 c1 3c
       -0.06316234 0.052851044 0.13428219 0.023599474
000040 9f ef c2 3d d6 7b 33 be ae 0c 4b 3e e9 9c 4c 3e
       0.0951836 -0.17527708 0.19829056 0.19981731
000050 09 12 9a bd 99 ae 41 be ae 86 c6 3d fe 3c 4f be
       -0.07522971 -0.1891426 0.09693657 -0.2023811
000060 1a ef e4 bd a6 d3 d8 3d d1 77 07 3e f9 b6 c6 bc
       -0.111784175 0.10587244 0.132293 -0.02425717
000070 49 99 73 3d 5b 64 09 3e 96 6a c4 3d 5e 6c 13 be
       0.059472356 0.13417189 0.09590642 -0.14396808
000080 fc ba 4b 3e a7 c1 44 3e fb 00 d7 bd 57 bc 08 3e
       0.19895548 0.19214498 -0.10498234 0.13353096
000090 35 23 02 3d 03 7a 40 bd d9 fc 86 3d 5a c2 bb 3c
       0.031771857 -0.04699136 0.065911956 0.022919822
0000a0 f3 4b 26 3e 15 94 48 bc 52 8e f1 bc c4 a8 7f bd
       0.1623991 -0.012242337 -0.029486809 -0.062416807
0000b0 71 18 44 be fb e3 01 be 84 82 25 3a ba 28 d7 bd
       -0.19149949 -0.12684624 0.0006313699 -0.10505815
0000c0 0c b2 55 3c ab db 36 3e 9b 8d f7 3d 0d 23 12 3e
       0.013042938 0.17857234 0.12087556 0.14271183
0000d0 95 92 40 3d c3 8c 32 bd 81 6b d1 3d 00 b6 62 bd
       0.04701479 -0.043591272 0.10225583 -0.05534935
0000e0 46 df 52 be 10 b1 50 3e 1b 53 29 3e e8 d9 0a 3e
       -0.20592985 0.20380044 0.16535608 0.13559687
0000f0 06 a1 2a 3e 42 e6 8b 3d 7c 85 42 3e 91 4b 1e be
       0.16662988 0.068310276 0.18996233 -0.15458514
000100 01 0f 89 3d 83 fc 4e 3e 7c 60 17 3d 95 86 51 3d
       0.06692315 0.20213513 0.03695725 0.051153738
000110 4b 79 41 3d 54 cf 9e bc cc 40 72 bd d8 87 58 3e
       0.047234815 -0.019385971 -0.059143826 0.2114557
000120 34 2a c5 3c 05 38 2d bd 55 56 db bd 94 39 18 3c
       0.024067976 -0.042289753 -0.10709826 0.009291071
000130 66 7c 5b 3d 56 6f a8 3d 51 df ff bc 35 57 12 be
       0.053585432 0.08224361 -0.031234415 -0.1429108
000140 9e ad f2 bc de 15 99 bd d0 d8 f0 3d 1f c5 2c bb
       -0.029623803 -0.07474874 0.11760104 -0.002636261
000150 ef 83 1a bd 08 55 7d 3d 81 48 c2 3d fa d1 b2 bd
       -0.037723478 0.06184867 0.09486485 -0.08731456
000160 52 ce 61 bd c0 bb e2 bd 84 ea b1 bc b2 9c 07 bd
       -0.055128403 -0.11070967 -0.021718271 -0.03310842
000170 0f e8 53 be b8 86 55 3e d4 fe 49 be 30 86 37 be
       -0.20693992 0.20852172 -0.19726115 -0.17922282
000180 00 74 e3 bc 00 fd 38 3d eb bd 28 be ca 7d 93 bd
       -0.027765274 0.045163155 -0.16478698 -0.07201727
000190 4c 71 7a 3d dd fe 2b 3e 58 ee ec 3d ed c2 b9 3d
       0.061143205 0.16796441 0.11568898 0.09070382
0001a0 dc 4d f5 3d bd 2c 19 be 37 03 dc b9 be 0f 6e 3d
       0.11977741 -0.14958473 -0.00041964065 0.05812048
0001b0 ef 4a 37 3e 96 a8 42 be 75 b3 28 bb 08 b6 46 be
       0.17899679 -0.19009623 -0.002574173 -0.19405377
0001c0 c2 aa a9 3d 0f 7f 11 3e 3a b5 4c 3e 4a 4d 1b 3e
       0.082845226 0.14208625 0.19991007 0.15166202
0001d0 97 f1 24 3a 39 51 38 3e 52 35 01 3e cb bc 40 be
       0.0006292103 0.17999734 0.12617996 -0.18822019
0001e0 96 99 b4 bd d3 52 0c 3e 84 8f 07 be 5f 3d 5c 3e
       -0.08818357 0.1370347 -0.1323834 0.21507786
0001f0 fc b3 0d be 86 80 3f be 98 6e 39 3e 30 b4 3e be
       -0.1383819 -0.18701372 0.18108594 -0.18623424
