results/ppo/MoveToGoal/MoveToGoal-2711.onnx (onnx, 88160 bytes, 6 tensors)

action_model._discrete_distribution.branches.0.bias f4 [3]
0	0x00000000	0.0
1	0x00000000	0.0
2	0x00000000	0.0

action_model._discrete_distribution.branches.0.weight f4 [3, 128]
0	0xb8d3479f	-0.000100746045
1	0xbaaabc95	-0.0013026173
2	0x3c095db3	0.008384156
3	0x3bf4e73d	0.007473855
4	0x3be5f27a	0.007017431
5	0xbb6ae3b7	-0.0035841295
6	0x3a91300f	0.0011076945
7	0xbaeb949d	-0.0017973367
8	0x3bacceed	0.005273691
9	0x3c4e5fd2	0.0125960875
10	0xbc80923d	-0.015694732
11	0x3bc38e18	0.0059678666
12	0x3bc7a196	0.0060922606
13	0x39f4b1c5	0.00046671755
14	0xbba145cd	-0.004921651
15	0x3c4df397	0.012570283
16	0x3b9e828c	0.0048373397
17	0x3698dcca	4.5556562e-06
18	0xbc647a5d	-0.013945189
19	0xbc6ab090	-0.014324322
20	0x3a703215	0.0009162736
21	0xbb2ea113	-0.00266463
22	0x3c074133	0.008255291
23	0xb9808b4d	-0.0002451785
24	0xbb80048b	-0.0039067916
25	0x3c3286af	0.010896369
26	0x39e6f898	0.00044054235
27	0x3b6c60e7	0.00360685
28	0xbb099c04	-0.0020997534
29	0x3c5649d5	0.013079126
30	0x3b1a8ae7	0.0023581327
31	0xbbe3d6eb	-0.0069531105
32	0x3c994877	0.018711312
33	0xbc2f984c	-0.010717463
34	0x3a63301d	0.0008666532
35	0xba00ea9b	-0.00049177714
36	0x3c506b2f	0.012720867
37	0x3c0fa7ba	0.0087680165
38	0x3c577480	0.013150334
39	0xbb29290b	-0.0025811817
40	0xbc560650	-0.013063028
41	0x3b4f039b	0.0031587842
42	0xbc80f23f	-0.015740512
43	0xbbb5eef1	-0.0055521657
44	0x3bd02ea2	0.0063532153
45	0xbacb550a	-0.0015513015
46	0x3afdac4b	0.0019353715
47	0xbb44dea4	-0.003003993
48	0xbbafba91	-0.0053628166
49	0x3b8525b7	0.004063334
50	0xbba04f72	-0.004892283
51	0x3ad3def3	0.0016164467
52	0x3c16ff7f	0.009216188
53	0x3bb20754	0.0054330025
54	0x3b4f1907	0.003160061
55	0x3c808c6b	0.015691957
56	0x3b9a2582	0.0047041783
57	0x3b2d1a0f	0.0026413237
58	0xbba24df0	-0.0049531385
59	0x3bf02820	0.007329002
60	0xbc9886fd	-0.018619055
61	0xbbdd049d	-0.0067449347
62	0xb9f00da8	-0.00045786542
63	0x3b567520	0.003272362
64	0xbc7df407	-0.015500075
65	0xbc4a20ac	-0.012336891
66	0x3c753630	0.014966533
67	0xbc2f3ce1	-0.010695667
68	0x3b24aaa9	0.0025126135
69	0x3bc2fcdc	0.0059505533
70	0xbb797405	-0.0038063538
71	0x3c261e07	0.010138995
72	0x3bf27333	0.0073989867
73	0x3aec8fe5	0.0018048255
74	0x3c29426b	0.010330777
75	0x3b1237af	0.0022311022
76	0xbc257bd5	-0.010100325
77	0xbc5ac292	-0.013352053
78	0xbbd9b2fa	-0.00664365
79	0xbbf90ad7	-0.007600169
80	0x3c0bab7b	0.008524771
81	0x3af7de4f	0.0018910858
82	0x3c6543b2	0.013993191
83	0x3bc07943	0.0058738305
84	0x3b8e1fa7	0.0043372693
85	0x3cac42a8	0.021027878
86	0x3c4c534d	0.012471032
87	0xbb93642f	-0.004498027
88	0x3c9cb42b	0.01912888
89	0xbc51ff6a	-0.012817243
90	0xbcb89fd6	-0.022537153
91	0xbbb9ba47	-0.005667958
92	0xba81853f	-0.0009881629
93	0x3bb09f05	0.0053900504
94	0x3a2ed326	0.0006669037
95	0x3bf46dff	0.0074594016
96	0x3c40168d	0.0117241265
97	0x3a6fbfca	0.0009145705
98	0x3bfebb75	0.0077738115
99	0xbb2defe9	-0.0026540703
100	0x3c227e7b	0.009917851
101	0x3be80385	0.0070804977
102	0xbbdbc81a	-0.0067072036
103	0xbc0ca6cf	-0.008584692
104	0x3ca52b36	0.020162206
105	0xbc7b22e8	-0.0153281465
106	0x3c1aeee6	0.009456372
107	0xbbac8d58	-0.005265873
108	0xbc538acb	-0.012911509
109	0xbb282c4e	-0.0025661173
110	0x3b027d04	0.001991094
111	0xb83d0357	-4.5064222e-05
112	0x3c64f770	0.013975009
113	0x3b0a95ef	0.0021146496
114	0x3bfb33cd	0.0076660872
115	0xba24960f	-0.0006278464
116	0x3c2358f6	0.00996994
117	0x3aa7c394	0.0012799376
118	0xbaca5a12	-0.001543822
119	0x3bcb214f	0.006199039
120	0x3beef66b	0.007292559
121	0xbbb4b77b	-0.0055150366
122	0x3c0dba52	0.008650379
123	0xbb8b3144	-0.0042478163
124	0xbb635d52	-0.0034693074
125	0x3c840c34	0.0161191
126	0x3c9b8eb8	0.018988952
127	0x3b72c800	0.0037045479
128	0x3b06d274	0.0020572217
129	0xbbb607cb	-0.005555128
130	0xbb1adba3	-0.002362945
131	0x3987e1df	0.00025917494
132	0xbaeb8e80	-0.0017971545
133	0xba83af61	-0.0010046774
134	0x394a9e7f	0.00019323266
135	0xbba3286f	-0.0049791853
136	0xba3885e0	-0.0007038992
137	0x3c470c2f	0.012148901
138	0xbc5a9247	-0.013340539
139	0x3bb6b683	0.0055759563
140	0xba85256f	-0.0010158251
141	0x3b1e5dc7	0.0024164782
142	0xbb6de610	-0.0036300458
143	0x3c519837	0.0127926385
144	0x3bba836b	0.005691936
145	0xbc4c1f4a	-0.012458632
146	0xbbb1579f	-0.0054120566
147	0x3ae305a8	0.0017320411
148	0xbb5af923	-0.0033412657
149	0xbc24b0b2	-0.010051893
150	0xbc3e15a9	-0.011601844
151	0x3b3e41c4	0.0029030899
152	0x391c1f16	0.000148889
153	0x3c5d1048	0.013492651
154	0xbb8f5409	-0.0043740314
155	0xbc111d93	-0.008857149
156	0xbb4c7d72	-0.00312027
157	0x3c7c848b	0.01541246
158	0xbbb7a347	-0.005604181
159	0x3c41f7b7	0.011838845
160	0xba158c60	-0.00057048164
161	0x3a714f30	0.000920522
162	0xbc0f7f01	-0.008758307
163	0xbc1b3cef	-0.009474977
164	0xbc6c6bf7	-0.014430038
165	0xbbbb8c8b	-0.005723541
166	0x3c4e2beb	0.012583713
167	0xbbda656a	-0.0066649215
168	0x3beb6585	0.007183733
169	0x3a3c4dc9	0.0007183222
170	0xbc3cc0df	-0.011520593
171	0xbca5218b	-0.020157596
172	0x3b57297a	0.0032831118
173	0xbc852ff3	-0.016258216
174	0xbc49d5bd	-0.012319026
175	0xb9ae0c10	-0.00033196853
176	0xbba19dc9	-0.0049321395
177	0xbbf2e017	-0.0074119675
178	0xbc64b0fb	-0.013958211
179	0xbb3adf92	-0.0028514606
180	0x3bf49022	0.007463471
181	0x3c741fd3	0.014900166
182	0xbbbba834	-0.0057268385
183	0xbb0d443c	-0.0021555563
184	0xbbd8dec3	-0.006618352
185	0x3b26a6fb	0.0025429118
186	0xbb891a20	-0.0041840225
187	0x3c4c0332	0.012451934
188	0xbb3213fe	-0.002717256
189	0x3b06560f	0.0020498072
190	0x3c34d34f	0.011036708
191	0x3b6827c5	0.0035424095
192	0x3c0b24b3	0.0084926365
193	0x3a53d1a8	0.00080802524
194	0x3c064463	0.008195016
195	0x3bbecfa3	0.005823092
196	0x3bda09c8	0.006653998
197	0x3a103e73	0.000550247
198	0xbb3501d6	-0.0027619503
199	0xbc4e6cf3	-0.012599218
200	0xbb2526ea	-0.0025200197
201	0x3c21f6c2	0.009885492
202	0xbc265de4	-0.010154221
203	0x3ae20ebd	0.0017246824
204	0x3b1f6cdb	0.0024326358
205	0x3982a72f	0.00024920094
206	0x3b057ac0	0.0020367354
207	0xbba9cd69	-0.0051819575
208	0x3c0bda81	0.008535982
209	0xbbe714f2	-0.0070520574
210	0x3bfb3fb2	0.007667505
211	0x3c462f6b	0.012096266
212	0xbb8ecc9f	-0.004357889
213	0xbc207755	-0.009794076
214	0x3c1f77a1	0.009733112
215	0xbc105122	-0.008808406
216	0xba716873	-0.00092089846
217	0xbcb56b37	-0.02214585
218	0x3b6b2152	0.0035878015
219	0x3c1fe6b1	0.009759591
220	0x3cacc5bb	0.021090379
221	0x3c57d3fb	0.013173099
222	0xbc329eae	-0.01090209
223	0x3b936506	0.004498127
224	0x3b64f1dd	0.00349342
225	0x3c05c8b3	0.008165526
226	0x3b69c89b	0.0035672549
227	0x3c17ae81	0.009257914
228	0x3c3692fa	0.01114344
229	0x3c10d4f4	0.0088398345
230	0x3c0a208a	0.0084306095
231	0x3c787617	0.015164874
232	0xbad1fbe7	-0.0016020507
233	0xbc7ed898	-0.01555457
234	0xb9cee71f	-0.0003946358
235	0x3bccae3c	0.0062463563
236	0x3c1a2c16	0.009409925
237	0x3b2bcc2f	0.0026214232
238	0x3c290e7a	0.010318393
239	0xbc1b202b	-0.009468119
240	0xbb3309b4	-0.0027319016
241	0x3c342371	0.010994778
242	0x3bdee39d	0.006802036
243	0x3b1b24e1	0.0023673105
244	0xbb135c45	-0.0022485417
245	0xb9b33d63	-0.00034187277
246	0x3c3e5fd4	0.011619527
247	0x3c3324f4	0.010934103
248	0xbc19197f	-0.009344458
249	0x3c5474b5	0.012967278
250	0xbab1606d	-0.0013532765
251	0x3c58a1e3	0.013222191
252	0xbbfd6adf	-0.0077336873
253	0xbbff217b	-0.0077859736
254	0x3c0dcee9	0.008655288
255	0xbb143092	-0.0022611958

network_body._body_endoder.seq_layers.0.bias f4 [128]
0	0x00000000	0.0
1	0x00000000	0.0
2	0x00000000	0.0
3	0x00000000	0.0
4	0x00000000	0.0
5	0x00000000	0.0
6	0x00000000	0.0
7	0x00000000	0.0
8	0x00000000	0.0
9	0x00000000	0.0
10	0x00000000	0.0
11	0x00000000	0.0
12	0x00000000	0.0
13	0x00000000	0.0
14	0x00000000	0.0
15	0x00000000	0.0
16	0x00000000	0.0
17	0x00000000	0.0
18	0x00000000	0.0
19	0x00000000	0.0
20	0x00000000	0.0
21	0x00000000	0.0
22	0x00000000	0.0
23	0x00000000	0.0
24	0x00000000	0.0
25	0x00000000	0.0
26	0x00000000	0.0
27	0x00000000	0.0
28	0x00000000	0.0
29	0x00000000	0.0
30	0x00000000	0.0
31	0x00000000	0.0
32	0x00000000	0.0
33	0x00000000	0.0
34	0x00000000	0.0
35	0x00000000	0.0
36	0x00000000	0.0
37	0x00000000	0.0
38	0x00000000	0.0
39	0x00000000	0.0
40	0x00000000	0.0
41	0x00000000	0.0
42	0x00000000	0.0
43	0x00000000	0.0
44	0x00000000	0.0
45	0x00000000	0.0
46	0x00000000	0.0
47	0x00000000	0.0
48	0x00000000	0.0
49	0x00000000	0.0
50	0x00000000	0.0
51	0x00000000	0.0
52	0x00000000	0.0
53	0x00000000	0.0
54	0x00000000	0.0
55	0x00000000	0.0
56	0x00000000	0.0
57	0x00000000	0.0
58	0x00000000	0.0
59	0x00000000	0.0
60	0x00000000	0.0
61	0x00000000	0.0
62	0x00000000	0.0
63	0x00000000	0.0
64	0x00000000	0.0
65	0x00000000	0.0
66	0x00000000	0.0
67	0x00000000	0.0
68	0x00000000	0.0
69	0x00000000	0.0
70	0x00000000	0.0
71	0x00000000	0.0
72	0x00000000	0.0
73	0x00000000	0.0
74	0x00000000	0.0
75	0x00000000	0.0
76	0x00000000	0.0
77	0x00000000	0.0
78	0x00000000	0.0
79	0x00000000	0.0
80	0x00000000	0.0
81	0x00000000	0.0
82	0x00000000	0.0
83	0x00000000	0.0
84	0x00000000	0.0
85	0x00000000	0.0
86	0x00000000	0.0
87	0x00000000	0.0
88	0x00000000	0.0
89	0x00000000	0.0
90	0x00000000	0.0
91	0x00000000	0.0
92	0x00000000	0.0
93	0x00000000	0.0
94	0x00000000	0.0
95	0x00000000	0.0
96	0x00000000	0.0
97	0x00000000	0.0
98	0x00000000	0.0
99	0x00000000	0.0
100	0x00000000	0.0
101	0x00000000	0.0
102	0x00000000	0.0
103	0x00000000	0.0
104	0x00000000	0.0
105	0x00000000	0.0
106	0x00000000	0.0
107	0x00000000	0.0
108	0x00000000	0.0
109	0x00000000	0.0
110	0x00000000	0.0
111	0x00000000	0.0
112	0x00000000	0.0
113	0x00000000	0.0
114	0x00000000	0.0
115	0x00000000	0.0
116	0x00000000	0.0
117	0x00000000	0.0
118	0x00000000	0.0
119	0x00000000	0.0
120	0x00000000	0.0
121	0x00000000	0.0
122	0x00000000	0.0
123	0x00000000	0.0
124	0x00000000	0.0
125	0x00000000	0.0
126	0x00000000	0.0
127	0x00000000	0.0

network_body._body_endoder.seq_layers.0.weight f4 [128, 35]
0	0x3cd786ff	0.026309488
1	0xbe8fa4f3	-0.28055534
2	0x3e748648	0.23879349
3	0xbd993d51	-0.07482398
4	0x3e7c793a	0.2465562
5	0x3e2128a6	0.15738162
6	0x3dcd0fc6	0.10012774
7	0xbead3474	-0.3382908
8	0xbd59852e	-0.053105526
9	0xbe616db5	-0.22014506
10	0x3dd26cd3	0.10274663
11	0xbe49c911	-0.19705607
12	0x3d2cb099	0.042160604
13	0x3ca406b2	0.020022724
14	0x3d3e3e0a	0.046445884
15	0xbceb3aae	-0.028714504
16	0xbd157cac	-0.03649585
17	0xbc2559e7	-0.010092235
18	0xbd13e830	-0.036110103
19	0x3d64f988	0.055902034
20	0x3e694a3b	0.22782223
21	0xbdc0ca5c	-0.09413597
22	0xbe04c196	-0.12964472
23	0x3d78e7fc	0.060768113
24	0x3e342bd6	0.17594847
25	0x3d5909c9	0.052987847
26	0xbe15ae22	-0.14617208
27	0x3d839da7	0.06426554
28	0xbe3c4d96	-0.18388972
29	0x3b70fd9e	0.0036772261
30	0xbddc7287	-0.10764032
31	0x3caf6f42	0.021415357
32	0xbe65ef8d	-0.22454663
33	0xbf08a702	-0.53379834
34	0xbebc9afc	-0.36836994
35	0x3deacaed	0.11464486
36	0x3def5b0d	0.116872884
37	0x3e9e6854	0.3093897
38	0xbe774cb1	-0.24150349
39	0xbe19743d	-0.14985748
40	0x3e0da742	0.13833335
41	0x3bf70f32	0.007539653
42	0x3e673631	0.22579266
43	0xbe5f9e41	-0.21837713
44	0xbd9acf02	-0.07559015
45	0x3d677b74	0.05651422
46	0xbe18db73	-0.14927463
47	0x3d86f97b	0.065905534
48	0xbde6a1bc	-0.11261317
49	0x3e7e44ad	0.24830885
50	0x3e8461a9	0.2585576
51	0xbd14e775	-0.036353547
52	0x3dc2d376	0.09512989
53	0xbe0b7d7f	-0.13622092
54	0x3de08c52	0.10964264
55	0x3c1c0a33	0.009523916
56	0xbe85fbc1	-0.26168635
57	0x3d02965e	0.031881683
58	0xbe17ca5d	-0.14823289
59	0xbe55f9ba	-0.20896044
60	0xbd7a51d7	-0.061113205
61	0xbe6bd71d	-0.23031278
62	0xbd7ad4c1	-0.061238054
63	0xbe13c5d7	-0.14430939
64	0x3ea887e2	0.3291617
65	0xbd931086	-0.07180886
66	0xbde266c8	-0.1105476
67	0x3e8983e7	0.26858446
68	0x3db99bf2	0.09062947
69	0xbe3fb8f8	-0.18722904
70	0x3e398fd6	0.18121275
71	0x3e2a5ab9	0.1663617
72	0xbe5f0d53	-0.21782427
73	0xbdd123f9	-0.10211939
74	0x3e888370	0.2666278
75	0xbdd7ce35	-0.10537378
76	0x3d4d3452	0.050098725
77	0xbe415134	-0.18878633
78	0xbc0e3ed9	-0.008681976
79	0xbe284963	-0.16434245
80	0xbd370043	-0.044677984
81	0xbdc52553	-0.0962626
82	0xbd2196b6	-0.03945037
83	0xbd7ad1e8	-0.06123534
84	0xbd8431b0	-0.0645479
85	0xbe6a6d28	-0.22893202
86	0xbdbcf7f9	-0.092269845
87	0xbd17f6c5	-0.037100572
88	0xb6de6ba0	-6.6286448e-06
89	0xbcbc90b2	-0.023018215
90	0xbdf76308	-0.120794356
91	0xbec6702c	-0.38757455
92	0x3d093390	0.03349644
93	0xbcf2badf	-0.029630123
94	0xbe156d61	-0.14592506
95	0x3e33966d	0.17537852
96	0x3e9454fa	0.28971082
97	0x3aa23a3a	0.0012376972
98	0x3e42e612	0.19033077
99	0x3db39894	0.08769336
100	0x3b3c59b1	0.0028739984
101	0x3c03f1d3	0.008053261
102	0x3c88b5c0	0.016688228
103	0x3e0c1102	0.13678363
104	0xbd848956	-0.06471507
105	0xbcbad17f	-0.022804974
106	0xbe5486b4	-0.2075451
107	0x3e00e743	0.1258822
108	0x3e3c7e47	0.18407546
109	0xbe64d1c3	-0.22345643
110	0xbd586d86	-0.052838825
111	0xbd800941	-0.06251765
112	0x3b462ce8	0.0030239169
113	0xbd3855c7	-0.04500368
114	0xbe14a002	-0.14514163
115	0x3ccd7567	0.025080396
116	0x3c3d56a7	0.011556304
117	0x3e1c0e71	0.15239884
118	0xbd05c4e1	-0.03265846
119	0xbda65446	-0.08121543
120	0xbea7e644	-0.32792866
121	0xbe05f49f	-0.13081597
122	0xbde0237e	-0.109442696
123	0xbe8d597c	-0.27607334
124	0x3cba7cc0	0.022764564
125	0x3ea17eec	0.31542146
126	0xbee62bc8	-0.44955277
127	0xbde35fac	-0.11102232
128	0xbdfbf629	-0.12302811
129	0xbdd5b1aa	-0.10434277
130	0xbe5fad48	-0.21843445
131	0xbe3f5127	-0.18683301
132	0x3cb88b63	0.022527402
133	0x3ddb478c	0.10707006
134	0xbda66f61	-0.081267126
135	0x3e4bd085	0.19903763
136	0xbe3de175	-0.18543036
137	0xbe1dd78c	-0.15414256
138	0xbd84ebf5	-0.06490318
139	0xbdcb6fc8	-0.0993343
140	0xbe1091b0	-0.14118075
141	0x3d138baf	0.036021885
142	0x3d5574ba	0.052113272
143	0x3eba10ad	0.36340848
144	0xbd29e6c9	-0.04147986
145	0x3e3267df	0.17422436
146	0x3e801501	0.25016025
147	0xbcdc4f99	-0.026893424
148	0x3c792a30	0.015207812
149	0x3e03daff	0.12876509
150	0xbe154e56	-0.14580664
151	0xbe557de4	-0.20848805
152	0xbdfc5106	-0.123201415
153	0xbcaf4c5a	-0.021398712
154	0x3e89e6c2	0.26933867
155	0x3e60b874	0.21945363
156	0x3dc4cec3	0.09609749
157	0x3e25d970	0.16196227
158	0x3e8fee72	0.28111607
159	0x3e8210bf	0.254034
160	0xbd9e46f9	-0.07728381
161	0x3e0ade05	0.13561256
162	0xbd8d2067	-0.06890946
163	0xbe003fed	-0.12524386
164	0x3e84dded	0.25950566
165	0xbe04f1b5	-0.12982829
166	0xbd6d5b97	-0.057948675
167	0x3eb77a4f	0.35835502
168	0x3acc5e8b	0.0015592141
169	0x3ca23fc8	0.019805804
170	0xbe788871	-0.24270798
171	0x3d8f7b8a	0.07005985
172	0xbbf75680	-0.0075481534
173	0x3d948382	0.072516456
174	0x3d6ce2a2	0.05783332
175	0x3e85fe13	0.26170406
176	0xbec1e9ee	-0.37873787
177	0xbe87a2b5	-0.26491323
178	0x3e0ecc2f	0.13945077
179	0xbe7abc98	-0.24486005
180	0x3c3c8aaa	0.011507669
181	0x3e2a3fd1	0.16625907
182	0xbddb5a5b	-0.10710593
183	0xbb9875e4	-0.0046527255
184	0x3d046cdf	0.03233039
185	0x3e17bc91	0.14818026
186	0x3d0ef307	0.034899738
187	0x3e9a66e6	0.3015663
188	0xbdf0e8ae	-0.1176313
189	0x3d6c1284	0.057634845
190	0xbe894a43	-0.2681447
191	0xbe01c65e	-0.12673327
192	0x3e327552	0.17427567
193	0xbe25942a	-0.16169801
194	0xbcc061e1	-0.023484172
195	0x3da6380a	0.08116157
196	0xbe6b6ae7	-0.22989999
197	0xbe8518d1	-0.25995496
198	0xbe07e188	-0.13269627
199	0x3dda60b9	0.1066298
200	0x3c4de252	0.012566166
201	0xbe8efe21	-0.2792826
202	0x3d8d9d4b	0.06914767
203	0x3d44a97d	0.0480132
204	0x3dccf387	0.10007387
205	0x3e149814	0.14511138
206	0xbe4cba64	-0.19992977
207	0x3e2cac9a	0.16862717
208	0x3a8b1b52	0.0010613
209	0xbe3c763e	-0.18404481
210	0x3db75c8d	0.089531995
211	0x3dec1d03	0.11528971
212	0xbdcd18f8	-0.10014528
213	0x3d77ecd6	0.0605286
214	0xbd72310f	-0.059128817
215	0x3d8b94f5	0.06815521
216	0xbcde266b	-0.027117928
217	0x3e131691	0.14364077
218	0x3ddaeb3a	0.10689397
219	0x3e4e67f2	0.2015684
220	0xbecaea15	-0.39631715
221	0xbec8cc40	-0.3921833
222	0xbb1a432a	-0.0023538568
223	0xbc755088	-0.014972813
224	0x3bb50d0d	0.0055252374
225	0xbe045f7e	-0.12927052
226	0x3eb2fd0c	0.34958684
227	0x3e7138a7	0.23556767
228	0xbda38fd8	-0.079864204
229	0x3e6dfde0	0.23241377
230	0x3e3b300f	0.18280052
231	0xbc30bc9c	-0.0107871555
232	0xbf2e4c7d	-0.6808546
233	0xbd95e37d	-0.073187806
234	0xbe899a30	-0.26875448
235	0xbd9d6595	-0.07685391
236	0x3d29aaae	0.04142254
237	0xbd8bd3dc	-0.06827518
238	0xbd580e93	-0.052748274
239	0x3df4f8d2	0.11961521
240	0x3e305e4b	0.1722347
241	0xbe18b51b	-0.14912836
242	0x3cc0720b	0.02349188
243	0xbea3a289	-0.31959942
244	0xbdfbecb3	-0.12301006
245	0xbdc4f836	-0.09617655
246	0xbe05bc19	-0.13060035
247	0xbe6e8845	-0.2329417
248	0xbdcb5a37	-0.099293165
249	0xbc421323	-0.011845383
250	0x3e15ab78	0.14616191
251	0x3ea1d8de	0.3161077
252	0x3e22193c	0.15829939
253	0xbd8b9099	-0.06814689
254	0x3eb6eb39	0.35726336
255	0x3e1aacec	0.15105027

network_body._body_endoder.seq_layers.2.bias f4 [128]
0	0x00000000	0.0
1	0x00000000	0.0
2	0x00000000	0.0
3	0x00000000	0.0
4	0x00000000	0.0
5	0x00000000	0.0
6	0x00000000	0.0
7	0x00000000	0.0
8	0x00000000	0.0
9	0x00000000	0.0
10	0x00000000	0.0
11	0x00000000	0.0
12	0x00000000	0.0
13	0x00000000	0.0
14	0x00000000	0.0
15	0x00000000	0.0
16	0x00000000	0.0
17	0x00000000	0.0
18	0x00000000	0.0
19	0x00000000	0.0
20	0x00000000	0.0
21	0x00000000	0.0
22	0x00000000	0.0
23	0x00000000	0.0
24	0x00000000	0.0
25	0x00000000	0.0
26	0x00000000	0.0
27	0x00000000	0.0
28	0x00000000	0.0
29	0x00000000	0.0
30	0x00000000	0.0
31	0x00000000	0.0
32	0x00000000	0.0
33	0x00000000	0.0
34	0x00000000	0.0
35	0x00000000	0.0
36	0x00000000	0.0
37	0x00000000	0.0
38	0x00000000	0.0
39	0x00000000	0.0
40	0x00000000	0.0
41	0x00000000	0.0
42	0x00000000	0.0
43	0x00000000	0.0
44	0x00000000	0.0
45	0x00000000	0.0
46	0x00000000	0.0
47	0x00000000	0.0
48	0x00000000	0.0
49	0x00000000	0.0
50	0x00000000	0.0
51	0x00000000	0.0
52	0x00000000	0.0
53	0x00000000	0.0
54	0x00000000	0.0
55	0x00000000	0.0
56	0x00000000	0.0
57	0x00000000	0.0
58	0x00000000	0.0
59	0x00000000	0.0
60	0x00000000	0.0
61	0x00000000	0.0
62	0x00000000	0.0
63	0x00000000	0.0
64	0x00000000	0.0
65	0x00000000	0.0
66	0x00000000	0.0
67	0x00000000	0.0
68	0x00000000	0.0
69	0x00000000	0.0
70	0x00000000	0.0
71	0x00000000	0.0
72	0x00000000	0.0
73	0x00000000	0.0
74	0x00000000	0.0
75	0x00000000	0.0
76	0x00000000	0.0
77	0x00000000	0.0
78	0x00000000	0.0
79	0x00000000	0.0
80	0x00000000	0.0
81	0x00000000	0.0
82	0x00000000	0.0
83	0x00000000	0.0
84	0x00000000	0.0
85	0x00000000	0.0
86	0x00000000	0.0
87	0x00000000	0.0
88	0x00000000	0.0
89	0x00000000	0.0
90	0x00000000	0.0
91	0x00000000	0.0
92	0x00000000	0.0
93	0x00000000	0.0
94	0x00000000	0.0
95	0x00000000	0.0
96	0x00000000	0.0
97	0x00000000	0.0
98	0x00000000	0.0
99	0x00000000	0.0
100	0x00000000	0.0
101	0x00000000	0.0
102	0x00000000	0.0
103	0x00000000	0.0
104	0x00000000	0.0
105	0x00000000	0.0
106	0x00000000	0.0
107	0x00000000	0.0
108	0x00000000	0.0
109	0x00000000	0.0
110	0x00000000	0.0
111	0x00000000	0.0
112	0x00000000	0.0
113	0x00000000	0.0
114	0x00000000	0.0
115	0x00000000	0.0
116	0x00000000	0.0
117	0x00000000	0.0
118	0x00000000	0.0
119	0x00000000	0.0
120	0x00000000	0.0
121	0x00000000	0.0
122	0x00000000	0.0
123	0x00000000	0.0
124	0x00000000	0.0
125	0x00000000	0.0
126	0x00000000	0.0
127	0x00000000	0.0

network_body._body_endoder.seq_layers.2.weight f4 [128, 128]
0	0x3dc32764	0.095289975
1	0xbe050790	-0.12991166
2	0xbca0b4bb	-0.019617429
3	0x3c929ff1	0.017898532
4	0xbddfc5cd	-0.109263994
5	0x3d766510	0.060154974
6	0xbe251c6b	-0.16124122
7	0x3dd87381	0.105689056
8	0xbdc1902b	-0.09451326
9	0xbd6e425d	-0.058168758
10	0x3d180a96	0.03711947
11	0x3d1b6b6c	0.037944242
12	0x3cf5ce54	0.030005611
13	0x3e7e3ee4	0.24828678
14	0x3dadeff2	0.084930316
15	0xbb0e5efb	-0.0021724093
16	0x3c31e15b	0.010856952
17	0x3d998657	0.074963264
18	0xbd0216b4	-0.031759933
19	0x3ba6ee7f	0.005094349
20	0x3ca5473f	0.020175574
21	0x3dee7768	0.11643869
22	0x3d0ca7b7	0.034339633
23	0xbdd353b3	-0.10318699
24	0x3ca9962b	0.020701488
25	0x3d69ea38	0.057108134
26	0xbd014268	-0.03155747
27	0xbd4ffa16	-0.05077561
28	0xbd5e29f8	-0.054239243
29	0xbdbaab01	-0.09114648
30	0x3e58f467	0.21186982
31	0xbc6d8ceb	-0.0144989295
32	0xbd20e837	-0.039283957
33	0x3d254b9e	0.040355317
34	0x3c8d73b0	0.017267078
35	0xbdf51265	-0.11966399
36	0xbe09dafc	-0.13462442
37	0xbc108dc8	-0.008822866
38	0x3c8c2460	0.017107189
39	0x3d9b155c	0.07572433
40	0xbc0aacc7	-0.008464045
41	0x3e0750dd	0.1321444
42	0x3d86343e	0.06552933
43	0xbd9d9d9f	-0.076960795
44	0x3d72b9f7	0.05925938
45	0xbda89f51	-0.08233512
46	0xbc086362	-0.008324476
47	0xbd10b2a6	-0.035326622
48	0x3df7a328	0.120916665
49	0x395a0063	0.00020790244
50	0x3e3618aa	0.17782846
51	0xbd88b0ef	-0.066743724
52	0x3df7bbd2	0.12096371
53	0x3d4ef092	0.050522394
54	0xbd32246d	-0.04349177
55	0x3d85d248	0.065342486
56	0x3c3c0bc5	0.011477415
57	0x3c4dd394	0.012562651
58	0x3da74c26	0.08168821
59	0x3dafc0a3	0.085816644
60	0xbe245015	-0.16046174
61	0xbc9a181f	-0.01881033
62	0x3e521714	0.20516616
63	0x3cd963ec	0.026536904
64	0xbe07cbd7	-0.13261352
65	0x3e0139fa	0.12619773
66	0xbd0da620	-0.034582257
67	0x3e5e2f51	0.21697737
68	0xbe0545a2	-0.13014844
69	0x3cd4c07b	0.025970688
70	0x3d03ade4	0.032148257
71	0x3ae4a2ee	0.0017443576
72	0x3de92d4a	0.11385591
73	0xbe1009d5	-0.1406625
74	0xbe125f63	-0.142942
75	0x3d53f8b0	0.05175084
76	0xbb04c01b	-0.0020256105
77	0xbd0c9ebf	-0.03433108
78	0xbd17d3f9	-0.037067387
79	0x3df6e0c0	0.120545864
80	0xbcc2c45e	-0.023775276
81	0x3ce6a5e0	0.028155267
82	0x3a4642f0	0.0007563075
83	0xbe22a00a	-0.15881363
84	0xbd47eb68	-0.048808485
85	0xbd835ba1	-0.06413961
86	0xbcdc878c	-0.026920103
87	0x3da1caee	0.07900034
88	0xbd95bbb2	-0.07311191
89	0x3c678d26	0.0141327735
90	0xbd56422c	-0.0523092
91	0xbd3f57bd	-0.046714533
92	0x3c96f311	0.01842645
93	0x3d1b9c6c	0.037990972
94	0xbe25d75b	-0.16195433
95	0xbafb8ee5	-0.0019192366
96	0x3df75b8d	0.12078009
97	0x3d78dd56	0.060757957
98	0xbd24daec	-0.040247843
99	0xbe1fd23e	-0.15607545
100	0xba98407b	-0.0011615896
101	0x3c149d87	0.009070761
102	0x3d8cc544	0.06873563
103	0x3ca3c6ed	0.019992316
104	0x3c4e4fcd	0.012592268
105	0xbdac4d15	-0.0841314
106	0x3d54acef	0.051922735
107	0xbdcede86	-0.10101037
108	0x3dac3a8a	0.08409603
109	0x3b6670b5	0.0035162393
110	0xbd88bd0d	-0.066766836
111	0x3e074017	0.13208042
112	0xbd1a48d9	-0.03766713
113	0xbcb63353	-0.02224127
114	0xbc4f2019	-0.01264193
115	0x3dd55bd2	0.10417904
116	0x3e3cec83	0.18449597
117	0x3d7d5fba	0.06185887
118	0x3d1b336c	0.037890837
119	0x3dddb40f	0.10825359
120	0xbb59cc71	-0.003323343
121	0xbc8bd0d9	-0.01706736
122	0xbd2c96ab	-0.042135876
123	0xbdffc895	-0.1248943
124	0xbe1009f1	-0.14066292
125	0x3e50642c	0.20350713
126	0xbc1875dc	-0.009305444
127	0xbd83eec4	-0.06442025
128	0xbd9e6620	-0.077343225
129	0x3da153d3	0.07877316
130	0xbdbb7622	-0.091533914
131	0x3b22f34b	0.0024864252
132	0xbc135bdc	-0.008994069
133	0xbd83037a	-0.063971475
134	0x3df9c139	0.121950574
135	0x3e0d329c	0.13788837
136	0x3d58ad4e	0.05289965
137	0x3e474380	0.19459343
138	0xbc90e960	-0.017689407
139	0x3e04ccd3	0.12968759
140	0xbc03208c	-0.008003365
141	0x3e1e648b	0.15468042
142	0xbde1a78c	-0.11018285
143	0xbd3588ea	-0.044320025
144	0x3e2c9179	0.16852368
145	0xbd26615b	-0.04062019
146	0x3e15cdd3	0.14629297
147	0xbd0caa1d	-0.03434192
148	0x3ddfb91e	0.1092398
149	0x3c5031c6	0.012707179
150	0x3de414d8	0.11136788
151	0x3e3d94bd	0.1851377
152	0xbd90bd7c	-0.07067391
153	0x3cd729f3	0.02626512
154	0xbb4600c3	-0.0030212856
155	0xbd971ee1	-0.073789366
156	0xbd7096d8	-0.058737606
157	0x3e29f64c	0.16597861
158	0xbd83ee46	-0.064419314
159	0xbcac9ac7	-0.021069897
160	0x3d4cb3f1	0.049976293
161	0x3e0bef85	0.13665588
162	0x3c5b5926	0.013387954
163	0xbe22de9b	-0.1590523
164	0x3d9083ba	0.07056375
165	0xbc992a69	-0.01869698
166	0x3e255693	0.16146307
167	0x3c7f2cd4	0.015574653
168	0xbca4bdbd	-0.020110006
169	0xbd108aa4	-0.035288468
170	0xbe199df4	-0.1500166
171	0x3d868240	0.06567812
172	0x3dadd43e	0.084877476
173	0xbb84f15e	-0.0040570935
174	0x3d1091bc	0.035295233
175	0xbd7deaa3	-0.061991345
176	0xbd9c1921	-0.076219805
177	0x3de9e1f8	0.11420053
178	0x3c845e7a	0.016158331
179	0x3d267592	0.040639468
180	0x3dbc143b	0.09183546
181	0xbd0249c7	-0.03180864
182	0xbd3be0eb	-0.045868795
183	0xbdb8497d	-0.08998392
184	0x3ceb7dfb	0.028746596
185	0x3d19a4ac	0.03751056
186	0xbc9dc308	-0.019258037
187	0x3d8cb9a1	0.068713434
188	0x3bf1aaea	0.007375111
189	0x3cee89af	0.029118387
190	0xbe7aec27	-0.24504147
191	0xbdd7b901	-0.105333336
192	0xbd2460bd	-0.04013132
193	0xbd7477f7	-0.05968472
194	0xbd2ef88b	-0.042717498
195	0x3dce23a3	0.10065391
196	0xbd1237a4	-0.035697594
197	0x3db87819	0.09007282
198	0xbe0610b3	-0.13092308
199	0x3cb2ba10	0.021817237
200	0x3db8256d	0.089915134
201	0x3e693192	0.22772816
202	0xbbac64a1	-0.0052610193
203	0xbd5d0b53	-0.053965878
204	0x3d4bfd22	0.049801953
205	0x3e05e16a	0.1307427
206	0xbd0345b1	-0.032048885
207	0x3d9c937b	0.07645317
208	0xbd33f177	-0.04393145
209	0xbdd24600	-0.10267258
210	0x3dd66dc4	0.10470155
211	0xbd298c66	-0.04139366
212	0x3cabbd7e	0.02096438
213	0xbd86f157	-0.06589001
214	0xbdcb46f8	-0.099256456
215	0x3e1a3436	0.1505898
216	0xbc800698	-0.015628144
217	0xbc0f2b73	-0.008738386
218	0x3cac0e87	0.02100302
219	0xbd8cbd5d	-0.06872056
220	0x3c6f1cb1	0.014594243
221	0x3d085221	0.03328145
222	0x3d96cb94	0.07363048
223	0x3ddb760d	0.10715876
224	0x3d33b37d	0.043872345
225	0x3d59b8f5	0.053154904
226	0xbd56352d	-0.052296806
227	0x3e1fc7ad	0.15603514
228	0xbd707e5e	-0.058714263
229	0xbcd38418	-0.025819823
230	0xbd920881	-0.07130528
231	0xbe3fa52b	-0.1871535
232	0xbac84686	-0.0015279807
233	0x3e086aa4	0.1332193
234	0x3cf00eea	0.029303987
235	0xbdbcadd1	-0.0921284
236	0x3d159ca0	0.036526322
237	0xbd0592c8	-0.032610685
238	0x3c81e633	0.015856838
239	0xbdad4e2f	-0.08462178
240	0x3c29687c	0.010339852
241	0x3c1bd934	0.0095122345
242	0x3cabb686	0.020961057
243	0xbc94705e	-0.018119987
244	0x3daff6a7	0.08591967
245	0xbdd11d79	-0.102106996
246	0xbd6ef5d6	-0.058339916
247	0xbcc9dc31	-0.024641128
248	0x3d6d7abb	0.057978373
249	0xbd6e8548	-0.058232576
250	0xbc717ec4	-0.014739696
251	0x3cc4034d	0.023927355
252	0xbd51c32a	-0.051211514
253	0x3d0108cd	0.031502534
254	0xbc44f6fd	-0.012021777
255	0xbd0c81eb	-0.034303587
