results/ppo/MoveToGoal/MoveToGoal-83687.onnx (onnx, 80990 bytes, 6 tensors)

action_model._discrete_distribution.branches.0.bias f4 [3]
0	0x3c579d97	0.013160131
1	0xbbe70bf6	-0.0070509864
2	0xbc4bb0e1	-0.012432308

action_model._discrete_distribution.branches.0.weight f4 [3, 128]
0	0xbc8fc3c1	-0.017549397
1	0x3b780760	0.0037846193
2	0xbceeefa3	-0.029167002
3	0x3c9774ea	0.018488366
4	0xbc274a8d	-0.010210645
5	0xbc348575	-0.011018147
6	0x3ca2115f	0.019783674
7	0x3d046713	0.03232486
8	0x3b7565ab	0.0037444632
9	0x3c414f81	0.01179874
10	0x3ccb7ed3	0.024840748
11	0x3d140a9c	0.03614293
12	0x3bfeff47	0.0077818963
13	0xbcec4db2	-0.028845642
14	0xbca448f0	-0.02005431
15	0xbbb92c57	-0.0056510377
16	0x3bfe23d0	0.007755734
17	0xbcf7fc14	-0.030271567
18	0x3cdfa7b1	0.027301641
19	0x3caf1454	0.021371998
20	0xbce3482d	-0.027744377
21	0xbca97b68	-0.020688727
22	0x3988187b	0.0002595818
23	0x3cc11f31	0.023574444
24	0x3ba79d80	0.005115211
25	0xbb81613d	-0.0039483593
26	0xbc930891	-0.01794842
27	0x3d42e05b	0.047577243
28	0xbb9feafe	-0.004880308
29	0x3d20be88	0.039244205
30	0x3c347d90	0.011016265
31	0xbc51076d	-0.012758118
32	0xbc6d4b05	-0.014483218
33	0xbbdfb2b8	-0.006826725
34	0xbb724b94	-0.0036971318
35	0x3b0778fe	0.0020671482
36	0xbd033a18	-0.032037824
37	0xbca1c5fd	-0.019747728
38	0xbccc2246	-0.024918687
39	0x3bb7909f	0.005601957
40	0x3cb4a994	0.022053517
41	0x3d2d22fe	0.0422697
42	0x3c37aab1	0.01121013
43	0xba5a58bb	-0.0008329262
44	0x3c7c0cea	0.015383938
45	0xbc8434a9	-0.016138392
46	0x3c934dba	0.017981399
47	0x3c089079	0.008335226
48	0xbcb27f50	-0.021789223
49	0xbca77c02	-0.020444874
50	0xbcf7a53b	-0.030230155
51	0x3cc69c84	0.024244554
52	0xbbcd0925	-0.0062571936
53	0x3c3ac60c	0.011399757
54	0x3cb0760f	0.02154067
55	0xbd092674	-0.033483937
56	0xbb105440	-0.0022022873
57	0x3c9646cf	0.018344311
58	0x3ca861ec	0.020554505
59	0x3c3a53aa	0.011372486
60	0xbc54e626	-0.012994325
61	0x3d163f78	0.036681622
62	0xbc8a698a	-0.016896028
63	0x3cd7e804	0.02635575
64	0xbd21039f	-0.039310094
65	0x3ce1328a	0.02748992
66	0x3d138351	0.036013905
67	0x3af8d7dc	0.001898523
68	0x3b9b4b16	0.0047391756
69	0xbd011e38	-0.03152296
70	0x3d0913f8	0.03346631
71	0xbd3427e2	-0.043983348
72	0x3bd32607	0.006443742
73	0xba93a182	-0.0011263343
74	0x3c6705f4	0.01410054
75	0x3cb0a29c	0.021561913
76	0xbc6af2df	-0.014340132
77	0x3bb9ebf8	0.0056738816
78	0xbcc84121	-0.024445118
79	0x3cb15c5a	0.021650482
80	0xbbc9f4c6	-0.0061632125
81	0xbcddc962	-0.027073566
82	0x3a34e6b0	0.000690083
83	0x3b4edc07	0.0031564252
84	0xbcc1b133	-0.023644065
85	0x3c061289	0.00818313
86	0x3cca40eb	0.024689158
87	0xbc019fa2	-0.007911595
88	0xbd0b3aa8	-0.033991486
89	0x3cba66b6	0.022754055
90	0xbca50a75	-0.020146588
91	0x3bfcc6f2	0.007714146
92	0xbd1a3f6d	-0.037658144
93	0x3c20bc62	0.009810539
94	0x3c094e3f	0.008380472
95	0xbcff3d73	-0.031157231
96	0xbc3183ab	-0.010834615
97	0x3c012ca8	0.007884182
98	0xbb8b71d5	-0.004255513
99	0x3cd25d8f	0.025679378
100	0x3c44c3cc	0.012009572
101	0x3c53e1b0	0.012932226
102	0xbcfeb6d7	-0.031093044
103	0xbcdacda6	-0.026709389
104	0x3ca1a430	0.019731611
105	0xbc1fbbb7	-0.009749345
106	0x3c95963b	0.018260112
107	0x3d0200c2	0.031739004
108	0xbb238f38	-0.0024957191
109	0x3c3df483	0.011593941
110	0xbcfc63ee	-0.030809369
111	0x3cf8365d	0.03029936
112	0xbbeb487c	-0.0071802717
113	0xbce25e18	-0.027632758
114	0x3d3cac05	0.046062488
115	0xbce3f7e4	-0.027828164
116	0x3c9bb3fa	0.019006718
117	0xbbd5a0de	-0.006519421
118	0xbd105241	-0.035234693
119	0xbc71360e	-0.01472236
120	0x3c99ee2e	0.01879033
121	0x3cf634fe	0.030054566
122	0xbc52308d	-0.012828958
123	0x3b051930	0.0020309202
124	0xbd30443a	-0.043033816
125	0x3d092293	0.03348024
126	0xbb504343	-0.0031778372
127	0xbcbed3be	-0.023294326
128	0x3c72cf7a	0.014819974
129	0xbc30e07e	-0.010795711
130	0x3cbddb2c	0.023175798
131	0xbceb2dd0	-0.028708369
132	0x3a52d724	0.0008042923
133	0x3ce98317	0.028504891
134	0xbc25f31e	-0.010128764
135	0xbc938829	-0.018009262
136	0x3c87eacc	0.016591452
137	0xbc739091	-0.01486601
138	0xbcb160a8	-0.021652535
139	0xbc9216ff	-0.017833231
140	0xbc92629b	-0.017869284
141	0x3c8410d3	0.016121304
142	0x3c7cd56b	0.015431742
143	0x3c8703ca	0.016481299
144	0xbcb2aa1c	-0.02180963
145	0x3c4572f6	0.012051335
146	0x3a94b84b	0.0011346427
147	0xbc10da1f	-0.008841067
148	0x3cd89280	0.026437044
149	0x3c32aa85	0.010904913
150	0x3afc56da	0.0019251958
151	0xbc34194b	-0.010992358
152	0xbc9baea6	-0.019004177
153	0xbbd20800	-0.006409645
154	0xbc172287	-0.009224541
155	0xbca1f936	-0.019772153
156	0xbc866372	-0.016404841
157	0xbcb6a048	-0.022293225
158	0xbaf369b7	-0.0018570934
159	0x3c077149	0.008266755
160	0x3b801955	0.00390927
161	0xba067707	-0.0005129431
162	0xbc1627a6	-0.009164726
163	0x3c8df31b	0.017327836
164	0x3ceb4ff4	0.028724648
165	0x3d0a24e9	0.033726607
166	0x3ad72194	0.0016413205
167	0x3bfe85a5	0.0077673965
168	0xbc95df59	-0.018294977
169	0xbcf1b6f1	-0.029506179
170	0x3c17d423	0.009266886
171	0x3b9378fd	0.004500507
172	0xbc8f60db	-0.017502239
173	0xbc48daeb	-0.012259225
174	0xbca03b0c	-0.019559406
175	0x3c7b49b5	0.015337397
176	0x3cb6640c	0.022264503
177	0x3c734219	0.014847302
178	0x3cdde647	0.027087344
179	0xbcbad953	-0.022808706
180	0x3c3344f1	0.01094173
181	0xbb8fd317	-0.0043891775
182	0xbbc52dfa	-0.0060174437
183	0x3cef4636	0.029208284
184	0x3bc1a159	0.0059091267
185	0xbb248def	-0.0025109013
186	0xbcd530b4	-0.0260242
187	0x3b61e342	0.0034467732
188	0xbccfb84d	-0.025356436
189	0xbcb864d4	-0.022509016
190	0xbbbc915f	-0.0057546343
191	0xbd0046dc	-0.031317577
192	0x3c90127e	0.017586943
193	0xbc6f7dc9	-0.014617392
194	0xbc17f197	-0.009273908
195	0x3c9b7bb0	0.018979877
196	0x3be09ef7	0.0068548876
197	0x3a35c0bb	0.0006933321
198	0xbcfa868f	-0.03058174
199	0x3cec85f7	0.028872473
200	0x3cc5c0b5	0.024139741
201	0x3c3fcc94	0.01170649
202	0xba3a29b0	-0.0007101549
203	0xbc9e70c4	-0.01934088
204	0xba88d479	-0.0010439298
205	0x3b1386bf	0.0022510735
206	0x3cd922e3	0.026505893
207	0xbcd2cd50	-0.025732666
208	0x3c9d6761	0.019214334
209	0x3cb6fbf1	0.022336932
210	0xbbe5a3b7	-0.0070080417
211	0xbc157e44	-0.009124342
212	0x3a5b6948	0.0008369875
213	0x3bf1de79	0.007381257
214	0xbcb0c380	-0.021577597
215	0x3b27a7e8	0.0025582258
216	0x3c7cf680	0.01543963
217	0xbc81d6c0	-0.015849471
218	0xbc7f8d53	-0.015597659
219	0xbbae0e68	-0.005311776
220	0x3c77b8f5	0.015119781
221	0xbc986ed3	-0.018607533
222	0xbc9e664c	-0.019335888
223	0x3cb26ab6	0.0217794
224	0xbc8acf6f	-0.016944615
225	0x3c2701fb	0.010193343
226	0x3b87bb7a	0.004142222
227	0xbbf476d5	-0.007460455
228	0xbc02c4df	-0.007981508
229	0x3c3b238e	0.011422051
230	0x3beccc4b	0.007226502
231	0x3ccf8699	0.025332736
232	0xbcc858a3	-0.024456328
233	0xbb8009d1	-0.00390742
234	0x395d678c	0.00021114777
235	0xbc4b354a	-0.012402842
236	0x3c95c901	0.018284323
237	0x3ba4fb26	0.005034822
238	0x3c59a9dc	0.013285127
239	0xbc263d1b	-0.010146405
240	0xbbcd9546	-0.0062738983
241	0x3c51eec2	0.012813272
242	0xbcaa2253	-0.02076832
243	0x3c9cefe7	0.019157363
244	0xbc9abbff	-0.018888472
245	0x3bdb4c32	0.006692433
246	0x3c7f083b	0.015565927
247	0x3c85ff3c	0.016357057
248	0x3a86b4b5	0.0010277244
249	0xbb5da27d	-0.0033818774
250	0x3cd8971d	0.026439244
251	0x3b45ccfb	0.0030181992
252	0x3d152c88	0.03641942
253	0xbc8bfc3d	-0.01708805
254	0x3c234b42	0.009966673
255	0x3bb6b019	0.0055751917

network_body._body_endoder.seq_layers.0.bias f4 [128]
0	0xbb4c1314	-0.00311393
1	0x3be6a186	0.007038298
2	0x3cd253fa	0.025674809
3	0xbbc9c859	-0.0061579165
4	0xbcad93d9	-0.021188663
5	0xbc84be31	-0.016203972
6	0x39bd6b9e	0.0003612907
7	0x3ca2f4f2	0.01989219
8	0xbcda8379	-0.02667402
9	0xbc4591fa	-0.012058729
10	0xbcb8f706	-0.022578727
11	0xbd10ef8c	-0.0353847
12	0xbab8392c	-0.0014055124
13	0x3c47024c	0.012146544
14	0x3c48c33c	0.012253579
15	0x3c66f120	0.014095575
16	0x3cce819a	0.025208283
17	0xbbbefd47	-0.005828533
18	0xbc5f1cc7	-0.013617701
19	0x3b5a7fab	0.0033340256
20	0xbc916281	-0.017747166
21	0xbcaae907	-0.02086307
22	0x3bd7e8fa	0.0065890523
23	0x3c3678c0	0.0111371875
24	0xbd08e336	-0.03341981
25	0xbc92c4be	-0.01791608
26	0xbc89f1dc	-0.01683896
27	0x3cf50cad	0.02991327
28	0xbc0ab445	-0.008465831
29	0xbc10bb33	-0.008833694
30	0x3c427743	0.0118692545
31	0x3c794990	0.015215293
32	0x3c6c4b08	0.014422186
33	0x3c54af12	0.012981193
34	0x3c48068a	0.01220859
35	0xbc46dbe7	-0.01213739
36	0x3cbde645	0.02318109
37	0xbba72d80	-0.0051018596
38	0xbc06d285	-0.008228903
39	0xbc493df8	-0.012282841
40	0x3cdbf33f	0.026849387
41	0x3c547fb0	0.012969896
42	0x3cb68ba3	0.02228338
43	0xbc313c8b	-0.010817657
44	0x3c58ae3a	0.013225133
45	0xbbb9fda2	-0.0056759873
46	0x3d150aa5	0.036387105
47	0x3c1a2fcf	0.0094108125
48	0xbcea5961	-0.028607072
49	0xbad91a6a	-0.0016563658
50	0x3ccd31cf	0.025048165
51	0xbc50f849	-0.012754508
52	0x3d19aebb	0.03752015
53	0x3cfdfd92	0.0310047
54	0xbc73c3aa	-0.014878193
55	0x39e12e20	0.0004294971
56	0xbbe3a9db	-0.0069477386
57	0x3c920dfa	0.01782893
58	0x3cb18a62	0.021672431
59	0x3cdafdc8	0.02673234
60	0xbca927bc	-0.02064883
61	0xbc23d2b0	-0.009998962
62	0xbb060ee8	-0.0020455662
63	0x3d3795d5	0.044820625
64	0x3cfad3fd	0.030618662
65	0xbb363fd8	-0.002780905
66	0xbbaa0b90	-0.0051893666
67	0xbb224d7d	-0.0024765425
68	0xbcc27302	-0.02373648
69	0x3cb5080a	0.02209856
70	0xbc47f5af	-0.012204572
71	0xbcb97c45	-0.022642264
72	0x3cded1b4	0.027199604
73	0x3cdd77c3	0.027034646
74	0x3d266f3b	0.04063342
75	0x3cc9dd78	0.024641737
76	0xbc6f0087	-0.014587528
77	0xbbac4e4b	-0.0052583567
78	0xbcc65204	-0.02420903
79	0x3c46a8a4	0.012125168
80	0xbce1d7ce	-0.027568724
81	0x3c6f5d64	0.014609668
82	0x3b738040	0.00371553
83	0xbcc47787	-0.023982776
84	0xbd312650	-0.04324943
85	0x3cb255af	0.021769373
86	0xbcc0b385	-0.023523102
87	0xbcb5352c	-0.02212008
88	0x3ca33f2f	0.01992759
89	0xbc88d786	-0.016704332
90	0x3c5f0620	0.0136123
91	0x3b374c46	0.0027969046
92	0x3c84ce88	0.016211763
93	0x3cfee2c6	0.031113993
94	0x3ba7c453	0.005119839
95	0x3ca1a86a	0.019733626
96	0x3c821809	0.015880601
97	0xbba8783b	-0.0051412857
98	0xbbfaad5e	-0.0076500615
99	0x3c01ab13	0.007914322
100	0x3befffec	0.0073242094
101	0x3ce96d29	0.028494434
102	0x3cc4f23b	0.024041286
103	0x3c95771c	0.018245272
104	0x3d206e8d	0.03916793
105	0xbc5a96b1	-0.013341592
106	0x3cced346	0.025247227
107	0x3acde435	0.001570827
108	0x3c5093bf	0.012730538
109	0x3cc6c9c5	0.024266133
110	0xb99f31df	-0.00030364
111	0x3cbcd9f4	0.023053147
112	0xbcd17548	-0.02556862
113	0xbce310ce	-0.027717974
114	0x3a32faaf	0.0006827516
115	0xbcf17de5	-0.029478977
116	0x3b6acc3b	0.0035827297
117	0x3c826795	0.015918532
118	0x3c606ea2	0.013698252
119	0x3ba64987	0.005074683
120	0xbca3ce31	-0.01999578
121	0x3be33490	0.006933756
122	0x3cf02189	0.029312866
123	0xba372618	-0.00069865724
124	0x3d08279b	0.033240896
125	0x3ca760b2	0.02043185
126	0xbbc011d9	-0.0058615026
127	0xbd239e8e	-0.03994613

network_body._body_endoder.seq_layers.0.weight f4 [128, 21]
0	0x3d1e912f	0.038712677
1	0xbc1aa5ba	-0.009438926
2	0x3d7fb0be	0.062424414
3	0x3d0153f2	0.031574197
4	0xbe6320f3	-0.22180538
5	0x3dd5f255	0.10446612
6	0xba319ab4	-0.0006775067
7	0x3eb79d61	0.35862258
8	0xbe29c68a	-0.16579643
9	0xbf03d48b	-0.5149619
10	0xbdc87a6f	-0.09788977
11	0xbe82002d	-0.2539076
12	0xbd050681	-0.032476906
13	0x3e077440	0.1322794
14	0xbd9586f0	-0.07301128
15	0x3e05ebd1	0.13078238
16	0xbd8e50eb	-0.06949028
17	0x3c1d68be	0.009607492
18	0x3e73da7a	0.23813811
19	0x3e6e9759	0.23299922
20	0xbe2ca7be	-0.16860864
21	0xbe4b12bb	-0.19831364
22	0xbe2b1531	-0.16707303
23	0x3db1a203	0.086734794
24	0xbe162bc5	-0.14665134
25	0x3e050b15	0.12992509
26	0xbe1d315a	-0.15350857
27	0xbdc53e14	-0.09630981
28	0x3e4d01b5	0.20020182
29	0xbed7786b	-0.4208406
30	0x3e3506bb	0.17678349
31	0xbe2dbe86	-0.1696721
32	0xbe275888	-0.16342366
33	0xbeec7aaf	-0.4618735
34	0xbb456aa8	-0.0030123387
35	0xbc818115	-0.015808621
36	0xbd19f62b	-0.03758828
37	0xbe2a5129	-0.16632523
38	0x3ce42340	0.02784884
39	0x3cf42704	0.02980376
40	0x3b82f908	0.003996972
41	0xbf2c51f4	-0.6731255
42	0x3d965cca	0.07341917
43	0xbd7fdb6b	-0.062465113
44	0x3d93fb2b	0.07225641
45	0xbddc9391	-0.107703336
46	0xbe72fd2a	-0.23729387
47	0x3d1e4f9a	0.038650133
48	0xbd50064e	-0.050787263
49	0xbeafe1fd	-0.34352103
50	0x3e1130b3	0.14178734
51	0x3ce17466	0.027521323
52	0x3e365518	0.17805898
53	0x3e698c1e	0.22807357
54	0xbe745441	-0.23860265
55	0x3dddc485	0.10828499
56	0x3d045e8d	0.032316733
57	0x3e256933	0.16153412
58	0x3d824d36	0.06362383
59	0xbc6a8b62	-0.014315458
60	0x3cd3cf0c	0.025855564
61	0xbd0480e8	-0.032349497
62	0xbd51983d	-0.051170576
63	0xbe711e76	-0.23546776
64	0xbe2a7dfe	-0.16649625
65	0x3e955ed7	0.2917392
66	0xbe7f739e	-0.24946448
67	0xbd5e7cac	-0.054318115
68	0x3d8012a6	0.06253557
69	0x3ee81646	0.45329493
70	0xbd9d281e	-0.07673667
71	0xbd2cedb6	-0.042218886
72	0xbdabd9e5	-0.083911695
73	0x3d519c53	0.051174473
74	0xbee9a15c	-0.4563092
75	0x3dd04eff	0.10171317
76	0xbe27f1ad	-0.16400786
77	0xbe929fa6	-0.28637427
78	0xbe17479d	-0.14773412
79	0xbd99ae56	-0.07503955
80	0x3ed634b2	0.41837078
81	0xbda542a3	-0.080693506
82	0x3e93e47d	0.2888526
83	0xbc41a7ce	-0.011819793
84	0xbe3196bd	-0.17342658
85	0xbdec86ee	-0.11549173
86	0xbdec000b	-0.11523446
87	0xbebac231	-0.3647628
88	0xbe318b53	-0.17338304
89	0xbe100ad0	-0.14066625
90	0xbe84efe0	-0.2596426
91	0x3e8e8c14	0.27841246
92	0xba101f61	-0.000549784
93	0x3e20871e	0.15676543
94	0x3e4b747e	0.19868657
95	0x3e95477d	0.29156104
96	0x3dc8b967	0.09800988
97	0xbeec96cd	-0.46208802
98	0xbe76a886	-0.24087724
99	0xbeebf30e	-0.46083874
100	0xbeb7b414	-0.35879576
101	0x3e03a094	0.12854224
102	0xbe8e686e	-0.2781405
103	0x3e37d157	0.1795095
104	0x3de610a6	0.11233644
105	0x3dfd55d8	0.12369889
106	0xbed5b6c5	-0.41741005
107	0x3d9eb839	0.077499814
108	0xbee9082e	-0.45514053
109	0xbe20edf7	-0.15715776
110	0xbe3c3665	-0.18380125
111	0x3da753cd	0.081702806
112	0xbd01e6c5	-0.03171422
113	0x3e1c05da	0.15236607
114	0x3ea51679	0.32243708
115	0x3e38ece3	0.18059115
116	0xbe20a5df	-0.15688275
117	0xbda15051	-0.07876647
118	0x3df061fc	0.11737439
119	0x3e8df790	0.27727938
120	0xbd59a11d	-0.053132165
121	0xbe9b2d59	-0.30308035
122	0xbee4af41	-0.44664958
123	0xbd978c97	-0.07399862
124	0x3e91aecc	0.28453672
125	0x3d25d155	0.040482838
126	0x3eacc690	0.3374524
127	0x3e681817	0.2266544
128	0x3d527b99	0.051387403
129	0xbde22f72	-0.11044206
130	0xbb7e9800	-0.0038847923
131	0xbe279985	-0.16367157
132	0x3e25a349	0.1617557
133	0x3e72e836	0.23721394
134	0x3e48e4fd	0.19618602
135	0xbe35e430	-0.17762828
136	0x3d2a3fb2	0.04156465
137	0x3d9acc74	0.075585276
138	0x3d2ee5bf	0.04269957
139	0xbd1e8873	-0.038704347
140	0x3e467c9e	0.19383475
141	0x3e1697dd	0.14706369
142	0x3dbf6cda	0.09346934
143	0xbe4b48e3	-0.19852023
144	0x3e389bc5	0.18028171
145	0xbc774b56	-0.015093645
146	0xbdd6dbbd	-0.104911305
147	0xbe32578c	-0.17416209
148	0x3ec2f0db	0.38074383
149	0x3b4b54e8	0.003102595
150	0xbd81ab12	-0.06331457
151	0xbe607e22	-0.21923116
152	0xbcdc8a4b	-0.026921412
153	0xbd804636	-0.06263392
154	0xbe5281db	-0.20557348
155	0x3dff1a50	0.124561906
156	0x3d8542fd	0.065069176
157	0xbd9e5642	-0.07731296
158	0xbdc25eb1	-0.09490717
159	0x3e5088d3	0.20364694
160	0xbdc3db32	-0.095632926
161	0xbd20dad3	-0.039271187
162	0x3e179292	0.14802006
163	0x3ece6495	0.40311113
164	0x3dc32d72	0.095301524
165	0x3e29692b	0.16544025
166	0x3e0d5f3c	0.1380586
167	0x3e644f01	0.22295763
168	0xbd113e80	-0.035459995
169	0xbe1fb432	-0.15596083
170	0xbe4af6f9	-0.19820775
171	0xbe5e6bd4	-0.2172082
172	0x3e6d87db	0.23196356
173	0x3e8dd5c5	0.27702156
174	0x3e2a44b7	0.16627775
175	0x3e8ff94d	0.2811989
176	0xbe6e2cdf	-0.23259304
177	0xba708af5	-0.00091759796
178	0xbe071e0e	-0.13195059
179	0x3ead045d	0.3379239
180	0xbc897261	-0.016778173
181	0xbe2c633c	-0.1683473
182	0x3e28b232	0.16474226
183	0xbe2221dd	-0.1583323
184	0xbdcb36a1	-0.09922529
185	0xbe89d8b9	-0.2692316
186	0x3e0d500a	0.13800064
187	0x3e7649c6	0.2405158
188	0xbd1fcd48	-0.03901413
189	0x3cbba236	0.022904497
190	0xbe7ed647	-0.24886428
191	0xbe80a3e2	-0.25125033
192	0xbe3c6ee9	-0.18401684
193	0x3b6f3c95	0.0036504616
194	0xbd9c35ad	-0.07627425
195	0xbe9b734c	-0.30361402
196	0xbd9f12de	-0.077672705
197	0xbe33f1d0	-0.17572713
198	0xbe01c3a3	-0.12672286
199	0xbe632022	-0.22180226
200	0xbdf77913	-0.1208364
201	0xbdc4b29a	-0.09604378
202	0xbdd6ebfe	-0.10494231
203	0xbe138e32	-0.14409712
204	0xbdb7f053	-0.08981385
205	0xbbaa60c9	-0.005199526
206	0xbe2a970c	-0.16659182
207	0x3e65940b	0.22419755
208	0x3ec413a3	0.38296232
209	0xbe2978e5	-0.16550024
210	0xbd901872	-0.070359126
211	0x3b521dea	0.0032061287
212	0xbe1f184c	-0.15536612
213	0xbda1e5a7	-0.07905131
214	0xbdfb2a71	-0.122639544
215	0xbde74694	-0.112927586
216	0xbd8d9603	-0.06913378
217	0x3df4aef5	0.11947433
218	0xbe0a862a	-0.13527742
219	0xbe981c99	-0.29709318
220	0x3e0cb721	0.13741733
221	0xbe3601d1	-0.1777413
222	0xbd9a787d	-0.075425126
223	0xbbaa28f5	-0.0051928707
224	0x3d89d94f	0.067309014
225	0xbccb02fb	-0.024781695
226	0xbe462314	-0.19349319
227	0x3d33f788	0.043937236
228	0xbe16fcce	-0.14744875
229	0xbeeb138b	-0.45913348
230	0xbcc5b6e1	-0.024135055
231	0xbe31443f	-0.1731119
232	0x3c5975da	0.013272727
233	0x3da3d755	0.08000056
234	0xbdfb0147	-0.12256103
235	0xbdc6f412	-0.097145215
236	0xbe0640dc	-0.1311068
237	0x3e1982ec	0.14991349
238	0xbdef9d00	-0.11699867
239	0x3e85d806	0.26141375
240	0xbdf9b7c9	-0.12193257
241	0xbdf9c499	-0.12195701
242	0xbe51800b	-0.20459001
243	0xbc920009	-0.017822282
244	0xbee3015c	-0.44336975
245	0xbd59a69d	-0.05313741
246	0xbeb237b4	-0.34808123
247	0x3e76fe4d	0.24120446
248	0x3cdf5513	0.027262246
249	0xbe86a888	-0.26300454
250	0xbe61e2da	-0.22059193
251	0x3e268111	0.16260172
252	0xbe0d5310	-0.13801217
253	0x3d6b3ca0	0.057430863
254	0x3e85fa7c	0.26167667
255	0x3eb402f3	0.351585

network_body._body_endoder.seq_layers.2.bias f4 [128]
0	0xbc8fb685	-0.017543087
1	0x3bdf1d3a	0.006808904
2	0xbc486f98	-0.012233637
3	0x3c53ef56	0.01293548
4	0xbbb8a284	-0.0056346077
5	0xbcd7eb3f	-0.026357291
6	0x3c5d17c6	0.013494438
7	0x3cc21bc5	0.023694882
8	0x3b849473	0.004046017
9	0x3cc424ab	0.023943266
10	0x3ca150f7	0.019691927
11	0x3d0fb39e	0.035083406
12	0x3b792400	0.0038015842
13	0xbceedbc4	-0.029157527
14	0xbbe05ba0	-0.00684686
15	0xbc7a2755	-0.015268167
16	0x3cae1165	0.021248529
17	0xbc895ff1	-0.016769381
18	0x3c90e80c	0.017688774
19	0x3cd6136a	0.026132304
20	0xbcc69738	-0.024242029
21	0xbcc025b0	-0.02345547
22	0xb80bf917	-3.3372165e-05
23	0x3d0ccf82	0.034377582
24	0x3bab4c22	0.0052275816
25	0xba45c6ef	-0.0007544597
26	0xbb9caecb	-0.004781579
27	0x3ceaa237	0.028641803
28	0x3bf5cd3a	0.0075012716
29	0x3ce3bf63	0.027801221
30	0x3b961fad	0.0045814128
31	0xbcae651b	-0.021288445
32	0xbc43fc4f	-0.0119620105
33	0xbbd415f4	-0.0064723436
34	0xbacad50b	-0.0015474869
35	0xb9c67a20	-0.00037856493
36	0xbcab7539	-0.02092992
37	0xbcc70d76	-0.02429841
38	0xbc16d935	-0.00920706
39	0xbafbff0f	-0.0019225794
40	0x3cab2722	0.020892683
41	0x3d19790f	0.037468966
42	0x3befa036	0.0073128
43	0xbc066a75	-0.008204092
44	0x3c6b99ba	0.014379913
45	0xbc058556	-0.008149466
46	0x3c3343b4	0.010941435
47	0x3bc2de4d	0.0059469105
48	0xbc77abec	-0.015116673
49	0xbd00e98e	-0.031472735
50	0xbcfe797c	-0.031063788
51	0x3cfb1ad9	0.03065245
52	0x39720765	0.00023081673
53	0x3b92ebe8	0.0044836886
54	0x3c4be56b	0.012444834
55	0xbcb2df0e	-0.021834876
56	0xbbf4cdc8	-0.00747082
57	0x3cb536de	0.02212089
58	0x3d069002	0.03285218
59	0x3c7fe718	0.015619062
60	0x3b4f167f	0.0031599102
61	0x3cf82513	0.030291116
62	0xbc969dd8	-0.018385813
63	0x3c62a5e6	0.013833499
64	0xbd22ce25	-0.039747376
65	0x3cce75a6	0.025202584
66	0x3cd1d7b8	0.025615558
67	0xbb4ec0a3	-0.0031547926
68	0x3ba82bad	0.0051321597
69	0xbc518048	-0.012786932
70	0x3c8fd6b0	0.017558426
71	0xbd16c450	-0.036808312
72	0xbb0411a9	-0.0020152128
73	0xbc1e27cd	-0.009653044
74	0xbb20c2af	-0.0024530103
75	0x3c81f87b	0.015865555
76	0xbb99ba08	-0.004691366
77	0xbbb29b8b	-0.005450671
78	0xbc8633e5	-0.016382167
79	0x3c2234e7	0.009900308
80	0xbb80e371	-0.003933363
81	0xbd326ae9	-0.04355899
82	0xbbcc4c7b	-0.006234703
83	0x3b9c4312	0.0047687376
84	0xbc397b27	-0.011320866
85	0x3c1b5cc5	0.009482567
86	0x3cee5562	0.029093448
87	0x3a3a6db9	0.0007111687
88	0xbc904cbd	-0.017614717
89	0x3cafb3cf	0.021448044
90	0xbbcfc640	-0.006340772
91	0x3c8ca52b	0.017168602
92	0xbcd367ad	-0.025806272
93	0x3cf9099d	0.030400092
94	0x3b78f299	0.0037986396
95	0xbc9caf9a	-0.019126702
96	0x38c98733	9.60961e-05
97	0x3b976fea	0.0046214955
98	0xbc906138	-0.017624483
99	0x3cdadddc	0.026717119
100	0x3c88b923	0.016689843
101	0x3bf3888c	0.007432049
102	0xbcabc615	-0.020968476
103	0xbd0c0be8	-0.034191042
104	0x3cfa062a	0.030520517
105	0xba32cbcb	-0.00068205287
106	0x3b9aecf9	0.0047279564
107	0x3ccc6f8f	0.024955539
108	0xbc467584	-0.012112979
109	0x3c02ff1f	0.007995396
110	0xbc7f4710	-0.015580907
111	0x3cd5f388	0.026117101
112	0xbbc159d7	-0.0059006023
113	0xbbcd601c	-0.0062675606
114	0x3d5926f7	0.053015675
115	0xbceb8a14	-0.028752364
116	0x3bcaa6ae	0.0061844205
117	0x3a5ce4b7	0.0008426415
118	0xbca13e58	-0.019683048
119	0xbb830302	-0.0039981613
120	0x3c6aad15	0.014323493
121	0x3cb7c64d	0.022433424
122	0xbcc02b5b	-0.023458173
123	0xbb7c89f1	-0.0038534368
124	0xbc87a10b	-0.016556283
125	0x3d17d43c	0.037067637
126	0x3ae50a68	0.0017474415
127	0xbc9598ef	-0.018261401

network_body._body_endoder.seq_layers.2.weight f4 [128, 128]
0	0x3d306872	0.043068357
1	0xbcd7606f	-0.0262911
2	0xbda5937b	-0.0808477
3	0xbea874e4	-0.3290168
4	0x3db21c03	0.08696749
5	0x3ca83e7a	0.020537604
6	0x3c990683	0.018679863
7	0x3daabd76	0.08336918
8	0x3d9991ef	0.07498538
9	0x3e05ac88	0.13054097
10	0xbdaddd4f	-0.08489477
11	0x3e242a13	0.16031675
12	0x3e2931e0	0.16522932
13	0xbdb0cd54	-0.08632913
14	0xbc3e922b	-0.011631529
15	0xbe3ff2d6	-0.18744978
16	0x3d12e3ea	0.035861887
17	0x3d02aa87	0.03190091
18	0x3e0c6bee	0.13713047
19	0x3d8b4e53	0.068020485
20	0xbd8995db	-0.06718036
21	0x3c152bcb	0.009104679
22	0xbe38829b	-0.18018572
23	0xbd03896b	-0.032113474
24	0x3d616479	0.05502746
25	0x3d6c536d	0.05769675
26	0x3d95a943	0.07307675
27	0x3e1bcb74	0.1521433
28	0xbd85fbbd	-0.06542156
29	0xbb5a957d	-0.0033353262
30	0xbcdb9c0b	-0.026807806
31	0xbcbca851	-0.023029478
32	0x3c3728a2	0.011179121
33	0xbe057a6d	-0.13034983
34	0xbd1d417b	-0.038392525
35	0x3e13d610	0.14437127
36	0xbe07805b	-0.13232557
37	0x3cbf1cc5	0.023329148
38	0xbe369ddf	-0.1783366
39	0x3da1fdc4	0.0790973
40	0xbcff79a6	-0.031185936
41	0xbddb6ea9	-0.10714466
42	0x3d87ffd3	0.066405915
43	0xbd044326	-0.0322906
44	0x3dc9b3f0	0.098487735
45	0x3e142523	0.14467292
46	0xbb9fa654	-0.004872123
47	0xbddc367b	-0.10752579
48	0x3c1f9cd5	0.0097419815
49	0x3e351fc7	0.17687903
50	0x3d4c997a	0.049951054
51	0xbda0c248	-0.07849556
52	0x3d7a941d	0.061176408
53	0x3e22e8e9	0.1590916
54	0x3d07e454	0.033176735
55	0xbe545849	-0.20736803
56	0xbe1b4893	-0.15164404
57	0x3ce01736	0.027354818
58	0xbe3a47a6	-0.18191394
59	0xbd653076	-0.05595442
60	0x3decab6d	0.115561344
61	0xbd41ec58	-0.047344536
62	0x3dafee03	0.08590319
63	0xbd015c8a	-0.031582393
64	0xbc3b98ae	-0.011449976
65	0xbd848ffe	-0.06472777
66	0x3e1f30ad	0.15545912
67	0x3cfd42af	0.030915586
68	0x3e347fdf	0.17626904
69	0x3d3cdf2d	0.046111275
70	0x3c1f068c	0.009706151
71	0x3b159c5f	0.00228288
72	0xbd53b441	-0.051685575
73	0xbd212bf9	-0.039348576
74	0x3e02b3f5	0.1276396
75	0x3ddec37a	0.10877128
76	0xbc45d938	-0.012075715
77	0x3d6ac1c0	0.05731368
78	0x3cfa407f	0.030548332
79	0xbe0216c9	-0.12704004
80	0x3de63aa1	0.11241651
81	0xbda790cb	-0.08181914
82	0x3e3af0f2	0.18255976
83	0xbca40279	-0.02002071
84	0xbd4a9821	-0.049461488
85	0x3b709bae	0.0036713886
86	0x3e0c25a5	0.13686235
87	0x3e5e8fa7	0.21734487
88	0xbd819cd4	-0.06328741
89	0x3bff8541	0.0077978675
90	0xbe3f73d4	-0.18696529
91	0x3b561a32	0.0032669422
92	0x3dbe62b6	0.09296171
93	0xbe3aa91c	-0.18228573
94	0xbd4dba8c	-0.050226733
95	0x3cc0c7de	0.023532804
96	0xbd1430dc	-0.03617941
97	0x3d9634a7	0.073342614
98	0x3e20a1ad	0.15686674
99	0x3c3f2ff9	0.011669152
100	0xbdae22e8	-0.085027516
101	0xbc983525	-0.018580029
102	0xbd6cc040	-0.05780053
103	0xbcdb177f	-0.026744602
104	0xbdbcc47c	-0.09217164
105	0xbd92301f	-0.071380846
106	0xbe43cc81	-0.19120981
107	0xbe196287	-0.14978991
108	0xbd8f39e4	-0.06993464
109	0x3b9cf858	0.004790347
110	0xbd17a387	-0.037021186
111	0xbdf312a9	-0.118687935
112	0x3d6d7011	0.057968203
113	0x3e1a8fa5	0.15093859
114	0x3dbdaeea	0.09261878
115	0x3e03969a	0.12850419
116	0x3d8f3001	0.06991578
117	0xbd923252	-0.07138504
118	0x3e261477	0.16218744
119	0xbcac1f90	-0.021011144
120	0x3e816f49	0.25280216
121	0xbd52aed7	-0.05143627
122	0xbb403e78	-0.002933411
123	0xbd103e1b	-0.03521548
124	0x3dd7eb00	0.105428696
125	0xbcb15365	-0.02164621
126	0xbcbea6fe	-0.023272987
127	0x3ddf4aa3	0.10902908
128	0xbd449cc6	-0.048001073
129	0x3c5e9708	0.013585813
130	0xbd638020	-0.05554211
131	0x3dcc97c5	0.09989885
132	0x3d1eaffb	0.038742047
133	0xbc9e540a	-0.019327182
134	0xbc52b4b8	-0.0128604695
135	0x3d9466bd	0.07246158
136	0xbde45026	-0.111480996
137	0xbdb9ca89	-0.09071834
138	0x3d88c8e5	0.066789426
139	0x3ddbd15b	0.10733291
140	0xbcf35dd2	-0.029707823
141	0x3dc38cd7	0.095483474
142	0x3e78c61a	0.2429432
143	0x3de50f09	0.11184508
144	0xbcc574f1	-0.024103614
145	0xbe5a260e	-0.21303579
146	0x3cfacbb0	0.030614704
147	0x3e0ef0b1	0.13959004
148	0xbcf939c0	-0.030423045
149	0x3dcdc1be	0.10046719
150	0x3e2a99d2	0.1666024
151	0x3d83f4a3	0.06443145
152	0xbda51f36	-0.08062594
153	0xbdc6a4f3	-0.0969943
154	0x3c6c9ede	0.014442174
155	0x3e692ee0	0.22771788
156	0x3d1b4d9a	0.037915803
157	0x3e326f9b	0.17425387
158	0xbda5d051	-0.08096374
159	0x3e02089c	0.12698597
160	0xbdd5d1ab	-0.104403816
161	0xbe272e3b	-0.1632623
162	0x3df0f8ea	0.117662266
163	0xbd3312c5	-0.043719072
164	0xbd35b595	-0.044362623
165	0xbe71a9a1	-0.23599865
166	0x3de5f2dd	0.11227963
167	0xbe589c36	-0.2115334
168	0xbd1a050d	-0.037602473
169	0x3cdf9aee	0.027295556
170	0x3e175912	0.14780071
171	0x3c62bbae	0.013838692
172	0xbd14e41c	-0.036350355
173	0xbd160ad6	-0.036631428
174	0x3d1fe8b1	0.03904027
175	0xbddae8ae	-0.106889114
176	0xbdca811e	-0.098879084
177	0xbd575670	-0.052572668
178	0xbda7389c	-0.08165094
179	0x3dc50023	0.09619167
180	0xbddb7225	-0.10715131
181	0xbe228b16	-0.1587337
182	0xbd6b1941	-0.05739713
183	0x3de9b28d	0.11411009
184	0x3dd14250	0.10217726
185	0x3d88cf2a	0.066801384
186	0x3dc1cbc8	0.09462696
187	0xbe05df97	-0.13073574
188	0x3e105d9d	0.1409821
189	0x3e2637b8	0.16232193
190	0x3c7bd2f0	0.015370116
191	0xbd212b38	-0.039347857
192	0xbc950c85	-0.018194446
193	0xbd4a80ed	-0.04943936
194	0x3d2d6bec	0.04233925
195	0x3d065ffc	0.03280638
196	0x3da440d4	0.080201775
197	0x3e00eaa5	0.1258951
198	0xbd66b1be	-0.056321852
199	0x3e1c3017	0.1525272
200	0xbe1428f4	-0.14468747
201	0x3c0cf8e5	0.008604263
202	0x3d8e9bf0	0.069633365
203	0xbdded3da	-0.10880251
204	0x3cbf665c	0.023364238
205	0xbda88ae8	-0.08229619
206	0x3af83dc6	0.0018939308
207	0x3dbb0fea	0.09133895
208	0xbde4caf6	-0.11171524
209	0x3df23809	0.11827094
210	0x3dbca051	0.092102654
211	0xbe139e05	-0.14415748
212	0xbd7b45c2	-0.061345823
213	0xbd113ea8	-0.035460144
214	0x3db9890b	0.09059342
215	0x3e4c73dd	0.19966073
216	0xbcdc664d	-0.02690425
217	0xbd79bbd8	-0.060970157
218	0xbd9b11b5	-0.07571737
219	0xbb4a3a80	-0.0030857623
220	0x3e0d5bd9	0.13804568
221	0xbd999277	-0.07498639
222	0x3de1cc1b	0.11025258
223	0xbe527266	-0.20551452
224	0x3ccdc2a7	0.025117232
225	0xbd188aa4	-0.037241593
226	0xbced4233	-0.02896223
227	0x3de538c0	0.11192465
228	0xbd2ec9b2	-0.04267282
229	0xbce1ce12	-0.027564082
230	0xbaaa8104	-0.001300842
231	0xbdb94cfa	-0.09047885
232	0x3d2945bc	0.04132627
233	0xbd80b881	-0.06285191
234	0xbdab34f6	-0.08359711
235	0xbc9a1678	-0.018809542
236	0x3d9f9250	0.07791579
237	0xbe0df31b	-0.13862269
238	0xbcab5836	-0.020916086
239	0x3e3a0f2e	0.18169853
240	0x3d255cf3	0.040371846
241	0x3e0745f0	0.13210273
242	0x3dbdaecc	0.092618555
243	0x3d556246	0.052095674
244	0xbd720178	-0.059083432
245	0xbcddac78	-0.027059779
246	0x3d53fd05	0.05175497
247	0x3d18315e	0.037156455
248	0xbd8902b5	-0.066899695
249	0x3cdb4963	0.026768392
250	0x3c8ea493	0.01741246
251	0xbda79460	-0.08182597
252	0x3b1bb229	0.0023757315
253	0xbd8e92b9	-0.06961579
254	0xbd657bce	-0.056026272
255	0xbd4f7fb7	-0.050658908
