results/ppo/MoveToGoal/MoveToGoal-2842.pt (torch, 147935 bytes, 14 tensors)

network_body._body_endoder.seq_layers.0.weight f4 [128, 1]
00000000: e147 743f b840 623f 4de1 3e3f cece 753f
00000010: ec9c 7bbd 9e85 9e3f 0a5b 253f 8fb6 67bf
00000020: c9df b03e 2456 d2bc 0bb8 7e3e ed9b 5abf
00000030: e4b8 993d 8125 793f 82ed 0e3f 1896 cfbd
00000040: 5485 87bf f575 873f 4c49 a73f 95eb a23c
00000050: 3c34 0dbe 362b ffbe 245d 073f fd1a 41bf
00000060: 6dd7 f4bf a8d8 acbf fa42 59bf 1fa1 f8be
00000070: 4334 8a3e 01a4 e1bd 5548 9fbd 449d 88bf
00000080: 517a 8d3f 7d3f 18be 3ce6 84bf ef7d 47bd
00000090: 1df0 a5bf 7fc1 57be 440f 103f 975e e9bf
000000a0: 49c6 9e3e 8802 6cbe e1a0 783f cbe5 123f
000000b0: 0873 8a3e 1f68 6c3f b75b 72bd 7421 c7be
000000c0: 6d3d a63f 3535 813f 6573 fcbe d827 6bbf
000000d0: b0ac 4440 efad 313f b686 13bf cf05 683e
000000e0: 80db 65bf 8e97 453e 13e2 6e3f 1aa9 e2bd
000000f0: 8727 95bd 41e0 183f f179 5abf 8d84 a6bf
00000100: 1c08 0ac0 605a 3bbf 5c57 a33f 5f36 be3e
00000110: b858 82bf e2b4 9c3c 70d7 f73e a613 443f
00000120: 7de7 a63f 56c4 d4be c2c5 7cbe 0da3 4d3f
00000130: 3195 bb3f 3f39 203e f90c dc3e 90a3 6f3e
00000140: 037e c5bf 46e7 21be c3ac 073f 17ed 0f3f
00000150: 63e1 10bb d03b 0cbf ad46 653f bf22 12be
00000160: 27f4 543f b003 4c3e b680 d13e 398c 8bbf
00000170: 750a a73f 593f dcbf 5418 e73d 57db adbf
00000180: 07f1 343f c64a 95bf e2f4 bdbf a8d3 1e3f
00000190: 8492 d3be 14ea 963f e879 743e c7bb 36be
000001a0: 15f3 81bf 48fc adbf 744c 0d3f 9d91 33bf
000001b0: 25c7 dbbf 9792 cebf 6fe9 a33e abdd 38bf
000001c0: 6366 29bf 9e6a ac3f a4f9 6d3e 809f 153f
000001d0: 70bf 053e 614a 5a3f 77e2 a4bd 9703 28bf
000001e0: 0d0d 6b3f 65b3 3bbe 598f 9ebf 5685 25bf
000001f0: 6314 173f 1437 43bf 42c6 adbf 6372 b53e
0.9542218 0.8838 0.7456253 0.96018684 -0.06142895 1.2384527 0.6459204 -0.9051294
0.34545735 -0.02567584 0.24874894 -0.85394174 0.07505968 0.9732285 0.5583116 -0.1013605
-1.0587564 1.0582873 1.3069243 0.019887725 -0.13789457 -0.49837655 0.52876496 -0.75431806
-1.9128243 -1.3503618 -0.84867823 -0.48560426 0.26992998 -0.110176094 -0.07777468 -1.0672994
1.1052953 -0.14867969 -1.0382762 -0.048704084 -1.2963902 -0.21069907 0.56273293 -1.8231992
0.31010655 -0.2304784 0.9712048 0.57381886 0.27040887 0.92346376 -0.059169497 -0.3889271
1.2987496 1.0094362 -0.4930679 -0.9185767 3.07304 0.69406027 -0.5762743 0.22658466
-0.89788055 0.19296095 0.9331371 -0.1106741 -0.0728293 0.59717184 -0.8534232 -1.3009201
-2.156745 -0.73184776 1.2761035 0.37150857 -1.0183325 0.01912922 0.48406553 0.7659248
1.3039395 -0.41556042 -0.24684814 0.8032692 1.4654905 0.15646838 0.42978647 0.23402238
-1.5429081 -0.1581088 0.5299799 0.56221145 -0.0022106997 -0.54778767 0.8956097 -0.14271067
0.83185047 0.19923282 0.4091851 -1.0902168 1.3050066 -1.7206832 0.11283937 -1.3582562
0.7068028 -1.1663444 -1.4840357 0.6204171 -0.4132272 1.1790185 0.23874629 -0.17845069
-1.0152308 -1.3592615 0.55194783 -0.70144063 -1.7170149 -1.6138486 0.32014033 -0.7221324
-0.66171855 1.3470037 0.23239762 0.584465 0.13061309 0.85269743 -0.08051007 -0.6563048
0.9181679 -0.18330152 -1.2387496 -0.6465658 0.5901548 -0.7625592 -1.3576128 0.35438833

network_body._body_endoder.seq_layers.0.bias f4 [128]
00000000: 0000 0000 0000 0000 0000 0000 0000 0000
00000010: 0000 0000 0000 0000 0000 0000 0000 0000
00000020: 0000 0000 0000 0000 0000 0000 0000 0000
00000030: 0000 0000 0000 0000 0000 0000 0000 0000
00000040: 0000 0000 0000 0000 0000 0000 0000 0000
00000050: 0000 0000 0000 0000 0000 0000 0000 0000
00000060: 0000 0000 0000 0000 0000 0000 0000 0000
00000070: 0000 0000 0000 0000 0000 0000 0000 0000
00000080: 0000 0000 0000 0000 0000 0000 0000 0000
00000090: 0000 0000 0000 0000 0000 0000 0000 0000
000000a0: 0000 0000 0000 0000 0000 0000 0000 0000
000000b0: 0000 0000 0000 0000 0000 0000 0000 0000
000000c0: 0000 0000 0000 0000 0000 0000 0000 0000
000000d0: 0000 0000 0000 0000 0000 0000 0000 0000
000000e0: 0000 0000 0000 0000 0000 0000 0000 0000
000000f0: 0000 0000 0000 0000 0000 0000 0000 0000
00000100: 0000 0000 0000 0000 0000 0000 0000 0000
00000110: 0000 0000 0000 0000 0000 0000 0000 0000
00000120: 0000 0000 0000 0000 0000 0000 0000 0000
00000130: 0000 0000 0000 0000 0000 0000 0000 0000
00000140: 0000 0000 0000 0000 0000 0000 0000 0000
00000150: 0000 0000 0000 0000 0000 0000 0000 0000
00000160: 0000 0000 0000 0000 0000 0000 0000 0000
00000170: 0000 0000 0000 0000 0000 0000 0000 0000
00000180: 0000 0000 0000 0000 0000 0000 0000 0000
00000190: 0000 0000 0000 0000 0000 0000 0000 0000
000001a0: 0000 0000 0000 0000 0000 0000 0000 0000
000001b0: 0000 0000 0000 0000 0000 0000 0000 0000
000001c0: 0000 0000 0000 0000 0000 0000 0000 0000
000001d0: 0000 0000 0000 0000 0000 0000 0000 0000
000001e0: 0000 0000 0000 0000 0000 0000 0000 0000
000001f0: 0000 0000 0000 0000 0000 0000 0000 0000
0.0 0.0 0.0 0.0 0.0 0.0 0.0 0.0
0.0 0.0 0.0 0.0 0.0 0.0 0.0 0.0
0.0 0.0 0.0 0.0 0.0 0.0 0.0 0.0
0.0 0.0 0.0 0.0 0.0 0.0 0.0 0.0
0.0 0.0 0.0 0.0 0.0 0.0 0.0 0.0
0.0 0.0 0.0 0.0 0.0 0.0 0.0 0.0
0.0 0.0 0.0 0.0 0.0 0.0 0.0 0.0
0.0 0.0 0.0 0.0 0.0 0.0 0.0 0.0
0.0 0.0 0.0 0.0 0.0 0.0 0.0 0.0
0.0 0.0 0.0 0.0 0.0 0.0 0.0 0.0
0.0 0.0 0.0 0.0 0.0 0.0 0.0 0.0
0.0 0.0 0.0 0.0 0.0 0.0 0.0 0.0
0.0 0.0 0.0 0.0 0.0 0.0 0.0 0.0
0.0 0.0 0.0 0.0 0.0 0.0 0.0 0.0
0.0 0.0 0.0 0.0 0.0 0.0 0.0 0.0
0.0 0.0 0.0 0.0 0.0 0.0 0.0 0.0

network_body._body_endoder.seq_layers.2.weight f4 [128, 128]
00000000: 9ddf e53d ba79 4d3c 3825 6abb d164 8bbd
00000010: 6dd9 cbbb 21ee ca3d c3c1 c5bd eef9 b5bc
00000020: 2e5e 55bc 2754 4f3d 2ee1 88bd ebd7 693d
00000030: 5cde 683d 7dc9 f73d 952f a4bd cdea 503d
00000040: 2550 6e3d d3d5 553d fb76 953d 3482 2bbd
00000050: f94c ddbd 20ad f23d 37a0 01be eb8f 113d
00000060: 0dfb 89bd c834 3bbe 5d06 42bd 2d7f 8a3d
00000070: d4f4 dcbc 7e1d 83bd acd2 ebbc e25b a9bd
00000080: 5dbd 9dbd f9c0 ee3d 123d a1bd 3b25 273d
00000090: 6bb0 35bc 5016 d2bd 6c83 20be 0a52 f4ba
000000a0: 3331 4e3e 9cf1 8d3d 7dc6 0f3d 5926 133b
000000b0: 9e3a 0e3e 1434 8c3e 075a 31bd 22c8 6bbb
000000c0: 9722 6fbe 6cb7 98bb 6424 ec3d 237f cabb
000000d0: b032 333d d813 d1bd 6c0d 01bd 8a18 d0bd
000000e0: 753e c53b d360 37bd 9b85 21be 5334 35bd
000000f0: c7da 483b 7246 ab3d 9d56 553d 9929 89ba
00000100: d55a c53c ee76 c7bd 8c0c 3a3e cb94 b0bd
00000110: 080e 9e3d b4ef 2e3e 79ca f0bd 0a99 2e3e
00000120: 14ef d6bd 48cb 233d 8cbe ff3d 78f6 40bd
00000130: dda8 a9bd 5d57 ec3b 78ab 3ebe 71db d13d
00000140: 734d cb3c dd02 443e 3181 0b3b 9f02 0dbe
00000150: 513e e43d 9274 7fbd 67bb c5bd dd42 f8bc
00000160: 336f 363d 5790 223e 1071 af3d 5e26 4a3d
00000170: 2a68 e9bc 416e 933d 06b8 993d 90fa 9fbd
00000180: 3cfb 97bc ec22 f0bd be26 09be b366 7bbd
00000190: 54c3 173d 6dc1 0fbe 4b8b c33d 61c1 19bc
000001a0: d241 f33d 4fc9 04bd 2b77 0bbc 7a6a 333d
000001b0: 71d3 bd3d 773c 4ebd 190f b1bd 7a2a 153e
000001c0: a984 823d 0846 4ebd ab27 87bc 5c43 963c
000001d0: 2f29 00bd 346f c3bd e764 3fbd 1ffa dcbd
000001e0: fe98 95bd 4eee 61bd 2598 e6bd 8ccd b93d
000001f0: 93c8 14bc e759 f1bd 9303 ddbd dc52 95bc
00000200: ca0a b13c 7bbe debd 1e33 d2bc c238 cabc
00000210: 1fa4 91bd 7760 a3bd f45b fd3d 6cf5 49be
00000220: d073 e3bc b08e 223b 8f86 993d 05b4 27bd
00000230: b808 9abc a0aa 6dbd f600 65bd 9d6e 24bd
00000240: 8255 2f3e 0abf f63d 6b16 34bd 00fe 2bbe
00000250: e9a3 293d a293 a9bb c0d8 9cbd b1b0 103e
00000260: 6aa3 30be e9c0 9d3d 2c9a 0c3d 739a ad3d
00000270: d33b 3dbd 7e65 3abd 1e93 1bbd 8034 00be
00000280: c41b b4bd 622d 013d 23f5 dabc 5abf 09be
00000290: 81a9 fa3d 448c b53b 0426 653d c996 65be
000002a0: b17c 893c f0b8 9ebd 199a 30be f2b2 013b
000002b0: d6c2 213e ccff aa3b 9de8 8ebd 19e4 9f3b
000002c0: 7652 643d ad7d 6d3d f135 393e 198b 3bbd
000002d0: 7a74 b43c 1af3 b53d 8ffa 91bd 2893 e3b7
000002e0: c80a 54be f079 7a3c 2242 9d3c 7c59 3fbd
000002f0: 9833 bdbd 3321 9abd 53ff 71bd 9462 3d3d
00000300: b4de d83c 7080 213c 3fc8 bebd 136f dc3d
00000310: 95c3 fa3b b9ca 1dbc 6efe e93d 678d bcbd
00000320: 8f73 25be ca61 81bd 358c e33d f4ae 89bc
00000330: 38dc 803d 1088 4dbd c042 14bd 1397 c33d
00000340: 13f1 16bd e2a8 4d3d dda2 2a3e 5dc0 853d
00000350: b364 afbb db24 68bc fd51 07bc 33c7 a53d
00000360: 1b2c f03c 0132 573c ac78 3bbd cd5c 83bd
00000370: f169 05bd 12f1 62bd 3cbd 863c 02df 98bd
00000380: 0009 07bc aa86 c4bc cf44 f3bd 251a 723d
00000390: 0988 f8bd e247 b7bd a001 83bd fabd 91bd
000003a0: 48b8 59bd a427 0cbd 08bd 043e 9bb3 293d
000003b0: f2b2 9dbd f345 0e3e 3f06 fe3d 7392 163e
000003c0: e7ff 893e d05d 8abd 60c9 c83c 57e8 1f3e
000003d0: 6be1 373d 9293 17be 82ab b7bc d7bd 15bd
000003e0: 74d1 1d3d 2181 de3b a6d2 033d 8ba9 1c3d
000003f0: cb11 26bd 9b34 cabc 0145 01be 1007 3d39
0.112242915 0.012541229 -0.003572775 -0.068063386 -0.0062209875 0.09908701 -0.09656098 -0.022213902
-0.0130229425 0.050617363 -0.066835746 0.05709068 0.056852683 0.12098978 -0.08016888 0.051005173
0.0581819 0.05220587 0.07298084 -0.04187222 -0.10805697 0.11849427 -0.12658773 0.03553764
-0.06737337 -0.18281853 -0.04736935 0.06762538 -0.026972212 -0.064021096 -0.02878698 -0.082694784
-0.07702134 0.116579 -0.07872976 0.04080699 -0.011089425 -0.10258162 -0.15675133 -0.0018640172
0.20135956 0.06930849 0.035101403 0.0022453277 0.13889548 0.27383482 -0.043298747 -0.0035977443
-0.23353039 -0.0046605375 0.115303785 -0.0061797067 0.04374951 -0.10208863 -0.03150694 -0.101609305
0.0060194083 -0.044770073 -0.15773623 -0.044239353 0.003064798 0.08363046 0.052084554 -0.0010464668
0.024091164 -0.09739481 0.18168849 -0.0862213 0.0771752 0.17083627 -0.117573686 0.17050567
-0.10494819 0.039988786 0.12487516 -0.04711005 -0.08284161 0.007212563 -0.18620098 0.10246933
0.024817204 0.19141717 0.002128672 -0.13770531 0.111446984 -0.06236703 -0.09654885 -0.03030532
0.04453964 0.15875374 0.08566487 0.049352996 -0.028492052 0.07198764 0.07505803 -0.07811463
-0.018552415 -0.11725411 -0.13393685 -0.06137724 0.037051514 -0.1403863 0.095480524 -0.009384484
0.118777886 -0.032418545 -0.008512299 0.043802716 0.09268845 -0.050350633 -0.08645458 0.14566985
0.06372959 -0.050359756 -0.016498407 0.018342666 -0.031289276 -0.09542695 -0.046727087 -0.10789894
-0.073045716 -0.055158906 -0.11259488 0.09072408 -0.009081024 -0.11784726 -0.10791697 -0.018227987
0.02161159 -0.10876175 -0.02565914 -0.024685267 -0.07111382 -0.079773836 0.12371054 -0.19722527
-0.027765185 0.0024804287 0.07496368 -0.040943164 -0.018802986 -0.05802405 -0.05590912 -0.04014455
0.17122462 0.120481566 -0.043966692 -0.16796112 0.041416083 -0.00517507 -0.07658529 0.14129902
-0.17249838 0.0770281 0.034326717 0.084767245 -0.04619963 -0.045506947 -0.0379821 -0.12520027
-0.087943584 0.03153742 -0.026728218 -0.13451901 0.122393616 0.0055404026 0.055944458 -0.22420801
0.01678309 -0.07750118 -0.17246284 0.0019790498 0.1579698 0.0052184816 -0.06977961 0.0048794863
0.055742703 0.057981182 0.18086983 -0.04578695 0.022028197 0.088842586 -0.071278684 -2.7129034e-05
-0.20707238 0.015287861 0.019196574 -0.0467162 -0.09238356 -0.075258635 -0.059081387 0.04623659
0.02647338 0.009857282 -0.09315538 0.10763373 0.0076527097 -0.009630852 0.11425482 -0.09206658
-0.16157363 -0.0631748 0.11110727 -0.016807057 0.062920034 -0.050178587 -0.03619647 0.095502995
-0.036851 0.050209887 0.1666369 0.06530831 -0.0053525805 -0.014168943 -0.008259294 0.08094635
0.029317906 0.01313448 -0.04576938 -0.06414185 -0.032571737 -0.055405684 0.016447656 -0.0746441
-0.008241892 -0.023989994 -0.118783586 0.059106965 -0.12135322 -0.089492574 -0.06396794 -0.07116313
-0.05315426 -0.03421749 0.12962735 0.04143105 -0.07700147 0.13893871 0.12403535 0.14704303
0.2695305 -0.067561746 0.024510086 0.15615974 0.04489271 -0.14802387 -0.022420648 -0.036558
0.03852983 0.0067902957 0.032183312 0.038247626 -0.040544312 -0.024683287 -0.12623979 0.00018027076

network_body._body_endoder.seq_layers.2.bias f4 [128]
00000000: 0000 0000 0000 0000 0000 0000 0000 0000
00000010: 0000 0000 0000 0000 0000 0000 0000 0000
00000020: 0000 0000 0000 0000 0000 0000 0000 0000
00000030: 0000 0000 0000 0000 0000 0000 0000 0000
00000040: 0000 0000 0000 0000 0000 0000 0000 0000
00000050: 0000 0000 0000 0000 0000 0000 0000 0000
00000060: 0000 0000 0000 0000 0000 0000 0000 0000
00000070: 0000 0000 0000 0000 0000 0000 0000 0000
00000080: 0000 0000 0000 0000 0000 0000 0000 0000
00000090: 0000 0000 0000 0000 0000 0000 0000 0000
000000a0: 0000 0000 0000 0000 0000 0000 0000 0000
000000b0: 0000 0000 0000 0000 0000 0000 0000 0000
000000c0: 0000 0000 0000 0000 0000 0000 0000 0000
000000d0: 0000 0000 0000 0000 0000 0000 0000 0000
000000e0: 0000 0000 0000 0000 0000 0000 0000 0000
000000f0: 0000 0000 0000 0000 0000 0000 0000 0000
00000100: 0000 0000 0000 0000 0000 0000 0000 0000
00000110: 0000 0000 0000 0000 0000 0000 0000 0000
00000120: 0000 0000 0000 0000 0000 0000 0000 0000
00000130: 0000 0000 0000 0000 0000 0000 0000 0000
00000140: 0000 0000 0000 0000 0000 0000 0000 0000
00000150: 0000 0000 0000 0000 0000 0000 0000 0000
00000160: 0000 0000 0000 0000 0000 0000 0000 0000
00000170: 0000 0000 0000 0000 0000 0000 0000 0000
00000180: 0000 0000 0000 0000 0000 0000 0000 0000
00000190: 0000 0000 0000 0000 0000 0000 0000 0000
000001a0: 0000 0000 0000 0000 0000 0000 0000 0000
000001b0: 0000 0000 0000 0000 0000 0000 0000 0000
000001c0: 0000 0000 0000 0000 0000 0000 0000 0000
000001d0: 0000 0000 0000 0000 0000 0000 0000 0000
000001e0: 0000 0000 0000 0000 0000 0000 0000 0000
000001f0: 0000 0000 0000 0000 0000 0000 0000 0000
0.0 0.0 0.0 0.0 0.0 0.0 0.0 0.0
0.0 0.0 0.0 0.0 0.0 0.0 0.0 0.0
0.0 0.0 0.0 0.0 0.0 0.0 0.0 0.0
0.0 0.0 0.0 0.0 0.0 0.0 0.0 0.0
0.0 0.0 0.0 0.0 0.0 0.0 0.0 0.0
0.0 0.0 0.0 0.0 0.0 0.0 0.0 0.0
0.0 0.0 0.0 0.0 0.0 0.0 0.0 0.0
0.0 0.0 0.0 0.0 0.0 0.0 0.0 0.0
0.0 0.0 0.0 0.0 0.0 0.0 0.0 0.0
0.0 0.0 0.0 0.0 0.0 0.0 0.0 0.0
0.0 0.0 0.0 0.0 0.0 0.0 0.0 0.0
0.0 0.0 0.0 0.0 0.0 0.0 0.0 0.0
0.0 0.0 0.0 0.0 0.0 0.0 0.0 0.0
0.0 0.0 0.0 0.0 0.0 0.0 0.0 0.0
0.0 0.0 0.0 0.0 0.0 0.0 0.0 0.0
0.0 0.0 0.0 0.0 0.0 0.0 0.0 0.0

action_model._continuous_distribution.log_sigma f4 [1, 2]
00000000: 0000 0000 0000 0000
0.0 0.0

action_model._continuous_distribution.mu.weight f4 [2, 128]
00000000: 0db0 503b 6a28 28bc 11a2 023d b5f9 6d3b
00000010: af09 163b 574a 32bc ca43 d73b f259 e6bb
00000020: b39c 413c eb02 cf3b 17d2 6abc e0ee 4e3c
00000030: 5b5a 1539 1853 623b d2f5 99bc d7c2 b53c
00000040: 1038 8b3c d7aa 583c aa10 1cbc 0ba6 0e3a
00000050: 70ed 24bd 07c3 5b3c a739 87bb 8ff9 49bb
00000060: b14b 81bc 1355 6e3c 7df4 283b 4baf c9bc
00000070: ead1 d73c 1356 73bb 0785 00bd 4f14 0d3c
00000080: a443 acbc e2cc dd3b b3ef 843c a23a fe3c
00000090: 9a77 223c 02f6 dfbc 4f5a e33a 1f2d fd3c
000000a0: df38 c43c 5f74 70bb 08dc ff3b 68fb 423c
000000b0: db68 5f3c 5feb 5dbc 723d a2bc 91f7 113d
000000c0: f846 36bc b792 54bc cff0 9539 6954 463b
000000d0: 106a bf3b 825a 28bc d2af e63c aa1e 9e3c
000000e0: d29c e23b ab72 d8bb 0cd6 85bc bed1 2e3b
000000f0: 6f69 de39 6d7a 08ba ef78 89bc 1801 11bc
00000100: aa1d 01bc f76f dc39 7dda d73c ba2e c7bb
00000110: 8b73 3a3c 550c f4bc 67df 98bc e38d 23bd
00000120: 57b1 f8bb 53f6 88ba 6965 0dbc ea67 363c
00000130: 3fdc 33bc 5fb4 a13c 1fa0 a5bb 2c29 0c3c
00000140: 52cf 1f3c 6b5f a53c ca54 d0b9 c5ec 95bc
00000150: c3bf a6bc 92ca 063c b7f3 33bc 32b5 cfbb
00000160: 2cf1 94ba 469f 09bc 6c09 01ba 0086 de3c
00000170: ecb2 cbbb b0e6 6d3c ecb5 273b 11dd 9c3b
00000180: d2aa 963c f1db 893c 97c7 bbbc 05a4 afba
00000190: 38ed 2bbc fa3b d3bc 2a94 343c bb7e 1f3b
000001a0: 4a03 c13c 81bf 973c 4d8a 633c 7e44 383c
000001b0: 67b3 98bb 36db abbc 562f 833c 28cb e13c
000001c0: ca3d 6cbc 5fb9 cabc d386 573c b773 4e3b
000001d0: 933a 56bc aaaf 843c 1081 b6bb 146f 85bb
000001e0: 33b4 d5bb 427e 52bc c7b9 b9bc 8e7a 0bbc
000001f0: c52f c73c 8fea 6bbc 9d37 52bc 6313 a03c
00000200: 4354 b33c 9ddf b0ba 121b 4d3c bf7d 8a3c
00000210: f130 1e3b cfea 853c 223f bebc 93c0 0f3a
00000220: c366 a83c fe3f 3dbc cf77 a6bc a455 443c
00000230: 4345 853c f94a 173c 5325 a0bc 3191 a53b
00000240: 9f22 e43b d41c 8a3c 7060 34bb 9d0f 53bb
00000250: df05 9f3b 3290 d53b f927 a6bb 045c 30bc
00000260: 9d0f 02bc 1702 bb3c dc71 49bb af6f 77bc
00000270: a71e 813b a734 f03c 3430 a3bc 6875 eb3c
00000280: 384b 283d 4f99 253d 3f56 07bc 2b64 cf3c
00000290: 8f92 533c ef87 07bb d240 eb39 7ab1 e73c
000002a0: 95fb 55bc e2b2 d53b faa8 5d3d 4e02 253c
000002b0: cbca 5dbc ff62 123c edf1 8fbc 27e5 923c
000002c0: 4fd8 b0bc 773c 45bd 53ee 3bbc 67b9 3f3c
000002d0: 13e1 b13b e5cb 8bbc 4061 0e3c afe4 8cbc
000002e0: c874 59bc cf13 14bc 8f55 6a3d 0be3 36bc
000002f0: e25e be3c eba5 38bc 422a 793c d2f0 d83c
00000300: 6929 143c 37e3 433c 8844 2cbc 4f93 713c
00000310: 3322 5e3c d06b 193c 0706 a03b 46d7 28bc
00000320: fa18 e4bc 8577 2abc d3e7 2ebc 5f85 853c
00000330: 07cf 413b 1150 8a3b 93e0 abbc 33ac cfbb
00000340: 5cd2 a53c c739 1bbc 022d c53b 69cd 49bc
00000350: d8e7 dcbc 8a2e 65bc c500 073b 3034 ee3b
00000360: 03cb f83b b338 a63c bb1f c8b8 0f4d 83b9
00000370: 5ffb 393a bd9d aabb 258e 55bc 3a41 043c
00000380: 3d58 3abc ffef 8f3c a6c1 82bc f2ce db3b
00000390: e84b 1a3c 5a5a 073c c4f5 2e3c da54 e83b
000003a0: c31f 46bb 1dc2 6d3c 3369 2ebc a727 c6bb
000003b0: 9ec0 833a 9037 063c 9ad8 a1bc 87e4 24bc
000003c0: 2069 ae3b 2b49 6f3c 0fa2 f6ba 652b 843c
000003d0: f84f 523c e2f4 dd3b d4e9 c33a 2f5a 893b
000003e0: 5e49 2cbd d8df 8b3c a0e0 c03c a259 3cbc
000003f0: 1d4c 78bc cb8b 243b f30d c4b9 5e3f 243b
0.0031843216 -0.010263542 0.03189284 0.0036312167 0.0022893955 -0.010881982 0.0065693604 -0.0070297653
0.011817145 0.0063174865 -0.014332316 0.012630194 0.00014243407 0.003453439 -0.018793974 0.022187633
0.016994506 0.013224325 -0.009525457 0.00054416124 -0.0402655 0.013413197 -0.0041267457 -0.0030818915
-0.015783163 0.01454665 0.0025780492 -0.024619719 0.026345212 -0.0037130162 -0.031376865 0.008610799
-0.021028347 0.0067688087 0.016227579 0.031033818 0.009916211 -0.027338985 0.001734564 0.030905304
0.0239529 -0.0036690456 0.007808212 0.01190076 0.013635839 -0.013544886 -0.01980469 0.03563649
-0.011125319 -0.012974433 0.0002859891 0.0030262715 0.005841501 -0.010275485 0.02816001 0.019301731
0.006915667 -0.0066054664 -0.016337417 0.002667531 0.00042421694 -0.0005206231 -0.016781298 -0.008850358
-0.007880608 0.0004204509 0.0263493 -0.0060785683 0.011380087 -0.029791037 -0.018661214 -0.039930236
-0.0075895 -0.0010449387 -0.008630135 0.0111331735 -0.010977804 0.019739328 -0.0050544883 0.008554738
0.009754019 0.0201871 -0.00039736024 -0.018301377 -0.020355111 0.008227007 -0.010983399 -0.006338739
-0.0011363379 -0.00839979 -0.00049223634 0.027163506 -0.0062163975 0.014520332 0.0025590612 0.0047870954
0.018392 0.016828509 -0.02292232 -0.0013400322 -0.010493569 -0.025785435 0.011021653 0.0024337012
0.023561139 0.018523933 0.013887954 0.011246799 -0.0046600583 -0.020978551 0.016013782 0.027562693
-0.014419029 -0.024746595 0.013154703 0.0031502077 -0.013075489 0.016197044 -0.0055695847 -0.0040720794
-0.0065217256 -0.012847485 -0.022671593 -0.008513106 0.02431477 -0.014399185 -0.012830642 0.019540494
0.021890765 -0.0013494376 0.012518661 0.016905664 0.0024138058 0.016347317 -0.023223463 0.0005483713
0.020556813 -0.011550901 -0.020320801 0.011983309 0.016268378 0.0092341835 -0.019549048 0.0050527086
0.006962135 0.01685945 -0.0027523302 -0.003220535 0.004852995 0.0065174336 -0.005070683 -0.010764126
-0.007938293 0.022828145 -0.0030738031 -0.015102311 0.0039404216 0.029321982 -0.019920446 0.028742507
0.04108736 0.04042941 -0.008260309 0.025316318 0.01291336 -0.0020680388 0.00044870988 0.02828287
-0.01306047 0.0065215686 0.054116227 0.01007135 -0.013537119 0.008934735 -0.017571414 0.017931534
-0.021587519 -0.048153367 -0.011470395 0.011701918 0.0054284423 -0.017064998 0.008690178 -0.017198889
-0.013272472 -0.009037926 0.0572105 -0.01116253 0.023238603 -0.011270027 0.015207829 0.02648202
0.009043076 0.011956028 -0.010514386 0.014744594 0.013557958 0.009364083 0.004883531 -0.010305231
-0.027843941 -0.010404472 -0.010675388 0.016298948 0.002957286 0.0042209704 -0.020981109 -0.0063376664
0.020241909 -0.009474224 0.0060173282 -0.01231704 -0.02696602 -0.013988147 0.0020599824 0.007269405
0.0075925603 0.020290708 -9.5426534e-05 -0.0002504368 0.0007094647 -0.005206792 -0.013034378 0.008072192
-0.011373577 0.017570494 -0.01596148 0.0067080194 0.0094175115 0.008261288 0.010678712 0.007090193
-0.0030231334 0.014511612 -0.010645199 -0.0060472074 0.0010051911 0.008191958 -0.019756604 -0.010064251
0.0053225905 0.014604847 -0.0018816608 0.016133973 0.012836449 0.006773577 0.0014947006 0.004191659
-0.042062156 0.01707451 0.02354461 -0.0114959795 -0.015154866 0.0025107737 -0.00037394426 0.0025062184

action_model._continuous_distribution.mu.bias f4 [2]
00000000: 0000 0000 0000 0000
0.0 0.0

action_model._discrete_distribution.branches.0.weight f4 [5, 128]
00000000: 0721 6e3b 6668 29bc 87fa af3b d513 f43b
00000010: 3d38 d4bb 55e9 46bb 03f8 41bc 6632 223b
00000020: 0b30 62bc 0697 01bc 7ae9 7a3c 0f50 b63c
00000030: cf84 f13a 20d0 443b 5370 6fbc 8657 163c
00000040: 8593 5a3c 0779 273c 00a9 f8bb 2e63 a1bb
00000050: f3f1 d7ba 133a dcbb 57b0 00bc 134e b3bb
00000060: 9163 3e3c 90fd 9dbb e5f9 c13a 454a fcb8
00000070: ad11 a637 993c 8e3c 5f6a 04bc ba98 26bc
00000080: e7d3 593c 2be5 1f3c 7578 32bb 47eb 0fbc
00000090: e73a 0dbb a1df be3b 27e2 d9bb e84c 10bc
000000a0: 2b9d 1eb9 992a 4c3b 12ce b8bb be99 07bb
000000b0: 4104 24bc f76f 9a3b 55d1 da3a 1323 9d3c
000000c0: f554 d53a 9d07 433c 4703 0bbc e8fd 92b9
000000d0: b775 743b d357 b8bb 8b21 4bbc a0cb afbb
000000e0: 55c0 cb3a ecfa 80bc 9743 96bb 1dba 5fba
000000f0: 1e43 81bc 495c 43bb 0712 bb3b b83d 7bb9
00000100: 41a4 073c 1678 863c fbd3 a03b afe1 643a
00000110: 974f 83bc dc0b 47ba df8f 133c b94c 01bb
00000120: 8c76 303c 50f3 dbba afaf 1bbc 6300 9f3c
00000130: 5aab 813c c5e4 6f3b e7c8 e43b 7354 433b
00000140: c564 a63b 4389 eabb 924a 70bc 078d 883b
00000150: ca9d 04bc 925b 79ba 78d8 523c f012 dc3b
00000160: 2498 a63b 7d7d ab3b e3c8 903c d273 72bb
00000170: 92ad 04bc 3096 80bb b41d 34bc 52a6 4f3c
00000180: 1f92 17bc c0f7 ea3b 6d17 74bc 4f0f 3ebb
00000190: 17fb 1b3c 839b 46bb d8b0 ae3c 2744 433c
000001a0: 7a1a f6ba e6bc 233a 7e11 a63b bb19 bbbb
000001b0: a84e 953c 6a9d c9bb cf44 253c 653d 3b3c
000001c0: 73cf ea3b 5308 c8bb 5b55 07bc ab58 e53b
000001d0: bb70 73bb 2415 17bc 90ce 9f3b faaf 4e3c
000001e0: 5524 fb3b 3a03 1abc d524 703b 3d09 b83b
000001f0: ff9a 5f3b fb48 573b 34cb 15bc cb7a 3a3c
00000200: a82f 913c f165 c53c cff0 bb3a f01b a7bc
00000210: 0a30 4dbb eb0d c8bb 6249 54bc fdc6 edbb
00000220: c09e edbb 1603 a03c 6337 203b 0485 3a3b
00000230: 9dbe 3a3c 707f 91bb 40f8 28bc 2154 0ebb
00000240: 98d8 fdbb 7f76 943b 4078 ad3b c14f 483b
00000250: 72d1 ebbb 670b 19bc 6868 7f3b d707 983b
00000260: 88a4 233c 922c 8cbc 03c8 25bb 5a94 82bb
00000270: 409a 7d3a a9aa 1b3c 4531 a9ba 03c3 85bb
00000280: a76d 74bc 0037 3abc e528 353b bb48 04bc
00000290: 3f9f 0c3a a9ab a03c 3253 d9bb b6f2 b1bb
000002a0: 6d5d 4ebc 63a7 c03b 3d97 93bc 0787 d23b
000002b0: 678d e6bb f565 2b3c 278b 413a 52bf 01bc
000002c0: a978 0dbc 039c 643c 07e5 913b 1baa f73b
000002d0: 7a4b a6b9 7582 1e3c 933e afb9 e626 8cbb
000002e0: 2511 563b e3c2 48bb c192 acbc 27bb 9ebb
000002f0: 5f04 343a 5dfd 923c be9c c3bb 0747 c43b
00000300: 65f0 57bc d256 8dbb cb07 eb3a a068 7f3b
00000310: 9693 903c 130d 1637 ab37 f03b 40c5 a5bb
00000320: 4246 20bc aba3 4d3b 470e c5bb 174f ae3c
00000330: 4201 eb3b c7d7 12bc 5848 33bc 06bc 273b
00000340: 7f53 13bc c756 ddbb 908e 74bb 3ba0 11bc
00000350: 9fa4 3b3b 23b0 d0bb 1afc f73a 4542 89bb
00000360: fb6c 95b9 7764 b4bb 673c 5c3c ffb7 1fbc
00000370: 8703 af3b 73c6 24b9 007f 143c 8b5d c5bc
00000380: 6f9e 06bb 811f bcbb 401c 983c 78c6 21bc
00000390: 41ff 38ba d954 bcbb 7504 603a a846 b53a
000003a0: 9a8f 553b d5c6 febb da83 cf3a 7e46 253b
000003b0: b313 293c e25d 9b3b 1029 46bb a1b2 823a
000003c0: 3206 0e3b ab88 a13c 120b 673b fa10 4fbb
000003d0: 039c 59bc e09c 15bb 3bc9 9a3a 95a0 04bc
000003e0: d9a8 85bc 2394 ef38 8765 333b 984b 543b
000003f0: d1ca 3f3c b7a7 223a e220 e5ba bb86 d9bb
0.0036335604 -0.010339832 0.0053704414 0.007448653 -0.0064764307 -0.003035148 -0.011838916 0.0024749278
-0.0138054 -0.007909542 0.015314454 0.022254972 0.0018426421 0.0030031279 -0.0146141825 0.009176141
0.013340835 0.010221726 -0.0075885057 -0.004925153 -0.0016475305 -0.00672079 -0.007854543 -0.0054719537
0.011620418 -0.004821487 0.0014799206 -0.0001203013 1.9796973e-05 0.01736288 -0.0080820015 -0.010168249
0.01329515 0.009759228 -0.0027232443 -0.008784122 -0.002155 0.0058249985 -0.006649274 -0.008807398
-0.00015126604 0.003115332 -0.0056398 -0.0020691003 -0.01001078 0.0047130543 0.0016694466 0.019181764
0.001627593 0.011903671 -0.008484668 -0.00028036465 0.0037301609 -0.005625704 -0.012398134 -0.00536485
0.001554499 -0.015744649 -0.004585694 -0.0008534508 -0.015779074 -0.0029809645 0.005708936 -0.00023960217
0.008278907 0.016414683 0.0049080825 0.0008731139 -0.016029162 -0.0007593015 0.0090064695 -0.0019729568
0.010770451 -0.0016780887 -0.009502335 0.019409364 0.015828777 0.0036604863 0.0069819572 0.0029804974
0.0050779306 -0.007157476 -0.014666216 0.0041672024 -0.0080942605 -0.0009512241 0.012868993 0.0067161247
0.0050840545 0.005233465 0.017673915 -0.0036995304 -0.008098023 -0.0039241537 -0.01099341 0.012673931
-0.009251147 0.0071706474 -0.014898163 -0.0029000824 0.009520314 -0.0030305095 0.02132456 0.011918104
-0.0018776201 0.00062461046 0.005068003 -0.0057098544 0.018225983 -0.0061527984 0.010087206 0.011428212
0.007165843 -0.006104508 -0.008260096 0.0069990954 -0.003714605 -0.009221349 0.004876919 0.012615198
0.007664243 -0.009400183 0.0036643047 0.0056163357 0.0034119484 0.0032849896 -0.009142686 0.011381815
0.01772292 0.024096461 0.0014338734 -0.020399064 -0.003130915 -0.006105175 -0.012956949 -0.0072563873
-0.0072515905 0.019532721 0.0024447076 0.002846063 0.011397985 -0.0044402406 -0.010313094 -0.0021717625
-0.0077467673 0.0045307274 0.005293876 0.0030565115 -0.0071965987 -0.009341097 0.0038972143 0.0046396065
0.009987958 -0.017111097 -0.0025296218 -0.00398497 0.0009674169 0.009501138 -0.001290836 -0.004082085
-0.014918721 -0.011365652 0.0027642783 -0.008073981 0.00053643057 0.019613104 -0.006632232 -0.0054305447
-0.012595517 0.005879329 -0.018016452 0.006424788 -0.0070358994 0.01046132 0.0007383101 -0.0079191495
-0.008634725 0.013953212 0.004452351 0.00755812 -0.00031718222 0.009674658 -0.00033425223 -0.004277098
0.0032664028 -0.003063374 -0.021066071 -0.0048440876 0.00068671064 0.017943079 -0.005969613 0.0059899124
-0.013179873 -0.0043133283 0.00179314 0.0038972273 0.0176485 8.943741e-06 0.007330855 -0.0050589144
-0.009782376 0.0031378071 -0.006013665 0.021277947 0.007171781 -0.008962578 -0.010942541 0.0025594248
-0.008992075 -0.0067547294 -0.003731642 -0.0088883 0.0028632057 -0.0063686534 0.0018919737 -0.004188808
-0.0002850069 -0.0055051404 0.013442135 -0.009748458 0.0053409967 -0.00015714187 0.009063482 -0.024092456
-0.002054121 -0.0057410602 0.018568158 -0.009873979 -0.0007057079 -0.0057474193 0.0008545586 0.0013830261
0.0032586814 -0.0077751675 0.0015832142 0.0025219019 0.010319638 0.0047414163 -0.0030236878 0.0009971448
0.0021671173 0.019718489 0.00352544 -0.0031595812 -0.013281825 -0.00228291 0.0011809239 -0.008094926
-0.016315864 0.00011424001 0.0027373747 0.003239369 0.01170607 0.0006204801 -0.0017481113 -0.0066383756

action_model._discrete_distribution.branches.0.bias f4 [5]
00000000: 0000 0000 0000 0000 0000 0000 0000 0000
00000010: 0000 0000
0.0 0.0 0.0 0.0 0.0

network_body._body_endoder.seq_layers.0.weight f4 [128, 1]
00000000: 8df8 64be b7fb 3c3c 3bcb 78bf 7d18 21be
00000010: 9297 7ebf 7936 e9bf 09c7 6bbf bf83 153f
00000020: 5a19 753f 2778 7e3f 60ae 5cbf 9dbb 58bf
00000030: c421 16bf 9462 d4be 0db5 1a3f 9385 2f3e
00000040: 9057 7c3e 76d5 553f 524d aebf 6088 ee3e
00000050: 45db ddbe da8e e3bf bf10 143f ee0e 33c0
00000060: 3de5 213e 174b 83be 5f77 1abf 37f2 6abf
00000070: 7a0e 4c3e 5cd1 b7bf 01fb e23e 57f9 473f
00000080: ee5a 813e a5db 98bf 9016 25bf f35f f73d
00000090: 4dd2 143e 0460 d53d 5e87 613e ef45 dbbf
000000a0: b800 893f 6f5e 443f 2e54 49bf be9b c63e
000000b0: 6e07 263f 5a3d 803e c5ae 413f bdfc 81bf
000000c0: ec9c e33e ba0e 14be 7107 83bf 3e07 253d
000000d0: 976d 073f 2c19 e23e 291c 84bf 7c76 76bf
000000e0: d095 113e 247b ebbe 9aa7 a53f 217f b33d
000000f0: 516f dcbf 100d 4a3f 1577 953f 0a00 91bf
00000100: ccb8 513f 3855 68bf 1731 903f cd43 e43e
00000110: e756 4ebf 07c7 57be 5b60 d43d 628f 123f
00000120: 2325 a4bd e091 283f 27b9 a7be fbaf 4ebf
00000130: 6b5c 0a3f bbbe 04c0 e9b5 b1be f91c 923f
00000140: 6d5c 833e fc41 14be 9ebb 08bf 4579 ec3e
00000150: c102 f93c 6d0b c3bf 34c9 f4bf cca0 753f
00000160: e71c 993e 4f7d 65bf d98f 113f 1d71 993e
00000170: 27db 7a3f b8cc f83e 020d b53e b503 1cbd
00000180: 1dd5 bfbe 8df1 9cbf de48 07be 12e6 1f40
00000190: f015 42bf abfc 8cbf e07c 153f acce 0abf
000001a0: c02e 683f 332d 6bbe 6980 77bf 810a 8e3f
000001b0: a5ae 3b3f 40af 043f aa51 823f 9b35 8dbe
000001c0: 2fd7 a8bd 5aa9 9d3d 207e 8d3f fced b53e
000001d0: 69c3 8abc 5f19 ff3d 7f2b 483f e78e 1e3e
000001e0: 8f4c f03c d3f9 f53d 2c31 483f a660 a23f
000001f0: 60ba 66bd 4613 253e b14e c43e 52de 813e
-0.2236044 0.011534623 -0.97185105 -0.15731998 -0.9945003 -1.8219749 -0.9210058 0.58404154
0.9574181 0.9940209 -0.86203575 -0.84661275 -0.5864527 -0.4148146 0.6043251 0.17140798
0.24642777 0.8352884 -1.3617346 0.4658842 -0.43331352 -1.777797 0.5783805 -2.7977862
0.15810104 -0.25643227 -0.60338396 -0.9177584 0.19927397 -1.4360766 0.44332126 0.7811484
0.25264686 -1.194203 -0.6448755 0.12078848 0.14533348 0.10418704 0.22024295 -1.7130717
1.0703344 0.76706594 -0.78644073 0.38790697 0.64855087 0.25046808 0.756573 -1.0155255
0.4445566 -0.14458743 -1.0236646 0.04029011 0.52901596 0.4415983 -1.0321094 -0.9627454
0.14217305 -0.45992386 1.2941773 0.08764482 -1.7221471 0.7892618 1.1676966 -1.1328137
0.819226 -0.90755033 1.1264981 0.44582978 -0.8060135 -0.21072017 0.10369941 0.57250035
-0.08014896 0.6584759 -0.32758448 -0.80737275 0.5404727 -2.0741413 -0.347091 1.1415092
0.25656453 -0.14478296 -0.5341128 0.4618627 0.030396821 -1.5237862 -1.9123902 0.9594848
0.29904863 -0.8964433 0.5686012 0.2996911 0.9799065 0.48593688 0.35361487 -0.038089473
-0.3746728 -1.2261215 -0.1321139 2.4984174 -0.75814724 -1.1014608 0.5839367 -0.54221606
0.90696335 -0.22966461 -0.96680313 1.1096956 0.7331336 0.5182991 1.0181172 -0.2757996
-0.08244168 0.07698317 1.1054115 0.3553313 -0.016938882 0.12456011 0.7819137 0.154842
0.029333381 0.12010541 0.7820003 1.2685745 -0.056330085 0.16120633 0.38341287 0.2536493

network_body._body_endoder.seq_layers.0.bias f4 [128]
00000000: 0000 0000 0000 0000 0000 0000 0000 0000
00000010: 0000 0000 0000 0000 0000 0000 0000 0000
00000020: 0000 0000 0000 0000 0000 0000 0000 0000
00000030: 0000 0000 0000 0000 0000 0000 0000 0000
00000040: 0000 0000 0000 0000 0000 0000 0000 0000
00000050: 0000 0000 0000 0000 0000 0000 0000 0000
00000060: 0000 0000 0000 0000 0000 0000 0000 0000
00000070: 0000 0000 0000 0000 0000 0000 0000 0000
00000080: 0000 0000 0000 0000 0000 0000 0000 0000
00000090: 0000 0000 0000 0000 0000 0000 0000 0000
000000a0: 0000 0000 0000 0000 0000 0000 0000 0000
000000b0: 0000 0000 0000 0000 0000 0000 0000 0000
000000c0: 0000 0000 0000 0000 0000 0000 0000 0000
000000d0: 0000 0000 0000 0000 0000 0000 0000 0000
000000e0: 0000 0000 0000 0000 0000 0000 0000 0000
000000f0: 0000 0000 0000 0000 0000 0000 0000 0000
00000100: 0000 0000 0000 0000 0000 0000 0000 0000
00000110: 0000 0000 0000 0000 0000 0000 0000 0000
00000120: 0000 0000 0000 0000 0000 0000 0000 0000
00000130: 0000 0000 0000 0000 0000 0000 0000 0000
00000140: 0000 0000 0000 0000 0000 0000 0000 0000
00000150: 0000 0000 0000 0000 0000 0000 0000 0000
00000160: 0000 0000 0000 0000 0000 0000 0000 0000
00000170: 0000 0000 0000 0000 0000 0000 0000 0000
00000180: 0000 0000 0000 0000 0000 0000 0000 0000
00000190: 0000 0000 0000 0000 0000 0000 0000 0000
000001a0: 0000 0000 0000 0000 0000 0000 0000 0000
000001b0: 0000 0000 0000 0000 0000 0000 0000 0000
000001c0: 0000 0000 0000 0000 0000 0000 0000 0000
000001d0: 0000 0000 0000 0000 0000 0000 0000 0000
000001e0: 0000 0000 0000 0000 0000 0000 0000 0000
000001f0: 0000 0000 0000 0000 0000 0000 0000 0000
0.0 0.0 0.0 0.0 0.0 0.0 0.0 0.0
0.0 0.0 0.0 0.0 0.0 0.0 0.0 0.0
0.0 0.0 0.0 0.0 0.0 0.0 0.0 0.0
0.0 0.0 0.0 0.0 0.0 0.0 0.0 0.0
0.0 0.0 0.0 0.0 0.0 0.0 0.0 0.0
0.0 0.0 0.0 0.0 0.0 0.0 0.0 0.0
0.0 0.0 0.0 0.0 0.0 0.0 0.0 0.0
0.0 0.0 0.0 0.0 0.0 0.0 0.0 0.0
0.0 0.0 0.0 0.0 0.0 0.0 0.0 0.0
0.0 0.0 0.0 0.0 0.0 0.0 0.0 0.0
0.0 0.0 0.0 0.0 0.0 0.0 0.0 0.0
0.0 0.0 0.0 0.0 0.0 0.0 0.0 0.0
0.0 0.0 0.0 0.0 0.0 0.0 0.0 0.0
0.0 0.0 0.0 0.0 0.0 0.0 0.0 0.0
0.0 0.0 0.0 0.0 0.0 0.0 0.0 0.0
0.0 0.0 0.0 0.0 0.0 0.0 0.0 0.0

network_body._body_endoder.seq_layers.2.weight f4 [128, 128]
00000000: e631 823d 18ce 9bbd e1de 17bd 80ee 0bbe
00000010: 6c9b ebbd 421a f1bd 9bae a13d cf45 41bd
00000020: 0c9b efbc c9bb debd fa89 cf3d 700b 593d
00000030: c629 acbd b83b e9bc 7e1e be3c c2a3 33bc
00000040: 12ad 4b3e 17aa 6f3e f5ea 5abd a026 4abd
00000050: 7136 ae3d 831e fe3d bcbf fa3c c48a 053e
00000060: e87f 8bbd fd5b 7e3c 6717 9bbd 7ac7 0dbc
00000070: 66c2 20bd 787d 55bd 8d00 f0bd e0ac b63c
00000080: 95b1 17bd 7014 fb3a e1bb 75bd bd8b 11be
00000090: fd42 0bbd 50e8 8b3d 0ef6 37bd 2bb7 f3bb
000000a0: 538f e63c 3c8e 483c befc 3b3e 697f 59bd
000000b0: 54c5 b43d 8efa 41bd deba 9d3d aa2b ee3d
000000c0: d1bb 38bc 1ad0 7cbc abf7 eabb 5724 a13d
000000d0: b052 5fbd c525 5bbd 0cf2 9d3d 18f9 24be
000000e0: 4e20 4abd 9cd6 8b3d de17 bebd 13a8 9a3c
000000f0: e115 1b3b b0e1 013e a328 9dbd 6452 373d
00000100: 7a0a 143e d201 823d 2416 babc 433e efbc
00000110: 5a50 113d 5269 00be 2193 bcbd 537a 26bd
00000120: f5b0 73bd 4d81 993d 1f78 5e3d 6ed7 ecbd
00000130: c530 02be 97f3 c2ba f420 783c 0012 cdbd
00000140: c9bf 9b3d f622 c2bb 5200 8cbd 3cd4 333d
00000150: 7ba8 a53c 773a fcbb 3a07 babd 7c9b 94bd
00000160: 3b72 00be 32a1 153d a634 9dbc eb2d 50bd
00000170: c784 3dbe e66f 623d 9a43 143c 7e36 f73c
00000180: 7a19 a6bd 0589 cc3d b6a1 acbc 60e8 293d
00000190: e8bc be3d 514e 743c bf2f 0a3d 6a5e 06be
000001a0: 3997 5fbd 54ee 85bd a767 66bd 2146 c5bd
000001b0: 2787 c1bd 3374 76be 1262 0bbe a393 333d
000001c0: 485c aebd d03f 03bd 1f95 efbd b1f5 483e
000001d0: 489c 13bd ee2d 96bd 6df5 96bd 7608 41bb
000001e0: 2f64 4c3e fab5 1dbc 90cd 47be 261e 87bd
000001f0: 5102 333d 6aba b33d 97ce 94bd 6c5f 013e
00000200: f102 b03c 7a9b 1abe 9554 653d 0f54 22bd
00000210: 97db aa3d 013d 6e3d 7c1f d23d 29b7 1ebe
00000220: b90d 0b3c 8690 6a3d e7d1 bebc 5888 743e
00000230: 7d15 87bc 3722 d03d fac1 00bd 1a04 96bd
00000240: 2a11 783a df87 ffbc 3353 a3bc b276 cebd
00000250: bc34 b13c 52e9 193e 97e2 653c 4f4f 6dbd
00000260: 6a06 7b3e 3825 28be f8f6 88bd 2d0c 1d3d
00000270: 6c0f 11be c154 bebc ebff cbbc b8f6 91bc
00000280: e484 39bd 47a1 503d 5377 50bd 6656 e0bc
00000290: ae02 9fbc 6ca6 8b3d 4269 4cbd cbda 97bb
000002a0: 9872 433c 843d 9e3d 0ae4 8abd 0c88 04be
000002b0: 36f0 763d 1dfc 92bd d753 3e3e 0028 acbd
000002c0: 5ee9 f9bd 2047 82bd 67ea 2d3e 51c9 63bd
000002d0: 6ad0 b7bd 6c5d 9ebc 6b0f 833b 8d16 153e
000002e0: 977c ca3c 2630 b3bd a50d 1c3e c12e a0bc
000002f0: 7a99 04bd 6197 9cb9 7a61 803e 5a76 f7bd
00000300: cb1d 0d3e 5668 2bbd da61 17be 6d6a 96bd
00000310: ab4d f83d 1a94 8d3b e065 c23d 2ed3 943d
00000320: cf51 f03d 045f 36be 572b 873d 8ecb 403b
00000330: 9ea4 2cbe 80ea 083d a4e4 193e 1fef 8abd
00000340: 1829 a7bc 0e4c 393d 90fb 34bd 854b 09bd
00000350: b785 2ebe c4fc 6fbd 86e6 de3b 7376 69bc
00000360: b666 0bbd 8f78 c53d 5282 ba3d 83ef 3f3d
00000370: af9d 06bd 8113 9f3d bafa c2bd 61c8 193d
00000380: 41ed ed3b 6a80 9ebd 7e2b e0bd a8fa df3d
00000390: d27a 2fbd 1185 323e 20bd ea3d 6c34 033e
000003a0: 02c0 a93d 2c5e 9fbd 6791 a1bd b3d7 b7bd
000003b0: 4bfb bb3c e129 5a3d 0311 a23d de3f 293d
000003c0: bc92 403e 3efc 54bd 836f b8bd 8a09 b5bb
000003d0: e0a0 853d b3ee 3e3b 4779 f83a 764e 1fbd
000003e0: a13f 4d3d e77b 2fbd 858c 48bc aa63 11be
000003f0: b1a8 4dbd 69fc 0f3e 9b14 f4bd 1363 25be
0.063571736 -0.07607669 -0.03707779 -0.136652 -0.11504254 -0.117725864 0.078946315 -0.047185715
-0.029248737 -0.10875661 0.10133739 0.052989423 -0.08406405 -0.028470859 0.0232079 -0.010964336
0.1989024 0.23404728 -0.05344673 -0.049353242 0.085064776 0.124081634 0.030609004 0.13041216
-0.068115056 0.015524861 -0.07572823 -0.008653516 -0.039247893 -0.05212161 -0.11718855 0.02229923
-0.03703459 0.0019155871 -0.05999363 -0.14213462 -0.033999432 0.068314195 -0.04491239 -0.007437607
0.028144514 0.012240943 0.18358132 -0.053100023 0.088267 -0.04735809 0.07701658 0.11629422
-0.011275248 -0.015430475 -0.0071706376 0.078682594 -0.054522216 -0.053502817 0.077121824 -0.16110647
-0.049347214 0.06828043 -0.09281896 0.018878972 0.0023664164 0.12683749 -0.076737665 0.04475631
0.14457121 0.063480034 -0.022715636 -0.029204493 0.03547702 -0.12540177 -0.0920775 -0.040644
-0.05949493 0.07495365 0.054313775 -0.115645275 -0.12713917 -0.0014873621 0.015144575 -0.10013199
0.076049395 -0.005924578 -0.068359986 0.043903574 0.02022194 -0.0076973992 -0.090834096 -0.07256219
-0.12543575 0.03653068 -0.019190144 -0.05082504 -0.18507682 0.055282496 0.009049321 0.030177351
-0.08110328 0.09987072 -0.021073204 0.041481376 0.09313375 0.01491125 0.03373694 -0.13121954
-0.054587577 -0.06539598 -0.056251194 -0.09632517 -0.094496064 -0.24067764 -0.1361163 0.04384197
-0.08513695 -0.03204328 -0.116983645 0.19624974 -0.036037713 -0.07332979 -0.0737103 -0.0029454506
0.19960092 -0.009625906 -0.1951201 -0.06597547 0.04370338 0.0877579 -0.072659664 0.12634057
0.021485778 -0.15098372 0.055988867 -0.039630946 0.08342665 0.058163647 0.102599114 -0.15499558
0.008487158 0.057266735 -0.023293449 0.23880136 -0.016489739 0.10162776 -0.03143499 -0.07325001
0.0009463007 -0.031192718 -0.019937133 -0.10081233 0.021631591 0.15030411 0.014031074 -0.057936963
0.24514166 -0.16420448 -0.066877306 0.03834169 -0.14166039 -0.023233773 -0.024902305 -0.01781784
-0.04529275 0.050935056 -0.050895046 -0.027384948 -0.019410457 0.06818852 -0.04990507 -0.0046342365
0.011929177 0.07726577 -0.06781776 -0.12942523 0.060287677 -0.07176993 0.1858667 -0.08406067
-0.122027144 -0.06361222 0.16983949 -0.055611912 -0.08975299 -0.019331656 0.0039996407 0.14559384
0.024717612 -0.08749418 0.1523958 -0.019553544 -0.03237293 -0.00029867425 0.2507437 -0.12083121
0.13780896 -0.04184755 -0.14783421 -0.07344518 0.12124189 0.0043206336 0.09492087 0.07266842
0.11734354 -0.17809683 0.06600063 0.0029418203 -0.16859671 0.03342676 0.15028626 -0.0678389
-0.020405337 0.045238547 -0.04418522 -0.033519287 -0.17043196 -0.058590665 0.006802383 -0.014249432
-0.0340335 0.09642135 0.09106888 0.046859276 -0.032865223 0.07767392 -0.095204785 0.03754461
0.007260949 -0.07739337 -0.109457955 0.10936481 -0.04284174 0.17433573 0.11461854 0.12812966
0.08288576 -0.07781634 -0.078890614 -0.08976688 0.022946974 0.053262595 0.07913401 0.041320674
0.18805975 -0.05199837 -0.09005644 -0.005524819 0.06524825 0.0029133975 0.0018957042 -0.038893186
0.05010951 -0.04284277 -0.012240534 -0.14198175 -0.050209705 0.1406113 -0.11917993 -0.16151075

network_body._body_endoder.seq_layers.2.bias f4 [128]
00000000: 0000 0000 0000 0000 0000 0000 0000 0000
00000010: 0000 0000 0000 0000 0000 0000 0000 0000
00000020: 0000 0000 0000 0000 0000 0000 0000 0000
00000030: 0000 0000 0000 0000 0000 0000 0000 0000
00000040: 0000 0000 0000 0000 0000 0000 0000 0000
00000050: 0000 0000 0000 0000 0000 0000 0000 0000
00000060: 0000 0000 0000 0000 0000 0000 0000 0000
00000070: 0000 0000 0000 0000 0000 0000 0000 0000
00000080: 0000 0000 0000 0000 0000 0000 0000 0000
00000090: 0000 0000 0000 0000 0000 0000 0000 0000
000000a0: 0000 0000 0000 0000 0000 0000 0000 0000
000000b0: 0000 0000 0000 0000 0000 0000 0000 0000
000000c0: 0000 0000 0000 0000 0000 0000 0000 0000
000000d0: 0000 0000 0000 0000 0000 0000 0000 0000
000000e0: 0000 0000 0000 0000 0000 0000 0000 0000
000000f0: 0000 0000 0000 0000 0000 0000 0000 0000
00000100: 0000 0000 0000 0000 0000 0000 0000 0000
00000110: 0000 0000 0000 0000 0000 0000 0000 0000
00000120: 0000 0000 0000 0000 0000 0000 0000 0000
00000130: 0000 0000 0000 0000 0000 0000 0000 0000
00000140: 0000 0000 0000 0000 0000 0000 0000 0000
00000150: 0000 0000 0000 0000 0000 0000 0000 0000
00000160: 0000 0000 0000 0000 0000 0000 0000 0000
00000170: 0000 0000 0000 0000 0000 0000 0000 0000
00000180: 0000 0000 0000 0000 0000 0000 0000 0000
00000190: 0000 0000 0000 0000 0000 0000 0000 0000
000001a0: 0000 0000 0000 0000 0000 0000 0000 0000
000001b0: 0000 0000 0000 0000 0000 0000 0000 0000
000001c0: 0000 0000 0000 0000 0000 0000 0000 0000
000001d0: 0000 0000 0000 0000 0000 0000 0000 0000
000001e0: 0000 0000 0000 0000 0000 0000 0000 0000
000001f0: 0000 0000 0000 0000 0000 0000 0000 0000
0.0 0.0 0.0 0.0 0.0 0.0 0.0 0.0
0.0 0.0 0.0 0.0 0.0 0.0 0.0 0.0
0.0 0.0 0.0 0.0 0.0 0.0 0.0 0.0
0.0 0.0 0.0 0.0 0.0 0.0 0.0 0.0
0.0 0.0 0.0 0.0 0.0 0.0 0.0 0.0
0.0 0.0 0.0 0.0 0.0 0.0 0.0 0.0
0.0 0.0 0.0 0.0 0.0 0.0 0.0 0.0
0.0 0.0 0.0 0.0 0.0 0.0 0.0 0.0
0.0 0.0 0.0 0.0 0.0 0.0 0.0 0.0
0.0 0.0 0.0 0.0 0.0 0.0 0.0 0.0
0.0 0.0 0.0 0.0 0.0 0.0 0.0 0.0
0.0 0.0 0.0 0.0 0.0 0.0 0.0 0.0
0.0 0.0 0.0 0.0 0.0 0.0 0.0 0.0
0.0 0.0 0.0 0.0 0.0 0.0 0.0 0.0
0.0 0.0 0.0 0.0 0.0 0.0 0.0 0.0
0.0 0.0 0.0 0.0 0.0 0.0 0.0 0.0

value_heads.value_heads.extrinsic.weight f4 [1, 128]
00000000: f5e9 e4bd be79 d03d 88b4 32be d628 9e3d
00000010: e4e3 f9bd 1c26 96bd ee08 933d c6ce e9bd
00000020: f79f 793d f836 c5bd d428 2abe 6afa 4d3e
00000030: 2609 54be db38 4d3d 2928 31bd b062 7f3c
00000040: ae86 b83c ffca 8c3d cb4c fabd 31f4 56be
00000050: 7f3e 46bd be7c 0bbe 01f3 97bc 2f67 563e
00000060: cb72 443e 6c77 e1bd caef 28be fe47 4c3e
00000070: b908 98bd 143e 1dbe b1f7 8f3d eebe d4bd
00000080: 32cf 08bd a91b fb3d c960 413d 6bd0 4ebe
00000090: 5dcd a0bd b27d 013e bb9e 4d3d 1e69 413d
000000a0: 99d9 fa3d 40c7 683d 7edb 483d 7d16 343e
000000b0: 59b6 17bb 4938 1f3e ff19 2cbe d561 42be
000000c0: eeb5 b73d 692d 92bd d9f5 473e 136c f2bd
000000d0: cc69 aabb 0663 e43d 55bc 323e a3d3 ba3d
000000e0: f8f4 07bb 5ae0 a1bd bc65 233c a575 ccbd
000000f0: 96c9 4f3d 369e dfbc 1de9 033e bfd3 53be
00000100: ecbb 26be 8565 dabd 0492 213e b6f0 5d3d
00000110: 5f06 363d fa10 a3bc db62 92bd 8524 313e
00000120: 6d3c 9a3c 4394 aabd 00a6 583e dff4 71bb
00000130: 47d6 2bbe 24bc 33be bf7b 1f3e 9ada eebc
00000140: 3955 363e cc93 4c3e f7c5 1c3e 98c7 41be
00000150: 0305 a53d 36bc 15be e8bb 1cbe bb67 f43d
00000160: 2962 f23c ffa2 c6bc fd3b f7bc 72d4 d6bd
00000170: da9a 463e 4be3 13bd e7a9 4b3c 2dba 4abe
00000180: 368a 213e e9f4 ab3d 186c 2ebe 9fed 5a3e
00000190: f9c7 243e 03bf 8a3d 1ac7 013e 92e2 03be
000001a0: c9a4 9f3c c207 ccbd f2ae 09be 62f7 503e
000001b0: a44c 213e 3516 9bbd a851 d8bc 2487 32be
000001c0: 6430 50be 0785 02be 0667 da3d 7ebf 85ba
000001d0: b064 293e 23ed 073e de43 1abd f2bb b6bd
000001e0: 2fd3 c13d 5883 013d 0895 3cbe 7e1e ed3d
000001f0: f10f 3ebe 04fc 20bd 939e 223e a013 ba3d
-0.11177436 0.101794705 -0.1745168 0.077226326 -0.1220167 -0.073314875 0.071794376 -0.11416392
0.06094357 -0.09629625 -0.16617137 0.20115057 -0.20706615 0.05010305 -0.04325119 0.015587494
0.022525158 0.06874656 -0.12221678 -0.20991589 -0.048399445 -0.13621804 -0.01854849 0.20937799
0.19184415 -0.11009106 -0.16497722 0.19949338 -0.07423539 -0.15355712 0.07029665 -0.103879794
-0.03340072 0.12261135 0.047211442 -0.20196693 -0.0785167 0.12645605 0.050200205 0.04721939
0.12248535 0.056830645 0.04903745 0.17586704 -0.002314946 0.15548815 -0.16806792 -0.18982632
0.08970247 -0.071375675 0.19527377 -0.1183702 -0.0052006003 0.111517 0.17454655 0.09122398
-0.0020745378 -0.0790412 0.009972986 -0.099833764 0.050729357 -0.02729712 0.12881894 -0.20686243
-0.16282624 -0.106638946 0.15778357 0.054184638 0.04443967 -0.019905556 -0.071477614 0.17299087
0.018827641 -0.0832906 0.21157074 -0.0036919636 -0.16780959 -0.17552239 0.15574549 -0.029156972
0.17805947 0.19978255 0.15309893 -0.18923795 0.080575965 -0.14622578 -0.15306056 0.119338475
0.029587822 -0.024247644 -0.030179972 -0.104897395 0.19395009 -0.036105435 0.012430645 -0.19797583
0.1577538 0.08396322 -0.17033422 0.21379708 0.16091909 0.06774714 0.12673607 -0.12879398
0.019487755 -0.09962417 -0.13445643 0.20406869 0.15751892 -0.07572595 -0.026406124 -0.17434365
-0.2033096 -0.12746058 0.106641814 -0.0010204164 0.16542315 0.13274054 -0.03766238 -0.089225665
0.09464108 0.0316194 -0.18416226 0.115780815 -0.18560769 -0.03930284 0.15880804 0.090857744
