results/ppo/MoveToGoal/MoveToGoal-70752.onnx (onnx, 88160 bytes, 6 tensors)

action_model._discrete_distribution.branches.0.bias f4 [3]
00000000: 5e95 893b 1301 e53b fe2d 33bc
0.004198714 0.0069886534 -0.010936258

action_model._discrete_distribution.branches.0.weight f4 [3, 128]
00000000: 9536 83bc fc16 be3b b7bf a8bb b8ac 62ba
00000010: 9777 503b cfe3 bbba 91a6 81bc f4e3 1ebc
00000020: 3904 2fbc e5fb 7cbb ed0e c03b 640c 1abb
00000030: dea3 ae3c 9f35 30bb 205b 95bc 07cd 123c
00000040: 44a1 90bc cb5a 4e3c 2ce3 053c 4005 873c
00000050: 58af 9ebc 2e04 5ebc f1a1 61bc 7a2b 08bc
00000060: 1920 aa38 8ab8 07bc 1265 c53a deb1 9fbb
00000070: 89ae 12bc 3b35 a6bb 0ec7 b83b 0897 d6bb
00000080: d984 5b3c 6092 cebb bbb0 6e3c cfec 45bb
00000090: bf27 39bb 7059 e4ba a633 afb9 568d 4c3b
000000a0: a44c 3c3c 1997 2ebb cef0 acbb b509 033c
000000b0: 6dd5 d03b 6de8 7dbc b657 a9bb 74dc 1e3b
000000c0: cd80 f4bb 8382 48bc ca2c a23c 0ba7 983c
000000d0: 5ccd 0cbb 3d03 2c3b d330 803c dc95 443c
000000e0: d95d 103b 812a 0d3c 7928 843c 56e3 7ebb
000000f0: d1a8 903b c6cc 02bd e5a8 c63c 0c58 1cbc
00000100: 399e 133a 449d d0ba 9dcc c4bb db28 7d3b
00000110: 7fd3 c3bb 15a7 7d3b 7710 c83b c790 a93b
00000120: 4d3c de3b 08a6 703c 4f5e 333c 9a47 b1bc
00000130: e413 763c 2787 c1ba 04b2 9fbb f10e 733c
00000140: 6d49 02bc 237e b2bc 2041 86bc 7714 dcbb
00000150: 837b 5b3c 247d d73b b4fa cfbb 754d a7bc
00000160: 0ffb 57bc 2c0e fcb9 006a 1a3c 483e afbb
00000170: 7641 7d3c 3fe4 0bbc abf5 8abc f782 7bbc
00000180: f7be 86bb c844 343c b996 ec3b b038 acbb
00000190: 7837 5b38 341e 723b e60b ef3b 92e8 aa3c
000001a0: 5edc bf3b b117 7fbc 82ce 7cbc bbb4 153c
000001b0: edda c93b f3a2 06bc b28b e63b ae8e 7fbb
000001c0: 5baa a5bb c71f 0e3c 2b44 383b 29eb b63b
000001d0: 4ed6 0e3c b9a7 2dbb 0d4c 363c 8a72 493b
000001e0: 66d2 61bc e7af 8a3b 6fb9 dcba aca1 4f3c
000001f0: 86ba c23a c9e1 9bba 6931 873b f66e 05bb
00000200: cbcd af3c 8ac9 25bc 178b 87b9 b6fe 11bc
00000210: e42f 423c 211c e0bb 7de0 f53b 1eff f13b
00000220: 8e66 1a3c cf61 803a a915 c3bb 3754 1e3c
00000230: ceb5 cdb8 0148 3dbb 35f0 f43b b46e 3cbc
00000240: 4686 373c 8581 46bc 7353 46bc 7212 f03b
00000250: ad34 12bc dd0a 8539 78ee 39bc 8848 42bc
00000260: 00ab e4b9 f069 e039 dc7f 83bc 1c42 573c
00000270: 85ec e9ba ad9b 8ebb 046f 47bb 1c9f 78bb
00000280: ea36 50ba a7f5 353c fa14 2abc 7058 42bc
00000290: 29ea f1ba 5316 39bc ab35 36bb 5fbe a939
000002a0: 3f68 46b9 0f3b a3ba d3a2 003c b92e 6b3c
000002b0: aaa3 a13c 11df d3bb 16e0 2fbc a3fb 4cba
000002c0: c6a2 45bc eb66 763c aabf 0ebc 5311 383c
000002d0: 0b22 603a 9c87 303c 4cf9 aa3c 3860 4f3c
000002e0: 967b eb3b 2722 863c 28cb 1b3c 131d 9fba
000002f0: 6bc6 25bc 9dc9 a03b 5801 1bbc d617 ad3a
00000300: f95c 1b3b ab30 91bb 6ffe 5bbc 9cfd 193c
00000310: 3cd6 893c a2c0 253b 0bbd 0cbc 4894 a73b
00000320: da8c a53c 1576 ecbb 50cd 9b3c 8176 33bc
00000330: 7b60 153c fbb8 153c 43ca 733a 4688 31bc
00000340: 78d3 6a39 ed02 cd3a 836b 4fbb 1a61 023c
00000350: 6c6c a83c 95ba aabb 9062 1c3c 1df4 3bbc
00000360: 855f adba 3b8e d1bb 54c3 203c 8230 a53b
00000370: 4aa3 87bb 9567 1e3a 6fac 553b 7650 f83b
00000380: c5c0 17bc 58c6 bbbb 40a8 0abc e100 8f3b
00000390: ef25 0fba 58ba a0b9 1241 843b 690b 103b
000003a0: 47d2 0bb9 62d8 6fbc 776f e23b ab60 143b
000003b0: b8bd 75bc 84ad 303c 56b5 6e3a 4eb4 483b
000003c0: 0205 1cbc 29e5 4f3b df8c 25bb a1f8 b6bc
000003d0: 7d68 0abb 6967 913a 452e 953b 1d29 4d3b
000003e0: 2755 7dbc 458f 42ba 56d7 8a39 4d8c 153b
000003f0: 5595 4cbb e938 83bb 6627 4cbc 23a5 783c
-0.016017238 0.00580108 -0.0051498073 -0.0008646953 0.0031809562 -0.001433486 -0.015826495 -0.009697903
-0.010682159 -0.003860229 0.0058611543 -0.002350592 0.021318372 -0.002688743 -0.018231928 0.008960015
-0.017655022 0.012594889 0.008171838 0.016481996 -0.01937072 -0.013550801 -0.01377152 -0.008311147
8.11221e-05 -0.008283744 0.0015060029 -0.0048734983 -0.008952745 -0.0050722635 0.0056389635 -0.006548766
0.013398373 -0.0063040704 0.014568503 -0.0030200963 -0.002825245 -0.0017421674 -0.00033417082 0.0031212172
0.011492882 -0.0026640354 -0.0052777296 0.00799792 0.0063730986 -0.015497309 -0.0051679267 0.0024240287
-0.0074616433 -0.012238148 0.019796748 0.01863434 -0.0021484708 0.0026247047 0.015648281 0.01199862
0.0022028594 0.008616091 0.01613258 -0.0038892827 0.0044146557 -0.03193357 0.024250457 -0.009542476
0.0005631182 -0.001591601 -0.006005837 0.0038629088 -0.00597614 0.0038704325 0.0061054784 0.0051747295
0.0067820908 0.014688022 0.010947778 -0.021640588 0.015019391 -0.001476501 -0.004873516 0.014835105
-0.007952076 -0.021788662 -0.016388476 -0.006716307 0.013396147 0.006576197 -0.006347025 -0.020422677
-0.013182416 -0.00048075744 0.009424686 -0.0053480007 0.015457502 -0.008538305 -0.016962847 -0.015351049
-0.0041121203 0.011002727 0.007220116 -0.005255781 5.2265328e-05 0.0036944272 0.0072951196 0.020862851
0.0058551272 -0.015569613 -0.015430095 0.009137328 0.006160131 -0.008217561 0.007035696 -0.0038994956
-0.0050557083 0.0086745685 0.0028116803 0.0055822325 0.008718086 -0.0026497676 0.01112653 0.0030738437
-0.013783073 0.004232395 -0.0016839931 0.012672823 0.0014856614 -0.0011892851 0.004125763 -0.0020360327
0.021460434 -0.010118851 -0.00025852837 -0.0089108255 0.011852238 -0.0068392907 0.0075035677 0.0073851487
0.009423865 0.0009794774 -0.00595351 0.009663633 -9.8090255e-05 -0.002888203 0.007474924 -0.011501003
0.011201447 -0.012115841 -0.012104857 0.0073264176 -0.008923692 0.0002537583 -0.011348359 -0.011858113
-0.00043614954 0.0004280354 -0.016052179 0.01313832 -0.0017846978 -0.004352054 -0.003043116 -0.0037936633
-0.0007942753 0.011105931 -0.010380978 -0.011861905 -0.0018456626 -0.011296826 -0.0027802985 0.0003237603
-0.00018921586 -0.0012453514 0.00785132 0.014354401 0.019731361 -0.0064658006 -0.010734579 -0.0007819479
-0.012062734 0.015039186 -0.008712688 0.011234599 0.00085499947 0.010774519 0.020870827 0.012657218
0.0071863635 0.016373707 0.009508885 -0.0012139402 -0.010118107 0.0049068467 -0.00946077 0.0013205956
0.002370654 -0.0044308505 -0.013427361 0.009398844 0.016825788 0.002529182 -0.008589993 0.005114112
0.020208765 -0.007216225 0.019018799 -0.0109535465 0.009117241 0.009138341 0.00092998537 -0.010835713
0.00022394757 0.0015641131 -0.0031649775 0.007957721 0.020559512 -0.0052102306 0.0095449835 -0.011471775
-0.001322732 -0.006395129 0.009812195 0.005041183 -0.0041393386 0.00060426566 0.0032604 0.007577951
-0.009262268 -0.0057304315 -0.0084629655 0.0043641184 -0.00054606696 -0.00030656415 0.0040360773 0.0021979457
-0.00013334407 -0.014638992 0.0069102603 0.0022640626 -0.014998846 0.010783557 0.00091060007 0.0030625048
-0.009522678 0.0031722283 -0.0025260968 -0.022335352 -0.0021119409 0.0011093441 0.004552635 0.0031305023
-0.015462196 -0.00074218615 0.0002648185 0.0022819221 -0.0031216939 -0.004004587 -0.012460565 0.01517609

network_body._body_endoder.seq_layers.0.bias f4 [128]
00000000: 1710 973b 32cd 133c 8eef 03bc 7969 873b
00000010: 58f9 0b3c c686 79ba 5679 ccbb 2e21 97bb
00000020: 5c20 933b 65e7 bd3b 6b0a 2d3c d68c 69bb
00000030: 77ed 733b 7e6a 903a 7db9 0aba d2fb 1f3c
00000040: 2984 363b afec e939 d302 003c 7bba 9f3b
00000050: 1c19 06bc a6d5 bbbb 9726 e43b bdb0 9e3a
00000060: 63ec 4f39 4538 d33a 5b90 fa3b 2a83 fcbb
00000070: 48af 0cbc 91bc 2fbc 0bbc 3d3a f0f5 c13b
00000080: b496 683c b62c 3e3c 9442 913b 6980 d0bb
00000090: ae6e 423b 388e 153b 41e7 5cbb c8dc 88bb
000000a0: e6ea c73b 372e 0f3c 4a2d c9bb 5a0f 2bbb
000000b0: fcfc e5bb 8584 b23b 2e32 1dbb b992 9dbb
000000c0: b8fe 273c 429c 08bc 73b2 203c e004 90bc
000000d0: 838c a43b 0ab0 633b 067b f8bb e8e3 f93b
000000e0: aa14 d2bb 0441 2a3c 465f 313c f62f 7f3a
000000f0: 1c5a d23a 1ad7 1d3c 41f7 f0bb e343 d8bb
00000100: 0acc 3e3c 1640 39bc 6942 2dbb acc3 fb3a
00000110: d1ba 0ebb 3d29 053c 4a18 933b e037 e53a
00000120: e2d6 413c e78f 71bb 0337 9cbb 0da7 af3a
00000130: 7f8a 36bb d391 813a cff2 983b f75a 0e3b
00000140: f738 003b a345 193c 601a 02ba a6b1 943b
00000150: 4101 74bb 0c50 41bc 303d 3dbc 8470 01bc
00000160: 57c4 dcbb 6c3a acbb bbb4 e93a f35a dcb8
00000170: 7a82 c03b 2ec3 2fbc 4577 7cba e19d 363c
00000180: 22ba 3f3b 4c9a 183c 0341 dabb 107a d5bb
00000190: beb1 f23a 4175 843b a7a2 e1bb abb0 a33b
000001a0: e4cd 153a fbaf d2bb 16ca 043c 7939 26bb
000001b0: b6d7 0cbc 9468 103c 7d75 44bb 1a0f f23b
000001c0: cfef 823b ebb0 c6bb c703 76bc c2fd c7bb
000001d0: ffa0 00bb 0cf3 323c 4a31 f13a 292a 54bb
000001e0: f670 0f3c b753 22ba 3e69 9dbb ecc4 91bb
000001f0: 7c88 0c3a 7392 273c ebcb 63bb 70ce c23b
0.0046100724 0.00902109 -0.00805272 0.0041324464 0.008543335 -0.0009518679 -0.0062400503 -0.0046121096
0.0044899415 0.0057954066 0.010561566 -0.0035636923 0.0037220397 0.0011018065 -0.0005291922 0.0097646285
0.002784977 0.00044617566 0.007813173 0.004874525 -0.0081846975 -0.005732256 0.006962608 0.0012107115
0.00019829119 0.0016114792 0.007646603 -0.0077060657 -0.008586712 -0.01072611 0.00072377984 0.0059192106
0.014196087 0.01160734 0.0044329856 -0.006362964 0.002966802 0.0022820365 -0.0033707174 -0.00417671
0.006101 0.008739046 -0.006139432 -0.002610168 -0.0070186835 0.0054479265 -0.0023986208 -0.0048087505
0.010253601 -0.008338036 0.009808171 -0.01758045 0.005021633 0.0034742379 -0.007583025 0.0076260455
-0.0064111548 0.0103914775 0.010825938 0.0009734625 0.0016048583 0.009633804 -0.0073536937 -0.0065998896
0.011645326 -0.011306783 -0.0026437289 0.0019208095 -0.0021778832 0.008127508 0.0044889795 0.0017487966
0.011831017 -0.0036859454 -0.0047673 0.0013401225 -0.0027853546 0.0009885378 0.004667617 0.00217217
0.0019565204 0.009354982 -0.00049630366 0.004537779 -0.0037232193 -0.01179887 -0.011550233 -0.007900361
-0.0067372727 -0.005255988 0.0017830351 -0.00010507358 0.005874929 -0.010727687 -0.00096308097 0.01114604
0.002925523 0.009314131 -0.006660582 -0.006514795 0.0018516106 0.004042298 -0.0068858447 0.0049954257
0.0005714579 -0.00642967 0.008104822 -0.0025363846 -0.008596351 0.008813996 -0.0029977255 0.007387054
0.0039958726 -0.0060635707 -0.015015549 -0.0061032483 -0.001962721 0.010922205 0.001840153 -0.0032373762
0.008754959 -0.0006192284 -0.0048038056 -0.0044485237 0.0005360914 0.010227787 -0.0034758996 0.0059450194

network_body._body_endoder.seq_layers.0.weight f4 [128, 35]
00000000: 6bcc 983b e6a6 b93d 4d43 f53d a9ea 593c
00000010: b825 a1be 1285 95be 99ca e33d e4df 35bd
00000020: ce99 39bd 807e b33e 2bf3 853e 2a8c 04be
00000030: f462 493e 7639 3bbe 9113 0dbe edbe 81bd
00000040: f150 693e d196 aabc ed2d 34be d4f5 6bbe
00000050: 182f a73c 594c 513d 9d8d 17be f62e 583e
00000060: 6000 bdbe 6143 3fbe 4e94 3cbc 67dc 0ebe
00000070: 9089 1dbe d5a0 6bbe e6b1 013f 1e96 90be
00000080: 23ea 643d 3ab8 b33c 7682 2f3e d5fc 43be
00000090: 764c e1be dd21 fc3d d736 be3d 0a52 2f3e
000000a0: 085c 3cbc b4a3 113e 5cf5 8f3c d55a 7a3e
000000b0: 8cd8 58be 635d ecbd 2b90 86be f4e8 0c3e
000000c0: e8c8 b9bd a6b1 fb3d 17b8 d2bd 9c0a bcbd
000000d0: 0745 5cbc f87b 82be f170 a43e 5120 2bbe
000000e0: eeb5 413e 9adb 7ebe 565d e93d dfc0 8dbc
000000f0: 8dd5 0f3e 6237 3bbd 9138 c03c 1cf2 81bd
00000100: 11b3 85be fbf4 33bc a262 50be bd9e f13c
00000110: 18eb b7bd d658 583e bb35 ec3d b170 36be
00000120: 5e5c 373e 7661 91be d7fc c7bd 00e8 1ebe
00000130: 36de 04be b445 ae3d e064 d03d 5e40 d6bd
00000140: 8435 7bbc 25ca 46bd ab65 443c 7c02 e13d
00000150: b207 18be 07fc 123e 8942 e23e 4d50 983d
00000160: e832 3fbe 485e b8be 50f2 58be d51f 233c
00000170: df00 20be 59f7 25be 8107 813c 9609 d0bd
00000180: 06dc 9e3c 9735 153e 251d 35be c606 843d
00000190: bcaf 1bbe 15e4 93be ac5b 313e e66c c7be
000001a0: b178 673e f7f4 693d a389 3e3e 21dc 2cbe
000001b0: 130e 44bd 6bfd 42bd 5c3a 003e e2b3 b93b
000001c0: 2838 82bd 10d1 953d 2480 983e 9b8d 613e
000001d0: 69aa bebd 23e2 163e c5e3 bdbd 04fa d03e
000001e0: d61e 5dbd 2292 82be 9a14 d73b b394 7e3e
000001f0: cb8b 9abd 6a7a 71be c1ed 76bd 1eb1 f43c
00000200: d104 6fbe 4e36 51be 77cf 2b3e 3a67 c1bd
00000210: f2af 8b3d 3201 47be 0e30 28be 3df7 733d
00000220: 8995 f0bd 9176 a83d 4300 07be bdde 6bbc
00000230: eb7a 8f3e 28f1 72be 7725 183e 7e4c f43c
00000240: 3a4f 05be d548 0bbe c1a3 4dbe b9ba c73e
00000250: 357e 0d3e b891 62bd 56e0 bcbd 57e6 7bbd
00000260: f7ea 583e 234b e13c 6a2d 823c ee77 de3d
00000270: 40c0 a2bd a552 dd3d 66d3 473e 3208 54be
00000280: 3e1b 0e3e 5eb8 9d3d 1aa5 17bc 42ce 5bbe
00000290: 500b 01be 04ea 36be 3ad0 c83d dbd6 6dbe
000002a0: bc54 12be 06e4 423e dc1f 90bd 13ca adbd
000002b0: 9e53 173e 299a 8f3c f786 db3d f224 e53d
000002c0: bc02 70be b502 eb3d 7898 4e3e a17d 383e
000002d0: 7870 753e 3aa4 033e 8240 29bd 655b 7b3c
000002e0: 594a f53d a5c8 4cbe 738b 723d a017 1c3e
000002f0: 28e7 3b3e 3422 943d 332b 973e d888 8c3d
00000300: 1de6 6f3e 244f a0bd 0e57 743c 9796 47be
00000310: 5864 53be 6601 08be 8b71 7f3e ac9f 223e
00000320: 08ff bfbd bf41 603e f899 6c3d 92f9 6c3e
00000330: 9a04 8abe c399 953e 3157 c13c bb70 0b3d
00000340: 3560 903e c34c 3c3e d6ad 173d 376a 6dbb
00000350: 216a 8f3d 9708 10bd f97c 0dbe 3296 2dbd
00000360: 0073 843d 4c9c 373e 51d5 acbd 982d f13d
00000370: e8cd 843d 6a56 b2bd 141f 90be 7dbd 26bd
00000380: 081a 30be b5c6 e33c ae8c ba3d 0745 433e
00000390: 3282 4f3e d4ac 23bd 0bcd 573c f34a 2c3d
000003a0: a334 72be d798 be3c 5fa5 5ebe c87b 6abd
000003b0: 86c1 003d 328d a73d 33e8 823e da24 053e
000003c0: bbc3 a7bd d0f1 46be 9f5b ab3d e011 303d
000003d0: 48af 1fbe 7566 6cbe 3e24 b43d 8f2f 2a3e
000003e0: 0e3c 913e 3cdc 91be 61b5 61be 4428 7b3d
000003f0: fb28 db3c 9301 873e 2155 fcbd 9eb4 483e
0.0046630404 0.090650365 0.11975727 0.013300576 -0.3147409 -0.29203087 0.11122627 -0.044402972
-0.045312695 0.3505745 0.26162085 -0.12944093 0.19666654 -0.18283638 -0.13776995 -0.06335244
0.22784783 -0.020823868 -0.17595644 -0.23042995 0.020408198 0.0510982 -0.14800115 0.21111664
-0.3691435 -0.18678047 -0.011509968 -0.13951264 -0.15384507 -0.23010571 0.50662076 -0.2823953
0.055887353 0.021938432 0.1713961 -0.19139417 -0.44003648 0.123111464 0.092878036 0.17121139
-0.011496551 0.14222604 0.017573051 0.24448712 -0.21176356 -0.115412496 -0.26281866 0.1376074
-0.09071523 0.12289743 -0.102890186 -0.09181711 -0.013444192 -0.25485206 0.32117417 -0.16711546
0.18917057 -0.24888459 0.113947555 -0.017303882 0.14046307 -0.045707114 0.023464473 -0.06345007
-0.2611318 -0.010983701 -0.20350125 0.029494638 -0.089803874 0.21127638 0.11533686 -0.17816426
0.17906329 -0.2839467 -0.09765022 -0.15518188 -0.12975392 0.085093886 0.101754904 -0.10461496
-0.015332583 -0.048532624 0.01198713 0.10986802 -0.14846686 0.14353953 0.44191387 0.07437191
-0.18671763 -0.3600943 -0.21186185 0.00995632 -0.15625332 -0.16207637 0.015750648 -0.10158078
0.019392025 0.14571224 -0.17686899 0.064466044 -0.15203756 -0.2888495 0.17320126 -0.3895027
0.22604634 0.057118382 0.18607192 -0.16880848 -0.047864985 -0.04760496 0.12522262 0.0056671957
-0.06358367 0.07315266 0.29785264 0.22026674 -0.09309847 0.14734702 -0.09271959 0.40815747
-0.053984486 -0.25502115 0.006563735 0.24861412 -0.07546195 -0.23581854 -0.060285334 0.029869612
-0.23341681 -0.20430872 0.1677836 -0.09443517 0.06820668 -0.1943405 -0.16424581 0.059561957
-0.117472716 0.0822574 -0.13183694 -0.014396367 0.28023466 -0.23724806 0.14858042 0.02982163
-0.13018504 -0.13602002 -0.20081998 0.39009646 0.13817675 -0.05531475 -0.09222476 -0.061498966
0.21183382 0.027501648 0.015890796 0.108627185 -0.07946825 0.10806779 0.19514236 -0.20706251
0.1387758 0.07701181 -0.009255672 -0.214654 -0.12601972 -0.17862707 0.09805341 -0.23226492
-0.14290136 0.19032297 -0.07037327 -0.08485808 0.14777991 0.017529564 0.10719102 0.111886874
-0.23438543 0.11475126 0.2017535 0.18016674 0.23968685 0.12855616 -0.041321285 0.015341614
0.11977071 -0.19998415 0.05921502 0.15243387 0.18349898 0.07233086 0.29525146 0.068620384
0.23427625 -0.07827595 0.014913334 -0.19491039 -0.20643747 -0.13281783 0.24945657 0.15881222
-0.09374815 0.2190008 0.057764024 0.23142079 -0.26956636 0.29218873 0.023601146 0.034043055
0.281984 0.18388657 0.037031017 -0.003622664 0.07002664 -0.035164442 -0.13817205 -0.042379566
0.06467247 0.17930716 -0.084391244 0.117762744 0.06484586 -0.087078884 -0.2814871 -0.040708054
-0.1719743 0.027804712 0.09108864 0.190693 0.2026451 -0.039959744 0.013171445 0.042063665
-0.23652892 0.02326624 -0.21742772 -0.057246953 0.03143456 0.08181228 0.2556778 0.13002339
-0.081916295 -0.19428182 0.08367085 0.042985797 -0.15594208 -0.2308596 0.08795975 0.16619705
0.2836613 -0.28488338 -0.22041847 0.061317697 0.02675294 0.2636839 -0.123209246 0.1960015

network_body._body_endoder.seq_layers.2.bias f4 [128]
00000000: c42f abba b74b cdba f9ca 2c3c 56fd 06bc
00000010: 4daa a93b 4f0f ca3b 2715 debb 099b 83bb
00000020: bee5 233c c608 ffbb 54c0 973a 3523 9fbb
00000030: e7c2 583b 1a86 48bc 3246 433b 6910 15bb
00000040: f213 793b 9bd1 cd3b 10a5 bdba 9543 053c
00000050: c117 0dbc 6cfb 06ba 3e48 11bc 0375 fbbb
00000060: 0c2f 003c a428 ffbb 2a1e eebb 2e0c 303c
00000070: f9db 69bb 0c86 af3b 8252 943b 3423 2abc
00000080: 60ba b13b 04c3 96bb 54da de39 3b98 4037
00000090: 90d9 4f3c 3cf8 5fbc b6fc 1ebc d65d 04bc
000000a0: efca 963b 35c3 08bc 0fcd 7a3b 574c 853c
000000b0: 9712 233c 1c05 7bbb 3635 9cbb b9e7 4cbc
000000c0: 30a1 513b 7be9 c2bb 5b61 e3ba fec0 1b3c
000000d0: 7c3b 1a3c c490 193c c1b2 393c f15e 7d3b
000000e0: 8661 adbb 897f 303c b114 ab3b dd81 273c
000000f0: 4cf1 4abb 41d5 14ba 9b7f 833a 7929 cabb
00000100: c937 15bc c7ea 19ba 8f36 16bc 383c 103c
00000110: 0b20 d83b 824f 57bb c4ae 493a 2ff4 ff3b
00000120: c6fc ab3b 5d93 9c39 cd57 213c c4dd df39
00000130: d34e 833b 064f a53b f702 233c c08e d93b
00000140: b934 23bb a466 03bc 0da6 79bb 8ca4 023c
00000150: 0099 223c e0a9 11bb f022 75bb ecde 0bbc
00000160: d5bd 1b3c f349 7fbb 0a21 083c c451 953a
00000170: 5938 193b 9e39 3c3c b7f2 a1bb ea0a 7a3b
00000180: e801 05bc d43d d93b 0d5a b9bb 196e d53a
00000190: 9acb 113c 5dd9 613b 6842 263b 541e 083b
000001a0: b374 6fbb 83f2 12bc a569 663b 1b40 28ba
000001b0: 5c64 42bb 7b8d e9bb 4b3b 13ba d1f6 14ba
000001c0: d097 0bbc c9c3 183c 506c 3fba c606 15bc
000001d0: 467f 583b bb12 dabb 1dab ab3b 2a30 063b
000001e0: 7664 13bc 0d2a e73b bbd2 fabb 6366 103b
000001f0: f5cb cbbb f7ca 223c fcf8 08bc 45fb 263c
-0.00130605 -0.0015662824 0.010546439 -0.008239111 0.005177772 0.0061663757 -0.006777424 -0.0040162844
0.010003505 -0.0077830283 0.0011577704 -0.004856492 0.0033075155 -0.012239004 0.0029796478 -0.0022745377
0.0038006273 0.0062810904 -0.0014468748 0.008133789 -0.00861162 -0.0005149159 -0.008867322 -0.007673861
0.007823717 -0.007786827 -0.0072667794 0.010745091 -0.0035684092 0.005356556 0.0045264373 -0.01038437
0.005423829 -0.0046008844 0.00042505807 1.1479536e-05 0.012686148 -0.0136700235 -0.009703806 -0.008079013
0.0046018283 -0.008347322 0.0038269197 0.016271753 0.009953163 -0.0038302606 -0.0047670854 -0.012506419
0.0031986944 -0.005948243 -0.001734774 0.009506462 0.009413596 0.009372894 0.011334122 0.0038661326
-0.0052911667 0.010772594 0.0052209725 0.010223833 -0.0030966578 -0.0005677529 0.0010032536 -0.0061694947
-0.0091075385 -0.00058714714 -0.009168281 0.00880342 0.0065956167 -0.0032853787 0.00076935836 0.0078110914
0.005248639 0.00029864433 0.0098475935 0.00042699103 0.0040071993 0.0050448207 0.009949437 0.0066393316
-0.0024903251 -0.008020077 -0.0038093359 0.007973801 0.009924173 -0.0022226498 -0.0037404858 -0.008537035
0.009505709 -0.003895399 0.008308658 0.0011392166 0.0023379533 0.011488346 -0.004942264 0.0038153478
-0.00811813 0.006629685 -0.005656487 0.0016283422 0.00889864 0.0034461834 0.002536917 0.002077003
-0.0036538064 -0.008968952 0.0035158184 -0.0006418244 -0.002966187 -0.0071274615 -0.00056164403 -0.00056825305
-0.008520082 0.009324023 -0.00073022116 -0.009095853 0.0033034845 -0.006655065 0.005238904 0.0020475485
-0.00899612 0.0070545734 -0.0076545156 0.0022033683 -0.006219382 0.009936086 -0.008360144 0.010191743

network_body._body_endoder.seq_layers.2.weight f4 [128, 128]
00000000: 831a 603d cedb 86bd 30ca 103d fdf9 c73d
00000010: 1861 8f3c b9c6 f6bd e61b bf3c 9fc4 133e
00000020: 35f6 103c 175d 543d d7b1 dd3d 30fa a13d
00000030: 5aee 633d 43ac b4bd ad10 28bd d053 20bd
00000040: 7ec9 3dbc de46 ebbc fbb1 6dbe a17c 11bd
00000050: 5986 dc35 df1a 103c 27db 883d af53 cbbd
00000060: 650f 6ebd 7cf4 86bb 51f4 553d f4e7 44bd
00000070: 50f1 803d 3ffc 95bd 38ac adbb 83bd bbbd
00000080: d0ad 43be 9e2a 6bbd 7fc1 8bbc 6d61 e83d
00000090: b8b8 1f3e 6a3d 00be a90e 15be 9fcc 2cbd
000000a0: d7b6 71bd ed8d 003e f50a de3d 41d6 323d
000000b0: 3832 12bd cefc f7bd cdc5 b23d e29d 87bc
000000c0: 1c44 c53c f3eb 42bd 5728 cabd 3886 423d
000000d0: e527 4b3d 8613 01bd e43c 45be 14d4 24bd
000000e0: f181 bbbb 6150 9fbd 9ccf b33c 65e0 e9bc
000000f0: 895d 47bd 8d5a 2b3d f68b 043d 33b1 8a3d
00000100: 5af1 163e a790 943d 41bd 98bd c887 afbd
00000110: a530 1abd dfbf c4bc e260 0ebd 52fb eb3c
00000120: f656 8abd e245 f0bd d80f 603c ab04 373c
00000130: f772 093e 27de 913d 3ed1 0ebe ff64 b1bd
00000140: d62e d43b 749b a0bd 35dd 0d3e 6bda 663c
00000150: 5360 e6bc 51fe b03c 7d09 f93d c55d f4bc
00000160: 7ec1 4bbb 3e44 e7bd c489 54be 19c9 a43c
00000170: 8207 f8bd 8ca1 513d 4bff 143b 7ae5 f4bd
00000180: 8157 1bbb 3c13 7c3d aade 14be 064f 11be
00000190: 38c5 a6bd e26d 41bb 089f 233d 1187 8f3c
000001a0: 08c4 ce3d 4c4a 09bd 9340 4ebd 729c d83d
000001b0: 3917 353d c323 843c f453 473d adef ad3d
000001c0: 333d c33d a4de 013e 23c0 7a3d 2144 a4ba
000001d0: a1c3 d0bc 74c5 86bd 6170 863d 2a43 273d
000001e0: 6d0b 26be 0587 acbd 0466 243d 3b3e 10be
000001f0: b3e1 703d 65bf acbc 86f6 073d 3191 8ebc
00000200: ec0c da3d bf41 dd3c e33f 03bb e50a 57be
00000210: caf7 f7bd 54b5 013d 71f3 e0bd 8185 573d
00000220: 227b f9bd 0ab9 603d 0f74 06bc a2ea 95bd
00000230: a0f1 143e 6f9d 183e cf3a 81bd a1a5 173d
00000240: 8189 5ebd 6a0a 143e 93d6 dfbd a997 2ebd
00000250: 9cbd c63d d329 18b9 ccd9 543e 68af 4fbd
00000260: 9932 ecbc 55ce bcbd 3a9b 1b3d 2193 bebd
00000270: c240 6d3e 4416 593e b5d0 a9bc 22e2 073e
00000280: 9747 95bd 2f88 8abd 717e 2f3d cae8 843b
00000290: de8e 3bbc 267a 4e3e cade 313d 2bed 883d
000002a0: 59b7 87bd cd5e fa3b 064b 173d aab2 4d3d
000002b0: bacf 653d 417d 5abe fef0 403d 4879 523d
000002c0: 734d 1cbd a38e 33bd 7a2d eb3c 5f90 f73d
000002d0: b67c 963c 89ab 90bb e749 35bd 4a3f bfbc
000002e0: 1d63 34bd 6025 593d b64a 91bd 67ce 86bd
000002f0: 4e32 95bc 83f6 583d eaf7 80b9 8087 1ebd
00000300: 5521 37bd 24fa 5abe 14b5 dabd 42c7 04bc
00000310: 295d 18bd 2f68 39be 492b 16be d995 263d
00000320: 17ff 993d ebae 88bd 5bbe 963d 9120 bcbc
00000330: 391f 4f3d 8b1e ce3c d4c8 4d3e 7ce9 153d
00000340: 78ff fcbd edca a2bd 5254 2b3c 6615 cd3b
00000350: 9c94 86bd 90b2 223c 63ba 843c f977 23bc
00000360: 1525 03be be94 293d 977d 4b3d a208 8dbd
00000370: aec4 e83c 16db 77bd 883d c7bc 0b9e 10bd
00000380: 3248 3b3e 100a 0eba 4445 11be 804c 973d
00000390: 5a4e 093e 42d5 953d 6e4e 843c f2d0 a3bd
000003a0: 0e9f 823d 9528 2cbe 2f6c 9abc 1d0e 4fbd
000003b0: c909 94be b5cf 713d e9a0 6d3d 2676 873c
000003c0: 1733 a43c bc1c 0d3e 8282 f9bd ff4b aabd
000003d0: 5c75 b6bd d1d7 543e 929b cf3d f41a 64bd
000003e0: 27bb 423e 9c4f 7b3e 13c9 91bd bce8 e1bc
000003f0: 88a5 5e3d 07ac 3ebe 8f75 9a3d b678 8e3d
0.054712784 -0.06584893 0.03534907 0.09764478 0.017502353 -0.12049622 0.023328733 0.14430474
0.008847763 0.05184659 0.10824936 0.079090476 0.05564723 -0.08821919 -0.04103153 -0.03914243
-0.011583684 -0.028720316 -0.23212425 -0.035519246 1.6430378e-06 0.008795469 0.06682425 -0.09928071
-0.05812015 -0.0041185003 0.05223495 -0.04807277 0.06296027 -0.07323503 -0.005300071 -0.09167006
-0.19109273 -0.05741369 -0.01706004 0.113467075 0.15597808 -0.12523428 -0.14556374 -0.04218733
-0.05901226 0.1255414 0.10841934 0.04366136 -0.035692424 -0.121087655 0.08729134 -0.016554777
0.024080329 -0.0475883 -0.098709755 0.047491282 0.049598593 -0.03151276 -0.19261509 -0.040241316
-0.0057222773 -0.07779003 0.021949582 -0.028549382 -0.048673186 0.041834403 0.03236004 0.06772079
0.14740506 0.07254153 -0.07457972 -0.0857082 -0.037644047 -0.024017273 -0.034760363 0.028806362
-0.06754868 -0.11732079 0.013675652 0.0111705465 0.13422762 0.0712245 -0.13947007 -0.086618416
0.00647531 -0.0784215 0.13853915 0.014090161 -0.028122103 0.021605643 0.12160013 -0.029829869
-0.0031090672 -0.11292313 -0.20755678 0.020115422 -0.12110807 0.051179454 0.0022735174 -0.11957832
-0.002370328 0.06154178 -0.14538065 -0.14190301 -0.08143085 -0.0029514958 0.039946586 0.01752046
0.10095984 -0.03351812 -0.05035455 0.105767146 0.0442116 0.016130334 0.04866405 0.0849298
0.09533157 0.12682587 0.061218392 -0.0012532511 -0.025483908 -0.0658063 0.06564403 0.040835537
-0.16215296 -0.084241904 0.040136352 -0.14086239 0.058808994 -0.021087358 0.033194087 -0.017403217
0.10646996 0.02700889 -0.0020027093 -0.2100025 -0.12107809 0.03166707 -0.10983933 0.052617554
-0.12181689 0.054863967 -0.008206381 -0.07320143 0.14545298 0.14903806 -0.06310045 0.03702319
-0.054330353 0.14457098 -0.10929599 -0.042625103 0.09704134 -0.0001451143 0.20786208 -0.05070439
-0.02883272 -0.09219042 0.037989832 -0.09305406 0.23169234 0.211999 -0.020729402 0.13269857
-0.07289045 -0.06764256 0.042845193 0.004056071 -0.011447636 0.20163783 0.04342536 0.06685861
-0.06626768 0.0076406957 0.036936782 0.050219215 0.056106307 -0.21336843 0.047104828 0.051385194
-0.0381598 -0.0438372 0.028708208 0.120880835 0.018370014 -0.00441498 -0.044259932 -0.023345608
-0.044039834 0.05301416 -0.07094328 -0.06582337 -0.018212464 0.052969467 -0.00024598773 -0.03870344
-0.044709522 -0.21384484 -0.10679069 -0.008104147 -0.03719822 -0.18106149 -0.1466495 0.04067025
0.07519358 -0.06673988 0.07360526 -0.022964748 0.050566886 0.025161048 0.20096141 0.03659962
-0.12353414 -0.07948861 0.010457115 0.0062586544 -0.06571314 0.009930268 0.016202157 -0.009977334
-0.12807114 0.041401617 0.04968032 -0.06886412 0.028414097 -0.06051167 -0.024321333 -0.03530697
0.18289259 -0.00054183695 -0.14186579 0.07387638 0.13408795 0.07316066 0.01615068 -0.079988375
0.063779935 -0.16812356 -0.018850414 -0.05055057 -0.28913715 0.059035975 0.058014784 0.01653583
0.020043893 0.13780493 -0.121830955 -0.08315276 -0.08909103 0.20785452 0.101370946 -0.055689767
0.19016705 0.24542087 -0.0711843 -0.027576797 0.05435708 -0.1862031 0.07541954 0.069566175
