results/TrainPeoplePuddlesHoles_NewPeopleDodgingStrategy_11Dicembre/MoveToGoal.onnx (onnx, 106468 bytes, 9 tensors)

action_model._discrete_distribution.branches.0.bias f4 [3]
0.06595993 -0.0554287 -0.019200215
00000000: 0016 873d 3409 63bd c549 9dbc

action_model._discrete_distribution.branches.0.weight f4 [3, 128]
0.07022037 -0.041031487 -0.07570227 -0.039469305 0.08385406 -0.076712035 0.0035610825 -0.10244926
0.01895916 0.0084331 0.040278144 -0.07517962 0.09709914 0.08101722 -0.009501635 -0.10222286
-0.07064538 0.019770008 -0.011867503 0.0069145914 -0.13086982 0.0016036661 -0.020967817 -0.06323177
-0.10858876 0.020373028 0.029785668 -0.09474356 -0.035543703 0.037936985 0.042041704 0.08582143
-0.12427107 0.05859567 -0.09645861 -0.050843515 -0.120617874 -0.09917298 0.025018582 0.001056526
0.020737572 -0.011427833 -0.10155785 0.038736094 0.060774483 -0.04190712 0.041259155 0.11335153
-0.08807402 0.070238106 -0.011297546 -0.11166947 -0.032572176 -0.06926195 0.06464111 0.08061162
-0.11153074 -0.012853878 -0.072813556 -0.06109169 -0.09500809 0.063563325 0.013326895 0.010340117
-0.05499354 0.10408512 -0.04259481 0.07426071 -0.09482546 -0.09595375 0.014201543 -0.047136366
0.032319333 0.06955826 0.04996223 0.04714969 0.075048916 -0.065281294 -0.07510345 -0.093309894
-0.10394623 -0.04116229 0.053738717 0.032913394 0.045306932 0.0694126 0.08637224 -0.048576053
0.07812304 -0.10288217 -0.09050146 -0.0028705176 0.036975298 0.044487122 -0.08832515 0.06974985
0.062599786 -0.122011825 -0.088138916 -0.07691501 0.0333387 0.07883976 0.084052525 -0.023353985
-0.12897097 0.028107077 -0.005198889 -0.008505411 -0.012692291 -0.018680178 -0.10987524 -0.08933901
-0.033077326 -0.100872084 0.043420978 -0.02871694 -0.042871587 -0.01227973 -0.022486525 -0.1201037
0.08792771 -0.018201577 -0.008874454 0.017855084 -0.023964364 0.035788924 -0.033307314 -0.07947864
-0.0022203848 -0.052357916 -0.01673235 0.081503056 -0.08899508 0.11653753 -0.12660469 0.1021394
0.061714787 -0.196325 0.058202703 0.0560144 -0.076284096 0.02165926 -0.10104998 0.009137285
0.12352067 0.057894014 -0.14039768 -0.06528006 0.117041804 -0.15699556 0.122134864 -0.06909717
0.06466408 0.049783 -0.086323865 0.05993803 0.111634344 0.09060658 -0.08421535 -0.002190234
0.07911265 0.07952726 0.068513125 0.14617446 0.0496097 0.08784918 -0.14873023 -0.14223208
0.056761585 0.118656 -0.005099967 0.06637814 0.043517716 0.09619924 -0.17946841 -0.036165915
-0.03783204 -0.03124458 -0.1708825 0.024867257 0.056690164 0.065448515 -0.023915173 -0.13080184
0.095513746 -0.112891905 0.09483971 -0.07027999 0.027118862 -0.009793851 -0.13617611 -0.1729327
0.043946166 -0.046517335 -0.08724572 -0.19058926 0.12188109 0.12689619 -0.12886025 0.086487606
-0.15661232 0.002512525 0.023607748 -0.10108416 -0.114426166 0.00019557457 -0.03610304 -0.000940531
0.10403657 -0.063877 -0.14088643 -0.10545634 -0.099801965 -0.12693349 -0.014973161 0.08712974
-0.038392626 0.110640734 0.014130354 0.06893403 -0.14178151 -0.06024496 0.07463233 0.031628948
-0.0059158932 0.026664164 -0.04970907 0.12582435 0.03468034 -0.08627146 -0.08955727 -0.05658399
0.021060834 0.066664375 0.103661805 -0.13875157 -0.12819418 -0.1278458 0.013372624 -0.009504723
0.052485842 -0.026722733 0.046160202 0.09979843 -0.08725776 -0.15762338 -0.104306966 0.1095346
0.0058992775 -0.12133828 0.11107551 0.06713251 -0.07078668 -0.060985263 -0.05553605 0.05761404
00000000: b3cf 8f3d a210 28bd cb09 9bbd 91aa 21bd
00000010: adbb ab3d 331b 9dbd 0d61 693b ebd0 d1bd
00000020: 3e50 9b3c fc2a 0a3c b2fa 243d c6f7 99bd
00000030: eadb c63d 5bec a53d bfac 1bbc 385a d1bd
00000040: 86ae 90bd b6f4 a13c ea6f 42bc cc93 e23b
00000050: bd02 06be 1b32 d23a b3c4 abbc a97f 81bd
00000060: c963 debd 56e5 a63c 1301 f43c e908 c2bd
00000070: 4696 11bd d063 1b3d ec33 2c3d 25c3 af3d
00000080: d581 febd 0302 703d 178c c5bd 4a41 50bd
00000090: 8106 f7bd 341b cbbd c5f3 cc3c 217b 8a3a
000000a0: d7e1 a93c ce3b 3bbc 90fd cfbd bda9 1e3d
000000b0: aaee 783d cda6 2bbd 5cff 283d d924 e83d
000000c0: 2760 b4bd ffd8 8f3d 5819 39bc f7b2 e4bd
000000d0: 676a 05bd 36d9 8dbd 8f62 843d b417 a53d
000000e0: 3b6a e4bd 1299 52bc 461f 95bd 483b 7abd
000000f0: 9a93 c2bd 7d2d 823d 0d59 5a3c 9869 293c
00000100: e840 61bd 942a d53d e577 2ebd 0016 983d
00000110: da33 c2bd 6683 c4bd 97ad 683c 1012 41bd
00000120: 4761 043d 9074 8e3d 32a5 4c3d 0920 413d
00000130: 3fb3 993d 33b2 85bd d6cf 99bd 4219 bfbd
00000140: c3e1 d4bd ca99 28bd 211d 5c3d 32d0 063d
00000150: c393 393d 3128 8e3d eee3 b03d aff7 46bd
00000160: f9fe 9f3d e3b3 d2bd d458 b9bd 4b1f 3cbb
00000170: 6973 173d 2138 363d d1e3 b4bd 02d9 8e3d
00000180: 5134 803d 56e1 f9bd 2d82 b4bd 9e85 9dbd
00000190: 298e 083d bd76 a13d bb23 ac3d db50 bfbc
000001a0: f710 04be d040 e63c 715b aabb 485a 0bbc
000001b0: 54f3 4fbc 2c07 99bc 4506 e1bd 5ff7 b6bd
000001c0: 177c 07bd 0696 cebd 32da 313d ca3f ebbc
000001d0: 1e9a 2fbd ec30 49bc a935 b8bc eef8 f5bd
000001e0: 7113 b43d 791b 95bc 2866 11bc d344 923c
000001f0: ea50 c4bc 6897 123d 406d 08bd b2c5 a2bd
00000200: e083 11bb 4175 56bd 4812 89bc 13eb a63d
00000210: 0d43 b6bd 3bab ee3d a9a4 01be 762e d13d
00000220: a5c8 7c3d 6c09 49be f565 6e3d 5b6f 653d
00000230: d63a 9cbd c36e b13c 4bf3 cebd 8db4 153c
00000240: 68f8 fc3d 4622 6d3d 69c4 0fbe 8db1 85bd
00000250: 9db3 ef3d 72c3 20be d821 fa3d d182 8dbd
00000260: 9a6e 843d 42e9 4b3d 91ca b0bd 9481 753d
00000270: 8ca0 e43d f18f b93d 1979 acbd 078a 0fbb
00000280: d005 a23d 30df a23d 9c50 8c3d c2ae 153e
00000290: 8a33 4b3d 45ea b33d bd4c 18be 49a5 11be
000002a0: d67e 683d eb01 f33d a01d a7bb 43f1 873d
000002b0: a23f 323d 1b04 c53d 91c6 37be b622 14bd
000002c0: c5f5 1abd a2f4 ffbc d2fb 2ebe 6bb6 cb3c
000002d0: f233 683d df09 863d c1e9 c3bc ebf0 05be
000002e0: b69c c33d df33 e7bd 523b c23d f5ee 8fbd
000002f0: 6028 de3c 6376 20bc c071 0bbe 4515 31be
00000300: e500 343d f688 3ebd e2ad b2bd d529 43be
00000310: cb9c f93d 13f1 013e f1f3 03be 6a20 b13d
00000320: fb5e 20be 2da9 243b 0965 c13c 3605 cfbd
00000330: 4458 eabd 2613 4d39 c8e0 13bd f88d 76ba
00000340: 2011 d53d f2d1 82bd 8844 10be 7ef9 d7bd
00000350: f964 ccbd dafa 01be fd51 75bc 1471 b23d
00000360: 9641 1dbd 9c97 e23d 0083 673c 492d 8d3d
00000370: 2c2f 11be 6bc3 76bd d6d8 983d 5b8d 013d
00000380: 1cda c1bb ce6e da3c bd9b 4bbd 19d8 003e
00000390: f90c 0e3d 17af b0bd cd69 b7bd 9dc4 67bd
000003a0: c587 ac3c 5587 883d a44c d43d e414 0ebe
000003b0: 5645 03be 02ea 02be da18 5b3c b3b9 1bbc
000003c0: 65fb 563d a2e9 dabc 7b12 3d3d 1f63 cc3d
000003d0: 32b4 b2bd 0668 21be e49e d5bd ad53 e03d
000003e0: ba4e c13b 3480 f8bd 8f7b e33d c57c 893d
000003f0: 9bf8 90bd afcb 79bd c579 63bd b3fc 6b3d

action_model._discrete_distribution.branches.1.bias f4 [3]
0.0037218782 0.022551654 -0.025455935
00000000: c1ea 733b 3fbe b83c f788 d0bc

action_model._discrete_distribution.branches.1.weight f4 [3, 128]
-0.02185087 -0.019035911 -0.03309861 -0.028933166 0.004675134 -0.003003462 -0.01736776 -0.021589132
0.0052295704 -0.0008594417 -0.034545053 -0.016914304 0.009497933 0.023187926 0.0035155946 -0.0014610593
-0.004470574 0.0134313665 0.019474965 -0.0043772524 -0.02445558 -0.0028708263 -0.0025219673 -0.010801736
-0.011319028 -0.010003119 -0.011518312 -0.015182245 -0.010410253 -0.011208953 0.0064701056 0.017667439
-0.033698168 -0.005118302 -0.022081565 0.0041163913 -0.03038315 -0.024297727 0.006572831 -0.023675008
-0.0031640558 0.0068226727 -0.011464385 0.008266873 0.0041186186 0.00094072917 -0.0017768416 0.01306247
-0.049519274 0.031652894 -0.017815454 -0.044138107 -0.011199096 -0.04667624 0.018152583 0.016617147
-0.006060964 -0.003618025 -0.030624766 -0.019679582 -0.030202143 -0.009713193 2.0951195e-05 -0.01770093
-0.016335294 0.0040092915 -0.0054080966 0.016251795 -0.024641372 -0.007545019 -0.028344726 0.0025247417
0.009382933 0.026285129 0.024651287 -0.010970444 0.014248594 -0.002829709 -0.007689816 -0.012868252
-0.025736084 0.00019162796 -0.002239494 0.009861536 0.013289114 0.0038120218 -0.011571764 0.008937794
0.022815399 -0.03060435 -0.002489954 0.0005122971 -0.0073430887 -0.0095508685 -0.03747594 0.016728971
0.0040145097 -0.06540107 -0.030279182 -0.00248012 -0.00047839296 -0.0014750827 0.019305855 -0.006362463
-0.0623324 0.0011377031 0.026427962 0.0026881134 -0.015204969 0.026897855 -0.03850513 -0.019017965
0.013201351 -0.018731477 0.0026939395 -0.023947686 -0.0031696865 -0.018717522 -0.019555317 -0.045652296
0.008664858 -0.014835712 -0.013934581 -0.0058679553 -0.0033035793 -0.00064300693 -0.012499575 -0.0062799
0.010946327 -0.00041538847 -4.757849e-05 0.028443113 -0.004812447 -0.0071600913 0.023588955 -0.021738682
0.004425241 0.031581376 0.017629748 -0.01610168 0.024833178 0.012261956 0.03339501 0.0024350188
-0.022992074 0.0011608787 0.023782453 0.02188942 -0.005912084 0.020357916 0.012042628 0.0019066229
-0.018602526 0.014699873 0.014334303 -0.020450093 0.0153287295 0.01512266 0.002615289 0.006284257
-0.027674614 0.0016551423 -0.010894001 0.009360732 0.0072471714 0.0038292669 0.0058040833 0.018064043
0.0067456975 -0.024289161 -0.015566552 0.0057922225 0.0010807859 -0.021082612 0.017716438 0.0055157393
0.041501343 -0.012679792 0.020284072 -0.0055823005 0.00487708 0.0068221083 0.008067835 0.014348292
-0.010032134 0.024580307 0.019646015 0.01678511 0.006219948 0.005011818 0.006106124 0.038043022
-0.019194828 0.0050145234 -0.0044371337 0.011149333 0.009873947 -0.007249659 0.049047027 -0.010869837
0.019252345 -0.004955427 -0.009679454 0.030825432 -0.008364013 0.0071746376 0.0018943669 -0.0058898795
0.001375491 0.0036350691 -0.0018188078 0.008079947 0.022109352 0.0069765463 0.016573949 -0.0067995377
0.012443239 0.006451669 0.017365014 -0.0045953738 0.014453835 0.017139828 -0.037738133 0.017548371
0.0056869206 0.0019584822 0.02184692 0.011652457 -0.01563671 0.0046971594 0.0090057375 0.0066007483
0.00028312276 -0.010337262 -0.004172839 0.012705788 0.029555522 0.0011733264 0.0009877968 -0.0078384
-0.010810106 -0.004559125 -0.008452869 0.012586008 0.021093557 0.022180377 0.031059189 -0.036797304
0.0074674184 0.01605933 0.0006268065 0.00940933 0.01602661 0.028280217 0.009090677 -0.02406303
00000000: 9900 b3bc 33f1 9bbc 6892 07bd 3f05 edbc
00000010: de31 993b bbd5 44bb d546 8ebc b1db b0bc
00000020: d15c ab3b 284c 61ba 1d7f 0dbd de8f 8abc
00000030: 389d 1b3c 9bf4 bd3c e465 663b 0481 bfba
00000040: e57d 92bb 3c0f 5c3c f689 9f3c 0e6f 8fbb
00000050: 1257 c8bc 7924 3cbb 9747 25bb c4f9 30bc
00000060: 7273 39bc 1fe4 23bc 4db7 3cbc f3be 78bc
00000070: c48f 2abc c2a5 37bc 2e03 d43b 4ebb 903c
00000080: 1707 0abd 6eb7 a7bb 66e4 b4bc cbe2 863b
00000090: 15e6 f8bc 070c c7bc e760 d73b 17f2 c1bc
000000a0: 0c5c 4fbb ba90 df3b 1ed5 3bbc c771 073c
000000b0: 7af5 863b 449b 763a e9e4 e8ba f803 563c
000000c0: b9d4 4abd 77a6 013d b7f1 91bc 29ca 34bd
000000d0: 6a7c 37bc 962f 3fbd bab4 943c af20 883c
000000e0: 0d9b c6bb 631c 6dbb cae0 fabc 1337 a1bc
000000f0: 7c6a f7bc 1624 1fbc 59c0 af37 8a01 91bc
00000100: 98d1 85bc 6060 833b 6736 b1bb 7c22 853c
00000110: b4dc c9bc 353c f7bb 3333 e8bc 2376 253b
00000120: e0ba 193c e953 d73c 7ff1 c93c 61bd 33bc
00000130: ef72 693c a472 39bb dafa fbbb 5cd5 52bc
00000140: 7bd4 d2bc bdef 4839 79c4 12bb 4892 213c
00000150: 96ba 593c 1dd3 793b 7f97 3dbc d36f 123c
00000160: 5ce7 ba3c f9b5 fabc 7f2e 23bb ad4b 063a
00000170: 4b9e f0bb 3f7b 1cbc 5f80 19bd 320b 893c
00000180: 268c 833b fff0 85bd 0c0c f8bc 8289 22bb
00000190: d1d0 fab9 9057 c1ba 5027 9e3c 357c d0bb
000001a0: 4250 7fbd fb1e 953a 747f d83c 0f2b 303b
000001b0: 431e 79bc e458 dc3c 8eb7 1dbd 90cb 9bbc
000001c0: 7b4a 583c c172 99bc ce8c 303b f02d c4bc
000001d0: 84ba 4fbb 7d55 99bc 7932 a0bc e7fd 3abd
000001e0: 0cf7 0d3c 7c11 73bc de4d 64bc fa47 c0bb
000001f0: dd80 58bb 778f 28ba 04cb 4cbc 9fc7 cdbb
00000200: 3958 333c 7fc8 d9b9 048f 47b8 8801 e93c
00000210: bbb1 9dbb 339f eabb a03d c13c 5215 b2bc
00000220: 9d01 913b 795b 013d 436c 903c ace7 83bc
00000230: f36e cb3c 5fe6 483c 35c9 083d d694 1f3b
00000240: e059 bcbc a028 983a 6bd3 c23c 7151 b33c
00000250: 28ba c1bb a5c5 a63c 714e 453c a6e7 f93a
00000260: 5364 98bc bcd7 703c 6dda 6a3c f486 a7bc
00000270: 5a25 7b3c 09c5 773c 4565 2b3b 2bec cd3b
00000280: dfb5 e2bc 5cf1 d83a c17c 32bc c15d 193c
00000290: ae79 ed3b 70f4 7a3b 2e30 be3b 0bfb 933c
000002a0: 030b dd3b 10fa c6bc da0a 7fbc afcc bd3b
000002b0: 28a9 8d3a 71b5 acbc 1022 913c 60bd b43b
000002c0: 50fd 293d e7be 4fbc c82a a63c bbeb b6bb
000002d0: eacf 9f3b fe8b df3b f42e 043c 1915 6b3c
000002e0: d25d 24bc a45c c93c aef0 a03c ed80 893c
000002f0: b5d0 cb3b 2d3a a43b e115 c83b 00d3 1b3d
00000300: 793e 9dbc df50 a43b 6065 91bb b1ab 363c
00000310: 56c6 213c 8c8e edbb 89e5 483d 6717 32bc
00000320: 18b7 9d3c 2261 a2bb 9396 1ebc 9e85 fc3c
00000330: 3709 09bc 3919 eb3b 684c f83a e4ff c0bb
00000340: d249 b43a 573a 6e3b 1065 eeba c161 043c
00000350: ac1e b53c 839b e43b 17c6 873c a8ce debb
00000360: bade 4b3c 8668 d33b 1341 8e3c ca94 96bb
00000370: c7cf 6c3c d368 8c3c 4d93 1abd 9ac1 8f3c
00000380: 5959 ba3b e159 003b 50f8 b23c f2e9 3e3c
00000390: 8f18 80bc a1ea 993b cd8c 133c 174b d83b
000003a0: 1870 9439 9f5d 29bc 50bc 88bb f02b 503c
000003b0: 6c1e f23c 4dca 993a f678 813a a26c 00bc
000003c0: df1c 31bc b664 95bb e77d 0abc 8b35 4e3c
000003d0: 65cc ac3c 9fb3 b53c d76f fe3c c5b8 16bd
000003e0: 3fb1 f43b db8e 833c 4650 243a 9729 1a3c
000003f0: 3d4a 833c eaab e73c 10f1 143c d51f c5bc

discrete_action_output_shape f4 [1, 2]
3.0 3.0
00000000: 0000 4040 0000 4040

network_body._body_endoder.seq_layers.0.bias f4 [128]
0.04917016 -0.026000734 0.06508833 -0.053938095 0.06304473 0.063356996 0.061557434 -0.013761247
0.055870097 0.059170347 -0.0072995387 0.014167526 0.06581581 -0.025136977 -0.032383323 -0.019419417
0.07636773 0.059254613 -0.04478333 0.010801023 0.024953544 0.01172542 0.044235323 -0.02341546
0.035045963 0.097267956 -0.033320542 0.082802534 0.09816295 -0.045054052 0.07599864 0.0069671837
0.0037870754 -0.037414722 0.022215309 -0.029185804 -0.020163808 0.110478036 -0.036882058 -0.025603218
-0.018102227 0.0066007213 -0.0018039849 -0.043643035 0.07507212 0.07604366 0.038440414 -0.08869152
-0.009179169 0.0479155 0.028853886 0.06539088 0.0317941 -0.055084668 0.041103523 0.030740364
0.013742119 -0.035237763 0.017520675 0.08666838 0.0047907787 -0.038553003 0.013758948 0.039605122
-0.0229605 0.07956004 -0.038223915 0.04857682 0.042992797 0.046997026 -0.017053472 0.054341406
0.082014464 0.032946065 0.030082066 0.056350302 0.025381481 -0.01594464 0.051962797 0.032571852
0.059018224 0.047721107 0.0033819983 0.035901498 0.0279546 0.052003972 -0.07143693 0.027715068
0.029614436 -0.05134387 0.026226979 0.062133405 0.04277651 0.07099323 -0.039728317 0.05431242
0.07782183 0.06608299 -0.026512897 0.057673246 0.036300298 -0.07264693 0.08348727 0.06943753
0.071367756 0.011943906 -0.0438505 0.08473839 0.006186797 0.03284478 -0.106969744 -0.014558029
0.028547984 0.048199438 0.05385847 0.08359216 0.024243902 -0.021141188 -0.015626332 0.03857949
0.02940142 0.04183329 0.0067365263 0.07511137 0.02725141 0.07084812 -0.029057149 0.030505424
00000000: a666 493d 7eff d4bc 084d 853d 31ee 5cbd
00000010: 981d 813d 50c1 813d a623 7c3d da76 61bc
00000020: 0bd8 643d 9b5c 723d f830 efbb e91e 683c
00000030: 70ca 863d 10ec cdbc 60a4 04bd 7815 9fbc
00000040: af66 9c3d f7b4 723d ba6e 37bd c6f6 303c
00000050: 606b cc3c fa1b 403c 1930 353d c7d1 bfbc
00000060: 5b8c 0f3d 6c34 c73d 1f7b 08bd 6094 a93d
00000070: a809 c93d 998a 38bd 2da5 9b3d f94c e43b
00000080: 9530 783b 2e40 19bd e1fc b53c 1117 efbc
00000090: 922e a5bc 4f42 e23d a411 17bd d7bd d1bc
000000a0: 1f4b 94bc dd4a d83b b073 ecba 0ac3 32bd
000000b0: 69bf 993d c7bc 9b3d b273 1d3d e6a3 b5bd
000000c0: 3a64 16bc 0b43 443d fc5e ec3c a7eb 853d
000000d0: 883a 023d 76a0 61bd 2b5c 283d 37d3 fb3c
000000e0: a026 613c 7955 10bd 8587 8f3c 317f b13d
000000f0: f7fb 9c3b c1e9 1dbd 366d 613c fb38 223d
00000100: a917 bcbc 60f0 a23d ae90 1cbd 7df8 463d
00000110: 3719 303d f47f 403d b9b3 8bbc 1895 5e3d
00000120: 33f7 a73d 74f2 063d aa6e f63c 93cf 663d
00000130: d3ec cf3c 559e 82bc f1d6 543d 106a 053d
00000140: 18bd 713d 3577 433d 84a4 5d3b 730d 133d
00000150: 0c01 e53c 1e02 553d 864d 92bd b60a e33c
00000160: f999 f23c f34d 52bd f6d9 d63c 997f 7e3d
00000170: 6c36 2f3d e664 913d 29ba 22bd b376 5e3d
00000180: 0d61 9f3d 8556 873d 9331 d9bc c83a 6c3d
00000190: 9faf 143d eac7 94bd 60fb aa3d 4435 8e3d
000001a0: 4229 923d 5fb0 433c 959c 33bd 528b ad3d
000001b0: 9dba ca3b 3f88 063d f412 dbbd cd84 6ebc
000001c0: 76dd e93c c66c 453d b39a 5c3d 5e32 ab3d
000001d0: 269b c63c 4930 adbc cb02 80bc 8705 1e3d
000001e0: 3fdb f03c 6259 2b3d 14be dc3b fdd3 993d
000001f0: 593e df3c d218 913d 4209 eebc 83e6 f93c

network_body._body_endoder.seq_layers.0.weight f4 [128, 66]
0.123868674 -0.025774214 -0.1436222 -0.012236623 0.09395698 0.18287095 -0.071940355 0.15621962
0.0948768 -0.033304885 0.08914576 0.09467826 0.06371607 -0.07352936 -0.014328349 0.11429213
-0.2307365 0.28135404 -0.18359788 0.03308817 -0.15869963 -0.009460146 -0.1569969 0.111115634
0.07390361 -0.01770728 -0.054997854 0.2305811 0.017638132 -0.011128597 -0.060208343 0.014977687
-0.005899695 0.29368633 0.05494898 0.13855602 0.1307797 -0.19730267 -0.04534036 -0.09060096
0.09486763 0.016162636 -0.19664077 0.18854055 -0.25456852 0.044909578 0.06694814 0.21181881
0.1771957 -0.1684787 0.0051979627 -0.036715087 -0.08929852 -0.22039329 0.17281525 0.2385495
0.25241485 0.25290826 -0.18571909 -0.068626486 0.13181768 0.15241937 -0.055600822 0.025714923
-0.21139194 -0.13798988 0.093389235 0.15759148 -0.09325363 0.11897888 0.031732716 -0.048896655
0.08463477 -0.026915792 -0.26722094 -0.17534998 -0.06406081 0.11468876 0.3264768 0.12171039
0.025678935 0.14044088 -0.05631093 -0.1098109 -0.063525 -0.037467368 -0.030901205 -0.07297355
-0.35992265 -0.093587875 -0.023362657 -0.089134976 0.012949424 0.08952859 -0.007119422 0.037487887
-0.014539629 0.06078128 0.06463137 0.3045103 -0.009006461 0.24361348 0.23149456 -0.13617118
-0.36310458 0.024561996 -0.10224716 -0.043331277 -0.113129936 0.25012624 0.05336559 -0.03339396
0.1268895 0.036252894 -0.04842205 -0.08530662 -0.004986657 -0.0009147381 0.08614871 -0.10552337
-0.15653461 -0.06145374 0.024112385 -0.102691144 -0.054498475 0.26431903 -0.19444475 0.005779436
-0.07804659 -0.09699008 -0.3176113 0.10014482 -0.050850928 -0.002288337 0.033898905 -0.076638125
-0.040586118 -0.041376203 -0.22376928 0.31264144 -0.1248052 -0.0368048 -0.009279132 0.08126673
0.1591413 0.08175484 0.07218356 -0.03227746 -0.08627945 0.19718097 -0.2383835 0.1327211
-0.07215973 -0.042795185 0.08819402 0.05161626 0.19170047 0.01653296 0.19837968 0.16161975
0.080731496 0.2187465 0.10953724 0.20183507 -0.2734283 0.035907738 -0.10477071 0.1439685
-0.030324602 -0.0056041577 -0.08532331 -0.0009799139 0.006229064 0.18227966 -0.021962997 -0.043292798
0.12827528 -0.15441564 0.086734585 0.078849025 0.063113 -0.05514437 0.13418746 -0.13359939
-0.068249844 -0.0685462 0.26233578 0.06899562 -0.07883714 0.086176984 0.0029676293 -0.0047656973
0.27750346 -0.0176751 0.11679022 -0.038595144 0.28058803 0.04922826 0.079372354 0.02714182
0.21244456 -0.08168833 0.028585458 -0.2334739 0.13702245 0.11236308 0.037984364 -0.10470964
-0.0495274 -0.052174017 0.02025368 -0.05465927 0.016317418 0.27847874 0.12932426 -0.23865114
0.011294833 -0.019492526 0.11523403 -0.01264368 -0.10449412 -0.01997673 0.22463477 -0.0878629
-0.23231517 0.014214819 0.30544248 -0.040207732 -0.13017818 -0.17519821 -0.06783759 -0.26004887
-0.04245629 0.02349844 0.076526165 -0.045150474 0.029519854 -0.1272167 0.09762105 0.04937072
0.10199299 -0.13515362 0.022403114 0.09228575 -0.08266499 -0.008776172 -0.26896474 -0.102292955
-0.19751403 -0.07720272 -0.07840533 0.040815055 0.12186268 -0.15531747 -0.27530932 0.10835371
00000000: dcae fd3d 7224 d3bc b311 13be 1e7c 48bc
00000010: 846c c03d 8642 3b3e 7755 93bd 09f8 1f3e
00000020: c54e c23d b46a 08bd 0d92 b63d ade6 c13d
00000030: 927d 823d 9096 96bd 74c1 6abc fe11 ea3d
00000040: 3046 6cbe a30d 903e 1501 3cbe 7687 073d
00000050: 2882 22be bafe 1abc ccc3 20be 9890 e33d
00000060: c75a 973d dc0e 91bc 6e45 61bd 741d 6c3e
00000070: d87d 903c b854 36bc 069d 76bd f964 753c
00000080: 3b52 c1bb 0e5e 963e 2f12 613d a1e1 0d3e
00000090: 1deb 053e b609 4abe d0b6 39bd ff8c b9bd
000000a0: f649 c23d 8167 843c 335c 49be c610 413e
000000b0: ce56 82be 1bf3 373d 1b1c 893d 08e7 583e
000000c0: ca72 353e ae85 2cbe ac53 aa3b 8f62 16bd
000000d0: 24e2 b6bd c7ae 61be 7bf6 303e 5246 743e
000000e0: 853c 813e 317d 813e 252d 3ebe 0b8c 8cbd
000000f0: 37fb 063e d313 1c3e b0bd 63bd 1aa8 d23c
00000100: 2177 58be 384d 0dbe db42 bf3d a95f 213e
00000110: c2fb bebd 33ab f33d 2afa 013d dc47 48bd
00000120: ff54 ad3d 827e dcbc 2fd1 88be f28e 33be
00000130: 5032 83bd f1e1 ea3d f827 a73e 4c43 f93d
00000140: a15c d23c bccf 0f3e 4aa6 66bd 8ae4 e0bd
00000150: 6519 82bd 6277 19bd 8624 fdbc 2873 95bd
00000160: c847 b8be 00ab bfbd 0b63 bfbc 668c b6bd
00000170: d229 543c c45a b73d 0a4a e9bb e68c 193d
00000180: a037 6ebc cbf5 783d 745d 843d c6e8 9b3e
00000190: d68f 13bc d075 793e e90c 6d3e 7570 0bbe
000001a0: d8e8 b9be 3d36 c93c f666 d1bd 237c 31bd
000001b0: abb0 e7bd 8c10 803e e095 5a3d 1bc8 08bd
000001c0: 52ef 013e ea7d 143d 3356 46bd 3db5 aebd
000001d0: 1c67 a3bb 09cb 6fba bc6e b03d a31c d8bd
000001e0: 9c4a 20be ebb6 7bbd 5687 c53c bc4f d2bd
000001f0: cb39 5fbd d354 873e 861c 47be 6c61 bd3b
00000200: e4d6 9fbd bca2 c6bd f39d a2be ba18 cd3d
00000210: 1049 50bd edf7 15bb 94d9 0a3d 73f4 9cbd
00000220: a13d 26bd 187a 29bd c623 65be 8a12 a03e
00000230: de99 ffbd a1c0 16bd 8007 18bc 2c6f a63d
00000240: f0f5 223e 156f a73d f9d4 933d 5f35 04bd
00000250: 48b3 b0bd cfe9 493e ce1a 74be 0ae8 073e
00000260: 7bc8 93bd 014a 2fbd 119f b43d 926b 533d
00000270: 214d 443e 2170 873c 0b24 4b3e a67f 253e
00000280: 8e56 a53d 15ff 5f3e 0f55 e03d daad 4e3e
00000290: cbfe 8bbe fe13 133d 0792 d6bd 7a6c 133e
000002a0: 4d6b f8bc 15a3 b7bb fdbd aebd 7470 80ba
000002b0: 2d1d cc3b 85a7 3a3e beeb b3bc ca53 31bd
000002c0: 985a 033e 221f 1ebe e7a1 b13d 997b a13d
000002d0: 6341 813d 10df 61bd 7068 093e 47ce 08be
000002e0: 93c6 8bbd f361 8cbd e050 863e 934d 8d3d
000002f0: 5e75 a1bd 8f7d b03d 8f7c 423b 9129 9cbb
00000300: ef14 8e3e 5fcb 90bc b62f ef3d f115 1ebd
00000310: 3ca9 8f3e 92a3 493d f98d a23d 8658 de3c
00000320: 118b 593e 364c a7bd 0d2c ea3c c813 6fbe
00000330: 9d4f 0c3e 9d1e e63d 7e95 1b3d 0272 d6bd
00000340: 3edd 4abd 6cb4 55bd 0ceb a53c 66e2 5fbd
00000350: 1bac 853c c494 8e3e 946d 043e f760 74be
00000360: f70d 393c caae 9fbc d2ff eb3d 7027 4fbc
00000370: 0301 d6bd 3da6 a3bc a806 663e 77f1 b3bd
00000380: 07e4 6dbe 46e5 683c f562 9c3e ddb0 24bd
00000390: 6e4d 05be 2967 33be 6fee 8abd 2025 85be
000003a0: a6e6 2dbd cd7f c03c c0b9 9c3d b4ef 38bd
000003b0: 9fd3 f13c 1845 02be 8ced c73d f438 4a3d
000003c0: b3e1 d03d b665 0abe bc86 b73c 5000 bd3d
000003d0: 434c a9bd efc9 0fbc bfb5 89be f87e d1bd
000003e0: 1e41 4abe 761c 9ebd f992 a0bd b02d 273d
000003f0: 2493 f93d 8b0b 1fbe 58f5 8cbe 8de8 dd3d

network_body._body_endoder.seq_layers.2.bias f4 [128]
0.042546093 -0.0038624879 -0.023054082 -0.0065094773 0.07842604 -0.03180582 0.061061177 -0.036973283
0.023541937 0.07968506 0.029014744 -0.072992444 0.09763224 0.07105345 0.033803064 -0.032890607
-0.023733173 0.034600496 0.049044676 0.019615697 -0.014161056 0.06832001 0.01600914 0.011759924
-0.0448356 0.055541597 0.036521632 -0.064243786 0.013679379 0.043464493 0.04122912 0.062389124
-0.043218534 0.05519167 -0.056769244 0.003934099 -0.024015779 -0.041001003 0.056785807 0.04762018
0.04624105 0.024036821 -0.023472762 0.039032735 0.043803554 -0.017856214 0.0915507 0.07540682
0.020554379 0.05905623 0.059245884 -0.027581828 -0.022633882 -0.035468537 0.07430086 0.070313565
-0.042733613 0.036071748 -0.02765148 0.012228396 -0.048104405 0.031303298 0.061360523 0.05610801
-0.06346218 0.08742628 0.021065652 0.099622026 -0.014496389 -0.0166693 0.053047046 -0.03563119
0.068127126 0.06511713 0.055356786 0.07275912 0.07439577 -0.04019643 -0.0038595055 -0.018967768
-0.02596329 0.00928983 0.058887247 0.057573687 0.06079682 0.080616474 0.054652877 -0.025788931
0.076363355 -0.024429716 -0.033462465 0.0074930354 0.07784609 0.084330015 -0.052976813 0.06714722
0.069060914 -0.023378795 0.01625948 -0.0022302705 0.055152044 0.073198974 0.08562117 0.016616901
-0.023575801 0.044974647 0.023427833 0.04187334 0.044360656 0.047239255 -0.012979654 -0.030982224
-0.06132278 -0.005122883 0.044301823 0.0038239362 0.022666669 0.051682375 0.033630338 -0.033469368
0.073596306 0.039864056 0.02306031 0.030513883 0.0010122625 0.030566512 0.00811147 -0.05429562
00000000: d044 2e3d cb21 7dbb eadb bcbc 744d d5bb
00000010: d59d a03d d246 02bd 491b 7a3d 4c71 17bd
00000020: 05db c03c ec31 a33d 54b0 ed3c 107d 95bd
00000030: 69f3 c73d 7984 913d 1575 0a3d 4db8 06bd
00000040: 126c c2bc 40b9 0d3d 12e3 483d 19b1 a03c
00000050: c603 68bc 5deb 8b3d 9a25 833c b2ac 403c
00000060: 89a5 37bd 967f 633d b597 153d 3f92 83bd
00000070: 791f 603c d307 323d dedf 283d bd8b 7f3d
00000080: eb05 31bd a910 623d de86 68bd 9de9 803b
00000090: bdbc c4bc abf0 27bd 3c98 683d 610d 433d
000000a0: 4167 3d3d dee8 c43c f349 c0bc cae0 1f3d
000000b0: 5b6b 333d 3247 92bc ef7e bb3d e46e 9a3d
000000c0: a861 a83c f2e4 713d d0ab 723d 49f3 e1bc
000000d0: b16a b9bc 7547 11bd 0d2b 983d 8f00 903d
000000e0: 7109 2fbd f8bf 133d 5b85 e2bc 9c59 483c
000000f0: 2009 45bd e337 003d 2c55 7b3d 83d1 653d
00000100: 76f8 81bd 8d0c b33d e091 ac3c a206 cc3d
00000110: 4382 6dbc 0e8e 88bc dc47 593d 03f2 11bd
00000120: 3c86 8b3d 215c 853d ccbd 623d bc02 953d
00000130: cf5c 983d 03a5 24bd c2ef 7cbb 4b62 9bbc
00000140: f7b0 d4bc 5f34 183c c133 713d 63d2 6b3d
00000150: 1606 793d 401a a53d b2db 5f3d 4f43 d3bc
00000160: 6464 9c3d d420 c8bc f00f 09bd 2388 f53b
00000170: c56d 9f3d 37b5 ac3d 37fe 58bd 7b84 893d
00000180: cf6f 8d3d e384 bfbc 9a32 853c bb29 12bb
00000190: 1ce7 613d 58e9 953d 275a af3d 2b20 883c
000001a0: 0a22 c1bc 5637 383d baeb bf3c 6183 2b3d
000001b0: 85b3 353d f37d 413d 9da8 54bc 6fce fdbc
000001c0: 982d 7bbd dbdd a7bb d475 353d 019b 7a3b
000001d0: 73af b93c e6b0 533d f7bf 093d 2d17 09bd
000001e0: a9b9 963d 7e48 233d fae8 bc3c 40f8 f93c
000001f0: e5ad 843a 9f66 fa3c f9e5 043c 1665 5ebd

network_body._body_endoder.seq_layers.2.weight f4 [128, 128]
0.15448728 -0.17345841 0.022926793 -0.19859129 0.022709377 0.031479217 -0.11067666 0.08985943
0.14410202 0.06242928 0.07224581 -0.060247872 0.18884169 -0.13901152 0.049936906 -0.056953236
0.020627374 -0.16858679 -0.24598642 0.010054155 0.046693504 0.08693448 0.14053105 -0.068738274
0.020981252 -0.0027024774 0.007827584 0.22342965 0.018708752 0.012991123 0.11606672 0.0972974
0.10237644 0.024515288 0.12567799 0.027201975 -0.16810142 0.08041005 -0.27191174 0.06400106
-0.018553907 -0.115813196 -0.093176976 -0.104428254 0.06467019 0.027179316 0.0028032777 0.09358401
-0.22435729 -0.17460509 0.045655157 -0.064913325 0.046956044 -0.104417525 -0.13522176 -0.11087029
-0.039755806 0.10397511 -0.07696067 0.18258837 -0.09379722 -0.019339792 0.14443246 0.1692364
-0.108209334 0.040905453 0.055485714 -0.019925095 0.12739913 0.08187192 -0.08179289 0.0070243217
0.030639924 -0.078635044 0.30229682 0.033500355 -0.016613731 -0.042936478 0.2885319 -5.7279118e-05
-0.06800952 -0.0801877 -0.0006175219 0.07414991 -0.06435188 -0.0105646355 -0.10639115 -0.08101497
0.07994125 -0.18404377 -0.081210755 0.04517556 -0.077456884 -0.30416423 -0.14176068 -0.072707005
-0.010087168 0.007335639 0.13844925 0.046703834 -0.07436729 0.038306396 0.0030954713 -0.0760278
0.10288539 -0.010918239 -0.06113612 -0.0069763074 0.14474519 -0.077421255 0.052973486 -0.10066455
-0.11523308 -0.0012957758 -0.11896564 0.06454775 -0.054379094 -0.013162444 -0.19322568 -0.039880347
-0.035230514 0.036985926 -0.022130968 0.036087036 0.096276335 0.06785461 -0.025328342 0.09364675
0.07644595 -0.111896515 0.12038572 0.10586247 -0.017530434 0.03855414 0.0064719077 -0.055987097
-0.16048788 -0.039185923 0.023351893 0.036387205 -0.22075054 0.1541867 -0.010483582 0.044517484
-0.24504101 -0.08436775 0.039974682 0.10380957 -0.049132723 -0.03486791 0.04238079 -0.15658385
-0.13346374 -0.17806038 -0.0754548 0.072241776 0.086787604 -0.031001521 -0.0016447583 0.11464154
-0.06456379 0.016630607 -0.08620654 0.011921131 0.14463417 0.04836756 0.10111757 0.087486014
0.13046505 0.04655499 -0.071686774 0.039591584 -0.057566527 -0.028063647 -0.13245267 0.20308894
0.11560172 0.015198318 0.17410906 0.029167151 0.06695396 0.097215384 -0.12357936 0.25004137
0.053611428 -0.08977169 0.2650953 0.003560305 0.10469527 0.12610154 0.088886686 -0.18040337
0.1566642 -0.1435064 0.15917046 0.026357416 -0.14682274 -0.009257855 0.014710103 0.021044211
0.027835594 -0.02258491 -0.15168217 -0.0046613486 -0.16106117 -0.13714696 0.014481539 -0.028652377
0.03979442 0.19251575 0.19320092 -0.014274066 -0.13968617 -0.1119216 0.00070954015 -0.17057075
0.06951933 -0.023435807 -0.2702329 -0.01392799 0.12138282 -0.031008665 -0.08106959 0.015124059
0.033683855 0.014465927 -0.03803475 -0.16391328 0.04792115 0.043958865 0.058001056 0.22645155
-0.012631656 -0.1661747 0.0057113254 -0.15618482 0.013928758 -0.20304859 -0.023381887 -0.06935335
0.005715978 0.071240075 -0.10518888 0.017181873 -0.08024186 -0.0096449815 0.03541264 -0.16231765
-0.21943437 -0.10732245 9.7719996e-05 -0.055340547 -0.034844387 0.07476378 -0.09666498 0.07490785
00000000: ea31 1e3e 159f 31be f8d0 bb3c 845b 4bbe
00000010: 0409 ba3c 5af0 003d 72aa e2bd 3908 b83d
00000020: 7b8f 133e d8b5 7f3d 9cf5 933d 79c6 76bd
00000030: b75f 413e 0959 0ebe a48a 4c3d cc47 69bd
00000040: bdfa a83c 04a2 2cbe dde3 7bbe 2fba 243c
00000050: b041 3f3d b40a b23d 5fe7 0f3e a7c6 8cbd
00000060: e0e0 ab3c 0c1c 31bb 443f 003c beca 643e
00000070: 1943 993c b8d8 543c 63b4 ed3d dc43 c73d
00000080: bdaa d13d 49d4 c83c bbb1 003e add6 de3c
00000090: c722 2cbe 06ae a43d 0438 8bbe fd12 833d
000000a0: 5dfe 97bc 782f edbd 92d3 bebd 7bde d5bd
000000b0: ce71 843d 28a7 de3c 32b7 373b f9a8 bf3d
000000c0: ebbd 65be adcb 32be e700 3b3d 47f1 84bd
000000d0: fb54 403d dbd8 d5bd 9377 0abe f60f e3bd
000000e0: fcd6 22bd e7f0 d43d 8e9d 9dbd 72f8 3a3e
000000f0: c218 c0bd 7c6e 9ebc 1ae6 133e 4f4c 2d3e
00000100: db9c ddbd 7a8c 273d fd44 633d f439 a3bc
00000110: eb74 023e 77ac a73d 0883 a7bd 482c e63b
00000120: 9400 fb3c 690b a1bd a6c6 9a3e ab37 093d
00000130: 8519 88bc 29de 2fbd 74ba 933e fc3e 70b8
00000140: 9348 8bbd 7339 a4bd 31e1 21ba e8db 973d
00000150: ebca 83bd 4b17 2dbc 9ae3 d9bd 2deb a5bd
00000160: 3db8 a33d f875 3cbe d351 a6bd 020a 393d
00000170: b7a1 9ebd 6abb 9bbe b629 11be 69e7 94bd
00000180: a644 25bc cd5f f03b a4c5 0d3e 854c 3f3d
00000190: e14d 98bd 2be7 1c3d 64dd 4a3b 77b4 9bbd
000001a0: 93b5 d23d 6ae2 32bc de69 7abd 8299 e4bb
000001b0: 1538 143e 098f 9ebd bafa 583d 3729 cebd
000001c0: 52ff ebbd 05d7 a9ba 42a4 f3bd 9c31 843d
000001d0: 9dbc 5ebd 4ba7 57bc f4dc 45be 9359 23bd
000001e0: df4d 10bd 8e7e 173d 014c b5bc 00d0 133d
000001f0: 872c c53d 5cf7 8a3d 627d cfbc dec9 bf3d
00000200: b28f 9c3d 002a e5bd ca8c f63d 6cce d83d
00000210: fc9b 8fbc f2ea 1d3d 4c12 d43b ba52 65bd
00000220: ef56 24be 6b81 20bd 784c bf3c c00a 153d
00000230: 6e0c 62be 1ee3 1d3e 54c3 2bbc f757 363d
00000240: 08ec 7abe 00c9 acbd 7ebc 233d 1d9a d43d
00000250: 653f 49bd a7d1 0ebd 7b97 2d3d 8457 20be
00000260: b8aa 08be 7655 36be 0c88 9abd 7ff3 933d
00000270: b3bd b13d e7f6 fdbc ee94 d7ba 2fc9 ea3d
00000280: 053a 84bd e93c 883c 0e8d b0bd d950 433c
00000290: fb1a 143e 101d 463d bb16 cf3d de2b b33d
000002a0: a198 053e 72b0 3e3d 84d0 92bd c92a 223d
000002b0: e1ca 6bbd bce5 e5bc aca1 07be 8cf6 4f3e
000002c0: 98c0 ec3d 5e02 793c a549 323e f3ef ee3c
000002d0: 281f 893d dc18 c73d 2d17 fdbd 6c05 803e
000002e0: a897 5b3d 38da b7bd 92ba 873e 0254 693b
000002f0: 796a d63d c320 013e 390a b63d a9bb 38be
00000300: 946c 203e 57f3 12be 95fd 223e 82eb d73c
00000310: b358 16be 42ae 17bc a502 713c e964 ac3c
00000320: 7907 e43c fd03 b9bc 9252 1bbe 3abe 98bb
00000330: 38ed 24be 4170 0cbe fa43 6d3c 64b8 eabc
00000340: 79ff 223d d922 453e 76d6 453e c6dd 69bc
00000350: e409 0fbe 2737 e5bd 6f00 3a3a 19aa 2ebe
00000360: 2760 8e3d 73fc bfbc f75b 8abe 3932 64bc
00000370: 8e97 f83d e205 febc d007 a6bd e7ca 773c
00000380: 15f8 093d 7f02 6d3c 53ca 1bbd e2d8 27be
00000390: f848 443d 360e 343d 8492 6d3d eae2 673e
000003a0: 01f5 4ebc b329 2abe 1226 bb3b eaee 1fbe
000003b0: 7235 643c f8eb 4fbe 5f8b bfbc 2109 8ebd
000003c0: 194d bb3b 51e6 913d 446d d7bd 00c1 8c3c
000003d0: d855 a4bd fc05 1ebc d80c 113d 9936 26be
000003e0: 67b3 60be dfcb dbbd 06ef cc38 c5ac 62bd
000003f0: fdb8 0ebd c11d 993d 4af8 c5bd 4969 993d
