results/TrainPeoplePuddleRandomHoles10Dicembre2/MoveToGoal/checkpoint.pt (torch, 637175 bytes, 40 tensors)

discrete_act_size_vector f4 [1, 2]
0	0x40400000	3.0
1	0x40400000	3.0

network_body._body_endoder.seq_layers.0.weight f4 [128, 68]
0	0x3e3d407d	0.18481632
1	0x3e5a9555	0.21346028
2	0x3e2ba6e9	0.1676289
3	0x3d1e6bc9	0.03867701
4	0x3dd65422	0.10465266
5	0x3c99a95e	0.018757518
6	0x3e1a15a8	0.15047324
7	0x3bdcb69e	0.006735637
8	0xbda623f1	-0.08112324
9	0xbd6bbb10	-0.057551444
10	0xbd1ad746	-0.037802957
11	0xbd8ed085	-0.06973366
12	0xbd408a9c	-0.04700719
13	0x3c2eb56d	0.010663372
14	0xba82ab48	-0.0009969259
15	0x3e5af6cc	0.21383208
16	0x3de8e771	0.11372269
17	0xbe4b14f0	-0.19832206
18	0xbe0b5ccd	-0.1360962
19	0x3d536440	0.051609278
20	0x3d28d2fe	0.041216843
21	0xbc9422a8	-0.018082932
22	0xbdd17465	-0.102272786
23	0xbe42cb0f	-0.19022773
24	0x3dbf7992	0.093493596
25	0x3d0c3eb1	0.034239475
26	0x3d029c26	0.031887196
27	0x3cc028dc	0.023456983
28	0x3cb1bf06	0.021697532
29	0x3e72f983	0.23727994
30	0xbba938e4	-0.0051642526
31	0x3d9c53b7	0.07633155
32	0x3d7bf437	0.0615122
33	0x3e2bfce7	0.16795693
34	0x3e14a217	0.14514957
35	0x3d494caf	0.049145397
36	0x3dabd1fc	0.08389661
37	0x3c76243a	0.0150232855
38	0xbeb5c3b2	-0.35500866
39	0x3db9a8a7	0.09065371
40	0x3e5bf309	0.2147943
41	0x3e0fd3f2	0.14045694
42	0x3d41826c	0.04724352
43	0x3e8ca0d8	0.27466464
44	0xbd69f17a	-0.057115056
45	0xbe3adb9e	-0.1824784
46	0xbc967f6a	-0.018371303
47	0x3e4cc997	0.19998775
48	0x3e16e63f	0.1473627
49	0x3bd741f7	0.006569143
50	0x3d1d50ef	0.038407262
51	0xbd0cebd3	-0.034404587
52	0x3d6f1dcd	0.05837803
53	0x3d336058	0.043793052
54	0xbd65bc05	-0.056087513
55	0xbe0c5a30	-0.13706279
56	0xbd827c02	-0.06371309
57	0x3e419767	0.18905412
58	0x3c62dacd	0.0138461115
59	0x3e11cb12	0.14237621
60	0x3e488ba4	0.19584519
61	0xbd04d119	-0.032425974
62	0x3e230cac	0.15922803
63	0xbe830d96	-0.25596303
64	0xbc318fce	-0.010837508
65	0x3d8ebc97	0.069695644
66	0xbe2d4511	-0.16920878
67	0xbdd8c666	-0.105847165
68	0x3d9e0d6a	0.07717402
69	0x3e4f526d	0.20246287
70	0xbc0f29b1	-0.008737967
71	0xbd93a3fc	-0.07209012
72	0x3e47ea31	0.1952293
73	0x3d29932d	0.041400123
74	0x3d779246	0.06044223
75	0xbc462202	-0.012093069
76	0xbdf2ab82	-0.11849119
77	0x3dad50f6	0.08462708
78	0x3e2eb6e8	0.1706196
79	0x3e3fca56	0.18729529
80	0xbe3b9bee	-0.18321201
81	0x3e64adda	0.22331944
82	0xbd3d6c47	-0.04624584
83	0xbbb8f346	-0.005644235
84	0x3da7bf4b	0.08190783
85	0x3ea09aa6	0.31367987
86	0xbdd3f338	-0.10349125
87	0x3d4baebf	0.049727198
88	0xbd84d63b	-0.06486174
89	0x3c90da7a	0.017682303
90	0x3e98b0ac	0.2982229
91	0xbcb6f1f6	-0.022332173
92	0xbd23013b	-0.039796095
93	0x3cfff40c	0.0312443
94	0xbe51d00b	-0.20489518
95	0x3dca589d	0.09880183
96	0xbe1f0769	-0.1553017
97	0x3e09db6a	0.13462606
98	0x3e38e2e1	0.18055297
99	0x3d6adc69	0.057339106
100	0xbdac05c9	-0.08399541
101	0x3d39fdc9	0.045408044
102	0x3c48293e	0.012216864
103	0xbc75521c	-0.01497319
104	0x3e0cc76d	0.1374795
105	0x3dc4c5bc	0.09608027
106	0x3e3cfda5	0.18456133
107	0xbe0bea85	-0.13663681
108	0x3dd0b35a	0.101904586
109	0xbd83b320	-0.0643065
110	0xbdabad0d	-0.08382616
111	0xbe4e635b	-0.20155089
112	0x3e029c94	0.12755042
113	0x3c4e3fd9	0.012588465
114	0x3c68d482	0.014210822
115	0xbd8fa181	-0.07013226
116	0xbde29fc4	-0.11065629
117	0x3db03857	0.08604496
118	0xbcfc4673	-0.030795312
119	0x3c9a2ec3	0.018821126
120	0xbc62f31d	-0.013851908
121	0x3e342e35	0.17595752
122	0x3e0a9134	0.13531953
123	0x3d974d45	0.07387785
124	0x3d8799b6	0.06621115
125	0xbd36b13f	-0.04460263
126	0x3dc9587f	0.098313324
127	0xbe99ab54	-0.30013525
128	0xbd09083b	-0.033455115
129	0x3d7b5d71	0.06136841
130	0xbd92e313	-0.07172217
131	0xbe35c7bb	-0.17751972
132	0x3e49f3e9	0.1972195
133	0x3db8a84c	0.09016475
134	0x3d77034d	0.060305882
135	0x3e205d62	0.15660623
136	0xbe5b25db	-0.2140116
137	0x3e7912df	0.24323605
138	0xbd30ff72	-0.04321236
139	0xbe3cf40e	-0.18452474
140	0xbd21ad69	-0.039472017
141	0x3e21b94b	0.1579334
142	0x3df3be0e	0.119014844
143	0xbd62c4bd	-0.055363405
144	0xbd752906	-0.059853576
145	0xbd860213	-0.065433644
146	0x3e2775ae	0.16353485
147	0x3c207728	0.009794034
148	0xbe064d77	-0.13115488
149	0xbde75be5	-0.11296824
150	0x3db10e3f	0.08645295
151	0xbdbf0061	-0.09326244
152	0x3d8f3822	0.06993128
153	0x3e104b24	0.14091164
154	0xbe365d44	-0.17809016
155	0xbd022946	-0.031777643
156	0x3d19f3af	0.03758591
157	0xbe3db6cf	-0.18526767
158	0x3be0e877	0.0068636495
159	0xbe52cb81	-0.20585443
160	0x3d40e760	0.047095656
161	0xbd377214	-0.044786528
162	0x3d1eebde	0.03879916
163	0x3cdec1db	0.027192047
164	0x3d395cbc	0.045254454
165	0xbdd85fbc	-0.10565135
166	0x3c328b4a	0.010897467
167	0xbd054756	-0.032538734
168	0x3db2f574	0.08738223
169	0xbbfc30a8	-0.00769623
170	0x3d263052	0.040573426
171	0x3ea1525c	0.31508148
172	0x3d5fa5bb	0.054601412
173	0xbe1bc568	-0.15212023
174	0xbcd4782e	-0.025936212
175	0x3e26207a	0.16223326
176	0x3e293c8f	0.16527008
177	0xbd9ceec9	-0.07662732
178	0xbba7d188	-0.0051214136
179	0x3eaa36a0	0.332448
180	0xbcc53d1a	-0.024076987
181	0xbc10afd2	-0.008830981
182	0x3eb0636e	0.3445086
183	0x3dfd53e8	0.123695195
184	0x3e407fd1	0.18798758
185	0x3ccdb968	0.025112823
186	0xbd175c5c	-0.036953315
187	0x3d60567d	0.05476998
188	0x3db88944	0.09010556
189	0xbd83e625	-0.06440381
190	0xbe19cbbe	-0.15019128
191	0x3daa8649	0.08326394
192	0xbdd96302	-0.10614587
193	0x3db82a66	0.08992462
194	0xbe4067bd	-0.18789573
195	0x3e03b674	0.12862569
196	0x3e36f5a9	0.1786715
197	0x3c4eabb7	0.012614182
198	0xbe42d4ab	-0.19026439
199	0x3ca99e4a	0.02070536
200	0x3e422308	0.18958676
201	0xbe784d07	-0.24248134
202	0x3cd04966	0.025425624
203	0x3e473dd5	0.19457181
204	0x3d05ddcd	0.03268223
205	0xbd11aaf4	-0.035563424
206	0x3e3fa4a1	0.18715145
207	0xbe114c19	-0.14189185
208	0xbc87ab73	-0.016561246
209	0x3cdc9e62	0.026930992
210	0x3d7e26d1	0.062048737
211	0xbd8ea7a9	-0.069655724
212	0xbdd71a1c	-0.10503027
213	0x3d29c0df	0.0414437
214	0x3dbd3695	0.09238926
215	0x3e39d42f	0.18147348
216	0x3e7d4452	0.24733093
217	0x3d3278ae	0.04357212
218	0x3e0dccf8	0.1384772
219	0xbe341f53	-0.17590074
220	0xbdaee6ec	-0.085401386
221	0xbde22226	-0.110416695
222	0xbd3d9df3	-0.04629321
223	0x3e44466a	0.19167486
224	0xbddeb14d	-0.10873661
225	0xbe0c743e	-0.13716218
226	0xbd940469	-0.07227404
227	0x3e15dd4e	0.14635202
228	0x3e5bebe1	0.214767
229	0xbd136002	-0.035980232
230	0xbd819d2a	-0.06328805
231	0x3c60a7c8	0.013711877
232	0xbe5d8161	-0.21631385
233	0xbdf20c8e	-0.11818801
234	0xbdae9064	-0.08523634
235	0xbdb2d809	-0.08732612
236	0x3c460869	0.012086966
237	0x3d6d57d8	0.057945102
238	0xbc5c2aba	-0.013437921
239	0x3ea9a979	0.3313711
240	0x3e03b6d4	0.12862712
241	0x3e29533f	0.16535662
242	0x3d981bec	0.07427201
243	0x3e520bab	0.20512263
244	0xbcbb038a	-0.022828836
245	0xbe517ad3	-0.2045701
246	0xbe315065	-0.17315824
247	0x3bdfa5b8	0.006825175
248	0x3e2be73e	0.1678743
249	0x3e0b49ab	0.13602321
250	0x3c462e44	0.0120959915
251	0xbdbaeb58	-0.091269195
252	0xbc537db3	-0.012908387
253	0xbd6ff6ca	-0.058584966
254	0x3e2321ce	0.15930864
255	0x3ce5663a	0.028002847

network_body._body_endoder.seq_layers.0.bias f4 [128]
0	0x3c4c1021	0.012455017
1	0x3d7bdb40	0.06148839
2	0x3d876dce	0.066127405
3	0x3cd4a37f	0.025956867
4	0x3cca8b34	0.02472458
5	0x3cd28b05	0.025701055
6	0x3d6964b3	0.0569808
7	0xbc77b339	-0.015118414
8	0x3d91bf08	0.071165144
9	0xbbad71a9	-0.0052930904
10	0x3d06738f	0.03282505
11	0x3d074f9e	0.033034913
12	0x3da229ad	0.07918105
13	0x3d8b4613	0.06800475
14	0x3d807fcb	0.062743746
15	0x3cf0390b	0.029324075
16	0x3d33613c	0.0437939
17	0x3cb8054c	0.022463463
18	0x3d565867	0.0523304
19	0x3d122a2a	0.035684742
20	0xbdebfe7f	-0.11523151
21	0x3d939564	0.072062284
22	0x3d203742	0.039115198
23	0x3d712eb8	0.058882445
24	0xbbc28d5c	-0.0059372615
25	0xbd47e67c	-0.04880379
26	0xbd8e060e	-0.069347486
27	0x3b88b821	0.0041723405
28	0x3da3062b	0.07960161
29	0xbc172b55	-0.00922664
30	0x3d1e2c7f	0.038616654
31	0x3d6a9ddc	0.057279453
32	0xba339f6a	-0.00068520627
33	0x3d3992e3	0.045306098
34	0x3ced6a76	0.028981429
35	0x3c8592dd	0.016305381
36	0x3d3becfc	0.045880303
37	0x3d440c80	0.047863483
38	0xbd466d42	-0.04844404
39	0x3ad91841	0.0016563014
40	0x3d65b473	0.056080293
41	0xbb4c6bf7	-0.0031192282
42	0x3b4cb750	0.0031237192
43	0xbcaf0971	-0.021366807
44	0xbbaf51de	-0.0053503355
45	0xbd774f52	-0.06037838
46	0x3bb79950	0.005602993
47	0x3d28de64	0.041227713
48	0xb97a2118	-0.00023854186
49	0x3d6789a5	0.056527752
50	0xbc6f401d	-0.014602688
51	0x3d841275	0.06448833
52	0x3cb8a394	0.022538938
53	0x3b9b6f61	0.004743502
54	0x3d9370ec	0.071992725
55	0xbd014e39	-0.03156874
56	0x3d3d77fb	0.046257
57	0x3d1521e0	0.03640926
58	0xbcc506c1	-0.024051072
59	0x3c634acf	0.013872816
60	0xbb52c443	-0.0032160438
61	0x3d67512c	0.056473896
62	0x3c53a0e4	0.012916777
63	0x3a6b51fe	0.00089767564
64	0x3d7c60d9	0.0616158
65	0xbc1c4df3	-0.009540069
66	0x3d2a7e99	0.04162464
67	0x3d019c20	0.031643033
68	0x3d1bf405	0.038074512
69	0x3d803dee	0.06261812
70	0xbcf34baf	-0.029699175
71	0x3d885190	0.06656182
72	0x3d87727e	0.066136345
73	0x3cdd4241	0.027009131
74	0x3c403696	0.011731764
75	0x3b8c7113	0.0042859404
76	0x3d7815b8	0.060567588
77	0x3d53eb62	0.05173815
78	0x3c6595aa	0.0140127335
79	0x3d018449	0.031620298
80	0xbb2f92dc	-0.0026790416
81	0x3cb31ff7	0.021865828
82	0x3d139d1a	0.036038496
83	0x3d2d8759	0.042365406
84	0x3a2cbbf4	0.00065892865
85	0x3dada0dd	0.08477948
86	0x3cffa9f7	0.031208975
87	0x3d15732c	0.03648679
88	0x3d44cfa3	0.04804958
89	0x3cab6f8f	0.020927219
90	0x3d82d57f	0.063883774
91	0xbc068330	-0.0082099885
92	0x3c4eb37f	0.012616037
93	0x3db38ab1	0.08766688
94	0x3d605978	0.054772824
95	0xbc30b0ee	-0.010784371
96	0xbd08c59f	-0.03339159
97	0x3d4247e9	0.04743186
98	0x3c5deb1f	0.013544827
99	0x3cf2a3b0	0.029619068
100	0x3c6e2d59	0.014537179
101	0x3ce7cbdc	0.02829545
102	0xbd0ff8b4	-0.03514929
103	0x3d9749e5	0.07387141
104	0xbca95a30	-0.020672888
105	0x3da15fe3	0.07879617
106	0x3d9afa27	0.07567244
107	0x39f30a7b	0.0004635638
108	0x3da95520	0.082681894
109	0xbd02fa87	-0.031977203
110	0x3d5e8da4	0.054334298
111	0xbccfddc6	-0.025374305
112	0x3d1ce299	0.038302038
113	0xbcebfbce	-0.028806593
114	0x3b6095fc	0.0034269085
115	0xba03f12a	-0.00050331897
116	0x3d7b86f0	0.061407983
117	0x3c98c177	0.018646939
118	0x3d4ebc8a	0.050472774
119	0xbc802fba	-0.015647758
120	0x3d21a25a	0.03946147
121	0x3d1ed6f7	0.038779225
122	0x3d1c4424	0.03815092
123	0x3daded22	0.08492495
124	0xbc8c8c7a	-0.017156828
125	0x3d73a657	0.059484806
126	0x3d56d5e9	0.052450094
127	0x3d6dfd2d	0.058102775

network_body._body_endoder.seq_layers.2.weight f4 [128, 128]
0	0xbe2beef0	-0.16790366
1	0x3cbbd80d	0.02293017
2	0x3e08806d	0.1333024
3	0x3e70158b	0.23445718
4	0xbd8053b0	-0.06265962
5	0x3cbb23bd	0.02284419
6	0xbe26bfb1	-0.16284062
7	0xbd653656	-0.055960022
8	0x3e2b587d	0.16732974
9	0x3db8a79a	0.090163425
10	0x3dac75a4	0.08420876
11	0x3d20ff4e	0.039305978
12	0x3dd8816d	0.10571561
13	0xbcaa6961	-0.020802202
14	0x3d9b036c	0.07569012
15	0x3dbca2fa	0.09210773
16	0xbe49ec36	-0.19719014
17	0xbcab45a7	-0.020907236
18	0x3e41e24d	0.18933983
19	0x3dfbe48d	0.12299452
20	0xbdebf666	-0.11521606
21	0x3e0f5fee	0.14001438
22	0xbd3799fa	-0.044824578
23	0x3ccbd6bc	0.024882667
24	0xbd333c22	-0.04375852
25	0xbe014765	-0.12624891
26	0xbdd35752	-0.103193894
27	0x3d891a9d	0.06694529
28	0xbe132c3f	-0.14372347
29	0xbce32a2e	-0.027730074
30	0x3d3ff457	0.04686388
31	0xbc8c26e4	-0.017108388
32	0xbd8aa0db	-0.06768962
33	0xbd82cbbe	-0.06386517
34	0xbd66047f	-0.05615663
35	0x3da6d953	0.0814692
36	0xbd05e1b9	-0.03268597
37	0xbe89460b	-0.2681125
38	0xbc94090e	-0.018070724
39	0xbd8facad	-0.07015357
40	0x3dde234a	0.108465746
41	0x3d019039	0.031631682
42	0x3e05de1c	0.13073009
43	0x3dfe39b8	0.12413353
44	0xbe244bae	-0.16044495
45	0x3bb58583	0.0055395975
46	0xbd7b35de	-0.06133067
47	0x3df5379f	0.119734995
48	0x3d442937	0.047890868
49	0x3e114f2e	0.14190361
50	0x3b9e53be	0.00483176
51	0xbda2970b	-0.079389654
52	0x3b244e5f	0.0025071127
53	0xbe3cc063	-0.18432765
54	0xbc7a6941	-0.015283884
55	0x3e70e728	0.23525679
56	0x3d7c986c	0.0616688
57	0x3ddeec94	0.108849674
58	0xbd5c948d	-0.053852607
59	0x3b2776f1	0.0025553072
60	0x3defb814	0.11705032
61	0xbd4a7316	-0.04942616
62	0xbe20cfdf	-0.15704297
63	0x3d72f52b	0.05931584
64	0x3e222fed	0.15838595
65	0x3d20eb7f	0.039287087
66	0xbc3ac0ab	-0.011398475
67	0x3e337ced	0.17528124
68	0x3d518077	0.051147904
69	0x3ae5bdb2	0.0017527847
70	0x3e150774	0.14553624
71	0x3d45b378	0.048266858
72	0x3dd85dd4	0.10564771
73	0xbd51bf9a	-0.051208116
74	0x3d834cad	0.06411109
75	0xbd928798	-0.07154769
76	0x3d1e9ec6	0.038725637
77	0xbdb0cd02	-0.08632852
78	0xbe09240e	-0.1339266
79	0x3c833091	0.01601437
80	0xbd0ae332	-0.033908077
81	0xbe6b6030	-0.22985911
82	0xbe322120	-0.17395449
83	0x3e1b41c0	0.151618
84	0x3c56a194	0.013100047
85	0xbd398d2a	-0.04530064
86	0x3b3dad6b	0.0028942476
87	0xbdc2b361	-0.0950687
88	0xbdbd0374	-0.09229174
89	0x3d1c6679	0.038183663
90	0x3dd19ad7	0.102346115
91	0xbdc776a2	-0.09739424
92	0xbde0ede2	-0.109828725
93	0xbd0e75b8	-0.034780234
94	0x3e887a25	0.2665569
95	0xbc87c30b	-0.016572496
96	0x3ddfd482	0.109292045
97	0x3e0d51df	0.13800763
98	0x3c98b731	0.01864204
99	0x3dbb348a	0.091408804
100	0x3cd6f3f0	0.026239365
101	0x3d20f58b	0.039296668
102	0xbd9e1365	-0.07718543
103	0x3e4c7506	0.19966516
104	0x3d0a1512	0.0337115
105	0x3c3dfe32	0.011596249
106	0x3e17ab5b	0.1481146
107	0xbd3513df	-0.044208404
108	0x3e6a78ff	0.22897719
109	0x3ceac450	0.028658062
110	0x3cabe6fa	0.020984162
111	0xbc8a3bb9	-0.016874181
112	0xbdee1beb	-0.11626419
113	0x3d31b5ef	0.043386396
114	0xbd98c78f	-0.07459938
115	0x3db0697b	0.08613869
116	0x3cbd5f6d	0.023116792
117	0x3c6fcb47	0.014635867
118	0xbe10e4ab	-0.1414973
119	0xbcbf48c3	-0.023350125
120	0x3d4d909c	0.05018674
121	0xbdb523e8	-0.08844739
122	0x3b9e4572	0.004830056
123	0xbcce1f62	-0.025161449
124	0xbcaee032	-0.021347139
125	0x3d9c532a	0.0763305
126	0x3cf5eef8	0.030021176
127	0xbe0710fa	-0.1319007
128	0xbc441042	-0.011966767
129	0xbd12e34b	-0.035861295
130	0xbe07b099	-0.1325096
131	0x3db84362	0.08997227
132	0x3bab3342	0.0052246163
133	0xbcbe9ad0	-0.02326718
134	0xbe455fd0	-0.19274831
135	0x3e197b30	0.14988399
136	0x3bc9cc70	0.006158404
137	0xbb8d8d4c	-0.0043198224
138	0x3db50021	0.08837915
139	0x3ceffd85	0.029295692
140	0xbe6527bb	-0.22378437
141	0xbcc23b2a	-0.023709852
142	0xbbb03fa9	-0.0053786826
143	0x3d978a69	0.073994465
144	0xbe4cc7d0	-0.19998097
145	0x3d0d7b6a	0.034541525
146	0x3cc4bc68	0.02401562
147	0x3d0e2273	0.034700822
148	0xbd92de36	-0.071712896
149	0x3c30a4ca	0.010781476
150	0x3d58fa75	0.05297323
151	0xbd00aba5	-0.031413693
152	0xbd36db8a	-0.044642963
153	0xbd8ca5ad	-0.06867538
154	0x3dc2a00e	0.09503184
155	0xbcac16c7	-0.021006955
156	0xbd1f9790	-0.0389629
157	0x3dd818d9	0.10551614
158	0x3d789e71	0.060697976
159	0xbda033eb	-0.078224026
160	0xbc9c7b6f	-0.019101826
161	0xbd1eda72	-0.038782544
162	0xbd0b4825	-0.03400435
163	0x3e6133e1	0.21992446
164	0x3d6873ca	0.05675105
165	0xbd970c5f	-0.073754065
166	0x3ddfb355	0.10922877
167	0x3c58d9ec	0.01323555
168	0xba9eb473	-0.0012108221
169	0xbdfc1116	-0.123079464
170	0x3e11fcac	0.14256543
171	0x3d8cbce7	0.06871968
172	0x3e128d49	0.14311709
173	0xbd93f153	-0.07223763
174	0xbdfb7fbf	-0.12280225
175	0xbdabfe79	-0.08398146
176	0xbda82908	-0.08210951
177	0x3d19ef59	0.037581775
178	0xba4e2f7c	-0.0007865352
179	0xbdb9a053	-0.090637825
180	0xbd943f07	-0.07238584
181	0x3d808843	0.0627599
182	0x3defca6a	0.11708529
183	0x3d2ab2c7	0.0416744
184	0xbd4aec5f	-0.049541827
185	0x3d99fce6	0.0751894
186	0x3dc8b724	0.09800556
187	0x3da8f21f	0.08249306
188	0xbd4d8518	-0.050175756
189	0xbe155800	-0.1458435
190	0x3e0ecc54	0.13945132
191	0xbde5a1eb	-0.11212524
192	0x3d85798b	0.06517323
193	0x3dd449f5	0.10365669
194	0x3daebba4	0.08531883
195	0xbd5e69b2	-0.054300018
196	0x3d2b6b2b	0.04185025
197	0xbd915faa	-0.070983246
198	0x3e12e6e5	0.14345892
199	0xbd809885	-0.06279091
200	0xbe47c767	-0.1950966
201	0xbd6c032d	-0.057620216
202	0x3b86f295	0.0041182735
203	0x3e2c95f9	0.16854085
204	0x3db547ca	0.08851583
205	0x3c85f2d8	0.016351148
206	0x3d51f89d	0.051262487
207	0x3da5ca1a	0.080951884
208	0x3d8fb913	0.07017722
209	0x3cec8464	0.028871723
210	0xbd3e99b1	-0.04653329
211	0x3e2a7c1e	0.1664891
212	0x3daa00e1	0.08300949
213	0xbd89a7ea	-0.0672148
214	0xbc9e28fc	-0.019306652
215	0x3d1e3b97	0.038631048
216	0x3d38b681	0.045095924
217	0x3b565cee	0.00327092
218	0xbd235879	-0.039879296
219	0xbd085ab2	-0.03328962
220	0x3b7d8a09	0.0038687012
221	0xbcb2c720	-0.021823466
222	0x3d85157b	0.06498238
223	0xbbdc9c12	-0.006732472
224	0xbd2f102f	-0.042740043
225	0xbd5c9507	-0.05385306
226	0xbd2be64f	-0.041967686
227	0x3dab3d0a	0.08361252
228	0xbd5b0823	-0.053474557
229	0x3d24f228	0.04027
230	0xbd57a374	-0.052646115
231	0xbdbe2e8c	-0.09286222
232	0x3d916809	0.07099921
233	0xbd3f2aa1	-0.046671513
234	0xbdbaae3c	-0.09115264
235	0xbdcbbbe1	-0.099479444
236	0xbdeece4e	-0.11660443
237	0xbcc9709a	-0.024589825
238	0xbd7696b8	-0.06020233
239	0x3af23cb2	0.0018481223
240	0x3c949e18	0.018141791
241	0x3e2e686e	0.17032024
242	0x3e1074ac	0.14107007
243	0x3da51cb4	0.08062115
244	0x3d6fb39d	0.058520902
245	0x3d5745e7	0.0525569
246	0xbd9a2d95	-0.07528225
247	0xbd27f42a	-0.041004337
248	0xbd28f57f	-0.04124975
249	0xbd66dd09	-0.05636314
250	0xbca9e383	-0.020738369
251	0xbdb49d8e	-0.08819114
252	0x39abf43a	0.00032797625
253	0xbdc5827d	-0.09644029
254	0xbd35f27f	-0.044420715
255	0xbe3e4d39	-0.18584146

network_body._body_endoder.seq_layers.2.bias f4 [128]
0	0x3c9c00e7	0.019043399
1	0xbc76add2	-0.01505609
2	0xbc9f3233	-0.019433117
3	0x3cc8234e	0.024430897
4	0x3d3b824e	0.045778565
5	0xbca82040	-0.02052319
6	0x3bc10126	0.0058900295
7	0x3bef7ac7	0.0073083374
8	0xbd00b3e0	-0.031421542
9	0x3d43dccf	0.047818
10	0x3d417d23	0.04723848
11	0x3da0c0ca	0.078492716
12	0x3c1b969f	0.00949636
13	0xb80e7a71	-3.396947e-05
14	0x3d56080e	0.052253775
15	0x3c8fa03c	0.01753246
16	0xbc2cca26	-0.010546243
17	0x3d2ba1b9	0.041902278
18	0xbc39349f	-0.01130405
19	0x3d2abafd	0.041682232
20	0x3d924b03	0.071432136
21	0x3c6eadf1	0.014567838
22	0xbba18be7	-0.0049300077
23	0x3bdafde5	0.0066830986
24	0x3d331a23	0.043726098
25	0x3bd9dc63	0.0066485866
26	0xbc86f448	-0.016473904
27	0x3d98d8fd	0.07463262
28	0x3d0fa42f	0.035068687
29	0x3d683b2e	0.056697063
30	0x3cd52c7d	0.02602219
31	0x3b1fe700	0.0024399161
32	0x3d6858fb	0.056725483
33	0xb9a83c94	-0.0003208859
34	0x3d695844	0.056968942
35	0x3bbf5166	0.005838561
36	0x3d4dfd77	0.05029055
37	0x3c8597bb	0.016307702
38	0x3d4e6c31	0.050396148
39	0x3d62d4bb	0.055378657
40	0x3d61abeb	0.055095594
41	0x3d6ca108	0.05777076
42	0x3bf0a6a9	0.007344086
43	0xbb6e0c77	-0.0036323348
44	0x3d6a4760	0.057196975
45	0x3c847bf8	0.016172394
46	0x3d5c3fe8	0.053771883
47	0x3ccdedaa	0.025137741
48	0x3c663d1b	0.014052655
49	0x3d0e1e1f	0.034696694
50	0x3d68f0cd	0.05687027
51	0x3c18f438	0.00933557
52	0x3bc1c9ff	0.0059139724
53	0x3d560313	0.052249026
54	0xbcbdd565	-0.023173044
55	0x3d34de69	0.04415742
56	0x3cfb77da	0.030696798
57	0x3cc251ca	0.02372064
58	0xbbbab0ec	-0.0056973603
59	0x3ccb9742	0.024852399
60	0x3d25575f	0.040366527
61	0x3cdf4a37	0.027257068
62	0xbc2e3ace	-0.010634137
63	0x3d8710a1	0.065949686
64	0x3cf749d2	0.030186567
65	0x3cd6cc29	0.026220398
66	0xba5d56e7	-0.00084434304
67	0x3d47190a	0.048607863
68	0x3b86ffc8	0.004119847
69	0x3cb387a7	0.02191527
70	0xbbd30ad0	-0.006440498
71	0x3bc38079	0.005966243
72	0x3d28c9dd	0.041208137
73	0xbc63cf3c	-0.013904389
74	0xbcae5e2f	-0.021285145
75	0xbb778ecf	-0.003777433
76	0x3d7d6a81	0.06186915
77	0xbc8b1fdf	-0.01698297
78	0xbb6a1e42	-0.0035723601
79	0xbd3ae606	-0.045629524
80	0x3c6f5303	0.014607194
81	0x3d0b65f4	0.034032777
82	0xbc80413c	-0.015656106
83	0x3d0264d5	0.031834442
84	0x3cff0677	0.031131012
85	0x3cd52954	0.026020683
86	0x3c0edba2	0.008719357
87	0x3c64afe1	0.013957948
88	0xbb6cfbc3	-0.0036160804
89	0xbc93202c	-0.017959677
90	0x3c361fc7	0.011115975
91	0x3c2d8f7f	0.010593294
92	0x3d15d28b	0.036577743
93	0x3ce35635	0.027751068
94	0xbc7040f8	-0.014663927
95	0x3b05310c	0.0020323424
96	0xbc0ffff4	-0.008789051
97	0xbbdf78c7	-0.0068198177
98	0x3ca6678c	0.020313047
99	0xbc1f025d	-0.009705153
100	0xbab76ff4	-0.0013995157
101	0xbd11b9c1	-0.03557754
102	0x3b968462	0.004593418
103	0xbc45d39c	-0.012074377
104	0x3d541986	0.051782154
105	0x3d734c9a	0.059399225
106	0x3d1cc8dc	0.038277492
107	0x3d43ce12	0.047803946
108	0x3d2ca2ef	0.042147573
109	0x3cd4a993	0.025959766
110	0x3d802f25	0.06258992
111	0xbbb90887	-0.0056467685
112	0x398e5111	0.0002714475
113	0xbb8fb72d	-0.00438585
114	0x3d592db6	0.05302211
115	0x3d3ed5e2	0.046590693
116	0x3d1da87f	0.03849077
117	0x3c5c5c8c	0.013449799
118	0x3c8e0c13	0.017339742
119	0x3d2aa0f0	0.04165739
120	0xbb38a5d0	-0.0028175004
121	0xbc13890e	-0.009004844
122	0x3c900624	0.017581053
123	0x3c1bdb64	0.009512756
124	0x3d4c7412	0.04991538
125	0x3d7bf91e	0.061516874
126	0x3d41d8c4	0.047325864
127	0x3cb31647	0.021861209

action_model._discrete_distribution.branches.0.weight f4 [3, 128]
0	0x3d5df6e5	0.054190535
1	0xbd07bda0	-0.033139825
2	0xbd71983e	-0.05898308
3	0x3d477143	0.048692
4	0x3d232dc0	0.039838552
5	0xbd763a88	-0.060114413
6	0xbd2e35fa	-0.042531945
7	0xbd8e2c7f	-0.06942081
8	0xbd90c43f	-0.07068681
9	0x3cc7df04	0.024398334
10	0x3d6def00	0.058089256
11	0x3d42a8f6	0.047524415
12	0xbda04ecf	-0.078275315
13	0x3c08b25e	0.008343307
14	0x3d32d35e	0.043658607
15	0xbd5b84d4	-0.05359347
16	0xbd405694	-0.046957567
17	0x3d796692	0.060888834
18	0xbd3ec34d	-0.046572972
19	0x3d91c719	0.07118053
20	0x3db7592e	0.089525566
21	0xbd50f555	-0.051015217
22	0x3c36d3ce	0.011158897
23	0xbcbf657d	-0.023363823
24	0x3dbb6a75	0.091511644
25	0xbdbb8a83	-0.091572784
26	0xbc825e8f	-0.01591423
27	0x3d79292e	0.060830288
28	0xbcf6319e	-0.030052956
29	0x3dacb7e3	0.08433511
30	0x3d232717	0.0398322
31	0xbcec331f	-0.02883297
32	0x3d8a2675	0.06745616
33	0xbd07e342	-0.033175714
34	0x3dc3b48a	0.095559195
35	0xbdbcc8ae	-0.09217964
36	0x3d824f8e	0.0636283
37	0xbb43f247	-0.0029899047
38	0x3d90ab40	0.07063913
39	0x3d5e4091	0.054260794
40	0xbbe50d12	-0.0069900835
41	0x3d2d23b4	0.042270377
42	0xbcd339c2	-0.025784377
43	0x3ac8b9c4	0.0015314152
44	0x3dbca4fe	0.09211157
45	0xbd08c335	-0.03338929
46	0xbb8da507	-0.0043226513
47	0xbc4f6686	-0.012658721
48	0xbdfcb2a8	-0.123387635
49	0x3d40be18	0.047056288
50	0x3d049258	0.032366127
51	0xbdd680bf	-0.10473775
52	0xbb70f750	-0.0036768503
53	0x3d8e0f07	0.0693646
54	0xbd706f27	-0.058699753
55	0xbb5643f8	-0.003269432
56	0x3ca45458	0.02005975
57	0x3bccff5e	0.006256028
58	0xbdd53db0	-0.104121566
59	0xbb8c8b20	-0.004289046
60	0xbc201ec5	-0.009772961
61	0x3d86e7c0	0.065871716
62	0xbd6b993c	-0.057519183
63	0x3cec2d59	0.028830217
64	0x3c52a807	0.012857444
65	0x3da2f151	0.07956184
66	0xbda5f184	-0.08102706
67	0x3dc3bd70	0.09557617
68	0x3d0b86e8	0.034064204
69	0x3d17217d	0.03689717
70	0xbdc18bf2	-0.094505206
71	0xbd81e107	-0.06341749
72	0x3c7b1d6e	0.015326841
73	0xbcbc72cf	-0.023003964
74	0xbc5d35c3	-0.013501587
75	0xbd5eccf4	-0.054394677
76	0x3c864545	0.016390452
77	0xbbdd1d29	-0.006747861
78	0xbc7f6368	-0.015587665
79	0xbce9adcd	-0.028525257
80	0x3d174850	0.036934197
81	0x3d8bcebc	0.06826541
82	0xbd4f0855	-0.050545055
83	0x3d304916	0.04303845
84	0x3d07e488	0.03317693
85	0x3be57a6e	0.00700312
86	0xbd5baccc	-0.05363159
87	0xbd97626d	-0.0739182
88	0xbd6ed09e	-0.05830442
89	0xbd39e8bb	-0.045387965
90	0x3c941dda	0.01808064
91	0x3d04c933	0.03241844
92	0x3cd1727d	0.025567288
93	0xbd04e0b9	-0.032440875
94	0xbd9919a5	-0.074755944
95	0xbcfc3d23	-0.030790871
96	0xbd7e0df4	-0.062025025
97	0xbbe59597	-0.007006358
98	0xbce64915	-0.02811102
99	0xbdac147e	-0.08402346
100	0xbd6031d1	-0.05473501
101	0xbcbc2238	-0.022965536
102	0xbda0a755	-0.07844416
103	0xbbc019d4	-0.005862454
104	0x3d7423ef	0.05960458
105	0x3db16c38	0.08663219
106	0xbc014790	-0.007890597
107	0xbce97df2	-0.028502438
108	0xbc5c38ca	-0.013441274
109	0x3c88e751	0.016711863
110	0x3d8626ea	0.06550391
111	0xbd8a219c	-0.06744692
112	0xbdbc84a9	-0.092049904
113	0xbdabeee4	-0.08395174
114	0x3d6122b4	0.054964736
115	0x3bd8eecb	0.006620263
116	0x3d8afafb	0.06786152
117	0x3d3baa5b	0.04581676
118	0xbceb1c8c	-0.028700136
119	0x3d8fa879	0.070145555
120	0xbdda43cb	-0.10657462
121	0xbda7723c	-0.08176085
122	0xbd8c250d	-0.068430044
123	0x3d12430c	0.035708472
124	0x3d68eadf	0.056864616
125	0x3d3aeb1c	0.045634374
126	0x3dc351d4	0.09537092
127	0x3d8e5d10	0.06951344
128	0xbd19a2ec	-0.03750889
129	0x3b9ba106	0.00474942
130	0xbcee33c1	-0.029077413
131	0xbdaf4c1b	-0.08559438
132	0xbe155386	-0.14582643
133	0xbb0897f8	-0.0020842534
134	0xbd181329	-0.037127648
135	0x3da751ff	0.081699364
136	0x3ccde773	0.025134778
137	0xbe21510c	-0.15753573
138	0x3cfc4e01	0.030798914
139	0x3c1326a9	0.008981385
140	0x3d418ad4	0.047251537
141	0xbd97fdfb	-0.0742149
142	0xbddde0a8	-0.108338654
143	0xbd98a340	-0.074530125
144	0xbbcf826a	-0.0063326852
145	0x3d64598d	0.055749465
146	0xbd14d57f	-0.03633642
147	0xbe02c910	-0.12772012
148	0x3d3226f8	0.043494195
149	0xbdc7a43e	-0.097481236
150	0xbdc65ff7	-0.096862726
151	0xbd69732a	-0.056994595
152	0xbd980efc	-0.07424733
153	0x3a22f531	0.0006216346
154	0xbd51d88f	-0.051231917
155	0xbda5a650	-0.08088362
156	0xbdf7fb5d	-0.121084906
157	0xbe07492d	-0.13211508
158	0xbd4c953e	-0.049947016
159	0xbda40d95	-0.08010403
160	0x3d740de3	0.059583556
161	0xbd95f60c	-0.0732232
162	0xbd88370a	-0.06651123
163	0x3dd5f8d1	0.104478486
164	0xbddb2cc6	-0.10701899
165	0x3d9601a9	0.073245354
166	0x3d3edae0	0.046595454
167	0x3ce3cbe7	0.02780719
168	0xbd6b8338	-0.057498187
169	0xbde717fe	-0.11283873
170	0xbd269663	-0.040670764
171	0x3ccb47c9	0.024814503
172	0x3b05d602	0.0020421748
173	0x3d59743f	0.053089377
174	0xbdd81fe7	-0.1055296
175	0x3db04493	0.086068295
176	0x3da14d93	0.07876124
177	0x3d2bbd0d	0.04192834
178	0xbdd0c8bc	-0.10194537
179	0xbc2448a0	-0.010027081
180	0xbdadd45f	-0.08487772
181	0xbd850bb6	-0.06496374
182	0xbc9b11a8	-0.018929318
183	0x3c8a7d54	0.016905464
184	0xbdfd6ce9	-0.123742886
185	0x3d9cc231	0.076542266
186	0x3d74bed9	0.05975232
187	0xbd85c77c	-0.06532189
188	0xbe13e423	-0.14442496
189	0xbd824a87	-0.06361871
190	0xbc174756	-0.009233316
191	0x3d0f681e	0.035011403
192	0xbe0b6b27	-0.13615094
193	0xbce39421	-0.027780594
194	0x3da13c5c	0.07872841
195	0xbd75b37c	-0.059985623
196	0xba92cc21	-0.0011199751
197	0x3d1daec3	0.038496744
198	0x3bef66fa	0.007305977
199	0x3d89813d	0.06714103
200	0xbe1673df	-0.14692639
201	0x3d894960	0.06703448
202	0xbd6f0408	-0.058353454
203	0x3ca753cb	0.020425698
204	0x3d780528	0.060551792
205	0xbcc227be	-0.023700591
206	0xbd3523ab	-0.04422347
207	0x3c84a676	0.016192656
208	0xbc30a0bc	-0.01078051
209	0x3c91712b	0.017754158
210	0x3d94090c	0.07228288
211	0xbc41da62	-0.011831852
212	0xbd03a066	-0.03213539
213	0x3dafd437	0.08585399
214	0xbd8e06aa	-0.06934865
215	0xbd78d5e5	-0.06075086
216	0x3d8bda37	0.068287306
217	0xbcfc2bf0	-0.03078267
218	0x3b78f682	0.0037988727
219	0x3a1c4b6d	0.0005962167
220	0x3d825c13	0.06365218
221	0xbdc5069d	-0.09620402
222	0x3d66ba1c	0.05632983
223	0x3d998ca6	0.0749753
224	0x3d60d7a0	0.054893136
225	0xbc904cbd	-0.017614717
226	0x3e0b988f	0.13632415
227	0x3d8ba61b	0.068187915
228	0x3dacd4e9	0.08439047
229	0xbaadbf3f	-0.0013255848
230	0x3db39fab	0.087706886
231	0xbd0b7433	-0.034046363
232	0xbdc26161	-0.0949123
233	0xbd8ca220	-0.068668604
234	0x3ddc8778	0.10768026
235	0xbc9ffb7e	-0.0195291
236	0xbdcd9964	-0.100390226
237	0xbe09b9eb	-0.13449828
238	0xbd17c410	-0.037052214
239	0x3d5e1342	0.054217584
240	0xbce5abcb	-0.028036019
241	0x3de8a22c	0.11359057
242	0x3d1114e6	0.03542032
243	0x3d56b7c8	0.05242136
244	0xbb73c847	-0.0037198232
245	0x3d497228	0.049181134
246	0xbe06d103	-0.13165669
247	0xbd8a810c	-0.06762895
248	0x3b54fb60	0.0032498464
249	0x3d9513b5	0.072791494
250	0x3df1f352	0.11813988
251	0xbd8ec920	-0.06971955
252	0x3d4d84fc	0.050175652
253	0x3d78a426	0.06070342
254	0x3cb40005	0.021972666
255	0xbd5435c3	-0.051809084

action_model._discrete_distribution.branches.0.bias f4 [3]
0	0x3c7b5122	0.015339168
1	0xbc0b7a37	-0.008513025
2	0xbc2954e5	-0.010335182

action_model._discrete_distribution.branches.1.weight f4 [3, 128]
0	0x3c14f77c	0.009092208
1	0xbb464dce	-0.0030258778
2	0xbc9c8ab5	-0.01910911
3	0x3901a170	0.00012362539
4	0x3d40d427	0.047077324
5	0xbbda9d38	-0.006671574
6	0x3beea184	0.0072824378
7	0xbb9eed68	-0.0048500784
8	0xbc98e33e	-0.018663045
9	0x3c8da41c	0.017290168
10	0x3d0c520f	0.034257945
11	0x3d0e4aa1	0.03473914
12	0xbcf8ead4	-0.030385412
13	0xbc931345	-0.017953524
14	0x3d09473e	0.033515207
15	0xbbedaf94	-0.0072535966
16	0xbbbdbf42	-0.005790622
17	0x3b87c407	0.0041432413
18	0xbbd07f44	-0.0063628275
19	0xbacf472f	-0.0015814061
20	0x3d091a27	0.033472206
21	0xbd1ddfce	-0.038543515
22	0xbcb1ca98	-0.02170305
23	0xbc9800e4	-0.018555112
24	0x3c410eec	0.011783343
25	0x3b4aceb2	0.0030945954
26	0xbd1429c7	-0.036172654
27	0x3ce51d66	0.02796812
28	0x3cee7906	0.029110443
29	0xbc4ec006	-0.012619024
30	0x3b0d35ae	0.0021546888
31	0xb85aa894	-5.213225e-05
32	0x3b814208	0.003944639
33	0xbb3dc71b	-0.0028957787
34	0x3d0ad5a6	0.033895157
35	0xbc297507	-0.010342843
36	0x3bd7b78a	0.006583159
37	0x3bef2c71	0.007298999
38	0x3b5d42a9	0.0033761656
39	0x3baa1cff	0.005191445
40	0x3c9ac123	0.018890923
41	0x3d050a99	0.03248081
42	0xbce3aa2e	-0.027791109
43	0x3b3b4d2f	0.002857994
44	0x3d36c739	0.044623587
45	0x3d1c371b	0.03813849
46	0x3d0cf025	0.034408707
47	0x3a5af13d	0.00083519873
48	0xbc83a77f	-0.01607108
49	0x3cb2af0c	0.021811984
50	0x3c96f282	0.018426184
51	0xbc2752c1	-0.010212601
52	0x3c53992f	0.01291494
53	0x3a28cbbf	0.0006439052
54	0x3b3bde1d	0.0028666325
55	0x3cf1cc60	0.029516399
56	0x3c45dfb5	0.012077262
57	0x3b7ace48	0.0038269926
58	0x3c8e01fe	0.017334934
59	0x3d02560d	0.031820346
60	0x3ceda974	0.029011466
61	0x3c2432f9	0.010021918
62	0xbcdb6a02	-0.026783947
63	0x3d74d242	0.05977083
64	0x3c073473	0.008252251
65	0x3a542390	0.00080924574
66	0xb90b4c6a	-0.0001328454
67	0x3cc8e7b9	0.024524556
68	0xbc077b2b	-0.008269112
69	0x3c328552	0.010896044
70	0xbc95c77f	-0.018283604
71	0xbb6e0d30	-0.0036323778
72	0xbb2e1979	-0.0026565476
73	0xbc69e547	-0.014275855
74	0xbcbc22b4	-0.022965766
75	0x3bd473ee	0.0064835465
76	0x3cffcde5	0.031226108
77	0x3c357171	0.01107441
78	0xbc77656c	-0.015099864
79	0xbd46546e	-0.048420362
80	0x3b262892	0.0025353772
81	0x3c2dee87	0.010615951
82	0xbcdf51a3	-0.027260607
83	0x3ace9c94	0.0015763217
84	0x3cf1f9e8	0.02953811
85	0x3bb30208	0.0054628886
86	0xbbf48f39	-0.0074633625
87	0x3adec7d1	0.0016996806
88	0x3b5ff632	0.0034173843
89	0xbd35f828	-0.044426113
90	0x3bb5b5f3	0.0055453717
91	0x3c650d05	0.013980155
92	0x3c36af30	0.011150166
93	0x3ba0df64	0.0049094427
94	0xbcf20e12	-0.029547725
95	0x3c421c6e	0.0118475985
96	0xbb0bb00e	-0.0021314654
97	0xbc3b1520	-0.011418611
98	0xb9a5f2f3	-0.00031652264
99	0xbc7581dc	-0.014984574
100	0xbc81b029	-0.01583107
101	0xbce73515	-0.028223554
102	0xbc3ccd16	-0.011523506
103	0xbc67cc00	-0.0141477585
104	0x3cb9338e	0.022607591
105	0x3d16194a	0.03664521
106	0x3c9050a9	0.017616587
107	0x3db967dd	0.090530135
108	0x3c525908	0.0128386095
109	0xbb803e3e	-0.00391367
110	0x3d2be6a6	0.04196801
111	0xbc972ecc	-0.018454932
112	0xbc131797	-0.008977792
113	0xbc87d3f1	-0.016580554
114	0x3bf05dc8	0.0073353983
115	0x3d501d13	0.050808977
116	0x3cfc445e	0.030794319
117	0xbc37f615	-0.011228104
118	0xbbd70338	-0.006561663
119	0xbaa90e45	-0.0012897929
120	0xbcaf0ce7	-0.021368457
121	0x3c20e73b	0.009820755
122	0xbc1036e8	-0.008802153
123	0xbcb1f8b7	-0.021725042
124	0x3cd9e280	0.026597261
125	0x3d43f5df	0.047841903
126	0x3aabd612	0.0013110063
127	0xbb675c17	-0.0035302693
128	0x3c82f199	0.015984343
129	0xbc6d6055	-0.014488299
130	0xbc81feed	-0.015868628
131	0x3ce2cd8d	0.027685905
132	0x3c052507	0.008126504
133	0xbb996546	-0.004681262
134	0x3c6181b4	0.013763834
135	0xbd103f84	-0.035216823
136	0x3b98d7c6	0.004664394
137	0x3c903137	0.017601592
138	0x3b6ee2db	0.0036451134
139	0x3d512c12	0.05106742
140	0xbd1caf1d	-0.03825294
141	0x3cad7ada	0.021176744
142	0x3ce3e2df	0.027818142
143	0xbcbd75b9	-0.023127424
144	0xbd0211bb	-0.03175519
145	0xbb522b37	-0.0032069215
146	0xbcf6143a	-0.030038942
147	0x3c99a01a	0.0187531
148	0x3d2563b0	0.040378273
149	0xbbc17c22	-0.0059046904
150	0xbc9ab2d5	-0.018884102
151	0xbafebf32	-0.0019435643
152	0x3c9cfb0a	0.019162674
153	0xbc76ed27	-0.01507119
154	0xbd5000f8	-0.050782174
155	0x3d044ffd	0.032302845
156	0x3cb33eeb	0.021880588
157	0x3cb74747	0.022372855
158	0x3cdb05d7	0.026736183
159	0x3b0cef02	0.0021504764
160	0x3d09359e	0.0334984
161	0x3cc7f935	0.024410823
162	0x3d2bc360	0.04193437
163	0xbcaf009e	-0.021362599
164	0x3cfde2c2	0.030991916
165	0x3c5c60ff	0.01345086
166	0x3b05716c	0.0020361794
167	0x3d4f7d3f	0.050656553
168	0x3d9cb8f7	0.07652467
169	0x3cf8273a	0.030292142
170	0x3c5ae0e0	0.013359278
171	0xbc6dd271	-0.014515505
172	0x3c1391fe	0.009006975
173	0xbbc15305	-0.0058997893
174	0x3cc0266f	0.023455827
175	0x3ccfcc3f	0.025365947
176	0xbcba9c7e	-0.0227797
177	0x3bda6781	0.0066651707
178	0x3d2d815c	0.042359695
179	0x3c1482cf	0.00906439
180	0xbc5377d5	-0.012906988
181	0x3d260cf3	0.040539693
182	0x3b69aeaa	0.0035657086
183	0x3c651a97	0.01398339
184	0x3b81b4b8	0.003958311
185	0xbc18f25a	-0.009335125
186	0xbca921bc	-0.020645969
187	0x3ce6caad	0.028172815
188	0x3c7d623e	0.015465317
189	0xbc1b34d8	-0.009473048
190	0xbcd79085	-0.02631403
191	0x3ce70765	0.028201768
192	0x3a4fc0b3	0.0007925138
193	0xbab38b73	-0.0013698175
194	0xbce28366	-0.027650546
195	0x3d5a8c9a	0.053356744
196	0xbc04a096	-0.008094927
197	0xbcc8c6c3	-0.02450884
198	0xbc8d3fad	-0.017242277
199	0x3b135ec2	0.00224869
200	0x3bba971e	0.005694284
201	0xbc8c444f	-0.017122416
202	0xbc8f37a8	-0.017482594
203	0xbd3a3965	-0.045464892
204	0x3ba335a5	0.00498076
205	0xbd3a51d2	-0.045488186
206	0xbca85645	-0.020548949
207	0xbb9f0b4c	-0.0048536416
208	0x3c68ea15	0.014215966
209	0x3cbf2adc	0.023335867
210	0xbd29ee6e	-0.04148715
211	0x3cda4037	0.026641948
212	0x3ce2fff0	0.027709931
213	0xbc95f22a	-0.01830395
214	0xbb344078	-0.0027504247
215	0xbc63a558	-0.0138944015
216	0x3c3f61bc	0.011681017
217	0xbd127d96	-0.0357643
218	0xbcd7372c	-0.026271425
219	0xbbdf25f6	-0.006809945
220	0x3c9d48b9	0.019199716
221	0x3c9c0426	0.019044947
222	0xbc01b110	-0.00791575
223	0xbcba548a	-0.02274539
224	0xbd25db03	-0.04049207
225	0xbd190549	-0.037358556
226	0xbd21f67e	-0.039541714
227	0xbc2d1dfe	-0.010566233
228	0xbca849f9	-0.020543085
229	0xbcddd4b9	-0.027078973
230	0x3b85c22d	0.0040819854
231	0xbc7a4636	-0.015275529
232	0x3cd2eaa0	0.025746644
233	0x3d4b7b07	0.049677875
234	0xbc498b31	-0.012301252
235	0x3d2ed9e3	0.04268826
236	0x3d2383fd	0.039920796
237	0x3c98e4d1	0.018663796
238	0x3d574d2f	0.052563842
239	0xbcce5daf	-0.025191156
240	0xbae37960	-0.0017354898
241	0xbd9483a2	-0.072516695
242	0x39eb39bb	0.00044865705
243	0x3c8ca8fd	0.017170424
244	0x3c8b16a4	0.01697857
245	0xbc1fe92b	-0.009760181
246	0xbc76b87d	-0.015058634
247	0x3c3430f4	0.010997999
248	0xb9eb62ef	-0.00044896404
249	0xbb2ae2a2	-0.0026075025
250	0x3c4dce29	0.012561359
251	0xbc92d625	-0.017924378
252	0x3cda0495	0.026613513
253	0x3c701221	0.01465276
254	0x3c46e010	0.012138382
255	0xb8f696e5	-0.000117583004

action_model._discrete_distribution.branches.1.bias f4 [3]
0	0x3ba567b1	0.0050477614
1	0x3c1cd612	0.009572523
2	0xbc9d6913	-0.019215142

exp_avg f4 [128, 68]
0	0x381ef157	3.78949e-05
1	0xb9214e1e	-0.00015383257
2	0x37ac1c8d	2.0517293e-05
3	0x36a9c795	5.059827e-06
4	0xb60af130	-2.0703992e-06
5	0xb766a45e	-1.3747338e-05
6	0x382b7d5e	4.0886334e-05
7	0xb91a929a	-0.00014741198
8	0x37ac3cb2	2.0532261e-05
9	0x34ad96c6	3.2333463e-07
10	0xb6e713fc	-6.886663e-06
11	0xb7290bdb	-1.0075945e-05
12	0x374e53ce	1.2298069e-05
13	0xb918802d	-0.00014543599
14	0x37547a0b	1.26646e-05
15	0x37cfaaf8	2.4755936e-05
16	0x371c2afb	9.308332e-06
17	0xb71564a4	-8.904524e-06
18	0xb8b0f04f	-8.437095e-05
19	0xb8171ee0	-3.602996e-05
20	0x37aee3f9	2.0848574e-05
21	0x36e4b932	6.816489e-06
22	0x361bc002	2.3208563e-06
23	0xb7e63400	-2.7442351e-05
24	0xb5dd63bf	-1.6494813e-06
25	0xb9049f45	-0.00012647834
26	0x374f447d	1.2354108e-05
27	0x3742fbe3	1.1621948e-05
28	0x35b803aa	1.3710135e-06
29	0xb786acad	-1.6054453e-05
30	0xb8143640	-3.5336474e-05
31	0xb8dbbd50	-0.00010477996
32	0x37b243ec	2.1250882e-05
33	0x377edb76	1.5190677e-05
34	0xb66a8297	-3.494473e-06
35	0xb6e7971a	-6.901927e-06
36	0x371f637e	9.500303e-06
37	0xb8f8b9ea	-0.00011860191
38	0xb2a099fb	-1.8696474e-08
39	0x3784ddab	1.5838848e-05
40	0xb5f5ac03	-1.8303984e-06
41	0xb71929b7	-9.129223e-06
42	0xb8c41497	-9.3498435e-05
43	0xb82a0c2d	-4.0542498e-05
44	0x37b495e7	2.1527476e-05
45	0x376026a4	1.3360437e-05
46	0x3464021f	2.1234926e-07
47	0xb80ffde9	-3.433033e-05
48	0xb8efc9fb	-0.0001143403
49	0x3719f0f0	9.175608e-06
50	0xb3432ec7	-4.544452e-08
51	0x374d5a53	1.2239982e-05
52	0xb54031e5	-7.159818e-07
53	0x36c41028	5.843136e-06
54	0xb90ab043	-0.00013226368
55	0x36daf56c	6.525477e-06
56	0x37b567de	2.1625248e-05
57	0x3764e72f	1.3643686e-05
58	0xb0cfea99	-1.5127909e-09
59	0xb83c1bcf	-4.484859e-05
60	0xb9053f5d	-0.00012707473
61	0x37f030fa	2.8633036e-05
62	0xb34bd826	-4.7461207e-08
63	0x36c1c916	5.7752577e-06
64	0x35d59b56	1.5914945e-06
65	0xb6c43436	-5.8473333e-06
66	0xb9eea978	-0.00045521162
67	0x3769a6f2	1.3926752e-05
68	0x3956d5b4	0.00020488241
69	0x3a096ab6	0.00052420364
70	0xb84568be	-4.706601e-05
71	0xb878d5c5	-5.9326896e-05
72	0xb69fd207	-4.7630197e-06
73	0x395d27b5	0.00021090994
74	0x389dc987	7.523881e-05
75	0x3a0c8918	0.0005361005
76	0xb850927b	-4.9727485e-05
77	0xb868cd11	-5.5504093e-05
78	0x38f78b34	0.000118038064
79	0x394b56c3	0.0001939191
80	0x39b4cea9	0.0003448625
81	0x39be28a6	0.0003626991
82	0xb7c2dafe	-2.3228578e-05
83	0xb7e2658a	-2.6988582e-05
84	0xb6a52a4f	-4.9223086e-06
85	0x38a10ede	7.6798475e-05
86	0x3a15ceef	0.00057147344
87	0x38e4c318	0.00010908226
88	0xb8471cfb	-4.7472287e-05
89	0xb75e17cf	-1.32377745e-05
90	0xb7b5fbaa	-2.1694072e-05
91	0x394de3cf	0.00019635189
92	0x399bc126	0.0002970781
93	0x39ba89f6	0.00035579473
94	0xb7bf6436	-2.2815639e-05
95	0x382be869	4.0986026e-05
96	0xb5e862eb	-1.7314136e-06
97	0x38336f75	4.2780728e-05
98	0x39ee397e	0.00045437732
99	0x399f3f7b	0.0003037414
100	0xb84b206b	-4.8429163e-05
101	0xb7c632e8	-2.3627144e-05
102	0x35e8c558	1.7342782e-06
103	0x38e157f6	0.0001074522
104	0x39b0ebbc	0.00033744972
105	0x3981af2e	0.00024735316
106	0x342ce181	1.6100786e-07
107	0x3831963b	4.234e-05
108	0x33a1eddf	7.540415e-08
109	0x37307b00	1.0519056e-05
110	0x3a0667f0	0.0005127182
111	0x396234b5	0.00021572674
112	0xb84d62f6	-4.8967973e-05
113	0xb7bd3d68	-2.255915e-05
114	0xb56ad3cf	-8.7480015e-07
115	0x390434b0	0.00012608129
116	0x39f6d615	0.0004708028
117	0x38cf2030	9.8765246e-05
118	0x34abcd90	3.2000798e-07
119	0x386ff56b	5.7210604e-05
120	0x360b8f98	2.0796197e-06
121	0xb5806a59	-9.567694e-07
122	0x3a15c351	0.00057130033
123	0x38c4a5ae	9.3768685e-05
124	0xb84fe4ec	-4.9565846e-05
125	0xb7825758	-1.553788e-05
126	0x30fa8d89	1.8230121e-09
127	0x390f096d	0.00013641054
128	0x3a28fea5	0.00064466364
129	0xb8b8a465	-8.8044246e-05
130	0x34b0b735	3.2915855e-07
131	0x387d8540	6.0444e-05
132	0xb64e48f4	-3.0738856e-06
133	0x388774e3	6.4590735e-05
134	0x3b497621	0.0030740576
135	0x3642667c	2.8967906e-06
136	0xb929dd61	-0.00016199566
137	0x39abd1e4	0.00032772042
138	0xb8c7e374	-9.531426e-05
139	0xb811750f	-3.4679713e-05
140	0x3753b0c6	1.2617738e-05
141	0xb73ece8f	-1.1372976e-05
142	0xb9186e06	-0.00014536837
143	0x3982ef46	0.00024973805
144	0xb8c731ad	-9.498312e-05
145	0xb768a665	-1.3867019e-05
146	0x3863150c	5.414062e-05
147	0x375f1b23	1.3298154e-05
148	0xb90f7a3c	-0.00013683079
149	0x39bbf52f	0.00035850095
150	0xb883116e	-6.249813e-05
151	0xb8dc097f	-0.00010492186
152	0xb7f7b7e9	-2.9530334e-05
153	0x35da4c1b	1.6264415e-06
154	0x388528e0	6.349548e-05
155	0x38c8f299	9.5819305e-05
156	0xb8cc05e3	-9.7285745e-05
157	0xb724fb32	-9.833648e-06
158	0xb6585c37	-3.2240184e-06
159	0x37991085	1.8246714e-05
160	0xb7eb2188	-2.8029797e-05
161	0x3978eb29	0.00023738727
162	0xb880d8c2	-6.14389e-05
163	0xb85b8506	-5.2337557e-05
164	0xb67b62e8	-3.7459486e-06
165	0x386bd6d0	5.6228426e-05
166	0xb8193aa3	-3.6532652e-05
167	0x398dffa9	0.00027084097
168	0xb8cf9234	-9.8977616e-05
169	0xb816594f	-3.5845962e-05
170	0x36e6e2ac	6.8809222e-06
171	0xb7fa7877	-2.9858418e-05
172	0xb91462d5	-0.00014151198
173	0x399ad9e6	0.00029535516
174	0x3320153a	3.727221e-08
175	0xb8a74ea7	-7.977831e-05
176	0x3689f5f8	4.1115527e-06
177	0x3879632c	5.9458587e-05
178	0x3826f2d4	3.9803635e-05
179	0x392d409d	0.00016522636
180	0xb8d1819f	-9.9900404e-05
181	0xb806f864	-3.217942e-05
182	0xb466b61d	-2.1486672e-07
183	0x381ea268	3.7821388e-05
184	0x38b92bdf	8.829659e-05
185	0x385a96db	5.2115745e-05
186	0x33ac4425	8.0217696e-08
187	0xb89adea8	-7.384765e-05
188	0x35c73894	1.4843122e-06
189	0x37a682de	1.9849682e-05
190	0x3904d217	0.00012666766
191	0x3878e283	5.9338763e-05
192	0xb8d20a0c	-0.00010015452
193	0xb8256881	-3.9436392e-05
194	0x3168fcd4	3.390416e-09
195	0x3899f5a9	7.341366e-05
196	0x39122d6d	0.00013940567
197	0xb7894049	-1.6361608e-05
198	0x33b4cf76	8.41964e-08
199	0xb87ba076	-5.9992504e-05
200	0xb6e1a68a	-6.7249102e-06
201	0x37e06d77	2.6753854e-05
202	0x395e9c9f	0.00021229916
203	0xb82ced90	-4.1229243e-05
204	0xb931af34	-0.00016945304
205	0x38efc82d	0.00011433694
206	0xb833f4c2	-4.2904874e-05
207	0x36409abe	2.8700301e-06
208	0x36fe7348	7.5832104e-06
209	0xb8802438	-6.110262e-05
210	0xb9137191	-0.00014061319
211	0x38983b20	7.258938e-05
212	0xb830687d	-4.2058982e-05
213	0x371977f7	9.147442e-06
214	0x3751155b	1.2462343e-05
215	0xb825425d	-3.940087e-05
216	0xb94493f3	-0.00018747132
217	0x391c76df	0.00014921602
218	0xb7d98c31	-2.5933698e-05
219	0xb813b6aa	-3.521765e-05
220	0xb7180d04	-9.062936e-06
221	0xb74dda43	-1.226977e-05
222	0xb8e0bdf2	-0.000107165324
223	0x3899e19c	7.3376315e-05
224	0xb83a12b8	-4.436329e-05
225	0xb72edc73	-1.04225355e-05
226	0x363f2d06	2.8487425e-06
227	0xb7e12c04	-2.6842587e-05
228	0xb8fbd35d	-0.00012007982
229	0x38b2cdb6	8.526018e-05
230	0xb7d51281	-2.5400195e-05
231	0xb7af3ff6	-2.089141e-05
232	0xb507e682	-5.062685e-07
233	0x37d46527	2.5319472e-05
234	0xb8f8b685	-0.000118595584
235	0x38e362e9	0.00010842627
236	0xb83e36f1	-4.53507e-05
237	0xb7c0106d	-2.2895832e-05
238	0x35f86257	1.850606e-06
239	0xb82035f9	-3.819724e-05
240	0xb934d310	-0.00017244765
241	0x390edbfc	0.00013624126
242	0x338d1163	6.568987e-08
243	0xb84311c2	-4.650816e-05
244	0x3594d7c5	1.1089656e-06
245	0x381d4024	3.7491453e-05
246	0xb8a3920f	-7.799651e-05
247	0x387b42bc	5.9905215e-05
248	0xb840cfcb	-4.596989e-05
249	0xb7be978e	-2.2720338e-05
250	0x3240db22	1.1225696e-08
251	0xb36c77f0	-5.5057114e-08
252	0xb87b23eb	-5.9876515e-05
253	0x37b69c3e	2.1768847e-05
254	0x33d8713b	1.007888e-07
255	0xb84fafed	-4.951649e-05

exp_avg_sq f4 [128, 68]
0	0x33f5f589	1.1453364e-07
1	0x33dc0184	1.0244824e-07
2	0x322d244f	1.0078181e-08
3	0x3286eb5e	1.5706686e-08
4	0x30a872c0	1.2256223e-09
5	0x33162ad6	3.4963556e-08
6	0x340221ce	1.2119492e-07
7	0x33b252c7	8.303828e-08
8	0x31f79355	7.205396e-09
9	0x33038b70	3.0627632e-08
10	0x3179f6e0	3.63746e-09
11	0x3312e2fc	3.4199715e-08
12	0x34067cbe	1.2525103e-07
13	0x33c5da6d	9.213259e-08
14	0x324c7049	1.18998935e-08
15	0x32d15613	2.4369944e-08
16	0x3164451f	3.3217658e-09
17	0x330a9cee	3.2273356e-08
18	0x34133299	1.3708849e-07
19	0x33a0f578	7.495231e-08
20	0x31effed8	6.984788e-09
21	0x330c510b	3.267e-08
22	0x2fe62319	4.1861695e-10
23	0x32e5c29a	2.6747603e-08
24	0x341d8957	1.4671728e-07
25	0x3397fc6a	7.077399e-08
26	0x32092240	7.982237e-09
27	0x32daa434	2.5453211e-08
28	0x313ea462	2.774208e-09
29	0x330a2634	3.2165374e-08
30	0x3422d78c	1.5165841e-07
31	0x33712c52	5.6152494e-08
32	0x32047c75	7.7117095e-09
33	0x330d1d20	3.285561e-08
34	0x3060e443	8.1815105e-10
35	0x32c703d2	2.3168386e-08
36	0x343892f8	1.7189802e-07
37	0x33725b59	5.6428096e-08
38	0x3194a9e5	4.3266817e-09
39	0x32858a90	1.5546249e-08
40	0x30548ebe	7.7328e-10
41	0x32f0fed8	2.8055567e-08
42	0x34387f1c	1.7182577e-07
43	0x332865c0	3.920809e-08
44	0x31f2d772	7.0676203e-09
45	0x32f8a523	2.8946095e-08
46	0x3093399d	1.0712032e-09
47	0x32c92814	2.3417705e-08
48	0x34578ca7	2.0074604e-07
49	0x33183e43	3.5446885e-08
50	0x31f3744d	7.0854527e-09
51	0x31e57420	6.677979e-09
52	0x3080fbd0	9.384795e-10
53	0x32bf9c0f	2.2306294e-08
54	0x34448a14	1.8304155e-07
55	0x32fb9cdd	2.9291579e-08
56	0x31ff4b48	7.4300353e-09
57	0x3301a8d4	3.01887e-08
58	0x3036dc2b	6.652409e-10
59	0x32831b06	1.5262696e-08
60	0x346e72ad	2.2207196e-07
61	0x32a54836	1.9241366e-08
62	0x32337752	1.0446302e-08
63	0x31184a1a	2.2161033e-09
64	0x2ffd2853	4.6049084e-10
65	0x329f3439	1.8533784e-08
66	0x36de4ccc	6.625056e-06
67	0x31e7ab51	6.7424613e-09
68	0x35ce23e1	1.5358638e-06
69	0x3501632f	4.8200576e-07
70	0x3402a168	1.2165913e-07
71	0x3467dcf7	2.1593938e-07
72	0x3285bd44	1.5569306e-08
73	0x34dfdae1	4.1696242e-07
74	0x359b68ce	1.1578902e-06
75	0x3578fc10	9.2754e-07
76	0x33f23bf2	1.1279907e-07
77	0x3463cb78	2.1215044e-07
78	0x34209700	1.4956095e-07
79	0x350435f4	4.9252344e-07
80	0x35f2df80	1.8095452e-06
81	0x34c509ec	3.6701329e-07
82	0x3434fc08	1.6855495e-07
83	0x3456ceee	2.0005584e-07
84	0x31c09533	5.6048974e-09
85	0x34a2901a	3.02797e-07
86	0x35c591f9	1.4720127e-06
87	0x355fbb85	8.334685e-07
88	0x33aa7b88	7.938712e-08
89	0x33e6d9e0	1.0749841e-07
90	0x329874a9	1.774818e-08
91	0x34d92e9e	4.0453318e-07
92	0x35f75352	1.8427183e-06
93	0x348d7454	2.6347936e-07
94	0x3471f5ca	2.2534292e-07
95	0x345c19c4	2.049847e-07
96	0x315420b0	3.086864e-09
97	0x3453314d	1.9668842e-07
98	0x35fb02e5	1.87018e-06
99	0x34e18632	4.2007156e-07
100	0x338da746	6.596251e-08
101	0x3436c9a7	1.7023432e-07
102	0x326c1cce	1.3743557e-08
103	0x348161bd	2.4099236e-07
104	0x35f96fa2	1.8584435e-06
105	0x344853ca	1.8656934e-07
106	0x34cc52aa	3.8058107e-07
107	0x340aa445	1.2912012e-07
108	0x3081597c	9.411418e-10
109	0x340a967e	1.2907e-07
110	0x35feda4d	1.8988009e-06
111	0x34ae0ce4	3.2419405e-07
112	0x33829595	6.0808055e-08
113	0x347a8a79	2.333344e-07
114	0x309e2bb7	1.1508438e-09
115	0x3427535b	1.5583412e-07
116	0x35fb215b	1.8710665e-06
117	0x342649b5	1.5486769e-07
118	0x34e69b82	4.2953985e-07
119	0x33f2a7a2	1.12994954e-07
120	0x3104b47a	1.9311117e-09
121	0x33d7a447	1.00415996e-07
122	0x36000445	1.9075972e-06
123	0x349bf8c7	2.905201e-07
124	0x33953c56	6.949328e-08
125	0x34833ab8	2.4443375e-07
126	0x31dc7274	6.4158545e-09
127	0x3403ff48	1.2293197e-07
128	0x36021d9c	1.9388744e-06
129	0x34006ba4	1.1960088e-07
130	0x34e881c2	4.330778e-07
131	0x33d0dad9	9.725563e-08
132	0x3083c905	9.588638e-10
133	0x33c56bc4	9.19313e-08
134	0x388c440a	6.6883935e-05
135	0x3300fca2	3.003209e-08
136	0x35893e90	1.0225504e-06
137	0x3578f33b	9.2741146e-07
138	0x34035e9c	1.2234744e-07
139	0x34327a1a	1.6621962e-07
140	0x31db8f35	6.3900196e-09
141	0x34a4f8ad	3.0728316e-07
142	0x35b617ca	1.356698e-06
143	0x350b4f81	5.189723e-07
144	0x33941c23	6.896905e-08
145	0x348e0f4f	2.64607e-07
146	0x32a31384	1.8984572e-08
147	0x349e65dc	2.9503906e-07
148	0x3591d11e	1.0864203e-06
149	0x356475c3	8.5107985e-07
150	0x3427ae53	1.5616506e-07
151	0x34702d70	2.2368272e-07
152	0x32ffb2ba	2.9767182e-08
153	0x34ac452b	3.2087823e-07
154	0x35d51233	1.5875033e-06
155	0x34e5d435	4.2808975e-07
156	0x338faf94	6.690894e-08
157	0x346d541a	2.2102941e-07
158	0x3139aa02	2.7017681e-09
159	0x3482df20	2.4376732e-07
160	0x35a9acb5	1.2641746e-06
161	0x35333459	6.675887e-07
162	0x33d2b19e	9.8111954e-08
163	0x34a1fb4d	3.0171432e-07
164	0x32b2d5bb	2.081912e-08
165	0x34959517	2.786189e-07
166	0x35e5ae60	1.7112579e-06
167	0x34a68b39	3.1021207e-07
168	0x33a5defe	7.723973e-08
169	0x3457458e	2.0048739e-07
170	0x324dab37	1.19715e-08
171	0x347dec84	2.3648505e-07
172	0x35ca0b2f	1.5053428e-06
173	0x35116d91	5.417615e-07
174	0x338fcd35	6.696283e-08
175	0x346823a7	2.1619654e-07
176	0x318024ce	3.7294745e-09
177	0x346fe6f7	2.2342634e-07
178	0x35eca29a	1.7630693e-06
179	0x34815c7d	2.4095417e-07
180	0x33bb0c5e	8.710116e-08
181	0x346812c6	2.1613513e-07
182	0x322d39cb	1.0083066e-08
183	0x3456b0b6	1.999459e-07
184	0x35e53ec9	1.7080102e-06
185	0x34ded709	4.150718e-07
186	0x33942e44	6.900203e-08
187	0x34129412	1.3651177e-07
188	0x31c30598	5.675883e-09
189	0x3443ac72	1.8223525e-07
190	0x35f010be	1.7886266e-06
191	0x34567be2	1.9975371e-07
192	0x33d65c25	9.9819125e-08
193	0x346f77ce	2.2302194e-07
194	0x3288a5c0	1.5907858e-08
195	0x34264495	1.5484905e-07
196	0x35fd24b4	1.8860651e-06
197	0x348a4783	2.5756535e-07
198	0x33acebda	8.052275e-08
199	0x33ddfdef	1.0337305e-07
200	0x313b3d0a	2.7246778e-09
201	0x3420e1a8	1.4983254e-07
202	0x387e9f6c	6.0706792e-05
203	0x33cef1a6	9.636578e-08
204	0x351e9fd0	5.9092145e-07
205	0x346de20d	2.2154582e-07
206	0x3319d2ba	3.5814743e-08
207	0x3328b30f	3.92784e-08
208	0x309aa3f4	1.1251573e-09
209	0x33cd0e67	9.548676e-08
210	0x35277128	6.237701e-07
211	0x340f8e01	1.3369574e-07
212	0x32b8c7c4	2.1511262e-08
213	0x33e2ff53	1.0570388e-07
214	0x3104165a	1.9221233e-09
215	0x33add2cb	8.094283e-08
216	0x352579fd	6.1644806e-07
217	0x3471d152	2.2521024e-07
218	0x333d6c9a	4.4103764e-08
219	0x330820a6	3.169466e-08
220	0x3152b880	3.0663898e-09
221	0x33e166a7	1.0496051e-07
222	0x352cae9d	6.432909e-07
223	0x340420d3	1.23054e-07
224	0x32b0bb98	2.0574404e-08
225	0x33f90c00	1.1597149e-07
226	0x30154d0d	5.431538e-10
227	0x33a3af19	7.622129e-08
228	0x35251336	6.1495246e-07
229	0x3450088f	1.9374623e-07
230	0x3328fb51	3.934412e-08
231	0x33880022	6.333018e-08
232	0x3108ff72	1.9935809e-09
233	0x33cb45f9	9.465652e-08
234	0x352fad97	6.5445187e-07
235	0x33cf756d	9.660548e-08
236	0x331a1172	3.5871786e-08
237	0x3411767c	1.3547282e-07
238	0x30eb0a6f	1.7101466e-09
239	0x33a5a96f	7.714231e-08
240	0x35212986	6.00376e-07
241	0x344f37de	1.9298702e-07
242	0x33a00eca	7.453271e-08
243	0x33778973	5.763418e-08
244	0x303c773d	6.856345e-10
245	0x339b0218	7.218131e-08
246	0x352c8c32	6.4279004e-07
247	0x33aa8d67	7.941963e-08
248	0x334f88ed	4.8320477e-08
249	0x343257cb	1.6609481e-07
250	0x306f29dd	8.7007185e-10
251	0x3391162a	6.75612e-08
252	0x3526581f	6.196805e-07
253	0x342856c8	1.567779e-07
254	0x33cc1185	9.502677e-08
255	0x3349c3ee	4.6977156e-08
