results/TrainPeoplePuddleRandomHoles10Dicembre2/MoveToGoal/MoveToGoal-3499950.pt (torch, 637175 bytes, 40 tensors)

discrete_act_size_vector f4 [1, 2]
0	0x40400000	3.0
1	0x40400000	3.0

network_body._body_endoder.seq_layers.0.weight f4 [128, 68]
0	0x3e3e110f	0.18561195
1	0x3e592da7	0.21208821
2	0x3e2a4b4c	0.16630286
3	0x3d1b4e07	0.03791621
4	0x3dd1a744	0.102369815
5	0x3c9e3f37	0.019317253
6	0x3e194534	0.14967805
7	0x3bb36359	0.0054744896
8	0xbda64a87	-0.08119684
9	0xbd682ce6	-0.056683443
10	0xbd14945b	-0.036274295
11	0xbd8bd544	-0.068277866
12	0xbd3edcf5	-0.04659744
13	0x3c17cb4f	0.009264781
14	0xbb0ae4a0	-0.00211934
15	0x3e5b882d	0.21438666
16	0x3de8bbcd	0.11363945
17	0xbe4a9afd	-0.19785686
18	0xbe0d3e75	-0.13793357
19	0x3d5498fe	0.051903717
20	0x3d285118	0.041092962
21	0xbc8da28b	-0.01728942
22	0xbdcf4de5	-0.10122279
23	0xbe41dad5	-0.18931134
24	0x3dbe7828	0.09300262
25	0x3d0977c1	0.03356147
26	0x3d06836e	0.032840185
27	0x3cc799cf	0.024365334
28	0x3cb9ab90	0.022664815
29	0x3e75228e	0.23938963
30	0xbbb73946	-0.0055915443
31	0x3d9bf748	0.076155245
32	0x3d7eeaa6	0.062235497
33	0x3e2b388b	0.16720788
34	0x3e13fdf9	0.14452352
35	0x3d492ea8	0.04911676
36	0x3dab5a36	0.08366816
37	0x3c6617a3	0.014043721
38	0xbeb5253e	-0.35379976
39	0x3dbb5c6d	0.09148488
40	0x3e5c3229	0.2150351
41	0x3e10d652	0.14144257
42	0x3d40b6f4	0.047049478
43	0x3e8cb45a	0.27481347
44	0xbd629de2	-0.05532635
45	0xbe3bd6fc	-0.18343729
46	0xbca5fea9	-0.020263033
47	0x3e4da633	0.20082931
48	0x3e16ceac	0.14727277
49	0x3bb348f5	0.0054713436
50	0x3d22d0e2	0.039749987
51	0xbd0d5af4	-0.034510568
52	0x3d75b43a	0.05998633
53	0x3d3a04f6	0.045414887
54	0xbd66da31	-0.056360427
55	0xbe0bfa5e	-0.13669726
56	0xbd80f1ce	-0.062961206
57	0x3e4114df	0.18855618
58	0x3c5d210a	0.013496647
59	0x3e125d00	0.14293289
60	0x3e481edc	0.19543022
61	0xbd01c49b	-0.03168164
62	0x3e23131f	0.15925263
63	0xbe824eac	-0.25450647
64	0xbc549062	-0.012973877
65	0x3d936489	0.0719691
66	0xbe2d64da	-0.16933003
67	0xbdd26903	-0.10273936
68	0x3d9d232b	0.076727234
69	0x3e4f7e62	0.20263055
70	0xbc013c30	-0.007887885
71	0xbd8ffdca	-0.07030828
72	0x3e49aa26	0.19693813
73	0x3d299523	0.041401993
74	0x3d7e69bf	0.062112566
75	0xbc4ce636	-0.012506058
76	0xbdf3582d	-0.118820526
77	0x3dabc9a6	0.08388071
78	0x3e2cab04	0.16862112
79	0x3e3e6309	0.18592466
80	0xbe3c63e2	-0.18397477
81	0x3e64c6e0	0.2234149
82	0xbd3a8158	-0.045533508
83	0xbb4c8aa8	-0.0031210575
84	0x3da78255	0.08179156
85	0x3ea121f0	0.31471205
86	0xbdd1d73d	-0.102461316
87	0x3d488c3d	0.048961867
88	0xbd84c157	-0.06482189
89	0x3c8e9de6	0.017409276
90	0x3e9856be	0.2975368
91	0xbcbbd844	-0.022930272
92	0xbd238aaa	-0.039927162
93	0x3cfe75bb	0.031061998
94	0xbe524639	-0.205346
95	0x3dcd71c2	0.10031463
96	0xbe1e54ce	-0.15462038
97	0x3e09ea8c	0.13468379
98	0x3e3842c7	0.17994224
99	0x3d6e9821	0.05825055
100	0xbdaf70a8	-0.08566409
101	0x3d416b3a	0.0472214
102	0x3c4224a3	0.011849555
103	0xbc747763	-0.014921042
104	0x3e0cfba3	0.13767867
105	0x3dc6b95d	0.09703324
106	0x3e3c354a	0.18379703
107	0xbe0c06ec	-0.13674515
108	0x3dcef5e8	0.10105497
109	0xbd835045	-0.064117946
110	0xbdab1352	-0.083532944
111	0xbe4e829d	-0.20167013
112	0x3e003967	0.12521897
113	0x3c4d4b31	0.012530134
114	0x3c6ff08f	0.014644756
115	0xbd8fcb49	-0.070211954
116	0xbde25da5	-0.110530175
117	0x3db3d1f2	0.08780278
118	0xbd015643	-0.031576406
119	0x3c9175ca	0.017756362
120	0xbc689692	-0.014196055
121	0x3e34e3dd	0.17665048
122	0x3e0b4b20	0.13602877
123	0x3d94e867	0.0727089
124	0x3d82a5d3	0.06379285
125	0xbd374c76	-0.044750653
126	0x3dcae983	0.0990782
127	0xbe994be4	-0.29940712
128	0xbd055821	-0.03255475
129	0x3d799651	0.06093437
130	0xbd945681	-0.07243062
131	0xbe386467	-0.1800705
132	0x3e4c4835	0.1994942
133	0x3db7d81f	0.08976769
134	0x3d76bfdb	0.06024156
135	0x3e20f9a3	0.15720229
136	0xbe5c4076	-0.21508965
137	0x3e7b8459	0.24562205
138	0xbd2de473	-0.042454194
139	0xbe3ce3f0	-0.18446326
140	0xbd1924b7	-0.03738853
141	0x3e20a876	0.15689263
142	0x3df515e0	0.11967063
143	0xbd5a2ded	-0.053266454
144	0xbd744840	-0.059639215
145	0xbd886918	-0.0666067
146	0x3e264285	0.16236313
147	0x3c040419	0.008057618
148	0xbe075b04	-0.13218313
149	0xbde1e7f3	-0.11030569
150	0x3db31180	0.08743572
151	0xbdc2929a	-0.09500618
152	0x3d8eac37	0.06966441
153	0x3e0edc32	0.13951185
154	0xbe3465a2	-0.17616895
155	0xbd04b1dc	-0.032396182
156	0x3d1b81ce	0.03796559
157	0xbe3eadf4	-0.18621045
158	0x3bbac4f2	0.0056997472
159	0xbe5433e1	-0.20722915
160	0x3d40b5b1	0.047048274
161	0xbd311b32	-0.043238826
162	0x3d1c6d62	0.038190253
163	0x3cd251ab	0.025673708
164	0x3d34627b	0.04403923
165	0xbddeeddb	-0.10885211
166	0x3c44f108	0.012020357
167	0xbd08cd02	-0.033398636
168	0x3db32064	0.087464124
169	0xbbf685c8	-0.007523272
170	0x3d2411fd	0.040056217
171	0x3ea1137d	0.3146018
172	0x3d5fc349	0.054629598
173	0xbe1a4105	-0.15063865
174	0xbcdf60f3	-0.027267909
175	0x3e24edaf	0.16106294
176	0x3e290969	0.16507496
177	0xbda06b19	-0.07832927
178	0xbb9cffe0	-0.004791245
179	0x3ea9e694	0.3318373
180	0xbcccd1fe	-0.025002476
181	0xbc02036a	-0.007935384
182	0x3eb14ae9	0.34627464
183	0x3dfa9e3a	0.122372106
184	0x3e405e72	0.18786028
185	0x3cd697e2	0.02619547
186	0xbd1b4d47	-0.037915494
187	0x3d5ee514	0.054417685
188	0x3db4eae5	0.08833865
189	0xbd8984cd	-0.06714783
190	0xbe19d2e2	-0.15021852
191	0x3daab5d1	0.0833546
192	0xbdd95ec1	-0.10613776
193	0x3db90e69	0.09035952
194	0xbe409943	-0.18808465
195	0x3e02241b	0.12709086
196	0x3e36f43f	0.1786661
197	0x3c463269	0.01209698
198	0xbe421292	-0.18952397
199	0x3ca62e24	0.020285673
200	0x3e44271e	0.19155547
201	0xbe7b9da8	-0.2457186
202	0x3ccfe582	0.025377993
203	0x3e434d41	0.19072439
204	0x3d0200ff	0.03173923
205	0xbd099e5f	-0.0335983
206	0x3e405f90	0.18786454
207	0xbe114094	-0.14184791
208	0xbc6a82e7	-0.014313436
209	0x3cd3b86f	0.02584478
210	0x3d7e347f	0.062061783
211	0xbd8ab04f	-0.067719094
212	0xbdd5d76b	-0.10441478
213	0x3d24a194	0.040193155
214	0x3dbd3f0c	0.09240541
215	0x3e3816b9	0.17977418
216	0x3e7c5ab1	0.24643971
217	0x3d3afacc	0.045649335
218	0x3e0eacfa	0.13933173
219	0xbe361d2c	-0.17784566
220	0xbdaf502c	-0.085602134
221	0xbde59601	-0.112102516
222	0xbd396a08	-0.045267135
223	0x3e442dd3	0.19158106
224	0xbddd12d0	-0.10794604
225	0xbe0dced9	-0.13848437
226	0xbd96086a	-0.073258236
227	0x3e142cfa	0.14470282
228	0x3e5b7714	0.21432143
229	0xbd0f0257	-0.03491434
230	0xbd803155	-0.06259409
231	0x3c42ea26	0.011896646
232	0xbe5f4eb1	-0.21807362
233	0xbdf79957	-0.12089794
234	0xbdac9e03	-0.08428576
235	0xbdb50c71	-0.08840264
236	0x3c54c396	0.012986084
237	0x3d68f8cd	0.0568779
238	0xbc6627b6	-0.014047554
239	0x3ea954c6	0.3307249
240	0x3e02f273	0.127878
241	0x3e2a952c	0.16658467
242	0x3d9893ed	0.074500896
243	0x3e50f7bf	0.20407008
244	0xbcbd7da3	-0.023131197
245	0xbe5267a2	-0.20547345
246	0xbe31324b	-0.17304341
247	0x3bcf5e69	0.0063283932
248	0x3e2b719f	0.16742562
249	0x3e0b788d	0.13620205
250	0x3c6171e0	0.01376006
251	0xbdbd8a9e	-0.09254955
252	0xbc5e45cd	-0.0135664465
253	0xbd6eb0b4	-0.058273986
254	0x3e237294	0.15961677
255	0x3ce7103f	0.028205989

network_body._body_endoder.seq_layers.0.bias f4 [128]
0	0x3c49ceb3	0.012317347
1	0x3d7b8ee2	0.06141556
2	0x3d875dc3	0.066096805
3	0x3cd22b91	0.02565554
4	0x3cc8d10a	0.02451374
5	0x3cd04b2e	0.025426473
6	0x3d682589	0.05667642
7	0xbc77776c	-0.015104156
8	0x3d917daf	0.0710405
9	0xbbaa177c	-0.005190788
10	0x3d06271f	0.032752153
11	0x3d066467	0.032810595
12	0x3da1058c	0.07862386
13	0x3d8a6b20	0.06758714
14	0x3d7fc145	0.062440176
15	0x3cdbf00f	0.026847867
16	0x3d3414a6	0.043965004
17	0x3cb5a35c	0.022172622
18	0x3d5503a5	0.05200543
19	0x3d0f9f61	0.035064105
20	0xbded83b4	-0.11597386
21	0x3d92ccff	0.07168006
22	0x3d1eca7b	0.03876732
23	0x3d6f8206	0.05847361
24	0xbb9afe75	-0.0047300407
25	0xbd499255	-0.04921182
26	0xbd8cc4a5	-0.068734445
27	0x3b8626fc	0.004094003
28	0x3da13602	0.07871629
29	0xbc1a52ae	-0.009419126
30	0x3d1ae72f	0.03781813
31	0x3d69a677	0.05704352
32	0xba60b5ec	-0.00085720303
33	0x3d35d353	0.044390988
34	0x3cedc0ec	0.029022656
35	0x3c85d208	0.016335502
36	0x3d3f5a1f	0.046716806
37	0x3d447809	0.047966037
38	0xbd472637	-0.04862043
39	0x3ad71512	0.0016409478
40	0x3d6525a8	0.055944115
41	0xbb633088	-0.0034666378
42	0x3b58bbc8	0.003307091
43	0xbcb11e66	-0.02162094
44	0xbbb24eab	-0.005441507
45	0xbd75415b	-0.05987678
46	0x3bb1e6f9	0.0054291454
47	0x3d28a5d0	0.041173756
48	0x3912e266	0.00014007985
49	0x3d5fd2fe	0.054644577
50	0xbc6e6ca4	-0.014552269
51	0x3d83c411	0.06433881
52	0x3cbdc416	0.02316479
53	0x3b8d3123	0.004308836
54	0x3d934454	0.07190767
55	0xbd00c6d7	-0.03143963
56	0x3d3c3817	0.04595193
57	0x3d1695e3	0.036764037
58	0xbcc9ae97	-0.024619384
59	0x3c65f36e	0.014035089
60	0xbb4b8bc1	-0.0031058642
61	0x3d68867b	0.056768876
62	0x3c560fa6	0.013065254
63	0x38ac76b1	8.223707e-05
64	0x3d7bf620	0.06151402
65	0xbc174c64	-0.009234522
66	0x3d299269	0.041399393
67	0x3cff1f95	0.03114299
68	0x3d19e8a7	0.03757539
69	0x3d7e9577	0.06215426
70	0xbcf5843d	-0.029970283
71	0x3d880d25	0.06643132
72	0x3d871fcf	0.06597864
73	0x3cdd16a4	0.026988335
74	0x3c40e932	0.011774348
75	0x3b911d3c	0.004428534
76	0x3d76103c	0.060074076
77	0x3d54d714	0.051962927
78	0x3c677b64	0.01412854
79	0x3d00ec79	0.031475518
80	0xbb5fa28f	-0.0034123992
81	0x3cb3abe8	0.021932557
82	0x3d11466a	0.035467543
83	0x3d2bd543	0.04195143
84	0xb9ac9257	-0.00032915428
85	0x3dad430a	0.08460052
86	0x3cfc463d	0.030795211
87	0x3d162849	0.036659513
88	0x3d45fe3f	0.04833817
89	0x3cab33eb	0.02089878
90	0x3d8261a9	0.063662834
91	0xbc159982	-0.009130837
92	0x3c53d4c0	0.0129291415
93	0x3db2340e	0.08701335
94	0x3d5d3dd6	0.05401405
95	0xbc365c2c	-0.011130374
96	0xbd0844e2	-0.033268817
97	0x3d43ae30	0.04777354
98	0x3c594b49	0.013262578
99	0x3cef0844	0.029178746
100	0x3c786803	0.015161517
101	0x3ce6e627	0.028185917
102	0xbd1182da	-0.03552518
103	0x3d9700ec	0.07373223
104	0xbcab1f4c	-0.020888947
105	0x3da18d98	0.07888335
106	0x3d9a0576	0.07520573
107	0xb96ffa8c	-0.00022886152
108	0x3da7b1df	0.08188223
109	0xbd02b32a	-0.031909145
110	0x3d5e1b7d	0.054225434
111	0xbcccfa5b	-0.025021723
112	0x3d1b7640	0.03795457
113	0xbceac097	-0.028656287
114	0x3b4500d9	0.003006032
115	0xba60b17d	-0.00085713697
116	0x3d7a444b	0.061100286
117	0x3c95d986	0.0182922
118	0x3d500088	0.050781757
119	0xbc80ffba	-0.01574694
120	0x3d221ea0	0.039579988
121	0x3d1d5d38	0.03841898
122	0x3d1bd91b	0.038048845
123	0x3dad1b00	0.084524155
124	0xbc8e0b45	-0.017339358
125	0x3d717ca8	0.058956772
126	0x3d55e689	0.05222181
127	0x3d6d3aa2	0.057917245

network_body._body_endoder.seq_layers.2.weight f4 [128, 128]
0	0xbe2a510e	-0.16632482
1	0x3cbc9e19	0.023024606
2	0x3e091f47	0.13390838
3	0x3e6f0a97	0.23343883
4	0xbd80ad0a	-0.062830046
5	0x3cbeebb5	0.023305753
6	0xbe25a98d	-0.1617796
7	0xbd64fb05	-0.055903453
8	0x3e2a7f1d	0.16650052
9	0x3dba556e	0.09098326
10	0x3dae9548	0.08524567
11	0x3d240b14	0.040049627
12	0x3dd6bc55	0.1048514
13	0xbca8ef8e	-0.020622041
14	0x3d99ffd1	0.07519496
15	0x3dbd1bec	0.09233841
16	0xbe49bca7	-0.19700871
17	0xbcaf8799	-0.021426963
18	0x3e412f53	0.18865709
19	0x3df8ac09	0.12142188
20	0xbdebe5ad	-0.115184166
21	0x3e0f4f81	0.13995172
22	0xbd3b445e	-0.045719497
23	0x3cc70875	0.024296025
24	0xbd339a86	-0.043848537
25	0xbe01405f	-0.12622212
26	0xbdd35d14	-0.103204876
27	0x3d895e51	0.067074426
28	0xbe143c3f	-0.14476107
29	0xbce551c3	-0.027993089
30	0x3d442a9b	0.047892194
31	0xbc8aa798	-0.016925618
32	0xbd8a0d4e	-0.06740819
33	0xbd833142	-0.064058796
34	0xbd628591	-0.05530316
35	0x3da7e544	0.08198026
36	0xbd0921e1	-0.033479575
37	0xbe89f3db	-0.2694386
38	0xbc93afb1	-0.018028112
39	0xbd91c670	-0.07117927
40	0x3ddea2a6	0.108708665
41	0x3cff315e	0.03115147
42	0x3e066210	0.13123345
43	0x3e0100ac	0.12597913
44	0xbe23f89e	-0.16012809
45	0x3bd82159	0.006595772
46	0xbd7b39a5	-0.06133427
47	0x3df5d068	0.12002641
48	0x3d43eef3	0.0478353
49	0x3e118216	0.1420978
50	0x3b9d85e8	0.0048072226
51	0xbda2b65e	-0.0794494
52	0x3b06265a	0.0020469637
53	0xbe3bfd0b	-0.18358247
54	0xbc833caa	-0.016020138
55	0x3e7130e4	0.23553807
56	0x3d7b81e0	0.061403155
57	0x3ddefff8	0.10888666
58	0xbd5b3cda	-0.05352483
59	0x3b270f65	0.0025491354
60	0x3df03a15	0.11729828
61	0xbd4a7e1c	-0.049436674
62	0xbe20cf99	-0.15704192
63	0x3d72af7d	0.05924939
64	0x3e1fbe17	0.15599857
65	0x3d23d3b9	0.039996836
66	0xbc3633f8	-0.011120789
67	0x3e34aed2	0.17644814
68	0x3d55443f	0.052067038
69	0x39d2d654	0.00040214008
70	0x3e1455ce	0.14485857
71	0x3d4576ea	0.04820911
72	0x3dd736a8	0.10508472
73	0xbd4ff7ce	-0.050773434
74	0x3d822509	0.0635472
75	0xbd938ac3	-0.07204201
76	0x3d1f16cd	0.038840104
77	0xbdb0e30a	-0.08637054
78	0xbe089d22	-0.13341191
79	0x3c7d547b	0.015462036
80	0xbd0612f6	-0.032732926
81	0xbe6b74b9	-0.22993745
82	0xbe31509a	-0.17315903
83	0x3e19ff6c	0.15038842
84	0x3c535389	0.012898334
85	0xbd3b92c9	-0.045794282
86	0x3b6eb3cb	0.0036423083
87	0xbdc47407	-0.09592443
88	0xbdbd92d3	-0.0925652
89	0x3d16fba2	0.03686107
90	0x3dd2b6c1	0.10288764
91	0xbdc908c8	-0.09816128
92	0xbde13454	-0.10996309
93	0xbd14b70b	-0.036307376
94	0x3e88236e	0.2658953
95	0xbc85c401	-0.016328814
96	0x3de1e6a6	0.11030321
97	0x3e0b94ea	0.13631025
98	0x3c95d4cc	0.018289946
99	0x3dbc8574	0.09205142
100	0x3cd873b7	0.026422365
101	0x3d1f1813	0.03884132
102	0xbd9bc3b2	-0.07605685
103	0x3e4bcd63	0.19902568
104	0x3d0b4dee	0.034009866
105	0x3c37a5c0	0.0112089515
106	0x3e16b067	0.1471573
107	0xbd333baa	-0.043758072
108	0x3e6803f3	0.22657757
109	0x3cec4a55	0.028844038
110	0x3ca765c5	0.02043427
111	0xbc8b2497	-0.01698522
112	0xbdf04de4	-0.117336065
113	0x3d30df9a	0.043181993
114	0xbd9b5f52	-0.0758654
115	0x3db19fb7	0.08673041
116	0x3caf37d7	0.021388931
117	0x3c71a9af	0.014749928
118	0xbe114979	-0.14188184
119	0xbcbcec00	-0.023061752
120	0x3d4e7dbb	0.050412875
121	0xbdb47448	-0.088112414
122	0x3b8c5bda	0.0042834105
123	0xbccfb24a	-0.02535357
124	0xbcb0ce04	-0.02158261
125	0x3d9a5d02	0.07537271
126	0x3cf33e35	0.029692749
127	0xbe0767a4	-0.1322313
128	0xbc3bfa91	-0.011473314
129	0xbd154370	-0.036441267
130	0xbe079be5	-0.13243063
131	0x3dbac1ab	0.091189705
132	0x3bab1e04	0.005222084
133	0xbcc60eb1	-0.024176927
134	0xbe461a61	-0.19346
135	0x3e1840a3	0.14868407
136	0x3be34496	0.0069356663
137	0xbbb9c140	-0.005668789
138	0x3db2586c	0.087082714
139	0x3cea004c	0.028564595
140	0xbe639099	-0.22223128
141	0xbcc37101	-0.023857595
142	0xbbad7032	-0.0052929157
143	0x3d978c40	0.073997974
144	0xbe4c9fe4	-0.19982868
145	0x3d1062f9	0.035250638
146	0x3ccc1da2	0.024916474
147	0x3d131352	0.035907097
148	0xbd921968	-0.07133752
149	0x3c30c874	0.010789979
150	0x3d5a15c0	0.0532434
151	0xbcf9bb17	-0.03048472
152	0xbd389a2c	-0.045068905
153	0xbd8bd159	-0.06827039
154	0x3dc35c39	0.095390745
155	0xbcb32717	-0.021869225
156	0xbd1605fa	-0.036626793
157	0x3dd7b08e	0.10531722
158	0x3d7b72e1	0.061388854
159	0xbda1bb9d	-0.078971125
160	0xbca06dae	-0.01958355
161	0xbd20a33e	-0.03921818
162	0xbd0c1461	-0.034199122
163	0x3e60535f	0.21906804
164	0x3d6b42c4	0.05743672
165	0xbd94eea1	-0.07272077
166	0x3de02829	0.1094516
167	0x3c553d55	0.013015111
168	0xbaecfb77	-0.0018080313
169	0xbdfafbff	-0.12255096
170	0x3e11a483	0.14222912
171	0x3d8aa74b	0.0677019
172	0x3e123f3e	0.14281937
173	0xbd940d67	-0.07229119
174	0xbdfa982e	-0.12236057
175	0xbdac0613	-0.08399596
176	0xbda736e1	-0.08164764
177	0x3d166782	0.036719806
178	0xba886b66	-0.0010407984
179	0xbdb9788c	-0.090561956
180	0xbd92a825	-0.07160977
181	0x3d7d209d	0.06179868
182	0x3def638a	0.116889074
183	0x3d26b238	0.040697306
184	0xbd49f421	-0.049305085
185	0x3d98fc65	0.074700154
186	0x3dc851a1	0.097811945
187	0x3da89e87	0.08233362
188	0xbd4cf071	-0.05003399
189	0xbe15cb73	-0.14628391
190	0x3e0e2b39	0.13883676
191	0xbde66d34	-0.112512976
192	0x3d894732	0.067030326
193	0x3dd40234	0.10351983
194	0x3dace77e	0.08442591
195	0xbd662e9d	-0.056196798
196	0x3d298847	0.04138973
197	0xbd8eb7b8	-0.06968635
198	0x3e117c09	0.14207472
199	0xbd80b086	-0.06283669
200	0xbe481471	-0.19539048
201	0xbd6cfdeb	-0.057859343
202	0x3b8157ab	0.0039472184
203	0x3e2c2d13	0.1681407
204	0x3db50cb0	0.088403106
205	0x3c82f12e	0.015984144
206	0x3d4fccd4	0.05073245
207	0x3da5117e	0.08059977
208	0x3d8e86d3	0.069593094
209	0x3ce99bc2	0.028516654
210	0xbd42af09	-0.047530208
211	0x3e2a7ed0	0.16649938
212	0x3dab9094	0.083771855
213	0xbd89586f	-0.067063205
214	0xbc98d736	-0.018657308
215	0x3d215c0e	0.03939443
216	0x3d36cbc7	0.04462793
217	0x3b7f50c3	0.003895805
218	0xbd283a97	-0.0410715
219	0xbd072530	-0.03299445
220	0x3b72adef	0.0037029942
221	0xbcb157d8	-0.021648332
222	0x3d85555c	0.06510422
223	0xbbde649f	-0.0067868973
224	0xbd34719f	-0.04405367
225	0xbd5750f3	-0.052567434
226	0xbd27227b	-0.040804368
227	0x3da8bf5a	0.082396224
228	0xbd587da2	-0.052854188
229	0x3d2314be	0.039814703
230	0xbd60b79e	-0.05486261
231	0xbdbc189a	-0.0918438
232	0x3d8f5631	0.069988616
233	0xbd4100a5	-0.047119755
234	0xbdb85bb0	-0.09001863
235	0xbdcda392	-0.10040964
236	0xbdeb4a13	-0.11488738
237	0xbcc722d1	-0.024308594
238	0xbd748b41	-0.059703115
239	0x3b02e161	0.0019970762
240	0x3c94c0e9	0.018158393
241	0x3e2e6f9e	0.17034766
242	0x3e110522	0.14162114
243	0x3da3051d	0.0795996
244	0x3d742589	0.05960611
245	0x3d544988	0.051827937
246	0xbd9b02cf	-0.07568895
247	0xbd2ad9d1	-0.041711632
248	0xbd2a2141	-0.04153562
249	0xbd641feb	-0.0556945
250	0xbcabc848	-0.020969525
251	0xbdb4f412	-0.08835615
252	0xb8226953	-3.87219e-05
253	0xbdc4c44c	-0.09607753
254	0xbd3012de	-0.042986743
255	0xbe3cf204	-0.18451697

network_body._body_endoder.seq_layers.2.bias f4 [128]
0	0x3c9ba851	0.019001158
1	0xbc7c7667	-0.015409089
2	0xbca5d76c	-0.020244323
3	0x3ccc07eb	0.02490612
4	0x3d3710aa	0.044693626
5	0xbcab587e	-0.02091622
6	0x3bbc2fbe	0.005742996
7	0x3bde8db1	0.0067917933
8	0xbd02a01b	-0.03189097
9	0x3d416bfe	0.04722213
10	0x3d3f0689	0.04663709
11	0x3da0b089	0.078461714
12	0x3c1b371f	0.009473591
13	0x3a2ec002	0.00066661846
14	0x3d5381b5	0.05163737
15	0x3c8adf52	0.01695219
16	0xbc426dd9	-0.01186701
17	0x3d2ae555	0.041722614
18	0xbc47f093	-0.012203353
19	0x3d2b3f5c	0.04180847
20	0x3d922f78	0.0713796
21	0x3c72809b	0.01480117
22	0xbbb4edf0	-0.0055215284
23	0x3bd303fb	0.0064396835
24	0x3d32b63e	0.04363083
25	0x3bc812df	0.0061057652
26	0xbc90935f	-0.017648397
27	0x3d9825a0	0.074290514
28	0x3d0d40a3	0.03448547
29	0x3d693dab	0.056943577
30	0x3cda2664	0.026629634
31	0x3b0aa77b	0.0021156955
32	0x3d6a41c3	0.05719162
33	0xb8eb425f	-0.00011218036
34	0x3d6859b3	0.05672617
35	0x3bc902b2	0.0061343545
36	0x3d4dfe1c	0.050291166
37	0x3c86fe78	0.016478762
38	0x3d4dcc8e	0.050243907
39	0x3d63d0c5	0.05561902
40	0x3d647f8a	0.055785693
41	0x3d6a4030	0.05719012
42	0x3bfc7360	0.0077041835
43	0xbb8f66e5	-0.0043762797
44	0x3d66a03d	0.05630516
45	0x3c7d564a	0.015462467
46	0x3d59fbc1	0.053218607
47	0x3cd0e6fd	0.025500769
48	0x3c6169c5	0.013758128
49	0x3d0c204f	0.0342105
50	0x3d6866dd	0.056738723
51	0x3c19e7ad	0.009393615
52	0x3ba14a3c	0.0049221795
53	0x3d56f3b0	0.052478492
54	0xbcbea34e	-0.02327123
55	0x3d2fbf58	0.04290709
56	0x3cf6fef5	0.03015087
57	0x3cc09c4c	0.023512028
58	0xbbca2389	-0.006168787
59	0x3cc6f770	0.02428791
60	0x3d22ef4c	0.039778993
61	0x3cd4a624	0.025958128
62	0xbc370b8f	-0.011172189
63	0x3d851d06	0.064996764
64	0x3cf23d00	0.029570103
65	0x3cd2daf1	0.025739165
66	0xba9c101d	-0.0011906658
67	0x3d46728b	0.04844908
68	0x3b8bb59b	0.0042635924
69	0x3caadb1c	0.020856433
70	0xbbd56a3a	-0.0065129073
71	0x3bcd91f8	0.0062735043
72	0x3d27467c	0.040838704
73	0xbc5ccac2	-0.013476076
74	0xbcb085e2	-0.021548215
75	0xbbac72ac	-0.0052626934
76	0x3d7b5488	0.061359912
77	0xbc9a869e	-0.018863019
78	0xbb8806d1	-0.004151203
79	0xbd3e64f6	-0.046483003
80	0x3c7a628f	0.015282287
81	0x3d0d1e9c	0.03445302
82	0xbc79b9e7	-0.0152420765
83	0x3d043f97	0.032287207
84	0x3cfc65e8	0.030810311
85	0x3cd19d41	0.02558768
86	0x3c08fd31	0.008361147
87	0x3c53d040	0.012928069
88	0xbb53d553	-0.0032323196
89	0xbc95d759	-0.018291162
90	0x3c2a85fe	0.010407923
91	0x3c133f54	0.008987267
92	0x3d1684c3	0.036747705
93	0x3ce0b825	0.027431557
94	0xbc7e50af	-0.015522166
95	0x3acc56c2	0.0015589821
96	0xbc182938	-0.009287171
97	0xbc0a8fc8	-0.008457132
98	0x3ca52029	0.020156937
99	0xbc18699e	-0.009302525
100	0xbaaccb96	-0.0013183232
101	0xbd0fa51e	-0.035069577
102	0x3ba6a2e7	0.0050853374
103	0xbc4f20c9	-0.012642094
104	0x3d51d6a8	0.051230103
105	0x3d71e21d	0.05905353
106	0x3d1b4c22	0.037914403
107	0x3d3e57c2	0.04647041
108	0x3d2d0286	0.042238735
109	0x3cd6708e	0.026176717
110	0x3d7f4eed	0.06233113
111	0xbbb2148c	-0.0054345783
112	0xb98dcacf	-0.0002704472
113	0xbba01044	-0.0048847515
114	0x3d588ea0	0.052870393
115	0x3d3b1770	0.04567665
116	0x3d1b9146	0.03798034
117	0x3c5e39b5	0.013563563
118	0x3c890bc3	0.016729241
119	0x3d2a64b3	0.04159994
120	0xbb27da94	-0.002561246
121	0xbc15d9e9	-0.009146192
122	0x3c9413f5	0.018075923
123	0x3c1393b1	0.00900738
124	0x3d4b34e0	0.049610972
125	0x3d797324	0.060900822
126	0x3d40c69d	0.047064412
127	0x3cafab46	0.021443974

action_model._discrete_distribution.branches.0.weight f4 [3, 128]
0	0x3d5b5ea2	0.053557046
1	0xbd0739ce	-0.03301411
2	0xbd689b86	-0.056788944
3	0x3d478de3	0.048719298
4	0x3d21bf5e	0.039489143
5	0xbd70f528	-0.05882755
6	0xbd2d0aba	-0.042246558
7	0xbd8c1696	-0.068402454
8	0xbd9115de	-0.07084249
9	0x3cc7f63c	0.024409406
10	0x3d6a1380	0.057147503
11	0x3d3fd2e8	0.046831995
12	0xbd9f2f75	-0.077727236
13	0x3c1e2c79	0.009654158
14	0x3d324383	0.043521415
15	0xbd58df68	-0.05294743
16	0xbd3b5c3e	-0.045742266
17	0x3d745b2d	0.059657265
18	0xbd3cb46c	-0.0460705
19	0x3d9111c9	0.070834704
20	0x3db53acd	0.08849106
21	0xbd4d4974	-0.05011888
22	0x3c36e521	0.011163027
23	0xbcb48ba4	-0.022039242
24	0x3dbb32af	0.091405265
25	0xbdb98e7b	-0.09060379
26	0xbc81b341	-0.015832545
27	0x3d785ba0	0.060634255
28	0xbced7e89	-0.028991
29	0x3dacdf4c	0.08441028
30	0x3d272725	0.040808816
31	0xbce21437	-0.02759753
32	0x3d892ccd	0.06697998
33	0xbd059741	-0.03261495
34	0x3dc253d5	0.09488646
35	0xbdbcca5d	-0.09218285
36	0x3d81a063	0.063294195
37	0xbb760a7f	-0.0037542877
38	0x3d8df06a	0.06930621
39	0x3d5bce9d	0.05366384
40	0xbbe086cf	-0.006852008
41	0x3d2cdc63	0.042202365
42	0xbcc7a7b6	-0.024371963
43	0x3a217d37	0.0006160321
44	0x3db9ed4c	0.09078464
45	0xbd08d5b8	-0.033406943
46	0xbb7e4455	-0.0038798053
47	0xbc573e4a	-0.013137409
48	0xbdfa3209	-0.12216575
49	0x3d3b2a8b	0.04569487
50	0x3d053f12	0.03253085
51	0xbdd411fe	-0.10354994
52	0xbb838cf8	-0.0040146075
53	0x3d8d344e	0.06894742
54	0xbd6e9d75	-0.05825563
55	0xbb6576dc	-0.0035013473
56	0x3ca5b936	0.020229917
57	0x3ba415bd	0.005007474
58	0xbdd4fde3	-0.103999875
59	0xbb7ecdae	-0.003887992
60	0xbc1e409e	-0.009658961
61	0x3d852e0e	0.06502925
62	0xbd642626	-0.055700444
63	0x3ce685b8	0.028139934
64	0x3c5947f1	0.013261781
65	0x3d9f5623	0.07780101
66	0xbda57be9	-0.080802746
67	0x3dc152dd	0.09439633
68	0x3d05eadb	0.03269468
69	0x3d0f96d8	0.035055965
70	0xbdbf4a41	-0.09340335
71	0xbd8214e3	-0.0635164
72	0x3c8156ac	0.015788399
73	0xbcc1831e	-0.023622092
74	0xbc555684	-0.013021115
75	0xbd5cb0d9	-0.053879593
76	0x3c80c730	0.01571998
77	0xbbd01ff1	-0.006351464
78	0xbc80e532	-0.015734289
79	0xbcea53cf	-0.028604416
80	0x3d1655e5	0.03670301
81	0x3d897cb7	0.067132406
82	0xbd51552e	-0.051106624
83	0x3d2f83ac	0.04285018
84	0x3d05d0ef	0.032669958
85	0x3bc6dc1a	0.0060687186
86	0xbd57c30a	-0.052676238
87	0xbd92b302	-0.07163049
88	0xbd6fa73d	-0.0585091
89	0xbd368d37	-0.044568267
90	0x3c952708	0.018207088
91	0x3cf70095	0.030151645
92	0x3ccae179	0.024765717
93	0xbd01b941	-0.031670813
94	0xbd93f4f4	-0.072244555
95	0xbcfdff24	-0.03100545
96	0xbd7ec7e6	-0.062202357
97	0xbbe2ffaf	-0.0069274525
98	0xbcea2c89	-0.02858569
99	0xbdac15ea	-0.08402617
100	0xbd5fa00d	-0.054595996
101	0xbcb96480	-0.02263093
102	0xbd9fa602	-0.07795335
103	0xbba58ae9	-0.00505196
104	0x3d71c6df	0.05902755
105	0x3daf92dc	0.08572933
106	0xbc10cec4	-0.008838359
107	0xbce640b3	-0.028107023
108	0xbc549d43	-0.012976947
109	0x3c8bf68d	0.017085338
110	0x3d847cb4	0.06469098
111	0xbd8981a8	-0.06714183
112	0xbdb7dc0b	-0.08977517
113	0xbdab9d9e	-0.083796725
114	0x3d5dfb64	0.054194823
115	0x3bccae49	0.0062463623
116	0x3d89bbeb	0.06725296
117	0x3d34b2b3	0.044115733
118	0xbce3241b	-0.027727177
119	0x3d8f1052	0.06985535
120	0xbdd7ee41	-0.1054349
121	0xbda715ef	-0.081584804
122	0xbd8c022b	-0.06836351
123	0x3d1103f4	0.03540416
124	0x3d64b337	0.055834975
125	0x3d3704d1	0.044682328
126	0x3dc047f9	0.09388728
127	0x3d8b90a6	0.06814699
128	0xbd143f2f	-0.03619307
129	0x3bb70d75	0.005586321
130	0xbcf9c92b	-0.030491432
131	0xbdace6dd	-0.08442471
132	0xbe145970	-0.14487243
133	0xbae80011	-0.0017700215
134	0xbd17c3a4	-0.03705181
135	0x3da594ff	0.080850594
136	0x3ccd7161	0.025078477
137	0xbe20ceab	-0.15703838
138	0x3d00dd49	0.031461034
139	0x3c194760	0.009355396
140	0x3d4103b1	0.04712266
141	0xbd98775a	-0.074446395
142	0xbddcb257	-0.10776203
143	0xbd9a929e	-0.07547496
144	0xbbfe5dcd	-0.007762647
145	0x3d6752d7	0.056475487
146	0xbd162daf	-0.03666466
147	0xbe022dd8	-0.127128
148	0x3d34ea90	0.04416901
149	0xbdc8ca6b	-0.09804233
150	0xbdc64114	-0.096803814
151	0xbd6b9580	-0.05751562
152	0xbd96f4a5	-0.07370881
153	0x38bbc6ad	8.953861e-05
154	0xbd52aa99	-0.051432226
155	0xbda3eb6c	-0.080038875
156	0xbdf96a6d	-0.12178502
157	0xbe064c4d	-0.13115044
158	0xbd4c90d6	-0.049942814
159	0xbda59257	-0.08084553
160	0x3d752e3f	0.059858557
161	0xbd962d8e	-0.073329076
162	0xbd86253c	-0.06550071
163	0x3dd5d5dd	0.10441182
164	0xbdd7f78a	-0.10545261
165	0x3d965654	0.073406845
166	0x3d429be4	0.04751195
167	0x3ce4260d	0.027850175
168	0xbd6b3cfa	-0.0574312
169	0xbde5b1ba	-0.11215539
170	0xbd318d43	-0.04334761
171	0x3ccf469e	0.025302228
172	0x3b49ada4	0.0030773664
173	0x3d59309e	0.05302488
174	0xbdd8ad47	-0.10579925
175	0x3dafb05a	0.08578558
176	0x3da07295	0.07834355
177	0x3d2e5c4b	0.042568486
178	0xbdce7479	-0.10080809
179	0xbc317f92	-0.010833638
180	0xbdaf2b41	-0.08553172
181	0xbd8323ac	-0.06403288
182	0xbc9fe6b1	-0.019519182
183	0x3c8d303c	0.017234914
184	0xbdfe19b4	-0.12407246
185	0x3d9df975	0.07713596
186	0x3d749050	0.05970794
187	0xbd862369	-0.06549723
188	0xbe144996	-0.14481196
189	0xbd80b5e4	-0.06284693
190	0xbc2bafcb	-0.010478924
191	0x3d10d4a4	0.03535904
192	0xbe0b3ff3	-0.13598613
193	0xbcd789b2	-0.026310775
194	0x3da068c8	0.078324854
195	0xbd6fd32a	-0.05855099
196	0x3a1b1ce3	0.0005917085
197	0x3d22ee42	0.039778
198	0x3bccfb2d	0.0062555284
199	0x3d8939ac	0.06700453
200	0xbe162f34	-0.14666444
201	0x3d88bb50	0.06676352
202	0xbd7106cb	-0.05884437
203	0x3c9fbf38	0.01950036
204	0x3d796bcf	0.06089383
205	0xbcc4f077	-0.024040444
206	0xbd345da5	-0.04403462
207	0x3c8238c7	0.015896214
208	0xbc2101cd	-0.0098270895
209	0x3c9e9580	0.019358397
210	0x3d950ab1	0.0727743
211	0xbc3a4eb6	-0.011371305
212	0xbd0405d5	-0.032232124
213	0x3db05914	0.0861074
214	0xbd8faac4	-0.07014993
215	0xbd7da370	-0.061923444
216	0x3d8c65db	0.06855365
217	0xbd0133f6	-0.031543694
218	0x3b990fe1	0.0046710824
219	0x3b08d978	0.0020881575
220	0x3d82db84	0.063895255
221	0xbdc4f015	-0.096161045
222	0x3d5ca0de	0.053864352
223	0x3d9a1058	0.075226486
224	0x3d606ead	0.05479305
225	0xbc9266b5	-0.01787124
226	0x3e0c0389	0.13673224
227	0x3d8b4f08	0.068021834
228	0x3dab2110	0.083559155
229	0xbae7d78e	-0.0017688142
230	0x3db29ebf	0.08721685
231	0xbd0b814c	-0.034058854
232	0xbdbfa8c9	-0.09358365
233	0xbd8a3a0b	-0.06749352
234	0x3ddd1f4e	0.107969865
235	0xbc9f8ef2	-0.019477341
236	0xbdcd393e	-0.10020684
237	0xbe09b548	-0.1344806
238	0xbd15661e	-0.03647434
239	0x3d5e0209	0.05420116
240	0xbceefb17	-0.029172463
241	0x3de88151	0.1135279
242	0x3d1476f2	0.036246248
243	0x3d5771ad	0.052598644
244	0xbb43f20b	-0.0029898908
245	0x3d4f59f4	0.050622895
246	0xbe0798b7	-0.1324185
247	0xbd88a1ca	-0.06671484
248	0x3b124447	0.0022318528
249	0x3d94de9c	0.07269022
250	0x3df11838	0.117721975
251	0xbd8f10e1	-0.06985641
252	0x3d4f3881	0.050590996
253	0x3d7b8c64	0.061413184
254	0x3cbbcb87	0.022924198
255	0xbd4c9e48	-0.049955636

action_model._discrete_distribution.branches.0.bias f4 [3]
0	0x3c7aaa1c	0.015299346
1	0xbc059b80	-0.00815475
2	0xbc2d77bf	-0.010587632

action_model._discrete_distribution.branches.1.weight f4 [3, 128]
0	0x3bf8b412	0.0075898254
1	0xbbb81843	-0.0056181266
2	0xbc9a662e	-0.018847551
3	0xba20af94	-0.0006129679
4	0x3d3ac748	0.045600206
5	0xbc0b57da	-0.008504832
6	0x3bb64426	0.005562323
7	0xbbbf71c4	-0.0058424193
8	0xbc8b94f9	-0.01703881
9	0x3c8274f3	0.015924906
10	0x3d05d3d5	0.032672722
11	0x3d0d1d1f	0.0344516
12	0xbd065831	-0.03279895
13	0xbc9f9994	-0.019482411
14	0x3d05f429	0.032703552
15	0xbc0e39dc	-0.008680787
16	0xbb9e8d99	-0.004838657
17	0x3b597534	0.003318143
18	0xbbff5371	-0.0077919294
19	0xbb2f4bb4	-0.0026748003
20	0x3d05dd13	0.032681536
21	0xbd21c0ac	-0.039490387
22	0xbca9dced	-0.020735228
23	0xbc989d0a	-0.01862957
24	0x3c36703b	0.011135156
25	0x3ac1c606	0.0014783747
26	0xbd0e13a3	-0.034686696
27	0x3cdc5516	0.02689604
28	0x3ce483b2	0.027894828
29	0xbc5a3dde	-0.013320414
30	0x3af80ce5	0.0018924741
31	0xbab4d684	-0.0013796841
32	0x3b699086	0.0035639121
33	0xbb8140d1	-0.0039444943
34	0x3d077af8	0.033076257
35	0xbc4d5a15	-0.012533684
36	0x3bb5f71f	0.005553141
37	0x3bbceae8	0.0057653077
38	0x3b1001d4	0.0021973746
39	0x3b9d2425	0.0047955685
40	0x3c928e0d	0.01789
41	0x3d0034c7	0.031300332
42	0xbce2dc5a	-0.027692962
43	0x39dc9825	0.00042075026
44	0x3d333708	0.043753654
45	0x3d1cafa1	0.03825343
46	0x3d085099	0.03327999
47	0xba0eea20	-0.00054517575
48	0xbc946465	-0.018114278
49	0x3caa256a	0.020769794
50	0x3c8fad62	0.01753873
51	0xbc444ff5	-0.011981954
52	0x3c414985	0.011797314
53	0xb93df7bd	-0.00018116734
54	0x3a53800a	0.00080680905
55	0x3ce44e09	0.027869241
56	0x3c2bf0b9	0.0104944045
57	0x3b1afa49	0.0023647717
58	0x3c7356bc	0.014852222
59	0x3cfa39a3	0.030545061
60	0x3ce248d6	0.027622622
61	0x3c0ebccb	0.008712004
62	0xbce4308c	-0.02785518
63	0x3d6f0e63	0.05836333
64	0x3be6a167	0.0070382836
65	0x39550131	0.00020313707
66	0xbb236ab5	-0.0024935429
67	0x3cc1c5c0	0.023653865
68	0xbc09c605	-0.008409028
69	0x3c213234	0.0098386295
70	0xbc9cc5de	-0.01913732
71	0xbbb1a5f5	-0.005421395
72	0xbb73c487	-0.0037195997
73	0xbc71e736	-0.014764598
74	0xbcb29056	-0.02179734
75	0x3bc0bf06	0.005882147
76	0x3cf88ec9	0.030341523
77	0x3c40a64e	0.0117584
78	0xbc8487de	-0.016178068
79	0xbd3fdc4b	-0.046840947
80	0x3a47802c	0.00076103467
81	0x3c138dc7	0.00900597
82	0xbcf850cf	-0.03031197
83	0x3a3519ee	0.0006908466
84	0x3ce78bf1	0.028264971
85	0x3b688d9c	0.0035484796
86	0xbc0d00f1	-0.0086061815
87	0x3a20e33c	0.0006137376
88	0x3aca3884	0.001542822
89	0xbd3354b8	-0.043781966
90	0x3bba5f20	0.0056876093
91	0x3c300bf6	0.010745039
92	0x3c342c38	0.010996871
93	0x3b7ae3f4	0.0038282843
94	0xbce79c31	-0.02827272
95	0x3c20b467	0.009808636
96	0xbbac68c6	-0.0052615134
97	0xbc51ee11	-0.012813107
98	0xbb63ab2e	-0.0034739482
99	0xbc884d45	-0.016638407
100	0xbc75b0d3	-0.014995771
101	0xbcde62e2	-0.02714676
102	0xbc4e968c	-0.012609135
103	0xbc6a89d5	-0.014315088
104	0x3caee0cb	0.021347424
105	0x3d10f30c	0.035388038
106	0x3c80a8a8	0.015705422
107	0x3db71a5b	0.08940574
108	0x3c3f9f86	0.011695748
109	0xbba6801a	-0.005081189
110	0x3d292fac	0.04130523
111	0xbcace156	-0.021103542
112	0xbc24bee6	-0.010055279
113	0xbc9a0ed5	-0.0188059
114	0x3bd5001f	0.0065002586
115	0x3d4ae498	0.04953441
116	0x3cf66604	0.030077942
117	0xbc4dd3bc	-0.012562688
118	0xbbf1edcc	-0.007383084
119	0xbb144c30	-0.002262842
120	0xbcbd0aa9	-0.023076372
121	0x3c049965	0.008093213
122	0xbc2c576a	-0.010518888
123	0xbca7ab1c	-0.020467333
124	0x3cd421d7	0.025895042
125	0x3d3f5e93	0.046721052
126	0x3a29fa51	0.00064841384
127	0xbbb288a6	-0.0054484187
128	0x3c8e08b0	0.017338127
129	0xbc441dfa	-0.011970038
130	0xbc80cf3a	-0.015723813
131	0x3ce9b12f	0.02852687
132	0x3c1e8221	0.00967458
133	0xbb29ffd2	-0.0025939834
134	0x3c7e703f	0.015529691
135	0xbd0d611a	-0.03451643
136	0x3b5594d0	0.003258992
137	0x3c9c25bd	0.019060964
138	0x3b9e54ef	0.004831902
139	0x3d50e6dd	0.05100142
140	0xbd132af6	-0.035929643
141	0x3cbc13cd	0.02295866
142	0x3cea5af9	0.028607832
143	0xbcb07a6b	-0.021542748
144	0xbd053a51	-0.032526318
145	0xbb3b74c7	-0.002860354
146	0xbcea0eee	-0.028571572
147	0x3ca3707f	0.019951103
148	0x3d275f35	0.04086228
149	0xbb9cc1c6	-0.004783842
150	0xbc9fcb46	-0.019506108
151	0xbabcc1d4	-0.0014401027
152	0x3ca1fc1c	0.019773535
153	0xbc5b0f72	-0.013370382
154	0xbd556bf7	-0.052104916
155	0x3d08a18e	0.033357196
156	0x3cbe34da	0.023218561
157	0x3cbde0ab	0.02317842
158	0x3cdd74ae	0.027033176
159	0x3b69e875	0.0035691534
160	0x3d097391	0.03355748
161	0x3cd171d6	0.025566977
162	0x3d2ecb1b	0.042674165
163	0xbc9e05a0	-0.019289792
164	0x3d035df8	0.032072037
165	0x3c6f6c6c	0.014613252
166	0x3b30dfca	0.0026988857
167	0x3d501674	0.050802663
168	0x3d9eb84d	0.07749996
169	0x3d00a934	0.031411365
170	0x3c5da2af	0.013527556
171	0xbc524b0b	-0.012835274
172	0x3c1dc98a	0.00963057
173	0xbbd5ded4	-0.0065268073
174	0x3cc9336c	0.024560653
175	0x3cd816dd	0.02637809
176	0xbcaa1aa1	-0.02076465
177	0x3bf21a08	0.007388357
178	0x3d310b96	0.04322394
179	0x3c33608c	0.010948312
180	0xbc3e1011	-0.01160051
181	0x3d28bf8d	0.041198302
182	0x3bbbf15f	0.005735561
183	0x3c7c6d45	0.015406911
184	0x3bb92c41	0.0056510274
185	0xbc08c2f6	-0.008347264
186	0xbc954616	-0.018221896
187	0x3cf0a18b	0.029373905
188	0x3c8af8dc	0.016964369
189	0xbc04b08b	-0.008098732
190	0xbccd7ae0	-0.025083005
191	0x3cf00366	0.029298496
192	0x3b0af3b2	0.0021202383
193	0xba8d3d1c	-0.0010775658
194	0xbcd0c31a	-0.025483657
195	0x3d5db350	0.054126084
196	0xbc03b8d7	-0.008039675
197	0xbcc53dbe	-0.024077293
198	0xbc858756	-0.016299885
199	0x3b71e726	0.0036911457
200	0x3be29659	0.0069148955
201	0xbc8b3bb2	-0.016996238
202	0xbc95dd4a	-0.018293995
203	0xbd387046	-0.045028947
204	0x3bb5edf2	0.005552047
205	0xbd3cfbb3	-0.046138477
206	0xbc9d2944	-0.019184716
207	0xbbcd2547	-0.0062605473
208	0x3c82ae7b	0.01595234
209	0x3cc9be35	0.02462683
210	0xbd1f7443	-0.038929235
211	0x3cdf7177	0.027275784
212	0x3ced6b60	0.028981864
213	0xbc8b0541	-0.016970279
214	0xbab5ca70	-0.0013869535
215	0xbc4e22c3	-0.01258153
216	0x3c5a6b2d	0.013331217
217	0xbd14425e	-0.036196105
218	0xbcdcbe7f	-0.026946304
219	0xbb75fcb8	-0.0037534665
220	0x3c9b02ce	0.018922236
221	0x3ca510fc	0.0201497
222	0xbc0fe346	-0.008782214
223	0xbcadb215	-0.02120308
224	0xbd1ac6d7	-0.037787285
225	0xbd1292b5	-0.035784442
226	0xbd180161	-0.03711069
227	0xbc12215a	-0.008919084
228	0xbcae9e66	-0.021315765
229	0xbce5b66a	-0.028041083
230	0x3ba1607e	0.004924833
231	0xbc750eb7	-0.014957122
232	0x3cdcd35e	0.026956256
233	0x3d501f51	0.050811116
234	0xbc32d59e	-0.010915188
235	0x3d330b85	0.043712158
236	0x3d28600c	0.041107222
237	0x3ca3b30d	0.019982839
238	0x3d595078	0.053055257
239	0xbcbb9338	-0.022897348
240	0xb9f3e0b9	-0.00046516003
241	0xbd90e435	-0.07074777
242	0x3a6ecda9	0.0009109625
243	0x3c94a660	0.01814574
244	0x3c8e2ea5	0.017356226
245	0xbc101edb	-0.008796419
246	0xbc65a30e	-0.014015926
247	0x3c42ad87	0.011882192
248	0x3aa90fa4	0.0012898338
249	0xba83a456	-0.0010043483
250	0x3c61d3dc	0.013783421
251	0xbc9b5403	-0.018960958
252	0x3cdc1bbe	0.026868697
253	0x3c7b4a48	0.015337534
254	0x3c4bba87	0.012434608
255	0x3adad966	0.001669687

action_model._discrete_distribution.branches.1.bias f4 [3]
0	0x3b63b8af	0.0034747531
1	0x3c33e154	0.010979015
2	0xbc978a80	-0.01849866

exp_avg f4 [128, 68]
0	0xb8de924d	-0.000106130356
1	0xb7a518a0	-1.9681e-05
2	0xb7e7043f	-2.7539323e-05
3	0x37a02332	1.9089875e-05
4	0xb656ca83	-3.2006362e-06
5	0xb72261a1	-9.678683e-06
6	0xb8a6fae6	-7.96223e-05
7	0xb84da3f9	-4.902852e-05
8	0xb7b71640	-2.1825661e-05
9	0x38238fbd	3.8996095e-05
10	0xb6fe92fe	-7.586902e-06
11	0x3578f5a2	9.274464e-07
12	0xb80d1886	-3.363986e-05
13	0xb85572eb	-5.0890183e-05
14	0xb81325b4	-3.5082645e-05
15	0x37387e72	1.0996695e-05
16	0xb72eb71d	-1.0413843e-05
17	0xb853e923	-5.0523446e-05
18	0xb8b23be4	-8.498857e-05
19	0xb87baf59	-6.000637e-05
20	0xb78f395d	-1.707364e-05
21	0x380667b8	3.2044685e-05
22	0xb4ee5633	-4.4393673e-07
23	0xb549cd7b	-7.517735e-07
24	0xb88f6c79	-6.838976e-05
25	0x36cbe84c	6.0769144e-06
26	0xb846793e	-4.7319794e-05
27	0x35c61cb2	1.4760501e-06
28	0xb5529679	-7.845006e-07
29	0xb87962f3	-5.945838e-05
30	0xb84c1d89	-4.8664897e-05
31	0xb8165ea5	-3.585093e-05
32	0xb84e4a8f	-4.9183665e-05
33	0x380d0070	3.3617427e-05
34	0x34dae25a	4.0770357e-07
35	0xb771c554	-1.4410663e-05
36	0xb8685bbb	-5.539854e-05
37	0xb722cfdb	-9.704348e-06
38	0xb85d732d	-5.279777e-05
39	0x379dcdfb	1.8811776e-05
40	0xb6351086	-2.698072e-06
41	0xb83c358f	-4.4872573e-05
42	0xb821cbf5	-3.857534e-05
43	0xb83cb1da	-4.498833e-05
44	0xb7e9d9ab	-2.7877124e-05
45	0x36d7533f	6.4171904e-06
46	0xb5a5b798	-1.2346891e-06
47	0xb6cffef0	-6.1987594e-06
48	0xb8ab06b1	-8.155162e-05
49	0x37da32be	2.6011254e-05
50	0xb897031b	-7.2008195e-05
51	0x37ce8606	2.4619523e-05
52	0x3585428f	9.928643e-07
53	0xb81c8569	-3.7317546e-05
54	0xb833a2bb	-4.282848e-05
55	0xb805389b	-3.176239e-05
56	0xb7b198f1	-2.1171263e-05
57	0xb704c4c1	-7.913623e-06
58	0xb5b30314	-1.3337435e-06
59	0xb79a83c2	-1.8419585e-05
60	0xb800bb90	-3.069226e-05
61	0xb6ba13f0	-5.545553e-06
62	0xb896c86e	-7.18989e-05
63	0x36b96811	5.5255446e-06
64	0xb31790c5	-3.5289094e-08
65	0xb78ac744	-1.6543672e-05
66	0xba0ca6e4	-0.0005365445
67	0x3635b93c	2.7078922e-06
68	0x38825a7e	6.2157385e-05
69	0x38b0f02b	8.437069e-05
70	0xb7f451a5	-2.9125085e-05
71	0xb890f344	-6.911767e-05
72	0xb6e038e9	-6.6823454e-06
73	0xb6f2157d	-7.2146636e-06
74	0xb7c6ad00	-2.3683999e-05
75	0x38f2bb8f	0.00011574395
76	0xb879a4c2	-5.951967e-05
77	0xb8d4db2a	-0.0001014977
78	0x37f652ca	2.9364037e-05
79	0xb7b26685	-2.1266993e-05
80	0xb9c8d43b	-0.00038305097
81	0x398d38e7	0.0002693601
82	0x3957e736	0.0002059013
83	0xb8bb9b13	-8.94574e-05
84	0x37da2e9a	2.6009326e-05
85	0x397eef09	0.00024312375
86	0xb8fe89ee	-0.00012137355
87	0x397fde85	0.0002440159
88	0xb83649a9	-4.3460783e-05
89	0xb820e663	-3.8361537e-05
90	0xb6f39dd7	-7.2603393e-06
91	0xb906c801	-0.00012853743
92	0xb95ebab9	-0.0002124113
93	0x395d1b4a	0.00021086368
94	0x38bd96cc	9.0403104e-05
95	0xb87d7754	-6.0431033e-05
96	0xb6139d4b	-2.1996264e-06
97	0x38a7e915	8.0065955e-05
98	0xb96668b0	-0.00021973508
99	0x3927c3a6	0.00015999246
100	0x36473439	2.9683708e-06
101	0x373a2d9a	1.1097081e-05
102	0x35fa3942	1.8643116e-06
103	0xb8b93cf5	-8.8328416e-05
104	0xb9aa2cc7	-0.00032458288
105	0x398b1d7a	0.00026534108
106	0x390ee588	0.00013627682
107	0xb88bd35e	-6.667407e-05
108	0xb60cc4d3	-2.0976192e-06
109	0xb7480b06	-1.1923496e-05
110	0xb96dfae3	-0.00022695544
111	0x39700dc5	0.00022893313
112	0x37107d2f	8.612215e-06
113	0x3702020a	7.749079e-06
114	0x35a793b4	1.2485457e-06
115	0xb83e1ed2	-4.5328234e-05
116	0xb90c9470	-0.00013406738
117	0x39345672	0.00017198341
118	0x385988f2	5.1864372e-05
119	0xb8a9a37a	-8.088998e-05
120	0xb54e0161	-7.6742987e-07
121	0x37d49a1b	2.534413e-05
122	0xb9421f0e	-0.0001851285
123	0x3932b744	0.00017043675
124	0xb5548c39	-7.9180205e-07
125	0x37c453ed	2.3404102e-05
126	0x341c9dab	1.4585991e-07
127	0xb7424e1b	-1.1581486e-05
128	0xb8adceff	-8.287839e-05
129	0x390ef887	0.00013634759
130	0x37f3ffa5	2.9086901e-05
131	0xb8bf4c0a	-9.121753e-05
132	0x368be708	4.1694184e-06
133	0x38305a25	4.2045624e-05
134	0x3842904a	4.6387584e-05
135	0xb73aed08	-1.1141652e-05
136	0x39ad47dd	0.00033050674
137	0xb6fc5202	-7.519732e-06
138	0x38f1921b	0.0001151899
139	0xb8e165ee	-0.00010747822
140	0x378255de	1.5537193e-05
141	0x38103ab7	3.4386958e-05
142	0x3985e509	0.0002553838
143	0x38bd9218	9.0394344e-05
144	0x38e6b4c9	0.000110009285
145	0xb92ee4c1	-0.0001667915
146	0x380a8d7c	3.303353e-05
147	0x370a4ef5	8.243825e-06
148	0x38a25b52	7.741772e-05
149	0x3894e035	7.098952e-05
150	0x393196bf	0.00016936193
151	0xb8a5aafd	-7.899662e-05
152	0x37cb41fc	2.4230212e-05
153	0x391e1145	0.00015074488
154	0x397387e9	0.00023224916
155	0x38b80e2b	8.776443e-05
156	0x38a9fde0	8.105836e-05
157	0xb85c8c0c	-5.2582516e-05
158	0xb6892c55	-4.088079e-06
159	0xb7ec7519	-2.818792e-05
160	0x394dfddd	0.00019644895
161	0xb8b8d7c3	-8.8139925e-05
162	0x392f32d8	0.00016708241
163	0xb87a3227	-5.9651353e-05
164	0x36c055e9	5.732047e-06
165	0x39388723	0.0001759795
166	0x38c0d367	9.19465e-05
167	0x383303cf	4.2680473e-05
168	0x3942485c	0.00018528238
169	0xb8c4630c	-9.364457e-05
170	0xb540e734	-7.186202e-07
171	0xb7653583	-1.3661923e-05
172	0x3958a90d	0.00020662342
173	0xb8ca2aab	-9.640058e-05
174	0x394cdf07	0.0001953804
175	0xb8ecaf29	-0.00011285983
176	0x366254d8	3.372601e-06
177	0x39081b48	0.00012980134
178	0x38c41ada	9.35101e-05
179	0x38398e6e	4.4240085e-05
180	0x38cc4801	9.74089e-05
181	0xb7d4f2ec	-2.5385489e-05
182	0x3667a27b	3.4516258e-06
183	0xb6f52fe6	-7.307145e-06
184	0x396cfc35	0.00022600668
185	0xb9105908	-0.00013766077
186	0x3974d74c	0.00023349858
187	0xb9010ac9	-0.00012306416
188	0xb67ab56c	-3.7358504e-06
189	0x38d9d246	0.00010386533
190	0x3895b12f	7.137877e-05
191	0x385aa7b1	5.2131425e-05
192	0x3895b657	7.138837e-05
193	0x374a7e05	1.2069479e-05
194	0x3644ab3e	2.9305952e-06
195	0x37bb3afc	2.2319604e-05
196	0x3828b5e6	4.0223727e-05
197	0xb7948c8f	-1.7708428e-05
198	0x397658dd	0.00023493492
199	0xb8721030	-5.7712372e-05
200	0xb507ded3	-5.061567e-07
201	0x38181034	3.6254714e-05
202	0x3a87b89c	0.00103547
203	0xb72d7634	-1.0339125e-05
204	0x3995b41c	0.00028553687
205	0xb7c396f3	-2.3316103e-05
206	0x3886d255	6.428795e-05
207	0xb7af8e1b	-2.0927799e-05
208	0x3700a9e4	7.66895e-06
209	0x37fb8c3e	2.9986837e-05
210	0x39874808	0.00025802874
211	0x38287b66	4.0169245e-05
212	0x389aca9b	7.3810304e-05
213	0xb895691e	-7.124453e-05
214	0x3790855a	1.7228234e-05
215	0x37e48d2e	2.724546e-05
216	0x394c82e3	0.00019503715
217	0xb71c953a	-9.333069e-06
218	0x38b14dd5	8.454515e-05
219	0xb6ec148f	-7.0357414e-06
220	0x36c9205f	5.9940353e-06
221	0x3894b4ae	7.090844e-05
222	0x3994716e	0.00028313271
223	0x37da5191	2.6025607e-05
224	0x3858759b	5.160794e-05
225	0xb822d286	-3.8819875e-05
226	0xb52ec82f	-6.5111357e-07
227	0x38163934	3.581606e-05
228	0x396d097d	0.00022605616
229	0xb8a17395	-7.698607e-05
230	0x38e6ed15	0.000110114146
231	0xb70b8203	-8.315316e-06
232	0x3592744b	1.0911693e-06
233	0x38fb5f49	0.00011986361
234	0x38c56ede	9.414343e-05
235	0x37c93c49	2.398914e-05
236	0x395f3e0f	0.00021290056
237	0xb86aec40	-5.6009972e-05
238	0xb5a9ae83	-1.2642271e-06
239	0x37bd912d	2.2598158e-05
240	0x39477b68	0.00019024091
241	0xb89d9b63	-7.5152864e-05
242	0x392b1c28	0.0001631832
243	0xb813cada	-3.523645e-05
244	0x3603e261	1.965229e-06
245	0x38e446fc	0.00010885109
246	0x394f293f	0.00019756424
247	0x37a43ab0	1.9577652e-05
248	0x387193b4	5.7596437e-05
249	0xb7d94928	-2.5902482e-05
250	0x35dced8b	1.6460411e-06
251	0x37e52705	2.7317097e-05
252	0x39144254	0.00014139089
253	0xb8c52a81	-9.401609e-05
254	0x3974426c	0.00023294397
255	0xb80c75da	-3.348836e-05

exp_avg_sq f4 [128, 68]
0	0x33ce80d4	9.616056e-08
1	0x33de49a4	1.0351076e-07
2	0x32067bb7	7.827956e-09
3	0x326c6e09	1.3762027e-08
4	0x30b32383	1.3034057e-09
5	0x32c2362e	2.260921e-08
6	0x33e0e746	1.0472881e-07
7	0x33b47e03	8.4048246e-08
8	0x32011a00	7.5147e-09
9	0x32cc57cf	2.3788656e-08
10	0x30c0823e	1.4006856e-09
11	0x32b38f36	2.0903467e-08
12	0x33d99689	1.0132232e-07
13	0x33c4a6c2	9.157294e-08
14	0x32054d5f	7.759211e-09
15	0x329bce85	1.8138289e-08
16	0x312abc11	2.484516e-09
17	0x32b1a92e	2.0682446e-08
18	0x33f05b26	1.1192451e-07
19	0x33a2f38d	7.5880145e-08
20	0x32115c5d	8.461112e-09
21	0x33033b9b	3.0555025e-08
22	0x2ff8a1a4	4.522579e-10
23	0x329078b6	1.68187e-08
24	0x34057a9f	1.24312e-07
25	0x339f3943	7.41443e-08
26	0x32079e45	7.8940205e-09
27	0x325ee52f	1.2974211e-08
28	0x30cab8d0	1.4749961e-09
29	0x32d89450	2.5213154e-08
30	0x3404c441	1.2364855e-07
31	0x3379c398	5.815272e-08
32	0x322666c5	9.685839e-09
33	0x330b5521	3.2440884e-08
34	0x30a6d47c	1.2138481e-09
35	0x329505b6	1.734848e-08
36	0x3411da07	1.3583495e-07
37	0x3370c508	5.6058553e-08
38	0x31aba3e2	4.9953863e-09
39	0x3289ce9b	1.6042852e-08
40	0x31035ca4	1.911567e-09
41	0x32c6f54e	2.3161785e-08
42	0x34193329	1.4267847e-07
43	0x3346f477	4.6322807e-08
44	0x31d014cf	6.0559624e-09
45	0x331643eb	3.4986368e-08
46	0x2fc6af94	3.6140746e-10
47	0x328e6502	1.6576909e-08
48	0x34340e0a	1.6768914e-07
49	0x332e2158	4.0542858e-08
50	0x320de877	8.260137e-09
51	0x31f3885c	7.087733e-09
52	0x307703b6	8.986335e-10
53	0x32bd0327	2.200393e-08
54	0x3426e5b5	1.5543522e-07
55	0x3309dc57	3.2098196e-08
56	0x31dc4719	6.4109256e-09
57	0x332b4397	3.9875513e-08
58	0x2ff4573b	4.4445322e-10
59	0x326a7194	1.3646417e-08
60	0x34558a1a	1.9887412e-07
61	0x32c23de7	2.2612722e-08
62	0x32486185	1.1663706e-08
63	0x30eb8ae9	1.7137981e-09
64	0x2f907748	2.6278202e-10
65	0x3287914f	1.5782147e-08
66	0x36c76bda	5.9432177e-06
67	0x31d0a324	6.0721437e-09
68	0x35b86e74	1.3741214e-06
69	0x3529f616	6.331551e-07
70	0x33d65d97	9.9821754e-08
71	0x340a499d	1.2879032e-07
72	0x32058652	7.77216e-09
73	0x346661ad	2.1455953e-07
74	0x3597c540	1.1307784e-06
75	0x35601d41	8.348907e-07
76	0x33ac9dd2	8.0380815e-08
77	0x33e7b359	1.0789399e-07
78	0x337fed68	5.9587734e-08
79	0x348a3e95	2.5750037e-07
80	0x35c3c100	1.4584803e-06
81	0x34eda4ce	4.42646e-07
82	0x34247549	1.5316358e-07
83	0x343e3fac	1.7718293e-07
84	0x3192e5bf	4.2752784e-09
85	0x345f2595	2.0782166e-07
86	0x35aa6952	1.2696639e-06
87	0x354a67e2	7.5402033e-07
88	0x33808d8d	5.9862124e-08
89	0x33dfeb77	1.04270775e-07
90	0x32a02c4f	1.86466e-08
91	0x34769c20	2.2967333e-07
92	0x35cac856	1.5108478e-06
93	0x34a1539a	3.0049415e-07
94	0x3479496b	2.3216641e-07
95	0x34390782	1.7232199e-07
96	0x31cc4d8a	5.9459966e-09
97	0x34217904	1.5038319e-07
98	0x35d06849	1.5527559e-06
99	0x34ff967d	4.7606946e-07
100	0x333602b9	4.2377653e-08
101	0x3424e26e	1.5356065e-07
102	0x32686f77	1.35295215e-08
103	0x342875d4	1.5689085e-07
104	0x35d1df90	1.5636779e-06
105	0x345710ee	2.0029594e-07
106	0x34cf4c04	3.8612063e-07
107	0x3404d248	1.2369958e-07
108	0x30cdd767	1.4976934e-09
109	0x340e0b55	1.3228903e-07
110	0x35e30870	1.6915274e-06
111	0x34c7cf93	3.721767e-07
112	0x330c609b	3.2684152e-08
113	0x346f2c09	2.227463e-07
114	0x3135649d	2.6396159e-09
115	0x34102879	1.3425769e-07
116	0x35d3ecf5	1.5789689e-06
117	0x342770e1	1.5594152e-07
118	0x34f4cfbc	4.5599688e-07
119	0x33d11c2d	9.737446e-08
120	0x310b88ca	2.0304918e-09
121	0x33e1f17d	1.05213054e-07
122	0x35e71797	1.7217707e-06
123	0x34aae91c	3.1834577e-07
124	0x32fe02c7	2.9570755e-08
125	0x348c836a	2.6172648e-07
126	0x31229932	2.3661184e-09
127	0x33eeb679	1.111593e-07
128	0x35e2acd2	1.688861e-06
129	0x33e5d4da	1.0702361e-07
130	0x35008457	4.7876296e-07
131	0x339adc82	7.211294e-08
132	0x309c1891	1.1357476e-09
133	0x33af4ce6	8.16306e-08
134	0x387f9fa0	6.09454e-05
135	0x331221b8	3.402394e-08
136	0x3545d02c	7.369115e-07
137	0x35578d42	8.02993e-07
138	0x33c29c58	9.062268e-08
139	0x34191d90	1.425999e-07
140	0x32328804	1.039189e-08
141	0x344ed0d3	1.9261215e-07
142	0x3583df08	9.825171e-07
143	0x35069ce0	5.0147173e-07
144	0x33c4a0b4	9.156193e-08
145	0x3461a6c6	2.101543e-07
146	0x3204dee5	7.734092e-09
147	0x343afc26	1.7414331e-07
148	0x355067bd	7.7637e-07
149	0x354546ee	7.3491435e-07
150	0x33d8137f	1.006183e-07
151	0x3414e4ea	1.3866853e-07
152	0x32c791dc	2.3232978e-08
153	0x343b666f	1.7452997e-07
154	0x35a1bc42	1.2050225e-06
155	0x34c845a8	3.7303585e-07
156	0x33d9bc65	1.0139119e-07
157	0x343d0973	1.7605434e-07
158	0x315ad06a	3.1841645e-09
159	0x342bfd5f	1.6017792e-07
160	0x35709e6e	8.963751e-07
161	0x35256a10	6.162163e-07
162	0x33b7881f	8.546362e-08
163	0x3416f3b5	1.4058499e-07
164	0x32207174	9.339022e-09
165	0x3443922b	1.8213966e-07
166	0x35ae3dd7	1.2982008e-06
167	0x3495dbe6	2.791341e-07
168	0x33e941b6	1.0861861e-07
169	0x342efa9e	1.6296187e-07
170	0x31f0d16c	7.008728e-09
171	0x3436277d	1.6964437e-07
172	0x358b358a	1.0371889e-06
173	0x34f74a64	4.6061461e-07
174	0x33882c95	6.341103e-08
175	0x344efd6e	1.9277442e-07
176	0x320a9e65	8.068672e-09
177	0x3428265e	1.5660177e-07
178	0x35b655d6	1.3585038e-06
179	0x34907e0f	2.691381e-07
180	0x33bb212c	8.7139e-08
181	0x346817b5	2.1615308e-07
182	0x314f701e	3.0186196e-09
183	0x3411dc05	1.358422e-07
184	0x35a95449	1.2616011e-06
185	0x34cb91cb	3.7917775e-07
186	0x33778649	5.76313e-08
187	0x33fdb90f	1.18148925e-07
188	0x31667ebb	3.3541443e-09
189	0x3421d21a	1.5070728e-07
190	0x35bdd5a4	1.4143775e-06
191	0x3465ab1a	2.1389533e-07
192	0x33c3ee65	9.123759e-08
193	0x34806b3c	2.391988e-07
194	0x314a8724	2.9471687e-09
195	0x33f50fcf	1.1411577e-07
196	0x35c866a2	1.4931031e-06
197	0x3483ae9c	2.4527696e-07
198	0x33992c92	7.132725e-08
199	0x3395cbc8	6.975421e-08
200	0x3124c381	2.3976272e-09
201	0x33e40be4	1.061924e-07
202	0x3849ed81	4.8143327e-05
203	0x3394c87e	6.9282564e-08
204	0x352623ec	6.189209e-07
205	0x34845985	2.465205e-07
206	0x331956e8	3.570213e-08
207	0x335ea940	5.1842335e-08
208	0x31307001	2.5675038e-09
209	0x33b31993	8.339989e-08
210	0x352fc7d2	6.5483357e-07
211	0x342a5725	1.5864187e-07
212	0x331806b7	3.5396365e-08
213	0x33feb8ba	1.1861398e-07
214	0x30e1ded5	1.6434237e-09
215	0x33958849	6.963143e-08
216	0x352cb6e1	6.4341117e-07
217	0x3480789e	2.3929618e-07
218	0x33145337	3.453462e-08
219	0x3302eac3	3.0481498e-08
220	0x31743c19	3.5540835e-09
221	0x33b13fd8	8.253818e-08
222	0x3536ceb2	6.8101065e-07
223	0x34102210	1.3423437e-07
224	0x33238550	3.8072642e-08
225	0x341229fe	1.3612586e-07
226	0x3094de55	1.0831608e-09
227	0x3387f08d	6.330183e-08
228	0x35299778	6.317782e-07
229	0x3468012e	2.1607113e-07
230	0x333ba998	4.3693575e-08
231	0x333838de	4.289256e-08
232	0x30fa9cbf	1.8234444e-09
233	0x33bf90d3	8.920474e-08
234	0x35352a52	6.748934e-07
235	0x33d73876	1.0021988e-07
236	0x336c8b12	5.5074516e-08
237	0x3421721c	1.5035806e-07
238	0x30f31723	1.7687153e-09
239	0x33935750	6.861103e-08
240	0x3518c239	5.6907044e-07
241	0x3460178c	2.0870192e-07
242	0x33cb93d3	9.479813e-08
243	0x338291b4	6.0801e-08
244	0x3106dd48	1.962535e-09
245	0x3397f783	7.0765076e-08
246	0x3532fe2a	6.6680025e-07
247	0x33dee12f	1.0378641e-07
248	0x3359340b	5.0571582e-08
249	0x34513416	1.948359e-07
250	0x30580a0b	7.8594614e-10
251	0x3361c739	5.2568087e-08
252	0x35244e37	6.120858e-07
253	0x34408e5a	1.793318e-07
254	0x34055341	1.2416878e-07
255	0x3335e5a2	4.2351196e-08
