results/TestSpeedChangeNoCalamities24Novembre/MoveToGoal/MoveToGoal-3999979.pt (torch, 597047 bytes, 40 tensors)

discrete_act_size_vector f4 [1, 2]
000000 00 00 40 40 00 00 40 40
       3.0 3.0

network_body._body_endoder.seq_layers.0.weight f4 [128, 55]
000000 d9 65 c8 be ac 73 22 bd 42 8f 6a 3e 71 3f 21 be
       -0.39140204 -0.039661095 0.22906211 -0.15746857
000010 53 75 55 3d 75 dc 8c 3d 11 2b 86 ba 30 8e 74 be
       0.052113842 0.06877986 -0.0010236223 -0.23882365
000020 41 85 0e 3e c3 f0 6c 3d 07 3c 12 3c bb 33 86 bd
       0.1391802 0.057846796 0.008925444 -0.065528356
000030 7e 00 46 3e 62 49 56 be 94 b9 43 be df af 9b be
       0.19336125 -0.20926431 -0.19113761 -0.30407616
000040 ee ab 44 bd e9 57 2d be 46 6e b6 3d df 4b fd 3d
       -0.048015527 -0.16928066 0.08907752 0.12367987
000050 42 cd 9e 3d a7 1e 14 3d 7b 99 66 be 62 b6 2d be
       0.077539936 0.036162045 -0.22519486 -0.16964105
000060 cb 85 a8 3d a4 61 d9 bd 30 6d 60 bd de 84 87 be
       0.08228644 -0.106143266 -0.05479163 -0.26468557
000070 bf cc 67 bd 06 1f c4 3d 5a 94 0e 3e 8b 4f 1d be
       -0.056591745 0.0957623 0.13923779 -0.15362374
000080 d5 a4 23 3e bf a9 65 be 4b 15 ae bb df ae 8a 3e
       0.15980847 -0.22428034 -0.005312597 0.2708654
000090 b2 7e 25 3e 97 c9 d6 bb 7b 9f ec 3b de eb a1 3d
       0.16161612 -0.006554793 0.00722116 0.07906316
0000a0 43 55 bb 3e 21 92 ac be 74 f1 d2 3b 52 a5 57 bd
       0.36588487 -0.33705238 0.006437475 -0.052647896
0000b0 2a 67 48 bd f1 82 40 3e 33 01 9e 3c 1b d1 67 be
       -0.04892651 0.1879995 0.019287681 -0.22638361
0000c0 15 c5 1a 3e e1 24 e0 bd 9b 9e 35 3d 76 aa 95 3d
       0.15114243 -0.10944534 0.04434071 0.073079035
0000d0 da 0f d1 3e a7 6d 48 bd 0d 72 0f 3e 93 34 d0 3d
       0.40832406 -0.048932698 0.1400835 0.10166278
0000e0 21 14 a1 bd 2b cc 0e 3d 5b f5 ce 3d de 06 1a be
       -0.078651674 0.03486268 0.101053916 -0.15041682
0000f0 bf d4 8d 3c 8d c3 71 3e b1 df 18 3d af 99 07 bd
       0.01731336 0.23609753 0.037322704 -0.03310555
000100 6d e7 62 be 49 56 9c 3e 6b f2 e4 bd 2e e4 0f 3d
       -0.22158594 0.3053458 -0.1117905 0.03512972
000110 1f 39 59 bd 67 41 7e 3d a0 5b 01 3d 61 fb 36 3c
       -0.05303299 0.06207409 0.03158152 0.011168332
000120 66 a2 e1 3d ce 32 dd 3d d9 66 d8 3b 99 b3 2f 3e
       0.11017303 0.10800706 0.0066040573 0.17158355
000130 bc 50 03 bc 61 44 c2 3d f0 d6 1d 3e 96 f2 27 bd
       -0.008014854 0.094856985 0.15414023 -0.041002832
000140 cd 7d 09 be 6a e6 d4 3d 7f 86 75 bd f9 cd 17 3e
       -0.13426895 0.103955105 -0.05994272 0.14824666
000150 71 2b 03 3c b4 26 ba 3d 1d b6 d3 bc af 5c 50 3d
       0.008005963 0.09089413 -0.025843674 0.05086964
000160 c1 e1 85 be 83 73 27 be f0 55 8c 3d ef a3 9a 3e
       -0.261488 -0.16352658 0.06852329 0.30203196
000170 92 70 54 bd 3a 66 68 3d 6c 7c ec 3d 63 74 2d 3e
       -0.051865168 0.056738116 0.11547169 0.1693893
000180 e3 5a 25 be 56 73 b4 bd 3a a5 28 be bb 92 40 bc
       -0.16147952 -0.08811061 -0.16469279 -0.011753733
000190 64 bd 23 bd 5a b0 62 3e 2c 9b 17 3c 0f 16 80 3e
       -0.03997554 0.22137585 0.009253304 0.2501683
0001a0 67 0a 80 3d 80 47 46 3e 10 3a e9 bd 60 d3 f7 3d
       0.06251984 0.19363213 -0.11388028 0.121008635
0001b0 b8 ad 25 bc ce 3b 29 be e2 50 0f 3d e0 22 0d 3b
       -0.010112219 -0.1652672 0.034989245 0.002153568
0001c0 b6 c1 85 bd ec 55 d7 bd f2 36 06 3e b5 84 98 bd
       -0.06531088 -0.10514435 0.13106897 -0.07447187
0001d0 2f 48 d9 3c f0 a2 21 3d 56 dd 94 3c b4 20 79 be
       0.026523678 0.03946203 0.018171947 -0.24328882
0001e0 14 a4 3c be fb fb 30 3e 51 26 55 be 77 a1 4a be
       -0.18421966 0.17283623 -0.20815398 -0.19788156
0001f0 bb 97 f3 3d 2d ee 5d be 2e 37 ef bd 76 5a 04 ba
       0.11894175 -0.21672888 -0.116804466 -0.000504888
000200 bb 56 60 bd d6 86 24 be fa 46 70 be 2b b9 a8 3e
       -0.054770213 -0.16067061 -0.23464575 0.32953772
000210 09 71 9b 3d 86 35 28 be f4 40 bc 3b 7d 36 75 3e
       0.07589919 -0.16426668 0.0057450477 0.23946567
000220 a4 0b 40 3d ce ab 10 3d 50 7e 60 be 3e 28 54 3e
       0.0468861 0.035320096 -0.21923184 0.20718476
000230 92 e3 65 be 52 0b 81 3e f0 c1 90 3d 7e f7 b4 3d
       -0.22450092 0.2520395 0.07068241 0.08836268
000240 73 ea f5 3d 88 fd 4c 3b f3 b6 39 3d 5d 4f c0 3e
       0.12007608 0.0031279046 0.04534049 0.3756055
000250 75 ba 63 be fa 3e 32 3d e9 04 3d bb 00 58 26 3d
       -0.22239096 0.04351709 -0.0028842038 0.040611267
000260 7c 23 f5 bd aa 98 a7 3d a9 9c 8c 3d 62 28 bc bb
       -0.11969659 0.08183415 0.06865818 -0.0057421187
000270 b9 73 4a bd 4e 31 9b 3e e9 5a 40 be b8 21 a2 3d
       -0.049426768 0.30311054 -0.1878468 0.079165876
000280 4e b2 53 3e be 78 ec bc d3 68 b2 3e f4 31 5d 3c
       0.20673487 -0.028866168 0.348456 0.013500679
000290 04 8a 20 3e 8e 62 77 3b 16 fb 34 be 1a c9 02 be
       0.15677649 0.0037747952 -0.17673907 -0.12772027
0002a0 5a 55 5f be 2a 80 34 be 96 18 29 be a0 39 02 3d
       -0.21809903 -0.17627016 -0.16513285 0.031793237
0002b0 bb d9 19 be f6 e5 51 be c9 48 f8 39 dd b4 35 3d
       -0.15024464 -0.2049788 0.00047356475 0.044361938
0002c0 60 dc 0a bd e0 27 82 bd 8f 66 27 be ce dc 9f 3b
       -0.033901572 -0.06355262 -0.16347717 0.004878617
0002d0 8a d1 75 bd 23 86 c5 bd b9 6f e0 bb 7a 5a 1f 3e
       -0.060014285 -0.09644725 -0.006849256 0.15561858
0002e0 92 62 c5 3d bc f0 4b be 9b 6f 93 be 04 77 6f 3e
       0.096379414 -0.19916052 -0.28796086 0.23385245
0002f0 8b 2d 62 3e f8 11 6e bd 77 1e 70 3e 23 f8 5b 3e
       0.22087686 -0.058122605 0.23449121 0.21481375
000300 53 38 fe bb 24 94 95 3d 20 7e 1e bd ec 8f dc 3c
       -0.007758179 0.07303646 -0.0386945 0.026924096
000310 fb 9e 13 be 7f 0f 66 3d 10 55 7a 3c 75 e5 ae 3c
       -0.14416115 0.056167122 0.01527907 0.021349648
000320 11 a0 1b 3e 9a c7 bc 3e 45 87 ce 3c d8 29 7a 3e
       0.15197779 0.36871034 0.025210986 0.24430025
000330 26 b4 64 be 56 c8 a4 be 42 23 73 3e 90 73 29 be
       -0.22334346 -0.32184094 0.23743919 -0.1654799
000340 c2 2c 40 be f4 2f 5d bd b6 16 73 3e b7 68 2e bc
       -0.18767074 -0.05400081 0.23739132 -0.010645083
000350 11 bb 12 3e ff b6 86 bd 31 80 45 3d b0 ee c3 3d
       0.14329173 -0.065778725 0.048217956 0.095670104
000360 a0 66 92 3e 47 ae 77 bd e4 df 42 3e fc d2 65 3e
       0.28593922 -0.06046894 0.1903072 0.22443765
000370 7e 42 5a be 8c 2d 43 3e c3 47 50 3e cb 9e b7 ba
       -0.21314427 0.19060344 0.20339875 -0.0014009116
000380 d8 a0 0f be 2c 9a 19 be e1 06 50 be 2d ba 4c 3e
       -0.14026201 -0.15000218 -0.20315124 0.19992895
000390 18 0b 86 3d 42 4a db bd 66 aa c0 be 4e fa 55 3d
       0.06545085 -0.10707523 -0.37630004 0.052240662
0003a0 c6 a0 55 3e 32 c6 72 3e 7a 60 e7 3d 73 f7 92 bd
       0.20862111 0.23708418 0.11297698 -0.071761034
0003b0 97 b3 f9 bc 84 e4 d6 3d cb ce 0d 3d 98 f0 e7 3d
       -0.030481143 0.10492805 0.03462104 0.113251865
0003c0 85 1d 35 bc 41 9b a8 3d e9 88 09 3e 02 8f a8 ba
       -0.011054401 0.08232737 0.13431133 -0.0012860002
0003d0 6a 27 41 bd 4e 86 cd bd 26 e5 aa bc 53 38 e4 3a
       -0.04715673 -0.10035382 -0.02086122 0.0017411805
0003e0 3f 1a 10 be 56 c4 d2 3c d7 33 37 bc 55 71 1d be
       -0.14072512 0.025728386 -0.011181793 -0.15375264
0003f0 95 f1 76 be 63 0c b6 bd c1 b8 24 3d 7d 20 db 3d
       -0.24115594 -0.08889081 0.040215258 0.10699556

network_body._body_endoder.seq_layers.0.bias f4 [128]
000000 4f dc 61 3d a4 0c c1 3c a1 ea a7 3d 9e fb 98 3d
       0.055141743 0.023565598 0.08199049 0.07469867
000010 a3 6e 41 bd 9f b1 82 3c d6 09 9e bd d3 c9 e4 bd
       -0.047224652 0.015953837 -0.0771672 -0.111713074
000020 04 99 84 3c 81 50 60 3c 32 0a af 3d 5b f0 93 bd
       0.016186245 0.013691069 0.085468665 -0.072235785
000030 7b 75 92 bd 60 e7 33 3d 74 3a 1f bd 84 0d f5 3d
       -0.07151314 0.04392183 -0.038874105 0.119654685
000040 1a 09 e7 bd e3 8a 5d bd ef d3 9c bc d4 12 84 3c
       -0.11281033 -0.05408753 -0.019144027 0.01612226
000050 2a d8 b8 3d 90 8e 1d bd b0 8b b1 bc 13 83 b7 3d
       0.09025605 -0.038466036 -0.021673054 0.08960547
000060 37 0e f2 3c 46 c2 56 3d 4b 98 b2 bb 4c d7 4d 3d
       0.029547794 0.052431367 -0.0054502836 0.05025415
000070 57 fb 97 3d 96 7e 8d 3d 4b c8 17 3c 74 b5 30 3d
       0.07420986 0.0690891 0.009264062 0.043141797
000080 86 69 a6 3d 29 8f ae 3d e9 60 7d bc b3 90 e7 3a
       0.08125596 0.085233994 -0.015465 0.0017667025
000090 a2 e8 d6 37 23 b9 e4 bd 63 7c 67 3d 5d d0 95 3d
       2.5619116e-05 -0.111681245 0.05651511 0.07315133
0000a0 2d 9c 8f 3d b4 00 08 bd 83 28 49 3d bf fc 38 3d
       0.0701221 -0.033203796 0.0491109 0.045162912
0000b0 47 75 51 3d 7c 73 95 3d 59 e3 d7 bc 1f 30 aa 3d
       0.051137235 0.072974175 -0.026353525 0.083099596
0000c0 cd fe 64 3d b7 38 51 3d ed 6c 3c 3d dd 8d 90 3d
       0.05590706 0.051079478 0.046002317 0.07058308
0000d0 a2 8d 64 3d c4 dc 46 3c 13 72 85 3d 06 9d 8c 3d
       0.055799134 0.012137596 0.065158986 0.06865887
0000e0 cd 38 2c 3d 60 f6 e0 bd e0 3e c9 3d 11 cd 2f 3d
       0.042046357 -0.10984492 0.098264456 0.042920176
0000f0 ee c8 cb 3d ad 89 49 bd 5d 33 00 bd 0c 96 fa 3c
       0.09950434 -0.049203563 -0.031298984 0.030589126
000100 7d cd 02 3d 56 9d 4d bd 87 4d 9c 3c d6 24 4c 3b
       0.03193425 -0.050198875 0.019079937 0.0031149886
000110 fb 79 89 bd 07 80 5d 3c 32 a5 c7 3d a7 a4 92 bc
       -0.06712719 0.013519294 0.097483054 -0.017900778
000120 30 c9 2f 3d 41 11 fe 3c 34 55 ec 3c 36 bf a9 3d
       0.042916477 0.031014087 0.028849222 0.08288424
000130 7a 84 13 38 8d c3 e7 3c 8a 7f e8 3d 91 c1 74 3d
       3.517091e-05 0.028291488 0.11352451 0.05975491
000140 37 33 b6 3c fa 89 65 3d fb 60 c7 bd 57 1f 13 3c
       0.022241218 0.056039788 -0.097352944 0.00897964
000150 45 64 e2 3d ce 79 b5 bc 10 3e 84 3c ad 74 da b8
       0.11054281 -0.022152808 0.016142875 -0.000104167826
000160 9f b6 71 bd e9 51 39 3c ad 10 eb 3c 1c 6d 3e 3d
       -0.05901205 0.011311033 0.028694475 0.046490774
000170 52 aa 9e 3d 15 2e 91 3d 0e 40 15 3d 2a 9e 23 3d
       0.0774733 0.070888676 0.03643804 0.03994576
000180 1b c6 8b 3d 9e e7 dd 3c f2 fb 0c 3d ca a3 b4 3d
       0.06824895 0.027087983 0.03441996 0.08820303
000190 c6 02 0d be 9c 03 d2 3d 76 a4 a4 3d 39 11 43 3d
       -0.13770589 0.10254595 0.08039181 0.047623847
0001a0 08 a5 6d bd 6b a0 ae 3d 88 a1 92 3d b5 d4 72 bd
       -0.058018714 0.08526691 0.07159716 -0.059284884
0001b0 ba 85 56 3c db 81 b2 3d d2 62 c6 bb 5e e9 77 bc
       0.013093406 0.08716174 -0.006054261 -0.015131323
0001c0 59 69 a9 3d 9f 61 c8 bd 2d ab ed 3d 40 95 2c bd
       0.082720466 -0.09784245 0.11604915 -0.042134523
0001d0 f3 64 97 bd 92 32 10 bd 67 68 3d 3d 20 ec f8 3d
       -0.073923014 -0.035204478 0.046242144 0.12154412
0001e0 97 f1 e8 3d c8 09 60 3d 3a b8 1f 3c 3b 6a f9 bd
       0.113742046 0.054696828 0.009748513 -0.12178465
0001f0 8d 18 a2 bd b4 38 9a 3c 11 77 82 bd 17 c6 ee 3c
       -0.07914839 0.018825866 -0.06370366 0.029147191

network_body._body_endoder.seq_layers.2.weight f4 [128, 128]
000000 ee 90 89 3c e8 91 60 3d dc 0a 28 3c 9a cc 0c be
       0.01679274 0.054826647 0.010256495 -0.13749924
000010 05 60 90 bd 63 a4 e0 bc f2 0c e8 bd 65 c9 cd 3d
       -0.07049564 -0.027422136 -0.11330594 0.100481786
000020 9d 03 9f 3d f4 92 08 be e3 82 9d 3c 19 4d 30 3d
       0.07764361 -0.13337308 0.01922745 0.043042276
000030 2e 3f 67 bd 45 8c 1f 3e 8f 62 aa 3d 85 11 2d bd
       -0.056456737 0.15580852 0.0831958 -0.042253036
000040 61 6f eb 3d 60 34 9a 3d 1d 76 fd 3d 32 3f 03 be
       0.11495853 0.07529521 0.12376044 -0.12817076
000050 96 74 3f bb 48 b6 ea 3d ed d6 b6 3d d2 9d 56 bc
       -0.0029213778 0.11460549 0.089277126 -0.013099151
000060 dd 04 cb bd 91 bb 2c 3d b6 d1 82 bd cb c0 b7 bd
       -0.09913037 0.042171065 -0.063876554 -0.08972319
000070 f0 b7 7c be b0 80 80 39 3e fb 85 3c ae 1a 0f be
       -0.24679542 0.00024509942 0.016355153 -0.13975021
000080 5c a4 a8 bd 2b 92 0e be 3a 3a fe 3d 21 f6 32 3e
       -0.08234474 -0.13922946 0.124134496 0.17476703
000090 cc cd 5e 3d 3f db 55 bd 3e 14 78 bd d9 15 52 be
       0.054395482 -0.052211042 -0.06056618 -0.20516147
0000a0 cd e9 87 3b 76 b0 3a 3d c6 53 43 3e 3d 8e a4 bd
       0.0041477443 0.045578443 0.19074926 -0.08034942
0000b0 5c 10 0e 3d d5 0b 13 3d 27 d4 4b 3d 93 78 fd bd
       0.03468357 0.035899956 0.04976287 -0.12376513
0000c0 e1 da 80 3b 6c 56 8f bd 64 21 48 3d 5d fe cd bd
       0.0039323424 -0.069989055 0.04885997 -0.100582816
0000d0 14 bf 8f bd d7 32 3a 3b 37 47 50 bd 7c 7e 1f 3e
       -0.07018867 0.002841165 -0.050849166 0.15575594
0000e0 bc cb 41 3e 2e da b8 bd 05 d3 ee 3d e9 46 38 3d
       0.18925375 -0.090259895 0.116613425 0.0449895
0000f0 58 75 9e 3d 90 fc 4f 3d 6d 1f 6e bc 48 a6 7c bc
       0.07737225 0.05077797 -0.01453386 -0.015420504
000100 bf 11 28 bd e7 d0 17 3e 60 62 d3 bd f0 87 75 bb
       -0.04103255 0.14825784 -0.10321498 -0.0037465058
000110 87 84 e8 bd 54 ee 94 bc 03 d3 04 be 07 ea 8a bd
       -0.113534026 -0.01818005 -0.1297112 -0.067829184
000120 53 91 bf bd e4 8e 55 bc 39 73 24 be db 0a c8 3d
       -0.0935389 -0.013034556 -0.16059579 0.097676955
000130 7b 86 ea 3d a1 4d b0 bd 22 ff 59 bd e4 f9 a0 bd
       0.11451431 -0.086085565 -0.05322183 -0.07860163
000140 a7 c4 d0 bd 8d 5e f0 3c 3f 2a 39 bd 13 11 68 bd
       -0.101937585 0.02934196 -0.045206305 -0.05665691
000150 16 0a fa 3d cb c7 9e 3d b9 69 85 3b 89 0c 10 3e
       0.12208955 0.07752951 0.004071441 0.14067282
000160 78 1e 22 3d 03 d5 03 3a e4 e4 0f bd dc 61 3c bd
       0.03957984 0.00050289946 -0.035130396 -0.045991763
000170 c8 da 91 bd 00 7b ba bd b0 fa bb 3d 6e f4 42 3d
       -0.07121807 -0.09105492 0.09178674 0.047596388
000180 2e 80 05 3e 2f 2a 7a bd 49 64 29 3e a0 8f 61 be
       0.13037178 -0.061075386 0.16542162 -0.22027445
000190 be 19 1c bd 67 75 72 3c a5 6e 22 bd c1 6d 1e 3d
       -0.038110487 0.014798499 -0.0396563 0.03867889
0001a0 cd 4b 5c 3d c1 55 a5 bd 5b 26 ce 3c 51 71 2b 3e
       0.053783227 -0.08072997 0.025164774 0.16742446
0001b0 fc 7a 84 3a 58 14 c9 3d 21 f1 1c 3e b7 d0 55 bd
       0.0010107453 0.098183334 0.15326358 -0.052201
0001c0 dd e0 8f bd cf b6 36 3d 41 20 82 bd f9 1a 56 bd
       -0.07025311 0.044607934 -0.06353808 -0.052271817
0001d0 ce eb a1 3c b6 92 97 3d 59 d9 10 3e da 14 4f 3d
       0.01976576 0.0740103 0.14145412 0.050556995
0001e0 8c ae 9b bd b1 1a d3 bd 9d 64 22 bd ae 8c 92 3d
       -0.076016515 -0.10307825 -0.039646734 0.07155739
0001f0 e9 f9 59 3d 97 a0 14 3d 1a c6 86 bd 46 f4 bd bd
       0.05321685 0.036285963 -0.065807536 -0.09275107
000200 4b 14 70 be a1 be 9a bc f1 3f ab bc 39 f7 f6 bd
       -0.23445241 -0.018889727 -0.020904513 -0.12058873
000210 95 b9 36 3e a2 9f 6c be a3 04 1b bc fb 08 39 3c
       0.17844231 -0.2310777 -0.009461555 0.011293645
000220 1d d3 d1 3d a1 56 c3 bd 15 1c fb bc 5a fb 05 3e
       0.10245345 -0.095380075 -0.030653039 0.13084164
000230 33 00 18 3e 77 e4 05 be 49 0e c0 3c 0a 8f 37 3c
       0.14843826 -0.13075434 0.023444312 0.011203537
000240 44 2b 28 3e 43 6a 92 3d a7 4b e9 bd 14 d2 55 be
       0.16422755 0.07149174 -0.11391383 -0.2088092
000250 79 54 30 3d 3d a3 84 3d a6 16 38 ba cd 48 0f bd
       0.04304931 0.06476448 -0.0007022418 -0.034981538
000260 bf 42 ef bc 5a 7e ca bd 01 f7 0a be a0 4a a1 bd
       -0.029206632 -0.09887381 -0.13570787 -0.07875562
000270 9c 9b 41 be 33 96 d2 bd 3b e4 d0 bd 3b 4d 5a bd
       -0.18907017 -0.102825545 -0.101997815 -0.05329631
000280 98 9e 42 be c9 be 28 bd 09 a4 68 bd 22 ff df bd
       -0.19005811 -0.041197572 -0.05679706 -0.109373346
000290 de 11 75 bd 0a 13 0e 3e 2c f6 34 be f4 fb e2 3d
       -0.059831493 0.1387445 -0.17672032 0.110832125
0002a0 1d 00 39 bd 26 a9 10 3e 78 d1 52 be 09 47 1f 3e
       -0.045166124 0.14127025 -0.20587718 0.15554442
0002b0 b8 98 a5 3d 44 ae 7d 3d 81 44 a8 bd fc 80 f3 bd
       0.080857694 0.06193377 -0.08216191 -0.11889836
0002c0 08 6d 84 bd 53 f4 b2 bd b5 86 38 3c 8a 73 25 3d
       -0.064661086 -0.087380074 0.011262585 0.04039339
0002d0 4e 6b 83 bd 55 1b ab 3c 60 8a a8 bd da e2 63 bd
       -0.06416951 0.020887056 -0.08229518 -0.055636264
0002e0 5c a3 04 bd 6d db d6 3d e2 4c d4 bc 78 ad a1 be
       -0.032382354 0.10491071 -0.025915567 -0.3157766
0002f0 3a 27 59 3e ae db 59 3d e0 b1 b1 3c b9 8d b1 3c
       0.2120637 0.05318802 0.021691263 0.021674024
000300 02 53 01 bd 23 85 b3 b8 f2 c1 00 bd 43 93 c9 3d
       -0.031573303 -8.560184e-05 -0.03143496 0.09842541
000310 bf 2c 89 3d f3 e2 5a bd 5d 3d 8f bd c7 16 49 bd
       0.06697988 -0.053439092 -0.06994126 -0.049093988
000320 8a 45 1c be 12 c0 ee bd b3 28 fb 3d c0 4b 8b 3d
       -0.15260902 -0.11657728 0.12263622 0.068015575
000330 92 15 ac 3d 30 b2 1a bc 2e 88 9b bd 98 46 a4 3c
       0.08402552 -0.009441897 -0.075943336 0.020053193
000340 57 ee 83 bd a6 4f d8 3c 13 95 49 3e 25 a8 83 bb
       -0.06441944 0.026405167 0.19685774 -0.004017847
000350 40 63 34 3d 42 25 08 be d7 d5 60 be d1 e0 9a bd
       0.044039965 -0.13295463 -0.21956573 -0.075624116
000360 7c 3a 8a bd b1 7f 28 bd 5e fc 6e be 9f d7 7b bd
       -0.06749436 -0.0411374 -0.23338458 -0.06148493
000370 62 9d 88 3c 61 0d 1a be ea 2a a9 bc 37 b2 1f 3e
       0.016676608 -0.15044166 -0.020650346 0.15595327
000380 f8 11 b1 bd 69 23 43 3c 8e 7f 16 be 68 e6 6e be
       -0.086460054 0.011910298 -0.14697096 -0.2333008
000390 93 68 df 3d fd 32 b9 bd 63 8e dd 3c 7b b5 68 bd
       0.10908618 -0.09042928 0.027045434 -0.0568137
0003a0 06 0a 07 bd a0 8a e5 bc 51 fd 7b bd 34 bf 89 3d
       -0.032968543 -0.028020203 -0.06152088 0.06725922
0003b0 9f 3b fe 3d 4c 49 11 bd 6e c2 5b 3d 72 c1 90 3d
       0.124137156 -0.035470292 0.05365222 0.07068147
0003c0 bc ab 91 3d d8 28 c9 39 04 15 f2 bd d4 e7 96 bd
       0.07112834 0.00038368138 -0.11820415 -0.073684365
0003d0 b9 42 00 3e 18 7a 5f bd d7 7d 1e be ea 7d 00 be
       0.12525453 -0.054559797 -0.15477692 -0.12548032
0003e0 7e e2 ab bd a3 0a d3 3d 6e d3 17 3d 8f 24 a7 3d
       -0.08392809 0.10304763 0.03706687 0.0816127
0003f0 13 01 3c 3d c1 4f 1e be e5 f8 20 3d 1c 8c dc 3c
       0.045899462 -0.15460111 0.039299864 0.026922278

network_body._body_endoder.seq_layers.2.bias f4 [128]
000000 77 72 0c bd 09 fc c5 bd 79 b9 49 bc 6f 32 85 3d
       -0.03428885 -0.096672125 -0.0123122865 0.0650376
000010 01 da 83 3d bd 6b 11 3d 7a f2 96 3d 87 53 c7 3d
       0.06438065 0.035503138 0.073704675 0.097327285
000020 cc fa cf 3d 83 29 dd 3d 5a 6c d3 bc 10 3d f5 3b
       0.101552576 0.10798933 -0.025808502 0.007484086
000030 85 2a 62 3d 76 74 02 bd a8 a6 b8 3d e2 07 5a bd
       0.05521633 -0.031849347 0.09016162 -0.053230174
000040 04 32 bb 3c 81 f0 0a 3d 5f 1f ef 3a f2 8c f8 3b
       0.022850998 0.03392077 0.0018243602 0.0075851614
000050 d2 08 4b bd 3e ce 7e 3d 14 8a d9 bc 1f 36 59 bd
       -0.04956896 0.062208407 -0.026555099 -0.05303013
000060 3c 3b 44 3d 44 f0 02 bc 98 24 d5 3b 8a ae a5 bc
       0.047908053 -0.007991854 0.0065046065 -0.020224828
000070 5e 7b 24 bd 98 5e bc bc fe d6 c6 3d fc 34 77 3d
       -0.040156715 -0.022994325 0.09708975 0.060353264
000080 c1 57 c9 3d ca ad 90 3d a0 a7 c4 3d 9b 3c 19 bd
       0.09831191 0.07064398 0.096022844 -0.037411314
000090 62 c0 00 bc 16 15 93 3d ba 64 7c bd 8f f2 a2 3d
       -0.007858368 0.07181756 -0.061619498 0.07956421
0000a0 f7 81 f5 bc 84 93 6f bc 7c 09 bc 3d da 0f 65 bc
       -0.029969199 -0.014622573 0.091814965 -0.01398083
0000b0 95 a7 9f 3d 5f 4d a1 3b 21 d9 54 bd 77 32 a8 3c
       0.077956356 0.0049225534 -0.051964883 0.020531876
0000c0 5c e0 50 bd 43 30 22 bd 1d d9 8b bc fe 56 3a 3d
       -0.050995216 -0.039596807 -0.017071301 0.04549312
0000d0 d0 fb 7b 3c 57 5d 43 3d 0c 11 7b 3d 8f 48 5f bc
       0.015379861 0.047696438 0.061295554 -0.013628139
0000e0 af 6b a8 3d 33 79 40 3d 6d d0 c3 bc 77 a2 a6 3d
       0.08223664 0.046990585 -0.023903096 0.081364565
0000f0 d4 c7 f0 bb b6 b8 da bc 4d 0a 82 3d 1e 1e 98 bd
       -0.00734804 -0.026699405 0.06349621 -0.074276194
000100 6c 88 e7 3c bc 5b b6 3d 57 6e aa 3c 76 ed 6d bd
       0.028263293 0.08904216 0.020804567 -0.05808779
000110 c2 a2 84 3d a6 18 fc bc 55 8a 95 3d fd 68 5f 3d
       0.06476356 -0.030773472 0.07301775 0.054543484
000120 35 ab 97 3d 6f f2 83 3c 94 68 4f 3d 08 2c 37 3d
       0.07405702 0.016106812 0.050636843 0.044719726
000130 aa 0b 39 bb 4d d9 4e 3c 36 65 63 bd f8 ee 0f 3d
       -0.0028235712 0.012625051 -0.055516444 0.035140008
000140 5f d5 70 bd 89 49 a6 3c 07 c2 d4 bc bd 5b 09 bd
       -0.058797237 0.020298736 -0.025971426 -0.033534754
000150 12 db 19 bd 9c 50 28 3d 4f f4 05 bd 5c 70 8e 3d
       -0.037562437 0.0410925 -0.032703694 0.069550246
000160 93 3b 23 3d b6 89 17 3d 60 fb 8e 3c 56 e0 4e bc
       0.039851736 0.036996566 0.01745385 -0.012626728
000170 a0 b1 b0 3d e0 6f 99 3d d0 8a d8 3b fe c8 a5 3d
       0.08627629 0.074920416 0.0066083446 0.08094977
000180 e9 3e 8d 3d 9f cb 5f bd 25 8e 08 bd 0a 42 98 3c
       0.06896765 -0.054637548 -0.033338685 0.018586177
000190 d5 52 96 3d f2 ae 94 39 b9 dd 99 3d 74 0c 94 3d
       0.07340018 0.00028359104 0.07512993 0.07228938
0001a0 b7 c3 7b 3d de b5 85 bd 27 0f 90 3d 66 a8 90 bd
       0.061465945 -0.06528829 0.0703414 -0.070633695
0001b0 c8 b8 84 3d bb 3c cc 3c 35 40 92 3d 3d 4d 31 3d
       0.06480557 0.024931302 0.07141153 0.04328655
0001c0 1e 58 16 3d 60 1e 43 bc 21 16 78 bd ac 1c e2 bc
       0.03670513 -0.011909097 -0.06056798 -0.027601562
0001d0 33 00 82 3d 95 d6 61 bc 14 8f 6f bd b6 20 66 3d
       0.06347694 -0.0137840705 -0.05848606 0.05618354
0001e0 3d b6 30 3c c2 08 5e 3d ab c2 85 3d 25 01 b6 3d
       0.0107856365 0.05420757 0.065312706 0.08886937
0001f0 15 19 93 3d a6 e0 48 3d a2 54 15 3d de 66 23 3d
       0.071825184 0.049042366 0.036457665 0.039893024

action_model._discrete_distribution.branches.0.weight f4 [3, 128]
000000 e4 c8 1d bd 3b b5 5a bd 5c 08 d9 bd 60 a1 98 3c
       -0.038521662 -0.05339549 -0.105972975 0.018631637
000010 d7 c0 6d 3d de 33 4a bb 05 57 07 3d 33 69 54 3d
       0.058045235 -0.003085367 0.033041973 0.05185814
000020 6b fc a2 3d 3f f5 b3 3d 3a 39 cc bd e5 47 70 bd
       0.07958301 0.08787011 -0.099718526 -0.058662314
000030 be 57 04 bb b1 8c d0 bd 50 86 76 3d 93 5e ba bd
       -0.00201939 -0.10183085 0.060186684 -0.0910007
000040 81 97 10 bd 5d ef 1d bd a2 20 8e bc ef a6 e7 bc
       -0.035300735 -0.038558353 -0.017349545 -0.028277842
000050 a7 f8 ca bd b8 e9 c6 3c 4d f5 ca bd c8 34 ce bd
       -0.09910708 0.024281368 -0.09910069 -0.10068661
000060 20 1f 40 3d e0 48 83 bd e9 5b 8d bc 50 b5 03 bd
       0.046904683 -0.06410384 -0.01725574 -0.032155335
000070 53 a2 8d bd 7e b1 d8 bd 42 09 a6 3d 34 3b e1 3c
       -0.069157265 -0.10580729 0.081072345 0.02749405
000080 19 56 93 3d ed 61 56 3d 73 44 ab 3d 2a 32 85 bd
       0.07194156 0.052339483 0.08362665 -0.06503709
000090 d2 05 95 bd b7 b2 93 3d 61 cc a1 bd e0 61 a9 3d
       -0.07276501 0.072118215 -0.0790031 0.08270621
0000a0 26 5a 3e bd f6 14 a4 bd 08 cd 89 3d 40 51 18 bd
       -0.04647269 -0.080118105 0.0672856 -0.03718686
0000b0 47 1c 47 3d da 5e a7 bd c5 35 a9 bd ca c4 af bc
       0.04861095 -0.081723884 -0.08262209 -0.021456141
0000c0 f9 4d a6 bd be 66 e4 bd 5b b2 17 bd 97 6e 52 3c
       -0.08120341 -0.11152409 -0.037035327 0.0128437495
0000d0 c6 15 0c 3d a3 d1 af 3b 1a 76 23 3d d4 29 e6 bd
       0.034200452 0.005365567 0.039907552 -0.11238447
0000e0 73 29 92 3d ac 5d 5a 3c 85 e4 d4 bc f7 98 08 3d
       0.07136812 0.013327997 -0.025987873 0.033349004
0000f0 48 84 90 bd ed e7 aa bd 15 b0 66 3d de e8 9f bd
       -0.07056481 -0.083450176 0.05632027 -0.07808088
000100 38 43 fd 3c 39 d6 9c 3d a6 de 06 bc f0 9b a2 bd
       0.030915841 0.07658047 -0.008231794 -0.07939899
000110 3a 83 9c 3d 15 0a f6 bd 19 26 6f 3d 9e a6 a3 3c
       0.07642217 -0.12013642 0.058385942 0.01997691
000120 d7 42 8f 3d dc d5 b4 3c 77 7d 43 3d 11 ea 39 3d
       0.069951706 0.022074632 0.047727074 0.04538924
000130 a3 3f 0a bd da 10 45 bd 39 f4 25 bd c9 54 a8 3b
       -0.033752095 -0.048111774 -0.040516112 0.0051370603
000140 64 e2 fe bd 83 0c 24 bd 7e 9d 97 bd 6a 70 04 be
       -0.12445524 -0.040050995 -0.07403086 -0.12933508
000150 cf a5 e0 bd 02 78 69 3d e1 23 ee bc 21 8b 6c 3d
       -0.109691255 0.056999214 -0.029069843 0.05774987
000160 4e 3e 67 3b b5 85 96 bb 15 0c ba 3c 40 66 d4 bd
       0.003528494 -0.004593576 0.02271084 -0.10371065
000170 b6 18 b1 3d 90 2c 90 3d f9 f4 9c bd 38 28 ac 3d
       0.08647291 0.070397496 -0.07663912 0.084061086
000180 05 11 03 3a a4 20 d6 bd 90 c0 8d bd f5 e4 32 bd
       0.00049997895 -0.104554445 -0.06921494 -0.04367538
000190 a7 a3 53 3d 3f 98 8f bd f8 dd 7d 3d e7 e6 b5 3d
       0.051669743 -0.070114605 0.061979264 0.08881932
0001a0 56 43 48 3d 0b 64 cb bd 2e 9a 03 3d 8d f2 68 bd
       0.04889234 -0.09931191 0.03212946 -0.05687194
0001b0 0f e9 a4 3c 08 cd 81 bb 66 c1 b3 3d 90 68 84 bb
       0.020130662 -0.003961209 0.08777122 -0.004040785
0001c0 a4 c8 03 bc 12 67 6d bd 14 7b cf bd 4b 31 11 bd
       -0.008043442 -0.057959624 -0.10130897 -0.0354474
0001d0 8a 0d 92 3d 61 03 4d bd c4 0a 80 bd e3 7b 91 3c
       0.071314886 -0.05005205 -0.062520534 0.01775927
0001e0 d5 13 40 bc 7a 2f 2e 3d eb 79 90 3d 28 e2 a3 3d
       -0.011723478 0.042525746 0.07054504 0.0800212
0001f0 29 3e 09 3d b1 da 48 3c c5 dd 0f 3d 0a 9b 95 bb
       0.033506546 0.012259171 0.035123605 -0.0045656012
000200 70 76 4f 3c eb a3 e6 3c 82 1b 18 3e a8 05 f4 3d
       0.012662515 0.028154334 0.14854243 0.11915141
000210 d9 ce f6 bd 1f 5c c9 bd 94 05 28 3d b4 ec 78 3d
       -0.12051172 -0.09832024 0.041020945 0.060772613
000220 2e 7d 6e bd 14 72 f8 bb 11 43 49 bd 40 f1 28 be
       -0.05822485 -0.0075819585 -0.049136225 -0.1649828
000230 e1 d8 ff 3d e7 68 96 3c 3d c3 eb bd 0e 8f 5d 3d
       0.12492538 0.018360568 -0.11511848 0.054091506
000240 cb e6 0b 3e a9 de 2d be 97 3f 91 3d 94 e3 c9 bd
       0.1366226 -0.1697947 0.07092207 -0.0985786
000250 b3 5e 0f 3d 03 c7 46 3d 2c b9 0f bd c7 33 8f 3d
       0.03500242 0.048529636 -0.035088703 0.069922976
000260 06 83 b1 bd 38 de 43 bd 0c 75 cd 3d 57 42 40 3d
       -0.08667569 -0.047819346 0.100320905 0.046938267
000270 1d 63 c8 bb ed d6 0a 3e a1 e8 5e bd 63 6a 21 be
       -0.006115331 0.1355855 -0.05442107 -0.1576324
000280 f5 dc 27 3d 0c f8 ae bd ee 77 1d 3d 66 c1 67 bc
       0.040982205 -0.08543405 0.038444452 -0.014145231
000290 d0 a9 dc 3d 21 5a 3d 3c 0c ca 9f 3c c0 34 d1 3b
       0.10774577 0.011557133 0.019505523 0.006384462
0002a0 45 c9 4e bd f0 51 e3 3d 18 d7 31 bb 97 94 84 bd
       -0.050484914 0.11099613 -0.0027136263 -0.06473654
0002b0 32 3c 22 be 1a 78 0f 3e 20 c3 d0 3b 18 fb c7 3d
       -0.15843275 0.14010659 0.006370917 0.09764689
0002c0 12 ff 5c 3b 1d b3 82 bb c7 5f 60 3d 2f 27 ef bd
       0.003372137 -0.003988637 0.05477884 -0.116773956
0002d0 e3 94 1a bb bc 35 9a 3d e4 a6 da bd 19 7a 2a 3e
       -0.0023587279 0.0752978 -0.10676363 0.16648139
0002e0 8c 4a 8b 3c 8d 77 8f 3d 06 54 35 3d 91 e0 4d be
       0.01700332 0.070052244 0.044269584 -0.20105197
0002f0 6b e8 6b bd 3c 1e 6b bd 0c f9 d9 bd f1 25 f3 3c
       -0.057594698 -0.05740188 -0.10643205 0.029681178
000300 31 26 ae bd 56 cf f2 bd d2 5a a4 3d 2e 2b 8c 3c
       -0.08503378 -0.118559524 0.08025135 0.017110433
000310 0b a9 33 bd f0 c7 0b bb 48 21 e5 bd 59 3e 9c 3d
       -0.043862384 -0.0021328889 -0.111879885 0.07629079
000320 a6 df 91 bc 03 80 a9 3c 5a be 73 bb 39 f2 b6 3c
       -0.01780684 0.020690924 -0.0037192316 0.022332298
000330 cb 3c 8b 3d 93 8b da 3d c9 b0 f5 bb 48 1d 19 be
       0.06798705 0.10671153 -0.007497881 -0.14952576
000340 44 0b 2e 3d 3e 7a f9 3d 1a b2 10 3e 2e 81 2a 3e
       0.042491212 0.12181519 0.1413044 0.1665084
000350 eb 9a 1d bd b7 b8 e3 bd c6 43 35 3c 94 06 00 3d
       -0.03847782 -0.11119216 0.011063522 0.031256273
000360 73 73 0e be 45 b6 9d 3d 21 ec 5a bd 5d 48 14 3e
       -0.13911228 0.07700781 -0.053447846 0.1448073
000370 ed da 02 be b4 82 ad bb d7 fc 07 3e 13 41 18 bd
       -0.12778826 -0.005295122 0.13280044 -0.037171435
000380 08 07 d6 3d 18 19 94 3d 8a 64 13 3c ab 16 d2 3d
       0.1045056 0.07231349 0.008996138 0.1025823
000390 c6 9c 2d be 58 5b 04 3e 9b fa e5 3c 5a 18 ff bd
       -0.16954336 0.1292547 0.0280736 -0.124558166
0003a0 3b 13 60 3b 57 53 df 3b 31 e1 57 3d 3b 94 13 3c
       0.003419115 0.006815355 0.052704994 0.009007509
0003b0 ba 53 cd 3d a6 0b 73 3d 35 7d b8 bd 23 3e 45 be
       0.10025735 0.05933728 -0.09008256 -0.19261985
0003c0 33 86 be 3d 88 aa f4 3d 41 81 03 3d 53 53 1b 3d
       0.0930294 0.11946589 0.032105688 0.03792126
0003d0 7c bf 87 bc ee 35 8a 3d d8 c3 41 3d dd 0a a0 3d
       -0.016570799 0.067485675 0.04730591 0.07814572
0003e0 cd ea 14 3d dc 83 b5 bd df 74 b7 bd 89 a6 96 bd
       0.036356736 -0.08863041 -0.08957838 -0.07355983
0003f0 c2 b1 3f be 90 7e fd bd d5 b8 e9 bb 51 0b 2c be
       -0.18720153 -0.123776555 -0.0071326294 -0.16801192

action_model._discrete_distribution.branches.0.bias f4 [3]
000000 75 68 99 3d ad 9d 26 bd c0 e4 62 bd
       0.07490627 -0.040677715 -0.055393934

action_model._discrete_distribution.branches.1.weight f4 [3, 128]
000000 33 01 fa bc de 0c 5d bc ca 4a cd bb 11 8b be 3c
       -0.03051815 -0.013491837 -0.006265019 0.023259671
000010 f4 a7 b0 3a df b4 1e 3d cf d6 16 3d de 1b e3 3c
       0.0013477788 0.03874671 0.03682595 0.027723249
000020 9f ee 01 3d 12 a2 db 3c be 61 07 bc 8e 8a de 3c
       0.031721707 0.02681068 -0.00826305 0.027165677
000030 ec 9c 18 bb 4a c6 93 bc 55 fc 05 3d 37 d3 99 bc
       -0.0023286892 -0.018038888 0.032711346 -0.018777473
000040 c9 8e e1 3b 92 a8 9a bc 22 0c f2 3c df e9 5d bc
       0.0068834764 -0.018879209 0.029546801 -0.013544529
000050 70 25 61 bc 94 1f 06 3b 3b 40 a5 bb 99 e3 ba bc
       -0.013741836 0.00204656 -0.0050430573 -0.022813605
000060 41 fa 20 bd 21 fe 89 bc 3d 6c a5 bc 1a 8b 8a 3c
       -0.03930116 -0.01684481 -0.020193214 0.016912032
000070 7a 6a 17 bc 83 c4 70 bb d7 10 19 3d 77 f3 8c 3c
       -0.009241695 -0.0036738224 0.037369575 0.017205937
000080 d7 77 a7 3b 8c e2 b2 3c fc a6 9b 3b 95 18 98 3b
       0.0051107216 0.021836542 0.0047501307 0.0046416023
000090 24 dc 25 bd de ab fe 3b 39 e1 a7 ba ee f5 f0 3c
       -0.040493146 0.007771953 -0.001280821 0.029414143
0000a0 ab 80 1c bc d3 3a 40 bc f7 cd 7c 3c 0b 4c d9 3c
       -0.009552161 -0.011732775 0.015429965 0.026525518
0000b0 dd c8 aa 3c 94 35 29 bd 8a 46 1e bb e1 8a 23 bc
       0.020847732 -0.04131086 -0.0024150931 -0.009981842
0000c0 e1 c7 9c 3b 00 7b d6 b9 5b 98 83 bc 6c 2e 4c 3c
       0.0047845696 -0.00040908903 -0.01606386 0.01246224
0000d0 4b 38 06 bd da cd 15 3c 8f 40 5d 3c 39 a1 2f bd
       -0.03276853 0.009143317 0.0135041615 -0.042878363
0000e0 83 89 ba 3c 11 76 44 3d ce b7 e7 bc 12 28 a4 3b
       0.022770649 0.04796416 -0.028285887 0.0050096596
0000f0 9c 8b a1 ba de cd 09 bd 89 4c 4e 3c c9 7f 27 3c
       -0.0012324932 -0.033643596 0.01259149 0.010223337
000100 62 24 e6 bc 4c c5 b9 3c c1 39 1d bd 11 dd df bb
       -0.02809352 0.022677086 -0.038385157 -0.006831773
000110 18 34 a1 39 fa bd 2f bc 15 61 20 3d 4d e6 7a bc
       0.00030747126 -0.010726446 0.039155085 -0.015313697
000120 68 92 5e 3d f0 5f 7b 3d 83 d4 1e 3b ba 15 0e bc
       0.054338843 0.06137079 0.0024235554 -0.008672172
000130 c8 88 52 3d ab 28 8c 3c 5f be 9c 3b 70 3a 49 3b
       0.051399976 0.017109236 0.004783436 0.0030704997
000140 27 5d 44 bc 74 a8 2d bc 8d 1e 56 bc 78 1a 1a bc
       -0.0119851 -0.010599244 -0.013068807 -0.009405725
000150 bc 4e 85 3b 33 25 e6 3c ee fd 1b bb f4 1e 08 bc
       0.0040682238 0.02809391 -0.0023802477 -0.008308161
000160 d1 c3 ab bc 78 4a 42 bc ed 97 89 bc 97 70 67 bc
       -0.020967396 -0.011858575 -0.016796077 -0.014125965
000170 de 7d 47 3d 49 bc 1a 3d d6 e7 02 bd 1f 75 a3 3c
       0.04870402 0.03777722 -0.031959377 0.019953309
000180 e2 5d b6 3c b9 4f 6a 3c 7c 44 9a bc 4c 72 61 3b
       0.022261564 0.014301234 -0.018831484 0.0034400402
000190 4e 4d e6 bb f2 f9 34 3d f3 29 1f 3d e3 c6 84 3c
       -0.0070282584 0.04418368 0.038858365 0.016208118
0001a0 b0 ed 7a 3d 7f 7e 74 bc d5 26 6a bc 71 7b 2a bb
       0.061261833 -0.014922737 -0.014291485 -0.0026013518
0001b0 72 66 1d 3d ee d9 a2 ba 6c 49 37 3c fe e2 82 bc
       0.038427778 -0.0012424567 0.011186939 -0.015977379
0001c0 7d cc 9c 3c 77 dd 0f bc fd c3 84 bc 97 a4 9d 3b
       0.019140476 -0.008780829 -0.016206736 0.0048108804
0001d0 1d 0b 27 3d a5 ff 79 bc 6a 15 45 3a 30 4d 49 bc
       0.040782083 -0.015258704 0.00075181446 -0.012286469
0001e0 61 81 08 bd db 23 e9 bc f0 9a c9 3b 6d 95 7a 3c
       -0.03332651 -0.02845948 0.006152503 0.015294415
0001f0 e2 71 f3 3b 0f f0 4c 3d d6 db 90 ba 19 0b e0 3c
       0.0074293474 0.050033625 -0.0011051844 0.027349042
000200 a0 7f 6c 3c fd 37 89 3c 60 6f 70 3c a7 ff 7b bb
       0.014434725 0.01675033 0.014674991 -0.0038451941
000210 1a 12 33 38 77 35 db bc 6f 8a b1 bc 87 b9 4f bc
       4.2693784e-05 -0.026758892 -0.021672456 -0.0126785105
000220 83 5a 95 bc 23 37 78 b9 bd 49 c2 3c 86 f3 4d bd
       -0.018231636 -0.00023671663 0.023716802 -0.05028107
000230 49 84 da 3b f7 44 66 3c 98 d5 66 bc 1a eb 37 bb
       0.0066686017 0.014054528 -0.014089011 -0.0028063715
000240 65 0c bd bc d5 bd 4a 3c 72 86 1c ba f6 72 76 3b
       -0.0230772 0.012374361 -0.00059709616 0.0037605143
000250 96 ac d7 3b a4 9b 5e bc 15 c7 5b bc 82 97 b1 3c
       0.006581853 -0.013586912 -0.013414164 0.02167869
000260 2f 1d da 3c fc 32 96 3c 61 cc 08 3d 50 56 8e bb
       0.026625244 0.018334858 0.033398036 -0.0043437853
000270 21 e4 85 3c a4 61 a2 3c c6 d1 5b bc 4d b5 96 bc
       0.016344132 0.01982195 -0.013416713 -0.018396998
000280 ac 83 4a 3b 76 f4 7e bc 17 34 d6 3c bc 20 83 3c
       0.0030901236 -0.015561214 0.026147885 0.01600682
000290 a7 a2 b8 3c b6 b1 a9 bc c4 0f 97 3b 36 55 58 bc
       0.022538496 -0.020714622 0.0046100337 -0.01320391
0002a0 ce c3 72 bb 93 de 47 3d 58 a2 b5 bc 8e 80 25 bd
       -0.0037042978 0.048796248 -0.022172138 -0.040405802
0002b0 31 1b 07 3d 7e 59 fd 3b d4 08 d8 bc f7 2b 37 3d
       0.032984916 0.0077316156 -0.026371397 0.044719663
0002c0 32 77 0e bc 2d fe 8d 3c 9f 6e 19 3b 86 26 4f bc
       -0.008695411 0.017333115 0.0023411883 -0.012643462
0002d0 c0 be 47 3c c0 42 7c 3c f8 a4 72 3b 0a 20 00 3d
       0.012191474 0.015396774 0.0037024599 0.031280555
0002e0 e1 eb 78 ba fb 2b cf 3a 75 e0 90 3c d1 fa 47 3c
       -0.0009495598 0.0015805954 0.017685154 0.012205795
0002f0 72 41 5a 3b 59 51 e5 3c 26 ba 49 bc a4 ed 0b 3c
       0.0033303169 0.027992891 -0.012312448 0.008540545
000300 b6 45 80 3a 46 0f 3a 3c 30 88 97 3c 7e 56 81 3c
       0.00097864 0.0113561805 0.018497556 0.015788313
000310 05 28 6f 3c b1 8b a0 bb ac 45 fe bc 20 a4 9f 3c
       0.014596944 -0.004899465 -0.031039082 0.01948744
000320 6f b2 cc bc 6b 2d 95 bd b2 df 4a bc c0 54 0c 3c
       -0.024987428 -0.072840534 -0.012382435 0.008565128
000330 b6 73 d0 bc 76 ab 3e bc 70 c3 0a 3c 7e 02 bf bc
       -0.0254458 -0.011637559 0.0084694475 -0.023316618
000340 36 70 eb 3b 7f 0d 29 3c a3 07 da 3c c0 be 50 3c
       0.0071850074 0.010318159 0.02661497 0.012740791
000350 6e db a7 b8 cb a6 89 3b 56 9c 9f 3b fd 89 cb 3b
       -8.0040525e-05 0.0042007915 0.0048709316 0.006211518
000360 03 1b b4 b9 28 4c 0c bc 5b bb 23 3a a7 bf ba 3c
       -0.000343524 -0.008563079 0.00062458747 0.022796465
000370 1f 9b 19 bc f7 7d 6f bc ca cf ac 3c 05 4f 1e bb
       -0.009375363 -0.014617435 0.021095175 -0.0024155986
000380 3e 49 04 bd bf dc 5c ba 5a 5c 1a bc e8 49 db 3b
       -0.03229641 -0.0008425228 -0.009421432 0.00669216
000390 11 73 7a 3c 85 e0 19 bc 54 e0 fc bc bb c2 57 bc
       0.015286223 -0.0093919085 -0.030868687 -0.013168986
0003a0 95 0e 09 bd 61 d9 81 3c fb af 05 bb de d8 a3 3c
       -0.033461172 0.015850725 -0.0020399082 0.020000871
0003b0 b3 af 34 3c ce 5a 5c 3c bd 50 8a 3b 58 20 c1 3c
       0.011028218 0.013449384 0.0042210505 0.023574993
0003c0 40 04 f8 bc ef f8 e3 3c f5 cc 01 3c 82 f7 2d bb
       -0.030275464 0.027828662 0.007922401 -0.0026545231
0003d0 90 eb d9 bc 8d 74 ff 3b 7a 33 cb 3b fa fd 05 3c
       -0.026601583 0.0077958764 0.006201205 0.0081782285
0003e0 0f ac af 3c 28 fe d3 3c a6 10 29 3c 61 12 82 3c
       0.021444349 0.025878027 0.010318911 0.015877904
0003f0 51 3b 3d 3d 71 af 05 bd c6 c9 db bb 4d 2d b7 3b
       0.046199147 -0.032638017 -0.006707403 0.005590117

action_model._discrete_distribution.branches.1.bias f4 [3]
000000 e2 31 a0 3b 25 1a 41 bc 61 d0 ac 3b
       0.004888759 -0.0117860185 0.005273864

exp_avg f4 [128, 55]
000000 4b 52 b3 b8 5a 49 c0 b8 56 74 b1 23 6e b6 55 b7
       -8.5507134e-05 -9.168936e-05 1.9239649e-17 -1.2738265e-05
000010 a6 72 ef b8 82 a6 fb b8 c6 c6 b0 b8 e3 15 be 23
       -0.00011417763 -0.00011999627 -8.4293584e-05 2.060911e-17
000020 f8 14 7a 37 f2 66 9e b8 d9 5d 4e b9 6b 4d d6 b7
       1.4906043e-05 -7.553202e-05 -0.00019680652 -2.5546839e-05
000030 02 12 a8 23 77 41 a1 37 4f 4c bb b8 4f 6e 2e b8
       1.8222223e-17 1.922318e-05 -8.9310684e-05 -4.1587566e-05
000040 12 22 1a b9 a4 9f d8 23 db 8a ea 35 4c 7d 48 b8
       -0.00014699277 2.3486377e-17 1.7474771e-06 -4.7800408e-05
000050 16 d5 13 b9 12 65 2e b8 a0 62 7a 1f 23 79 1b 34
       -0.00014098393 -4.1578962e-05 5.302114e-20 1.4479569e-07
000060 bc dc 2a b8 45 90 d3 b8 b5 aa 9a b8 74 12 fa 23
       -4.0736733e-05 -0.00010088136 -7.375089e-05 2.711287e-17
000070 2e 2c 70 b6 bf 31 4e b8 a6 81 49 b9 0f a7 30 37
       -3.5788503e-06 -4.9160557e-05 -0.00019217152 1.0529314e-05
000080 04 00 00 80 98 9e d1 b6 ea 34 45 b8 bd ab ec b8
       -6e-45 -6.247148e-06 -4.701774e-05 -0.00011285346
000090 82 bb 95 b8 62 3c fa 23 04 00 00 80 a5 e5 fe b7
       -7.1398e-05 2.7130627e-17 -6e-45 -3.0386096e-05
0000a0 80 b9 35 b9 f1 05 f3 b7 04 00 00 00 b0 92 26 36
       -0.00017330609 -2.8970624e-05 6e-45 2.482131e-06
0000b0 d1 31 3b b7 7d 53 4b b9 a9 cf 85 36 5d cc 3a 24
       -1.1157667e-05 -0.0001939069 3.9878837e-06 4.0505423e-17
0000c0 04 00 00 00 29 aa 38 b8 9a b3 59 b9 3f 63 ac b6
       6e-45 -4.4027493e-05 -0.0002076164 -5.137553e-06
0000d0 04 00 00 00 b3 db 7d 36 cf 06 e7 b7 14 25 10 b9
       6e-45 3.782782e-06 -2.7540516e-05 -0.00013746723
0000e0 1f 0e c3 39 8e d9 ba 24 79 01 8c b7 9e 28 b0 37
       0.0003720382 8.1033194e-17 -1.6689986e-05 2.0999749e-05
0000f0 c3 33 6a b8 6d e7 9a 39 1b 94 0f 25 04 a9 8a b7
       -5.5838154e-05 0.00029545595 1.2453453e-16 -1.6529586e-05
000100 6a 47 d5 37 b5 2c 08 39 e4 8b b9 38 c7 17 98 24
       2.5424833e-05 0.00012986625 8.847544e-05 6.595977e-17
000110 65 d0 93 36 f2 3b 63 b7 17 20 94 b8 64 81 9d 39
       4.4052017e-06 -1.35442115e-05 -7.063167e-05 0.00030041777
000120 ef c2 1a 25 6f 88 d8 b6 73 d1 84 38 7d 89 3d 39
       1.3423417e-16 -6.4531846e-06 6.3332634e-05 0.00018075663
000130 d1 1c f1 37 38 87 30 23 3e 4c 15 36 aa e0 62 38
       2.8742857e-05 9.569613e-18 2.224711e-06 5.4091834e-05
000140 62 2c 4f b9 63 69 be 39 33 d4 20 25 9e 12 00 38
       -0.00019757592 0.00036318143 1.3949684e-16 3.0534917e-05
000150 c2 b7 62 38 1a 89 61 39 70 65 e8 36 04 00 00 80
       5.4053737e-05 0.00021508746 6.9259477e-06 -6e-45
000160 78 1d be b6 4d 09 24 38 55 14 ad b8 3d 8f a3 39
       -5.665872e-06 3.910931e-05 -8.25307e-05 0.00031196504
000170 b5 ca 20 25 04 00 00 00 ee 43 fc 37 a3 ef 87 39
       1.3946468e-16 6e-45 3.0072373e-05 0.0002592775
000180 71 93 ca b7 04 00 00 00 90 de d4 b5 d4 13 41 38
       -2.4148934e-05 6e-45 -1.5860005e-06 4.6033252e-05
000190 cb 58 74 39 33 18 0d b7 6d 59 22 25 04 00 00 00
       0.00023302731 -8.409889e-06 1.4081559e-16 6e-45
0001a0 0e 7a 8d 38 87 f4 83 39 04 8f 4c b7 04 00 00 00
       6.7461384e-05 0.00025168454 -1.2192646e-05 6e-45
0001b0 c3 88 8c 36 a4 69 21 38 ee e1 c5 37 5e c0 cd b9
       4.1882463e-06 3.8483777e-05 2.3589437e-05 -0.00039243972
0001c0 bc fe fe a4 f7 4f f4 36 b6 fd a9 b8 17 fe d5 b7
       -1.1058648e-16 7.281076e-06 -8.105805e-05 -2.5509898e-05
0001d0 b2 3b c2 b9 48 da 17 a5 60 3a 81 37 2c 15 9b b8
       -0.0003704704 -1.3171119e-16 1.5405181e-05 -7.3949195e-05
0001e0 f0 f5 04 b9 db ca 80 b9 61 0e ee a4 d1 14 fb 36
       -0.0001268012 -0.00024565202 -1.03240406e-16 7.4828063e-06
0001f0 a1 d8 36 b8 bf 46 d4 b7 d3 e9 b9 b9 75 c3 0c a5
       -4.3593933e-05 -2.5305313e-05 -0.00035460162 -1.2209288e-16
000200 70 07 4f 36 1f ce b6 b8 5d 05 3f b9 f5 30 33 b9
       3.0849733e-06 -8.716829e-05 -0.00018217177 -0.00017089008
000210 79 bc 7e a4 ec 37 68 35 d2 fe 53 b8 8f 43 96 b8
       -5.5237113e-17 8.650811e-07 -5.054364e-05 -7.165141e-05
000220 8c 25 8d b9 67 49 c8 a4 33 e6 0b b7 5b aa ca b8
       -0.0002692159 -8.686052e-17 -8.338643e-06 -9.663842e-05
000230 ec 4f 9c b9 2c fa 86 b8 04 00 00 00 97 5f 30 35
       -0.00029814185 -6.436216e-05 6e-45 6.570421e-07
000240 fc 48 56 b8 a0 ac 86 b8 03 ab 9a b9 13 64 c7 a4
       -5.1089548e-05 -6.421772e-05 -0.00029500583 -8.6472025e-17
000250 04 00 00 80 37 ae 58 b8 d2 dc 98 b9 73 e0 cd b8
       -6e-45 -5.1660663e-05 -0.00029156223 -9.816969e-05
000260 04 00 00 00 0c ca be 35 62 44 2e b8 fc 73 b3 b9
       6e-45 1.4214907e-06 -4.154852e-05 -0.00034227956
000270 5b 37 bd b7 9e 1d 67 a4 04 00 00 80 11 d0 e8 b8
       -2.2556333e-05 -5.0115227e-17 -6e-45 -0.000111013775
000280 69 92 b9 b9 2b 7f e5 b7 04 00 00 80 12 38 e9 35
       -0.00035395034 -2.7358145e-05 -6e-45 1.7376171e-06
000290 1d 36 44 b8 0f 15 03 b8 ae 4e 87 b9 63 91 00 22
       -4.678044e-05 -3.1252446e-05 -0.00025807827 1.7424202e-18
0002a0 04 78 de 35 35 d9 cf b8 52 06 98 b8 b2 c9 7f b9
       1.6575218e-06 -9.910987e-05 -7.249102e-05 -0.00024393832
0002b0 9f 9e 83 23 f1 dc 6a 37 ff 68 ad b8 ed 7f 32 b9
       1.4270227e-17 1.3998929e-05 -8.26884e-05 -0.00017023059
0002c0 98 4d 10 b9 96 ef 80 a2 d9 02 57 37 36 b8 9b b8
       -0.00013761816 -3.494814e-18 1.2815662e-05 -7.425288e-05
0002d0 af ea 69 b8 6e 42 80 b9 b3 13 d3 23 82 f8 32 36
       -5.5770095e-05 -0.00024463556 2.2885009e-17 2.6668718e-06
0002e0 73 a3 9d b8 8c 7a 41 b9 4c c0 ca b8 06 d8 06 a4
       -7.516788e-05 -0.00018451567 -9.667929e-05 -2.9239597e-17
0002f0 98 bf 7e 35 b3 d2 20 b8 e6 76 02 b9 c6 83 1e b9
       9.490118e-07 -3.83432e-05 -0.00012442059 -0.00015117144
000300 cf fb fd 23 8e ac 4f b6 f0 f3 a6 b8 5f a7 82 b9
       2.753696e-17 -3.0945844e-06 -7.960934e-05 -0.00024920233
000310 e6 29 01 b8 04 00 00 80 3c c4 b5 b6 7f 8c 29 b8
       -3.0795018e-05 -6e-45 -5.417065e-06 -4.0423587e-05
000320 58 11 2b b9 2a e4 f8 b8 71 63 fe 23 04 00 00 80
       -0.00016314292 -0.000118680604 2.758085e-17 -6e-45
000330 0f 97 81 b8 82 89 75 b9 8f c0 87 b8 04 00 00 00
       -6.179336e-05 -0.00023416246 -6.4731685e-05 6e-45
000340 f9 1e 14 36 37 bb b2 b7 54 38 89 b9 bd 64 ab b7
       2.2071747e-06 -2.1306432e-05 -0.00026172644 -2.0431698e-05
000350 9e ef 37 24 04 00 00 80 9e 79 97 b8 59 6e 93 b9
       3.9884763e-17 -6e-45 -7.222894e-05 -0.0002812024
000360 cb 43 9b b7 04 00 00 80 44 68 f3 36 ee 3d c6 b7
       -1.8509008e-05 -6e-45 7.2541025e-06 -2.3632278e-05
000370 46 f2 23 b2 c1 4e 0b 37 f2 25 1e a3 75 ce 3f b3
       -9.542935e-09 8.303382e-06 -8.573232e-18 -4.4658425e-08
000380 c4 c6 93 35 ca c0 53 b3 a4 24 0c 37 c6 d3 23 a3
       1.1010202e-06 -4.9302606e-08 8.353181e-06 -8.8810925e-18
000390 5d c3 27 b4 02 56 d3 34 ff ab 06 36 07 56 16 37
       -1.562416e-07 3.9364392e-07 2.006767e-06 8.9607265e-06
0003a0 e6 18 11 a3 40 dd 24 b6 a3 e8 1e b4 b5 b2 91 b6
       -7.865738e-18 -2.4566689e-06 -1.479953e-07 -4.342141e-06
0003b0 33 c0 4e 37 bb 3c 23 a3 ef 23 f3 31 bb cb 7c b4
       1.2323307e-05 -8.849108e-18 7.076316e-09 -2.3543446e-07
0003c0 95 9c 26 b6 e2 b4 2f 37 13 34 0e a1 00 d9 e5 33
       -2.482707e-06 1.0472928e-05 -4.818039e-19 1.07031155e-07
0003d0 db 68 9d b5 ae 55 00 b4 9d 63 01 37 d6 80 1c a3
       -1.1727928e-06 -1.1952099e-07 7.712192e-06 -8.484059e-18
0003e0 dc ed 6f b3 7f b8 45 35 18 76 19 37 22 9d 4f b5
       -5.5862856e-08 7.3656696e-07 9.1470065e-06 -7.734217e-07
0003f0 04 00 00 00 bf 03 b4 34 a8 71 08 36 b6 64 3e 36
       6e-45 3.3530338e-07 2.0331736e-06 2.8370828e-06
