results/Test6/MoveToGoal/MoveToGoal-499969.pt (torch, 590407 bytes, 33 tensors)

network_body._body_endoder.seq_layers.0.weight f4 [128, 55]
0	0x3e1e1576	0.15437874
1	0x3e747c60	0.2387557
2	0xbe43e857	-0.191316
3	0xbdae47bd	-0.08509777
4	0x3c67bc86	0.014144069
5	0x3d9f8caa	0.077905014
6	0xbd3e0ae8	-0.04639712
7	0x3e0889a1	0.13333751
8	0x3e3b7240	0.18305302
9	0x3dd674a3	0.104714654
10	0xbe56971a	-0.20956078
11	0xbe84ab94	-0.25912154
12	0xbc8f0b56	-0.01746146
13	0xbce67206	-0.028130542
14	0x3e84768b	0.2587169
15	0x3d85f098	0.0654003
16	0xbd9ec5a7	-0.07752543
17	0xbd7e437e	-0.062076084
18	0xbd486d12	-0.048932143
19	0xbeb9a7fe	-0.3626098
20	0xbd24a5fb	-0.040197354
21	0x3e1d3b57	0.15354668
22	0xbd887b8e	-0.06664191
23	0xbd70dfc4	-0.05880715
24	0x3e7740cf	0.24145816
25	0x3d97c6ac	0.074109405
26	0x3d1a9b97	0.03774604
27	0x3d3f40b3	0.04669256
28	0x3e6a3872	0.22873095
29	0x3dbf07f2	0.09327687
30	0x3cc03d77	0.023466809
31	0xbd8d4a81	-0.06898976
32	0xbd79441a	-0.060855962
33	0xbc2d4fd7	-0.010578117
34	0xbd87dd84	-0.066340476
35	0x3e07c1cd	0.13257523
36	0xbe8ff448	-0.2811606
37	0xbe644cc0	-0.22294903
38	0x3e09faf9	0.13474645
39	0xbdda77e8	-0.106674016
40	0xbe167b96	-0.14695582
41	0x3da71085	0.08157448
42	0x3d837aa2	0.06419875
43	0x3df45a27	0.11931258
44	0x3e9062ff	0.28200528
45	0x3d957baa	0.07298978
46	0xbe1e38c4	-0.15451342
47	0x3e574da7	0.21025716
48	0xbd660433	-0.05615635
49	0xbe39acae	-0.18132278
50	0xbe0bae06	-0.13640603
51	0x3e04b341	0.12959005
52	0x3d201f01	0.039092068
53	0x3df6b449	0.120461054
54	0x3db9c75f	0.0907123
55	0x3d9c1983	0.076220535
56	0xbe5c01e5	-0.21485098
57	0xbd38e574	-0.0451407
58	0x3dc6e185	0.09710983
59	0x3dbf766a	0.093487576
60	0x3bc02c4a	0.0058646547
61	0xbdf59bbb	-0.11992594
62	0x3d148f5a	0.036269523
63	0x3dac024c	0.083988756
64	0x3e1a0914	0.15042526
65	0x3d73d733	0.0595314
66	0xbe2f2635	-0.17104419
67	0x3e7fa534	0.24965364
68	0xbe0e9810	-0.13925195
69	0x3d020b28	0.03174892
70	0x3e8c1403	0.27359018
71	0x3be75e6b	0.007060816
72	0x3c273892	0.0102063585
73	0xbdf45cc5	-0.11931757
74	0xbc687bb9	-0.014189654
75	0xbd01dfa0	-0.031707406
76	0x3e257b8f	0.16160415
77	0xbe3b9468	-0.18318331
78	0xbddf0126	-0.10888891
79	0xbce859a8	-0.028363064
80	0xbd0918f0	-0.033471048
81	0xbd92aca0	-0.07161832
82	0xbe23de69	-0.16002811
83	0xbe39e9eb	-0.18155639
84	0xbe665620	-0.22493792
85	0x3e674d66	0.22588119
86	0xbda98a9a	-0.08278389
87	0x3de19023	0.1101382
88	0x3d914774	0.07093707
89	0x3dacfc1a	0.08446522
90	0x3e802093	0.25024852
91	0xbe3da3fc	-0.18519586
92	0xbdbbc98f	-0.091693036
93	0x3d317805	0.04332735
94	0xbe660278	-0.22461879
95	0xbd1f140e	-0.038837485
96	0xbe042422	-0.12904409
97	0xbe895cb1	-0.2682853
98	0x378be00b	1.667442e-05
99	0xbb91cf7d	-0.0044497834
100	0x3e1485c5	0.14504154
101	0xbe4ca5ae	-0.19985077
102	0x3b8cf860	0.0043020695
103	0xbdc4e7cc	-0.09614524
104	0x3e238f27	0.15972577
105	0xbe50dad5	-0.20395978
106	0xbe295595	-0.16536553
107	0x3e85b962	0.26117998
108	0x3dda8e7f	0.1067171
109	0x3e78d3f0	0.24299598
110	0x3e191a63	0.14951472
111	0xbb92bc2b	-0.004477998
112	0xbdb7d940	-0.08976984
113	0xbe130250	-0.14356351
114	0xbda06a42	-0.07832767
115	0x3d31388d	0.04326682
116	0xbcdb0943	-0.026737815
117	0xbe25d768	-0.16195452
118	0x3ce90514	0.028444804
119	0xbe88c3fb	-0.2671202
120	0xbe20dd9f	-0.15709542
121	0xbdd0b2ac	-0.10190329
122	0x3dc1d28a	0.09463985
123	0x3dbba83e	0.09162949
124	0x3ebc87a8	0.36822248
125	0x3e4a09e4	0.19730335
126	0xbd650549	-0.055913243
127	0x3c8798a9	0.016552286
128	0x3dadfafb	0.08495136
129	0xbe595221	-0.21222736
130	0xbdbd2c58	-0.092369735
131	0xbddca3ef	-0.10773455
132	0x3dd67eda	0.10473414
133	0xbe72e2db	-0.23719351
134	0xbd98d90d	-0.07463274
135	0xbcac1ebd	-0.02101075
136	0xbd36faf5	-0.044672925
137	0x3db4b22f	0.08823048
138	0x3df460ca	0.119325235
139	0xbdfd7476	-0.12375729
140	0x3d7f328e	0.062304072
141	0x3cd7b801	0.026332857
142	0xbd8072c3	-0.06271889
143	0x3e953ca1	0.2914782
144	0xbe0f26e3	-0.13979678
145	0xbdc8ef84	-0.09811309
146	0x3e2a86a1	0.1665292
147	0xbdbfd501	-0.09366799
148	0xbe260262	-0.16211846
149	0x3dc88123	0.09790256
150	0xbe55b43f	-0.2086954
151	0xbde81c70	-0.11333549
152	0x3df226ee	0.118238315
153	0xbd0b2da3	-0.03397907
154	0x3d2d9f9f	0.042388555
155	0x3e191f01	0.14953233
156	0xbdbf31c4	-0.09335664
157	0xbd752a91	-0.059855048
158	0xbcd4b9e5	-0.025967548
159	0xbd9ff861	-0.078110464
160	0xbe840456	-0.25784558
161	0xbcc29528	-0.023752764
162	0xbdc39cb0	-0.0955137
163	0x3d4c23f9	0.049838994
164	0x3e250916	0.16116747
165	0x3d30b70f	0.04314333
166	0x3d962d38	0.073328435
167	0x3df78e75	0.120877184
168	0x3d3b5313	0.045733523
169	0xbe0d469c	-0.13796467
170	0x3e89ecda	0.26938516
171	0xbe1ede91	-0.1551459
172	0xbd642a59	-0.05570445
173	0xbe43f094	-0.19134742
174	0xbd315a07	-0.043298747
175	0x3e9bf036	0.30456704
176	0xbcbd1fd3	-0.023086464
177	0x3daac44c	0.08338222
178	0xbe3a1fa5	-0.18176134
179	0x3d91c6be	0.07117985
180	0x3d30f151	0.043198887
181	0x3d06ae26	0.032880925
182	0xbe8ad304	-0.27114117
183	0xbae6781e	-0.0017583405
184	0x3b8e6f5c	0.004346771
185	0xbd456753	-0.04819424
186	0xbe1bdddd	-0.15221353
187	0x3d23a563	0.039952647
188	0x3e14d9bc	0.14536184
189	0x3de18f44	0.11013654
190	0x3d3bebbe	0.04587912
191	0x3df0aad1	0.11751331
192	0x3d0af926	0.033929013
193	0x3d8dccbd	0.06923816
194	0x3e4880a2	0.1958032
195	0xbc9f0a00	-0.019413948
196	0xbe2fe561	-0.17177345
197	0xbbc2f76f	-0.0059499065
198	0x3dab9220	0.083774805
199	0x3cff0e65	0.031134794
200	0xbc18dccf	-0.009329989
201	0xbe5d8ad4	-0.2163499
202	0x3e414a52	0.18876007
203	0xbd84ed2c	-0.064905494
204	0x3ea5229a	0.3225296
205	0xbd5b8fd9	-0.05360398
206	0x3dd76b7d	0.10518549
207	0xbd321f45	-0.043486852
208	0xbdeef059	-0.116669364
209	0xbc29a22f	-0.010353609
210	0xbc1dfcaa	-0.009642759
211	0x3e67c681	0.22634317
212	0xbd5f4800	-0.054512024
213	0x3a2b0ce4	0.0006525053
214	0x3e615d1a	0.22008172
215	0xbda571e6	-0.08078365
216	0x3d7f4d99	0.062329862
217	0xbe6cf1ce	-0.23139116
218	0x3d8d3366	0.06894569
219	0xbd5221a0	-0.0513016
220	0x3d051005	0.03248598
221	0x3de9cdac	0.11416182
222	0x3b15a945	0.0022836488
223	0x3b709e51	0.0036715458
224	0x3d0c93e5	0.03432073
225	0x3ddaaa0e	0.106769666
226	0x3e64566a	0.2229859
227	0xbd82f04a	-0.06393488
228	0xbb394aed	-0.002827342
229	0x3d63a772	0.05557961
230	0x3d9ccb27	0.07655936
231	0x3dd6677d	0.104689576
232	0xbd82cddd	-0.063869216
233	0x3e4f0500	0.20216751
234	0x3d771122	0.060319073
235	0x3d160595	0.036626417
236	0xbca623f0	-0.020280808
237	0x3d64825a	0.055788375
238	0x3d4b68ea	0.0496606
239	0x3e79c18f	0.24390243
240	0x3de1e6ac	0.11030325
241	0xbe1c4b61	-0.1526313
242	0x3ca37337	0.0199524
243	0x3dadd473	0.08487787
244	0x3b4b08e4	0.003098064
245	0x3e2ee95d	0.17081209
246	0xbd3fd645	-0.046835203
247	0x3e029032	0.12750319
248	0x3d2ac763	0.041694056
249	0xbdbf6cf3	-0.09346952
250	0x3ea58bcf	0.32333228
251	0x3b99928c	0.004686659
252	0xbe1c1a4a	-0.15244403
253	0x3e2fc1b2	0.17163733
254	0xbd1fc24d	-0.03900366
255	0x3e8d95c5	0.27653328

network_body._body_endoder.seq_layers.0.bias f4 [128]
0	0x3c7611f0	0.015018925
1	0x3d23d3f9	0.039997075
2	0xbac969d0	-0.0015366618
3	0x3cc65ca4	0.024214096
4	0x3cf4c1f2	0.029877637
5	0x3b308091	0.00269321
6	0x3cc7aab3	0.024373388
7	0xbbd6dd52	-0.006557145
8	0xbd0d511d	-0.034501184
9	0x3cfd802c	0.030944906
10	0x3ce570e2	0.028007928
11	0x3c38a8c5	0.011270707
12	0x3ca965d8	0.020678446
13	0x3cf19015	0.029487649
14	0x3d0f4f28	0.0349876
15	0x3a317589	0.0006769528
16	0xbcd8253f	-0.026384948
17	0x3c7d6eef	0.015468343
18	0xbc0278f2	-0.007963406
19	0x3cca67e0	0.024707735
20	0x3afaaa47	0.0019124233
21	0x3d37ccf6	0.0448732
22	0xbd05231d	-0.03250419
23	0x3c0aa582	0.008462312
24	0x39eb4072	0.00044870708
25	0x3aa73a20	0.0012758411
26	0x3c686021	0.014183075
27	0x3cafdffd	0.02146911
28	0xbca356ed	-0.01993891
29	0xba8821b8	-0.0010386026
30	0x3bb415c9	0.005495761
31	0x3bda7032	0.0066662068
32	0x3d12336b	0.035693567
33	0x3d5503e3	0.05200566
34	0x3c896b98	0.016774938
35	0x3c198f1b	0.009372498
36	0x3b490c37	0.0030677447
37	0x3d05f732	0.032706447
38	0x3c8e6777	0.01738332
39	0xbcbd7176	-0.023125391
40	0x3d225af2	0.039637513
41	0x3c0ab0fc	0.008465048
42	0xbc80b3e4	-0.015710779
43	0x3b32ceca	0.00272839
44	0x3cb2672c	0.021777712
45	0x3d16e0ea	0.03683559
46	0xbcf57ca0	-0.029966652
47	0x3c484a94	0.012224812
48	0x3b8d36cf	0.004309512
49	0xbb92a055	-0.0044746795
50	0x3c5cf67c	0.013486501
51	0x3ce46d9a	0.027884293
52	0x3c88c217	0.016694112
53	0x3d0c2049	0.034210477
54	0x3c93bf62	0.018035594
55	0x3c889f6b	0.016677579
56	0x3c34143c	0.010991152
57	0x3d1ac5fe	0.037786476
58	0xbd0afe48	-0.033933908
59	0xbc624d08	-0.013812311
60	0xbc008fb8	-0.007846765
61	0x3c2784d6	0.010224542
62	0x3c92954f	0.017893462
63	0x3a6a72a5	0.0008943475
64	0x3caa9e7b	0.020827523
65	0xbd101feb	-0.03518669
66	0x3bb22676	0.005436714
67	0x3c171c30	0.009223029
68	0x3cfce1b8	0.03086935
69	0x3bda531f	0.006662741
70	0x3ca3e856	0.020008247
71	0x3cac9cde	0.021070894
72	0x3c03c700	0.008043051
73	0xbacf7b75	-0.001582964
74	0x3c94ea5d	0.01817816
75	0x3cc4273e	0.023944493
76	0x3cccbc55	0.024992147
77	0x3c83202b	0.01600655
78	0xbc21286f	-0.0098363
79	0x3c00a7fb	0.00785255
80	0x3b6c2b8f	0.0036036705
81	0xbc7243f1	-0.014786706
82	0x3cfa4f55	0.030555407
83	0x3ce21949	0.027599948
84	0x3bf7077f	0.0075387354
85	0x3c5cc0f2	0.013473736
86	0xbcdc75d3	-0.026911652
87	0x3cae8f5e	0.021308597
88	0x3c3b2884	0.011423234
89	0x3b8333c3	0.004003973
90	0x3c71f5d7	0.014768085
91	0x3cdc7e95	0.026915828
92	0xbb5efa41	-0.0034023675
93	0x3cdce82c	0.026966177
94	0x3ca17c54	0.019712605
95	0x3d0e7fca	0.034789838
96	0x3ca3aa8a	0.01997878
97	0x3aff939f	0.001949895
98	0xbcf448e2	-0.02981991
99	0x3c1dc1ab	0.009628694
100	0xbc51137e	-0.012760995
101	0x3aecf67d	0.001807883
102	0x3c1ad20b	0.009449492
103	0xbba77693	-0.0051105707
104	0x3b71551b	0.0036824408
105	0x3bebaedd	0.007192476
106	0x3c08b475	0.008343806
107	0x3c795a22	0.015219243
108	0x3c030e6a	0.007999042
109	0x3ca37ab7	0.019955976
110	0xb9554914	-0.00020340487
111	0xb9119884	-0.00013885094
112	0x3cf83629	0.030299263
113	0xbd21d3af	-0.039508518
114	0x3cb75735	0.02238045
115	0x3d144ad6	0.03620418
116	0x3ce759ce	0.028241064
117	0xba519e63	-0.0007996319
118	0x3cc7ca40	0.024388433
119	0x3c3f8dfe	0.011691568
120	0x3d42becd	0.047545243
121	0x3cd179eb	0.02557083
122	0x3ccb9bbe	0.024854537
123	0x3c728b5f	0.0148037365
124	0x3ccb5a88	0.024823442
125	0xbc9702f0	-0.018434018
126	0x3d3ab232	0.045580097
127	0xbcee8941	-0.029118182

network_body._body_endoder.seq_layers.2.weight f4 [128, 128]
0	0xbdc2a32f	-0.09503781
1	0x3dcdfdb1	0.100581534
2	0x3d39ad8e	0.04533153
3	0x3e1bb098	0.15204084
4	0xbd229a12	-0.039697714
5	0x3d3e7a01	0.04650307
6	0x3e2de461	0.16981651
7	0xbe352171	-0.17688538
8	0xbdd82a80	-0.10554981
9	0x3c0908d2	0.008363919
10	0x3d7d3b98	0.06182441
11	0x3c9275bf	0.017878411
12	0x3e23a32f	0.15980218
13	0xbdb709bc	-0.089374036
14	0x3e404cd2	0.18779305
15	0xbdd89f97	-0.10577314
16	0x3e0c7bd6	0.13719115
17	0x3de2d056	0.11074893
18	0xbdcaa52a	-0.09894784
19	0xbd6c0915	-0.05762585
20	0xbd48c3ea	-0.049014963
21	0x3e6394fd	0.22224803
22	0x3daa773c	0.083235234
23	0x3cfb4554	0.030672707
24	0x3d3b5423	0.045734536
25	0x3d497ed2	0.04919321
26	0x3da329e2	0.07966973
27	0x3e1373a0	0.14399576
28	0xbd15d2ad	-0.03657787
29	0x3bc3c1e0	0.0059740394
30	0xbd8f856c	-0.0700787
31	0xbd1d37aa	-0.038383164
32	0x3e333527	0.17500745
33	0xbe10d780	-0.14144707
34	0x3e0c3df3	0.13695507
35	0xbd9758a9	-0.073899575
36	0x38a54592	7.8807716e-05
37	0xbdecdc35	-0.11565439
38	0x3c33f406	0.010983473
39	0xbcf4089a	-0.029789258
40	0xbd3ed61b	-0.046590906
41	0x3db12832	0.08650245
42	0xbdc47f00	-0.09594536
43	0xbd744205	-0.059633274
44	0x3e61c280	0.22046852
45	0x3e17ed3c	0.14836591
46	0xbde6afe0	-0.11264014
47	0xbdbf7ff1	-0.09350575
48	0x3d182f18	0.037154287
49	0x3df2806e	0.11840902
50	0xbdcf22d1	-0.101140626
51	0xbd783efe	-0.06060695
52	0xbbf6a037	-0.0075264233
53	0x3d6f4b0d	0.058421183
54	0x3da9f389	0.08298404
55	0xbdbe29f7	-0.09285348
56	0xbcd63956	-0.026150387
57	0x3d95cc30	0.07314336
58	0xbd4fdbc8	-0.05074671
59	0x3c1f3f76	0.00971972
60	0x3d230ded	0.039808203
61	0x3ca0de70	0.019637316
62	0x3da61701	0.081098564
63	0x3c60bc11	0.0137167135
64	0xbd2fcaba	-0.042917944
65	0x3d8a5ace	0.06755601
66	0x3c055d36	0.008139899
67	0xbdbbcdaa	-0.09170087
68	0xbdabe34b	-0.08392962
69	0x3dbd4c06	0.09243016
70	0xbd6ed330	-0.058306873
71	0xbdd2e659	-0.102978416
72	0x3cf26389	0.029588478
73	0xbcd8e405	-0.026475916
74	0x3d86e9a2	0.06587531
75	0x3de2b7fe	0.1107025
76	0x3da26220	0.07928872
77	0xbda5aa7b	-0.08089157
78	0xbcb049a8	-0.021519497
79	0xbe52f0b3	-0.20599632
80	0xbd99fc36	-0.075188085
81	0xbd96f6e3	-0.07371309
82	0x3d5d1aa3	0.05398048
83	0x3d933d99	0.07189483
84	0xbdaad3da	-0.08341189
85	0xbe340637	-0.17580496
86	0x3d8d165a	0.06889029
87	0x3c942021	0.018081727
88	0x3c33b243	0.010967794
89	0x3e4d079b	0.20022433
90	0xbd80bb9f	-0.06285786
91	0xbe0511ac	-0.12995023
92	0xbe4c35f9	-0.19942464
93	0xbdf52570	-0.11970031
94	0xbc04850f	-0.008088364
95	0x3e1d9af7	0.15391146
96	0xbc6f3a0e	-0.014601244
97	0xbe29ae4e	-0.16570398
98	0x3d2317ce	0.039817624
99	0xbbb7c2dd	-0.0056079463
100	0xbc36e6ec	-0.0111634545
101	0x3de90e78	0.11379713
102	0xbe21f1c8	-0.15814888
103	0x3d488ee2	0.04896439
104	0x3c68b5fe	0.014203547
105	0x3d4fca70	0.05073017
106	0x3d496ef5	0.049178082
107	0xbe4dccb5	-0.20097621
108	0xbcf16902	-0.029469017
109	0xbde2d209	-0.11075217
110	0xbe1a34b9	-0.15059175
111	0xbde902be	-0.11377476
112	0xbda3768a	-0.07981594
113	0xbe536391	-0.2064345
114	0xbd9326c4	-0.07185128
115	0x3d9c1687	0.07621484
116	0xbdd723e2	-0.10504891
117	0x3d99fe7a	0.07519241
118	0xbd82101a	-0.063507274
119	0x3d5b9b9d	0.0536152
120	0xbda05dff	-0.07830428
121	0xbd6a542e	-0.057209186
122	0xbd4c78b0	-0.049919784
123	0xbd41fece	-0.04736214
124	0x3d70224a	0.05862645
125	0xbd8304d4	-0.06397405
126	0xbd8b065e	-0.06788324
127	0x3ddd9fc2	0.10821487
128	0x3d35d524	0.04439272
129	0x3dbb57dd	0.09147618
130	0x3cc09f27	0.02351339
131	0xbd85d3f6	-0.06534569
132	0x3d23d8f9	0.040001843
133	0xbcb1a994	-0.021687306
134	0x3e5b217f	0.21399496
135	0xbd33e851	-0.043922726
136	0xbdd77dbe	-0.1052203
137	0x3dacb12d	0.08432231
138	0x3d9ab895	0.075547375
139	0xbada26bc	-0.0016643624
140	0x3d88a33c	0.066717595
141	0x3e04c589	0.12965979
142	0x3d04066f	0.032232698
143	0xbe08bb3d	-0.13352676
144	0xbd984cc7	-0.07436519
145	0x3d916be0	0.07100654
146	0xbccb49bf	-0.024815438
147	0xbd91a6c8	-0.07111889
148	0xbd89a323	-0.06720569
149	0x3d59e578	0.053197354
150	0x3c9f9c69	0.019483762
151	0x3dd607e3	0.10450723
152	0xbe13e4f3	-0.14442806
153	0xbcf8a246	-0.030350816
154	0xbbc026bc	-0.0058639925
155	0x3dda2a07	0.10652547
156	0xbd836932	-0.06416549
157	0xbe1d5e26	-0.15367946
158	0x3e076ebc	0.13225836
159	0x3db039d9	0.086047836
160	0xbb93764f	-0.0045001875
161	0xbcff692a	-0.031178076
162	0x3d343cf0	0.044003427
163	0x3d0c1ff1	0.03421015
164	0x3ca8b609	0.020594614
165	0xbd88831a	-0.06665631
166	0x3e08b52f	0.13350366
167	0xbe3885b8	-0.1801976
168	0xbd098257	-0.033571567
169	0xbd6619b5	-0.05617686
170	0x3ca92df6	0.020651799
171	0xbd0443d1	-0.032291237
172	0x3dd40404	0.103523284
173	0x3d25124a	0.040300645
174	0xbd950782	-0.072768226
175	0x3e13a9e2	0.14420274
176	0x3da60048	0.081055224
177	0xbd1d7ac3	-0.038447153
178	0xbdb82eed	-0.089933254
179	0xbda31889	-0.07963664
180	0xbd47a6a2	-0.048742898
181	0x3d517255	0.051134426
182	0xbdbddd34	-0.09270707
183	0xbd82f599	-0.063945
184	0x3c760d22	0.01501778
185	0xbc0a452d	-0.008439344
186	0xbe53f486	-0.20698747
187	0x3e09204a	0.13391224
188	0x3e15458a	0.14577308
189	0xbe093e51	-0.13402678
190	0x3d8c2c4d	0.06844387
191	0xbd59cdbc	-0.05317472
192	0x3be0caa2	0.006860093
193	0x3c3d1432	0.0115404595
194	0xbd0f278d	-0.034949828
195	0xbda45221	-0.08023477
196	0xbdaf0d13	-0.085474156
197	0xbd2bdb9f	-0.041957494
198	0x3d9495c3	0.07255127
199	0xbc4f0599	-0.012635612
200	0x3e5e5ef5	0.2171591
201	0xbe592d36	-0.21208653
202	0x3d0e3ed7	0.034727897
203	0xbd8d1001	-0.06887818
204	0x3e4e6edc	0.20159477
205	0x3e07bfec	0.13256806
206	0xbb900173	-0.004394704
207	0xbe3439a6	-0.17600116
208	0xbe1b824d	-0.15186425
209	0x3c11cb5f	0.008898585
210	0xbd796937	-0.060891356
211	0xbe0e6a4f	-0.13907741
212	0xbdc51992	-0.09624018
213	0xbd40dc7d	-0.047085274
214	0xbe2ec3e0	-0.17066908
215	0x3ca23815	0.019802133
216	0xbd5f881b	-0.05457316
217	0x3dffa3dc	0.124824256
218	0xbe16a91a	-0.14712945
219	0xbdc016bd	-0.09379337
220	0x3de55096	0.11197011
221	0xbe244091	-0.16040255
222	0xbd245c45	-0.040127058
223	0x3e29ea87	0.16593371
224	0x3cea3d58	0.028593704
225	0x3d06eca8	0.032940537
226	0x3d15b310	0.03654772
227	0x3d7fbf27	0.062438156
228	0x3e7a817d	0.24463458
229	0xbd782619	-0.060583208
230	0x3dd498d1	0.1038071
231	0xbdd08ede	-0.101835
232	0xbd68873f	-0.056769606
233	0xbe3899ed	-0.18027468
234	0x3d3fd902	0.046837814
235	0x3c719edc	0.014747348
236	0xbc6c04a6	-0.014405405
237	0x3d04fe9d	0.03246938
238	0xbe2a2a39	-0.16617669
239	0xbdd3ffb4	-0.10351506
240	0xbd1d485c	-0.038399085
241	0x3d81cd29	0.06337959
242	0xbd1135f5	-0.035451848
243	0x3d03b686	0.03215649
244	0xbd074ad2	-0.03303034
245	0x3d713ce4	0.05889596
246	0xbcff934a	-0.031198163
247	0x3d846d0a	0.0646611
248	0x3dee76be	0.11643742
249	0x3e28ac4d	0.16471978
250	0x3e73ccea	0.23808637
251	0xbdb351bf	-0.08755826
252	0x3d85ea23	0.06538799
253	0xbd4ae325	-0.04953303
254	0x3e0d34ca	0.13789669
255	0x3e1a5b10	0.150738

network_body._body_endoder.seq_layers.2.bias f4 [128]
0	0x3c5e5200	0.013569355
1	0x3cc82f12	0.024436507
2	0x3cabc8a4	0.020969696
3	0x3c850ff6	0.016242962
4	0x3cbeac6d	0.023275578
5	0x3a398a2c	0.0007077779
6	0x3c5a9fb7	0.013343743
7	0x3bd3e13e	0.00646606
8	0x3c0fc3bf	0.008774697
9	0x3c6c0176	0.014404645
10	0x3cd94d54	0.02652613
11	0x3bf23b40	0.007392317
12	0x3c6874f8	0.014188044
13	0x3bc0e500	0.005886674
14	0x3d04853a	0.032353617
15	0x3a21aa3d	0.000616703
16	0x3c976df4	0.018485047
17	0x3d106b1f	0.03525841
18	0xba53aaf9	-0.0008074488
19	0x3c276880	0.010217786
20	0xbca1124c	-0.019662045
21	0x3c20a393	0.009804624
22	0xbcd5576b	-0.02604266
23	0xbc1d72b0	-0.009609863
24	0xbc87c71c	-0.016574435
25	0xbbd8af5e	-0.0066127023
26	0x3caaf910	0.020870715
27	0x3c76b20f	0.015057101
28	0xbcc6171f	-0.024180947
29	0x3cdab4d2	0.02669755
30	0xbc9d07c1	-0.019168736
31	0x3c0945ff	0.008378505
32	0xbc8920d1	-0.01673928
33	0xbc0e6683	-0.008691433
34	0x3cf132cd	0.029443169
35	0x3d010eb9	0.03150818
36	0x3cb5ccf6	0.02219246
37	0x3af9746d	0.001903189
38	0xbc27c7cc	-0.010240506
39	0xbc9cc6ff	-0.019137857
40	0x3d17b2dd	0.03703581
41	0x3cad1487	0.021127952
42	0x3cf64ebf	0.030066846
43	0x3c8e177f	0.017345188
44	0xbcd82f7b	-0.026389828
45	0x3cd2d03c	0.02573406
46	0x3ccdd6fb	0.025126925
47	0x3d034a92	0.032053538
48	0x3ca251d8	0.019814417
49	0x3c003e1a	0.007827306
50	0x3c7ebdd0	0.0155481845
51	0x3cf02043	0.029312259
52	0x3be0706a	0.0068493383
53	0x3c132fc6	0.008983558
54	0xbcaf8c68	-0.021429256
55	0x3c0f1d8e	0.008735074
56	0xbb411651	-0.0029462765
57	0x3ce122f2	0.027482484
58	0x3bba521c	0.0056860577
59	0x3c625082	0.01381314
60	0x3c4a4c8e	0.012347354
61	0x3cb02bc9	0.021505253
62	0x3cd973a8	0.026544407
63	0x3cb3600f	0.02189639
64	0x3ccc5184	0.024941213
65	0x3b3981d8	0.0028306153
66	0xbcc59d01	-0.024122717
67	0x3ce452d5	0.027871529
68	0x3ae389a1	0.0017359742
69	0xbcc66946	-0.02422012
70	0x3caae04c	0.020858906
71	0x3b4750e8	0.0030413214
72	0x3d0d09cb	0.034433167
73	0x3d1bbb6a	0.03802053
74	0x3b15c70f	0.0022854244
75	0x3c8addd1	0.016951473
76	0xbcbc24eb	-0.022966823
77	0x3c6ff226	0.014645135
78	0xbcc78e3f	-0.02435982
79	0x3cd16a9c	0.02556353
80	0xbb8a8321	-0.0042270576
81	0x3c8a6948	0.016895905
82	0x3cbdbee3	0.023162311
83	0xbc60aab0	-0.01371257
84	0x3c4bc50f	0.012437119
85	0x3cde4987	0.02713467
86	0xbc31c35b	-0.010849799
87	0x3b8e3ddd	0.004340871
88	0xbc851753	-0.016246473
89	0x3ca30636	0.019900423
90	0xbc878b61	-0.016545953
91	0x3cd9fa25	0.026608536
92	0x3cc45202	0.023964886
93	0xbc58c09c	-0.013229515
94	0x3cb046f9	0.021518217
95	0x3c3c76f5	0.011502971
96	0x3c28e55a	0.010308588
97	0x3bdc09a8	0.0067150183
98	0x3c9ba9ca	0.01900186
99	0xbb9e1573	-0.0048243343
100	0x3d098827	0.03357711
101	0x3c8dbd9e	0.01730233
102	0xbc58286f	-0.013193234
103	0x3b7a52a9	0.0038196242
104	0x3d0ece58	0.034864753
105	0xbcab76d4	-0.020930685
106	0xbb74c93e	-0.0037351395
107	0x3c5f62fa	0.013634438
108	0x3cf7d597	0.030253215
109	0x3cfef237	0.031121356
110	0x3ca431b7	0.020043237
111	0x3c7ae96c	0.015314441
112	0x3c4a68e3	0.0123541085
113	0x3cc0dd0e	0.023542907
114	0xbb623aa8	-0.0034519825
115	0x3c6ad492	0.014332907
116	0xbbfa9ae7	-0.0076478603
117	0x3c917ff6	0.017761212
118	0xba740c73	-0.00093097164
119	0x3d09d5a3	0.033651005
120	0x3b91dd3d	0.0044514225
121	0xbba46754	-0.0050172005
122	0x3cbfb3bd	0.023401136
123	0xbc5a781c	-0.0133343
124	0x3c8274ae	0.015924778
125	0x3cc75799	0.024333762
126	0x3cb39530	0.021921724
127	0x3c13c096	0.009018084

action_model._discrete_distribution.branches.0.weight f4 [3, 128]
0	0xbc7b707a	-0.015346641
1	0xbd01f7e6	-0.031730555
2	0xbd3ac84a	-0.045601167
3	0xbcfa4aa3	-0.030553168
4	0x3ba9827a	0.0051730247
5	0xbc8f6b67	-0.017507268
6	0x3d0ff23a	0.035143115
7	0x3c92f2ca	0.017938036
8	0xbb3c3f78	-0.0028724354
9	0xbc584df8	-0.013202183
10	0xbd379871	-0.044823114
11	0xbd0a505f	-0.033768054
12	0xbcb006a9	-0.02148755
13	0x3bfd7dbb	0.0077359355
14	0xbd55a495	-0.05215891
15	0x3c367e91	0.011138574
16	0xbbfc4426	-0.0076985536
17	0xbcf21619	-0.029551553
18	0x3d047954	0.03234227
19	0xbc619f92	-0.013770955
20	0x3d365ac6	0.044520162
21	0xbc826f4d	-0.015922213
22	0x3d20af94	0.039229944
23	0x3d121d66	0.035672568
24	0x3c99dceb	0.0187821
25	0x3d006081	0.031342033
26	0xbd2b9e18	-0.041898817
27	0xbc538872	-0.012910949
28	0x3d52e9ed	0.05149262
29	0xbd58b783	-0.052909385
30	0x3ce9bd40	0.028532624
31	0x3c8eb789	0.0174215
32	0x3cd2da48	0.02573885
33	0x3d123c20	0.03570187
34	0xbd4bd066	-0.04975929
35	0xbd49cf6a	-0.04927007
36	0x3bb0cc4d	0.0053954483
37	0x3c508bdf	0.01272866
38	0x3d147781	0.03624678
39	0x3ce80234	0.028321363
40	0xbd7e3842	-0.06206537
41	0xbd2c8fb7	-0.042129245
42	0xbd3a0c44	-0.045421854
43	0xbc60a674	-0.0137115605
44	0x3d244956	0.040109
45	0xbccf27cb	-0.02528753
46	0xbd1884e7	-0.03723612
47	0xbcc9c06f	-0.024627892
48	0xbd2fe9c8	-0.04294756
49	0x3d204811	0.039131228
50	0xbc860c08	-0.016363159
51	0xbd12033a	-0.03564761
52	0xbc7abc42	-0.015303673
53	0xbcb9be58	-0.02267377
54	0x3d18caaf	0.03730267
55	0xbc6ee0f8	-0.014580004
56	0x3d0ac5f1	0.033880178
57	0xbd3cd590	-0.046102107
58	0x3c66bb3e	0.014082728
59	0xbcc8cdcf	-0.0245122
60	0xbc7d449a	-0.01545825
61	0xbcf8dacd	-0.03037777
62	0xbd35bc92	-0.044369288
63	0xbca768be	-0.020435687
64	0xbcb48896	-0.022037786
65	0x3bb90efb	0.0056475378
66	0x3d49e004	0.049285904
67	0xbd394180	-0.04522848
68	0x3b1c8968	0.0023885611
69	0x3d529fa1	0.051421765
70	0xbbbb8244	-0.005722316
71	0xbc8ca942	-0.017170552
72	0xbd3be48b	-0.045872252
73	0xbd477cf9	-0.048703168
74	0x3c82ae65	0.015952298
75	0xbccff5ba	-0.025385726
76	0x3d12ed60	0.03587091
77	0xbd130009	-0.035888705
78	0x3d1644a9	0.036686573
79	0xbd29d221	-0.04146016
80	0x3cf45fbd	0.029830808
81	0xbc8d1e42	-0.017226342
82	0x3c9c964b	0.019114634
83	0xbbce4941	-0.0062953536
84	0xbc6cb840	-0.0144482255
85	0xbd0ca7f9	-0.03433988
86	0x3ce1b875	0.027553776
87	0x3cc5aea8	0.024131134
88	0x3d128046	0.035766862
89	0xbbe16ad2	-0.006879189
90	0x3d1caba5	0.03824963
91	0xbd542932	-0.0517971
92	0xbd50a274	-0.050936177
93	0x3d3c8a3b	0.046030264
94	0xbd184987	-0.037179496
95	0xbc8b72f2	-0.017022584
96	0xb9861079	-0.00025570745
97	0x3b44d2a9	0.003003279
98	0xbcc123f0	-0.023576707
99	0x3bad6a55	0.005292217
100	0xbd678821	-0.056526307
101	0xbd06926a	-0.032854475
102	0x3cb4e46d	0.022081578
103	0xbc88f213	-0.016716992
104	0xbd3ddc03	-0.046352398
105	0x3d13e0c3	0.03610302
106	0x3c07442f	0.008256002
107	0xbb44e973	-0.0030046373
108	0xbd421419	-0.047382448
109	0xbd27a315	-0.04092701
110	0xbd29dd9d	-0.041471113
111	0xbb9962ea	-0.004680981
112	0xbcecb2eb	-0.028893908
113	0xbd2d238b	-0.042270225
114	0x3b8f9a65	0.004382419
115	0xb9d90554	-0.00041393435
116	0x3d0521a3	0.03250278
117	0xbc7eacbb	-0.015544112
118	0x3c7ce665	0.01543579
119	0xbd5844f9	-0.052800152
120	0x3c3944ed	0.011307937
121	0x3ceeac28	0.029134825
122	0xbd5650b3	-0.052323055
123	0x3d2a6ade	0.041605823
124	0xbceec4f3	-0.029146647
125	0xbb9e345b	-0.0048280186
126	0xbcdd3c84	-0.027006395
127	0x3bdbed7c	0.00671166
128	0xbcdedaad	-0.027203882
129	0xbc864845	-0.016391883
130	0xbcfae9ab	-0.030629
131	0x3d1db424	0.038501874
132	0x3d2f895a	0.042855598
133	0xbc03a162	-0.008034082
134	0x3ccb34aa	0.024805386
135	0xbc1b4345	-0.0094764875
136	0x3d0ff208	0.03514293
137	0x3d59fbe1	0.053218726
138	0x3cb6b8d6	0.022304934
139	0x3c2f5b14	0.010702867
140	0x3d2c5a3a	0.042078234
141	0xbd2b69a1	-0.041848782
142	0x3acabf53	0.0015468396
143	0xbced9be7	-0.029005004
144	0xbc8ca846	-0.017170083
145	0x3c82c649	0.01596369
146	0x3cb93026	0.022605967
147	0x3d5b8ab8	0.05359909
148	0xb9c6f877	-0.00037950624
149	0xbd3d4472	-0.046207853
150	0xbcc55096	-0.024086278
151	0xbb5ccd0d	-0.0033691556
152	0xbc8024e2	-0.015642587
153	0xbd3b3011	-0.045700137
154	0xbc908645	-0.01764215
155	0x3d1f5264	0.038896933
156	0xbc0279e8	-0.007963635
157	0x3c9214f5	0.017832259
158	0xbcba9d46	-0.022780072
159	0xbcea043a	-0.028566469
160	0xbca0a017	-0.019607587
161	0xbd22099f	-0.039559957
162	0xbc1531f5	-0.009106149
163	0x3c57daab	0.013174693
164	0x3d425d1b	0.047452074
165	0x3cc79bbc	0.024366252
166	0xbceab355	-0.028649965
167	0xbcacc965	-0.021092126
168	0x3c64df99	0.013969325
169	0xbc8b6c29	-0.017019348
170	0x3a598316	0.00082974264
171	0x3d53d657	0.051718082
172	0xbcb6b413	-0.022302663
173	0x3c6bf0d4	0.01440068
174	0x3ca74317	0.020417733
175	0x3d4ff282	0.050768383
176	0x3d25ec21	0.040508393
177	0xba1c8115	-0.00059701625
178	0x3d0ef1d3	0.03489859
179	0x3c3f4341	0.011673749
180	0xbd40bb98	-0.047053903
181	0x3ca4f001	0.020133974
182	0xbc206aaa	-0.009791056
183	0x3d2f1471	0.042744104
184	0xbcf08055	-0.029358068
185	0xbc39cb47	-0.011339969
186	0xbd07d068	-0.033157736
187	0x3d268083	0.040649902
188	0xbd206456	-0.039158188
189	0x3d358176	0.044312917
190	0x3d8198ee	0.06327997
191	0xbcf5ad26	-0.02998979
192	0xbb620184	-0.0034485767
193	0x3d25f886	0.040520214
194	0xbccaa295	-0.024735728
195	0xbc96c987	-0.018406643
196	0xbd341e5f	-0.043974277
197	0xbc962401	-0.018327715
198	0xbcffe4a9	-0.031236963
199	0x3b587a26	0.003303179
200	0x3ca35048	0.019935742
201	0x3c6a159c	0.014287379
202	0xba2e7c98	-0.0006656139
203	0xbc01a45d	-0.007912722
204	0xbc8b7066	-0.01702137
205	0xbc5341b5	-0.012894084
206	0xbc22144c	-0.009892534
207	0x3b910120	0.004425183
208	0xbc21544c	-0.009846758
209	0x3d63b523	0.055592667
210	0x3d7626d4	0.060095623
211	0x3b4dead4	0.0031420486
212	0x3d470a49	0.048593793
213	0xbcbb6edf	-0.022880016
214	0xbcf76f9f	-0.030204592
215	0xbd00e9f9	-0.031473134
216	0x3b8cda72	0.0042985016
217	0xbc80b7e1	-0.01571268
218	0xbc2a57fb	-0.010396953
219	0x3c5f7824	0.013639484
220	0x3cb38ea3	0.0219186
221	0xbca23ad4	-0.019803442
222	0x3d350feb	0.044204634
223	0x3d12fd44	0.035886064
224	0x3d32e17d	0.043672074
225	0xbd0265cb	-0.03183536
226	0x3d291acf	0.041285332
227	0xbc80655a	-0.015673328
228	0x38ab105e	8.156964e-05
229	0x3d004d6f	0.031323846
230	0xbd192001	-0.037384037
231	0x3d07b98b	0.033135932
232	0xba391607	-0.0007060472
233	0xbc79fc73	-0.0152579425
234	0x3cfa08c1	0.030521752
235	0xbd1fd164	-0.03901805
236	0x3c206aa7	0.009791053
237	0xbb6ad044	-0.0035829702
238	0x3d1586a0	0.03650534
239	0x3d35a686	0.044348262
240	0x3c80787f	0.015682457
241	0x3cf92750	0.030414253
242	0x3ced705e	0.028984245
243	0xbca32fde	-0.019920286
244	0x3c3e09b5	0.011598994
245	0xbd516c7f	-0.05112886
246	0x3c89356b	0.016749104
247	0x3bf8848d	0.0075841607
248	0xbd310aae	-0.043223076
249	0xbc369fda	-0.01114651
250	0x3c194a80	0.009356141
251	0xbcda9ca4	-0.02668602
252	0x3c3a3e38	0.011367373
253	0x3d1f621a	0.038911916
254	0x3d3417b0	0.043967903
255	0x3c24d1da	0.010059798

action_model._discrete_distribution.branches.0.bias f4 [3]
0	0xbce88126	-0.028381895
1	0x3c454c96	0.012042185
2	0x3c43617f	0.0119251

exp_avg f4 [128, 55]
0	0x3812a85a	3.4965902e-05
1	0x00000000	0.0
2	0x00000000	0.0
3	0xb823cad4	-3.9051127e-05
4	0xb8b90c1b	-8.823742e-05
5	0x36d96afe	6.4795595e-06
6	0x00000000	0.0
7	0x00000000	0.0
8	0xb7313f3b	-1.0564744e-05
9	0xb6d605a0	-6.378352e-06
10	0xb56bfeb4	-8.7914964e-07
11	0x00000000	0.0
12	0x00000000	0.0
13	0x354058a5	7.165457e-07
14	0x36245953	2.4489898e-06
15	0x38fb4e27	0.0001198317
16	0x00000000	0.0
17	0x00000000	0.0
18	0xb901efb1	-0.0001239169
19	0xb709d6b3	-8.215825e-06
20	0x34413364	1.7993221e-07
21	0x00000000	0.0
22	0x00000000	0.0
23	0xb4b7d076	-3.4238082e-07
24	0xb61188d1	-2.1686321e-06
25	0xb983db0f	-0.00025149478
26	0x00000000	0.0
27	0x00000000	0.0
28	0x3981b6c0	0.00024740957
29	0x37d153d4	2.4953777e-05
30	0xb68913ad	-4.0852087e-06
31	0x00000000	0.0
32	0x00000000	0.0
33	0x9b5791e5	-1.7831524e-22
34	0xb669c43c	-3.483393e-06
35	0xb6f1fc13	-7.211705e-06
36	0x00000000	0.0
37	0x00000000	0.0
38	0x3651d0b4	3.1264908e-06
39	0x37b0b367	2.1064376e-05
40	0xb68913ad	-4.0852087e-06
41	0x00000000	0.0
42	0x00000000	0.0
43	0x888009bd	-7.706009e-34
44	0xb593cfb2	-1.1012801e-06
45	0xb68913ad	-4.0852087e-06
46	0x00000000	0.0
47	0x00000000	0.0
48	0x2bc9aa50	1.432918e-12
49	0x3706a951	8.026444e-06
50	0xb68913ad	-4.0852087e-06
51	0x00000000	0.0
52	0x00000000	0.0
53	0x03c0e2de	1.1336832e-36
54	0xb5c510c7	-1.4682527e-06
55	0xb95732eb	-0.00020522966
56	0x00000000	0.0
57	0x00000000	0.0
58	0xb8d12042	-9.971905e-05
59	0xb9cd42ec	-0.00039150508
60	0x37181e07	9.066897e-06
61	0x00000000	0.0
62	0x00000000	0.0
63	0xb9a4a277	-0.00031401563
64	0xb9a17bca	-0.00030800543
65	0xb99bac94	-0.00029692485
66	0x00000000	0.0
67	0x00000000	0.0
68	0x3516f857	5.6240737e-07
69	0xb88cbe06	-6.711115e-05
70	0x39b61371	0.0003472823
71	0x00000000	0.0
72	0x00000000	0.0
73	0xba2afa7e	-0.00065223116
74	0xb9a68b14	-0.0003176561
75	0xb99b1d3d	-0.00029585688
76	0x00000000	0.0
77	0x00000000	0.0
78	0xb5079e5e	-5.0521874e-07
79	0xb87382a3	-5.805738e-05
80	0xba3ca0ac	-0.0007195573
81	0x00000000	0.0
82	0x00000000	0.0
83	0x39d95fcf	0.00041460848
84	0xb969c260	-0.00022293022
85	0xb99fe188	-0.00030494877
86	0x00000000	0.0
87	0x00000000	0.0
88	0x9b97344d	-2.5014653e-22
89	0xb852a90f	-5.022535e-05
90	0xb9a1ffd9	-0.00030898934
91	0x00000000	0.0
92	0x00000000	0.0
93	0x36879479	4.040598e-06
94	0xb9218fb8	-0.00015407696
95	0xb99fe188	-0.00030494877
96	0x00000000	0.0
97	0x00000000	0.0
98	0x873640f9	-1.3711252e-34
99	0xb82310f2	-3.887801e-05
100	0xb99fe188	-0.00030494877
101	0x00000000	0.0
102	0x00000000	0.0
103	0x2be7953c	1.6454958e-12
104	0xb912ae99	-0.00013988688
105	0xb99fe188	-0.00030494877
106	0x00000000	0.0
107	0x00000000	0.0
108	0x0401fa59	1.5278831e-36
109	0xb8168641	-3.588782e-05
110	0x37be693a	2.2698765e-05
111	0x00000000	0.0
112	0x00000000	0.0
113	0x368bcdc1	4.1664757e-06
114	0x3749cae8	1.2027776e-05
115	0x359f10f2	1.1851355e-06
116	0x00000000	0.0
117	0x00000000	0.0
118	0x37d76b9b	2.5680105e-05
119	0x37dd83ba	2.6406593e-05
120	0x37e306f1	2.7063741e-05
121	0x00000000	0.0
122	0x00000000	0.0
123	0x34b9799f	3.4547426e-07
124	0x371c5695	9.3184835e-06
125	0x373b0161	1.114639e-05
126	0x00000000	0.0
127	0x00000000	0.0
128	0x3783dbf9	1.571885e-05
129	0x37de4450	2.6496273e-05
130	0x37e6891b	2.7481981e-05
131	0x00000000	0.0
132	0x00000000	0.0
133	0xb39c35a4	-7.274073e-08
134	0x36b8cb98	5.5073288e-06
135	0xb6c49c4a	-5.8594496e-06
136	0x00000000	0.0
137	0x00000000	0.0
138	0x380941de	3.272469e-05
139	0x37db894b	2.6170766e-05
140	0x37e15ca8	2.6865237e-05
141	0x00000000	0.0
142	0x00000000	0.0
143	0x9a88cad8	-5.6575993e-23
144	0x3684bb74	3.955729e-06
145	0x37dc7f9b	2.6285465e-05
146	0x00000000	0.0
147	0x00000000	0.0
148	0x351ba20a	5.79778e-07
149	0x37a405f4	1.9553096e-05
150	0x37e15ca8	2.6865237e-05
151	0x00000000	0.0
152	0x00000000	0.0
153	0x885be1f1	-6.616851e-34
154	0x3669a077	3.4813108e-06
155	0x37e15ca8	2.6865237e-05
156	0x00000000	0.0
157	0x00000000	0.0
158	0x2acc0a97	3.6245028e-13
159	0x37771430	1.47270475e-05
160	0x37e15ca8	2.6865237e-05
161	0x00000000	0.0
162	0x00000000	0.0
163	0x03404dd7	5.6513085e-37
164	0x364b708e	3.0314873e-06
165	0xb8f06ffb	-0.0001146495
166	0x00000000	0.0
167	0x00000000	0.0
168	0x390632be	0.00012798139
169	0x392701e5	0.00015927067
170	0xb780d4ab	-1.535782e-05
171	0x00000000	0.0
172	0x00000000	0.0
173	0x37f0aa8f	2.8689652e-05
174	0x379b84a7	1.8539211e-05
175	0x372cc965	1.029889e-05
176	0x00000000	0.0
177	0x00000000	0.0
178	0xb5128e8b	-5.4596666e-07
179	0x369e7c9b	4.723273e-06
180	0xb94e941f	-0.0001970087
181	0x00000000	0.0
182	0x00000000	0.0
183	0x395c8eda	0.00021034051
184	0x37b1acc5	2.1180496e-05
185	0x371c0c32	9.301164e-06
186	0x00000000	0.0
187	0x00000000	0.0
188	0x34f27a08	4.5164802e-07
189	0x36ffef7c	7.627472e-06
190	0x39d5aa2b	0.0004075331
191	0x00000000	0.0
192	0x00000000	0.0
193	0xb9ceaccf	-0.00039420134
194	0xb82995ee	-4.0432373e-05
195	0x375fabfa	1.3331877e-05
196	0x00000000	0.0
197	0x00000000	0.0
198	0x1b433a64	1.6148889e-22
199	0x3705c0ee	7.972338e-06
200	0x37ad828d	2.0684e-05
201	0x00000000	0.0
202	0x00000000	0.0
203	0xb6f6b25e	-7.352136e-06
204	0xb80b9cfa	-3.328638e-05
205	0x375fabfa	1.3331877e-05
206	0x00000000	0.0
207	0x00000000	0.0
208	0x08bc858e	1.1346237e-33
209	0x365c4857	3.2824662e-06
210	0x375fabfa	1.3331877e-05
211	0x00000000	0.0
212	0x00000000	0.0
213	0xac72bb3d	-3.4494207e-12
214	0xb73f2bd1	-1.1394689e-05
215	0x375fabfa	1.3331877e-05
216	0x00000000	0.0
217	0x00000000	0.0
218	0x83a05a2a	-9.4246555e-37
219	0x36833c7a	3.9111446e-06
220	0xb98197a9	-0.00024717793
221	0x00000000	0.0
222	0x00000000	0.0
223	0xb877da44	-5.9092665e-05
224	0xb9b04ad9	-0.00033625102
225	0x3700ab01	7.6692095e-06
226	0x00000000	0.0
227	0x00000000	0.0
228	0xb9a49848	-0.00031393976
229	0xb9a1cc11	-0.00030860354
230	0xb99e3a69	-0.00030179627
231	0x00000000	0.0
232	0x00000000	0.0
233	0xb562893f	-8.439128e-07
234	0xb8bc5cbe	-8.981813e-05
235	0x392a349e	0.00016232065
236	0x00000000	0.0
237	0x00000000	0.0
238	0xb9f5ad3e	-0.00046859117
239	0xb9a38b2d	-0.00031193477
240	0xb99e9096	-0.00030243833
241	0x00000000	0.0
242	0x00000000	0.0
243	0xb4588a83	-2.0166958e-07
244	0xb881f474	-6.196732e-05
245	0xba1312fe	-0.0005610435
246	0x00000000	0.0
247	0x00000000	0.0
248	0x3985930d	0.00025477298
249	0xb976d39d	-0.0002353922
250	0xb9a092f2	-0.0003062706
251	0x00000000	0.0
252	0x00000000	0.0
253	0x9b58a46d	-1.792023e-22
254	0xb84ebf99	-4.9292667e-05
255	0xb9a275a1	-0.00030986688

exp_avg_sq f4 [128, 55]
0	0x3523bd9b	6.0998144e-07
1	0x00000000	0.0
2	0x00000000	0.0
3	0x34982d79	2.8345292e-07
4	0x35013d4d	4.814545e-07
5	0x3443a4c9	1.8220739e-07
6	0x00000000	0.0
7	0x00000000	0.0
8	0x353f7d9f	7.133585e-07
9	0x3557b468	8.0356267e-07
10	0x355b7a26	8.1761607e-07
11	0x00000000	0.0
12	0x00000000	0.0
13	0x33c5b611	9.206645e-08
14	0x346b2af3	2.1901705e-07
15	0x344c4cfd	1.9026989e-07
16	0x00000000	0.0
17	0x00000000	0.0
18	0x35401feb	7.157202e-07
19	0x35593af9	8.0924616e-07
20	0x356ce29c	8.824661e-07
21	0x00000000	0.0
22	0x00000000	0.0
23	0x32e9222e	2.7140313e-08
24	0x33ef12fa	1.11327566e-07
25	0x350bb585	5.204568e-07
26	0x00000000	0.0
27	0x00000000	0.0
28	0x34e633c9	4.2878517e-07
29	0x353549c1	6.753508e-07
30	0x35730c5f	9.0542557e-07
31	0x00000000	0.0
32	0x00000000	0.0
33	0x323ab95f	1.0868773e-08
34	0x3386443b	6.252272e-08
35	0x356535f6	8.538767e-07
36	0x00000000	0.0
37	0x00000000	0.0
38	0x33233af4	3.8005012e-08
39	0x34d8bc91	4.0370335e-07
40	0x35743d33	9.098614e-07
41	0x00000000	0.0
42	0x00000000	0.0
43	0x31957c10	4.350575e-09
44	0x332c6e07	4.014694e-08
45	0x3571f1b0	9.01312e-07
46	0x00000000	0.0
47	0x00000000	0.0
48	0x3201031b	7.509494e-09
49	0x34854839	2.482573e-07
50	0x35749ef5	9.1128396e-07
51	0x00000000	0.0
52	0x00000000	0.0
53	0x30e9197e	1.6960227e-09
54	0x32f94e74	2.9023091e-08
55	0x35dba342	1.6364286e-06
56	0x00000000	0.0
57	0x00000000	0.0
58	0x35df3dd6	1.6632791e-06
59	0x361bcfc2	2.321773e-06
60	0x34b8b60b	3.4405124e-07
61	0x00000000	0.0
62	0x00000000	0.0
63	0x3649444f	2.9991095e-06
64	0x36565cc1	3.1942475e-06
65	0x3654701e	3.1655723e-06
66	0x00000000	0.0
67	0x00000000	0.0
68	0x346daca8	2.2135157e-07
69	0x35639fbb	8.479653e-07
70	0x3537c405	6.845806e-07
71	0x00000000	0.0
72	0x00000000	0.0
73	0x363c27df	2.803739e-06
74	0x3651c04d	3.125536e-06
75	0x365f3e38	3.3265806e-06
76	0x00000000	0.0
77	0x00000000	0.0
78	0x33320c58	4.145508e-08
79	0x34bc56d2	3.50809e-07
80	0x362ee4d0	2.6061207e-06
81	0x00000000	0.0
82	0x00000000	0.0
83	0x35814664	9.631735e-07
84	0x361782b6	2.2576837e-06
85	0x3661604c	3.3583665e-06
86	0x00000000	0.0
87	0x00000000	0.0
88	0x329cf45d	1.8271914e-08
89	0x3449e3fb	1.8802523e-07
90	0x365c9b5d	3.2872988e-06
91	0x00000000	0.0
92	0x00000000	0.0
93	0x3355cd0f	4.9779427e-08
94	0x35acb222	1.2866842e-06
95	0x3661c480	3.364199e-06
96	0x00000000	0.0
97	0x00000000	0.0
98	0x31c605b7	5.763208e-09
99	0x34046a6d	1.2332175e-07
100	0x36614073	3.3565127e-06
101	0x00000000	0.0
102	0x00000000	0.0
103	0x327fe192	1.4894242e-08
104	0x355a369e	8.1290807e-07
105	0x3661d939	3.3654053e-06
106	0x00000000	0.0
107	0x00000000	0.0
108	0x31471c7e	2.8974507e-09
109	0x33c5f8fd	9.218818e-08
110	0x330f0e11	3.3307575e-08
111	0x00000000	0.0
112	0x00000000	0.0
113	0x3238d2fc	1.0758182e-08
114	0x32a43bd0	1.9119312e-08
115	0x32e32d16	2.644678e-08
116	0x00000000	0.0
117	0x00000000	0.0
118	0x32980f55	1.7702101e-08
119	0x32e3aeee	2.6505827e-08
120	0x330073bf	2.9907593e-08
121	0x00000000	0.0
122	0x00000000	0.0
123	0x326aab3d	1.3659528e-08
124	0x329a495d	1.7961321e-08
125	0x32cad56f	2.3612953e-08
126	0x00000000	0.0
127	0x00000000	0.0
128	0x32a2964e	1.8927633e-08
129	0x32e43251	2.6565575e-08
130	0x3320764a	3.7360486e-08
131	0x00000000	0.0
132	0x00000000	0.0
133	0x31eb7c41	6.853526e-09
134	0x327050ce	1.39882115e-08
135	0x32da3898	2.5404276e-08
136	0x00000000	0.0
137	0x00000000	0.0
138	0x329ea624	1.8469173e-08
139	0x32d8dd1c	2.5246258e-08
140	0x332b6d48	3.991343e-08
141	0x00000000	0.0
142	0x00000000	0.0
143	0x31ada467	5.053653e-09
144	0x3236135c	1.0598196e-08
145	0x332704fa	3.8887244e-08
146	0x00000000	0.0
147	0x00000000	0.0
148	0x319aa2e6	4.5005093e-09
149	0x329e24d0	1.8410361e-08
150	0x333a2c81	4.3346976e-08
151	0x00000000	0.0
152	0x00000000	0.0
153	0x310621f0	1.9518858e-09
154	0x31e69324	6.710609e-09
155	0x333a1dc5	4.3333575e-08
156	0x00000000	0.0
157	0x00000000	0.0
158	0x309abf04	1.1259265e-09
159	0x3254461f	1.2355968e-08
160	0x333c208d	4.3801766e-08
161	0x00000000	0.0
162	0x00000000	0.0
163	0x308f3707	1.0420259e-09
164	0x31a1fc5b	4.714406e-09
165	0x35e762a0	1.7239545e-06
166	0x00000000	0.0
167	0x00000000	0.0
168	0x3525d1d0	6.177261e-07
169	0x35943853	1.1043252e-06
170	0x3509bf02	5.131443e-07
171	0x00000000	0.0
172	0x00000000	0.0
173	0x35f3fcc4	1.8178475e-06
174	0x360c2ddc	2.088832e-06
175	0x361ef819	2.3688247e-06
176	0x00000000	0.0
177	0x00000000	0.0
178	0x3340b737	4.4870117e-08
179	0x34bcb6cc	3.515073e-07
180	0x345ebb39	2.0743472e-07
181	0x00000000	0.0
182	0x00000000	0.0
183	0x36112209	2.1626495e-06
184	0x361bdb6e	2.3224525e-06
185	0x36215f94	2.4046503e-06
186	0x00000000	0.0
187	0x00000000	0.0
188	0x3231c2b2	1.0347025e-08
189	0x34215016	1.5023429e-07
190	0x359ab2c4	1.1525922e-06
191	0x00000000	0.0
192	0x00000000	0.0
193	0x35af1883	1.304565e-06
194	0x3604ac66	1.9769882e-06
195	0x36225267	2.4187846e-06
196	0x00000000	0.0
197	0x00000000	0.0
198	0x311cc2a0	2.281162e-09
199	0x33b3b928	8.369017e-08
200	0x3613026d	2.190612e-06
201	0x00000000	0.0
202	0x00000000	0.0
203	0x340a6c69	1.2891691e-07
204	0x35a5909a	1.2335543e-06
205	0x36226690	2.419958e-06
206	0x00000000	0.0
207	0x00000000	0.0
208	0x30627252	8.238078e-10
209	0x33763fb7	5.7334287e-08
210	0x36207eee	2.391574e-06
211	0x00000000	0.0
212	0x00000000	0.0
213	0x32657b9f	1.33576625e-08
214	0x354528a6	7.344737e-07
215	0x36226c6a	2.4202986e-06
216	0x00000000	0.0
217	0x00000000	0.0
218	0x2fab9a06	3.121416e-10
219	0x3341dd33	4.5137494e-08
220	0x357e82ac	9.4812526e-07
221	0x00000000	0.0
222	0x00000000	0.0
223	0x3566f9e3	8.604531e-07
224	0x359f681f	1.1876726e-06
225	0x34a646be	3.097138e-07
226	0x00000000	0.0
227	0x00000000	0.0
228	0x35c8b953	1.4955098e-06
229	0x35de2888	1.6552085e-06
230	0x35dc08bf	1.6393823e-06
231	0x00000000	0.0
232	0x00000000	0.0
233	0x343aa450	1.7382376e-07
234	0x34fa68e2	4.664244e-07
235	0x34c0ce9a	3.591311e-07
236	0x00000000	0.0
237	0x00000000	0.0
238	0x35cde091	1.5339048e-06
239	0x35ddbb95	1.6520377e-06
240	0x35eeb6fc	1.7785637e-06
241	0x00000000	0.0
242	0x00000000	0.0
243	0x331201f2	3.3995043e-08
244	0x345a0a56	2.0306592e-07
245	0x35ad5f68	1.2917271e-06
246	0x00000000	0.0
247	0x00000000	0.0
248	0x3522821d	6.053904e-07
249	0x35a5e746	1.2360767e-06
250	0x35f17bc8	1.7991924e-06
251	0x00000000	0.0
252	0x00000000	0.0
253	0x327d2786	1.4735525e-08
254	0x33ec2a31	1.0997281e-07
255	0x35e89769	1.7329413e-06

exp_avg f4 [128]
0	0xb68bb04a	-4.1630456e-06
1	0xb99fc18a	-0.0003047104
2	0x37e15ce9	2.6865355e-05
3	0x375e8fe8	1.3265737e-05
4	0xb9a0a15c	-0.000306378
5	0xb8b47889	-8.60552e-05
6	0xb9011c4f	-0.00012312944
7	0x37da5920	2.6029127e-05
8	0x37a88ef3	2.0093727e-05
9	0xb7f135d6	-2.8754508e-05
10	0xb990b746	-0.0002760237
11	0xb94de60d	-0.00019636024
12	0xb6596429	-3.239382e-06
13	0xb80b0ee6	-3.3154058e-05
14	0xb8c9a37f	-9.6148804e-05
15	0x3696487e	4.4787876e-06
16	0x37f0235b	2.8626693e-05
17	0xb93c83de	-0.00017978202
18	0x37ba4068	2.220292e-05
19	0x38f359cf	0.00011603871
20	0xb71d228a	-9.365971e-06
21	0xb962b62f	-0.00021620908
22	0x376e0c2d	1.418874e-05
23	0xb948e1a4	-0.00019157544
24	0x38aa16da	8.110488e-05
25	0xb8521d73	-5.009533e-05
26	0xb8532bee	-5.0347233e-05
27	0xb8440d91	-4.6742676e-05
28	0x3806360b	3.199842e-05
29	0xb92b2a1a	-0.00016323515
30	0xb8dd5ae9	-0.000105550345
31	0xb8a78ffe	-7.990001e-05
32	0xb94b3ca9	-0.00019382186
33	0xb81c0a7d	-3.7203066e-05
34	0xb93631e8	-0.00017375464
35	0xb8abfd8c	-8.201142e-05
36	0x35c1d9ed	1.4443045e-06
37	0x38ab84fe	8.178687e-05
38	0xb91aae86	-0.000147516
39	0x379657c4	1.7922262e-05
40	0xb9131e57	-0.00014030315
41	0xb73bb88a	-1.1189035e-05
42	0x376bc85b	1.405374e-05
43	0xb8369abf	-4.35363e-05
44	0xb99db4a7	-0.0003007997
45	0xb8a34c66	-7.786676e-05
46	0xb70ebe29	-8.508135e-06
47	0xb88d0269	-6.723853e-05
48	0xb64a1e5f	-3.0118024e-06
49	0x37a4b263	1.9633391e-05
50	0x37e0a052	2.6777536e-05
51	0xb7956c71	-1.7812681e-05
52	0xb96124a4	-0.00021471322
53	0xb822a5af	-3.8778115e-05
54	0xb8ba8449	-8.893811e-05
55	0x3864db4a	5.4563665e-05
56	0x3792a184	1.7479768e-05
57	0xb989e423	-0.0002630065
58	0xb69bded7	-4.645302e-06
59	0x3706c7a4	8.033505e-06
60	0x36ffad23	7.619748e-06
61	0x38846b39	6.314222e-05
62	0xb6f4e0af	-7.2979233e-06
63	0x37805e80	1.5302794e-05
64	0xb93eaf49	-0.00018185111
65	0xb59cf933	-1.1695432e-06
66	0xb8f64173	-0.00011742385
67	0xb828850f	-4.017824e-05
68	0x372134ca	9.608639e-06
69	0xb911a0e5	-0.00013888215
70	0xb9445162	-0.00018722334
71	0xb9106dba	-0.00013773786
72	0xb8cd1abd	-9.780142e-05
73	0x38038d6a	3.1364536e-05
74	0x370abcea	8.269426e-06
75	0xb8fe5087	-0.00012126663
76	0xb85f95f2	-5.330699e-05
77	0xb955c7dd	-0.00020387718
78	0x36c9eb2f	6.017646e-06
79	0xb79331c4	-1.754694e-05
80	0x38363b64	4.3447493e-05
81	0xb6bb84e2	-5.588504e-06
82	0x385defaf	5.291373e-05
83	0xb828f85e	-4.028563e-05
84	0x37dd01c7	2.634608e-05
85	0xb88ce6b8	-6.718695e-05
86	0x38009c12	3.066293e-05
87	0xb8a9737d	-8.080059e-05
88	0x37aec88a	2.08358e-05
89	0xb90e2226	-0.00013554897
90	0xb720aa69	-9.57642e-06
91	0xb8c52c1a	-9.4019066e-05
92	0xb69752c6	-4.509787e-06
93	0xb923754a	-0.00015588585
94	0xb8c89be4	-9.56578e-05
95	0xb93d76c0	-0.00018068682
96	0xb8bc865b	-8.989564e-05
97	0x3800f1f8	3.074293e-05
98	0x37b8353f	2.1959304e-05
99	0xb92740fe	-0.00015950573
100	0xb758084b	-1.2876534e-05
101	0xb88c1f77	-6.681581e-05
102	0x36f652eb	7.3410242e-06
103	0xb7e02ada	-2.6722835e-05
104	0xb7449075	-1.1716144e-05
105	0xb4b9cd6d	-3.4608402e-07
106	0xb858bd28	-5.167458e-05
107	0x3801dd0a	3.0961855e-05
108	0x389fde51	7.6231205e-05
109	0xb8cad260	-9.671296e-05
110	0xb83c6ec9	-4.492587e-05
111	0xb854848d	-5.0668186e-05
112	0xb9100e48	-0.0001373823
113	0xb5938d8b	-1.0993548e-06
114	0x371a1e00	9.1861e-06
115	0xb928db83	-0.00016103503
116	0xb8d90f3b	-0.00010350203
117	0xb81d61b9	-3.752273e-05
118	0xb8d2e07b	-0.00010055393
119	0xb90549ba	-0.00012711334
120	0xb9a7a256	-0.00031973672
121	0xb92f723c	-0.00016731856
122	0xb91cceaf	-0.00014954315
123	0x3831d4bd	4.2398216e-05
124	0xb9ab411f	-0.0003266418
125	0x36d6d7c2	6.4028145e-06
126	0xb88582b0	-6.366277e-05
127	0x37c23f86	2.3156183e-05

exp_avg_sq f4 [128]
0	0x35759686	9.148865e-07
1	0x36627093	3.374215e-06
2	0x334423ec	4.5667477e-08
3	0x36226ed7	2.4204398e-06
4	0x35f36017	1.8132877e-06
5	0x33e2f347	1.0568197e-07
6	0x351676c6	5.605219e-07
7	0x34feb1ae	4.7440466e-07
8	0x31b144ab	5.1591846e-09
9	0x355ba8f3	8.182971e-07
10	0x35c48c4d	1.4643971e-06
11	0x35f309bd	1.8107745e-06
12	0x32f83286	2.8893975e-08
13	0x3441538c	1.800492e-07
14	0x348836cb	2.537184e-07
15	0x311df7a7	2.298728e-09
16	0x33047c3a	3.084663e-08
17	0x35109ec2	5.3875203e-07
18	0x350f14cb	5.330191e-07
19	0x35eb594f	1.7534857e-06
20	0x33e16683	1.0496026e-07
21	0x353aa938	6.9536645e-07
22	0x33145d40	3.4543746e-08
23	0x35e395a4	1.6956369e-06
24	0x3541d80d	7.22125e-07
25	0x350c8ff0	5.236352e-07
26	0x339ff398	7.448324e-08
27	0x34a1ce1b	3.0138548e-07
28	0x33578e1a	5.018783e-08
29	0x35470cba	7.4151797e-07
30	0x35535dc1	7.8740055e-07
31	0x3432c358	1.6648607e-07
32	0x35206fe6	5.976748e-07
33	0x33210ea4	3.749905e-08
34	0x3602725f	1.9438082e-06
35	0x357841bd	9.248286e-07
36	0x32dc6654	2.5657904e-08
37	0x369c4128	4.6567475e-06
38	0x34c198b0	3.6060146e-07
39	0x317c87d8	3.6748045e-09
40	0x3596c5f2	1.123348e-06
41	0x3305dc27	3.1166703e-08
42	0x321b657e	9.045264e-09
43	0x33bd217f	8.807091e-08
44	0x36e2bdf7	6.7574397e-06
45	0x338e303c	6.621164e-08
46	0x318e884a	4.148238e-09
47	0x3496ab42	2.8064284e-07
48	0x32e99aca	2.719516e-08
49	0x34d693a2	3.9968023e-07
50	0x3505e01f	4.98725e-07
51	0x3425b2e3	1.5431901e-07
52	0x35bda58d	1.4129779e-06
53	0x34fccd33	4.708796e-07
54	0x35349e6a	6.728575e-07
55	0x35f18e39	1.7997291e-06
56	0x34e1fe4e	4.2094547e-07
57	0x35966a83	1.120687e-06
58	0x312e7d96	2.539172e-09
59	0x32819c52	1.5088663e-08
60	0x318cd750	4.0990145e-09
61	0x3587cff5	1.0118807e-06
62	0x34bf5a10	3.5642051e-07
63	0x330ae4ed	3.2338836e-08
64	0x35a4f848	1.2291212e-06
65	0x30922107	1.0632285e-09
66	0x345cb408	2.0554592e-07
67	0x339f3520	7.413678e-08
68	0x359e653b	1.1801379e-06
69	0x352ed9e7	6.513714e-07
70	0x353038b4	6.5647623e-07
71	0x35067ee3	5.0103534e-07
72	0x36098c2b	2.049618e-06
73	0x33c26eba	9.05397e-08
74	0x32859bac	1.555403e-08
75	0x34923b67	2.723784e-07
76	0x34e572b8	4.2738043e-07
77	0x363d0c6b	2.8170423e-06
78	0x3107a03c	1.9736168e-09
79	0x350c9e63	5.238455e-07
80	0x3603f59a	1.966348e-06
81	0x30a3a6a4	1.1907173e-09
82	0x34a492ed	3.0654283e-07
83	0x3598481a	1.1345867e-06
84	0x359edeed	1.1836797e-06
85	0x357b2349	9.3556133e-07
86	0x331fb938	3.7188528e-08
87	0x3425d351	1.5443699e-07
88	0x354a23b3	7.5302813e-07
89	0x3621030d	2.3992645e-06
90	0x343e067e	1.7697491e-07
91	0x35079723	5.051135e-07
92	0x323d381b	1.1014005e-08
93	0x34a8c79e	3.143768e-07
94	0x34ef1796	4.453438e-07
95	0x351cb27a	5.8374246e-07
96	0x34153c81	1.3898718e-07
97	0x3446315b	1.8458142e-07
98	0x3218a658	8.885387e-09
99	0x360eebf2	2.1296987e-06
100	0x332d65f0	4.0372413e-08
101	0x34fc4ded	4.6995356e-07
102	0x36493950	2.9984694e-06
103	0x33c6e84c	9.262348e-08
104	0x33df26e7	1.0391323e-07
105	0x3254fd74	1.2397653e-08
106	0x34a8cb3d	3.1440314e-07
107	0x35d053bd	1.5521579e-06
108	0x3504b3af	4.9435306e-07
109	0x34ba870d	3.4743462e-07
110	0x34294968	1.5766057e-07
111	0x3426cef5	1.5535245e-07
112	0x358d740b	1.0539092e-06
113	0x31c37be8	5.6893334e-09
114	0x3654b493	3.169557e-06
115	0x3503633c	4.894571e-07
116	0x362b71a8	2.5547142e-06
117	0x3403a1f4	1.2259244e-07
118	0x3624678a	2.4498172e-06
119	0x345078c3	1.9415442e-07
120	0x358b7149	1.0389277e-06
121	0x355f8dad	8.328014e-07
122	0x35a42063	1.2228378e-06
123	0x366f8c10	3.5695302e-06
124	0x368d8adf	4.218294e-06
125	0x3115c2fb	2.1793187e-09
126	0x3512e05d	5.471573e-07
127	0x328947fc	1.5981634e-08
