results/Test3/MoveToGoal/MoveToGoal-499995.pt (torch, 528967 bytes, 33 tensors)

network_body._body_endoder.seq_layers.0.weight f4 [128, 35]
000000 f0 ed 72 3d 5e 72 05 bd 67 a9 91 be c1 e3 af bd
       0.059308946 -0.032579772 -0.28449556 -0.085883625
000010 3b cd e9 bb 1f 41 9f be 89 8b 91 3c cc 4c 70 3e
       -0.007135061 -0.3110437 0.01776673 0.23466796
000020 d4 b6 b5 bd be eb 94 bd 48 8d 25 be d6 ac 0e 3e
       -0.08872762 -0.07271527 -0.16167176 0.13933119
000030 86 17 6b bc 55 80 7e be 64 0e f9 3d 49 b2 01 bd
       -0.01434887 -0.24853642 0.12160948 -0.031664167
000040 03 5a 25 3e c2 91 8a 3b 7b fd 28 be cf 43 d1 3d
       0.16147618 0.0042288015 -0.16502945 0.102180116
000050 16 2e 47 bd c1 46 37 be 9c 42 19 be 7f ac 25 be
       -0.048627935 -0.17898084 -0.14966816 -0.16179083
000060 81 41 a3 be 3c 97 be be 56 e8 bc bd aa 60 9d 3e
       -0.31885913 -0.37224758 -0.09224002 0.3073781
000070 e9 88 5c 3d d3 32 92 3e 65 63 8f 3d a2 a6 3e be
       0.053841505 0.285544 0.0700138 -0.18618253
000080 a6 fa 3d bd cd b8 6c bd 0d 80 c2 bd 95 b2 8c be
       -0.046381615 -0.057793427 -0.0949708 -0.27479997
000090 89 cb 05 be 3e 1d a8 bd 94 54 70 be ed 61 b6 3e
       -0.13065924 -0.082087025 -0.23469764 0.35621586
0000a0 0c bd 68 3d f4 aa 8a 3e a4 cc 55 3d be f7 a1 be
       0.056820914 0.27083552 0.052197114 -0.31634325
0000b0 a0 65 11 3e 02 6a 13 3e 4c ff 88 3d 85 dc 7b be
       0.14198923 0.14395908 0.06689319 -0.2459584
0000c0 b8 f3 e7 3d ea 29 d0 3d 95 32 92 3e 28 16 a8 be
       0.113257825 0.101642445 0.28554216 -0.32829404
0000d0 64 47 82 3a 9e 6e 51 be 76 67 51 be 7a a6 b0 bb
       0.0009939489 -0.20452353 -0.20449623 -0.0053909393
0000e0 9d 72 22 3e 3a ea b1 be 68 fc 9f 3e 46 42 9b be
       0.15864034 -0.34749013 0.31247258 -0.30324
0000f0 ea 16 26 bc 1a 05 51 bd f7 4d b6 3c 93 df 6f be
       -0.010137299 -0.051030256 0.022253973 -0.2342513
000100 d3 16 63 3d 9d 53 56 3e 28 18 2c 3e e4 da 97 bc
       0.05544169 0.20930333 0.1680609 -0.018536992
000110 99 ac 9b 3e 0e f8 2d bd 0e 12 9a 3d 8c cd 1e be
       0.3040512 -0.04247289 0.07522975 -0.15508097
000120 bb 10 c4 bd 79 80 e9 bd 60 d6 73 be 5f fe 12 3e
       -0.095735036 -0.11401457 -0.23812246 0.14354847
000130 66 86 d1 bc e5 08 37 bd 80 b1 16 3b 53 4c 5c 3c
       -0.025576781 -0.044686217 0.0022993982 0.0134459315
000140 01 5a d4 3b 85 24 33 3c a5 5a 09 3e 9c cb 78 3e
       0.006480456 0.010934 0.13413484 0.24296421
000150 36 1c 1d 3f 2d 08 0f be b1 f0 91 bc dd 41 1b 3e
       0.6137117 -0.13967963 -0.017814966 0.15161844
000160 99 ef f2 bd e0 69 ea bc d5 cf db bd 13 58 62 be
       -0.11862106 -0.028614938 -0.10733 -0.2210391
000170 e8 8f b3 3d a3 27 2f 3e 6f 24 96 3d 57 d0 6f bd
       0.08767682 0.17104964 0.07331168 -0.058548298
000180 22 ff 50 be 90 f0 45 be 01 e1 3b 3e 20 7b 87 3e
       -0.20409825 -0.19330049 0.18347551 0.26461124
000190 ad 45 39 3d 30 4e 8c be 39 d0 ba bd f6 45 bb bd
       0.045232464 -0.27403402 -0.091217466 -0.09144203
0001a0 74 6f 85 3d 84 5d 57 3e f7 18 1f bc 78 11 c1 bd
       0.065153986 0.21031767 -0.009710542 -0.0942716
0001b0 10 01 b3 bd e1 e9 29 3d 39 92 92 bd ab 42 6c 3e
       -0.08740437 0.04148281 -0.07156796 0.23072307
0001c0 21 dd 41 be 2e 65 c6 3d af ef 03 3e 39 b7 8a 3e
       -0.1893201 0.09687267 0.12884401 0.27092913
0001d0 36 c6 6c bc ab cf 65 3c 17 e9 4b 3c 3f ec 1d bf
       -0.014451554 0.014026563 0.01244571 -0.6168861
0001e0 19 ee a4 3e 2f 1f 39 3e d5 dd f7 be 65 a5 3c be
       0.32212904 0.18078302 -0.48411432 -0.18422468
0001f0 05 ab af 3d 90 6f 21 be 1b e6 00 be 4a c3 9d bd
       0.08577541 -0.15765214 -0.12587778 -0.07703264
000200 6d 37 21 be 1c 5e e0 bc f7 aa 90 3d d2 12 9c 3d
       -0.157438 -0.027388625 0.07063859 0.07620777
000210 48 75 05 be 3f 17 0d be 09 13 23 be 00 19 2e 3e
       -0.1303302 -0.13778399 -0.1592523 0.17001724
000220 52 d3 e8 be 4e 10 40 3c 48 c1 cd 3d 6d b5 a4 bd
       -0.45473725 0.011722637 0.10046631 -0.08042417
000230 42 b4 d9 3e a5 00 ba bd b5 95 81 3e 1e 96 d0 3c
       0.42520338 -0.09082154 0.2530953 0.025462206
000240 2e 59 af bd 42 e2 68 be 5b fe f4 be b2 0c bb bd
       -0.085619316 -0.2274256 -0.47850308 -0.09133281
000250 53 f9 5f 3d 70 71 12 3e 2f 64 a6 3d e4 9c 61 bd
       0.054681133 0.14301085 0.08124577 -0.055081263
000260 92 fa 9d 3d 58 46 e5 bd 1f d5 9b 3d 95 90 eb bd
       0.07713808 -0.11195058 0.07609009 -0.11502186
000270 1e b7 71 be 16 0a 8d 3d 6e e8 a2 3d 4c b8 73 3e
       -0.2360501 0.06886689 0.07954489 0.23800772
000280 b7 e9 69 be 95 aa 1f be 01 9b 46 3e de ad 57 be
       -0.22843061 -0.15592416 0.19395067 -0.21062419
000290 13 c7 8f be 70 09 d0 3d ac 3f 03 3e e2 4f c5 3c
       -0.2808157 0.1015805 0.12817258 0.024085943
0002a0 7e d2 85 be 45 cf 91 ba 58 0a be bd ae dc a6 bc
       -0.26137155 -0.0011124393 -0.09279317 -0.0203689
0002b0 6f 3d 83 3d af e3 b6 3d a1 00 43 be ea 91 90 3e
       0.06408202 0.08930146 -0.19043209 0.28236324
0002c0 f7 99 28 bf b1 1f 06 3e ab bd 25 3e b2 eb 85 bc
       -0.6585993 0.13098027 0.16185634 -0.01634774
0002d0 5d 36 a8 be d9 fe 74 bd 30 79 f2 3d 3f fa c9 bd
       -0.32853976 -0.059813354 0.11839521 -0.09862184
0002e0 d2 95 a3 bc 30 40 c0 be de 2e 0a be d0 32 c1 3d
       -0.0199689 -0.3754897 -0.13494441 0.0943352
0002f0 7d 0c f2 3d dc b5 f5 3d 08 64 b7 3e 5f e6 bf be
       0.11818788 0.119975775 0.35818505 -0.37480447
000300 4a 9f 12 bd 5b 69 77 bd 63 10 2b 3e 3b 40 48 3d
       -0.03579644 -0.06040321 0.1670547 0.04888938
000310 fe 9c 8b 3e 2f 6b 4a 3e 0b d5 11 3d 20 8e 56 3e
       0.27268213 0.1976745 0.035603564 0.20952654
000320 01 c4 85 3c 21 2e 44 3d bf 89 8e 3e a3 96 91 be
       0.016328814 0.047895554 0.27839467 -0.2843524
000330 f4 6c 06 3e cd 71 22 bd 64 3e a2 3c 9b 3e 16 3e
       0.131275 -0.03965931 0.01980514 0.1467232
000340 57 40 ba be 81 16 4a bd bf c5 98 bd d8 a9 18 3d
       -0.36377212 -0.049337868 -0.07459592 0.03727135
000350 6c ec 1a 3d df dc af 3d 31 75 49 3e 8b cb 68 be
       0.037823126 0.0858705 0.19673611 -0.22733895
000360 92 e9 9e bd 0a c8 a2 3c 4d b4 1e bc ea f3 20 bd
       -0.07759394 0.019870777 -0.009686542 -0.039295115
000370 a3 2a 0d bc 29 95 b7 bd 05 6a 3a 3d 38 d5 70 3c
       -0.008616122 -0.08963997 0.045511264 0.014699273
000380 63 9a 0e 3e 26 82 90 3e d5 c0 73 3b d2 19 72 3e
       0.13926081 0.28224295 0.0037193794 0.23642662
000390 9b d9 46 be 13 a0 3a 3e 5c 3c 20 3e 3c 24 66 3d
       -0.19418947 0.18225126 0.15648025 0.0561869
0003a0 9e 1a c4 be e8 93 ab bc 02 f6 a6 3d 4b 57 44 3e
       -0.38301557 -0.02094455 0.08152391 0.19173925
0003b0 e2 a8 29 be ca 87 21 3c f5 85 13 3e c0 4b ed bd
       -0.1656833 0.009859035 0.1440657 -0.11586714
0003c0 b6 52 4d 3e 5d 9e 33 3e 39 e2 39 3e 83 1c 62 bb
       0.20051083 0.1754088 0.18152703 -0.0034501858
0003d0 a0 98 01 3d f5 26 4d be bc 36 93 be 23 0a d4 bd
       0.031639695 -0.20034392 -0.28752697 -0.10353496
0003e0 f7 a2 5d bd 12 66 98 bd 01 24 84 3e 83 21 4a 3d
       -0.054110494 -0.07441343 0.2580872 0.049348366
0003f0 e8 43 9d bd 7a b4 ee 3e 73 86 9e be 00 70 94 3e
       -0.07678968 0.46622068 -0.30961952 0.289917

network_body._body_endoder.seq_layers.0.bias f4 [128]
000000 22 5d 45 bc b2 37 17 3d db 81 9c 3c 17 5f 0e bd
       -0.01204613 0.03691835 0.019104889 -0.034758653
000010 a9 f2 5e bc d9 10 1c 3d 71 45 ed 3c 64 ae 99 3c
       -0.013607659 0.038102005 0.028963776 0.018759914
000020 d2 52 d8 3c d0 45 aa 3c 4c a9 57 3d 06 77 39 3d
       0.02640668 0.020785242 0.05265169 0.045279525
000030 ae a5 ae 3c b8 e0 1a bd 30 54 c1 3c 3a 8e 5e 3d
       0.021319237 -0.037811965 0.023599714 0.054334857
000040 4f 60 4c 3b 60 44 3a bc 19 8d aa bc 1f 01 02 bc
       0.0031185334 -0.011368841 -0.020819234 -0.007934838
000050 ee 31 47 3d 49 15 81 3c 5e 09 5d bc 87 70 c2 3c
       0.0486316 0.01575722 -0.013491003 0.023735298
000060 27 7d 52 3d 51 d7 49 3d 45 5d 2f 3d c0 62 2d 3d
       0.051388886 0.049277607 0.042813558 0.042330503
000070 0b 69 b2 3c 40 f0 f1 3b a1 18 e3 bc f1 36 07 3d
       0.021778604 0.0073833764 -0.027721705 0.03301138
000080 31 44 6a 3d 13 b5 da bb 77 9f ec bc 3d 25 b5 ba
       0.05719394 -0.0066744178 -0.028884633 -0.0013820302
000090 0d 05 29 3d f9 4d 94 3c 0d d2 d2 3c db 01 d2 bc
       0.041264582 0.018103587 0.025734926 -0.02563565
0000a0 1b c8 20 bd 89 e0 62 3c 9b 33 c1 bc 3a 2a cc b9
       -0.039253335 0.013847479 -0.023584178 -0.00038941373
0000b0 21 9a d9 bc 05 b9 4f 3d 2f 5e a2 bc 23 ee c3 3c
       -0.026562752 0.050713558 -0.0198203 0.023917263
0000c0 a3 29 59 3b 3d a0 13 3d 94 6d c4 bc 3c d8 3d ba
       0.003313639 0.036041487 -0.023978032 -0.0007241999
0000d0 69 1e 15 3d 25 f6 31 3d 16 ef 13 3d c2 39 f1 bc
       0.036405955 0.043447632 0.036116682 -0.029446486
0000e0 8c 0a 3b 3d 05 f6 4b bc fc 2a a0 bc e7 0b ca 3c
       0.045664355 -0.012448792 -0.019551747 0.024663879
0000f0 e5 7a 54 3d db 43 c0 3b a4 ff 29 bd 20 64 93 3b
       0.051875014 0.005867464 -0.041503564 0.00449802
000100 4e 29 14 3d bc b5 8f bc da 80 a3 bc e3 fa 00 bd
       0.036172204 -0.017542712 -0.019958902 -0.031489264
000110 fe 7a dd bc 32 07 6f bc 0b 2e a3 3c 70 53 01 bd
       -0.027036186 -0.014589118 0.019919416 -0.031573713
000120 76 91 bb 3c 53 40 31 bc 32 67 18 3d ff a6 4f 3a
       0.02289651 -0.010818559 0.03720779 0.00079213077
000130 8f 59 b1 bc a8 5a 35 3d 92 d1 3a 3d ac 37 9b 3c
       -0.02164915 0.04427591 0.045610018 0.018947445
000140 f6 5c 06 bc 52 52 13 3d 12 71 53 3d 0f d8 41 bb
       -0.008200875 0.03596718 0.051621504 -0.0029578244
000150 5b c8 93 3c 9c 59 18 3d 86 12 19 3d f9 b0 74 bb
       0.018039873 0.037194833 0.03737118 -0.003733693
000160 eb 3e 7a 3d a1 56 39 3d 06 83 b8 bb 6c 46 e3 bb
       0.06109516 0.04524863 -0.0056308536 -0.006935885
000170 5e 48 45 3b 66 ca bc bc bf 5e fc 3c c4 b2 3e 3c
       0.0030102949 -0.02304573 0.030806897 0.011639301
000180 54 a7 0f bc 8d 90 57 3d 95 de 86 bb fb 96 0b 3d
       -0.0087679215 0.05262809 -0.0041158893 0.034079533
000190 6c 9a 42 3c 7c 56 0f bb 7f ee c4 3c b1 25 fb 3c
       0.011877637 -0.0021871617 0.024039505 0.030657621
0001a0 0d 4e cb 3c b3 20 0e 3d 4f da 4d bc cd 3a f0 3c
       0.024817491 0.034699153 -0.012564256 0.029324913
0001b0 11 60 6b bc 7c 6d 29 3d 4d 3b ca 3c f8 ad fb 3c
       -0.014366166 0.041364178 0.02468648 0.030722603
0001c0 92 c1 18 3d c1 07 a2 3c 08 f7 24 3d 3d 50 b6 3c
       0.037293978 0.019779088 0.04027465 0.022255057
0001d0 4c fa 40 3d 24 cc 7f bc 23 d4 32 3d 78 be 23 3d
       0.0471137 -0.015612636 0.04365934 0.039976567
0001e0 84 25 27 3d c0 a8 ec 3c 36 0d 0d 3d 9b fc 03 bc
       0.040807262 0.02888906 0.034436427 -0.008055831
0001f0 cf 62 13 bd 27 e2 87 3c f8 c1 a4 3c c4 ac cf 3b
       -0.035982903 0.01658733 0.020112023 0.006337734

network_body._body_endoder.seq_layers.2.weight f4 [128, 128]
000000 0d cf 34 be 40 23 bd 3d 0f ce d3 bd 30 71 89 bd
       -0.17657109 0.09235239 -0.10342037 -0.06711042
000010 9a 8a 4d bd b8 e4 31 be 97 16 3e bd 9a c4 c4 bd
       -0.05018101 -0.17372406 -0.046408262 -0.09607811
000020 35 4a b3 3c 3e d4 7e 3d 50 0b 9d 3d 0c 80 7c bd
       0.02188597 0.06221413 0.07668173 -0.061645553
000030 30 11 d4 3c 98 84 fd bd f9 f7 00 3e a3 4c ca 3d
       0.025887102 -0.12378806 0.12594594 0.098778985
000040 ff ec 84 bd c8 94 3e 3e b6 1d 91 bd ba 57 6a bd
       -0.06490516 0.18611443 -0.07085745 -0.05721257
000050 09 31 e2 3d 8b 3e 17 be bf 2c 1e be 70 35 12 bd
       0.11044509 -0.14769952 -0.15446757 -0.035695493
000060 a9 c7 1f bd 8a 38 1c be 0f f2 10 3e 0f 68 a4 3d
       -0.03900877 -0.15255943 0.14154838 0.0802766
000070 f1 5c 07 3d 21 d5 72 be 0a f9 03 3e ea 5d 43 be
       0.03304762 -0.23714115 0.1288797 -0.19078794
000080 5a 89 6b 3d 4a 58 6f 3d 8e 08 94 3c 4f 48 40 3d
       0.057504036 0.05843381 0.018070485 0.04694396
000090 a9 13 cf bd 98 d2 ce bc 38 fc 39 3d 17 37 b8 ba
       -0.10111172 -0.025246903 0.04540655 -0.0014054504
0000a0 ea b7 0f 3e 85 f3 ec bd 5a ee 9a 3d b7 d2 9a bd
       0.14035001 -0.11569885 0.07564993 -0.07559722
0000b0 d5 5c f1 bd b0 c6 2e 3a c0 12 51 3d 2b 32 bd 3d
       -0.117852844 0.000666718 0.051043272 0.092380844
0000c0 05 5f 85 3c a8 ea e0 3c 1d ea ba bd aa b6 12 3e
       0.01628066 0.027455643 -0.09126685 0.14327493
0000d0 56 d4 0c 3d 2f 0a 6e 3e 00 5b 33 be 25 34 4c bd
       0.034382187 0.23246072 -0.17515182 -0.049854416
0000e0 08 a3 c9 3d 42 5a d8 bc 79 f1 0c be c2 04 40 3e
       0.09845549 -0.026410226 -0.1376399 0.18751815
0000f0 0a a5 eb bd be 4e 1a 3e 5d d5 98 3d a9 0c 11 3e
       -0.11506088 0.150691 0.07462571 0.14164986
000100 aa cf 35 3c f2 dc 7e 3d fb e9 c0 bc 18 e3 13 be
       0.011096874 0.06222243 -0.02354907 -0.14442098
000110 0d 30 00 bd 18 3a d8 bd c9 ce ab bb 1c b5 4e bd
       -0.031295825 -0.105579555 -0.0052431566 -0.050465688
000120 83 25 7b bd f1 43 b6 bd 24 0f 6a bc 5e 59 4c 3c
       -0.06131507 -0.088996775 -0.014285836 0.012472479
000130 57 2a 9d bd bb 43 86 bc 42 aa 6b be f9 66 8c bd
       -0.07674091 -0.016389718 -0.23014167 -0.06855578
000140 d6 e4 8a 3d 86 72 e9 bc 7e 6b ad bd 3a ab 6c 3d
       0.06781928 -0.028496992 -0.08467768 0.057780482
000150 53 8a 35 3a cc 58 c8 bc c2 42 10 be 49 60 31 bd
       0.0006925214 -0.024456404 -0.14087966 -0.043304715
000160 ee 95 a5 bd 65 93 75 bd df 77 2a 3e 98 85 1b bd
       -0.080852374 -0.05995502 0.1664729 -0.0379692
000170 5a 79 81 be f1 4d 3c 3e b7 c9 00 3e 4b 74 05 be
       -0.25287896 0.18389107 0.12576948 -0.13032643
000180 9f ab f9 3d bf 4d 8f bd 8d a6 93 3d 79 9c a3 3d
       0.12190937 -0.06997251 0.072095014 0.07988829
000190 65 37 7f 3d db de e0 bd 4f a5 fd bd 4a 16 1d bc
       0.062308688 -0.10980006 -0.12385046 -0.009587834
0001a0 4f 64 76 bd 34 b8 9f 3d 36 40 c6 bc e5 a7 23 be
       -0.060154255 0.07798806 -0.02420054 -0.15982015
0001b0 26 b4 22 be 82 af 9d bc f1 d5 d0 bc c3 fe 65 bc
       -0.15889034 -0.019248728 -0.02549264 -0.014037791
0001c0 62 be c1 bd 86 57 cc bc fe 4b e3 3d 1f 5c bf 3d
       -0.09460141 -0.024944078 0.11098479 0.093437426
0001d0 8c 9e 1c 3e b5 42 44 3c 71 fb ee 3d c1 31 01 bd
       0.15294856 0.011978795 0.116690524 -0.03154159
0001e0 32 b0 f7 3d 28 ae 5d bc 75 88 9c 3d 55 7e 4b bd
       0.120941535 -0.013530292 0.076432146 -0.049681026
0001f0 92 e9 a6 bd 0f 53 80 bb 03 20 cf bc 55 38 16 3d
       -0.08150019 -0.0039161514 -0.025283819 0.036674816
000200 b9 87 d1 bd 1d 8b 62 bd 6d 66 ab bc 0e 86 88 3c
       -0.10230965 -0.05530845 -0.020922864 0.016665485
000210 6d 03 b7 bd 7e 16 9a 3d 45 d1 00 3b 60 1e 8e 3e
       -0.089362 0.07523821 0.0019655984 0.2775755
000220 44 b3 ee bd 7e 90 2b 3e b1 7f 94 bc bf 70 1e 3d
       -0.11655286 0.16754338 -0.018127294 0.03868174
000230 37 83 a2 3d 5a 02 a5 3c f8 85 d2 bc ba f4 3a be
       0.079351835 0.020142723 -0.025698647 -0.18257418
000240 25 c4 46 bc 29 bd 9a 3d 2e 1e 0e be 75 0e 0d be
       -0.012131725 0.07555611 -0.138787 -0.13775046
000250 5d ad 73 3d 4d a7 91 3d dd 57 2e 3e ac 2f 92 bd
       0.059491504 0.07111988 0.17025705 -0.07137999
000260 91 0f 0d 3d d6 19 0b be 1e 21 e3 3c b4 70 45 3d
       0.034438673 -0.13584074 0.027725752 0.048203185
000270 8c b4 98 3d 66 3f 29 3d 63 d4 e6 bd 97 3a 81 3d
       0.074563116 0.041320227 -0.11270978 0.06310003
000280 28 b6 8d 3e 13 48 f0 3d e1 72 25 be 45 f4 27 3b
       0.27678037 0.11732497 -0.16157104 0.0025627774
000290 11 fa 96 bc c7 9c 57 be 14 67 96 bc 13 d9 91 3c
       -0.018429788 -0.210559 -0.018359698 0.017803704
0002a0 99 dd 07 be e0 5d f6 bd 96 73 a7 bc 58 88 91 3d
       -0.13268127 -0.12029624 -0.020440858 0.07106084
0002b0 17 2d 13 be 5e 85 2f 3e 12 34 7b 3e 8c 73 89 3d
       -0.14372669 0.1714072 0.24531582 0.06711492
0002c0 06 75 aa 3c 2f c1 88 bd f7 95 9a 3d d6 3a f5 3c
       0.020807754 -0.06677472 0.07548135 0.029935282
0002d0 33 94 fe bc cd 82 f8 3c 3a e1 74 bd be 58 18 be
       -0.031076526 0.030335808 -0.059785105 -0.14877602
0002e0 e0 3e 34 be 35 e9 64 bd e9 86 7d 3d fd 50 1a be
       -0.1760211 -0.055886466 0.06189624 -0.15069957
0002f0 af e6 2b be 8c 91 bc bd 37 67 8d 3d d8 c0 d5 bd
       -0.16787218 -0.09207448 0.06904452 -0.10437173
000300 0d 77 a7 3d e3 e3 55 3d a7 61 ca bc 24 af 81 3d
       0.08177004 0.052219283 -0.024704767 0.063322335
000310 02 ed 65 3d ed a4 39 bd aa 14 2a bc 7c 1e d7 bd
       0.05613423 -0.0453233 -0.010380903 -0.10503861
000320 62 1f a9 3d 60 01 f6 bd 10 be 28 bd 96 74 0c 39
       0.08257939 -0.12011981 -0.041196883 0.00013394872
000330 d2 55 a4 3c 1d 45 ff bd aa fd 61 3e bb e6 dc 3d
       0.020060454 -0.12464354 0.22069421 0.10786196
000340 22 48 55 bd fe da b5 bc b0 ac a5 3d ac 16 60 bd
       -0.052070744 -0.02219915 0.08089578 -0.05470912
000350 83 04 13 3e f9 a7 d5 39 03 27 e3 bc 89 37 64 3d
       0.1435719 0.00040751675 -0.027728563 0.055717025
000360 dc 37 c2 3c 36 88 5a bd 72 94 a2 bd 73 0f 3f bd
       0.023708276 -0.053352557 -0.0793847 -0.046645593
000370 da c0 55 3d 08 e7 0f bc 6d ff 89 bb 44 7b 1e bd
       0.05218587 -0.0087831095 -0.0042113573 -0.038691774
000380 0b 0c 1c bd 58 a6 ba bc 0f cb 97 3c 97 5e ee bc
       -0.038097423 -0.022784397 0.018529443 -0.029097838
000390 64 2e 1f 3e e7 17 d0 3c f0 70 71 3e 52 8b c8 bc
       0.1554504 0.025402023 0.23578238 -0.024480496
0003a0 ea e5 35 bd a4 33 d3 3d 1d cf e6 3d 22 c5 a4 3d
       -0.044408716 0.10312584 0.112699725 0.080454126
0003b0 60 79 d2 bd d3 3a aa 3c c7 39 16 3d 50 59 18 3e
       -0.10277057 0.020780003 0.036676195 0.1487782
0003c0 01 80 39 be cb 46 2f 3e c5 08 10 be 31 0d d9 bd
       -0.18115236 0.17116849 -0.14065845 -0.10598219
0003d0 56 eb 73 3d bc c5 be bc 15 28 b3 3d 45 dd 3b 3c
       0.059550606 -0.023287646 0.087478794 0.011466329
0003e0 3b f4 18 bb 9c 96 20 ba 7a b6 1c bd 91 fd a5 bd
       -0.0023338932 -0.0006125958 -0.03825996 -0.081050046
0003f0 87 4a 04 3e 1d b3 62 3d b7 a3 0f bd 87 b0 27 be
       0.12919055 0.055346597 -0.03506824 -0.16375934

network_body._body_endoder.seq_layers.2.bias f4 [128]
000000 9a 13 7a 3a 54 d5 a7 3c a8 87 29 3d ce 18 fb 3c
       0.0009539664 0.020487465 0.041389138 0.030651476
000010 65 d3 cd 3c de 72 c0 3c 91 d7 5e 3c 97 0c 24 3d
       0.025125215 0.023492273 0.0136012 0.04005107
000020 32 2d 90 bb 89 3f 31 bc 6a c6 68 bc dd 84 aa bb
       -0.004399919 -0.010818371 -0.014207462 -0.005203827
000030 3a 6d 72 3c 96 9f 6b bc 4e da 10 3d 66 30 fd 3c
       0.014796549 -0.01438131 0.03536444 0.030906867
000040 a3 f5 15 3d dd e8 13 bc 5c cf af 3c 6c 4f a5 ba
       0.03661121 -0.009027687 0.021461181 -0.001261217
000050 17 b9 1e 3a 78 d9 19 3d 59 67 b3 3c ae e0 e6 3c
       0.0006054802 0.03756091 0.021899866 0.028183307
000060 98 7a e4 3c ea 3c a9 bc 27 2b 9a 3c 31 a9 f3 3c
       0.027890489 -0.020658929 0.018819405 0.029743763
000070 a0 2e 05 3d 2e 37 04 3d f8 a0 82 3c f9 75 a3 3c
       0.03251517 0.032279186 0.015945897 0.019953715
000080 f2 13 e4 3c 90 34 0d 3d 59 e6 53 3c 6d 89 fd 3c
       0.027841542 0.034473956 0.012933337 0.030949319
000090 76 84 eb 3c 08 1a cb 3c 13 3a 1c bc 63 3b 92 3c
       0.028749686 0.024792686 -0.00953533 0.017850583
0000a0 dc 07 bb bc 9c 6f 8c 3c 91 c9 51 bc 87 cb 9f 3c
       -0.022830896 0.017143063 -0.012804405 0.01950623
0000b0 31 5f 07 3c 96 59 6b b9 0d de 7b bc b0 a6 cb 3c
       0.0082624415 -0.0002244472 -0.015372765 0.024859756
0000c0 dd ef 10 3d e4 53 0e bb 84 5d 7e 3c a1 7d a8 3c
       0.035385 -0.0021717483 0.015525226 0.020567717
0000d0 68 0e e3 3c b4 5d 0c 3d 97 fa 1e 3c 91 da b0 3c
       0.02771683 0.03426905 0.0097033 0.021588596
0000e0 98 42 81 bc 09 be 52 3c dd 30 d5 3c b5 6a 1b 3d
       -0.015778825 0.012862691 0.026024276 0.03794356
0000f0 77 a2 05 3d a5 8c 88 bc 05 1f fc bb 17 6f 26 3c
       0.03262564 -0.016668627 -0.0076941275 0.010158322
000100 97 3b cf 3c 5c eb a2 3a 3b 5e 80 3c 54 99 a8 bc
       0.02529697 0.0012429762 0.015669933 -0.020580925
000110 ba 20 53 bc 31 39 d7 3b 78 7e 04 3d 8c 84 82 bb
       -0.012886221 0.006568097 0.032347172 -0.003983086
000120 3f 43 14 bb 4f 4b 7c bc ad 89 5c 3c 40 7a 25 bc
       -0.002262309 -0.015398814 0.013460559 -0.010099947
000130 26 1e 18 bc 47 c2 cf 3c d2 18 0b 3d d3 7e 0b 3d
       -0.009284532 0.025361193 0.033959217 0.034056496
000140 5a 5f 99 3c 7a 16 af bb 91 8a 6f bc 0e c3 63 3c
       0.018722225 -0.0053432556 -0.014620439 0.013901485
000150 2b 93 12 3d bc fe b8 bb 86 9a 22 3d f7 03 22 3c
       0.03578488 -0.005645601 0.039698146 0.009888641
000160 86 81 4d 3c 07 60 e0 bb 03 bf 12 3d 80 a1 21 3d
       0.012543088 -0.006847385 0.035826694 0.03946066
000170 ec 44 48 3c c8 e2 c5 3c 8b fb 6e bc 49 f2 64 bb
       0.0122234635 0.02415599 -0.01458634 -0.0034934452
000180 d7 26 6e bc 23 0b 0b 3d 62 e6 96 bb 90 26 24 3d
       -0.014535627 0.033946168 -0.0046051005 0.04007584
000190 9d 71 15 3d cc 97 02 3d d3 f7 e6 3b cc a0 59 bc
       0.036485303 0.031883046 0.007048586 -0.013282966
0001a0 57 c6 a1 ba 70 ff 15 3c ce 2b 34 bc 32 56 52 3c
       -0.0012342435 0.009155139 -0.010996772 0.012837933
0001b0 8e 6c 0e 3d 09 e9 bf 3c cd 8c e5 3c dd 30 95 bc
       0.034771495 0.02342655 0.02802124 -0.018211776
0001c0 2d 14 15 3d f4 5a 87 3c 8d 26 cb bb f8 6d 0b 3d
       0.036396194 0.016522862 -0.006199664 0.03404042
0001d0 2b 83 09 3d e9 59 a2 3b 7a 7a 8b bc 30 19 ca 3c
       0.033572357 0.004954566 -0.017026175 0.024670213
0001e0 b1 99 ba 3c d1 3c df 3b 8d e7 23 bb d8 7d 00 3d
       0.022778364 0.00681267 -0.0025009841 0.031370014
0001f0 89 4e 1f 3d 61 42 0a 3c f2 c8 28 bc 3f 3d 2c 3c
       0.038893256 0.0084386775 -0.010301815 0.010512649

action_model._discrete_distribution.branches.0.weight f4 [3, 128]
000000 81 17 dd 3c d8 66 5c bd 64 4b 99 3c 3a 3b 81 3d
       0.026988747 -0.053809017 0.018712707 0.06310125
000010 0a 5f b2 3b e6 c6 7f 3d 7b 2e 4c bd a7 c2 21 3d
       0.0054434584 0.062445544 -0.049849015 0.039492276
000020 59 bb 50 3c 79 fc c2 ba d1 a2 63 bd 56 ce 61 bd
       0.01273998 -0.0014876268 -0.055575196 -0.055128418
000030 5b 82 80 3d 35 51 d1 bc d1 3f f1 3c f8 02 a3 3d
       0.06274863 -0.025551418 0.029449375 0.079595506
000040 0b d3 93 3c 22 30 42 bd dd 51 14 bd 27 fc d9 bc
       0.018044969 -0.047409184 -0.036210883 -0.026609493
000050 99 e2 a8 bc fb c7 d3 3c 3c 98 16 bd 1a 0f 93 3d
       -0.020615863 0.025852194 -0.036766276 0.07180615
000060 26 c5 96 3b d6 6e 2d bc 49 e0 11 bd 1e 18 67 3d
       0.0046011386 -0.010585507 -0.035614286 0.056419484
000070 4c ef 9f 3d 1c 85 b5 3c 17 7e 44 bd b1 1d 45 3d
       0.07809314 0.022158198 -0.04797181 0.04812402
000080 3e 41 3b 3d 5d 8e 69 3d ad 79 88 bd fd 16 89 3c
       0.045716517 0.057020534 -0.06663833 0.016734594
000090 29 98 42 3c 47 c7 77 3d a8 cd 0c bd 4f a2 18 3d
       0.011877098 0.06049278 -0.034375817 0.037264165
0000a0 96 2f 06 bd d9 a9 8f bd d0 d6 b3 bc 32 5d 28 3d
       -0.032760225 -0.07014818 -0.021953017 0.041104503
0000b0 7f 54 25 3d ba 51 6b bd fb 62 4c bd 97 4c b1 3a
       0.040363785 -0.057450987 -0.049899083 0.0013526854
0000c0 9e 5c 3c 3d 22 ea 62 bd 6a 4f 68 3d 28 4b 3e 3d
       0.045986764 -0.055399068 0.05671636 0.046458393
0000d0 f3 ef bd 3b 71 03 db 3c a3 02 60 bd 45 62 5b 3d
       0.0057964264 0.02673504 -0.054690015 0.053560514
0000e0 35 ed 0b bd 1d e8 4c 3d 30 02 80 bc 31 f4 8f 3d
       -0.034161765 0.050026048 -0.015626043 0.07028998
0000f0 d3 66 fa 3c 18 a0 1b bd bc 6a 44 bc d4 12 1d bd
       0.030566609 -0.037994474 -0.011988338 -0.038348034
000100 ca 92 80 3d 30 e0 32 3d 9f 94 3e 3d d6 3b 86 ba
       0.06277998 0.043670833 0.046528455 -0.0010241221
000110 43 65 db bc ef e4 9f 3c 9c 4c 2a 3d 5c a2 11 bd
       -0.026781684 0.019518344 0.041576967 -0.03555523
000120 b4 00 2a bd 01 52 36 bd 63 3f 92 3d 1d 3f c7 bc
       -0.041504577 -0.0445118 0.07140996 -0.024322087
000130 97 5c 14 bd 07 24 7e 3d 87 04 72 3d ef da c8 3c
       -0.036221113 0.062046077 0.05908635 0.024518458
000140 e8 db 18 bc 54 a6 ff bc 5f f8 91 bc 5a c4 14 3d
       -0.0093297735 -0.031207241 -0.017818628 0.036320068
000150 56 50 0e 3d 1c 74 6c bd 13 16 2b 3d 2e 7d 46 bd
       0.034744583 -0.057727918 0.0417691 -0.048459224
000160 6b bb 76 bd c8 c2 43 3b b8 78 55 3d 11 e2 11 3d
       -0.06023733 0.0029870737 0.05211708 0.035615984
000170 cc 65 09 3d 26 43 68 3d c2 68 cd bc 1d 0c 25 bd
       0.033544347 0.056704663 -0.025074366 -0.040294755
000180 69 c5 92 bc 70 1e 87 3d 6e bd 8c bd b3 f4 17 3d
       -0.017916398 0.06597602 -0.06872068 0.037098598
000190 3d 97 35 3d bc 03 50 3d 48 73 15 bd ee 11 df bb
       0.044333685 0.05078481 -0.036486894 -0.0068075573
0001a0 3c 25 da bc e1 4d 32 bd b0 25 57 bd c5 c9 33 3d
       -0.026629083 -0.043531302 -0.052526176 0.043893594
0001b0 f8 12 14 bd 2d 25 86 3d c9 08 2b 3d 65 d9 23 bd
       -0.036150903 0.065500595 0.041756425 -0.040002245
0001c0 3b c9 57 3d 59 f4 7f bd cb 84 9d bc 29 bc 46 3d
       0.052682143 -0.062488887 -0.01922836 0.048519287
0001d0 dd a6 5a 3d 0c cc 17 bd ef 59 b6 bc 88 8c 0c 3d
       0.05338179 -0.03705983 -0.02225968 0.03431371
0001e0 2b 95 70 3d 9c 31 3d bd 1f c6 fd bc ff e6 bf 3c
       0.058736008 -0.04618989 -0.03097826 0.023425577
0001f0 8c 75 3e 3d 80 8d e7 bc 1a 6c 45 bd d0 23 31 3d
       0.04649882 -0.028265715 -0.048198797 0.043247044
000200 69 1d c1 3c 44 22 53 bd aa 4c 58 bd 2c 72 38 bd
       0.023573594 -0.05154635 -0.052807488 -0.045030758
000210 a7 f6 87 bd da 6d a8 bc e4 c8 c9 bc e3 f1 87 bd
       -0.06638842 -0.020560194 -0.024631925 -0.06637933
000220 7f 1c 24 3d 1e 3a bf 3c 92 af 1d 3d 81 33 e9 3c
       0.04006624 0.023343142 0.038497515 0.028466942
000230 df a8 c5 3c 9f 02 00 3d 6d 9e 51 bd 41 4c 08 bd
       0.024128376 0.0312525 -0.051176477 -0.033275846
000240 c2 d1 91 bd ac bc 4a 3d a7 6c ff bc c3 32 88 3c
       -0.07120086 0.049496338 -0.03117974 0.016625768
000250 2e 20 e1 3b 8b 07 97 bd fd 16 f4 bc e1 11 dc bc
       0.006870291 -0.073744856 -0.029796118 -0.026863994
000260 6f 06 5b bd 44 ad 50 3d 10 fd 3a bd 5c 9a 8a bd
       -0.053472932 0.05094649 -0.045651495 -0.06767723
000270 0a 49 d9 bc a6 6c 89 bd c8 eb 70 3a 14 f1 c3 3b
       -0.026524086 -0.06710176 0.00091904076 0.0059796665
000280 44 86 52 bd aa c4 57 bd 30 9f 88 3c 5f 27 56 bd
       -0.051397577 -0.052677788 0.016677469 -0.05228364
000290 7a eb 2d bd d7 8e a0 3b 44 ac 1c 3d b4 da 96 bc
       -0.042460896 0.0048998403 0.038250223 -0.018414833
0002a0 00 10 08 3d 06 54 89 bc b8 3b 2a 3d 00 1f cb bc
       0.033218384 -0.016763698 0.04156086 -0.024795055
0002b0 cb 43 ed 3c f0 f0 49 3d cc 94 26 3d 34 0e 42 bd
       0.02896299 0.04930204 0.040669248 -0.047376826
0002c0 66 16 66 bd 6a a8 b5 3c 86 82 13 3c b6 46 93 bc
       -0.056173705 0.022175033 0.009003287 -0.017978054
0002d0 ac 8a 89 bd c6 eb 7f bd c0 77 b5 bc 35 41 a9 bc
       -0.06715903 -0.06248071 -0.022151828 -0.020660976
0002e0 8b 7a 73 3d f1 cf 62 bc 59 a7 3d bd 37 74 89 bd
       0.059443038 -0.013843522 -0.046302173 -0.06711619
0002f0 b7 26 14 bd 8d 8d 52 3d 8d db 31 3d 7b c5 74 3c
       -0.036169734 0.051404525 0.04342227 0.014939661
000300 aa 12 ea bc 48 f7 32 3d f6 80 dc ba 96 c3 2f 3d
       -0.028573353 0.043692857 -0.0016823101 0.042911135
000310 2a 7b 39 3c 96 ec a2 3b 06 e1 44 bd 1e 77 fb 3c
       0.0113208685 0.004972051 -0.04806616 0.030696448
000320 65 e3 53 3c 3b f6 17 3d ec e4 a7 bc 3e 8d 16 3d
       0.012932633 0.037100058 -0.0204949 0.036755793
000330 b1 a1 3e 3c 4c e4 99 bc dc ae 8f bd e1 0c 6b bd
       0.01163523 -0.018785618 -0.07015774 -0.05738533
000340 b2 08 3b bd 9c 28 53 3d 12 a1 00 3d 3b d8 8a bc
       -0.04566259 0.0515524 0.03140361 -0.01694881
000350 52 f2 4e bd 5d b4 88 3d 80 69 8b bd c7 ce bb bc
       -0.050524063 0.066750266 -0.06807232 -0.022925748
000360 66 17 91 3c 55 e8 a5 3c 89 00 61 bd c3 b5 73 bd
       0.017711353 0.020252386 -0.05493215 -0.059499513
000370 9f d4 48 bc 90 bf bb bc b7 af 2d 3d 97 b9 66 3d
       -0.012257724 -0.022918493 0.042403903 0.056329336
000380 cd 9d 12 3d 71 54 4f bd 63 cd 23 3d 28 f4 51 bd
       0.03579502 -0.05061764 0.039990794 -0.051258236
000390 bc 39 8a bd 59 6a 67 bd 31 0c f4 bb 50 b1 1d 3d
       -0.06749293 -0.056497905 -0.0074477424 0.038499177
0003a0 b3 2f 15 3d 08 ca 75 3c 87 66 82 3d 58 88 3c bc
       0.036422443 0.015001781 0.06367212 -0.011507116
0003b0 1e d4 79 bd 27 1b 59 bb 58 01 62 bd a9 2d 27 3d
       -0.060993306 -0.0033127756 -0.055177063 0.04081503
0003c0 94 ab 58 bd 6b 20 60 bc 8d 46 84 3c 13 11 9b bd
       -0.052898005 -0.013679604 0.016146922 -0.07571616
0003d0 25 74 49 bd 69 d4 49 bb 5d be 87 3c 16 fb 53 bd
       -0.04918303 -0.0030796772 0.016570264 -0.051753126
0003e0 3e 3c b1 bc 1f 37 cd 3b 78 eb 34 3d 16 8d 73 bd
       -0.021635171 0.0062626745 0.044169873 -0.059460722
0003f0 73 33 82 bd 81 dc f9 3b 59 20 25 3d 89 9a 57 3c
       -0.063574694 0.007625163 0.040314052 0.013159403

action_model._discrete_distribution.branches.0.bias f4 [3]
000000 7d 61 a4 3c fc f7 9b bc e7 ce dd 39
       0.020066017 -0.019039147 0.0004230656

exp_avg f4 [128, 35]
000000 2e cc f4 37 00 00 00 00 00 00 00 00 6c ac 09 34
       2.9182145e-05 0.0 0.0 1.2821846e-07
000010 8c 06 b3 36 6e c7 c4 37 00 00 00 00 00 00 00 00
       5.335378e-06 2.3457887e-05 0.0 0.0
000020 89 84 bb af 32 3b a0 36 83 db 52 36 00 00 00 00
       -3.4109274e-10 4.775263e-06 3.1420211e-06 0.0
000030 00 00 00 00 6f f2 7d b7 32 77 21 b7 fa 06 bb 37
       0.0 -1.5136421e-05 -9.6241e-06 2.2295386e-05
000040 00 00 00 00 00 00 00 00 70 7c 27 9d 36 89 90 36
       0.0 0.0 -2.2166599e-21 4.307508e-06
000050 a7 ba 92 b7 00 00 00 00 00 00 00 00 2b 7e ea 36
       -1.7491473e-05 0.0 0.0 6.9884313e-06
000060 23 65 b5 b6 45 c1 a7 37 00 00 00 00 00 00 00 00
       -5.405994e-06 1.999795e-05 0.0 0.0
000070 b3 0f 02 00 37 84 a5 36 4a 8a 41 37 00 00 00 00
       1.89303e-40 4.932775e-06 1.1535894e-05 0.0
000080 00 00 00 00 64 20 e8 33 a7 d7 13 35 74 7f a4 b8
       0.0 1.0809234e-07 5.5075583e-07 -7.8438694e-05
000090 00 00 00 00 00 00 00 00 b2 82 33 36 e2 c6 3d b9
       0.0 0.0 2.6749153e-06 -0.00018098534
0000a0 da 38 db 37 00 00 00 00 00 00 00 00 2c 95 36 31
       2.6133308e-05 0.0 0.0 2.656928e-09
0000b0 36 c6 6b 38 ee 75 88 39 00 00 00 00 00 00 00 00
       5.6212964e-05 0.00026027806 0.0 0.0
0000c0 a5 14 44 ba d5 2d 0c ba d1 49 ac 38 00 00 00 00
       -0.0007479883 -0.00053474057 8.2153485e-05 0.0
0000d0 00 00 00 00 74 45 a1 9e 99 3b b9 38 9f c6 70 ba
       0.0 -1.7075263e-20 8.832588e-05 -0.000918487
0000e0 00 00 00 00 00 00 00 00 fe a0 e9 39 0d 66 6d b9
       0.0 0.0 0.00044561172 -0.00022640098
0000f0 09 52 a2 38 00 00 00 00 00 00 00 00 cc 46 17 00
       7.740042e-05 0.0 0.0 2.137614e-39
000100 61 13 e1 38 d4 c9 82 39 00 00 00 00 00 00 00 00
       0.00010732446 0.00024945906 0.0 0.0
000110 e9 d2 a4 b8 6b a8 44 b9 d4 b4 39 b8 00 00 00 00
       -7.8594145e-05 -0.00018754757 -4.4275846e-05 0.0
000120 00 00 00 00 d2 80 d8 b5 13 9a bf 38 96 47 31 b8
       0.0 -1.6130746e-06 9.136288e-05 -4.2266758e-05
000130 00 00 00 00 00 00 00 00 8d 2b 65 2f f9 50 71 b7
       0.0 0.0 2.0842901e-10 -1.4383572e-05
000140 30 7d 97 b9 00 00 00 00 00 00 00 00 36 52 df 39
       -0.00028894236 0.0 0.0 0.00042595126
000150 fc fc 83 39 67 46 4b b8 00 00 00 00 00 00 00 00
       0.00025174755 -4.846454e-05 0.0 0.0
000160 c1 99 94 1e 5c a3 06 b8 e1 2c 05 3a 00 00 00 00
       1.57337e-20 -3.210023e-05 0.0005080235 0.0
000170 00 00 00 00 f8 a1 c7 b9 82 37 8b b7 aa 2a 25 b8
       0.0 -0.00038076914 -1.6595939e-05 -3.93788e-05
000180 00 00 00 00 00 00 00 00 a5 7d 0a 80 d7 3d 2b b8
       0.0 0.0 -9.63428e-40 -4.082717e-05
000190 93 f8 53 b9 00 00 00 00 00 00 00 00 f5 9b 9b 37
       -0.00020215129 0.0 0.0 1.8550063e-05
0001a0 b1 61 04 37 5e c7 25 b8 00 00 00 00 00 00 00 00
       7.890559e-06 -3.952474e-05 0.0 0.0
0001b0 aa ae 62 b4 55 bf ac 36 1c 25 8b b8 00 00 00 00
       -2.1111433e-07 5.1482734e-06 -6.634949e-05 0.0
0001c0 00 00 00 00 a4 5f 98 b0 1a e2 c0 b7 9b 78 f5 b7
       0.0 -1.1086638e-09 -2.299347e-05 -2.9262437e-05
0001d0 00 00 00 00 00 00 00 00 1f 96 aa 38 64 77 4a 38
       0.0 0.0 8.134194e-05 4.8271744e-05
0001e0 66 39 a7 b8 00 00 00 00 00 00 00 00 11 10 75 1d
       -7.973872e-05 0.0 0.0 3.2433786e-21
0001f0 4b 1d d3 b7 6f d5 fa 38 00 00 00 00 00 00 00 00
       -2.51668e-05 0.00011960684 0.0 0.0
000200 72 b8 8f b8 b3 55 ab 37 7b 5a a9 b8 00 00 00 00
       -6.853127e-05 2.0424695e-05 -8.075401e-05 0.0
000210 00 00 00 00 7d 28 05 80 47 99 e7 b7 47 a4 5a b8
       0.0 -4.73702e-40 -2.7608721e-05 -5.2128245e-05
000220 00 00 00 00 00 00 00 00 ba 7b a2 37 80 6d f1 37
       0.0 0.0 1.936952e-05 2.8780429e-05
000230 f8 ae 99 b7 00 00 00 00 00 00 00 00 85 01 87 b4
       -1.8320497e-05 0.0 0.0 -2.5146815e-07
000240 b6 43 02 38 6d a1 89 b8 00 00 00 00 00 00 00 00
       3.1057476e-05 -6.562737e-05 0.0 0.0
000250 3e 25 04 b1 bd aa 14 b8 8d ed 3e b8 00 00 00 00
       -1.9229698e-09 -3.5444962e-05 -4.5520766e-05 0.0
000260 00 00 00 00 2a 5d 51 39 9b ce 1a 39 39 15 ba b8
       0.0 0.000199665 0.00014763551 -8.873124e-05
000270 00 00 00 00 00 00 00 00 01 3f 36 1e 45 d7 2b b8
       0.0 0.0 9.648029e-21 -4.0970062e-05
000280 82 f7 84 39 00 00 00 00 00 00 00 00 31 04 d5 b8
       0.0002536141 0.0 0.0 -0.00010157412
000290 58 af 9c 38 f5 4a c4 b8 00 00 00 00 00 00 00 00
       7.47132e-05 -9.35997e-05 0.0 0.0
0002a0 99 87 06 80 90 e1 49 b8 76 c6 c0 b8 00 00 00 00
       -5.99656e-40 -4.8132206e-05 -9.19224e-05 0.0
0002b0 00 00 00 00 dd f9 bc 37 73 2b 59 38 b7 36 8a b9
       0.0 2.2527698e-05 5.1777297e-05 -0.00026362177
0002c0 00 00 00 00 00 00 00 00 4a 3c b1 b5 35 28 fd b8
       0.0 0.0 -1.3205074e-06 -0.00012071469
0002d0 85 bd 5c b9 00 00 00 00 00 00 00 00 7a ad 00 31
       -0.00021051436 0.0 0.0 1.8725062e-09
0002e0 27 80 6b b7 65 cd b0 b7 00 00 00 00 00 00 00 00
       -1.4036929e-05 -2.107648e-05 0.0 0.0
0002f0 62 85 96 b9 32 8c 95 b9 ba ad 46 b9 00 00 00 00
       -0.00028709607 -0.00028523948 -0.0001894747 0.0
000300 00 00 00 00 24 71 56 1d 1b 09 c7 36 d5 a8 b3 b9
       0.0 2.8381157e-21 5.931722e-06 -0.0003426733
000310 00 00 00 00 00 00 00 00 88 09 fe 37 58 bc 5c b9
       0.0 0.0 3.0283598e-05 -0.00021050998
000320 13 d2 45 b9 00 00 00 00 00 00 00 00 93 e2 04 00
       -0.00018865643 0.0 0.0 4.48621e-40
000330 93 77 49 37 ed f0 82 b8 00 00 00 00 00 00 00 00
       1.2008374e-05 -6.243759e-05 0.0 0.0
000340 84 ed b6 b7 a9 1e 10 b9 60 56 9d b9 00 00 00 00
       -2.1806693e-05 -0.00013744332 -0.00030009728 0.0
000350 00 00 00 00 1f 4a 95 36 d4 32 9a b9 0e d2 6f b9
       0.0 4.449175e-06 -0.0002941104 -0.00022871068
000360 00 00 00 00 00 00 00 00 3d d4 2d 31 86 92 ed 37
       0.0 0.0 2.5295457e-09 2.8320832e-05
000370 c3 1a 83 39 00 00 00 00 00 00 00 00 97 df 85 ba
       0.00025006206 0.0 0.0 -0.001021373
000380 49 75 57 ba 37 b3 35 b9 00 00 00 00 00 00 00 00
       -0.0008219076 -0.00017328268 0.0 0.0
000390 e4 43 08 9f a2 9b a4 38 29 93 a3 ba 00 00 00 00
       -2.8855278e-20 7.849118e-05 -0.001247977 0.0
0003a0 00 00 00 00 e7 0f 04 3a 96 ff d3 b9 07 d6 3c b9
       0.0 0.000503777 -0.00040435483 -0.00018008809
0003b0 00 00 00 00 00 00 00 00 d7 17 1e 00 67 68 da 38
       0.0 0.0 2.763617e-39 0.000104144965
0003c0 0c 01 82 39 00 00 00 00 00 00 00 00 e5 04 a2 b8
       0.00024796312 0.0 0.0 -7.725674e-05
0003d0 81 04 88 b9 26 ba 51 b9 00 00 00 00 00 00 00 00
       -0.00025943297 -0.00020001139 0.0 0.0
0003e0 62 5c 00 b6 e6 8d 07 38 04 88 4d b9 00 00 00 00
       -1.912726e-06 3.231866e-05 -0.00019600993 0.0
0003f0 00 00 00 00 a9 90 ed 2f 19 55 ef b7 18 9f a8 b9
       0.0 4.3212836e-10 -2.8530647e-05 -0.0003216199

exp_avg_sq f4 [128, 35]
000000 d0 50 0c 32 00 00 00 00 00 00 00 00 d3 74 f9 2d
       8.167447e-09 0.0 0.0 2.8359903e-11
000010 81 78 84 30 8f 0e 15 32 00 00 00 00 00 00 00 00
       9.638513e-10 8.676252e-09 0.0 0.0
000020 07 67 52 2f 3c 24 00 30 e4 f5 3f 31 00 00 00 00
       1.9135991e-10 4.661762e-10 2.793393e-09 0.0
000030 00 00 00 00 e2 7a 08 31 33 75 77 31 49 01 25 32
       0.0 1.9860456e-09 3.600985e-09 9.604556e-09
000040 00 00 00 00 00 00 00 00 12 a3 31 2e 2d 21 d4 2f
       0.0 0.0 4.0389976e-11 3.8586148e-10
000050 d4 27 9d 31 00 00 00 00 00 00 00 00 a1 8f 23 2f
       4.5738293e-09 0.0 0.0 1.4875791e-10
000060 32 43 cd 30 66 f5 21 32 00 00 00 00 00 00 00 00
       1.4934811e-09 9.4272306e-09 0.0 0.0
000070 d7 c5 16 2d 97 01 bb 2f 50 be a6 31 00 00 00 00
       8.570442e-12 3.4016231e-10 4.852872e-09 0.0
000080 00 00 00 00 22 5d 05 2e 9a 98 79 30 d8 07 3e 36
       0.0 3.0323417e-11 9.080253e-10 2.8316772e-06
000090 00 00 00 00 00 00 00 00 e3 12 58 32 fa 78 e5 34
       0.0 0.0 1.2577149e-08 4.2742596e-07
0000a0 45 ce 48 36 00 00 00 00 00 00 00 00 f3 67 0d 32
       2.9922387e-06 0.0 0.0 8.2309155e-09
0000b0 b9 97 fb 33 cc 65 9d 35 00 00 00 00 00 00 00 00
       1.17156965e-07 1.1727038e-06 0.0 0.0
0000c0 2a e6 a7 35 39 c3 09 36 f9 ed 4c 36 00 00 00 00
       1.2509456e-06 2.0528225e-06 3.0536887e-06 0.0
0000d0 00 00 00 00 09 62 89 31 7f 33 9a 33 da 35 13 36
       0.0 3.99837e-09 7.180551e-08 2.1936053e-06
0000e0 00 00 00 00 00 00 00 00 90 ae c1 34 dd d1 92 35
       0.0 0.0 3.6076062e-07 1.0938926e-06
0000f0 b5 dd 4a 36 00 00 00 00 00 00 00 00 52 fc 18 2f
       3.0229396e-06 0.0 0.0 1.3913962e-10
000100 00 65 96 33 d1 41 20 36 00 00 00 00 00 00 00 00
       7.003291e-08 2.3880168e-06 0.0 0.0
000110 62 0b 1d 33 1f 73 11 35 1e 25 57 35 00 00 00 00
       3.6564764e-08 5.418423e-07 8.0147754e-07 0.0
000120 00 00 00 00 a5 b5 59 30 bf 8c ee 33 e5 b9 58 35
       0.0 7.920227e-10 1.110834e-07 8.073678e-07
000130 00 00 00 00 00 00 00 00 ae 67 4f 30 93 db a3 32
       0.0 0.0 7.54535e-10 1.9075548e-08
000140 87 1b 8f 34 00 00 00 00 00 00 00 00 cf 10 f6 34
       2.6655854e-07 0.0 0.0 4.58333e-07
000150 4e 4e 30 35 b9 e1 57 35 00 00 00 00 00 00 00 00
       6.567906e-07 8.042221e-07 0.0 0.0
000160 92 55 75 30 bf 8c 39 32 51 c7 33 35 00 00 00 00
       8.9252084e-10 1.0800419e-08 6.697274e-07 0.0
000170 00 00 00 00 76 75 d1 33 48 60 ac 34 30 a8 56 35
       0.0 9.753687e-08 3.210755e-07 7.996596e-07
000180 00 00 00 00 00 00 00 00 96 15 02 2e c3 b0 31 32
       0.0 0.0 2.957775e-11 1.0342947e-08
000190 84 7e 3e 35 00 00 00 00 00 00 00 00 05 d1 aa 31
       7.096462e-07 0.0 0.0 4.971414e-09
0001a0 85 95 2a 34 dc 33 c9 33 00 00 00 00 00 00 00 00
       1.5886879e-07 9.369225e-08 0.0 0.0
0001b0 89 56 81 31 09 ef 8d 32 76 12 e9 33 00 00 00 00
       3.764232e-09 1.6523261e-08 1.0853266e-07 0.0
0001c0 00 00 00 00 ad f4 56 31 d5 07 21 32 3a 22 83 33
       0.0 3.128018e-09 9.373214e-09 6.1063886e-08
0001d0 00 00 00 00 00 00 00 00 4a 18 55 32 aa 7b 2b 33
       0.0 0.0 1.24037545e-08 3.9926512e-08
0001e0 b9 ee f6 33 00 00 00 00 00 00 00 00 59 c0 5f 30
       1.1498691e-07 0.0 0.0 8.140027e-10
0001f0 e5 2c cc 31 50 ae 73 33 00 00 00 00 00 00 00 00
       5.9422853e-09 5.6736383e-08 0.0 0.0
000200 f2 4e 5c 32 15 c7 0b 33 9b 7c f5 33 00 00 00 00
       1.28236355e-08 3.2544524e-08 1.1431367e-07 0.0
000210 00 00 00 00 43 7d f7 2d 4a bd 9e 31 53 a1 89 33
       0.0 2.8136276e-11 4.619925e-09 6.408904e-08
000220 00 00 00 00 00 00 00 00 ef 3b 42 31 ea bc 85 32
       0.0 0.0 2.8264784e-09 1.5569146e-08
000230 5b 97 8d 34 00 00 00 00 00 00 00 00 6d b1 9f 30
       2.6373422e-07 0.0 0.0 1.16192e-09
000240 d6 21 14 33 7e a6 95 34 00 00 00 00 00 00 00 00
       3.448971e-08 2.7874552e-07 0.0 0.0
000250 b4 c7 ef 31 de 12 a0 32 17 da ff 33 00 00 00 00
       6.978519e-09 1.8635031e-08 1.1914033e-07 0.0
000260 00 00 00 00 d9 1c 86 33 19 79 08 34 fc 0b 9e 34
       0.0 6.2451086e-08 1.2710042e-07 2.9438513e-07
000270 00 00 00 00 00 00 00 00 11 1d 7f 31 c4 f7 7f 32
       0.0 0.0 3.7123906e-09 1.4899289e-08
000280 b0 5f 26 34 00 00 00 00 00 00 00 00 47 62 b0 32
       1.5494766e-07 0.0 0.0 2.0533788e-08
000290 f6 24 98 33 db a2 a0 34 00 00 00 00 00 00 00 00
       7.084775e-08 2.9920815e-07 0.0 0.0
0002a0 bc 53 a1 2d cd 56 3d 32 fa 26 2c 34 00 00 00 00
       1.8340766e-11 1.1020984e-08 1.6032928e-07 0.0
0002b0 00 00 00 00 4d 4c 4f 31 ef f2 12 33 20 d7 cb 34
       0.0 3.0165836e-09 3.421422e-08 3.796822e-07
0002c0 00 00 00 00 00 00 00 00 db 88 8b 31 36 75 58 33
       0.0 0.0 4.060991e-09 5.039802e-08
0002d0 06 e7 dd 34 00 00 00 00 00 00 00 00 4b f7 93 31
       4.133255e-07 0.0 0.0 4.306377e-09
0002e0 b7 cf 86 32 b5 c9 0d 34 00 00 00 00 00 00 00 00
       1.5694111e-08 1.3205029e-07 0.0 0.0
0002f0 ae 48 32 34 03 6a 86 34 39 93 eb 34 00 00 00 00
       1.6603983e-07 2.503658e-07 4.387928e-07 0.0
000300 00 00 00 00 1b 30 43 30 f1 be 29 32 4c f7 84 34
       0.0 7.100895e-10 9.88051e-09 2.4766848e-07
000310 00 00 00 00 00 00 00 00 b0 35 5d 33 73 2a 20 34
       0.0 0.0 5.15044e-08 1.4916604e-07
000320 08 b5 e4 34 00 00 00 00 00 00 00 00 c9 26 ab 2d
       4.2600027e-07 0.0 0.0 1.9457673e-11
000330 a4 04 11 32 8f 33 90 34 00 00 00 00 00 00 00 00
       8.441166e-09 2.6859604e-07 0.0 0.0
000340 97 26 64 31 9b c6 89 33 db b2 9c 36 00 00 00 00
       3.3200303e-09 6.415686e-08 4.669984e-06 0.0
000350 00 00 00 00 1e 7d 20 33 cf 6e 45 35 a9 76 a1 36
       0.0 3.7366696e-08 7.3549467e-07 4.8119878e-06
000360 00 00 00 00 00 00 00 00 54 bc e9 32 51 30 57 34
       0.0 0.0 2.7210412e-08 2.0041013e-07
000370 a2 db f2 35 00 00 00 00 00 00 00 00 6f 64 1b 36
       1.8094327e-06 0.0 0.0 2.315526e-06
000380 28 b7 6f 36 bd 9f a3 36 00 00 00 00 00 00 00 00
       3.5720386e-06 4.8763745e-06 0.0 0.0
000390 af 13 10 32 e6 53 00 34 4c 36 84 36 00 00 00 00
       8.386379e-09 1.1951451e-07 3.9402275e-06 0.0
0003a0 00 00 00 00 49 e2 e7 34 c5 0b ee 35 86 b9 a2 36
       0.0 4.3191747e-07 1.7735807e-06 4.849574e-06
0003b0 00 00 00 00 00 00 00 00 18 c7 a2 2f 51 c5 df 33
       0.0 0.0 2.9609093e-10 1.0420138e-07
0003c0 6b c6 88 36 00 00 00 00 00 00 00 00 11 a5 5b 33
       4.0762147e-06 0.0 0.0 5.1140038e-08
0003d0 f3 fe 72 35 c3 3b 1c 35 00 00 00 00 00 00 00 00
       9.0523025e-07 5.8201493e-07 0.0 0.0
0003e0 7f 4d 0a 31 89 11 9c 33 17 c0 1f 35 00 00 00 00
       2.0125694e-09 7.267506e-08 5.9511643e-07 0.0
0003f0 00 00 00 00 c0 23 0d 31 f6 a8 9b 32 5b ef 9a 34
       0.0 2.0538522e-09 1.812121e-08 2.885889e-07

exp_avg f4 [128]
000000 27 6c b2 37 ee ad 08 39 66 37 68 b8 59 b4 bc b8
       2.1269616e-05 0.00013034765 -5.5364704e-05 -8.998131e-05
000010 6a 68 e7 b8 af 6c 36 b9 57 4f 06 b9 21 2d 59 b9
       -0.00011034387 -0.0001739736 -0.00012808792 -0.00020711544
000020 78 48 34 b8 e5 c0 c5 b8 ce 3a 6b b9 c4 7f e4 38
       -4.2982836e-05 -9.4296214e-05 -0.00022433253 0.000108956854
000030 27 63 48 b9 bf 1b fb b6 c3 01 8c b8 99 28 14 39
       -0.00019110423 -7.483613e-06 -6.676048e-05 0.00014129504
000040 a0 aa 20 b7 02 5a f9 b6 bc 0e cf b8 c0 d5 56 39
       -9.57647e-06 -7.4312566e-06 -9.873274e-05 0.00020488258
000050 e7 bb 25 b9 a9 14 b6 b8 71 93 59 b9 c2 b4 3d 39
       -0.00015805625 -8.6822845e-05 -0.00020749659 0.00018091782
000060 83 4b 80 b9 5a 12 50 b9 72 af f8 38 3f a2 a9 b8
       -0.00024470323 -0.00019843262 0.00011858241 -8.088769e-05
000070 13 b3 a1 b8 43 ae 02 b9 7a b1 fb b6 10 bb bd b8
       -7.7104334e-05 -0.00012462684 -7.501044e-06 -9.0470654e-05
000080 65 88 d5 b7 b4 78 82 b9 5a 65 cc b7 5e 3f d2 37
       -2.5455092e-05 -0.00024885463 -2.436589e-05 2.5063458e-05
000090 0d d0 8a b8 4e 41 c5 38 23 c3 7a b7 02 e4 12 b9
       -6.619105e-05 9.405856e-05 -1.4946595e-05 -0.00014008585
0000a0 96 e2 fb 37 1a 3e 2c b9 14 1c 1a b9 19 8f 3b 37
       3.0027044e-05 -0.00016426333 -0.00014697044 1.1179386e-05
0000b0 02 93 1a 38 d1 cf 8e b9 af 91 67 37 be 76 7f b8
       3.6853373e-05 -0.00027239186 1.3802593e-05 -6.0907325e-05
0000c0 04 74 33 b7 fa 95 2c b9 6e af 38 b6 d7 7d ec 38
       -1.0696243e-05 -0.00016459069 -2.752025e-06 0.000112767964
0000d0 84 c3 90 b8 50 b1 b2 37 bc 9c 0c b9 3a c2 29 b7
       -6.902873e-05 2.1301821e-05 -0.00013409829 -1.0118407e-05
0000e0 10 82 a8 b7 9f 50 c6 38 1b 25 63 b8 cb 95 53 37
       -2.0087726e-05 9.4563926e-05 -5.4155575e-05 1.2611456e-05
0000f0 40 77 b5 b8 23 26 8e 36 33 4a 4e b7 e7 11 b4 39
       -8.6529646e-05 4.2363695e-06 -1.2295833e-05 0.00034345614
000100 8c e0 2b b9 1b 05 a3 39 0f e8 97 38 d3 9a e1 37
       -0.00016391481 0.00031093587 7.2434654e-05 2.6894186e-05
000110 79 4c 00 b8 6d c7 48 b8 c5 07 33 b9 9c 39 3c 38
       -3.05888e-05 -4.7869446e-05 -0.00017073665 4.4876346e-05
000120 a4 84 01 b8 6f 5d 0c b9 37 21 b2 b8 09 74 86 36
       -3.0879528e-05 -0.00013386247 -8.493888e-05 4.0070195e-06
000130 0c 9b ac b7 36 59 6d b9 54 53 84 b9 63 d5 09 39
       -2.0576197e-05 -0.00022635315 -0.00025239086 0.00013144831
000140 a3 e2 1f 38 ca 94 f7 38 c2 19 18 b9 e2 20 9a 37
       3.8119626e-05 0.00011805592 -0.00014505445 1.8373543e-05
000150 f3 d7 26 b9 ad 6a 56 b9 04 79 6e b9 92 37 79 39
       -0.00015911441 -0.0002044837 -0.0002274253 0.00023767192
000160 ce 1d f4 b8 37 85 1f b9 aa 9f cc b8 7a ee ce b8
       -0.00011640378 -0.00015213048 -9.757218e-05 -9.867265e-05
000170 c6 fb 90 b6 bd 3b 22 b9 22 06 6f 37 38 8d 39 b8
       -4.3208447e-06 -0.00015471778 1.4246938e-05 -4.4238957e-05
000180 48 30 0f 39 86 28 21 b9 ed bb 15 39 ac cd ec b8
       0.00013655529 -0.00015369253 0.00014279755 -0.00011291666
000190 9b e8 b0 b9 a7 df c6 b9 fe ca 8b b9 c8 0c cb b8
       -0.0003374264 -0.00037932137 -0.00026663387 -9.682175e-05
0001a0 da 7e 79 b7 9b d8 12 b9 7f 84 4c b9 32 3c cb b9
       -1.48710915e-05 -0.00014004337 -0.00019504315 -0.00038764026
0001b0 9a 3c 87 38 8a d0 87 b9 89 fd 43 38 36 cb 35 b9
       6.4485896e-05 -0.0002590458 4.6727746e-05 -0.00017337207
0001c0 17 b9 99 b8 4e 89 fd b9 76 84 83 b9 25 fe 86 b8
       -7.330084e-05 -0.0004835822 -0.00025084958 -6.436956e-05
0001d0 fb 63 6c b9 1e 17 be b8 74 f7 15 b9 3b ed 9c b8
       -0.0002254396 -9.064212e-05 -0.00014301931 -7.482847e-05
0001e0 77 b8 04 b9 dc e1 32 b9 76 b7 31 b9 43 2b 8c b8
       -0.0001265722 -0.00017059542 -0.0001694838 -6.683778e-05
0001f0 ee 03 5c b8 f0 35 2e b9 59 a1 f8 b8 99 13 12 3a
       -5.2455747e-05 -0.00016614026 -0.00011855615 0.0005572378

exp_avg_sq f4 [128]
000000 c6 cf 29 32 bd a1 4d 36 65 4a 58 35 04 8d f9 33
       9.884337e-09 3.0641525e-06 8.057453e-07 1.1620617e-07
000010 2b e6 a2 34 d8 94 ed 34 26 6b a4 36 c5 0c 20 35
       3.034232e-07 4.4252988e-07 4.9000546e-06 5.9623227e-07
000020 a4 f1 02 36 a6 16 4f 34 52 37 12 37 61 1f ad 35
       1.9512163e-06 1.9286617e-07 8.715158e-06 1.2898637e-06
000030 d7 38 2b 36 92 3f 9a 32 71 c8 d3 34 ab 5c d8 33
       2.551407e-06 1.7956868e-08 3.9447653e-07 1.007514e-07
000040 6e 42 77 34 06 dd e4 32 bd ab cd 34 94 fd 59 35
       2.3027835e-07 2.6643203e-08 3.8309182e-07 8.1207804e-07
000050 7f dc 59 35 24 d7 f3 34 fb 21 f6 35 ef d8 4d 36
       8.1159664e-07 4.5418813e-07 1.8338318e-06 3.0673652e-06
000060 01 c9 0c 35 c6 82 f2 34 0c 38 7c 36 c6 6b 7f 35
       5.2446563e-07 4.5171163e-07 3.758355e-06 9.5151734e-07
000070 e0 86 03 36 c3 da 9a 35 d1 81 68 31 83 6e 66 36
       1.9599029e-06 1.1537562e-06 3.3834235e-09 3.4336997e-06
000080 f8 d5 a6 36 23 f2 eb 35 fd 20 17 33 21 15 2b 35
       4.9720948e-06 1.7579335e-06 3.518743e-08 6.373321e-07
000090 54 18 db 34 00 e2 ec 34 e0 b4 97 35 0d 1e a0 34
       4.080963e-07 4.4122862e-07 1.1303018e-06 2.9824187e-07
0000a0 9f 5c ed 32 a2 ee a8 35 90 b1 65 34 0a 04 69 31
       2.763255e-08 1.2586427e-06 2.1391884e-07 3.3908258e-09
0000b0 36 12 da 32 64 65 9f 34 b3 72 2f 34 42 9c 4c 34
       2.5386822e-08 2.968983e-07 1.6339872e-07 1.9055827e-07
0000c0 12 25 b5 33 66 ac c6 36 be 55 c4 34 30 2c b7 35
       8.435212e-08 5.9209297e-06 3.657023e-07 1.3647423e-06
0000d0 95 b8 32 35 7a 98 f6 35 e0 5f d3 35 d7 79 e8 33
       6.657877e-07 1.8372805e-06 1.5748628e-06 1.08255044e-07
0000e0 11 82 89 36 78 2c 39 35 41 b3 15 34 20 9f 4b 36
       4.09806e-06 6.898258e-07 1.3941919e-07 3.034198e-06
0000f0 d4 9b d2 36 a8 af 40 32 7e 9a a5 32 6e c7 17 35
       6.2766285e-06 1.12158105e-08 1.9278783e-08 5.654209e-07
000100 21 51 24 34 b8 a3 21 34 f9 d9 fc 33 38 3e 68 33
       1.5303205e-07 1.5053854e-07 1.17743134e-07 5.4073297e-08
000110 88 8d 47 32 81 5a 02 34 03 7c 96 34 de bf 4e 33
       1.1615505e-08 1.2140119e-07 2.8029908e-07 4.8137615e-08
000120 7c c8 8c 36 9b 9e cf 33 b2 a2 91 33 b6 1e 01 35
       4.1956646e-06 9.668039e-08 6.781683e-08 4.8100935e-07
000130 9a d1 6d 35 e1 e2 65 36 ec b8 44 36 4c 6e 39 35
       8.859439e-07 3.425572e-06 2.9313915e-06 6.9078374e-07
000140 40 78 2a 33 2b dc 13 35 1a 56 9e 35 00 38 a9 34
       3.9690576e-08 5.5082154e-07 1.1796976e-06 3.1519448e-07
000150 24 4d aa 35 44 cb fb 33 dc 88 a3 34 98 6d 16 35
       1.2688438e-06 1.1725072e-07 3.0460694e-07 5.6038834e-07
000160 48 1b 39 35 fd 0f 08 35 0a 02 c4 33 51 81 2a 34
       6.895757e-07 5.0687214e-07 9.127332e-08 1.5879529e-07
000170 da 77 62 35 b6 ab fe 33 c5 6c 98 35 52 3c a1 34
       8.436597e-07 1.1859031e-07 1.1356539e-06 3.0032476e-07
000180 34 80 77 34 76 64 b7 35 fb 62 9a 35 a8 a2 c8 35
       2.3050308e-07 1.36638e-06 1.1502701e-06 1.49485e-06
000190 52 78 07 37 6d 8a f9 34 79 98 1a 35 7e 66 65 36
       8.074641e-06 4.6480582e-07 5.759135e-07 3.4183317e-06
0001a0 3e fb ac 34 db e3 f1 33 bc 1d cd 34 32 32 8a 36
       3.22203e-07 1.1263884e-07 3.820586e-07 4.118564e-06
0001b0 e5 3f fd 33 8c 41 89 36 93 49 6c 35 d6 34 3a 36
       1.1792853e-07 4.090549e-06 8.8023916e-07 2.7746914e-06
0001c0 f2 1e 0c 34 9b 45 1c 36 c7 6b e4 36 54 74 b2 36
       1.3049774e-07 2.3286327e-06 6.8074764e-06 5.3183558e-06
0001d0 ee d4 d1 34 81 80 a9 34 71 54 9e 36 2b ed 80 36
       3.908421e-07 3.1572202e-07 4.718597e-06 3.8423073e-06
0001e0 0b 82 c8 33 b4 13 07 35 b8 5c 2b 34 1e 8d 0d 33
       9.3368804e-08 5.032009e-07 1.5959347e-07 3.2957466e-08
0001f0 df 17 7b 32 a3 a0 ab 35 44 92 ae 34 76 fe a1 35
       1.46155505e-08 1.2787244e-06 3.2516448e-07 1.2069493e-06
