results/TrainPeoplePuddleRandomHoles_NewPuddleBehaviour_ReplacedHoles_10Dicembre/MoveToGoal/MoveToGoal-35030.pt (torch, 637175 bytes, 40 tensors)

discrete_act_size_vector f4 [1, 2]
000000 00 00 40 40 00 00 40 40
       3.0 3.0

network_body._body_endoder.seq_layers.0.weight f4 [128, 68]
000000 fe 43 10 3e 2e 4b 6d 3e 2a 29 9b bd e4 d7 11 3d
       0.14088437 0.2317321 -0.07576211 0.03560628
000010 cd b7 4d be 2b 8a 37 bd 41 28 63 3d ca d7 26 be
       -0.20089646 -0.0448095 0.05545831 -0.16293254
000020 9c df c6 bd 1a 6a 7c bc 89 c2 0c 39 c2 bb 08 be
       -0.09710619 -0.015406156 0.0001342391 -0.13352874
000030 49 ef ae bd 05 90 b2 bb a6 f4 f0 3d 82 a3 07 bd
       -0.08541734 -0.0054492974 0.11765413 -0.033114918
000040 2d 5b 36 bc 40 7b d4 bc 89 ae 3a be d2 a4 36 3e
       -0.011130136 -0.025937676 -0.18230642 0.17836311
000050 5d 17 20 3d 25 de 1a 3e 76 71 5a bb 6c 20 2b be
       0.03908478 0.15123804 -0.0033331788 -0.16711587
000060 dc 19 e6 bd 5d 62 24 be 31 22 5e 3e ef 7e 0a bd
       -0.11235401 -0.16053148 0.2169273 -0.03381246
000070 0b 50 1a 3d 1e 23 a0 bd e7 8c 78 3b 37 78 e5 bc
       0.03767399 -0.07819198 0.0037925781 -0.028011424
000080 36 02 50 bc 7c 9e d6 bd fb 8c 92 be db 0a cb 3d
       -0.01269584 -0.10479447 -0.28623185 0.0991418
000090 37 af ac bd f5 4d 86 be 23 d5 18 3c f4 2b 17 3c
       -0.08431857 -0.26231351 0.0093281595 0.009226788
0000a0 a2 71 52 bd ab 02 e3 3c f1 09 e0 bd e4 2d b0 3e
       -0.0513779 0.027711233 -0.10939396 0.34410012
0000b0 40 e1 56 bd 4d c6 36 3e 2b 24 b8 3d d1 b8 41 bd
       -0.05246091 0.17849083 0.089912735 -0.047295395
0000c0 c5 00 48 3d 5c c6 10 bd 2f 62 20 3d 91 ae 85 be
       0.04882886 -0.03534542 0.039156135 -0.26109746
0000d0 42 f6 31 3d c8 b3 0f 3e bc 5f 83 3d 85 0e 1a 3e
       0.04344774 0.14033425 0.06414744 0.15044601
0000e0 f9 96 8e 3e 41 2f 05 3e e6 6f c7 3d 32 b0 00 be
       0.27849558 0.13006307 0.0973814 -0.12567213
0000f0 93 34 1b 3d e8 4c 1a be 05 a4 62 bd cb 03 86 be
       0.037891936 -0.150684 -0.055332202 -0.2617477
000100 68 e9 2c 3e c5 66 93 bc e8 87 f8 bd bf cd 0c be
       0.16885912 -0.01799334 -0.12135297 -0.13750361
000110 79 78 95 bd ce 8c de 3d 00 7c 3e 3e 28 cb 4e bc
       -0.07298369 0.108667 0.1860199 -0.012621678
000120 77 ec 49 bd 89 c0 9d bc 6c 5f b6 bd df a2 c7 3d
       -0.049297776 -0.019256847 -0.08904919 0.09747862
000130 1e b6 ac bd 58 29 05 3e 13 f8 75 3e db e3 d6 3d
       -0.084331736 0.13004053 0.24020414 0.10492679
000140 2e 26 30 3e b0 77 2e 3d 75 9b 84 bd b9 39 26 3e
       0.17202064 0.04259461 -0.064749636 0.16232957
000150 42 7f d4 3d 5a 8c 74 bd 11 ff 95 3d 9f a5 9b 3b
       0.10375835 -0.059704162 0.07324041 0.004749968
000160 14 37 36 bd 73 b0 21 3e 4f 55 42 bc 05 9f 55 3e
       -0.04448612 0.15789966 -0.0118611595 0.20861442
000170 03 4b 8b bd 61 b0 34 bd 27 5b 05 be a4 a9 14 3e
       -0.06801417 -0.04411352 -0.13023053 0.14517838
000180 73 15 31 bd a4 ef bd bd 03 64 c0 3d 68 86 4a be
       -0.043233346 -0.092742234 0.09394076 -0.19777834
000190 c8 d9 d2 3c 0a c7 1a 3e d0 fc e8 bd 8b 8a 8a be
       0.025738612 0.1511499 -0.11376345 -0.27058825
0001a0 f2 fc 59 3d a5 00 14 bd 5b 6f 01 3d c0 b3 1e be
       0.053219743 -0.036133427 0.031600337 -0.15498257
0001b0 1b 27 7f 3d f1 bb d2 3c a5 c7 3c 3e ed 26 10 3a
       0.062293153 0.025724383 0.18435533 0.00054989645
0001c0 08 e0 0a 3e b2 de 16 3d bd 13 ca bd ec f8 a4 bd
       0.13562024 0.036833473 -0.09867046 -0.080552906
0001d0 0e 13 c3 3d 1d c4 2a 3d ff 56 e0 3d ab 9e 3c bc
       0.09525119 0.041690934 0.10954093 -0.011512439
0001e0 ff 90 f9 3d e6 8d da 3c ca 47 28 be ed 25 80 3d
       0.12185859 0.02667899 -0.16433635 0.06257234
0001f0 73 78 5b be 95 6a 70 3c 36 09 c4 3b db 46 c4 3d
       -0.21432666 0.014673849 0.0059825433 0.09583827
000200 df c3 3b bd 88 94 b4 bc b5 af b3 3d 97 20 f3 bd
       -0.045841094 -0.022043481 0.08773748 -0.118714504
000210 97 bf 6d 3d ae b0 9f 3e a1 85 0a 3e db 0a c9 3d
       0.058044042 0.31189483 0.13527538 0.09816524
000220 fd 8b b6 3d ca 9d 91 bd 42 69 53 bb bc 08 2c 3c
       0.089134194 -0.07110174 -0.0032258783 0.010500129
000230 cf 1f 28 bd a3 2d f8 3d 95 b3 0a 3e ac dc 52 3e
       -0.04104596 0.121180795 0.13545068 0.20591992
000240 1d eb 81 be e5 3e 08 3e 90 f9 82 3e b5 06 fd bc
       -0.2537469 0.13305242 0.25581026 -0.030886987
000250 ee 15 e7 bd 40 e8 08 be 3c ae dc bd 96 46 65 3c
       -0.1128348 -0.13369846 -0.1077542 0.01399388
000260 a3 57 ba bd da 79 7a 3d c7 cb 07 3e 92 7b 41 be
       -0.09098747 0.061151363 0.13261329 -0.18894795
000270 e2 10 ec bd 20 ad 29 be 7b 14 bb 3d 46 9a 44 bd
       -0.11526658 -0.16569948 0.09134766 -0.04799869
000280 ac 49 38 bd 3e 20 88 bd 3f 4e 68 bd 37 8f 8a 3b
       -0.044992134 -0.06646775 -0.056715246 0.0042284983
000290 b6 84 9d 3d 44 97 bb 3c 0e 5e 83 3d c4 43 74 be
       0.07691328 0.022899278 0.06414424 -0.23853976
0002a0 e9 06 cb bd f3 9d ba 3c b4 79 db bd 04 80 b8 3d
       -0.099134274 0.022780394 -0.107165724 0.09008792
0002b0 ac c6 f3 bd 40 f1 9d bd bc 62 c4 bc 6e 56 1f 3d
       -0.11903128 -0.077120304 -0.023972861 0.038900785
0002c0 39 20 86 3d e5 38 01 3e 5c e0 32 bd 3d a6 db bc
       0.06549115 0.1261936 -0.043670997 -0.026812667
0002d0 52 4a 19 bd ed 78 09 3e bc be ae 3d 35 2c 89 bd
       -0.037424393 0.13425036 0.085324734 -0.06697885
0002e0 fc 0c 3c bc ac 4f 9a 3c 34 ad 2c be c5 01 02 bd
       -0.011477705 0.018836819 -0.16862947 -0.03173997
0002f0 4f 05 80 bd dc 91 ea 3c 1b 55 1e 3d f9 ac 08 bd
       -0.062510125 0.028634004 0.03865538 -0.033368085
000300 ba b2 a9 3d a2 27 5b 3e 5d 3e ff bd 9d 5e 8d 3b
       0.082860425 0.21401837 -0.12463067 0.0043142573
000310 c9 6b fc bd 44 02 4c 3d b9 3e 7a 3d 84 25 79 be
       -0.12325246 0.04980685 0.061094973 -0.24330717
000320 18 4f 23 bd 26 b4 c3 3d b2 79 56 3d e7 e2 37 3e
       -0.03987035 0.09555845 0.05236215 0.1795765
000330 57 18 2a bd 75 5f e5 bd 4e 05 18 3e 26 ab 59 bd
       -0.04152712 -0.111998476 0.14845774 -0.053141735
000340 be 03 ee 3d e9 e7 dc 3c af d5 0f be 8b 94 0f be
       0.116218075 0.026966052 -0.14046358 -0.14021508
000350 2c 05 06 3e 73 a9 cd bd 6b 67 6b bd e1 5d 07 be
       0.1308791 -0.100420855 -0.057471674 -0.13219406
000360 8a 07 f2 3d bd 86 52 3c c4 61 0c be e2 82 24 bb
       0.11817844 0.012849507 -0.1370917 -0.0025102426
000370 7e 1a e1 3d c7 d4 ce bc ef cb 60 be 0f a3 08 be
       0.10991381 -0.025247945 -0.21952794 -0.13343452
000380 85 69 34 be 2f 0d 08 3c ac 92 f4 3b 8f 68 75 bc
       -0.17618378 0.008303924 0.0074637737 -0.014978542
000390 f3 97 15 3d b9 f5 a4 bd 6e 11 4f 3d 5a 37 11 bd
       0.036521863 -0.080546804 0.05055373 -0.035453178
0003a0 65 f2 bf bc 55 e4 8c 3e 46 f5 49 3c dd 09 9a 3d
       -0.023431012 0.27517954 0.012326544 0.075214125
0003b0 17 66 1e 3e 77 56 95 3d fe 11 59 be c9 08 17 3e
       0.15468632 0.072918825 -0.2119827 0.14749445
0003c0 cd a2 ef 3d 8d 75 eb bd e6 b1 95 3d c5 27 b1 bd
       0.11700974 -0.114970304 0.07309322 -0.086501636
0003d0 d3 23 b6 bd 7d 32 e0 3d f0 7a 6f 3d fb fe 90 3d
       -0.08893552 0.1094713 0.05846685 0.07079884
0003e0 86 50 91 3c 6d d3 00 3b 0e f8 e4 3c 38 31 6b 3e
       0.017738592 0.001965727 0.027950313 0.22967994
0003f0 2d 0e a7 bd bb 5c 06 be 94 1e 04 3c 5d 32 f7 3d
       -0.08157001 -0.13121311 0.008063931 0.12070153

network_body._body_endoder.seq_layers.0.bias f4 [128]
000000 2a a3 d9 3b e5 f0 73 bb 8f 38 f0 3b db c8 4b 3b
       0.006641765 -0.0037222442 0.007330961 0.003109506
000010 e7 59 d6 3b df 72 f4 3b 7d 42 01 bc fe 7d af bb
       0.006541479 0.0074599828 -0.007889387 -0.0053555956
000020 d7 ed d4 3b 77 f1 e4 37 70 47 fc 3b 08 ea a2 3c
       0.0064980793 2.7292159e-05 0.0076989457 0.019886985
000030 1d 2a 7e bb c4 eb 81 3c 38 47 b8 bb e6 9e a4 3a
       -0.0038782426 0.015859492 -0.0056237243 0.0012559562
000040 d0 dc cf 3a 35 68 5e 3b 72 bb 11 3b 1d b3 af 3b
       0.0015858654 0.0033936624 0.002223697 0.005361928
000050 c2 96 d6 3b 30 68 07 39 04 10 02 bc aa cc 85 3a
       0.0065487335 0.00012913416 -0.007938389 0.0010208089
000060 6f e6 2a bb 04 18 48 ba f0 b3 d4 ba 56 a2 c3 3a
       -0.002607729 -0.0007632973 -0.0016227942 0.0014925699
000070 ba 7c 8d 3b 1e 34 ec 3b c7 51 b2 39 f8 c1 67 b9
       0.004317847 0.0072083613 0.00034011735 -0.00022102136
000080 ee 5b 6a 3a 5d b3 d9 3b de a5 19 3b 2e 62 9d ba
       0.000894009 0.006643696 0.0023444812 -0.0012007409
000090 61 53 3d 3b bc 51 cd 3b ff 9c 1d 39 f0 df 64 3b
       0.002888881 0.006265847 0.00015031172 0.0034923516
0000a0 3e c9 d7 bb 8b d8 29 bb 38 01 5b 39 b6 90 0f 3c
       -0.0065852692 -0.0025916423 0.00020885922 0.008762529
0000b0 02 af 98 3a 5a 02 28 3b f8 94 0a 3c 92 27 40 3c
       0.0011648836 0.0025636167 0.0084583685 0.011728184
0000c0 b3 65 65 3b cc 73 37 3b 6a ed 15 3c 0b 70 4a 3c
       0.0035003244 0.0027992604 0.009150842 0.012355815
0000d0 e1 06 49 3c 3a c1 4a bb 2d 4f 2d bb 03 6d dc 3b
       0.012269706 -0.0030937926 -0.0026444898 0.0067268624
0000e0 fc 4b 41 3c 9f 11 e7 ba bd 1f 32 3b 9f 2f eb 3b
       0.011797901 -0.0017629153 0.0027179562 0.0071773077
0000f0 dc 85 fc bb 79 09 8c bb e8 55 8e 3b 50 51 d0 38
       -0.007706387 -0.00427359 0.004343737 9.9333585e-05
000100 72 78 66 3a 72 50 c7 3b 64 36 4f 3c 84 1f 1c 3c
       0.00087917515 0.006082588 0.012647245 0.009528998
000110 68 31 18 bb ae 76 19 39 54 7d 37 3c 86 8b 92 3a
       -0.0023222808 0.00014635429 0.011199314 0.0011180497
000120 f6 fb a1 3b 48 0b 45 3b 12 3e 01 3c 9e 0b ba 3b
       0.004943366 0.0030066539 0.007888334 0.0056776544
000130 46 ae 45 3c 02 09 38 bb e8 8c 2d 3c 5b a4 a2 bb
       0.012065476 -0.002808154 0.010592677 -0.0049634404
000140 eb 8f e7 3a 3f 81 5b bb 8a 01 17 3c 00 c7 53 ba
       0.0017666792 -0.0033493785 0.009216676 -0.00080786645
000150 5d d4 0d 3b e6 29 bc 3b 3f 84 22 3c 86 25 a1 b9
       0.002164147 0.0057422994 0.009919225 -0.0003073627
000160 87 10 db 3b a3 c0 e7 3b 3b c6 1d bb 13 cf 1f 3c
       0.00668532 0.0070725246 -0.0024074453 0.00975396
000170 09 94 d4 3a 1b 10 39 bc 2c 83 f6 3b 59 30 7f 3c
       0.0016218434 -0.011295344 0.007522961 0.015575492
000180 40 54 46 3c 9d b5 a3 3a 72 7b e2 bb 97 e8 7b bb
       0.012105048 0.0012490038 -0.0069116885 -0.0038438195
000190 83 d0 81 b9 fa c9 85 3b 84 e0 58 ba 3e 43 91 3b
       -0.0002476015 0.0040829154 -0.00082732015 0.0044330647
0001a0 de b6 08 3c af b5 fc bb 43 4e 25 3b e4 36 51 bb
       0.00834438 -0.007712088 0.002522365 -0.0031923587
0001b0 8f 59 48 3b bf af 79 3b 3e cc 40 bb 29 79 0a bb
       0.003057096 0.0038099138 -0.0029418613 -0.0021129346
0001c0 7e 02 7b 3a be 03 40 3c fd b6 6f 3b 3b fe c9 3b
       0.00095752615 0.011719642 0.0036577575 0.00616434
0001d0 e6 32 40 39 59 f1 33 39 17 7b 94 3b 1a cc 43 3b
       0.00018329508 0.00017160679 0.004531275 0.0029876293
0001e0 49 69 e9 3b 24 2f af ba 05 1a 2b 3c ab c1 88 b9
       0.0071231467 -0.001336549 0.010443215 -0.00026084235
0001f0 9a 88 dd bb a5 7a ad bb 9b 67 4b 3b 7a a0 40 bb
       -0.006760669 -0.0052941614 0.0031037095 -0.0029392526

network_body._body_endoder.seq_layers.2.weight f4 [128, 128]
000000 2d f2 4e bd 55 ff 84 3d 5c af 29 3e 3b b2 1e be
       -0.050523926 0.06494013 0.165708 -0.15497677
000010 9c a8 2d 3e ea 91 ba bc 91 ce 69 3c 1a a8 d9 3d
       0.1695885 -0.022774655 0.014270441 0.10627766
000020 53 52 e4 bc c6 be 52 bd 1a 49 21 bd 34 69 02 3e
       -0.027871286 -0.051451467 -0.039376356 0.12735444
000030 ee 9a da 3c a6 4b 96 3d 53 a8 ce bb d6 5e bf bd
       0.026685204 0.073386475 -0.006306687 -0.093442604
000040 68 af 02 3e a9 b7 f6 3d 9d 07 a7 3b e6 b1 10 bc
       0.12762225 0.12046749 0.005097343 -0.008831477
000050 5f 33 f7 bd b9 23 d5 bc 1b 31 75 3d 51 f1 33 3e
       -0.12070345 -0.02601801 0.059861284 0.17572524
000060 5b cd cd ba 3c d2 9a bd 41 4f 15 3d 96 3c 92 bd
       -0.001570146 -0.0755963 0.036452536 -0.07140462
000070 04 a9 75 bd 95 26 6d bd 1b bf b9 3a 7c 0b 6f 3d
       -0.05997564 -0.057898123 0.0014171334 0.05836056
000080 ff c2 39 be 4c 1c b1 3d 55 bb 14 bc 26 5b c3 bd
       -0.18140791 0.08647975 -0.009077867 -0.095388696
000090 a2 3f b1 3c d6 82 e5 bd 7d 41 a2 3d a8 8a 2a 3d
       0.021636788 -0.112065956 0.07922647 0.04163614
0000a0 5e d5 5c 3d 1d 5e d6 bc 91 79 e4 bd 2b 0d 27 3d
       0.05391442 -0.026167924 -0.111559995 0.040784042
0000b0 a8 83 10 3e ef 45 39 bd 1a 16 be 3d f5 09 b1 bb
       0.14112723 -0.04523271 0.09281559 -0.0054027983
0000c0 f4 65 ab 3d 39 49 ba bb 63 5b be 3d 41 95 f0 bc
       0.083690554 -0.0056849984 0.092947744 -0.029368045
0000d0 57 c2 cd bd be 65 17 3c 55 95 d5 bc d0 ee 6c bd
       -0.10046833 0.009240566 -0.026072184 -0.057844937
0000e0 55 00 e8 3c 0b d1 44 be 87 e2 87 3c 70 6e d6 3c
       0.02832047 -0.19220369 0.016587509 0.026175708
0000f0 29 c3 0e 3b b4 44 0f bd 95 1e 09 bd 97 cd f1 3d
       0.0021783805 -0.03497763 -0.03347643 0.11806791
000100 e5 3e 88 3d 7a f0 0a 3d 38 b1 88 3e 88 e4 07 bd
       0.06652621 0.033920743 0.26697707 -0.03317693
000110 ba a6 02 be 3a 44 a1 3c 32 a9 b5 bc 3c 93 75 3d
       -0.12758914 0.019685853 -0.022175405 0.059954867
000120 82 84 b8 3d 6d c1 aa 3d d8 99 82 bd 72 7a 06 3d
       0.09009649 0.08337674 -0.063769996 0.032831617
000130 55 ae 78 3c e5 77 2e be 7c 46 47 3d 3a 9c 78 3d
       0.015178283 -0.17037924 0.048651204 0.060695864
000140 dc e4 93 3d 33 0b 0c 3e 99 42 a2 bc 9d bb cc bd
       0.07221386 0.13676147 -0.019807147 -0.09996722
000150 97 a8 7d bc d3 b6 45 be 46 9a 2e be 4b a7 2d ba
       -0.0154820895 -0.19308023 -0.17051038 -0.0006624355
000160 dd 45 c2 3d 4c ff 14 be 98 0d 8d bc 3f b1 99 3d
       0.094859816 -0.14550513 -0.017218396 0.0750451
000170 ce 4d 84 be 75 2b 9f 3d cf ec 5b 3e 15 d4 d1 bd
       -0.2584061 0.07771961 0.21477054 -0.102455296
000180 c0 4f 98 bd d2 36 60 3d 10 c6 96 bc 16 43 ff bd
       -0.07437086 0.05473978 -0.01840499 -0.124639675
000190 3f ea 7d 3d c6 13 25 3d 1e 98 d1 3d f4 dd 26 bd
       0.061990973 0.04030206 0.10234092 -0.040739015
0001a0 0d 15 a4 bd 22 56 85 3d 8e 49 09 3e 7d 13 48 3e
       -0.080118276 0.06510569 0.13406965 0.19538684
0001b0 a1 f4 0d bd 52 41 2d 3d b8 77 6a bc 44 0b 01 be
       -0.034657124 0.042298622 -0.01431077 -0.12601954
0001c0 f3 5e 8e 3c 51 5a c1 3c 36 f5 e5 3d 2a cc a9 bd
       0.01737926 0.023602637 0.11228411 -0.08290894
0001d0 ea a7 2c 3d 29 c9 bc bd fe c4 c3 3d 78 4f 16 3e
       0.042152323 -0.09218056 0.09559058 0.14678752
0001e0 58 f1 06 be 6e 36 ca bc 4f 1f 17 3d cd b5 21 bb
       -0.13178003 -0.024684157 0.036895093 -0.0024675012
0001f0 75 bb d6 3d c0 e4 46 3d 22 49 ea 3d a3 1c d5 3d
       0.10484973 0.048557997 0.1143973 0.10405853
000200 98 c2 7c 3d e0 2b c2 3c 0a 68 25 3b 98 6e 49 3d
       0.061709017 0.023702562 0.0025239014 0.049177736
000210 33 8e 28 3e a1 20 46 3d 7d 11 a0 3c 0f 86 49 bc
       0.16460495 0.04837096 0.019539589 -0.0123000285
000220 17 be d9 3d 21 f3 98 3d 1c c8 f5 3d 55 09 4c be
       0.1063196 0.07468248 0.120010585 -0.19925435
000230 8d 98 f5 3d 4b e4 1b bd d6 1a 0b 3d 6f 9c c2 bc
       0.119919874 -0.038059514 0.03396114 -0.023756234
000240 99 64 b6 bc 5b 78 e8 3d d3 cf 5e bd 80 45 4e bd
       -0.022264766 0.11351081 -0.054397415 -0.05035925
000250 d1 4c 24 bd 7f 7e 87 bd c7 16 c4 3d c6 79 a7 bd
       -0.04011232 -0.06615924 0.09574657 -0.08177523
000260 c8 b1 d8 bb dc c9 ca 3c 09 6d ac 3d 5f 25 3c bd
       -0.00661299 0.024754457 0.08419234 -0.045934077
000270 08 05 46 be 45 c7 ef 3c 08 2b 8b 3c 78 2f 59 bd
       -0.19337857 0.029269824 0.016988292 -0.053023785
000280 b5 c8 a0 3c 38 08 40 bd 1f 0f 7e 3d 39 b8 5c 3d
       0.019626955 -0.046882838 0.06202614 0.053886626
000290 73 8c 98 bd 75 22 c5 3c 18 4a c8 3c fa 9a 96 bd
       -0.074486636 0.024064282 0.024449393 -0.07353778
0002a0 ae 4b 02 3d fd 44 80 bd 11 fd 47 bc 8d 3f 43 bd
       0.031810455 -0.062631585 -0.012206332 -0.04766803
0002b0 53 2e 95 bd 5a e2 0d be 84 9f a0 3d 55 a1 89 bd
       -0.07284226 -0.13855878 0.07842925 -0.06720225
0002c0 a8 7b bf 3d d1 d3 f9 3d 8d ab d0 3d 56 e9 a0 3d
       0.093497574 0.12198604 0.10188971 0.07857005
0002d0 47 9d 14 3e 6f 9d 2f 3d df ae a7 3c 0b 5c 2c 3d
       0.14513122 0.04287475 0.020469127 0.042079967
0002e0 fc 52 a1 3c 23 78 26 bc 5f 0a f1 bd f7 18 f3 3d
       0.01969289 -0.010160479 -0.11769556 0.11869996
0002f0 de ae 29 bc 80 c6 f9 3c f0 75 f8 3d 8c ea ee 3d
       -0.010356633 0.03049016 0.1213187 0.1166583
000300 e7 bb ec 3c 9b 91 46 3d d7 8b 7c bc 50 3a 4b 3d
       0.028898193 0.048478704 -0.0154142 0.049616158
000310 e2 04 7e 3e 3c f8 08 3d 0a d5 b0 bd ba bb 8d bc
       0.2480655 0.03343986 -0.08634384 -0.017301429
000320 54 98 d9 3d b7 b1 48 3d 08 06 ea 3d 47 64 54 bd
       0.106247574 0.048997607 0.114269316 -0.051853444
000330 0d ee 2c 3d 04 de 9d bd 1f 48 a5 3c d8 4c 80 bc
       0.04221921 -0.07708362 0.020175992 -0.015661642
000340 e0 3a 9e bd d7 99 bb bc f2 6f 24 3d dc d9 bc 3c
       -0.07726073 -0.022900505 0.040145822 0.023053102
000350 96 22 c6 3c f8 2a ef bc 8a 4b 48 bd 1f a4 c5 bb
       0.024186414 -0.029195294 -0.048900165 -0.0060315276
000360 d6 35 bb 3d 61 c0 55 bd 08 84 c3 3c a9 9c da 3d
       0.09141128 -0.05218542 0.023866668 0.10674412
000370 d2 ab 50 bd 23 09 67 bc 2b d8 19 3a eb 74 cb 3d
       -0.05094511 -0.014101299 0.00058686984 0.0993441
000380 2b d8 27 bc b5 a9 07 3e 35 ac dd bc 77 2d 0f bd
       -0.01024441 0.13248332 -0.027059654 -0.034955468
000390 62 aa 89 3d d1 88 88 bb da fd e1 3b 56 7d a9 bd
       0.06721951 -0.0041667004 0.0068967165 -0.08275859
0003a0 f4 a1 ec bc 03 7c 9e bd 9a 75 5c 3d b2 26 17 be
       -0.028885819 -0.07738497 0.05382309 -0.14760855
0003b0 12 38 ca 3d b2 ec 1b bc 73 6b 19 3d 14 36 fa bd
       0.09873976 -0.009516882 0.037455987 -0.12217346
0003c0 d8 9b fb 3d b4 3d a0 bd e5 96 3a 3e e0 df 93 bd
       0.12285584 -0.07824269 0.18221624 -0.07220435
0003d0 1e c8 e7 3d a4 cd b8 bd 0f fd 88 3d ba e7 5e 3c
       0.11317466 -0.09023598 0.06688892 0.013605053
0003e0 16 0e 48 be b2 c9 d7 3d 75 00 40 3d 7c 43 07 be
       -0.19536623 0.10536517 0.046875436 -0.13209337
0003f0 4d 35 0d 3c 57 68 d1 bc 57 e2 b4 3d 87 86 26 3d
       0.008618665 -0.025562448 0.088322334 0.04065564

network_body._body_endoder.seq_layers.2.bias f4 [128]
000000 23 fb 83 3a 5c a9 10 3b ad 36 dc 39 6f 13 31 bb
       0.0010069351 0.0022073602 0.00042002407 -0.002701964
000010 1f 2e b7 bb d7 df e1 3b aa 93 d7 3a 2e 31 87 3a
       -0.005590215 0.006893139 0.0016447206 0.0010314339
000020 3e 32 1b 3b f1 48 e1 ba a7 a0 10 3b 0f d9 8d ba
       0.002368107 -0.0017187876 0.0022068413 -0.0010822135
000030 df 2e ed 3b ce 6f f4 3a b4 ba 53 ba bd 0d 7a 3c
       0.0072382535 0.0018649043 -0.0008076832 0.0152620645
000040 fe bf e7 bb 0a a7 07 3c e6 53 ef ba 99 3d 71 3b
       -0.007072448 0.008279571 -0.0018259257 0.0036810397
000050 84 b7 e4 3b 2b db 69 3b 41 9d ec b9 60 7a 35 3b
       0.0069798846 0.0035683613 -0.0004513059 0.002769135
000060 7e b2 5c bb 78 f1 f6 3b fe ea 2d 3b c2 54 b2 39
       -0.0033675726 0.0075361095 0.0026537771 0.00034013955
000070 25 ea 1a 3b 65 0d 08 3b c5 a5 79 3a 29 61 52 3c
       0.0023638096 0.0020759937 0.0009523298 0.012840548
000080 71 76 f3 3a 84 9e 0a ba 94 e7 a4 3b ae c0 b1 3b
       0.0018574727 -0.0005287903 0.005032489 0.0054245805
000090 12 51 8d 3b 4d 0a c2 3b a5 87 7c bb f1 6b 89 39
       0.004312643 0.005921638 -0.0038533 0.000262111
0000a0 c6 60 8a 3b d9 de 8c 3a 82 20 2e 3b d5 2a b7 3a
       0.004222962 0.0010747566 0.002656967 0.0013974557
0000b0 6c b6 f3 ba e1 3d 00 3b 2d b0 d2 3b 97 71 72 3b
       -0.0018593795 0.0019568133 0.006429693 0.0036993974
0000c0 e1 13 38 bb c4 c0 0f 3c b1 3e 20 3b df ad fa 3a
       -0.002808802 0.008773986 0.002445143 0.0019125304
0000d0 30 e4 2e 3c eb 9e 1a 3c 7c 23 cf 3a 16 d1 e8 3b
       0.010674521 0.009437303 0.0015803422 0.007105003
0000e0 a5 9d 8a 3b d4 84 00 3c 53 93 38 3b ff a7 a3 3b
       0.0042302185 0.007844169 0.0028163984 0.004994392
0000f0 56 a0 a3 3b 97 f0 0e 3c bb f9 f6 3a 82 3c df bb
       0.004993479 0.008724353 0.0018842736 -0.006812633
000100 d1 0c 8d 3b 1a 84 1d 3b fd 7f ba 3b c7 e5 69 b9
       0.0043045064 0.0024035037 0.005691527 -0.0002230621
000110 83 74 84 bb 9b d6 8f 3a 97 ae 82 37 7f e5 6e bb
       -0.0040422096 0.0010973992 1.5578507e-05 -0.0036452708
000120 da 45 53 3b d5 b3 17 3b e4 95 b5 3b 11 97 34 bb
       0.003223768 0.002314796 0.00554155 -0.0027555863
000130 c5 c1 1a 3b 8f bf de bb 32 82 af 3b 97 38 ab 3b
       0.002361403 -0.006797738 0.0053560967 0.005225252
000140 1b e9 01 3c 1c 5c 4d bb 20 39 79 bb 02 c6 a6 3a
       0.007929112 -0.003133542 -0.0038028434 0.0012723806
000150 3a 44 6e 3b ca f0 22 3b 61 14 61 bb df d2 02 3b
       0.0036356584 0.002486276 -0.0034344422 0.0019962115
000160 4e 1f aa 3b 21 2f 06 3c d7 9e f9 3b 56 05 58 3b
       0.00519172 0.008189947 0.007617812 0.0032962165
000170 44 1c 78 3b f4 02 a0 3a 73 48 02 3b 3c de 12 3c
       0.0037858645 0.0012207911 0.001987961 0.008964118
000180 0f 78 ba 37 c6 76 81 3b e6 c0 45 3b e7 61 09 bb
       2.2228834e-05 0.0039509265 0.003017479 -0.0020962895
000190 3b 6d 92 3b 1a 55 f4 3b 9c 45 aa 3b 30 c9 d6 bb
       0.0044685877 0.007456434 0.0051962864 -0.006554745
0001a0 c2 d2 5a 3b a5 f6 05 bb 0b c4 ed ba bb c0 91 bb
       0.0033389782 -0.00204412 -0.001814009 -0.004448024
0001b0 14 e5 03 3c ad 43 42 ba da 14 5e 3b 54 f3 00 3c
       0.008050222 -0.0007410597 0.003388694 0.007870514
0001c0 db 87 99 3b 80 96 28 3b fd 36 b4 3b 0b bc ac 3b
       0.0046853847 0.002572447 0.005499719 0.00527144
0001d0 84 f9 19 3b d4 00 ae bb 0f 2e 8e 3b e4 57 9b 3b
       0.002349467 -0.0053101573 0.0043389867 0.004740702
0001e0 6b 31 98 39 a6 8d c7 bb 23 d0 6e bb db f2 15 3b
       0.00029028518 -0.006089884 -0.0036439977 0.002288035
0001f0 f4 a8 09 ba 11 00 fc ba 26 7d 80 ba 60 1c 02 3a
       -0.0005251311 -0.0019226094 -0.0009802922 0.00049633346

action_model._discrete_distribution.branches.0.weight f4 [3, 128]
000000 12 20 d8 3b 54 12 7e 3b 2d 88 7a 3c 5e b7 fa bb
       0.00659562 0.0038768249 0.015291256 -0.0076512536
000010 90 d9 00 3a 5f 7c 9a 3b c6 3e 99 3a e1 d6 49 3c
       0.0004915232 0.004714533 0.0011691682 0.0123192975
000020 12 a9 1a bc 89 f9 5d 3c 2f 18 42 bb 9d bc 3c 3a
       -0.009439724 0.013548263 -0.0029616465 0.00071997364
000030 ea 66 d8 bb 63 a0 79 bb 24 d1 27 bc 8b 6a 5e 3b
       -0.006604065 -0.0038089983 -0.010242734 0.0033938016
000040 47 08 69 bc 5c ad ab bb 45 ab 4b bc d4 0b 4d 3c
       -0.014223165 -0.005239172 -0.012430971 0.012515027
000050 6f 5e 27 3b 39 6d 84 bb 0e 71 c7 bb d5 65 6e bc
       0.0025538465 -0.0040413407 -0.006086475 -0.014550646
000060 77 0c 80 bc 5a 44 55 bc fc 97 ed 3a d2 66 3b 3c
       -0.015630944 -0.013016785 0.001812696 0.0114380885
000070 3c ce 7e 3b 64 6e 16 bc 59 ff 1f 3a f4 fc 84 ba
       0.003888025 -0.009181593 0.00061034184 -0.0010146187
000080 ff 97 2a bb ca 49 1c bb cb 94 1f bc a9 e6 72 3b
       -0.0026030538 -0.0023847693 -0.009740065 0.0037063754
000090 2e 00 07 bc f9 9a 46 3c ca 8c d2 b9 71 4d ca bb
       -0.008239789 0.012121909 -0.00040159217 -0.0061737825
0000a0 7d 81 89 3c 1b c1 9b bb ff 4c 05 bc e5 e5 6b bb
       0.016785378 -0.0047532446 -0.008136033 -0.0035995182
0000b0 98 95 1b bc 9b c2 61 bb e7 92 47 bc 35 c9 fd ba
       -0.009496115 -0.003444827 -0.01218102 -0.0019362333
0000c0 7c 37 23 bc 21 18 99 3c 70 6e 2c bb da a2 35 bc
       -0.009961959 0.018688263 -0.0026310943 -0.01108619
0000d0 ce ba 06 3d 3f 4d d7 bb c4 e5 73 3b 22 c1 82 3c
       0.032892995 -0.0065704877 0.0037215808 0.015961234
0000e0 55 4a 4f bb 17 f2 f6 b8 5e 4b 0a 3c 82 9f 57 3c
       -0.0031629999 -0.00011775287 0.0084408205 0.013160588
0000f0 55 2c eb 3a 25 22 89 b9 9b 3c 10 3c 5f ab 45 3c
       0.0017942289 -0.00026156116 0.008803512 0.012064784
000100 9b 3c 48 3b bd 14 0c 3c 5a a7 bb 3c 6c a2 26 bb
       0.0030553702 0.008549866 0.022906948 -0.00254264
000110 a1 cc 19 3c d3 22 7f 3c 91 6a 6a 3b 23 d2 12 ba
       0.009387166 0.015572268 0.0035769085 -0.0005600771
000120 4e c1 c6 bc cc e9 a3 bb cb 53 66 3c 09 dc 8b bb
       -0.024262097 -0.005002236 0.014058064 -0.0042681736
000130 82 2c de bb 52 8c f0 bb 8b 6e d0 3c 03 b4 98 bb
       -0.006780208 -0.0073409462 0.025443336 -0.004660131
000140 5a 84 a0 3c b5 57 8d bb 44 ea 94 3b 59 30 05 bc
       0.01959436 -0.004313434 0.004544528 -0.008129203
000150 80 37 7e bc b9 0c d1 bb 53 f4 6a bb c5 35 8c bb
       -0.015516162 -0.0063796905 -0.0035851195 -0.0042788708
000160 3a 72 9a 3b c6 fb 85 bb 2a f7 f7 3a 0e cc 36 3c
       0.004713324 -0.0040888516 0.0018918265 0.011157049
000170 12 5f b3 3b 2b 61 d7 bb 1b de b8 bb 16 89 86 bc
       0.0054739797 -0.0065728626 -0.0056417114 -0.01642279
000180 3f 4c 83 bc 1e ab c5 bb 9d 1b 89 bb a7 04 e0 bb
       -0.016027568 -0.0060323616 -0.0041842 -0.006836492
000190 ed 31 bb 3b 87 34 df bb 5e cb 4f 3c 7e ae 32 3c
       0.0057127387 -0.0068116817 0.012682764 0.01090586
0001a0 32 e4 58 3c d8 85 ca bb 89 a3 23 bc 85 d0 3d bb
       0.013238 -0.006180506 -0.00998772 -0.0028963399
0001b0 04 45 a2 3c 77 7e ef bb 9d b7 b2 3a dc 85 23 bc
       0.0198083 -0.007308777 0.0013635043 -0.009980645
0001c0 bf d5 50 3c f9 d7 0c bc 56 64 03 3c 13 b6 95 3c
       0.012746274 -0.008596414 0.008019527 0.018275296
0001d0 fc 3c 5d 3c 5c 53 19 3c f4 9b 3e 3c 1d 41 5e bb
       0.013503309 0.009358253 0.011633862 -0.0033913322
0001e0 3a 5e 9f bc 2c 57 d0 3b 01 11 b8 3b 45 ef bd 3c
       -0.01945411 0.006358048 0.0056172614 0.023185382
0001f0 7b e5 9c 3b 8b ee 90 bb f0 14 bb bc 32 fc 99 bb
       0.0047880984 -0.004422968 -0.022837132 -0.0046992535
000200 7f db f3 3b bc e5 65 bc 9e 0a 60 bc f0 e3 8b bb
       0.0074419375 -0.014031824 -0.013674406 -0.0042691156
000210 14 ff a2 bb 5a e6 08 3c 71 3d 1a bc d2 45 7a b9
       -0.0049742553 0.008355701 -0.009414063 -0.00023867868
000220 68 79 00 bd 94 d3 21 3c 5b 23 c4 3c 04 47 ac bb
       -0.031365782 0.009877104 0.02394264 -0.005257489
000230 b4 ae b7 3c 6a fb 65 bc f3 60 dd bb 2c f5 fe 3c
       0.022422172 -0.014036993 -0.006755942 0.031122766
000240 83 ad 59 bc 64 9c 86 3c 59 18 ef bb d0 f0 84 3b
       -0.013285997 0.016431995 -0.0072966036 0.0040570274
000250 9d 7a bb 3c 83 42 ba 3c a8 a1 4a bc 7d 36 d2 3c
       0.022885615 0.022736793 -0.012367643 0.025660748
000260 00 d6 0d bc 28 73 b2 3c 7f 5c e5 bc 9f 57 8c bc
       -0.008656979 0.021783426 -0.027998207 -0.017131625
000270 f3 77 f6 bc 48 b5 90 3c ad 5f c5 bc 80 d5 04 bc
       -0.030086493 0.017664567 -0.024093473 -0.008107543
000280 e4 b3 38 bc 08 67 7f bb 39 31 f7 bc 5c 3d 86 bc
       -0.011273358 -0.0038971324 -0.030174838 -0.01638668
000290 d5 8e c2 ba 39 ed 16 bb 0d 53 68 3a b0 78 72 bb
       -0.0014843593 -0.002302958 0.0008862473 -0.0036998205
0002a0 ae f0 e0 3b d7 40 a6 bb 11 33 b2 3c a1 9a 80 ba
       0.0068646288 -0.0050736475 0.021752866 -0.0009811708
0002b0 e5 fd 30 3c 61 16 c6 3b 64 31 03 bc fb f3 01 3b
       0.010802721 0.0060451482 -0.008007381 0.0019829262
0002c0 39 eb 04 3c fe 45 87 3c 1e 4c cf 3c 5e fe 49 3c
       0.008112722 0.016512867 0.02530485 0.012328712
0002d0 8d a9 82 3c 9b b6 57 bc c6 87 4b 3c 9f d7 9f 3c
       0.015949989 -0.013166095 0.012422508 0.019511996
0002e0 bd 04 f2 3c 0b 5c c8 3b 9b 43 ab bc c0 c3 aa 3b
       0.029543275 0.006114488 -0.02090626 0.0052113235
0002f0 fc c2 2b bc ab ce 87 3c c5 af 2d 3c 08 92 f0 bb
       -0.0104835 0.01657804 0.010600989 -0.007341627
000300 44 8b ae bc 6b b9 b7 bc b2 32 f2 3b 31 51 58 ba
       -0.021306641 -0.022427281 0.0073912973 -0.00082518446
000310 47 87 2e bc 1a 61 30 3b 33 e8 e9 bb 9b f2 a0 3b
       -0.01065237 0.0026913346 -0.007138276 0.0049117333
000320 93 74 69 bc 1b d2 17 3c 28 66 25 bc 20 35 c3 bc
       -0.014248985 0.009266402 -0.010095157 -0.023829043
000330 b9 0e e9 3c 1a 73 ae ba bd 3a 5f 3c 8c d8 bc 3c
       0.028449403 -0.001330945 0.013624844 0.023052476
000340 e8 6a e7 3c d9 2e 1e 3c ff ff 06 3c 2b 0a 89 3c
       0.028249219 0.009654724 0.008239745 0.016728481
000350 d5 61 cb 3b 13 e2 91 bc 5b 41 59 3c 88 f4 8b bc
       0.006206731 -0.017807996 0.013260211 -0.017084375
000360 38 cc 85 3b 4b 70 0b 3d d0 c9 f8 b9 48 11 f4 3b
       0.0040831827 0.034042638 -0.00047452608 0.007448349
000370 bf ef 6e bc 86 f5 a2 bc bc bb af 3c 67 07 37 bc
       -0.014583527 -0.019892465 0.021451823 -0.011171198
000380 9b dc 85 ba 81 cb e3 bc 7a f8 99 bc 89 ca e4 3b
       -0.001021284 -0.027807 -0.01879524 0.006982152
000390 9a 01 ab 3c 4d 77 58 3c bd f7 a4 3c 67 6f d8 3a
       0.020874787 0.013212037 0.020137662 0.0016512693
0003a0 a9 b5 74 3b 6a f2 d8 3b 41 3b 23 3c 4f a4 b9 bb
       0.0037339723 0.006620695 0.009962858 -0.005665339
0003b0 8d a0 96 3c 74 65 c7 bc 13 d9 89 bb b8 30 d7 3c
       0.018387103 -0.024340369 -0.0042067855 0.026268348
0003c0 ac 92 7b 3b 5f de 56 bc 22 06 d1 bc c6 06 4f bb
       0.0038386984 -0.013114541 -0.02551562 -0.003158973
0003d0 f6 4c a3 bb c4 7c 8b 3a 0c 71 be 3b 23 ff 7d bc
       -0.0049835397 0.0010642041 0.005811816 -0.015502724
0003e0 76 e0 88 ba bd f6 4d 3b 8b 5b 81 bc 88 be ed 3b
       -0.0010442871 0.0031427585 -0.015790721 0.007255379
0003f0 45 4d 1d 3c b5 69 97 bb 8c ee a8 3c 2c dd 0f bc
       0.009600942 -0.0046207556 0.02062156 -0.008780759

action_model._discrete_distribution.branches.0.bias f4 [3]
000000 36 4a 5f 3b fe 1c a1 38 ed af 1d bb
       0.0034071333 7.6824785e-05 -0.0024061159

action_model._discrete_distribution.branches.1.weight f4 [3, 128]
000000 4f dd 10 bb 75 9a 88 bb af a9 0d bb 2f 65 97 bb
       -0.0022104566 -0.0041688033 -0.0021616032 -0.0046202163
000010 c8 63 19 3c 60 b6 2e bc 49 6b d9 3b a5 d6 68 bc
       0.009362169 -0.010663599 0.006635104 -0.0142113315
000020 f2 69 3c bc d3 0b a1 3c 1d ff d1 3b 45 8d 8a 3b
       -0.011499869 0.019658959 0.0064085857 0.0042282664
000030 9e 6e 87 3b 67 dd 3b bc 7b 64 f2 bb 47 76 aa 3a
       0.0041330596 -0.011466361 -0.007397232 0.001300522
000040 30 78 68 3c e5 0f d0 bb e5 8c 78 b9 a3 17 a8 bb
       0.014188811 -0.006349551 -0.0002370361 -0.005129771
000050 33 f7 d5 3c 41 e0 c0 ba 61 5c c2 bc fc 69 b2 bb
       0.02611885 -0.001471527 -0.02372569 -0.005444763
000060 40 a0 08 3a 5e 92 b2 3a 52 2d c4 bb df 27 81 3c
       0.00052118674 0.0013623943 -0.005986848 0.015766082
000070 75 b3 95 bb fa c3 71 3a 75 12 02 ba 82 74 42 38
       -0.004568512 0.0009222623 -0.0004961857 4.636171e-05
000080 4a ad 2f bc 1f 74 5d ba 33 67 e0 3b 04 92 64 bc
       -0.010722468 -0.00084477843 0.00684824 -0.013950828
000090 e8 e9 9d 3c f9 57 46 bb 26 15 3c 3c 01 4e b4 bc
       0.019276574 -0.0030264838 0.011479652 -0.022009851
0000a0 74 d4 16 bc 45 45 1f 3c c6 ee f6 bb f5 e2 0a 3b
       -0.009205926 0.009721105 -0.007535788 0.0021192406
0000b0 b1 fa b9 3c 87 f3 f1 3a 57 bc ef bc 18 ac 33 bb
       0.022702547 0.0018459418 -0.029264612 -0.0027415808
0000c0 40 73 99 3b bf b1 4c 3c 8b 26 07 39 98 e5 ea ba
       0.0046829283 0.01249355 0.00012888962 -0.0017921207
0000d0 9f 05 9b 3a a8 95 f6 bb db bc 09 3c b0 a1 a9 3b
       0.0011827237 -0.0075251646 0.008406843 0.0051767454
0000e0 5c 3b af ba 4c 14 92 3b f8 df 01 3c 1b 84 dd 3b
       -0.0013369131 0.004457986 0.0079269335 0.006760133
0000f0 c2 e4 13 3c 44 94 08 3d 09 b7 2e 3c 8b fd 51 ba
       0.009026708 0.033344522 0.010663756 -0.0008010498
000100 b9 3d 12 bc aa fc 97 bb 0b 96 75 3b 7a de 6f bb
       -0.008925849 -0.004638274 0.0037473466 -0.0036601112
000110 fa 27 b2 bb 47 4b d3 3b 3d a4 9c 3b f5 f4 c7 3b
       -0.0054368945 0.0064481827 0.004780321 0.006102199
000120 a7 6c 7f bc 27 87 7e 3c 29 b3 b6 3b 05 7a ac 3b
       -0.01558987 0.0155351525 0.005575557 0.0052635693
000130 be 81 85 3b aa 73 4d 3c 4a 09 11 3c ec 59 05 3c
       0.0040743044 0.0125397835 0.008852312 0.008139115
000140 e9 9a 68 bc dc d1 de 3b eb 94 00 3c 8e 8a e3 bb
       -0.01419709 0.0067999195 0.007848005 -0.0069440072
000150 19 4c 3d bc 75 63 00 bc 04 e3 6c 3c 90 0a af 3a
       -0.011553788 -0.007836212 0.014458422 0.0013354588
000160 fa 0a fc 3a d9 8b 67 3c 84 09 50 bc 6e 4e 8d 3c
       0.0019229345 0.014132463 -0.012697581 0.017249312
000170 7f 32 7f bb 05 72 8a bb 31 27 df 3b 32 b2 d9 bc
       -0.003894001 -0.004225018 0.006810092 -0.026574228
000180 a6 1e f2 3b 14 aa 30 bb d9 d5 45 bc 25 46 8c 3c
       0.0073889075 -0.0026956843 -0.012074911 0.017123291
000190 fe b0 a8 bb 23 52 0d 3c e5 af 32 3c bd 9e db 3b
       -0.0051480522 0.00862554 0.010906194 0.0067022727
0001a0 71 92 e5 3b 3f 7e 04 3a 36 fa 26 3b 5a 6a 40 3c
       0.0070059826 0.00050542125 0.0025478727 0.011744106
0001b0 09 de 75 bb 8c d8 41 bb 74 47 be bc 08 13 79 3c
       -0.0037516376 -0.0029578535 -0.02322743 0.015202291
0001c0 69 34 0e 3c c5 17 87 bb 71 70 89 38 4a b8 98 bc
       0.008679488 -0.0041227066 6.553613e-05 -0.018642563
0001d0 db 2f 70 bb da 4a b1 3c f9 b5 c9 3a 3a 11 cf bb
       -0.0036649618 0.021642137 0.0015389315 -0.0063191922
0001e0 49 52 1f bc 33 4c 63 bb 3e 84 7e bb be 06 92 3c
       -0.009724208 -0.003468287 -0.0038836147 0.01782548
0001f0 98 52 85 bb 02 58 46 bc 2e 6e 34 ba 88 4c e0 bb
       -0.004068684 -0.012105944 -0.0006882873 -0.0068450607
000200 01 c2 2a bc af 07 d8 3b 54 2b a7 bb f8 58 42 3c
       -0.010422231 0.006592713 -0.0051016007 0.011862032
000210 32 2e 9a bb 8b 72 0e 3b fa c9 4a bc 9b cc 26 b9
       -0.004705214 0.0021735753 -0.0123772565 -0.00015907215
000220 25 73 44 bb 15 97 2f bc e5 fb 67 bb 1e 85 98 bc
       -0.0029975858 -0.010717173 -0.0035397944 -0.018618163
000230 86 b2 02 3c 26 9b 3c 3c 4a c9 40 3b eb 16 3e 3b
       0.007977134 0.0115116 0.0029416853 0.002900536
000240 e3 b4 32 bc 10 e2 68 ba fc e0 b2 ba 48 71 a8 3c
       -0.010907385 -0.00088837836 -0.0013647373 0.02056183
000250 ca f2 4f 3c 44 6d 08 bc 8c 9c 71 bb 6e da 98 bc
       0.012692163 -0.008326832 -0.003686699 -0.018658843
000260 23 fc 63 ba 75 ff ff 3b e1 21 a8 bb 9f a6 27 3b
       -0.0008696934 0.0078124353 -0.005130992 0.0025581492
000270 ce bd 7d 3b 29 0c 52 bb 48 3e 82 bc 73 9f 4b bb
       0.0038717869 -0.0032050705 -0.015898839 -0.003107038
000280 55 f0 61 bc b4 fe 0e 3c e7 9c b1 3c 28 61 c1 3c
       -0.01379021 0.008727718 0.021681262 0.023605898
000290 2b 80 25 bb d3 2b f5 3b 70 71 32 ba fe 13 be bc
       -0.0025253396 0.007482031 -0.00068070646 -0.023202892
0002a0 82 35 fb 3a 1a 70 1f bc a7 bf 01 3c db 93 97 3c
       0.0019165727 -0.009731317 0.007919229 0.01850312
0002b0 c7 39 ad bc 92 93 fc bb 84 2e 1b bb 28 3a 4a 39
       -0.021145714 -0.0077080214 -0.0023678849 0.00019285886
0002c0 aa 53 6f bc 32 b0 26 3c c9 a6 94 bb 05 f7 b2 bb
       -0.014607349 0.010173844 -0.004536484 -0.005461576
0002d0 43 c0 2d 3c 31 5d 38 bb 33 2d a3 bc 6c 87 9a bb
       0.010604921 -0.0028131718 -0.019919014 -0.0047158506
0002e0 22 ac 1f bc b4 be 7f 3b 76 e8 d8 ba 22 a4 8a 3c
       -0.0097456295 0.003902358 -0.0016548771 0.016923968
0002f0 57 ae f2 bb 6b 97 0c bc c5 13 9d bb 35 7e 98 bc
       -0.007406037 -0.008581023 -0.0047936165 -0.018614868
000300 95 8d c8 3b 51 38 91 3c dc 7f fb 3a cd 3a 43 3c
       0.0061203935 0.017727049 0.0019187885 0.011915875
000310 54 de 8f bc f2 0a b0 bb 5f e9 88 ba 57 7a 93 3c
       -0.017562069 -0.0053723985 -0.0010445527 0.018002672
000320 83 a8 d5 3c ba b9 e9 bb 30 4e 8a 3a e6 d8 8e bc
       0.02608133 -0.007132736 0.0010551866 -0.01743741
000330 cf f8 a8 bb cd 2c 9e 39 00 d5 e0 3b 2c 2a 0c bb
       -0.0051566134 0.00030169488 0.006861329 -0.002138744
000340 c6 7f 03 3d 53 83 b1 bb 9f 06 40 bc a8 7c 78 3c
       0.032104276 -0.0054172664 -0.011720329 0.015166439
000350 75 9f ee 3b b4 bd 54 ba 71 4a 57 bc b8 ee 85 3c
       0.0072821924 -0.0008115426 -0.013140307 0.016349182
000360 0e a6 00 3c 89 cf 73 bc 99 74 bb bb c8 65 3a 3b
       0.0078520905 -0.014881023 -0.0057206866 0.0028442014
000370 fd 25 ae bb b7 42 76 bc 5e a7 19 3c c5 4b 78 3c
       -0.005314587 -0.0150305545 0.009378282 0.015154784
000380 22 5d 2f 3b 81 ec 18 3c b2 eb 36 3c 32 d5 46 bc
       0.0026758392 0.009333731 0.011164593 -0.012135791
000390 9a 32 a0 bb d8 4a f7 b9 f6 ca cc 3a 76 ae c5 bb
       -0.0048888447 -0.00047167274 0.0015624452 -0.0060327603
0003a0 1f 05 5a ba 20 7a 62 bc da 87 10 3c cb c5 bf bb
       -0.0008316803 -0.013823062 0.008821452 -0.005852436
0003b0 2a 10 e9 3b 6a df 51 bc 0c 35 d0 3c 57 ca 76 bc
       0.0071125226 -0.012809614 0.02541592 -0.01506289
0003c0 47 9b 24 bc 68 e6 9b 3c af 43 09 3c b7 c4 1e 3c
       -0.010046787 0.019030765 0.008377953 0.009690455
0003d0 8c 4b 05 3c e1 72 96 bc c2 91 62 3c f2 f8 fd bb
       0.008135688 -0.018365325 0.013828697 -0.007750624
0003e0 8f 98 0f bc 71 c5 ed b9 5a 0b 4f bc d1 b9 05 3c
       -0.0087644 -0.00045351268 -0.012636984 0.008161978
0003f0 fd af 28 bb a8 e1 5e 3a 36 ed 8b 3a 5d b7 88 3b
       -0.0025739663 0.00085022533 0.0010675553 0.004172249

action_model._discrete_distribution.branches.1.bias f4 [3]
000000 b5 52 49 bb ac ff b6 3b 35 a8 02 bb
       -0.0030719463 0.0055846777 -0.0019936685

exp_avg f4 [128, 68]
000000 92 cd 4d 37 2f 4a b4 35 4e fb 2b b4 a3 d0 99 b6
       1.2266815e-05 1.3432635e-06 -1.601704e-07 -4.584044e-06
000010 56 21 98 33 50 ea d1 35 61 6c 4b 37 b5 93 2b 36
       7.084115e-08 1.5639907e-06 1.2124977e-05 2.5566962e-06
000020 27 a1 2c b4 fa 51 bb b6 66 1b de b0 8a 97 de 35
       -1.6077375e-07 -5.5825776e-06 -1.6160413e-09 1.6584393e-06
000030 ed 97 03 37 15 e0 8f 36 a3 ab 2c b4 42 a9 42 b6
       7.843581e-06 4.2878187e-06 -1.608119e-07 -2.9006774e-06
000040 e9 06 0f b4 b0 bc 5d 35 a0 5b 3b 37 e4 0b 88 35
       -1.3320427e-07 8.260349e-07 1.1167402e-05 1.013625e-06
000050 8e ae 2d b4 4b 1a 53 b6 a3 86 87 33 73 53 3c b4
       -1.6175383e-07 -3.1456755e-06 6.310918e-08 -1.7539223e-07
000060 82 ce d3 36 39 05 ed 35 21 2c 2b b4 ba 11 57 35
       6.3123307e-06 1.7659396e-06 -1.594167e-07 8.0119537e-07
000070 2f 83 50 34 d8 d6 54 35 ca 17 3b 37 42 2f 94 35
       1.9419234e-07 7.9288793e-07 1.1151607e-05 1.1040613e-06
000080 8e 0c a4 b0 f8 0e 5e b6 da c0 b9 b2 45 60 04 b5
       -1.1936139e-09 -3.308929e-06 -2.1624533e-08 -4.931392e-07
000090 6a 55 cf 36 44 72 c2 35 0e 59 2b b4 1f 85 69 35
       6.1790242e-06 1.4487382e-06 -1.5958014e-07 8.699298e-07
0000a0 15 5c 19 35 a6 d3 3a 36 0d 6a 63 37 7d fa db 35
       5.713094e-07 2.7839355e-06 1.3554946e-05 1.6389673e-06
0000b0 8e 0c a4 b0 28 80 b1 b6 18 0f 81 b5 18 7a 7f b5
       -1.1936139e-09 -5.2899304e-06 -9.615642e-07 -9.517257e-07
0000c0 c5 c4 6a b6 3e 89 e0 36 0e 59 2b b4 c7 46 77 36
       -3.4983252e-06 6.6916973e-06 -1.5958014e-07 3.6847066e-06
0000d0 25 44 13 36 01 2a ac 36 cb b8 51 37 3a bf 39 33
       2.1944372e-06 5.1308893e-06 1.2500396e-05 4.324759e-08
0000e0 8e 0c a4 b0 de 5e 73 b6 2b 82 21 32 a1 bf ef 33
       -1.1936139e-09 -3.6265042e-06 9.40103e-09 1.1164162e-07
0000f0 c6 d8 be b6 d4 ec 53 37 c0 96 2b b4 4f 63 b8 34
       -5.687677e-06 1.2631721e-05 -1.5980459e-07 3.4344927e-07
000100 71 50 ef 35 2c 4c b5 36 8f dc 6a 37 00 00 00 00
       1.7830299e-06 5.403088e-06 1.399884e-05 0.0
000110 04 1a 2c b8 ad 66 ea b5 d5 e7 38 b5 47 6b d6 b7
       -4.1032225e-05 -1.7464241e-06 -6.88827e-07 -2.5560743e-05
000120 6b 27 71 34 28 28 02 35 6c e4 49 b8 34 d2 69 b6
       2.2459214e-07 4.848721e-07 -4.813487e-05 -3.484206e-06
000130 38 6c 39 b5 f1 ba 98 b7 83 ec e5 35 c3 a6 8e 35
       -6.907535e-07 -1.8206863e-05 1.7130664e-06 1.0628358e-06
000140 50 71 6c b8 da 39 cb b6 98 14 39 b5 eb d0 bf b6
       -5.6372315e-05 -6.0566063e-06 -6.894784e-07 -5.716565e-06
000150 65 9c 06 33 eb 60 82 b7 d1 0a 35 b8 4a bf 44 36
       3.1341546e-08 -1.5542339e-05 -4.3163836e-05 2.931762e-06
000160 f8 97 3a b5 6b 20 ce b7 32 be 5d b6 b1 b5 86 35
       -6.9511543e-07 -2.457221e-05 -3.3042274e-06 1.0036657e-06
000170 76 0b 8a b8 16 07 ba b6 dd 08 38 b5 20 7e 39 36
       -6.5824875e-05 -5.544057e-06 -6.855824e-07 2.7640563e-06
000180 6a 60 0b 35 68 a0 e6 b7 5d 02 40 b8 8f ad cf b5
       5.1921836e-07 -2.7492832e-05 -4.5778568e-05 -1.5473214e-06
000190 9d 8a 37 b2 a8 74 e8 b7 44 1e d0 36 90 5d 3e 37
       -1.0683519e-08 -2.7710877e-05 6.2024064e-06 1.1346667e-05
0001a0 ff 12 e6 b7 b7 8b 9a b6 0e 8e 36 b5 b3 fa 90 b7
       -2.7426982e-05 -4.6058226e-06 -6.8007e-07 -1.7282879e-05
0001b0 cb 34 9e b7 9b d8 30 b8 42 0f 67 b8 0c 3c 9c 36
       -1.8859651e-05 -4.21634e-05 -5.50889e-05 4.6561527e-06
0001c0 9d 8a 37 b2 ea 7d e3 b7 db 5d 12 37 ee f4 91 37
       -1.0683519e-08 -2.7119142e-05 8.724131e-06 1.7399401e-05
0001d0 14 c6 4d b7 a8 d8 ef b7 0e 8e 36 b5 78 64 9c b7
       -1.2265071e-05 -2.8591909e-05 -6.8007e-07 -1.8643434e-05
0001e0 bb e7 0f b7 db 61 12 b8 fd 45 71 b8 84 7d 57 37
       -8.577418e-06 -3.4900248e-05 -5.752406e-05 1.28442225e-05
0001f0 9d 8a 37 b2 56 fd e9 b7 93 0d 7b 36 e2 73 0f 37
       -1.0683519e-08 -2.7893733e-05 3.7409816e-06 8.550445e-06
000200 e0 ae 56 b6 a4 b9 4b b8 e6 cd 36 b5 7c 71 0f b7
       -3.1990276e-06 -4.8571863e-05 -6.8099905e-07 -8.549887e-06
000210 57 09 02 b7 a4 b9 15 b8 f7 b7 3c b9 00 00 00 00
       -7.750778e-06 -3.569726e-05 -0.0001799761 0.0
000220 24 1f ca b8 dc d4 89 36 a9 4c 1f 34 29 e8 87 36
       -9.637911e-05 4.1076983e-06 1.4835918e-07 4.0503405e-06
000230 7a ed 10 b5 00 68 9a b6 31 ce cd b8 94 13 78 35
       -5.3989754e-07 -4.601665e-06 -9.813568e-05 9.241569e-07
000240 8e 15 20 34 ea 8d 09 37 9d b9 86 34 cb 9a 7c b6
       1.4909003e-07 8.198878e-06 2.5094496e-07 -3.7641028e-06
000250 fb 74 9b b8 0a b2 43 b7 14 e9 1f 34 89 bb 95 b6
       -7.412765e-05 -1.1664359e-05 1.4892822e-07 -4.462378e-06
000260 bc 5d c8 35 46 5d 90 b6 d9 76 c6 b8 f1 b7 05 36
       1.4928441e-06 -4.302393e-06 -9.463513e-05 1.9925612e-06
000270 02 f1 21 34 86 f5 3e 36 2c bb 8a 35 2b 34 34 36
       1.5081972e-07 2.845512e-06 1.0336275e-06 2.6852456e-06
000280 10 3a a2 b8 96 1e 01 37 b8 f2 1e 34 4e d8 99 b7
       -7.735577e-05 7.6961205e-06 1.4803197e-07 -1.8339746e-05
000290 df 15 36 b5 ab 86 48 b7 48 cc be b8 ac ac bb 35
       -6.783211e-07 -1.1952284e-05 -9.097956e-05 1.398284e-06
0002a0 ad d4 58 30 5d b2 e8 35 e8 ca 46 b5 21 98 1d 36
       7.888257e-10 1.7337258e-06 -7.4056015e-07 2.3483374e-06
0002b0 50 37 87 b8 06 d9 28 36 b9 3c 1f 34 79 33 74 b7
       -6.4476044e-05 2.5160275e-06 1.483012e-07 -1.4555518e-05
0002c0 ab 84 4b b7 df 25 ff b7 79 36 dd b8 5a 25 19 36
       -1.2130632e-05 -3.0416004e-05 -0.000105482475 2.2820518e-06
0002d0 ad d4 58 30 77 2c 28 37 51 91 97 36 41 41 8a 36
       7.888257e-10 1.0023933e-05 4.5170677e-06 4.120317e-06
0002e0 f7 6d 92 36 bf 11 2b b8 b9 3c 1f 34 70 67 33 b8
       4.3639407e-06 -4.0786104e-05 1.483012e-07 -4.277326e-05
0002f0 59 12 1f b7 ca 08 1d b8 80 69 cd b8 5b 20 f9 36
       -9.48141e-06 -3.7439902e-05 -9.794813e-05 7.424545e-06
000300 ad d4 58 30 fc 03 33 36 10 04 45 b5 5e fe 47 b6
       7.888257e-10 2.6675398e-06 -7.339413e-07 -2.9801372e-06
000310 43 80 c1 37 3c cf ce b8 36 29 22 34 47 75 00 b7
       2.306712e-05 -9.861446e-05 1.5102418e-07 -7.6567e-06
000320 ac 8e b7 b6 67 7e 15 b8 ca bc 30 b9 00 00 00 00
       -5.470434e-06 -3.564209e-05 -0.00016854997 0.0
000330 04 b1 c0 b8 bf 7e 9a b7 a5 84 c7 36 20 12 11 35
       -9.188245e-05 -1.8417251e-05 5.946104e-06 5.4043085e-07
000340 50 9f 84 b3 1a d3 2b 36 1c bd da b8 4b ca 5d b7
       -6.175708e-08 2.5603863e-06 -0.000104302744 -1.32197265e-05
000350 bc 79 c7 36 c6 66 d2 36 50 3c c0 35 3f 73 22 b6
       5.944834e-06 6.270452e-06 1.4322668e-06 -2.4206963e-06
000360 a1 1b c3 b8 66 20 c5 b7 d2 b5 c7 36 dc 2c 8b 36
       -9.303471e-05 -2.3499317e-05 5.951829e-06 4.147745e-06
000370 8c c4 2b 36 6a 89 96 b5 07 24 a3 b8 ff 68 af b7
       2.559539e-06 -1.1215864e-06 -7.779156e-05 -2.0910518e-05
000380 bc 8e c7 36 62 94 86 36 be da 7d b7 6d 85 c5 b7
       5.9472786e-06 4.0107852e-06 -1.5130905e-05 -2.3546361e-05
000390 a5 c1 b5 b8 26 65 83 b7 fa ce c7 36 c3 13 45 b6
       -8.666822e-05 -1.5663518e-05 5.9547574e-06 -2.936679e-06
0003a0 da fd 99 b6 67 8b 8f b6 22 e9 81 b8 ff f3 05 b8
       -4.5893075e-06 -4.2779607e-06 -6.194624e-05 -3.193691e-05
0003b0 42 c4 ca b2 83 15 93 36 1b 46 6f b7 b8 df b4 b7
       -2.3605143e-08 4.3834457e-06 -1.4261833e-05 -2.156185e-05
0003c0 e0 43 b3 b8 3f a1 83 36 81 44 c8 36 9a 6b 70 b7
       -8.548028e-05 3.9228757e-06 5.9684394e-06 -1.4330168e-05
0003d0 58 fd 68 b7 58 c8 3d b7 cf 48 a8 b8 ba b2 0a b8
       -1.3887264e-05 -1.1311924e-05 -8.024426e-05 -3.3068216e-05
0003e0 42 c4 ca b2 81 2a 33 37 8d 73 8b b5 ff 7d c7 b7
       -2.3605143e-08 1.0679128e-05 -1.0389937e-06 -2.378132e-05
0003f0 52 5c 45 b8 1b f2 18 b8 81 44 c8 36 33 bc d4 b7
       -4.705444e-05 -3.6465102e-05 5.9684394e-06 -2.5360006e-05
