results/TrainPeoplePuddlesHoles_NewPeopleDodgingStrategy_11Dicembre/MoveToGoal/MoveToGoal-1999947.onnx (onnx, 106468 bytes, 9 tensors)

action_model._discrete_distribution.branches.0.bias f4 [3]
00000000: 2e42 633d 0b51 47bd 2853 5fbc
0.055483036 -0.048661273 -0.013630666

action_model._discrete_distribution.branches.0.weight f4 [3, 128]
00000000: a287 823d f4ab 14bd 365e 7ebd aa6e 0cbd
00000010: 4cbf 993d 3782 85bd 8c94 923b ddd2 a1bd
00000020: f0be 9b3c 7eab da3b eeb2 333d b2c0 7fbd
00000030: 9cd3 ac3d 072f 9c3d e966 cdbb faa0 a8bd
00000040: 24bc 70bd b968 783c 5dd8 88bc b653 923b
00000050: a3f1 f5bd 0af9 8f3a 9f92 88bc 913d 4fbd
00000060: 2351 b2bd f7e7 a13c 17d2 ca3c dd2a b0bd
00000070: 3515 c1bc 344f 203d 2c29 1e3d b76d a03d
00000080: e6a9 e5bd e018 743d f6b8 aabd 3f6a 2bbd
00000090: ce00 d4bd a097 acbd a984 923c cbd2 7f3a
000000a0: bf48 ac3c 16fe f9bb e27c b2bd 2c8c 183d
000000b0: 3593 703d 0b18 12bd dbab 023d 93f7 df3d
000000c0: 2055 9bbd f454 7f3d 8099 3bbc cf4c c2bd
000000d0: c0ef afbc 764d 51bd bc1a 6d3d bd88 943d
000000e0: 91fe aabd ff5d 78bc 6e06 72bd 16d8 55bd
000000f0: b052 9fbd 60de 793d d354 563c cdee e83b
00000100: 51b1 3dbd bfb0 c83d 7baf 0abd 5596 873d
00000110: 3153 aebd ce7a a8bd 28f8 7f3c 1357 17bd
00000120: 7420 e53c 0333 7e3d dc2d 323d e73c 2d3d
00000130: 267e 913d 2e62 6bbd 0a2f 85bd 5168 9dbd
00000140: 2573 adbd f9d2 14bd 02b7 303d 7c0d f23c
00000150: 47f2 1f3d adf0 773d eb4a b13d 40ca 0dbd
00000160: f351 953d b474 b5bd 98c5 a6bd b2b4 7ebb
00000170: 92e2 0d3d b020 e93c 4edf a1bd 6b21 883d
00000180: de54 7a3d 52a7 d2bd e20c 9bbd 3156 78bd
00000190: 3f9d 033d 304b 8e3d 7e32 993d 2334 75bc
000001a0: 0b95 eabd dd1a 003d a573 8dba 7d24 1fbc
000001b0: d578 4fbc b099 70bc bb3d c6bd 392e a5bd
000001c0: b847 bfbc 8b75 b8bd f8d4 283d 0e75 9dbc
000001d0: 7544 2dbd c81b 16bc 9b69 86bc 4469 d1bd
000001e0: 3567 ab3d bed3 7abc cf11 57bb 0957 953c
000001f0: 6b36 bdbc 4305 013d 4671 e7bc 3277 8ebd
00000200: decd b5b9 7f61 2fbd 5c26 83bc b6e5 973d
00000210: b584 9fbd e7e0 de3d 5042 e4bd 88bf a73d
00000220: 0768 663d 01bb 32be 166a 4b3d 9479 573d
00000230: caec 7ebd 390d a43c 2a7b b4bd 8fd2 063c
00000240: b993 e03d 6654 663d 6cc2 e9bd e628 1cbd
00000250: e0d4 e73d 8f7f 03be e5d7 e93d d322 87bd
00000260: 9345 763d bdec 323d 61e4 8cbd a024 633d
00000270: 2c68 c83d 3534 aa3d 56c6 8dbd 7786 3a3a
00000280: 777f a43d 9a96 943d c1bf 863d 1664 0a3e
00000290: 7221 463d 665a ac3d 4c25 f8bd 39d7 01be
000002a0: ed7e 4c3d 6693 df3d ec30 4abb 1ce3 7e3d
000002b0: 4872 233d a1cf b23d 9a27 0dbe 7ffa 11bd
000002c0: 598a 1cbd a7ac d6bc a111 16be 699c c63c
000002d0: 8714 413d ad96 603d 2799 babc 009d e4bd
000002e0: c3f2 953d 1ef4 c9bd d004 b03d 846f 8abd
000002f0: 3502 e73c e69b 4bbc 3947 e5bd 1fe1 18be
00000300: 1f8f 1d3d d7c5 2ebd a36a a1bd 2d8c 27be
00000310: 33cb f13d c1c2 f33d f698 e5bd 567a 973d
00000320: efa9 09be b7bc 233b ddb9 b93c b0fd a9bd
00000330: 7a8c c6bd d16e 3e3b c75a 07bd 7bde 60ba
00000340: 1621 ba3d 536c 7abd 9e0d e9bd 53c8 b3bd
00000350: 6fa2 b0bd 3d91 d5bd c742 a1bc aeeb 893d
00000360: 7d74 17bd dc8d d73d bd5c 803c ec05 853d
00000370: 5bf3 ffbd 5fc5 22bd 0974 983d 12e3 f03c
00000380: 7b2c 11bc eb54 b93c e538 41bd 5d1b ea3d
00000390: 8acc e23c 8f7e 9bbd 87f9 9abd 9d17 4dbd
000003a0: 1a59 a73c 8b1d 6f3d dd20 c03d 44f6 fabd
000003b0: 015b e1bd c256 dfbd 4ba2 843c 6d15 01bc
000003c0: 0400 163d dbaf c9bc 018f 2e3d b299 b33d
000003d0: a311 99bd 87f2 0cbe f78a c4bd 22a3 d63d
000003e0: e46d 6d3b 2f94 ddbd 1733 ce3d 7f7e 793d
000003f0: a02b 73bd 7c99 48bd d419 49bd 1492 653d
0.06373526 -0.0362968 -0.062101565 -0.034285225 0.0750719 -0.06518977 0.0044732746 -0.07901547
0.019011945 0.0066732755 0.043871813 -0.062439628 0.08438799 0.07626157 -0.0062683714 -0.08233829
-0.058773175 0.015161687 -0.016704733 0.0044655455 -0.12008979 0.0010984254 -0.016671477 -0.050595824
-0.08706882 0.01976393 0.024758382 -0.086019255 -0.023569683 0.039138034 0.038613483 0.078334264
-0.11214046 0.059594035 -0.0833606 -0.04184937 -0.10351716 -0.08427358 0.017885523 0.00097588886
0.021030782 -0.0076291664 -0.08715226 0.037243053 0.058734138 -0.03566746 0.031902175 0.10935893
-0.07584596 0.062336877 -0.0114501715 -0.09487306 -0.021476626 -0.051099263 0.057886824 0.07252643
-0.08349336 -0.015159129 -0.059088163 -0.05220803 -0.07779443 0.06100309 0.013081747 0.0071085454
-0.04631168 0.09799337 -0.033858757 0.066204704 -0.08511961 -0.08226548 0.01562313 -0.036948275
0.027969576 0.062060367 0.043500766 0.04229441 0.07104139 -0.05746668 -0.065031126 -0.076859124
-0.08469228 -0.03633401 0.04314328 0.029547445 0.039049413 0.06053226 0.086568676 -0.03461671
0.07291021 -0.0886015 -0.08143157 -0.0038865027 0.034639902 0.02845797 -0.0790392 0.06646999
0.061116092 -0.1028582 -0.075708166 -0.060629074 0.032132383 0.06947935 0.07480334 -0.014966044
-0.11454209 0.03127562 -0.0010791911 -0.009713289 -0.012663086 -0.014685079 -0.09679743 -0.08065457
-0.023349628 -0.090067945 0.041218728 -0.019220855 -0.042301614 -0.009161897 -0.016407778 -0.10225156
0.083692946 -0.015309272 -0.0032817011 0.018229978 -0.023097238 0.03149916 -0.028252255 -0.069563285
-0.00034676393 -0.04281759 -0.016009502 0.07416861 -0.07788984 0.108827405 -0.111454606 0.081908286
0.056251552 -0.17454149 0.04966172 0.05260618 -0.06223754 0.020025836 -0.08812554 0.008228912
0.10965676 0.056232832 -0.11414036 -0.03812494 0.113198996 -0.12841628 0.11418132 -0.06598439
0.060124945 0.043682802 -0.06879497 0.05545485 0.09785494 0.08310739 -0.06922595 0.0007115374
0.080321245 0.072552875 0.06579543 0.13514742 0.04837174 0.0841568 -0.12116489 -0.12679757
0.049925733 0.10916786 -0.0030851914 0.062228307 0.03990391 0.08731008 -0.13784638 -0.035639282
-0.038217876 -0.026205374 -0.14655162 0.024244504 0.047138717 0.054831196 -0.022778107 -0.11162758
0.07321694 -0.09861015 0.08594668 -0.06759551 0.028199295 -0.012427306 -0.11195225 -0.14929627
0.03846657 -0.042669144 -0.078816675 -0.16362067 0.11806335 0.11902381 -0.112108156 0.073963806
-0.13443731 0.002498431 0.022671634 -0.0830034 -0.096947625 0.002905775 -0.033045556 -0.0008578074
0.09088342 -0.061138462 -0.113795504 -0.08778443 -0.08624732 -0.10428093 -0.019685162 0.067344055
-0.036976326 0.105251044 0.015669221 0.0649527 -0.12497588 -0.03973901 0.07444007 0.02940515
-0.008860703 0.0226235 -0.0471734 0.114310004 0.027685422 -0.075924985 -0.07567125 -0.050071348
0.02042823 0.058377784 0.09381268 -0.12254003 -0.11003686 -0.109052196 0.016190669 -0.007878643
0.03662111 -0.024619987 0.042616848 0.087695494 -0.07474067 -0.13764392 -0.09596818 0.10480334
0.003622883 -0.108192794 0.10068338 0.06091165 -0.059367776 -0.0489745 -0.049096897 0.056047514

action_model._discrete_distribution.branches.1.bias f4 [3]
00000000: 39ef 1e3c 53a2 1d3c 9239 95bc
0.00970059 0.009621221 -0.018215928

action_model._discrete_distribution.branches.1.weight f4 [3, 128]
00000000: 56fe a1bc d2b8 9fbc 1283 08bd 2c1b aebc
00000010: 1f80 133b 4c00 51bb 00c2 93bc e94c c0bc
00000020: 6445 553c 7169 fdba 575e f3bc 683f 8fbc
00000030: 9081 963b a288 f13c b785 62bb 7057 76bb
00000040: 6aa8 cebb c64e a53c 2156 823c 6b07 debb
00000050: b78f 94bc 8129 b2bb 729d e43b b0f2 8ebc
00000060: df0c 77bc 72b8 cdb9 e3a9 8dbc f744 94bc
00000070: 207c f9bb af45 cdbb a038 7b3a 0bd5 b73c
00000080: a0eb f4bc a0d6 0239 02ce a8bc a268 053c
00000090: 038c cfbc d4e9 96bc 8610 153b 2332 bfbc
000000a0: 6be4 863b da06 413c abec 54bc 30df 823c
000000b0: 2e67 0b3c dee9 483b 04d5 f939 cd82 5e3c
000000c0: e64d 4bbd 15ff 013d 425d 82bc f6d1 20bd
000000d0: 358e 52bc 2aaa 31bd 1438 ae3c 3afd 983c
000000e0: f0ef c4bb ec69 80bb 4bec ebbc 1a58 d7bc
000000f0: 9f01 e8bc 0a5c cdbb 755a 89bb 1feb a5bc
00000100: ad17 99bc d124 113c 8487 3ebc 1be4 5c3c
00000110: e34c b4bc 818d ccba 76ff e7bc 5a5c 353c
00000120: 729c ed3b dcb3 f53c d783 f43c 313c 37bc
00000130: 423f 473c f1b7 f3ba 19c3 68bc a803 86bc
00000140: 6243 99bc 7d1b f9bb 058b babb 10ed 393c
00000150: 02ec 4d3c 4748 783b c339 4abc 8268 293c
00000160: c73c d93c ade0 d4bc f038 eab9 fe63 db3a
00000170: 826e 29bc eda5 a1bc 7e33 06bd 9f07 a93c
00000180: 5ee0 113c df69 81bd b3ec 01bd 794e 3bb9
00000190: 7f85 0a3b e009 90bb 56f5 823c f034 92bc
000001a0: 3d10 76bd db00 9b3b 8748 123d 35af 02b9
000001b0: fbb6 a5bc 53a8 a63c c855 15bd 777d bebc
000001c0: 6048 823c e7c2 a7bc 6011 283c 5843 8cbc
000001d0: 7a6c 00bc c8fe b5bc 51e1 bdbc a4a9 36bd
000001e0: 0d82 513c 332d aabc bb40 2cbc 5198 9a3a
000001f0: 186a ebbb 7d66 7ebb 6de7 bbbc 435b 2cbc
00000200: 42f8 cc3a 8dc2 bf3a a53c bf3b faf6 0d3d
00000210: a71e 91bc 9ae9 f13b d9ec 2f3c 2743 9abb
00000220: a0e4 ebba 5f6f 8b3c 06b3 5f3c fe40 80bb
00000230: 585c f23b c6b4 1a3a d938 bc3c 8d9d c83b
00000240: 9005 62bc d62b b2bb ecc4 2e3c 9296 3b3b
00000250: 5070 213b c2c0 073c 5119 1d3c 2a92 91ba
00000260: 70cd ffbb 4c2c 1c3c 12b4 663a efc4 13bc
00000270: ed97 a03c 15ce 203c 086f 7fbc d580 d8bb
00000280: e6e9 9abc 4dc5 b3bb 04e9 44bb 2ff2 3b3c
00000290: 39a7 5d3c fd65 123c a403 ddbb 3a86 3e3b
000002a0: 7d4f 163a acb6 dbbc c0fb 0bbc 9616 c7ba
000002b0: 97f3 b3bb 821d 55bc 67be 0abb a062 c5bb
000002c0: 6585 223d 90b8 d3bc 8a81 af3b 8467 0bbb
000002d0: 2cb3 bd3c 9f64 aa3c faa3 8ebb 0675 e9bb
000002e0: 2d6a 043c 068e 223c e6c3 0e3d d976 363c
000002f0: 9554 6a3c 4afd 77bb 7cd2 f1bb 8738 db3c
00000300: 8b0b edbb a19c 1cbc 942f 11bc 9f23 93bb
00000310: d538 8f3c 0e97 a23b 6056 293d 09bd f2bb
00000320: 543c 843b 6e6c 72bc 0ec7 a4bc fa9b 7f3c
00000330: 6470 d1bc f4ad 833c 2503 91ba 893b d23a
00000340: 07a8 6d3c 231c 32bb c966 8cbc b4a2 d6bb
00000350: 5394 093c 6e82 34bc 4ebb 1c3c 67a1 133c
00000360: 7bd1 a3ba 251f 7e3c bb26 a73c 8387 8a3b
00000370: 80dd 61bb cdcc 953b 92a6 f6bc 8af0 f03b
00000380: 4e91 c1bb 9645 483c 6b83 7c3c 7f72 813c
00000390: 7f84 a2bc cfa3 4dbc 091f cbbb de07 13bb
000003a0: 044a ad3b 2d60 53bc d61b 2bbc 60df 81ba
000003b0: ee6a 853c 9677 21bc c7e3 c83a 6f2e 7bbb
000003c0: f09e e0bb f41e b5bb e3b8 84bc db6e 6e3c
000003d0: 434a 703c b4fa 3f3c 976c c23c f21a a9bc
000003e0: f4de 3dbb a49b fa3b 748f 373b df46 8c3b
000003f0: 2008 0c3c 340d 763c 1baf a73a 8a97 3abc
-0.019774597 -0.019497309 -0.033328123 -0.021253191 0.0022506786 -0.0031891046 -0.018036842 -0.023474174
0.013017032 -0.0019333792 -0.02970807 -0.01748629 0.004593082 0.029484097 -0.0034564564 -0.0037588738
-0.0063066976 0.020179164 0.01591021 -0.0067757866 -0.018134935 -0.0054370766 0.0069767768 -0.017449707
-0.015078752 -0.0003923807 -0.017292922 -0.018099291 -0.007613674 -0.0062644104 0.0009583328 0.022440454
-0.029897511 0.0001247772 -0.020606045 0.008142622 -0.025335317 -0.018422045 0.0022745444 -0.023339337
0.004116585 0.011781419 -0.012995879 0.015975565 0.008508487 0.0030656974 0.0004765169 0.01358099
-0.049634837 0.031737406 -0.01591361 -0.039262734 -0.012851288 -0.04337517 0.021266975 0.018675435
-0.006010048 -0.003918877 -0.028799197 -0.026287127 -0.028321085 -0.0062670754 -0.0041916915 -0.020253716
-0.018688047 0.008858875 -0.011628989 0.013482119 -0.022009319 -0.0015606136 -0.028320055 0.011069382
0.0072513158 0.02999299 0.029848022 -0.011183784 0.012161078 -0.0018594248 -0.014206671 -0.016359165
-0.018708888 -0.007602154 -0.005692842 0.011348024 0.012568476 0.0037884878 -0.012342873 0.010339858
0.026518239 -0.02598604 -0.0004467438 0.0016738174 -0.0103412885 -0.01973244 -0.03276395 0.020633517
0.008903591 -0.063190214 -0.031719875 -0.00017862943 0.0021136699 -0.0043957084 0.015986126 -0.017847508
-0.06007408 0.0047303266 0.0357137 -0.00012463036 -0.020228853 0.020343935 -0.03645876 -0.023253186
0.015903652 -0.020478679 0.010258049 -0.017121956 -0.007838363 -0.022216216 -0.023178728 -0.044595376
0.012787354 -0.020773506 -0.01051348 0.0011794661 -0.007184278 -0.0038818412 -0.0229375 -0.010519805
0.0015637951 0.0014630124 0.005836087 0.034659363 -0.017714811 0.007382584 0.010737621 -0.004707712
-0.0017997213 0.01702088 0.013653522 -0.0039139977 0.007396262 0.0005901571 0.022976326 0.006122297
-0.0137952715 -0.0054373546 0.010667067 0.0028623682 0.0024633594 0.008285703 0.009588555 -0.0011106182
-0.0078064725 0.009532046 0.0008800636 -0.009019121 0.019603694 0.009814759 -0.015590437 -0.006607155
-0.01891036 -0.0054861666 -0.0030046115 0.011471315 0.0135286385 0.008935449 -0.0067448188 0.0029071704
0.00057338906 -0.026820503 -0.008543909 -0.0015189226 -0.0054916847 -0.0130075235 -0.0021170618 -0.00602372
0.039677996 -0.025844842 0.0053560184 -0.0021271417 0.023156725 0.020799933 -0.0043530436 -0.007124546
0.008081955 0.009921556 0.034854792 0.011136734 0.0143023925 -0.003784018 -0.007379828 0.026760353
-0.007234042 -0.009558828 -0.008861441 -0.0044903303 0.017483154 0.004961855 0.04134214 -0.0074077887
0.004035512 -0.014796359 -0.020114448 0.015601153 -0.025566287 0.016074158 -0.0011063559 0.0016039471
0.014505393 -0.0027177415 -0.017138856 -0.0065501574 0.00839718 -0.011017425 0.009566141 0.009010649
-0.0012498343 0.015510355 0.02040421 0.00422758 -0.00344643 0.0045715333 -0.030108724 0.0073528932
-0.0059072142 0.012223622 0.015412192 0.015801666 -0.01983857 -0.012551262 -0.006198768 -0.002243511
0.0052883644 -0.012901348 -0.010443648 -0.000990849 0.01628634 -0.009855172 0.0015326672 -0.0038327237
-0.0068548843 -0.0055273715 -0.016201442 0.014552797 0.014666143 0.011717487 0.02373342 -0.020642731
-0.0028972002 0.0076479483 0.0028009089 0.0042809094 0.008546859 0.015017796 0.0012793274 -0.011388669

discrete_action_output_shape f4 [1, 2]
00000000: 0000 4040 0000 4040
3.0 3.0

network_body._body_endoder.seq_layers.0.bias f4 [128]
00000000: 2515 333d 2a83 bdbc 8a72 683d 47ce 4fbd
00000010: dca5 6e3d 1e9e 453d 9b9f 473d 8d4d 4cbc
00000020: bcc2 553d 036e 673d cc41 f9bb d172 503c
00000030: 0830 6f3d 3341 d9bc 819d f8bc 8ece 49bc
00000040: 8918 833d ee99 5e3d dd43 27bd cfbd ff3b
00000050: 73d7 bb3c d64f 4f3c d1ed 1b3d b70b 37bc
00000060: 020c 173d e336 bc3d bf6b f3bc 4f96 963d
00000070: 8e7f b83d 8718 31bd ec3c 843d 839f fe3b
00000080: 756e 253b c767 d1bc 2f33 893c ea0f e1bc
00000090: b3c6 8bbc e4d6 cb3d 890f 01bd 5498 c6bc
000000a0: ca82 97bc 3c11 d53b 33c4 b13b a2ee 25bd
000000b0: 799d 863d de1c 8b3d 80f4 093d c2e4 91bd
000000c0: fa0a 04bc de93 313d f6e2 ec3c 8ffd 6a3d
000000d0: 183a e63c 0f35 3dbd 3d6f 0b3d 1f53 e43c
000000e0: c269 823c aa96 05bd 7ccd 883c b400 a33d
000000f0: 440e e23b ea32 0fbd 687f 4e3c 97a9 103d
00000100: 9035 9fbc 5940 8b3d 3789 01bd bb05 3f3d
00000110: df1e 0c3d d3e1 1f3d 8035 6bbc c2d3 473d
00000120: 18ac a23d 902f ee3c 4699 e03c aea7 413d
00000130: 3820 c73c b7fe 7bbc d8ec 343d ea44 f23c
00000140: 7a04 5b3d 36d1 2f3d 922b 563b f53c e33c
00000150: 5e76 d13c 2462 4f3d 76cb 7abd 0fa6 d53c
00000160: 1b03 973c 3756 24bd 0b65 bd3c 02fa 613d
00000170: c75e 283d e13d 8a3d 86be 17bd e508 1e3d
00000180: 50e5 963d d51f 823d 9e9e c8bc be75 333d
00000190: 7e8c 063d 0907 77bd ec1e 963d 24eb 843d
000001a0: 23e0 853d a6f9 313c d9f5 26bd 8087 a03d
000001b0: 3ba1 933b 9787 003d 1186 cbbd 5c24 40bc
000001c0: 8433 b73c f84a 1e3d 4bd6 443d 696f 973d
000001d0: fb73 c33c fd7e 9ebc ed34 5ebc 9ed3 153d
000001e0: 88b5 d93c d554 2f3d 951c a23a 8116 873d
000001f0: d377 aa3c f29f 753d c8d5 c5bc 9c26 df3c
0.043721337 -0.023133833 0.056749858 -0.05073383 0.058263645 0.048246495 0.048736196 -0.012469661
0.052187666 0.0565014 -0.0076067206 0.012722687 0.058395416 -0.026520347 -0.030348541 -0.012317313
0.06401164 0.054346018 -0.040836204 0.0078046094 0.022929883 0.012653312 0.038068596 -0.011172227
0.036876686 0.09190156 -0.029714463 0.07352888 0.09008704 -0.04323628 0.064569324 0.00777048
0.002524284 -0.02556218 0.016748039 -0.027473409 -0.01706252 0.099530965 -0.031508956 -0.024242558
-0.018494982 0.0065022986 0.005425 -0.04051078 0.06573004 0.06792615 0.03368044 -0.0712371
-0.008059258 0.043353908 0.028916817 0.05737072 0.028103873 -0.04619318 0.034041632 0.027871666
0.01591957 -0.032614388 0.016699545 0.079591185 0.0068986733 -0.034960665 0.012603618 0.035317983
-0.01943472 0.06799383 -0.031625 0.046636324 0.03420913 0.039033722 -0.014356017 0.048785932
0.079429805 0.029075414 0.027416836 0.047279052 0.024307355 -0.015380553 0.044171184 0.029573876
0.053471066 0.04292413 0.0032679779 0.027739028 0.025569137 0.050630704 -0.06122919 0.02608016
0.018434098 -0.040121283 0.02311947 0.055170067 0.04110601 0.06750084 -0.03704693 0.0385827
0.07367957 0.06353728 -0.024489697 0.04381346 0.032848828 -0.060309444 0.07330117 0.06490162
0.06536891 0.0108627435 -0.040761802 0.078383446 0.004505304 0.03137931 -0.099376805 -0.011727419
0.022363432 0.038645715 0.04805593 0.07394297 0.023859015 -0.019347662 -0.013562423 0.036578767
0.026575819 0.04280551 0.0012368137 0.06596089 0.02080909 0.05996699 -0.02414979 0.02724009

network_body._body_endoder.seq_layers.0.weight f4 [128, 66]
00000000: 892d 013e 324f 1cbd cc6e 06be 335b b1bb
00000010: 0456 f53d 86e9 3a3e 0df0 94bd 5b7a 1e3e
00000020: 8aca d13d 97f4 e5bc bfbf aa3d 6f7c a83d
00000030: a558 793d 1e61 92bd 6728 91bc b3d1 e33d
00000040: a743 67be cb4a 8e3e 32d4 37be 726c 8f3c
00000050: e8c3 1fbe df03 89bb a72a 1dbe c04b e83d
00000060: 8cc1 933d 81bc a7bc 7dcd 88bd 23b9 6b3e
00000070: 0f55 403c ecbf 6dbc a842 6dbd af3c c13b
00000080: e682 8cbb f29e 993e b77a 603d a349 0f3e
00000090: 10ee 003e 8bc0 43be 25da 66bd 73dd bdbd
000000a0: 583f b53d 6d49 993c 5b75 49be 706e 473e
000000b0: 9e31 84be a9c2 4b3d 2bed 733d 8565 573e
000000c0: 4c93 313e 168e 2abe d21c 763b b3ae 12bd
000000d0: 283d c9bd fc51 67be e037 2d3e 2a00 823e
000000e0: 3dbb 793e 485a 883e 9ec0 43be 99ff 91bd
000000f0: 3db5 003e 4a7c 1d3e 8b71 75bd 8fb3 df3c
00000100: 6ebf 53be 1738 0ebe 224f b63d 1019 1b3e
00000110: 4531 abbd 855d ed3d 964a 1c3d 6d84 39bd
00000120: 0cfb b53d fa32 3dbd 0141 86be 01b2 2bbe
00000130: ebe4 70bd 939b e93d 6a01 a73e ea15 f13d
00000140: 5e5f c83c 2ee4 0b3e e670 a2bd 24da e9bd
00000150: ddbf 5dbd c890 7ebd d075 eabc 020b 97bd
00000160: 44ba b8be 343a b6bd b709 d6bc 3d40 adbd
00000170: 4590 143c 7d73 b63d 4139 a1bc 5ddd 093d
00000180: 2d7d 17bc beb8 4d3d 53d8 803d 6c49 9f3e
00000190: 3dca 9cbc 189c 803e 1dee 683e 09a3 f1bd
000001a0: 6074 b6be 7c89 f43c fb3c eabd 52f7 34bd
000001b0: 1f6a eabd 3b09 853e 41bf 563d 4ea6 1cbd
000001c0: 229f fe3d 3e02 333d 2d14 4cbd ed4b a1bd
000001d0: 6f50 32bc d51d 593c 47fe b33d fc78 dbbd
000001e0: c332 23be 1ac5 2fbd d39b c03c 4138 dfbd
000001f0: d826 62bd ae6d 8b3e 6d2b 45be 3920 cdbb
00000200: ef80 adbd 59a4 9bbd 049e 9ebe 9a6f d33d
00000210: a12c 34bd 4507 a0bc 8e3b 333d ca9a 82bd
00000220: e11b 41bc 95a3 2fbd cdb3 65be 8ae6 9e3e
00000230: 00a9 ebbd 1bc8 eabc 7b0f b3bc a975 8b3d
00000240: bcf3 213e bb36 a23d abb0 893d 23b2 fbbc
00000250: 495a b7bd c7a3 453e 000a 70be d9c3 f23d
00000260: 6427 90bd d1ed 0cbd a169 cb3d 05b8 603d
00000270: ad35 423e a679 253c 2c61 3b3e d922 2c3e
00000280: 77c7 993d 4e3c 5b3e dccf e73d 5c9c 3e3e
00000290: b16c 8abe eb72 383d 2d2e cabd 3906 163e
000002a0: e0a3 0dbd 695f e2bb a052 c9bd 4212 8ab9
000002b0: ad88 82bb fc4c 3a3e adec a6bc 1ca0 4bbd
000002c0: 09b4 fb3d 1f75 18be 44c1 ac3d 5f8d a13d
000002d0: 7207 743d 7f44 73bd a5e1 053e 6f3e 09be
000002e0: d853 a3bd 88ab a5bd cc37 853e 03d6 8f3d
000002f0: f86f babd 5136 ca3d 31e7 67bb 76ef febb
00000300: 00fb 893e 0cf0 94bc bd56 e43d 0188 2abd
00000310: e4b3 8f3e 8cc0 293d 65d7 6e3d bb7e 1e3d
00000320: d101 493e 16f8 cdbd ed09 7d3c 9630 72be
00000330: 735f 0c3e 252f ad3d 6b52 d53c fff2 e4bd
00000340: 93dd 1bbd 79ba 3bbd 0685 363c 2364 61bd
00000350: ce94 893c c1d0 8b3e cdd2 c83d 4479 7fbe
00000360: 8acb 493c 9509 80bd b5c6 e13d eb29 a8bc
00000370: f2aa dfbd c313 c7bc 293f 603e 1f01 b2bd
00000380: f24f 5fbe d713 f63b 1655 9d3e 05d8 3cbd
00000390: 8bb8 0abe 31ea 4bbe edb4 9abd fd08 86be
000003a0: 8950 63bd afbe c83c de70 963d 7f42 48bd
000003b0: 512e 393d 9a71 febd 3d42 cc3d 0708 1d3d
000003c0: ed00 c23d 21d3 0abe c315 c23c 50e2 a03d
000003d0: ccd7 a1bd 742f 65bb ee96 8bbe a509 cabd
000003e0: fb39 4cbe 2942 93bd a098 87bd 7d92 393d
000003f0: 24bb f23d 46ff 1bbe 80c8 88be 144f ba3d
0.12615027 -0.038161464 -0.13128203 -0.005412483 0.11979297 0.18253145 -0.072723486 0.15476362
0.102437094 -0.028070731 0.08337354 0.08226859 0.060875554 -0.0714743 -0.01771946 0.11123981
-0.22584401 0.27791438 -0.1795204 0.017507765 -0.15602076 -0.0041813697 -0.15348302 0.11342573
0.072146505 -0.020475628 -0.06679819 0.23019843 0.01173903 -0.01451109 -0.057924896 0.0058971266
-0.0042880652 0.30004078 0.05480453 0.13992934 0.12590814 -0.19116418 -0.056360383 -0.09270754
0.088499725 0.01871177 -0.19673674 0.19475722 -0.25819105 0.04974619 0.059552353 0.2103482
0.17341346 -0.16655764 0.00375538 -0.035811137 -0.09826118 -0.22589868 0.16915846 0.2539075
0.24387832 0.2663138 -0.19116446 -0.071288295 0.12569137 0.15379444 -0.059922736 0.0273073
-0.20678493 -0.13888584 0.08901812 0.1514628 -0.08359007 0.11590103 0.03815707 -0.045292307
0.08885774 -0.046191193 -0.2622147 -0.16767122 -0.058812063 0.114066266 0.32618266 0.11771758
0.024459537 0.13661262 -0.0793169 -0.1141856 -0.054138053 -0.062149793 -0.02862063 -0.073751464
-0.3607961 -0.0889782 -0.02612768 -0.08459518 0.0090676 0.089087464 -0.019680621 0.033658374
-0.009246153 0.050225012 0.062912606 0.31110704 -0.019139403 0.2511909 0.22747083 -0.117986746
-0.35635662 0.029850714 -0.11437412 -0.044181176 -0.11446022 0.25983605 0.052428488 -0.038244538
0.12432696 0.04370331 -0.04982393 -0.0787581 -0.010883435 0.013251741 0.08788734 -0.10716435
-0.15937333 -0.04291258 0.023511803 -0.108994015 -0.055212826 0.27232116 -0.19254847 -0.0062599448
-0.08471858 -0.07599706 -0.3097993 0.10324021 -0.043987874 -0.019534716 0.043757968 -0.0637718
-0.011786432 -0.042880613 -0.2243187 0.31035262 -0.115068436 -0.02865987 -0.021857968 0.06809551
0.15815634 0.07920595 0.0672315 -0.03072459 -0.089527674 0.19300757 -0.23441315 0.11853761
-0.07038763 -0.034406487 0.099322565 0.054862995 0.18965788 0.010099804 0.18298787 0.16810168
0.07508748 0.21409723 0.11318943 0.18614334 -0.2703605 0.04503147 -0.098720886 0.14650811
-0.03458011 -0.0069083464 -0.098302126 -0.00026335014 -0.003983578 0.1819343 -0.020376528 -0.04971324
0.12290198 -0.14888428 0.084353 0.078882925 0.059577413 -0.059391495 0.13074358 -0.13402723
-0.07974976 -0.080893576 0.26019132 0.07023241 -0.091033876 0.09873641 -0.0035385604 -0.007780011
0.2694931 -0.01818087 0.111493565 -0.04163361 0.28066933 0.041443393 0.058310885 0.03869508
0.19629599 -0.10057084 0.015444261 -0.23651347 0.13708286 0.08456258 0.026040277 -0.1117916
-0.038053107 -0.04583213 0.011140114 -0.05502714 0.016794588 0.27307704 0.09805832 -0.24948603
0.012316594 -0.062518276 0.110242285 -0.0205278 -0.10921277 -0.024301415 0.21899094 -0.0869162
-0.2180784 0.0075096893 0.30728978 -0.04610445 -0.1354696 -0.19913556 -0.0755404 -0.26178733
-0.055496726 0.024504988 0.073457465 -0.04889154 0.045210186 -0.124240115 0.099735714 0.038337734
0.09472833 -0.13557102 0.023692017 0.07855666 -0.07902488 -0.0034970911 -0.27263588 -0.09865121
-0.19943993 -0.071903534 -0.06620908 0.045305718 0.118521005 -0.15234098 -0.2671547 0.09097114

network_body._body_endoder.seq_layers.2.bias f4 [128]
00000000: 9ef0 053d 2a04 10bb d327 9fbc 5703 30bc
00000010: 2503 943d ee71 edbc 3c4c 5e3d 9ea2 11bd
00000020: b6e4 913c cc56 8b3d 9567 b53c 8c49 8cbd
00000030: 10fe a73d 069a 7a3d 07c3 e73c 213c efbc
00000040: f2a9 bebc 7fff da3c 878b 283d 7146 283c
00000050: ff75 53bc f283 713d d3ba 443c 3a80 713c
00000060: ac83 2abd 5480 333d ab1b e13c b9fe 60bd
00000070: d00a 173c 813a 093d 3194 1e3d 3ffb 623d
00000080: 6f5b 1fbd fb70 453d 9425 54bd 8774 143b
00000090: a750 c5bc 5f37 20bd 2d0b 463d 20e7 2f3d
000000a0: 174f 193d eb7c b13c ebfe 97bc c378 003d
000000b0: 46f1 193d be4f 7fbc 3e70 943d 932d 8e3d
000000c0: d789 a13c 5c8e 603d ca94 523d d4a7 e2bc
000000d0: a39b b1bc 99b8 13bd 0713 873d be80 773d
000000e0: 3737 30bd 64d2 ec3c 3a93 dbbc 4654 4a3c
000000f0: 3a24 37bd 37c2 d23c e82b 593d d43a 493d
00000100: 6a79 7cbd a08e 9f3d 944a ba3c 33eb b73d
00000110: 7b58 5bbc 6b37 88bc ccc3 2d3d e136 04bd
00000120: fe94 793d 65fb 693d 31ca 4c3d a5c1 673d
00000130: 0007 893d a861 0bbd 561e 253a 2a89 79bc
00000140: d222 e1bc 14df 483c 606e 4d3d f666 523d
00000150: 3af4 523d f7cb 8f3d d7c6 413d 20a6 c4bc
00000160: 8a6b 8c3d a142 c2bc 1d8e f1bc 682d 763b
00000170: bdd8 8e3d 1061 8e3d 727b 52bd 4c14 683d
00000180: 2a06 813d bb8a bbbc 8bee 923c 4c92 6fbb
00000190: d082 463d 2bb0 883d 85f7 9f3d 996d 663c
000001a0: 64b0 b3bc fcbd 223d c3c8 b13c 5032 2b3d
000001b0: 45a2 0c3d 20e1 383d 6038 29bc f142 d6bc
000001c0: 63b1 59bd 22a1 edba 4d80 193d 7254 29ba
000001d0: c623 9c3c b4ea 393d 8413 e53c bb78 13bd
000001e0: 174a 803d 4f6a 193d 6603 923c 5784 b93c
000001f0: 70d5 96b8 8f12 c33c 99c8 273c a04d 3abd
0.032700174 -0.0021975138 -0.01942817 -0.010742984 0.07227162 -0.02898499 0.05427192 -0.035555474
0.017809253 0.068036646 0.022144118 -0.068499655 0.082027555 0.061182044 0.028291238 -0.029203476
-0.023274396 0.026733158 0.04114869 0.010270701 -0.01290655 0.058963723 0.012007433 0.014740044
-0.04162948 0.043823555 0.027479013 -0.054930422 0.0092188865 0.03350306 0.038715545 0.05541539
-0.038905557 0.04820345 -0.05179365 0.0022652464 -0.02408631 -0.039115306 0.0483505 0.042945027
0.03742894 0.02166601 -0.018554172 0.031365167 0.037583612 -0.015582977 0.07247971 0.06942286
0.019719047 0.054823264 0.051411428 -0.027667917 -0.021680659 -0.036064718 0.06595426 0.060425512
-0.043021407 0.028908916 -0.026803602 0.012349194 -0.044712283 0.025727374 0.053020388 0.04912837
-0.061639227 0.077908754 0.02274064 0.089804076 -0.013387795 -0.016627988 0.042423055 -0.0322789
0.060933106 0.057124514 0.049997512 0.05658116 0.06690788 -0.03402868 0.0006298771 -0.015230456
-0.027482424 0.012260217 0.05015409 0.051367722 0.051502444 0.07021325 0.04730877 -0.024004996
0.06856449 -0.023713412 -0.02948671 0.0037563685 0.06974933 0.06952107 -0.051387258 0.05665998
0.06300004 -0.0228933 0.017936012 -0.0036555706 0.048464596 0.066742264 0.078108825 0.014064216
-0.021934696 0.039731964 0.021702176 0.04179603 0.03433444 0.04513657 -0.010328382 -0.026154967
-0.053147685 -0.0018129686 0.037475873 -0.0006459422 0.019060027 0.045389846 0.027963407 -0.03600381
0.062641315 0.0374549 0.017823886 0.022646112 -7.192313e-05 0.02381256 0.010240697 -0.045484185

network_body._body_endoder.seq_layers.2.weight f4 [128, 128]
00000000: d7be 1c3e 3d87 37be 8a34 cc3c 16b5 36be
00000010: 0a80 8c3c 7dae 963c ee86 f2bd f4b2 b53d
00000020: 4c7e 163e 1381 6c3d 0bae 983d 184b 8ebd
00000030: ddf0 3b3e 2b21 02be 93c5 6e3d 0fad 80bd
00000040: f8dd 923b 7ce2 29be bc6a 75be 1756 713c
00000050: 7a86 553d 923a b53d 6654 143e 9cd0 79bd
00000060: 536d 9f3c 134f a538 5f5c cd3c 7868 5d3e
00000070: a9eb 8a3c d1cc 8b3c f2fc f93d 62d2 c43d
00000080: dcef d93d 8e9f 003d 9043 043e ad9b 253c
00000090: 2be0 20be a11a 813d b411 84be c26a 903d
000000a0: 512a 8fbc 5630 efbd 911c b5bd f7ee c0bd
000000b0: 6e98 7a3d 8db0 133d ed09 843c ea68 c23d
000000c0: 7814 64be b86a 34be e7ee 543d 6c3d 84bd
000000d0: 5ef9 373d b603 c5bd adef 17be b933 cdbd
000000e0: cf69 f4bc 3e6a eb3d 1992 9abd baa1 2c3e
000000f0: 1643 cabd 8ef0 19bc 108b 193e 9559 263e
00000100: 08de b7bd f5c6 a63c 6858 4d3d f29e abbc
00000110: f5b1 de3d a5bc 903d 1f69 a4bd 763b 023b
00000120: 3aa4 f33c 8d7e a0bd 9936 933e 8f7d 1a3d
00000130: 4d79 92bc 60b5 f6bc 3fc7 903e aed8 5b3b
00000140: 87eb 88bd c582 92bd 6958 9fbb e6f2 923d
00000150: 6b02 83bd 948a 8ebb 4535 e3bd 8a6f b6bd
00000160: dffd b53d 4f64 3dbe f6ed b8bd 57f6 f23c
00000170: 9d72 a8bd 29ab 9fbe 5387 e2bd 7208 a9bd
00000180: 6102 f7bb 76be d03b 551f 173e 6251 553d
00000190: 6517 abbd 4c3a 203d 0619 f33a dfa8 9fbd
000001a0: 4ba3 cf3d 073d eabb 098a 35bd 4f97 b2bb
000001b0: 6fdd 1d3e 31a2 66bd 5227 7a3d fce7 dfbd
000001c0: 820c e9bd 4767 b3bb fc2d 01be 08ac 543d
000001d0: dd0b 3abd b8c4 11bc a4f9 37be 172f 4fbd
000001e0: bff2 f9bc 1135 253d 8e9c 92bc 858a f23c
000001f0: dd18 a33d b44c 8b3d 1d50 1abd d4d7 ba3d
00000200: 94c6 993d 3bea d8bd 7da2 f93d d062 c03d
00000210: 945c acbc c998 5f3d aaa3 ff3b 8c4c 58bd
00000220: 6e6d 21be aefe 23bd c4f9 9e3c 4f24 263d
00000230: 0502 5bbe 2344 183e 80c9 6fbc c676 393d
00000240: 8514 67be 7946 cfbd e14c 033d 3ad8 d23d
00000250: eb05 43bd 7e89 09bd 6b92 223d 9259 1abe
00000260: 94e6 0bbe 0123 30be 9642 a1bd 3097 a33d
00000270: 4b27 ba3d e930 17bd db35 afbb e716 cf3d
00000280: 38c5 7dbd e46b 653c c7fd a8bd 68d3 8e3c
00000290: 1579 043e e56b 393d 718e cf3d 3ad8 a73d
000002a0: 88a5 f53d 3845 373d 9da0 99bd 7d16 053d
000002b0: 9c62 42bd e853 ecbc d3e2 fabd 2eef 4e3e
000002c0: 55df da3d 6da5 393c e74b 2c3e cb7b f53c
000002d0: 63e3 7f3d 152d c33d de3c e4bd 0fff 7b3e
000002e0: 046e 2b3d ee12 bbbd 45b9 823e 639d 8c3c
000002f0: cb34 d63d 41a0 fc3d b6f6 af3d 3414 30be
00000300: a5be 103e 9a4c 07be fbae 1b3e c711 c83c
00000310: 893e 06be b770 0fbc 933d 2e3c cc5d e43c
00000320: 74cb 9a3c 882a a4bc 48cb 0fbe f1b5 d6ba
00000330: cad4 25be 2a9a 15be 3614 6a3c d8a6 b9bc
00000340: 9635 343d edc7 3b3e f4fe 423e 3822 40bc
00000350: a0a7 0fbe 6af9 eabd c30c cf3a 0eda 29be
00000360: 5c2b 803d d30f cabc 06fd 86be 4925 34bc
00000370: 702f e43d e8ed fdbc 7b2d bdbd 4b32 6e3c
00000380: 8c4e 113d cb8a 7b3c 3efb 34bd b615 2cbe
00000390: a99e 5c3d 2d3b 293d ee63 5f3d e1e0 693e
000003a0: f3dc 1ebc b80d 2bbe 5965 5dbb 40ff 21be
000003b0: e760 bf3b da88 56be 2199 c6bc df1b 9bbd
000003c0: bad0 b3bb 8b24 953d 56d9 c6bd 21cb b53c
000003d0: 75b7 a1bd c5e8 36bc 2f36 c53c f1ea 21be
000003e0: 7e7e 56be cf8a e0bd c217 533b 32ff 45bd
000003f0: acd0 02bd 84fd a03d c1dd c7bd 87e8 9c3d
0.15307175 -0.17922683 0.024927396 -0.17842516 0.017150898 0.01839375 -0.11842142 0.08872023
0.14696616 0.057740282 0.07455071 -0.06947917 0.18353601 -0.12707965 0.05829389 -0.06283008
0.004482027 -0.16590303 -0.23966497 0.014729998 0.0521302 0.08849062 0.1448532 -0.06098996
0.01946131 7.882542e-05 0.02506846 0.21621883 0.016958075 0.017065438 0.122064486 0.0961044
0.10641453 0.031402163 0.12916398 0.010107917 -0.15710513 0.06303907 -0.25794756 0.070516124
-0.017476233 -0.11679141 -0.08843339 -0.09420579 0.061180525 0.036057044 0.016118014 0.09492667
-0.22273433 -0.17618835 0.051985648 -0.06457028 0.04491555 -0.096198484 -0.14837523 -0.10019631
-0.02983561 0.114948735 -0.07547397 0.16858569 -0.09876077 -0.009395732 0.14994454 0.1624511
-0.08977896 0.020358542 0.05013314 -0.020949814 0.10873786 0.07067231 -0.08027863 0.0019871867
0.029741395 -0.07836638 0.28752592 0.0377174 -0.017880106 -0.030115783 0.28277013 0.00335459
-0.06685548 -0.071538486 -0.0048628342 0.071752355 -0.063969456 -0.004350016 -0.11094145 -0.08907993
0.08886313 -0.18495296 -0.090297624 0.02965848 -0.08224986 -0.31185272 -0.11060967 -0.08253564
-0.0075381254 0.006370361 0.14758046 0.052079566 -0.083540715 0.039118096 0.0018546886 -0.077958815
0.101385675 -0.0071483883 -0.044321094 -0.0054501663 0.15416501 -0.05630702 0.061072655 -0.109329194
-0.11379339 -0.005474958 -0.12615198 0.051921874 -0.04542147 -0.008896999 -0.17966324 -0.050582018
-0.030511258 0.04033381 -0.017896917 0.029607067 0.07963727 0.06801739 -0.03767406 0.09123197
0.07508579 -0.10591551 0.12189195 0.09393847 -0.021040238 0.054589067 0.0078014927 -0.052807376
-0.157644 -0.040037803 0.019406207 0.04056197 -0.21387489 0.14869742 -0.014635444 0.045279287
-0.22566421 -0.101208635 0.03205574 0.10295148 -0.047613066 -0.03357839 0.039690416 -0.15073231
-0.13662177 -0.17200853 -0.078740284 0.07987821 0.09089526 -0.03691188 -0.0053469962 0.1011179
-0.06195566 0.014002774 -0.08251529 0.01743479 0.12936814 0.045268912 0.101345904 0.08195539
0.11994463 0.044743747 -0.07501338 0.03249215 -0.047457322 -0.028848603 -0.122502945 0.20208427
0.106871285 0.0113309445 0.1682583 0.029966256 0.062472712 0.09530083 -0.11144422 0.24609016
0.041852966 -0.0913447 0.25531974 0.017164892 0.10459288 0.123352535 0.08591978 -0.17195207
0.14135225 -0.13212815 0.15203469 0.02442254 -0.13109793 -0.008754901 0.010634798 0.027876757
0.018895842 -0.020039812 -0.1404239 -0.0016381127 -0.16194454 -0.1460959 0.014287045 -0.022662565
0.043996416 0.18337984 0.1904257 -0.011726908 -0.14028788 -0.11473353 0.001579665 -0.16587088
0.0625827 -0.024665749 -0.26364917 -0.010995218 0.111418605 -0.030997232 -0.0923719 0.014538358
0.0354753 0.015352915 -0.044184916 -0.16805157 0.053862248 0.0413162 0.05453866 0.2283969
-0.009696233 -0.16704452 -0.0033782332 -0.15820026 0.005840409 -0.20950642 -0.02424294 -0.07573675
-0.0054875286 0.07282361 -0.09709422 0.022191586 -0.0789632 -0.011163895 0.024073688 -0.1581228
-0.2094669 -0.10963976 0.0032210206 -0.048339076 -0.031937286 0.07860854 -0.09759093 0.076615386
