results/TrainPeoplePuddlesHoles_NewPeopleDodgingStrategy_11Dicembre/MoveToGoal/MoveToGoal-2999977.pt (torch, 630839 bytes, 40 tensors)

discrete_act_size_vector f4 [1, 2]
3.0 3.0
00000000: 0000 4040 0000 4040

network_body._body_endoder.seq_layers.0.weight f4 [128, 66]
0.123984516 -0.02564092 -0.14445712 -0.010919669 0.09651184 0.18413313 -0.070981316 0.15701489
0.09143537 -0.030854866 0.08868691 0.09427266 0.063789055 -0.07203363 -0.015392133 0.1114099
-0.2298605 0.2829709 -0.18224883 0.033133883 -0.16263875 -0.007549692 -0.15277219 0.11295246
0.07367678 -0.015012075 -0.056760635 0.22868896 0.014563918 -0.010449555 -0.059802778 0.016317416
-0.00822685 0.2954281 0.060768656 0.14073254 0.13007589 -0.19473846 -0.04551925 -0.09078395
0.093146265 0.014028193 -0.19659904 0.19190867 -0.25716934 0.047809232 0.065422 0.21312241
0.17611381 -0.16479743 0.005619573 -0.03800002 -0.088318124 -0.2212754 0.17255855 0.2422764
0.25015712 0.25699538 -0.18865867 -0.06795541 0.1305168 0.15610921 -0.055094354 0.025339456
-0.21517329 -0.13828996 0.093431056 0.15682758 -0.09035139 0.120196655 0.030682225 -0.04666564
0.085763946 -0.03140461 -0.26668867 -0.16881824 -0.06313039 0.11562442 0.3275285 0.1205699
0.027315255 0.14042185 -0.058824476 -0.10777125 -0.06224577 -0.039965767 -0.032228462 -0.07004983
-0.35819373 -0.092014395 -0.02355523 -0.08697749 0.014735424 0.08954727 -0.007976304 0.038008917
-0.012612283 0.057815444 0.06424985 0.30558854 -0.008537321 0.24675433 0.22984138 -0.13019785
-0.35979065 0.028327968 -0.10307131 -0.04521042 -0.11222676 0.2506108 0.053007513 -0.033632584
0.12610656 0.03890445 -0.049210444 -0.082203425 -0.002884604 0.0019287674 0.086614534 -0.1066813
-0.15612371 -0.060594775 0.02298651 -0.09969213 -0.05629668 0.26591247 -0.19470643 0.0061836964
-0.076457605 -0.093094885 -0.3173928 0.1000538 -0.051104948 -0.005404364 0.03130386 -0.07438316
-0.037587535 -0.04143344 -0.2237454 0.3103422 -0.12878673 -0.03473663 -0.009974089 0.07956253
0.15819642 0.08042068 0.06994021 -0.035213497 -0.085766785 0.19741803 -0.23841265 0.13008584
-0.07715189 -0.041108638 0.09327528 0.05200041 0.19056633 0.01605501 0.19448675 0.16010596
0.07670846 0.21741043 0.10851841 0.20006227 -0.27690303 0.037097577 -0.098479465 0.14436427
-0.032397382 -0.0059666894 -0.08879695 -0.0016827447 0.0048413565 0.17916754 -0.023173645 -0.044642027
0.12441658 -0.15106699 0.08685384 0.0784921 0.060230378 -0.053915635 0.13162902 -0.13666043
-0.06788083 -0.07235029 0.2610169 0.06657992 -0.081602454 0.09035606 0.0020615796 -0.005308628
0.27486512 -0.016608031 0.11474443 -0.041041896 0.27451745 0.045745756 0.07817825 0.027820328
0.21619314 -0.08197995 0.025498345 -0.23408738 0.13759276 0.105767675 0.043338235 -0.10257475
-0.04856723 -0.051320963 0.021008331 -0.056830514 0.019799076 0.2808262 0.124018185 -0.23951313
0.010933501 -0.024159279 0.11901802 -0.012543904 -0.10484815 -0.020593 0.22481872 -0.08974702
-0.2266744 0.014935236 0.30985788 -0.041128054 -0.12909111 -0.18112478 -0.06544531 -0.26068425
-0.045552686 0.024226332 0.07603231 -0.044824827 0.03450749 -0.12384895 0.099293314 0.048781577
0.10256954 -0.13797966 0.025348222 0.08999041 -0.08331509 -0.0077913767 -0.26865792 -0.103882276
-0.19430645 -0.07265424 -0.079825535 0.042847298 0.12239156 -0.15728132 -0.27377307 0.10763263
00000000: 98eb fd3d e80c d2bc 91ec 13be 69e8 32bc
00000010: 00a8 c53d 658d 3c3e a75e 91bd 83c8 203e
00000020: 7842 bb3d 58c3 fcbc 7ca1 b53d 0612 c13d
00000030: d6a3 823d 5e86 93bd 492f 7cbc e02a e43d
00000040: 8d60 6bbe 90e1 903e 709f 3abe 65b7 073d
00000050: c68a 26be 6863 f7bb 5070 1cbe 9f53 e73d
00000060: dae3 963d 35f5 75bc d77d 68bd 702d 6a3e
00000070: 809d 6e3c 9c34 2bbc c2f3 74bd 1aac 853c
00000080: e9c9 06bc 5a42 973e 8ee8 783d 311c 103e
00000090: 9d32 053e 8569 47be 6572 3abd f0ec b9bd
000000a0: 78c3 be3d 82d6 653c 4251 49be b583 443e
000000b0: b3ab 83be 9dd3 433d f8fb 853d c33c 5a3e
000000c0: 2e57 343e a8c0 28be 6524 b83b e9a5 1bbd
000000d0: 22e0 b4bd 0596 62be 30b3 303e 4e17 783e
000000e0: 9814 803e e694 833e bd2f 41be 352c 8bbd
000000f0: 32a6 053e 18db 1f3e 9eaa 61bd b194 cf3c
00000100: 6356 5cbe e29b 0dbe c858 bf3d 6997 203e
00000110: 260a b9bd aa29 f63d 4a59 fb3c 7824 3fbd
00000120: 02a5 af3d 1fa2 00bd 6b8b 88be b0de 2cbe
00000130: 824a 81bd 7fcc ec3d d1b1 a73e 5aed f63d
00000140: 3ec4 df3c bfca 0f3e eff1 70bd 2cb7 dcbd
00000150: 6cf5 7ebd 25b3 23bd fe01 04bd 4976 8fbd
00000160: 2b65 b7be 0b72 bcbd e6f6 c0bc 4121 b2bd
00000170: d96c 713c 8f64 b73d 0baf 02bc 3daf 1b3d
00000180: c0a3 4ebc e3cf 6c3d 6d95 833d 1a76 9c3e
00000190: 1fe0 0bbc 2bad 7c3e 8a5b 6b3e 9652 05be
000001a0: 7b36 b8be 0e10 e83c 0d17 d3bd 902e 39bd
000001b0: 25d7 e5bd 0f50 803e 681e 593d 52c2 09bd
000001c0: 1422 013e 465a 1f3d e490 49bd 455a a8bd
000001d0: a00b 3dbb b2ce fc3a f662 b13d ba7b dabd
000001e0: e5de 1fbe 3a32 78bd 354e bc3c 632b ccbd
000001f0: 5997 66bd ae25 883e 1f61 47be 9ba0 ca3b
00000200: ce95 9cbd 88a8 bebd 4f81 a2be 02e9 cc3d
00000210: 6c53 51bd 1717 b1bb 7a38 003d 3356 98bd
00000220: 63f5 19bd 1cb6 29bd 841d 65be 2ce5 9e3e
00000230: abe0 03be ff47 0ebd 5d6a 23bc aef1 a23d
00000240: 3efe 213e 99b3 a43d d03c 8f3d 073c 10bd
00000250: 7fa6 afbd f427 4a3e 7222 74be 3935 053e
00000260: cf01 9ebd 8861 28bd 1c07 bf3d 62fe 543d
00000270: d223 433e cc85 833c 8927 473e d1f2 233e
00000280: 5319 9d3d d7a0 5e3e e63e de3d 20dd 4c3e
00000290: 3cc6 8dbe a1f3 173d 9aaf c9bd 3ad4 133e
000002a0: 1eb3 04bd 3884 c3bb 2ddb b5bd 8b8f dcba
000002b0: 3ea4 9e3b b277 373e a8d6 bdbc 8fda 36bd
000002c0: 1fce fe3d 4eb1 1abe 6de0 b13d 77c0 a03d
000002d0: 21b4 763d a4d6 5cbd c2c9 063e b6f0 0bbe
000002e0: 1b05 8bbd 642c 94bd 02a4 853e 0e5b 883d
000002f0: 301f a7bd 990c b93d 911b 073b 00f4 adbb
00000300: 1fbb 8c3e 910d 88bc 21ff ea3d 8c1b 28bd
00000310: 8d8d 8c3e e75f 3b3d eb1b a03d 75e7 e33c
00000320: bc61 5d3e 1be5 a7bd e8e1 d03c 9ab4 6fbe
00000330: 1ee5 0c3e b99c d83d 6f83 313d b612 d2bd
00000340: 6fee 46bd ee35 52bd aa19 ac3c 1dc7 68bd
00000350: ac31 a23c 74c8 8f3e 3ffd fd3d ee42 75be
00000360: 6d22 333c aee9 c5bc b8bf f33d f284 4dbc
00000370: a0ba d6bd a7b2 a8bc e136 663e 49cd b7bd
00000380: 551d 68be ecb2 743c b1a5 9e3e e475 28bd
00000390: 7630 04be c678 39be 3108 86bd 6878 85be
000003a0: 7495 3abd 4d76 c63c d4b6 9b3d 3d9a 37bd
000003b0: ba57 0d3d 85a4 fdbd 4b5a cb3d 31cf 473d
000003c0: fb0f d23d 8a4a 0dbe 13a7 cf3c e44c b83d
000003d0: 1aa1 aabd ce4e ffbb 888d 89be 3bc0 d4bd
000003e0: 45f8 46be bfcb 94bd 927b a3bd a680 2f3d
000003f0: 6da8 fa3d 5b0e 21be fc2b 8cbe 7f6e dc3d

network_body._body_endoder.seq_layers.0.bias f4 [128]
0.0489162 -0.025100004 0.06242452 -0.052179288 0.0615026 0.06225276 0.05904972 -0.014004238
0.056081366 0.059320547 -0.008120942 0.014525088 0.06486433 -0.026150584 -0.032602027 -0.01836262
0.07493752 0.057538297 -0.043817736 0.010363047 0.022975301 0.012878407 0.042653877 -0.021459721
0.035089083 0.09726718 -0.032868616 0.08192038 0.09778453 -0.04468851 0.07236092 0.006595467
0.003463837 -0.034144573 0.0210887 -0.028570052 -0.019412396 0.109394 -0.03744352 -0.026106818
-0.017794015 0.005771846 -0.0001858572 -0.042802285 0.07350258 0.0740224 0.038080685 -0.08657399
-0.009488067 0.046891212 0.02862247 0.06511612 0.03081877 -0.05275003 0.04068311 0.029818153
0.013638865 -0.03573375 0.017408812 0.08695468 0.00433176 -0.039034184 0.014355473 0.04031041
-0.022029191 0.07741204 -0.037378 0.04689803 0.041717142 0.0454336 -0.016589535 0.05431387
0.08081083 0.032610606 0.030445972 0.05523064 0.023818184 -0.015793296 0.051251974 0.032794476
0.05849066 0.046376433 0.0024866387 0.033198237 0.027564822 0.051805526 -0.07089174 0.027838692
0.027129583 -0.049189456 0.026782261 0.059502967 0.042046722 0.06917008 -0.03870405 0.053035997
0.07536198 0.06473791 -0.026266806 0.050800454 0.036150686 -0.06912443 0.08093043 0.06831708
0.06854959 0.012284452 -0.04401825 0.08440386 0.005194057 0.031558864 -0.10505881 -0.015224487
0.027409583 0.046649203 0.053856608 0.08170663 0.023705648 -0.02124143 -0.015641952 0.039869536
0.030171813 0.04017874 0.005503079 0.07361158 0.025857907 0.069071725 -0.029590495 0.029344536
00000000: 5a5c 483d 869e cdbc dab0 7f3d f3b9 55bd
00000010: 26ea 7b3d c0fc 7e3d 1fde 713d 0872 65bc
00000020: 93b5 653d 1afa 723d b30d 05bc a2fa 6d3c
00000030: 97d7 843d c039 d6bc b489 05bd 356d 96bc
00000040: d878 993d 47ad 6b3d 3a7a 33bd c5c9 293c
00000050: b336 bc3c f4ff 523c d5b5 2e3d 4ccc afbc
00000060: 92b9 0f3d 0434 c73d 3ea1 06bd dfc5 a73d
00000070: 4143 c83d 4d0b 37bd f631 943d ca1e d83b
00000080: 8b01 633b 2edb 0bbd 36c2 ac3c be0b eabc
00000090: bf06 9fbc f609 e03d 605e 19bd f7dd d5bc
000000a0: c1c4 91bc c121 bd3b aae2 42b9 7351 2fbd
000000b0: 8588 963d 0e99 973d 7efa 1b3d b44d b1bd
000000c0: d673 1bbc 0011 403d ac79 ea3c 9a5b 853d
000000d0: a577 fc3c 6a10 58bd 55a3 263d 3345 f43c
000000e0: 8c75 5f3c 8d5d 12bd ed9c 8e3c 4c15 b23d
000000f0: 70f1 8d3b 4fe2 1fbd 3833 6b3c 871c 253d
00000100: 9076 b4bc 348a 9e3d ac19 19bd 2618 403d
00000110: 98df 2a3d 9518 3a3d c7e6 87bc 3878 5e3d
00000120: 2680 a53d b392 053d d569 f93c 8639 623d
00000130: 5a1e c33c f160 81bc 97ed 513d 8053 063d
00000140: e793 6f3d 37f5 3d3d e0f6 223b e0fa 073d
00000150: 9fcf e13c 0832 543d b02f 91bd f80d e43c
00000160: dc3e de3c e27a 49bd 7966 db3c 62b9 733d
00000170: 2f39 2c3d 0ba9 8d3d 2388 1ebd 463c 593d
00000180: 6257 9a3d 4f95 843d 7c2d d7bc 2314 503d
00000190: be12 143d 1c91 8dbd dabe a53d d3e9 8b3d
000001a0: ba63 8c3d ba44 493c 7b4c 34bd eedb ac3d
000001b0: e832 aa3b de43 013d 1329 d7bd 2070 79bc
000001c0: 108a e03c 3c13 3f3d bf98 5c3d ce55 a73d
000001d0: 5932 c23c 8202 aebc 8d23 80bc 3d4e 233d
000001e0: e12a f73c 7692 243d 2c53 b43b abc1 963d
000001f0: f6d3 d33c 7a75 8d3d c467 f2bc f463 f03c

network_body._body_endoder.seq_layers.2.weight f4 [128, 128]
0.15477791 -0.1729637 0.021858081 -0.19451538 0.019990332 0.028967114 -0.10911644 0.09098183
0.14557524 0.061315622 0.07038125 -0.06759806 0.18918821 -0.13293926 0.050655253 -0.057143405
0.018951453 -0.17234068 -0.24620515 0.0092354445 0.045147266 0.08372294 0.13969949 -0.066092364
0.02199081 -0.0020679734 0.008685294 0.22129692 0.016223857 0.013103561 0.11527764 0.097110175
0.10265817 0.025947472 0.124365084 0.027968572 -0.16705602 0.07787257 -0.26876083 0.0651574
-0.022481998 -0.1188558 -0.09163225 -0.102453984 0.06244416 0.025026662 0.0013657385 0.095600605
-0.22605 -0.17554493 0.04475021 -0.06501752 0.04669741 -0.101889975 -0.13646258 -0.11310247
-0.042525474 0.10624063 -0.077767484 0.18151748 -0.09705126 -0.017071296 0.14290626 0.16969913
-0.104382046 0.039463222 0.05226123 -0.021821892 0.121692054 0.08075223 -0.08169493 0.0046976004
0.028161144 -0.07607738 0.29981992 0.033096034 -0.018322716 -0.041829064 0.28557768 -0.0003722235
-0.06901415 -0.08184932 -0.0028665792 0.0728878 -0.064030506 -0.012155392 -0.10325903 -0.08462155
0.07925723 -0.18453358 -0.08079504 0.038577788 -0.080188595 -0.30831468 -0.14109467 -0.07380403
-0.014788542 0.004147808 0.13860741 0.044755306 -0.075326085 0.040130075 -0.0010207595 -0.077057935
0.09758545 -0.010621759 -0.055764675 -0.007051845 0.14389303 -0.078829214 0.055742893 -0.100863606
-0.11969842 -0.0033451444 -0.12157015 0.060824595 -0.056021053 -0.014093295 -0.19001937 -0.04030852
-0.037152223 0.035911735 -0.020810578 0.035743948 0.09717569 0.06635535 -0.02552147 0.09124745
0.07676672 -0.11274504 0.12113666 0.10611438 -0.017148174 0.039182883 0.007625002 -0.05623391
-0.16029009 -0.038886607 0.023581564 0.035234783 -0.21891567 0.15412152 -0.00955594 0.04482773
-0.2440964 -0.08285162 0.041445892 0.10385157 -0.049215548 -0.03479902 0.04325118 -0.1575615
-0.1340394 -0.1803194 -0.07741842 0.07307879 0.08631167 -0.030696958 -0.004291302 0.11321365
-0.06432549 0.01551108 -0.08537463 0.012947176 0.1447268 0.049695577 0.10016023 0.087739214
0.13171099 0.04642473 -0.07377484 0.038944636 -0.058314707 -0.027452147 -0.13221827 0.20220117
0.11512636 0.014358951 0.17492194 0.028091189 0.06879316 0.09639697 -0.12137269 0.25072804
0.05500645 -0.09022552 0.26616332 0.0030112078 0.105055965 0.12396726 0.08904098 -0.18308362
0.15559511 -0.14519364 0.15997407 0.025278809 -0.14676647 -0.008632361 0.015055598 0.022141626
0.027214384 -0.021203 -0.15179168 -0.00403993 -0.16170143 -0.13897364 0.015386542 -0.030523978
0.040950928 0.19123147 0.1947498 -0.013828154 -0.13905092 -0.11350214 -7.019319e-05 -0.17011458
0.06954078 -0.024268515 -0.27233782 -0.013133516 0.12195796 -0.029957036 -0.08018547 0.012938316
0.03372453 0.015119632 -0.037200943 -0.16391851 0.04881973 0.043869 0.057337202 0.2266287
-0.013369634 -0.16654624 0.005039332 -0.15872093 0.014033639 -0.20458561 -0.024607861 -0.06909313
0.007863327 0.07249526 -0.10482053 0.018405719 -0.07891184 -0.009327514 0.035274547 -0.16479863
-0.21957164 -0.10894042 0.00090399897 -0.052855343 -0.030880386 0.074769795 -0.09635027 0.07624032
00000000: 1a7e 1e3e 651d 31be b80f b33c 0a2f 47be
00000010: c4c2 a33c 714c ed3c 7178 dfbd af54 ba3d
00000020: ad11 153e 1726 7b3d 0b24 903d da70 8abd
00000030: 8eba 413e 3b21 08be e27b 4f3d 340f 6abd
00000040: 1440 9b3c 137a 30be 341d 7cbe 4350 173c
00000050: 57ec 383d ef76 ab3d 620d 0f3e 6f5b 87bd
00000060: 1226 b43c d686 07bb c34c 0e3c a99b 623e
00000070: e5e7 843c 51b0 563c af16 ec3d b3e1 c63d
00000080: 723e d23d cb8f d43c 1fb3 fe3d 591e e53c
00000090: bc10 2bbe a77b 9f3d 059b 89be 3e71 853d
000000a0: 2b2c b8bc ab6a f3bd b0a9 bbbd 65d3 d1bd
000000b0: 73c5 7f3d b704 cd3c 9402 b33a 40ca c33d
000000c0: a779 67be 0dc2 33be ff4b 373d e827 85bd
000000d0: c945 3f3d b1ab d0bd d9bc 0bbe 45a2 e7bd
000000e0: 312f 2ebd b094 d93d 8f44 9fbd b8df 393e
000000f0: d0c2 c6bd 1ad9 8bbc 0556 123e 9cc5 2d3e
00000100: 41c6 d5bd 30a4 213d df0f 563d d3c3 b2bc
00000110: af39 f93d 6d61 a53d ac4f a7bd 54ee 993b
00000120: 33b2 e63c 75ce 9bbd ff81 993e b58f 073d
00000130: 8519 96bc f454 2bbd 3d37 923e fe26 c3b9
00000140: 4a57 8dbd 9ea0 a7bd 38dd 3bbb 3346 953d
00000150: 6d22 83bd 6927 47bc 7879 d3bd 104e adbd
00000160: 9d51 a23d 5ff6 3cbe df77 a5bd be03 1e3d
00000170: eb39 a4bd 6cdb 9dbe 1f7b 10be 9126 97bd
00000180: a44b 72bc 56ea 873b 1aef 0d3e 5751 373d
00000190: 9044 9abd 6f5f 243d 01cb 85ba 8dd0 9dbd
000001a0: e1da c73d e306 2ebc 8069 64bd 2a13 e7bb
000001b0: b258 133e 3671 a1bd a952 643d 9491 cebd
000001c0: 7224 f5bd 363a 5bbb c5f9 f8bd 3623 793d
000001d0: 5576 65bd 90e7 66bc 7094 42be 8c1a 25bd
000001e0: ee2c 18bd 2f18 133d f27a aabc 3f68 123d
000001f0: 0c04 c73d 50e5 873d 6712 d1bc f1df ba3d
00000200: df37 9d3d dfe6 e6bd 7f16 f83d 7f52 d93d
00000210: 547a 8cbc 3b7e 203d 27db f93b 8755 66bd
00000220: 1623 24be 9047 1fbd 202e c13c 5952 103d
00000230: 6e2b 60be 08d2 1d3e 8490 1cbc 489d 373d
00000240: 68f4 79be 1cae a9bd 2bc3 293d 22b0 d43d
00000250: 3e96 49bd 6b89 0ebd 2628 313d cd57 21be
00000260: a041 09be a6a5 38be 8c8d 9ebd 55aa 953d
00000270: 2cc4 b03d 3078 fbbc 0d9e 8cbb 8fdc e73d
00000280: 15bd 83bd 2f22 7e3c e5d8 aebd 6420 543c
00000290: 4333 143e 978d 4b3d cf20 cd3d 9eb0 b33d
000002a0: 3fdf 063e dc27 3e3d 4317 97bd 6984 1f3d
000002b0: 67db 6ebd 53e3 e0bc 3a64 07be d30d 4f3e
000002c0: 5ec7 eb3d ce41 6b3c bd1e 333e 7e1f e63c
000002d0: 6ee3 8c3d c66b c53d 3f92 f8bd 6d5f 803e
000002e0: 714e 613d 28c8 b8bd 8f46 883e af57 453b
000002f0: 9527 d73d 8ce2 fd3d 1e5b b63d 467a 3bbe
00000300: 5354 1f3e a4ad 14be 3ed0 233e 8115 cf3c
00000310: f349 16be bf6e 0dbc c1ab 763c 5b62 b53c
00000320: b3f0 de3c eab1 adbc 476f 1bbe 6461 84bb
00000330: 0f95 25be 1b4f 0ebe d617 7c3c 6c0d fabc
00000340: 29bc 273d 2fd2 433e 7e6c 473e 7b8f 62bc
00000350: 5d63 0ebe cf73 e8bd af34 93b8 8432 2ebe
00000360: 656b 8e3d c4ce c6bc dd6f 8bbe f52d 57bc
00000370: 18c5 f93d 7568 f5bc 4838 a4bd 3bfb 533c
00000380: bc22 0a3d 55b8 773c 0460 18bd 41da 27be
00000390: 32f7 473d fbaf 333d 6ada 6a3d 5b11 683e
000003a0: 4f0c 5bbc 198b 2abe fb20 a53b bd87 22be
000003b0: 59ed 653c e47e 51be 6d96 c9bc b380 8dbd
000003c0: 2fd5 003c 6578 943d 25ac d6bd 97c7 963c
000003d0: 889c a1bd 6ed2 18bc 0b7c 103d f9c0 28be
000003e0: 63d7 60be 281c dfbd 58fa 6c3a d87e 58bd
000003f0: ddf8 fcbc e820 993d 4a53 c5bd e323 9c3d

network_body._body_endoder.seq_layers.2.bias f4 [128]
0.0394145 -0.0026779464 -0.021777505 -0.010435785 0.0784034 -0.03230359 0.057540037 -0.036657624
0.02304715 0.07669922 0.025390536 -0.07096051 0.0940507 0.07084101 0.031080812 -0.030820606
-0.024380585 0.034613155 0.047462836 0.014215702 -0.015450122 0.06504183 0.014307824 0.012456154
-0.043102205 0.05287334 0.032574456 -0.059164222 0.011006865 0.040683027 0.040666163 0.06262303
-0.04109434 0.054418888 -0.054370712 0.0023194347 -0.02334106 -0.04050584 0.056420974 0.044457193
0.04454886 0.02524517 -0.021182284 0.03811097 0.04372744 -0.016915418 0.087739386 0.07566719
0.018544892 0.061928574 0.056044407 -0.027407536 -0.023649013 -0.03731678 0.07442522 0.06865184
-0.043080658 0.033066146 -0.030331992 0.011100637 -0.045854643 0.029614307 0.0594348 0.052857153
-0.061054084 0.086491086 0.021765444 0.097946614 -0.015951801 -0.017398529 0.04767028 -0.034867108
0.06638606 0.0665114 0.057542693 0.06721378 0.07491314 -0.038905483 -0.0028739637 -0.01701772
-0.026974758 0.009442639 0.05799975 0.05647399 0.05901398 0.07883572 0.052575167 -0.026355017
0.07670554 -0.025720468 -0.03329376 0.006632074 0.07465782 0.07910154 -0.050459962 0.06592849
0.068586335 -0.023432283 0.016516946 -0.003739442 0.056035098 0.07130747 0.08522206 0.015094552
-0.022367101 0.04554761 0.024594977 0.040758636 0.040554244 0.047928207 -0.011861864 -0.029971534
-0.058223415 -0.0040453942 0.04478506 0.0011904951 0.021067532 0.049050674 0.030514434 -0.03274895
0.07267031 0.038255278 0.021605924 0.028624179 -1.1115065e-05 0.026045917 0.007010811 -0.052304696
00000000: 1971 213d 7c80 2fbb bd66 b2bc dbfa 2abc
00000010: f691 a03d c550 04bd 1aaf 6b3d 4e26 16bd
00000020: 60cd bc3c 7b14 9d3d d0ff cf3c be53 91bd
00000030: a79d c03d 1715 913d 309d fe3c 7f7b fcbc
00000040: cbb9 c7bc 86c6 0d3d 6468 423d fae8 683c
00000050: 8222 7dbc a734 853d 5d6b 6a3c e614 4c3c
00000060: f08b 30bd b791 583d cb6c 053d 2f56 72bd
00000070: 2356 343c 3fa3 263d 9091 263d 8140 803d
00000080: 8a52 28bd 57e6 5e3d d3b3 5ebd a801 183b
00000090: c035 bfbc 74e9 25bd ae19 673d bf18 363d
000000a0: de78 363d f5ce ce3c 7886 adbc 401a 1c3d
000000b0: 8b1b 333d 3492 8abc b5b0 b33d 66f7 9a3d
000000c0: 75eb 973c d1a8 7d3d d28e 653d c585 e0bc
000000d0: 93bb c1bc 7bd9 18bd 406c 983d 5699 8c3d
000000e0: 5875 30bd 5e70 073d cc7a f8bc 72df 353c
000000f0: 14d2 3bbd b499 f23c e871 733d be80 583d
00000100: d913 7abd 3d22 b13d 724d b23c 3c98 c83d
00000110: 5aad 82bc 5c87 8ebc e941 433d d0d0 0ebd
00000120: 6af5 873d 2137 883d e3b1 6b3d 61a7 893d
00000130: 0f6c 993d 5b5b 1fbd 1c59 3cbb bf68 8bbc
00000140: 2bfa dcbc 4cb5 1a3c 2591 6d3d 4551 673d
00000150: a5b8 713d 9f74 a13d 0f59 573d 7ae6 d7bc
00000160: cb17 9d3d bbb3 d2bc 0a5f 08bd de51 d93b
00000170: 33e6 983d fdff a13d 1baf 4ebd 8405 873d
00000180: fe76 8c3d 0ff5 bfbc 8c4e 873c 6d11 75bb
00000190: 0f85 653d a709 923d e788 ae3d 244f 773c
000001a0: 363b b7bc 2190 3a3d 687b c93c 87f2 263d
000001b0: 351c 263d 5e50 443d 4358 42bc dd86 f5bc
000001c0: ad7b 6ebd 3a8f 84bb 8a70 373d 630a 9c3a
000001d0: d195 ac3c 5ce9 483d 68f9 f93c c323 06bd
000001e0: 2cd4 943d 91b1 1c3d e8fe b03c 417d ea3c
000001f0: d77a 3ab7 3f5e d53c f2ba e53b 733d 56bd

action_model._discrete_distribution.branches.0.weight f4 [3, 128]
0.070907846 -0.044659965 -0.077995546 -0.036241364 0.08210761 -0.0735136 0.0022843482 -0.09833903
0.022365393 0.0070939153 0.04229678 -0.0743914 0.093240336 0.08255169 -0.011422376 -0.102180466
-0.06568434 0.022664485 -0.013812588 0.005246981 -0.12734844 -1.937689e-05 -0.016982263 -0.06467187
-0.106318764 0.023406444 0.028325655 -0.09467099 -0.03103274 0.04049577 0.039818063 0.086191945
-0.124004014 0.061049554 -0.09630163 -0.046373602 -0.11973446 -0.0987378 0.023781793 -0.00093818037
0.023949945 -0.007496525 -0.101831235 0.041461382 0.06249129 -0.035725255 0.038913023 0.11393186
-0.08884939 0.07059394 -0.013073769 -0.112102985 -0.030373761 -0.067150794 0.06512699 0.078059
-0.104964375 -0.014186365 -0.06989282 -0.06189745 -0.09574742 0.06230552 0.012354871 0.0074205655
-0.054923974 0.10419597 -0.044505004 0.07186728 -0.0918037 -0.090344965 0.012587116 -0.041087374
0.03041118 0.0712242 0.05160642 0.04498364 0.07459841 -0.06573034 -0.07606956 -0.09326388
-0.10106974 -0.04177197 0.051294014 0.031820398 0.044340186 0.067126915 0.087480284 -0.04208009
0.078904435 -0.10033929 -0.08977946 -4.3110966e-05 0.03503787 0.040793072 -0.08917605 0.07154434
0.06345852 -0.122052066 -0.09066988 -0.07287617 0.036032 0.07493922 0.0821499 -0.023439266
-0.13023217 0.031184053 0.00012322723 -0.010181705 -0.014275296 -0.01955779 -0.11108513 -0.08898915
-0.03086509 -0.10142377 0.04631057 -0.024350377 -0.04405017 -0.013454714 -0.023795899 -0.117904
0.08931621 -0.0208051 -0.005452653 0.020574657 -0.025455993 0.03327477 -0.034901835 -0.07780126
-0.0033946661 -0.05023568 -0.015545127 0.07837661 -0.08761023 0.113369465 -0.12179056 0.09902216
0.05820915 -0.19217512 0.0555103 0.05556911 -0.07206687 0.019873442 -0.09467984 0.009316382
0.11879686 0.05498751 -0.13395658 -0.059145175 0.11483595 -0.14836252 0.11814992 -0.06719546
0.06356839 0.046651386 -0.08307404 0.059657175 0.107477464 0.08767596 -0.079549335 -0.003211177
0.07899691 0.07679028 0.06848289 0.14207025 0.049279686 0.08747567 -0.14627546 -0.13679425
0.053140193 0.114830114 -0.0042270147 0.06318682 0.041421875 0.09029449 -0.17220515 -0.03742297
-0.03727255 -0.031727143 -0.16348019 0.025061853 0.053793114 0.063759655 -0.025321675 -0.12636639
0.09009229 -0.109184414 0.092228055 -0.06774772 0.027051905 -0.009068015 -0.13080451 -0.16717398
0.0436401 -0.04690463 -0.08376117 -0.18504801 0.1197181 0.122515514 -0.12320007 0.0805075
-0.15168978 0.0003021958 0.021674434 -0.09691385 -0.11163226 4.6923342e-05 -0.03350967 -0.00042619143
0.10110101 -0.060577445 -0.13692059 -0.100631125 -0.09849028 -0.12252676 -0.016802965 0.07809752
-0.039443057 0.10864987 0.014439798 0.066146776 -0.13702902 -0.055944353 0.07432145 0.029379746
-0.007242019 0.026182786 -0.04814626 0.12259334 0.031293515 -0.08088993 -0.08731648 -0.054546595
0.021355735 0.063588165 0.09864817 -0.13279645 -0.122693166 -0.12178125 0.013991514 -0.0091282595
0.049995694 -0.025809897 0.043329205 0.09564311 -0.08391455 -0.15220307 -0.1010508 0.10761465
0.0040342063 -0.11694116 0.10755078 0.064397894 -0.06752504 -0.056821004 -0.0532388 0.056373052
00000000: 2238 913d 5eed 36bd 21bc 9fbd d371 14bd
00000010: 0928 a83d 4c8e 96bd 01b5 153b f965 c9bd
00000020: a137 b73c 1374 e83b 633f 2d3d 855a 98bd
00000030: caf4 be3d dc10 a93d eb24 3bbc fe43 d1bd
00000040: 8385 86bd dfaa b93c 314e 62bc deee ab3b
00000050: a167 02be 8e8b a2b7 631e 8bbc af72 84bd
00000060: a7bd d9bd dfbe bf3c 340b e83c dde2 c1bd
00000070: 5f38 febc e4de 253d 4418 233d 6785 b03d
00000080: d1f5 fdbd 190f 7a3d ca39 c5bd 3ff2 3dbd
00000090: 5737 f5bd 0b37 cabd 09d2 c23c 38f0 75ba
000000a0: ad32 c43c 69a5 f5bb e58c d0bd 69d3 293d
000000b0: def6 7f3d a554 12bd 4363 1f3d 1b55 e93d
000000c0: abf6 b5bd 8e93 903d 5d33 56bc 4096 e5bd
000000d0: 65d2 f8bc 5b86 89bd 4d61 853d 66dd 9f3d
000000e0: 90f7 d6bd ed6d 68bc f823 8fbd 2e88 7dbd
000000f0: 3917 c4bd 1334 7f3d 166c 4a3c 3728 f33b
00000100: f6f7 60bd b264 d53d e14a 36bd 272f 933d
00000110: 9403 bcbd c806 b9bd 313a 4e3c 3c4b 28bd
00000120: de20 f93c fedd 913d 4161 533d c440 383d
00000130: 0dc7 983d a19d 86bd 5cca 9bbd 2201 bfbd
00000140: a7fd cebd 1619 2bbd ac19 523d 1b56 023d
00000150: 0e9e 353d d679 893d dd28 b33d 2c5c 2cbd
00000160: a698 a13d b07e cdbd 4bde b7bd 0cd2 34b8
00000170: df83 0f3d a316 273d efa1 b6bd d785 923d
00000180: 8af6 813d 6ff6 f9bd 21b1 b9bd 1a40 95bd
00000190: 4a96 133d bc79 993d 353e a83d b403 c0bc
000001a0: 955b 05be b375 ff3c 8f36 0139 2ad1 26bc
000001b0: eee2 69bc a937 a0bc 9a80 e3bd f23f b6bd
000001c0: c9d8 fcbc 44b7 cfbd 27b0 3d3d 717a c7bc
000001d0: f36d 34bd 2971 5cbc 9eef c2bc a777 f1bd
000001e0: 6beb b63d 756f aabc 2bac b2bb 2f8c a83c
000001f0: 1689 d0bc 204b 083d 3af5 0ebd 4456 9fbd
00000200: 0c79 5ebb eec3 4dbd fdb0 7ebc eb83 a03d
00000210: fe6c b3bd 402e e83d 546d f9bd 21cc ca3d
00000220: b86c 6e3d 8ec9 44be c55e 633d 6f9c 633d
00000230: cc97 93bd a1cd a23c 81e7 c1bd bda3 183c
00000240: c54b f33d 953a 613d ea2b 09be 3642 72bd
00000250: 1c2f eb3d 58ec 17be 96f8 f13d c69d 89bd
00000260: 2530 823d 8615 3f3d b922 aabd 155b 743d
00000270: 251d dc3d 748f b33d c3ea a2bd 9c72 52bb
00000280: 22c9 a13d 3944 9d3d c240 8c3d dd7a 113e
00000290: 7fd9 493d 7226 b33d 3cc9 15be cb13 0cbe
000002a0: 88a9 593d 0d2c eb3d c582 8abb 1768 813d
000002b0: fca9 293d 51ec b83d 8c56 30be d448 19bd
000002c0: 1aab 18bd 52f4 01bd 5a67 27be 844e cd3c
000002d0: 2b56 5c3d 6c94 823d 676f cfbc 3166 01be
000002e0: 4e82 b83d 149c dfbd 10e2 bc3d 51bf 8abd
000002f0: f59b dd3c 0392 14bc 9ef1 05be a82f 2bbe
00000300: f6bf 323d 121f 40bd fa8a abbd 3a7d 3dbe
00000310: c32e f53d 6ae9 fa3d 5150 fcbd 1ee1 a43d
00000320: 9154 1bbe 0970 9e39 958e b13c c57a c6bd
00000330: 749f e4bd 8ecf 4438 7041 09bd 7272 dfb9
00000340: 0c0e cf3d 0e20 78bd e934 0cbe b117 cebd
00000350: 46b5 c9bd 4fef fabd 5fa6 89bc 98f1 9f3d
00000360: 0b8f 21bd d383 de3d e794 6c3c f677 873d
00000370: 5651 0cbe e825 65bd d835 983d cbad f03c
00000380: 754e edbb 487d d63c 0335 45bd 3812 fb3d
00000390: a12d 003d 9fa9 a5bd fcd2 b2bd 406c 5fbd
000003a0: 39f2 ae3c 833a 823d 0d08 ca3d cbfb 07be
000003b0: 8e46 fbbd 7368 f9bd aa3c 653c b28e 15bc
000003c0: 49c8 4c3d 476f d3bc f779 313d 89e0 c33d
000003d0: 64db abbd 1fdb 1bbe b9f3 cebd 1265 dc3d
000003e0: 6031 843b d97e efbd 9543 dc3d 0be3 833d
000003f0: 914a 8abd 24bd 68bd ee10 5abd 6ee7 663d

action_model._discrete_distribution.branches.0.bias f4 [3]
0.06457835 -0.054936178 -0.018114025
00000000: a741 843d c204 61bd dd63 94bc

action_model._discrete_distribution.branches.1.weight f4 [3, 128]
-0.017659547 -0.02146696 -0.035056416 -0.025192235 0.008755732 -0.0046536466 -0.0127966115 -0.023538988
0.0098575335 0.004070971 -0.029052453 -0.020794857 0.014688149 0.028339587 0.0071105133 -0.003810529
-0.005193066 0.017902104 0.021854043 0.0010338043 -0.02176775 0.001588735 0.0023535755 -0.01118429
-0.013308286 -0.004798868 -0.0077171554 -0.020387996 -0.0063729286 -0.006526722 0.011470255 0.022484919
-0.034203865 -0.0004828198 -0.024002442 0.0075920536 -0.030207241 -0.023782093 0.010092364 -0.018908076
0.0015263916 0.010090979 -0.01565214 0.012053885 0.009062432 0.0030876715 0.0030202963 0.017591499
-0.04733672 0.036488943 -0.014195035 -0.044072386 -0.013360659 -0.046205632 0.022231348 0.02154531
-0.008584607 0.00090696407 -0.03171974 -0.016943045 -0.032841813 -0.0043076715 0.0035968034 -0.014458198
-0.021105537 0.009330993 -0.00510787 0.020575931 -0.02310409 -0.005573894 -0.025193518 0.00452773
0.014047191 0.030785147 0.029540768 -0.0062584253 0.018880064 -0.0052234423 -0.0076293373 -0.016868642
-0.025997382 0.0009673791 0.0018325726 0.013780827 0.017646553 0.008417122 -0.0064064437 0.008495865
0.02766609 -0.03002647 -0.0027091939 0.0026004056 -0.002549734 -0.0042827935 -0.039222594 0.021421758
0.00944875 -0.06549943 -0.030171636 0.0016118503 0.0032816944 0.002676206 0.023189878 -0.0043487838
-0.063548625 0.0053635095 0.031382933 0.0065069 -0.011439827 0.030465936 -0.039356437 -0.019256726
0.010508116 -0.019228905 0.0079241535 -0.018829826 -0.002376012 -0.015200539 -0.016994525 -0.04686982
0.01371435 -0.011993309 -0.010214555 -0.0010793774 -0.0018785355 0.003508273 -0.012093091 -0.009951357
0.004225696 0.0002467013 0.0004921765 0.025128616 -0.011167938 -0.0037429212 0.019260295 -0.019669583
-0.0010924594 0.025644893 0.010912703 -0.011502059 0.01621704 0.005853807 0.030409692 0.0037106806
-0.022396319 -0.00432787 0.020521102 0.015530107 -0.00802767 0.015882256 0.007592118 0.0016885296
-0.017827878 0.009183947 0.008553662 -0.013956216 0.011075613 0.0090858815 -0.004401655 -0.00054376415
-0.0269133 -0.004412835 -0.009213627 0.0069075017 0.006424369 0.003810293 0.00036739322 0.013221454
0.0010157307 -0.0289114 -0.012375402 0.00037239067 -0.005708329 -0.02364188 0.011904035 -0.0004258607
0.038371548 -0.01947952 0.016489858 -0.006265581 0.007490375 0.0067747687 0.0023748563 0.007902489
-0.0070881145 0.019095609 0.020922923 0.013421147 0.007729662 -0.0013319401 0.0022061996 0.033121202
-0.012541021 -0.0018178758 -0.0051690596 0.005304963 0.008144459 -0.007928225 0.04591255 -0.012776623
0.013160738 -0.011535997 -0.016382607 0.02542021 -0.013732236 0.0077878274 0.0017975817 -0.002264199
0.0026416464 0.0028040975 -0.008628868 0.0038198517 0.015800532 0.00097479834 0.009589451 -0.0032885985
0.0063526374 0.0066726594 0.01651557 -0.007039905 0.008377466 0.007982032 -0.035302933 0.0110736545
-0.00079787703 0.0003178525 0.020652711 0.007887501 -0.021702638 -0.002063188 0.0029511442 0.004164546
-0.00022802492 -0.015761804 -0.008883721 0.0091857165 0.026204921 -0.0022317353 0.00025749058 -0.008956148
-0.006668493 -0.0052956375 -0.014185028 0.007042341 0.020051025 0.018711172 0.027951062 -0.034855586
0.0006929264 0.013061286 -0.004077935 0.0035011452 0.013509742 0.023160242 0.008053451 -0.020675695
00000000: c1aa 90bc 7adb afbc 5197 0fbd f25f cebc
00000010: 3474 0f3c 9e7d 98bb e1a8 51bc d6d4 c0bc
00000020: 7e81 213c c865 853b 69ff edbc fa59 aabc
00000030: 90a6 703c 6c28 e83c 4fff e83b 11ba 79bb
00000040: 982a aabb 6fa7 923c 4007 b33c b780 873a
00000050: 4852 b2bc 1a3d d03a 723e 1a3b 503e 37bc
00000060: ff0a 5abc d33f 9dbb 31e0 fcbb ba04 a7bc
00000070: 00d4 d0bb 1dde d5bb bded 3b3c 4b32 b83c
00000080: 5a19 0cbd fa22 fdb9 c5a0 c4bc c3c6 f83b
00000090: 2d75 f7bc aad2 c2bc 715a 253c 1ce5 9abc
000000a0: 3411 c83a a254 253c eb38 80bc a87d 453c
000000b0: 987a 143c 885a 4a3b 2af0 453b 0c1c 903c
000000c0: 26e4 41bd 6e75 153d 4b92 68bc 3f85 34bd
000000d0: aae6 5abc 1e42 3dbd 841e b63c ca7f b03c
000000e0: 74a6 0cbc 54c1 6d3a 8fec 01bd 24cc 8abc
000000f0: 2385 06bd 5e27 8dbb 59b8 6b3b 14e2 6cbc
00000100: 85e5 acbc 05e1 183c eb5f a7bb db8e a83c
00000110: ca44 bdbc 36a5 b6bb a362 cebc 5a5d 943b
00000120: 3026 663c 2231 fc3c 7bff f13c 7a13 cdbb
00000130: 5daa 9a3c 6929 abbb 85ff f9bb 1b30 8abc
00000140: 76f8 d4bc b697 7d3a ef32 f03a fac8 613c
00000150: 818f 903c f8e7 093c 25ed d1bb 3e32 0b3c
00000160: ffa3 e23c 12fa f5bc bb8c 31bb 916b 2a3b
00000170: 7019 27bb ad56 8cbb dfa7 20bd af7c af3c
00000180: eece 1a3c 9124 86bd 822a f7bc b944 d33a
00000190: b211 573b 4963 2f3b b3f8 bd3c 3e80 8ebb
000001a0: c825 82bd 61c0 af3b 648b 003d d537 d53b
000001b0: 1d6e 3bbc b393 f93c 3734 21bd 48c0 9dbc
000001c0: 3c2a 2c3c f085 9dbc 4fd4 013c 0241 9abc
000001d0: deb6 1bbb ae0b 79bc 1a38 8bbc 92fa 3fbd
000001e0: 27b2 603c 957f 44bc f35a 27bc e579 8dba
000001f0: 3139 f6ba 0eeb 653b 1a22 46bc 040b 23bc
00000200: b577 8a3b b057 8139 6805 013a 87da cd3c
00000210: baf9 36bc cc4b 75bb c4c7 9d3c 1b22 a1bc
00000220: db30 8fba 3d15 d23c 32cb 323c 2273 3cbc
00000230: 99d9 843c 4bd1 bf3b bf1d f93c e42e 733b
00000240: 7c78 b7bc ced0 8dbb df1b a83c fd71 7e3c
00000250: 7d86 03bc 811b 823c 4dc7 f83b a751 dd3a
00000260: c50b 92bc 4478 163c a924 0c3c 9da8 64bc
00000270: 7d76 353c f3dc 143c c23b 90bb 658b 0eba
00000280: 4879 dcbc 8b99 90bb c1f4 16bc 5358 e23b
00000290: 8383 d23b 1cb6 793b af9e c039 cc9e 583c
000002a0: 4422 853a 9ad7 ecbc 33c2 4abc 6e3d c339
000002b0: ef0c bbbb 9eac c1bc 2409 433c 0e46 dfb9
000002c0: 7c2b 1d3d 8493 9fbc bd15 873c 814f cdbb
000002d0: d271 f53b e1fe dd3b 7aa3 1b3b 7179 013c
000002e0: 6a43 e8bb 656e 9c3c 8d66 ab3c 5fe4 5b3c
000002f0: 1b49 fd3b 7e94 aeba e395 103b 19aa 073d
00000300: db78 4dbc ca45 eeba 3761 a9bb 41d5 ad3b
00000310: 5670 053c 63e5 01bc cc0e 3c3d 0a55 51bc
00000320: 23a0 573c 7a01 3dbc d134 86bc 0b3e d03c
00000330: 2cfd 60bc 0831 ff3b d59c eb3a f562 14bb
00000340: 791f 2d3b f3c4 373b 1860 0dbc 7a56 7a3b
00000350: 1e70 813c 9c89 7f3a 131d 1d3c 8785 57bb
00000360: c929 d03b 53a6 da3b a94b 873c 01af e6bb
00000370: a441 093c 12c7 023c cf99 10bd 466e 353c
00000380: 9f28 51ba 71a5 a639 e02f a93c 943a 013c
00000390: bbc9 b1bc 8d36 07bb fc67 413b be76 883b
000003a0: f919 6fb9 e61e 81bc 078d 11bc b07f 163c
000003b0: b4ab d63c 4e42 12bb cdff 8639 cfbc 12bc
000003c0: 6083 dabb 0787 adbb 5268 68bc 70c3 e63b
000003d0: 0c42 a43c 2c48 993c a0f9 e43c bbc4 0ebd
000003e0: 81a5 353a 01ff 553c 33a0 85bb 7873 653b
000003f0: f757 5d3c 8cba bd3c 9ff2 033c 1360 a9bc

action_model._discrete_distribution.branches.1.bias f4 [3]
0.009237042 0.015369242 -0.023550157
00000000: f656 173c 46cf 7b3c 42ec c0bc

exp_avg f4 [128, 66]
-9.136991e-06 -8.8632136e-05 0.00010500176 2.5488876e-05 2.817778e-05 1.7281303e-05 -4.1771942e-05 -0.00015748982
0.00016103314 7.7550474e-05 7.240367e-06 6.3231764e-06 0.00014277075 -6.7523964e-05 2.1636652e-06 -3.125398e-05
-9.632455e-07 4.3744578e-05 -9.582586e-05 -0.00011144668 0.00021139927 6.761733e-05 -2.279916e-05 -2.8857201e-05
5.320058e-05 -6.534598e-05 -1.3891008e-07 4.0319734e-05 3.842098e-05 2.7579637e-05 -0.00017993196 -7.9250516e-05
0.00023608819 5.8659665e-05 9.9688405e-06 -4.807393e-05 0.00020375129 -9.841654e-05 -1.190362e-09 -3.8723098e-05
1.4557626e-05 6.747076e-05 2.8077173e-05 -8.95731e-05 0.00010877019 6.6837616e-05 -8.79627e-07 1.7816363e-05
0.00026169923 -6.0561215e-05 8.472607e-09 -4.857358e-05 -7.730732e-06 4.6596844e-05 -8.412763e-05 -1.8200195e-05
8.764194e-05 5.363893e-05 3.7950692e-13 2.0873438e-05 0.00036236073 -6.569034e-05 1.1896393e-08 -9.0629466e-05
-6.8019617e-06 8.02234e-05 0.00022747317 -0.00017748355 1.6407239e-05 -3.187017e-06 -1.2493468e-06 8.404036e-06
0.00036286053 -0.00037034517 2.8140485e-06 3.024237e-05 -1.5362753e-05 5.7156467e-05 0.00022314454 -7.7854966e-05
5.701733e-07 -6.908283e-05 -4.859953e-06 2.2900645e-05 -7.783539e-05 -0.0002895956 0.00041462146 -2.6345262e-05
-8.843493e-06 8.3014365e-06 0.00018790786 -3.7313641e-06 -3.831154e-08 -7.8104065e-05 1.2013446e-05 3.5969242e-05
-0.0003134718 -0.00012208804 0.00050492084 -3.905495e-05 -9.751103e-06 -2.6411717e-05 0.00028691103 -5.3428623e-05
-2.492978e-10 -8.8510584e-05 5.183298e-06 4.3538064e-05 -0.00017406208 -7.964313e-05 0.00040400852 -3.7593785e-05
8.995282e-06 6.6617235e-05 0.00037029604 -0.00011678244 1.896115e-08 -7.650009e-05 -6.1235896e-06 1.5266338e-05
-0.00020218665 -1.0708156e-05 0.00022119097 0.00013473371 2.0616046e-12 9.829713e-05 0.0003704529 -9.329001e-05
3.554975e-08 -5.1699215e-05 -2.4607116e-06 3.203542e-05 1.7814584e-05 -6.530764e-05 6.488771e-05 3.211378e-05
9.175774e-06 1.4489527e-06 -4.572513e-05 -5.6189365e-05 0.00010246375 5.580775e-05 -2.927972e-07 -1.8739078e-06
5.54131e-05 -7.784131e-06 1.5807914e-06 2.8210632e-06 1.774238e-06 1.0304508e-05 -7.895594e-05 -3.4854078e-05
0.00014242597 4.6600042e-05 -2.0506002e-05 -2.1979129e-05 -3.109717e-05 6.0187604e-06 -1.0482664e-07 5.7337664e-05
2.2404369e-05 2.7723124e-07 -0.0001170075 -2.0286834e-05 0.00016169176 3.5789966e-05 -4.565239e-06 -3.337297e-05
2.6478232e-05 4.6000177e-06 8.997052e-12 1.223428e-05 1.515882e-05 2.4885181e-05 -5.877189e-06 -2.02688e-05
7.444652e-05 4.3491058e-05 1.5136167e-06 1.4056932e-05 0.00013785031 -1.8000104e-05 -1.1178713e-08 3.0257008e-06
-8.503339e-06 2.4679912e-05 -9.010405e-05 1.5087367e-05 4.6666373e-05 4.379256e-05 1.5151818e-13 2.248146e-05
0.00023596679 -4.3831747e-05 -4.214684e-09 -3.8623446e-05 -8.071056e-06 4.675969e-05 7.792434e-05 -9.0523725e-05
-0.00011316298 -2.1331494e-05 -6.823807e-06 -6.5998065e-06 0.0002558189 -0.00022222547 -0.00017643966 -2.7727452e-05
-1.0317408e-05 2.2233451e-05 -3.0674728e-05 -3.4920013e-05 -1.8701867e-06 -5.754353e-05 -5.5239875e-06 -1.2005191e-05
-3.744081e-05 -0.00016945471 7.9487436e-05 -5.798109e-05 4.733481e-06 -1.8423538e-06 2.3523384e-05 4.33825e-06
7.700427e-08 -9.5770236e-05 -2.3459901e-05 4.035155e-06 -0.0001494825 -4.591496e-05 0.000103012855 -5.8660487e-05
-1.8364575e-05 -1.6568763e-05 -2.9842176e-05 -1.4242377e-05 4.740868e-09 -1.9848923e-05 -2.7464116e-06 -1.3943994e-05
-0.00016309402 -8.156969e-06 0.00010881003 -5.6862205e-05 2.6193188e-06 1.1945997e-05 -1.0971592e-05 -6.498915e-05
2.3206606e-08 -1.1967259e-05 1.8620106e-07 -3.8432114e-05 -8.962844e-05 -3.7556365e-06 -1.995135e-05 8.30381e-05
00000000: 144b 19b7 04e0 b9b8 6434 dc38 f2d0 d537
00000010: 525f ec37 51f7 9037 4834 2fb8 da23 25b9
00000020: 01db 2839 98a2 a238 47f2 f236 ac2b d436
00000030: bbb4 1539 a79b 8db8 7c33 1136 b516 03b8
00000040: dd48 81b5 627a 3738 1ef6 c8b8 7bb8 e9b8
00000050: 0fab 5d39 c7cd 8d38 d340 bfb7 5e12 f2b7
00000060: b023 5f38 5b0a 89b8 5027 15b4 fc1c 2938
00000070: 3726 2138 d25a e737 1eac 3cb9 4c33 a6b8
00000080: 718e 7739 5609 7638 d83f 2737 fda2 49b8
00000090: 12a6 5539 fa64 ceb8 249a a3b0 9c6a 22b8
000000a0: 873c 7437 177f 8d38 4587 eb37 31d9 bbb8
000000b0: 8d1b e438 2c2b 8c38 821f 6cb5 5974 9537
000000c0: ad34 8939 1c03 7eb8 eb8e 1132 7cbb 4bb8
000000d0: 3eb3 01b7 fb70 4338 ad6d b0b8 9fac 98b7
000000e0: 69cc b738 5dfa 6038 b6a4 d52a 5e19 af37
000000f0: 3cfb bd39 3cc3 89b8 e460 4c32 5310 beb8
00000100: 683c e4b6 9c3d a838 dd85 6e39 e11a 3ab9
00000110: 47a2 8937 89e0 55b6 3baf a7b5 0fff 0c37
00000120: 513e be39 e32a c2b9 fcd8 3c36 ffb0 fd37
00000130: 43df 80b7 4abb 6f38 e8fb 6939 1146 a3b8
00000140: 030e 1935 90e0 90b8 ae12 a3b6 c31a c037
00000150: 8f3b a3b8 ddd4 97b9 8d61 d939 0500 ddb7
00000160: 835e 14b7 6646 0b37 2209 4539 5968 7ab6
00000170: fc8b 24b3 cdcb a3b8 5c8d 4937 aedd 1638
00000180: 7959 a4b9 c204 00b9 aa5c 043a efce 23b8
00000190: ab98 23b7 bb8e ddb7 8c6c 9639 8c18 60b8
000001a0: 8c0d 89af c29e b9b8 31ec ad36 a49c 3638
000001b0: 6f84 36b9 1406 a7b8 1bd1 d339 05ae 1db8
000001c0: 71ea 1637 dbb4 8b38 4b24 c239 18e9 f4b8
000001d0: 03e0 a232 ac6e a0b8 3c79 cdb6 3610 8037
000001e0: 1102 54b9 2ea7 33b7 80ef 6739 4e47 0d39
000001f0: 9112 112c df24 ce38 5939 c239 b1a4 c3b8
00000200: 5daf 1833 9cd7 58b8 b422 25b6 c55d 0638
00000210: 8770 9537 c6f5 88b8 5314 8838 e9b1 0638
00000220: a6f1 1937 a379 c235 fcc8 3fb8 dfac 6bb8
00000230: cfe1 d638 1e13 6a38 be31 9db4 fb82 fbb5
00000240: 5d6b 6838 9798 02b7 942b d435 7f51 3d36
00000250: 5a22 ee35 86e1 2c37 2695 a5b8 4830 12b8
00000260: 2e58 1539 6a74 4338 4e04 acb7 d25f b8b7
00000270: 556e 02b8 c2f4 c936 0e1d e1b3 d97d 7038
00000280: 04f1 bb37 5fd6 9434 ec61 f5b8 a52d aab7
00000290: cd8b 2939 2f1d 1638 1b2f 99b6 f4f9 0bb8
000002a0: 921d de37 da59 9a36 1f47 1e2d d541 4d37
000002b0: a352 7e37 85c0 d037 ab34 c5b6 eb06 aab7
000002c0: 2c20 9c38 2b6a 3638 7927 cb35 10d6 6b37
000002d0: e98b 1039 eefe 96b7 800c 40b2 250d 4b36
000002e0: 90a9 0eb7 b507 cf37 3ef6 bcb8 bf1f 7d37
000002f0: a3bb 4338 e7ad 3738 2498 2a2a 9196 bc37
00000300: da6d 7739 fbd7 37b8 c1d0 90b1 9cff 21b8
00000310: ec68 07b7 d61f 4438 506b a338 8ed7 bdb8
00000320: ea51 edb8 09f1 b2b7 0ef8 e4b6 e873 ddb6
00000330: 6e1f 8639 3205 69b9 a902 39b9 4098 e8b7
00000340: ee18 2db7 f981 ba37 bda8 00b8 1477 12b8
00000350: 2003 fbb5 e55a 71b8 b15a b9b6 e769 49b7
00000360: c309 1db8 a7af 31b9 7eb2 a638 b930 73b8
00000370: 4bd4 9e36 cb46 f7b5 1554 c537 4991 9136
00000380: 8c5d a533 41d8 c8b8 c1cb c4b7 b865 8736
00000390: 67be 1cb9 d094 40b8 9b08 d838 380a 76b8
000003a0: a00d 9ab7 26fd 8ab7 9655 fab7 8bf2 6eb7
000003b0: 1ee5 a231 3d81 a6b7 fe4e 38b6 00f1 69b7
000003c0: 3804 2bb9 ead9 08b7 f130 e438 547f 6eb8
000003d0: 8ec7 2f36 ab6b 4837 a112 38b7 c94a 88b8
000003e0: de57 c732 fcc6 48b7 8fee 4734 2b32 21b8
000003f0: e7f6 bbb8 5809 7cb6 335d a7b7 be24 ae38

exp_avg_sq f4 [128, 66]
1.963671e-06 4.666974e-07 6.510844e-08 8.1922956e-08 4.322914e-09 2.621021e-07 2.074068e-06 2.7139828e-07
1.447213e-07 1.0849781e-07 3.5480753e-08 2.690101e-07 1.8921172e-06 5.612655e-07 2.499842e-08 7.262214e-08
2.6558193e-09 2.4502535e-07 2.127555e-06 1.670148e-07 2.2648256e-07 1.0817577e-07 9.419217e-09 2.3430009e-07
2.0719367e-06 4.1917303e-07 9.8543556e-09 8.2497e-08 2.2398632e-08 2.7454465e-07 2.2085214e-06 1.3070088e-07
2.5410435e-07 9.699906e-08 9.618424e-10 2.1880504e-07 2.326491e-06 2.4332812e-07 5.904162e-09 8.888625e-08
5.3853313e-09 1.8815365e-07 2.2405466e-06 1.0282148e-07 2.6962502e-07 8.184136e-08 5.484578e-10 1.9404399e-07
2.3872992e-06 1.7022205e-07 4.1261177e-09 1.3109023e-07 1.1542333e-08 1.0094767e-07 2.2874822e-06 9.559378e-08
2.6349215e-07 7.589037e-08 2.1565914e-10 1.7911401e-07 2.4785315e-06 1.5292562e-07 4.68417e-09 1.4600991e-07
1.3448143e-10 8.1479335e-08 1.9238082e-06 3.5985946e-07 9.062417e-09 2.5111765e-08 7.0179715e-09 2.0074364e-07
1.924723e-06 3.646917e-07 7.691757e-08 3.423175e-08 9.164144e-09 2.3381205e-07 2.0022771e-06 2.8369647e-07
1.6906473e-09 3.5489677e-08 8.6675295e-10 1.7763621e-07 1.6305407e-06 3.5976754e-07 2.9609504e-07 6.0139925e-08
2.1474275e-08 2.023262e-07 2.1245614e-06 1.9479404e-07 6.785779e-10 5.273807e-08 2.3404636e-09 1.5414733e-07
1.6384536e-06 3.1898142e-07 3.3245945e-07 9.398962e-08 5.354542e-09 1.683675e-07 2.2032668e-06 1.1948212e-07
2.7161504e-09 6.694131e-08 1.0400766e-09 1.051984e-07 1.6051503e-06 3.016094e-07 3.4905173e-07 8.285282e-08
5.6335954e-09 1.543863e-07 2.1570706e-06 1.3634688e-07 4.618243e-09 1.4750003e-07 2.637897e-09 7.9725666e-08
1.6843894e-06 2.858451e-07 2.9524114e-07 7.498965e-08 5.7345697e-09 1.7944883e-07 2.1760907e-06 1.692143e-07
5.5297953e-09 1.5329245e-07 2.865828e-10 8.670749e-08 1.0055902e-06 3.6598124e-07 3.776213e-08 3.36351e-08
1.9585644e-09 1.4295925e-07 1.084317e-06 2.6156516e-07 6.349856e-08 4.2355637e-08 1.507186e-08 1.4472506e-07
9.726093e-07 4.0170616e-07 1.7632503e-08 2.9034432e-08 1.6775128e-09 1.366117e-07 1.1655086e-06 1.7471542e-07
8.7854396e-08 3.9939255e-08 7.942956e-09 1.3608157e-07 1.0988409e-06 2.9078066e-07 8.068455e-09 3.886194e-08
1.869742e-08 1.6698455e-07 1.2396728e-06 1.3279592e-07 9.5296606e-08 3.241349e-08 8.193164e-10 1.3056656e-07
1.2255942e-06 2.2483874e-07 4.5145967e-09 4.695999e-08 3.5259164e-09 1.192171e-07 1.3076225e-06 7.372472e-08
1.0138434e-07 2.7950376e-08 4.0936443e-10 1.18795384e-07 1.2819982e-06 1.5544965e-07 3.942528e-09 6.2617424e-08
1.9380757e-08 7.350668e-08 1.3470237e-06 5.859639e-08 9.7576e-08 2.6862017e-08 2.701615e-10 1.0875704e-07
1.3862117e-06 1.08342284e-07 4.050221e-09 7.175923e-08 3.0778147e-10 4.7158313e-08 6.170825e-07 1.3653471e-07
3.4890206e-08 1.7453115e-08 1.6187628e-09 1.0149045e-07 6.1811494e-07 1.166009e-07 6.380152e-08 2.0093625e-08
2.4538103e-09 9.873658e-08 6.553537e-07 1.1173302e-07 1.359464e-08 2.4862368e-08 1.3012724e-09 8.829457e-08
5.9029344e-07 6.074766e-08 1.0821661e-07 2.7367655e-08 9.5812895e-09 8.8731014e-08 7.142137e-07 5.8219623e-08
3.5440264e-09 2.761744e-08 5.205606e-09 8.130476e-08 6.1491477e-07 3.3031153e-08 1.0869361e-07 3.188714e-08
2.4889095e-09 7.317065e-08 7.18055e-07 5.958597e-08 5.482868e-09 3.968929e-08 1.3603613e-09 6.328678e-08
6.4826986e-07 1.9716873e-08 1.0873788e-07 3.614809e-08 8.9886426e-10 6.6383166e-08 6.698079e-07 5.5468504e-08
6.1975762e-09 8.127345e-08 6.4431407e-09 3.6594386e-08 7.011387e-07 2.3088107e-08 8.400853e-08 3.5853258e-08
00000000: 9cc7 0336 678e fa34 bed1 8b33 9fed af33
00000010: c188 9431 0ab7 8c34 3830 0b36 b2b4 9134
00000020: b064 1b34 4dff e833 8063 1833 776c 9034
00000030: a7f4 fd35 dfa9 1635 1bbc d632 72f4 9b33
00000040: ab81 3631 078c 8334 1ec7 0e36 ae54 3334
00000050: 0d2f 7334 424e e833 28d2 2132 eb93 7b34
00000060: 9a0b 0b36 b40a e134 ea4b 2932 3529 b133
00000070: 1d67 c032 2165 9334 1c36 1436 c956 0c34
00000080: d66b 8834 cc4d d033 d231 8430 acf0 6a34
00000090: d020 1c36 c3a2 8234 8fdd ca31 bce1 be33
000000a0: e009 b931 4807 4a34 4c5c 1636 b5ce dc33
000000b0: fbc0 9034 c3c0 af33 49c2 1630 685a 5034
000000c0: 7d35 2036 48c6 3634 b7c5 8d31 cfc1 0c34
000000d0: b84b 4632 92c8 d833 a582 1936 3c49 cd33
000000e0: 1676 8d34 2cf9 a233 a71e 6d2f 7c52 4034
000000f0: d954 2636 e033 2434 65f2 a031 e6c6 1c34
00000100: 28dd 132f bdf9 ae33 c61a 0136 b532 c134
00000110: eeb0 1b32 5bb5 d732 bb22 f131 fe8b 5734
00000120: 7d2a 0136 d8ca c334 e22d a533 3506 1333
00000130: 5570 1d32 c40d 7b34 dc5e 0636 f24e 9834
00000140: 5d5c e830 506d 1833 5140 6e30 45bc 3e34
00000150: f4d8 da35 1326 c134 fef6 9e34 4626 8133
00000160: 6e76 b832 013f 5934 b093 0e36 9428 5134
00000170: ad86 3a30 1f82 6233 dfd5 2031 b283 2534
00000180: d6e8 db35 7940 ab34 e17c b234 57d7 c933
00000190: 0dfb b731 82c8 3434 d6db 1336 ff4a 0034
000001a0: 06a7 3a31 60c1 8f33 71f2 8e30 6fe9 e133
000001b0: 8b70 d735 e1ec a134 4e65 bb34 d2ec b133
000001c0: a191 c131 62c5 2534 31c2 1036 bf66 1234
000001d0: 7fae 9e31 8060 1e34 6046 3531 a635 ab33
000001e0: 2e13 e235 4076 9934 a281 9e34 ff09 a133
000001f0: cf09 c531 85ae 4034 f408 1236 46b1 3534
00000200: 9800 be31 b598 2434 f28c 9d2f f233 ba33
00000210: d1f7 8635 147c c434 e72f 2233 2f76 1033
00000220: 6e97 0631 5780 1934 d988 9135 3e6d 8c34
00000230: b45c 8833 84ea 3533 5f77 8132 b965 1b34
00000240: 9a8a 8235 13aa d734 4976 9732 6467 f932
00000250: 3c8e e630 8aaf 1234 926e 9c35 6999 3b34
00000260: 77aa bc33 ad89 2b33 7d75 0832 d11d 1234
00000270: e37b 9335 971c 9c34 719d 0a32 28e9 2633
00000280: 109c a032 5d4c 3334 d562 a635 aa96 0e34
00000290: dda5 cc33 0237 0b33 4436 6130 dd31 0c34
000002a0: 197f a435 346b 7134 d01e 9b31 0eb1 4933
000002b0: 944c 7231 2602 0034 9181 af35 9852 9e33
000002c0: a1b8 d933 8717 f032 ec0c e12f 741c ff33
000002d0: 1f11 ac35 ade9 2634 d876 8731 4b78 8633
000002e0: bc7a a632 bada 9d33 62cb b435 6aab 7b33
000002f0: f98a d133 33be e632 da85 942f d18d e933
00000300: df0d ba35 cda9 e833 1f2a 8b31 0e1a 9a33
00000310: 6434 a92f 1d8b 4a33 96a5 2535 609a 1234
00000320: 30da 1533 ceeb 9532 277b de30 f7f2 d933
00000330: 89ec 2535 0666 fa33 4203 8933 599a ac32
00000340: e39f 2831 0209 d433 90eb 2f35 e1f1 ef33
00000350: dc8d 6932 ed90 d532 74d8 b230 749c bd33
00000360: a874 1e35 6174 8233 b664 e833 1c16 eb32
00000370: f59a 2432 648c be33 64b8 3f35 270d 7a33
00000380: 2c8b 7331 653b ed32 ffdc b231 c499 ae33
00000390: 9f10 2535 23de 0d33 f26a e933 48f4 0833
000003a0: 5c09 2b31 fe21 9d33 5dc0 4035 78eb 7f33
000003b0: d163 bc31 d676 2a33 75f7 ba30 46e8 8733
000003c0: c404 2e35 dd5d a932 4883 e933 3f41 1b33
000003d0: f313 7730 888e 8e33 d9cc 3335 443c 6e33
000003e0: 75f2 d431 8d88 ae33 7762 dd31 f42b 1d33
000003f0: e235 3c35 4953 c632 2e68 b433 13fd 1933

exp_avg f4 [128]
0.00017979891 0.00020913263 0.00012506492 -7.855654e-05 -0.00035577407 -4.2477714e-05 2.057776e-05 -7.032623e-06
0.00026428472 1.8404777e-05 -0.00026826595 0.00010649986 0.0001899085 0.00017669778 -9.755917e-05 0.00017534918
0.00024061077 -0.00014438943 -2.4325227e-05 8.4870815e-05 -6.9673e-05 0.00018255315 -0.00018167618 5.6099972e-05
-3.6107034e-05 0.000195053 -3.910478e-05 7.7673605e-05 3.182456e-05 -0.00013146565 2.9144016e-05 -4.057004e-06
-7.6428674e-05 -3.245537e-05 0.00012268209 0.00034620016 -0.0001210705 0.0001152862 -7.8490506e-05 -9.171523e-05
-0.00022200575 -0.00013782777 6.800521e-05 6.9638685e-05 -0.00015787013 -3.6919344e-05 9.0193425e-05 1.3710506e-05
-0.00027955396 -0.00021030937 -0.0005815598 5.7323443e-05 -0.0002941945 -5.3046097e-05 0.0002720997 -0.00037007718
-9.201862e-05 6.568475e-05 -0.0005767903 0.00031281184 -0.00024934372 7.5581636e-05 -7.715353e-05 0.00023711001
-0.00023087775 -0.00011025822 -6.0528128e-05 -6.619814e-05 0.00012072114 3.1547923e-05 0.0003197451 0.00012903914
-0.00025042944 0.00034795472 0.00031350314 3.0169303e-05 -0.00015578588 -3.6622612e-05 7.266089e-05 5.6034438e-05
6.691489e-05 -0.00010505834 -0.0001953372 -2.5261088e-05 0.00025233152 5.1095554e-05 6.6517525e-05 0.00015790752
-9.5849246e-05 -1.5997695e-05 0.00027288735 -0.000489136 -0.00062354654 -0.00026465885 -0.00015456253 3.7580116e-06
2.2567414e-05 -0.000274615 -8.786428e-05 -5.5427055e-05 -0.00029854948 -0.00011841158 -0.00010849532 -0.00023289026
2.588242e-07 7.441802e-05 -4.3988424e-05 1.5960002e-05 -0.00017490171 -0.0001022944 -5.9690097e-05 -9.315098e-05
-0.00026815783 -0.00032894226 0.00013415828 0.00019392584 -0.00023612812 -7.4065865e-06 -0.00017977075 0.0001781481
9.735292e-05 1.3421069e-05 1.7277856e-05 0.0002473088 0.00027823262 -0.0001471638 -2.4520146e-05 -0.00032060334
00000000: 6788 3c39 9d4a 5b39 dc23 0339 b9be a4b8
00000010: 3087 bab9 192a 32b8 679e ac37 c6f9 ebb6
00000020: b28f 8a39 f563 9a37 0ca6 8cb9 ad58 df38
00000030: 2d22 4739 f347 3939 ae98 ccb8 f0dd 3739
00000040: 764c 7c39 3e67 17b9 070e ccb7 acfc b138
00000050: 681d 92b8 bd6b 3f39 5480 3eb9 e34c 6b38
00000060: a271 17b8 2487 4c39 7004 24b8 b3e4 a238
00000070: 5c7b 0538 0bda 09b9 4c7a f437 6621 88b6
00000080: 5548 a0b8 b020 08b8 39a4 0039 3382 b539
00000090: 3be7 fdb8 cfc5 f138 459b a4b8 3d57 c0b8
000000a0: 37ca 68b9 dc85 10b9 059e 8e38 fc0a 9238
000000b0: f189 25b9 d8d9 1ab8 3a26 bd38 2d06 6637
000000c0: 1991 92b9 7e86 5cb9 d173 18ba 946e 7038
000000d0: 1e3e 9ab9 d07d 5eb8 9ba8 8e39 eb06 c2b9
000000e0: 1ffa c0b8 3bc0 8938 be33 17ba e500 a439
000000f0: 59ba 82b9 9581 9e38 7ccd a1b8 bca0 7839
00000100: c617 72b9 6e3a e7b8 95df 7db8 dbd3 8ab8
00000110: ab2b fd38 5352 0438 76a3 a739 ae4e 0739
00000120: 124c 83b9 b16d b639 ae5d a439 1614 fd37
00000130: 745a 23b9 3b9b 19b8 8561 9838 8506 6b38
00000140: a854 8c38 c452 dcb8 6ed3 4cb9 c6e7 d3b7
00000150: 5d4b 8439 6f4f 5638 537f 8b38 fa93 2539
00000160: ac02 c9b8 ca32 86b7 5212 8f39 5c39 00ba
00000170: 8075 23ba e9c1 8ab9 1012 22b9 2632 7c36
00000180: 274f bd37 34fa 8fb9 c743 b8b8 597a 68b8
00000190: a286 9cb9 bc53 f8b8 fb87 e3b8 0134 74b9
000001a0: 87f4 8a34 df10 9c38 3680 38b8 d8e1 8537
000001b0: d265 37b9 e386 d6b8 c15b 7ab8 0d5a c3b8
000001c0: 8997 8cb9 e275 acb9 d7ac 0c39 9258 4b39
000001d0: 2999 77b9 1886 f8b6 d880 3cb9 44cd 3a39
000001e0: f329 cc38 0d2b 6137 eaef 9037 3aa9 8139
000001f0: c0df 9139 fb4f 1ab9 9db0 cdb7 a716 a8b9
