results/Test2SpeedChangePeople24Novembre/MoveToGoal/MoveToGoal-499971.onnx (onnx, 100836 bytes, 9 tensors)

action_model._discrete_distribution.branches.0.bias f4 [3]
0.0071683032 -0.0037119782 -0.0048073037
00000000: 16e4 ea3b a944 73bb 9686 9dbb

action_model._discrete_distribution.branches.0.weight f4 [3, 128]
-0.018133108 -0.0009806429 0.040383577 -0.03391074 -0.030370867 -0.025320316 0.0019671584 -0.070912145
-0.05161284 -0.044995505 0.05335237 0.0365914 0.025799856 0.018973107 -0.044828705 -0.05923208
0.024446033 0.004553985 0.048262443 0.034947626 -0.0028731218 -0.07545414 0.022928184 0.0633932
-0.05323794 0.03836393 -0.048367925 0.037969608 -0.06832343 0.030862883 -0.031459723 -0.036573954
0.03128631 -0.012333382 0.021066241 0.050982196 -0.030510353 0.005803113 0.054511555 0.038371835
-0.016581334 0.052459575 0.007081049 0.015110486 -0.02303338 -0.011913831 -0.03576901 0.008006675
-0.0060752463 -0.017564567 -0.041552313 0.029623432 -0.028453516 -0.067876115 -0.025881693 0.042077173
0.042644963 -0.033243272 -0.0015932246 0.03630632 -0.05548644 0.05501833 0.021310503 0.048219245
0.007148236 0.038121395 0.023718588 0.01268346 -0.0007008431 -0.047881715 -0.0642934 0.0024943193
0.05284206 0.017347109 0.005631087 -0.032126397 0.037449047 0.03222522 -0.023366502 -0.028416375
0.06545151 -0.06559506 0.051685013 0.039342716 0.048365735 -0.054431908 0.02611951 -0.06298853
-0.043083284 -0.08451378 -0.0075690807 0.016059954 -0.008486889 0.057227194 0.0436437 0.048902933
-0.019114684 -0.024568144 0.061627638 0.012652086 -0.04633873 0.007378196 -0.00804761 -0.009461738
0.051328387 -0.05907591 0.05161366 0.002679605 0.07656185 0.04630614 0.0063597127 0.044051018
-0.016637396 -0.0030522107 -0.048217457 0.00060142844 0.032108307 0.057413075 -0.022203563 -0.01854026
-0.016623773 -0.01815017 -0.09040157 0.044319753 -0.08615648 -0.019816179 0.042403195 0.012676471
0.014744893 0.015763657 -0.0388702 0.022037009 -0.053764 -0.048535343 0.07000948 0.0021983478
0.0030205897 0.037761677 0.024059376 -0.059846397 -0.059768766 -0.048994735 0.038550407 0.035202663
-0.067408904 -0.07884121 -0.031792063 -0.08154483 -0.043780833 0.0035981575 0.011773329 -0.06441313
0.004994146 -0.070346765 0.019366408 -0.023962371 0.006122416 0.04838611 0.005622265 0.077536784
0.03543501 0.0074112434 -0.06725857 -0.04843009 0.027687509 -0.0389627 0.03932789 -0.035899255
-0.082257174 0.030248322 -0.01009574 -0.036497556 -0.0525522 0.04506401 -0.049962718 0.007274359
0.05567017 0.021281157 0.05016101 0.03935276 0.014954791 0.027795248 -0.071627885 0.0013419297
-0.052272566 0.05799089 0.05017358 0.05870668 0.02688386 -0.06673722 0.049765237 -0.017372524
-0.024136728 -0.025098791 0.05015424 0.011547878 -0.07755169 -0.019154243 0.013476964 0.029987665
-0.024054611 0.024635468 0.04690648 0.068656474 -0.023223696 0.026380114 0.017121535 -0.01654276
0.016464917 0.05682884 -0.0453695 -0.057356574 0.02792089 0.04183835 0.04552071 0.0036297992
0.04286471 -0.031437997 0.009103439 -0.074131176 -0.017621292 -0.067129105 -0.0738785 -0.083152406
0.05339825 0.0409414 -0.0058371713 0.027607562 0.0140507575 -0.05615736 -0.052300435 0.027435115
-0.050600246 0.032871556 -0.031898268 -0.05063966 0.013073401 -0.07810615 -0.085458755 -0.07062832
-0.07040753 0.028549716 0.016582415 -0.05512919 0.048269782 0.008087962 0.035989556 0.016291367
0.07510589 0.053492934 0.0114731565 0.011236115 0.025434196 -0.06132492 0.004170705 -0.015377317
00000000: e28b 94bc ea88 80ba 4069 253d fde5 0abd
00000010: 53cc f8bc 8d6c cfbc 71eb 003b 633a 91bd
00000020: fc67 53bd 354d 38bd 0488 5a3d dde0 153d
00000030: 385a d33c 7d6d 9b3c 4e9e 37bd 569d 72bd
00000040: 0c43 c83c 9839 953b d7ae 453d 3e25 0f3d
00000050: fc4a 3cbb b387 9abd e3d3 bb3c 4bd4 813d
00000060: 0710 5abd 7f23 1d3d 721d 46bd 0586 1b3d
00000070: 28ed 8bbd 28d4 fc3c e9db 00bd 92ce 15bd
00000080: 1326 003d f411 4abc 1c93 ac3c b5d2 503d
00000090: d9f0 f9bc 0a28 be3b 8247 5f3d c92b 1d3d
000000a0: 94d5 87bc dadf 563d 2508 e83b f991 773c
000000b0: 80b0 bcbc 3b32 43bc 8782 12bd 6e2e 033c
000000c0: dc12 c7bb 91e3 8fbc c232 2abd d7ac f23c
000000d0: 5917 e9bc a202 8bbd d805 d4bc 1d59 2c3d
000000e0: 7cac 2e3d 192a 08bd bfd3 d0ba f0b5 143d
000000f0: c045 63bd e75a 613d 5d93 ae3c 8b81 453d
00000100: c03b ea3b 2e25 1c3d 7c4d c23c 49ce 4f3c
00000110: c9b8 37ba 9e1f 44bd 42ac 83bd bc77 233b
00000120: ea70 583d 861b 8e3c fb84 b83b f896 03bd
00000130: 2c64 193d 98fe 033d 1b6b bfbc 75c9 e8bc
00000140: 710b 863d b456 86bd aab3 533d d425 213d
00000150: 261b 463d fef3 5ebd 95f8 d53c 2100 81bd
00000160: 1978 30bd 9015 adbd 0d06 f8bb 2a90 833c
00000170: 980c 0bbc 1067 6a3d bdc3 323d 714e 483d
00000180: 6696 9cbc 2243 c9bc 436d 7c3d b24a 4f3c
00000190: aecd 3dbd cbc4 f13b 1fda 03bc 6805 1bbc
000001a0: b73d 523d 95f9 71bd d868 533d 509c 2f3b
000001b0: 76cc 9c3d 82ab 3d3d 2365 d03b d76e 343d
000001c0: 264b 88bc 9907 48bb ab7f 45bd 2ea9 1d3a
000001d0: 0084 033d f929 6b3d 3fe4 b5bc bee1 97bc
000001e0: 942e 88bc aaaf 94bc 7524 b9bd a188 353d
000001f0: cf72 b0bd 8a55 a2bc f9ae 2d3d f9b0 4f3c
00000200: 9094 713c c922 813c 5c36 1fbd f586 b43c
00000210: a437 5cbd ffcc 46bd 2161 8f3d 2812 103b
00000220: 16f5 453b fdab 1a3d 2b18 c53c 7f21 75bd
00000230: 18d0 74bd b4ae 48bd 08e7 1d3d ab30 103d
00000240: ae0d 8abd 8077 a1bd 6538 02bd fa00 a7bd
00000250: 8853 33bd 11cf 6b3b ece4 403c 08eb 83bd
00000260: efa5 a33b f711 90bd 4da6 9e3c bc4c c4bc
00000270: 8c9e c83b 8430 463d fa3a b83b 9bcb 9e3d
00000280: 4d24 113d 04da f23b dcbe 89bd a15e 46bd
00000290: ead0 e23c 5a97 1fbd 4816 213d 190b 13bd
000002a0: 7376 a8bd 54cb f73c 9a68 25bc 767e 15bd
000002b0: fa40 57bd 0a95 383d b5a5 4cbd bf5d ee3b
000002c0: 6706 643d d255 ae3c a275 4d3d 5c30 213d
000002d0: f104 753c dcb2 e33c a4b1 92bd b0e3 af3a
000002e0: c21b 56bd db87 6d3d d082 4d3d 6a76 703d
000002f0: 8a3b dc3c 86ad 88bd a2d6 4b3d d350 8ebc
00000300: 63ba c5bc fb9b cdbc 886e 4d3d 5033 3d3c
00000310: 6cd3 9ebd 5ce9 9cbc 7cce 5c3c b1a8 f53c
00000320: 2d0e c5bc 52d0 c93c 0221 403d c49b 8c3d
00000330: 9f3f bebc 1c1b d83c 7642 8c3c af84 87bc
00000340: 6fe1 863c 5cc5 683d 5ed5 39bd baee 6abd
00000350: 5aba e43c b15e 2b3d ed73 3a3d ede1 6d3b
00000360: e892 2f3d 21c5 00bd 9726 153c 16d2 97bd
00000370: 875a 90bc fc7a 89bd 9c4d 97bd cf4b aabd
00000380: 20b8 5a3d 2bb2 273d be45 bfbb 4129 e23c
00000390: 2635 663c 4305 66bd fb38 56bd 9bbf e03c
000003a0: 3442 4fbd 53a4 063d c2a7 02bd 886b 4fbd
000003b0: d131 563c 1ef6 9fbd 0005 afbd 95a5 90bd
000003c0: d331 90bd 18e1 e93c d8d7 873c 25cf 61bd
000003d0: 89b6 453d 5f83 043c c969 133d 7975 853c
000003e0: 1ed1 993d 681b 5b3d e8f9 3b3c af17 383c
000003f0: 605b d03c d72f 7bbd 69aa 883b 24f1 7bbc

action_model._discrete_distribution.branches.1.bias f4 [3]
0.013369233 -0.0065903105 -0.008444816
00000000: a10a 5b3c 88f3 d7bb 205c 0abc

action_model._discrete_distribution.branches.1.weight f4 [3, 128]
0.006205067 -0.04290689 -0.0062858984 -0.008743292 0.020732604 0.033547368 0.007565237 0.017814413
0.008438044 -0.02147689 -0.0066977283 0.004076811 0.009507591 0.006704402 -0.0180526 -0.011046193
0.015484583 0.023821024 -0.0016595644 0.0077937148 0.023332315 0.014054028 -0.008359645 0.0013268121
0.005693746 -0.024631202 0.0089274375 -0.00020656256 -0.0032148554 0.0025381343 0.0012167626 -0.023850787
0.0016024935 0.01138215 0.01639396 0.0043214844 0.009023722 -0.014925631 0.007974909 0.0065678353
0.0057274615 -0.020350095 -0.027326716 -0.030506399 0.004632076 0.020366387 0.02082154 0.042762436
-0.008825794 -0.0045889416 -0.004275189 -0.008733678 0.012435428 -0.0019869243 0.02634117 0.030167265
-0.021981614 -0.0025236045 -0.0025854341 -0.005490108 0.000119550976 -0.0072503043 -0.0038799369 -0.011924297
-9.987556e-05 0.0105438605 0.0025087784 -0.03016789 0.011578871 -0.0014125976 -0.00044792474 -0.007322219
0.012687753 0.019212116 0.0034790756 0.029658422 -0.0069009857 -0.006030927 -0.040136896 0.012615156
0.010189198 -0.013123013 -0.00013658388 0.005432837 -0.00015976263 -0.008355354 0.0084571885 -0.00043465573
0.026557814 0.016611269 0.013607783 0.0197566 0.0010163978 -0.0109350495 -0.015793595 0.00040700912
-0.009893981 -0.009875762 -0.006570706 -0.0026798106 -0.003353609 0.0067736823 0.009193419 0.022110332
-0.0076744095 -0.017025035 -0.029020578 0.014277025 0.004583123 -0.006799921 0.023979502 -0.0016562396
0.002654382 -0.03455921 -6.3763015e-05 -0.023558976 -0.008123002 0.0056011067 -0.03710588 -0.018989384
0.0011076774 -0.003938678 0.0020304392 -0.00297021 0.004879008 0.0039534485 0.013299494 -0.03337426
0.014786843 0.016787227 0.013987147 -0.0010170554 -0.03874369 -0.017385725 0.01371509 -0.014930067
-0.03539773 -0.0044853217 0.016865304 0.0031192412 -0.009663721 -0.005868011 0.002989102 -0.021861963
-0.045285664 -0.010529764 0.00436635 -0.012719208 -0.010327374 -0.034590613 0.021881191 -7.948363e-07
-0.033842314 0.007105147 -0.027468313 0.018592875 -0.028119644 0.0239923 -0.023551175 0.016448148
0.028192092 -0.020907894 -0.014051296 -0.0020712425 -0.01238695 0.004787105 0.0027795774 0.0035531574
-0.0059085786 0.017428553 0.020232683 0.020326408 -0.0143989725 -0.0048072943 -0.039539706 -0.047833648
0.018198865 0.021571044 -0.015188149 0.024125185 0.006075517 -0.019275563 -0.0101298615 -0.015224116
0.010276195 0.010660338 -0.004267282 -0.0043872087 -0.011341298 0.019243734 0.026026687 0.024576083
-0.0048825545 0.0070715076 0.008925456 0.015448041 -0.0039329063 -0.025318708 -0.020820057 0.008707893
-0.010681045 -0.022071408 -0.000731086 -0.020692324 0.022378854 0.02001865 0.026324395 -0.029112034
-0.0043371613 0.0050173295 0.005414909 -0.006138926 -0.008933202 -0.011302074 -0.01599918 -0.024678877
-0.007738106 -0.040376324 -0.012436094 0.00755683 -0.008652754 -0.010745091 0.013403631 -0.019314937
0.028742876 -0.016607909 -0.0035643694 -0.0114439055 -0.033193275 -0.006904725 -0.0035522487 -0.027128857
0.024462057 -0.03206339 0.021851916 -0.029896626 0.008760469 -0.012708416 -0.011295341 0.0067244587
-0.008859045 0.02365382 -0.020617455 0.014483383 0.016582636 0.008777131 -0.0080934055 0.013000285
0.021254549 0.022254784 -0.006348133 0.01634664 -0.0076132403 -0.0030991528 -0.002891373 0.02604407
00000000: e053 cb3b 23bf 2fbd f0f9 cdbb 0640 0fbc
00000010: 6cd7 a93c f768 093d cfe5 f73b 88ef 913c
00000020: b93f 0a3c 4ef0 afbc 9e78 dbbb c596 853b
00000030: bac5 1b3c 9ab0 db3b 0ce3 93bc 17fb 34bc
00000040: 0cb3 7d3c 4f24 c33c be85 d9ba 6b62 ff3b
00000050: 6923 bf3c de42 663c e4f6 08bc 6de8 ad3a
00000060: 9a92 ba3b 60c7 c9bc 6344 123c b798 58b9
00000070: 53b0 52bb d456 263b c77b 9f3a ba62 c3bc
00000080: c20a d23a 337c 3a3c a04c 863c 3d9b 8d3b
00000090: 3cd8 133c a28a 74bc 31a9 023c ff36 d73b
000000a0: 6ead bb3b 3eb5 a6bc 47dc dfbc 8ee8 f9bc
000000b0: abc8 973b 69d7 a63c ef91 aa3c aa27 2f3d
000000c0: 109a 10bc d55e 96bb e216 8cbb b317 0fbc
000000d0: f7bd 4b3c 0f37 02bb 70c9 d73c 5721 f73c
000000e0: c912 b4bc 0f63 25bb 6370 29bb 5de6 b3bb
000000f0: 71b7 fa38 f693 edbb 8a46 7ebb 205e 43bc
00000100: 4874 d1b8 28c0 2c3c 516a 243b a722 f7bc
00000110: 4eb5 3d3c e926 b9ba 71d7 eab9 3aef efbb
00000120: 4be0 4f3c ba62 9d3c 3401 643b 38f6 f23c
00000130: aa21 e2bb 159f c5bb 9666 24bd cdaf 4e3c
00000140: 98f0 263c e801 57bc f537 0fb9 f105 b23b
00000150: f485 27b9 e5e4 08bc 0590 0a3c 81e2 e3b9
00000160: c68f d93c 5b14 883c 2ef3 5e3c 98d8 a13c
00000170: a738 853a ec28 33bc 9261 81bc d763 d539
00000180: 5d1a 22bc f3cd 21bc 144f d7bb c39f 2fbb
00000190: 39c8 5bbb c4f5 dd3b fe9f 163c ba20 b53c
000001a0: 9d79 fbbb 1678 8bbc 90bc edbc 2fea 693c
000001b0: 062e 963b dfd1 debb a970 c43c 2e16 d9ba
000001c0: 24f5 2d3b f58d 0dbd 82b8 85b8 c1fe c0bc
000001d0: 5716 05bc 7d89 b73b 56fc 17bd a08f 9bbc
000001e0: 7c2f 913a 0710 81bb 1e11 053b dba7 42bb
000001f0: 16e0 9f3b ee8b 813b 1fe6 593c 73b3 08bd
00000200: 8444 723c 5e85 893c 592a 653c b74e 85ba
00000210: b4b1 1ebd 826c 8ebc 42b5 603c 3d9d 74bc
00000220: 36fd 10bd 9bf9 92bb 1b29 8a3c 2f6c 4c3b
00000230: 9554 1ebc 7248 c0bb cfe4 433b dc17 b3bc
00000240: 767d 39bd 0885 2cbc 9913 8f3b 3a64 50bc
00000250: 2534 29bc e3ae 0dbd 2f40 b33c bc5c 55b5
00000260: 3d9e 0abd 4bd2 e83b 3a05 e1bc 1650 983c
00000270: 2b5b e6bc 808b c43c 65ee c0bc 44be 863c
00000280: 1af3 e63c 0847 abbc 6837 66bc afbd 07bb
00000290: a2f2 4abc 26dd 9c3b 9229 363b 17dc 683b
000002a0: c09c c1bb 53c6 8e3c 03bf a53c 9183 a63c
000002b0: abe9 6bbc 8286 9dbb 63f4 21bd 37ed 43bd
000002c0: c915 953c c2b5 b03c b7d7 78bc 2ea2 c53c
000002d0: 2115 c73b c9e7 9dbc b8f7 25bc 926e 79bc
000002e0: 7c5d 283c b3a8 2e3c 8ed4 8bbb 93c2 8fbb
000002f0: dad0 39bc 09a5 9d3c eb35 d53c c853 c93c
00000300: d6fd 9fbb 1bb8 e73b 133c 123c c819 7d3c
00000310: 9cdf 80bb 2e69 cfbc d38e aabc 8dab 0e3c
00000320: 8dff 2ebc 19cf b4bc 5aa6 3fba f382 a9bc
00000330: dc53 b73c 27fe a33c 42a6 d73c 5c7c eebc
00000340: bf1e 8ebb 6968 a43b 8d6f b13b 0b29 c9bb
00000350: 915c 12bc 562c 39bc b610 83bc 5b2b cabc
00000360: f08f fdbb a561 25bd c2c0 4bbc 499f f73b
00000370: 48c4 0dbc 2e0c 30bc e79a 5b3c 5c3a 9ebc
00000380: 2e76 eb3c 4f0d 88bc 3298 69bb 387f 3bbc
00000390: acf5 07bd 0841 e2bb d8cc 68bb 563d debc
000003a0: a764 c83c e754 03bd ca02 b33c c5e9 f4bc
000003b0: 1288 0f3c f636 50bc 1810 39bc d958 dc3b
000003c0: 8725 11bc a8c5 c13c f0e5 a8bc b64b 6d3c
000003d0: 4fd8 873c f5cd 0f3c 349a 04bc 26ff 543c
000003e0: 051e ae3c aa4f b63c 0004 d0bb 64e9 853c
000003f0: 7d78 f9bb 281b 4bbb 307d 3dbb 605a d53c

discrete_action_output_shape f4 [1, 2]
3.0 3.0
00000000: 0000 4040 0000 4040

network_body._body_endoder.seq_layers.0.bias f4 [128]
-0.015168444 -0.013004048 0.0045013744 -0.009664527 0.028959366 0.0025191065 0.011913228 0.005627689
0.018530484 0.0072292686 -0.020718077 0.009704167 0.0073201605 0.0067745787 -0.015229077 0.0058003007
0.0024162203 0.010882661 0.022035811 -0.0011547266 0.026048785 0.04079997 0.0011724408 0.0047459234
0.022212489 -0.0037518162 0.01637529 0.0070507447 0.030806543 0.011899134 0.028630378 0.019473815
-0.0073612668 0.027809732 0.0021041054 0.0049068383 0.010648393 0.027023904 -0.0044529913 -0.004841279
0.022241753 0.01212453 0.030737573 0.0012151306 0.019626187 0.01958758 0.025140742 0.009312376
0.055243738 0.01374327 0.024791045 0.0017008114 -0.0035500757 0.062344827 -0.0058122356 0.012867419
0.02946925 -0.008544559 0.024116268 0.023476645 0.00014985871 -0.021525513 0.023763323 0.03130338
9.937362e-05 0.016142983 0.041033246 0.030542802 0.026902677 0.021651309 0.03911161 0.010130695
0.022790043 -0.0068314574 0.029384382 0.037148613 0.029678699 0.017279234 0.027974425 0.0026511038
0.0015984419 0.009386692 -0.0113030495 0.014393683 0.010956409 0.029053498 0.0021979758 0.011815708
0.014014657 0.006073071 0.0021436536 0.02724216 0.016969405 0.02537103 0.0012194057 0.026567927
0.020627076 0.00025090683 0.011978266 0.011406783 0.019675465 -0.002437087 -0.025957411 -0.015033396
-0.002784025 0.009016852 0.0027306853 0.028087715 0.02458758 0.0049705463 0.023401918 0.017634124
0.007858812 -0.02177333 0.028705642 0.023203246 0.005892996 0.026891237 0.0438117 0.021632155
-0.0040372983 0.027026903 0.022651944 0.036684338 0.0019161439 0.023739088 -0.0038124637 0.006370317
00000000: 1185 78bc ee0e 55bc 4480 933b f757 1ebc
00000010: 313c ed3c 9817 253b b32f 433c 7a68 b83b
00000020: 3ecd 973c 80e3 ec3b f5b8 a9bc 3afe 1e3c
00000030: f5dd ef3b 49fd dd3b 6183 79bc 7310 be3b
00000040: 7359 1e3b 304d 323c 7284 b43c 325a 97ba
00000050: 4364 d53c df1d 273d 96ac 993a b183 9b3b
00000060: f7f6 b53c 08e1 75bb 7925 863c ef09 e73b
00000070: 015e fc3c 96f4 423c 418a ea3c 8d87 9f3c
00000080: c836 f1bb 3cd1 e33c 08e5 093b 8bc9 a03b
00000090: 9976 2e3c 3c61 dd3c 66ea 91bb 97a3 9ebb
000000a0: 5634 b63c f7a5 463c 5dcd fb3c 0445 9f3a
000000b0: 19c7 a03c 2276 a03c f5f3 cd3c f092 183c
000000c0: 4247 623d 742b 613c 9716 cb3c c3ed de3a
000000d0: 63a8 68bb 4a5d 7f3d 9174 bebb ded1 523c
000000e0: 7f69 f13c 7afe 0bbc 7b8f c53c 1852 c03c
000000f0: 6423 1d39 4656 b0bc 4dab c23c f937 003d
00000100: ce66 d038 4a3e 843c 7a12 283d e634 fa3c
00000110: 0163 dc3c 165e b13c 7f33 203d 37fb 253c
00000120: 2fb2 ba3c 6bda dfbb 84b7 f03c 2529 183d
00000130: be20 f33c 2e8d 8d3c 9f2a e53c 24be 2d3b
00000140: cf82 d13a a4ca 193c 6d30 39bc 7bd3 6b3c
00000150: 8382 333c 9a01 ee3c ea0b 103b ac96 413c
00000160: bb9d 653c 9d00 c73b 8a7c 0c3b f32a df3c
00000170: 6c03 8b3c e8d6 cf3c 77d4 9f3a fba4 d93c
00000180: 1dfa a83c 258c 8339 7d40 443c 84e3 3a3c
00000190: 712e a13c 89b7 1fbb a3a4 d4bc a24e 76bc
000001a0: 3074 36bb 6bbb 133c 4cf5 323b 3518 e63c
000001b0: e46b c93c f7df a23b 61b5 bf3c 7075 903c
000001c0: 3fc2 003c fc5d b2bc 1828 eb3c bc14 be3c
000001d0: 091a c13b 034b dc3c e673 333d eb35 b13c
000001e0: 504b 84bb 8667 dd3c 9290 b93c 5142 163d
000001f0: 1f27 fb3a 7a78 c23c 87da 79bb 18be d03b

network_body._body_endoder.seq_layers.0.weight f4 [128, 55]
0.17085752 0.066152796 -0.12794363 -0.16551381 0.18680261 0.16466524 -0.10499633 -0.06815514
-0.0697209 -0.06381735 0.13204817 0.07359631 0.23604085 0.09370987 0.028445099 -0.23217228
-0.07667283 -0.056308713 -0.07917389 -0.40799806 0.023733765 -0.16179498 -0.23807448 -0.0199919
-0.20045199 0.019500058 -0.08151839 0.06602805 0.15830004 0.0986747 0.09911044 -0.1273778
-0.038068343 0.12787448 -0.028915178 0.20283103 -0.18147808 -0.07343801 -0.018350687 -0.23379835
-0.08447165 -0.03314097 0.0043187705 -0.020330606 0.04872199 0.08849645 0.05574742 -0.0052738423
0.09157089 -0.04421149 0.093220815 -0.12852764 -0.0291288 0.030344963 -0.1724834 0.031284545
-0.0186697 0.0133194495 -0.1318456 -0.021717798 -0.20438601 0.11991828 -0.054567944 0.010902659
0.008966521 -0.08152454 0.09411244 -0.12953666 -0.020941095 -0.26833868 0.13762274 -0.023282543
0.042228535 0.16559194 0.06760243 -0.20310752 -0.059046183 0.0020080176 0.14614184 0.118989825
0.2414179 -0.02625308 0.22143462 -0.0631322 0.10273561 0.13981749 0.006743961 0.07748422
0.01850398 -0.004072204 0.0782044 -0.003959093 -0.13778977 0.005606391 -0.05008973 -0.0663159
0.21782193 0.015901003 -0.05360105 -0.021835612 0.03806112 0.061015166 0.09353556 -0.08555662
-0.0043048114 -0.07767276 0.09995343 0.04381665 -0.14728399 -0.21094552 0.15961334 -0.06644444
0.19887389 -0.011401668 0.028886724 0.06795739 0.34857506 0.08586195 -0.08690237 0.110667914
0.14540677 -0.30805108 -0.06824575 -0.04194917 0.1309131 -0.22531123 0.12890223 -0.047512177
-0.028308703 0.07833266 0.07848194 -0.19795135 0.06206554 0.062018767 0.033203635 -0.07620976
0.10980976 0.112852626 -0.0042601917 -0.09236469 -0.094271965 -0.09244238 0.08082807 0.26400644
0.08757144 -0.004103867 -0.15835589 -0.056715608 0.020655718 -0.124223694 -0.055729132 -0.1748115
-0.060429253 -0.08439932 -0.013469082 -0.016687434 0.12329417 -0.11033268 0.12153291 0.21204837
0.11779051 0.05922451 0.12782605 0.11854285 -0.17560427 0.291862 -0.032205768 0.16791044
-0.050196867 0.14847998 -0.009596715 0.3116346 -0.026859324 -0.042659253 -0.12980157 0.11790501
-0.10241307 -0.018549666 -0.16471057 0.046901755 -0.103897825 0.12741496 -0.04134775 0.16198823
-0.041352883 0.23329571 -0.026010236 -0.42534053 0.059736602 0.08547976 -0.11102034 0.00042385943
0.12008174 -0.1596558 -0.090334594 0.17075242 0.17161821 0.1898672 -0.30678335 0.24107927
-0.031880878 -0.16624795 0.035067257 0.048941582 0.10869686 -0.14314859 0.34438175 0.14145857
-0.17137112 -0.08844704 0.12766097 0.16633123 -0.20831259 0.007038441 -0.15729249 0.043230504
-0.07552156 -0.0848106 0.14503644 -0.3397406 -0.31492612 0.26262695 0.20321062 0.14524566
0.27713293 -0.10662251 0.10883874 -0.35118246 0.06393425 0.08100158 0.0058282064 0.115494326
-0.044557042 0.08362705 0.14442427 -0.11971493 0.17766377 0.059820395 0.03470951 0.043327734
0.058870703 0.01908574 -0.12300988 -0.018898832 0.1061771 0.056782868 0.05783928 -0.025742387
0.052432086 0.08415215 0.21469836 0.2650984 -0.15221427 0.03681612 0.102493435 0.09109611
00000000: 46f5 2e3e 1e7b 873d a803 03be 747c 29be
00000010: 2f49 3f3e 019e 283e 5108 d7bd ec94 8bbd
00000020: d5c9 8ebd acb2 82bd a337 073e aab9 963d
00000030: b1b4 713e f6ea bf3d b205 e93c 92be 6dbe
00000040: a506 9dbd f7a3 66bd ec25 a2bd 1fe5 d0be
00000050: 506d c23c 95ad 25be ccc9 73be 0ec6 a3bc
00000060: 4943 4dbe 96be 9f3c 1df3 a6bd b739 873d
00000070: 6819 223e f615 ca3d 6afa ca3d 536f 02be
00000080: 8ded 1bbd 87f1 023e 86df ecbc f0b2 4f3e
00000090: 64d5 39be ab66 96bd 2e54 96bc d668 6fbe
000000a0: 79ff acbd d3be 07bd 7984 8d3b 5f8c a6bc
000000b0: b690 473d a03d b53d 6857 643d 32d0 acbb
000000c0: 8589 bb3d 1b17 35bd 8eea be3d c09c 03be
000000d0: 859f eebc 0096 f83c 7d9f 30be 3924 003d
000000e0: 33f1 98bc d239 5a3c 8802 07be 86e9 b1bc
000000f0: 914a 51be b797 f53d a382 5fbd 11a1 323c
00000100: 51e8 123c 57f6 a6bd 06be c03d 42a5 04be
00000110: a98c abbc b063 89be faec 0c3e 08bb bebc
00000120: d4f7 2c3d ef90 293e 2573 8a3d 6bfb 4fbe
00000130: 69da 71bd f298 033b 35a6 153e f0b0 f33d
00000140: 4136 773e b310 d7bc c2bf 623e 744b 81bd
00000150: 0c67 d23d 512c 0f3e 72fc dc3b 0cb0 9e3d
00000160: a995 973c 2070 85bb a129 a03d 47bb 81bb
00000170: c318 0dbe d1b5 b73b e42a 4dbd a1d0 87bd
00000180: b60c 5f3e d242 823c c68c 5bbd 99e0 b2bc
00000190: fae5 1b3d 0aeb 793d 928f bf3d 4f38 afbd
000001a0: 600f 8dbb e512 9fbd 62b4 cc3d 1679 333d
000001b0: 9dd1 16be 1a02 58be ae71 233e 0614 88bd
000001c0: 99a5 4b3e 10ce 3abc daa3 ec3c 3e2d 8b3d
000001d0: 6e78 b23e 64d8 af3d dff9 b1bd dca5 e23d
000001e0: 83e5 143e dfb8 9dbe 6ec4 8bbd e5d2 2bbd
000001f0: 150e 063e fdb7 66be f2fe 033e 219c 42bd
00000200: a7e7 e7bc e06c a03d 24bb a03d c2b3 4abe
00000210: 7038 7e3d 6407 7e3d 8900 083d dd13 9cbd
00000220: f0e3 e03d 471f e73d 1499 8bbb b329 bdbd
00000230: a911 c1bd 6e52 bdbd 3089 a53d da2b 873e
00000240: a858 b33d bb79 86bb 0c28 22be a04e 68bd
00000250: 2e36 a93c fe68 febd 3b44 64bd c901 33be
00000260: aa84 77bd 8dd9 acbd 6dad 5cbc 16b4 88bc
00000270: a781 fc3d 1af6 e1bd 3fe6 f83d 3523 593e
00000280: 273c f13d 6695 723d d5e4 023e 98c6 f23d
00000290: 9bd1 33be f06e 953e 32ea 03bd b7f0 2b3e
000002a0: 3b9b 4dbd 230b 183e 8a3b 1dbc 928e 9f3e
000002b0: 1608 dcbc 78bb 2ebd b4ea 04be 2f78 f13d
000002c0: f2bd d1bd 78f5 97bc e3a9 28be 0e1c 403d
000002d0: 62c8 d4bd 1179 023e 425c 29bd 3ee0 253e
000002e0: a461 29bd 12e5 6e3e 6b13 d5bc 3cc6 d9be
000002f0: 5eae 743d 0310 af3d a25e e3bd 7339 de39
00000300: 6aed f53d cf7c 23be 5801 b9bd b9d9 2e3e
00000310: afbc 2f3e 8c6c 423e b512 9dbe 7cdd 763e
00000320: 8695 02bd e73c 2abe afa2 0f3d f876 483d
00000330: 769c de3d 8b95 12be ce52 b03e 84da 103e
00000340: e97b 2fbe b923 b5bd 8fb9 023e bc52 2a3e
00000350: e54f 55be b9a2 e63b 4811 21be 7812 313d
00000360: 0cab 9abd 2eb1 adbd 6f84 143e 7bf2 adbe
00000370: ff3d a1be 0a77 863e 7216 503e 47bb 143e
00000380: 5ee4 8d3e e75c dabd d8e6 de3d 30ce b3be
00000390: f6ef 823d 28e4 a53d 8afa be3b 4a88 ec3d
000003a0: 7281 36bd a944 ab3d f5e3 133e 1a2d f5bd
000003b0: 7eed 353e 3b06 753d 8f2b 0e3d 6c78 313d
000003c0: 6822 713d b359 9c3c 9bec fbbd b9d1 9abc
000003d0: 6173 d93d 2795 683d e2e8 6c3d b3e1 d2bc
000003e0: 07c3 563d f657 ac3d e3d9 5b3e faba 873e
000003f0: 0fde 1bbe 80cc 163d 14e8 d13d 9990 ba3d

network_body._body_endoder.seq_layers.2.bias f4 [128]
0.0037985106 0.0071186726 0.0045465315 -0.020092027 0.00877241 0.009869561 0.024296047 0.019060273
0.0063152937 0.0023643728 0.022061817 0.029696962 0.013029791 0.004611435 -0.0018058873 -0.005976382
0.017092517 0.023799814 0.014325419 0.01737532 0.0046838694 0.00521005 0.0126255965 0.025437485
0.008000462 0.018363722 -0.0041689207 0.010088749 0.0025502956 0.02673354 -0.0075564403 0.020350114
0.014730354 -0.002590192 0.030885573 0.032595523 0.0015551755 0.016540881 0.02334997 0.011777617
0.02321173 0.010843615 0.010428337 0.017750744 0.0087127 0.007585308 0.007250427 0.010025148
0.017940957 0.01904718 0.0014312766 0.01833128 -0.0035340772 0.016215146 0.01880471 0.013515319
0.0194192 0.010231691 0.011108277 0.015133507 0.0062508644 0.032645956 0.021547385 0.01861051
0.0022008733 0.019567475 0.027015867 0.0140909385 0.02218115 0.003988236 0.0018592107 0.00033814594
0.018043483 0.005226677 0.020840231 0.017727295 0.024217622 0.02132765 -0.008731403 -0.005432124
0.0171078 0.0033233303 0.016766101 0.019391049 0.0074274563 0.00430527 0.016364342 0.011839668
0.009722025 0.010548877 -0.00021487544 0.02106909 -0.00056858384 0.011351377 0.01888904 0.031487964
0.0052894074 0.00088552595 0.020578623 0.0067505296 -0.006593127 0.008923514 0.0050966167 0.00040007674
0.025288127 -0.014609074 0.020723352 0.010950922 0.01536975 0.013028847 0.021827169 0.019225406
0.009337804 0.004837363 -0.004650774 0.0016822268 0.02169172 0.025372336 -0.0107634105 -0.0012853576
0.017770704 0.011021341 0.012399182 0.023439594 0.009349428 0.017442547 0.01314191 0.016212262
00000000: 6ff0 783b c143 e93b 12fb 943b 0998 a4bc
00000010: 28ba 0f3c f0b3 213c 8108 c73c 4a24 9c3c
00000020: 86f0 ce3b 98f3 1a3b fcba b43c 0b47 f33c
00000030: e87a 553c 851b 973b 86b3 ecba 87d5 c3bb
00000040: 9b05 8c3c d4f7 c23c 2ab5 6a3c b056 8e3c
00000050: 257b 993b 11b9 aa3b 97db 4e3c 4662 d03c
00000060: 5f14 033c 846f 963c 719b 88bb 484b 253c
00000070: dc22 273b 4c00 db3c 049c f7bb 48b5 a63c
00000080: 9557 713c 36c0 29bb be03 fd3c e282 053d
00000090: 08d7 cb3a be80 873c 7048 bf3c e8f6 403c
000000a0: 8726 be3c 6ba9 313c 9edb 2a3c 026a 913c
000000b0: b6bf 0e3c 2d8e f83b fd94 ed3b 8540 243c
000000c0: eaf8 923c d508 9c3c ac99 bb3a 7b2b 963c
000000d0: fa9b 67bb a0d5 843c 560c 9a3c 5b6f 5d3c
000000e0: 0415 9f3c d3a2 273c 7eff 353c 87f2 773c
000000f0: 0dd4 cc3b c4b7 053d 2484 b03c 1175 983c
00000100: 873c 103b f84b a03c 6150 dd3c aedd 663c
00000110: 3eb5 b53c c0af 823b c2b0 f33a 2e49 b139
00000120: edcf 933c 8b44 ab3b 22b9 aa3c d538 913c
00000130: 0964 c63c 53b7 ae3c 290e 0fbc f5ff b1bb
00000140: a825 8c3c 3bcc 593b 1059 893c fad9 9e3c
00000150: 0562 f33b 3913 8d3b 830e 863c 2bfb 413c
00000160: 2149 1f3c 32d5 2c3c 3050 61b9 1699 ac3c
00000170: 040d 15ba 20fb 393c 30bd 9a3c 86f9 003d
00000180: c452 ad3b a422 683a 8094 a83c 8c33 dd3b
00000190: 280b d8bb ee33 123c 8501 a73b 64c1 d139
000001a0: 0c29 cf3c e65a 6fbc 05c4 a93c 7f6b 333c
000001b0: 67d1 7b3c f276 553c e4ce b23c 997e 9d3c
000001c0: 97fd 183c be82 9e3b 8565 98bb 2a7e dc3a
000001d0: d5b2 b13c a5d9 cf3c 0459 30bc 7279 a8ba
000001e0: de93 913c db92 343c f025 4b3c 6404 c03c
000001f0: 582e 193c ace3 8e3c 2a51 573c 94cf 843c

network_body._body_endoder.seq_layers.2.weight f4 [128, 128]
-0.061197385 -0.26139477 0.022392891 -0.05740122 -0.01918434 0.06656809 0.11505574 -0.02032799
-0.01189125 -0.03388374 -0.070553325 0.138014 -0.09683785 -0.053827055 -0.092183836 -0.058065422
-0.0935561 0.09424507 0.03304343 -0.111180976 0.03870372 -0.01973379 0.13955668 -0.0025963169
0.032443456 -0.017308347 -0.16787632 -0.012581103 -0.07533238 0.07924742 0.1303093 0.063139796
-0.018418476 0.042351644 0.04147564 0.03552229 0.11699074 -0.05272056 -0.09494088 0.11485455
0.041646276 -0.008315467 -0.004681334 0.08568011 -0.03509634 0.032544926 0.056570843 0.011643305
0.1043793 -0.1773462 -0.052791737 -0.015829429 0.0017194522 0.1684134 -0.03071655 0.057659697
-0.11446992 0.14922482 0.01809943 0.12570615 0.069431536 -0.024807397 0.08650727 0.17193964
-0.022279095 0.00053682266 0.14443748 0.10831871 -0.18332556 0.08244131 0.16271494 0.042121205
0.02007156 -0.016586274 0.023131294 -0.114609204 -0.027287975 0.2072276 0.061106004 0.021310685
0.13049881 0.12106704 -0.03067842 0.030464526 0.11061893 0.04482444 -0.041615196 -0.09020801
-0.023892706 -0.050462116 0.11268405 -0.1306412 -0.006748578 0.14446373 0.121575885 -0.06634432
0.045618683 0.0008020252 0.10429447 -0.00068415626 -0.002118711 -0.033140425 0.04291926 -0.028978085
-0.03836956 0.030080691 -0.03749787 -0.1698636 -0.15164588 0.17844765 -0.12656498 -0.059158716
-0.14177644 0.03613459 0.07948823 -0.05899668 0.14466047 0.15653853 0.06092313 -0.13498703
-0.006744072 0.031412184 0.15586273 0.05140585 0.0017140717 0.03827259 0.12751998 -0.23497573
-0.07734067 0.0076007755 -0.08187996 -0.03443268 -0.008061656 0.018814811 0.03744231 -0.19483207
0.009565212 0.088162884 0.06343558 0.03491836 -0.1893419 -0.010008302 0.17536184 -0.038364936
-0.13713855 -0.111958005 0.051011793 -0.052268572 0.16084063 0.10495079 -0.04694586 -0.013151773
0.029525299 0.0018357856 0.007980538 -0.13260491 0.12597433 -0.09610827 0.26626572 -0.000991498
-0.12166383 -0.08186523 0.095893845 0.05919779 -0.1321697 -0.1310376 -0.07431774 0.086200826
0.18907902 0.050434873 0.10233915 -0.13191359 -0.00013620686 -0.036150776 -0.043483075 -0.0450978
0.12592068 -0.09259339 -0.00811832 -0.027681487 -0.12857288 -0.010916441 0.13273641 -0.027792389
-0.20895262 -0.057218708 0.19963174 -0.055212878 -0.25148353 0.020552436 -0.0023535532 -0.022363152
0.023504894 -0.035528135 0.012162101 -0.1064231 -0.0038293297 0.002194442 -0.073783234 -0.060427252
0.07539877 0.17109132 -0.045911267 -0.032377414 0.008646281 0.09046503 -0.021736903 -0.08944637
-0.021808356 0.079928674 -0.098706305 -0.005623856 0.06643011 0.009918424 -0.027402414 -0.072327614
0.06366365 0.062335126 0.0762478 0.07218983 -0.053283244 -0.0086941775 0.19927578 -0.0007408761
0.02428133 0.018696485 0.004399834 -0.0878557 0.15035993 0.0072429213 -0.022445962 0.06961048
0.0986748 -0.108663626 0.102940395 0.22666377 0.0040241606 0.047963828 -0.08309227 -0.08328193
0.09847317 0.14096068 0.0070751864 0.019544585 0.11007763 -0.001512298 -0.083297014 0.09201776
-0.030902512 0.03479435 0.048634507 0.035197496 0.06814531 -0.014734397 -0.077436954 0.09268792
00000000: 1caa 7abd 89d5 85be 4c71 b73c 8b1d 6bbd
00000010: 7a28 9dbc da54 883d 58a2 eb3d e386 a6bc
00000020: 84d3 42bc adc9 0abd 437e 90bd 8b53 0d3e
00000030: ec52 c6bd c279 5cbd e1ca bcbd 02d6 6dbd
00000040: 579a bfbd 8f03 c13d 8c58 073d dab2 e3bd
00000050: cb87 1e3d c2a8 a1bc f2e7 0e3e f826 2abb
00000060: 6ee3 043d 3cca 8dbc c5e7 2bbe f820 4ebc
00000070: dd47 9abd 794c a23d cd6f 053e 704f 813d
00000080: 58e2 96bc eb78 2d3d 5ce2 293d d27f 113d
00000090: d798 ef3d 84f1 57bd 5d70 c2bd dd38 eb3d
000000a0: 4995 2a3d 993d 08bc e065 99bb 0e79 af3d
000000b0: 2ec1 0fbd d44d 053d d4b6 673d 90c3 3e3c
000000c0: d0c4 d53d 3e9a 35be 263c 58bd b8ac 81bc
000000d0: 3e5f e13a 9074 2c3e 46a1 fbbc 932c 6c3d
000000e0: 356f eabd 64ce 183e 4145 943c 1db9 003e
000000f0: 1f32 8e3d e238 cbbc b92a b13d f210 303e
00000100: a682 b6bc 8fb9 0c3a 6be7 133e 33d6 dd3d
00000110: b2b9 3bbe fdd6 a83d bf9e 263e 4987 2c3d
00000120: 1d6d a43c f0df 87bc d77d bd3c 3bb8 eabd
00000130: 088b dfbc 7933 543e 4a4a 7a3d bf93 ae3c
00000140: 7ba1 053e fff1 f73d 4f51 fbbc be90 f93c
00000150: 2d8c e23d d599 373d b274 2abd fabe b8bd
00000160: a3ba c3bc 5db1 4ebd e5c6 e63d cfc6 05be
00000170: 2d23 ddbb 4dee 133e c7fc f83d 88df 87bd
00000180: a8da 3a3d 003f 523a 5798 d53d f358 33ba
00000190: 12da 0abb 41be 07bd 1bcc 2f3d 7363 edbc
000001a0: 6629 1dbd c86b f63c 5e97 19bd b9f0 2dbe
000001b0: 0f49 1bbe fbba 363e 409a 01be 6950 72bd
000001c0: d82d 11be dd01 143d baca a23d 81a6 71bd
000001d0: e021 143e a34b 203e 888a 793d 0a3a 0abe
000001e0: 60fd dcbb 10aa 003d 7b9a 1f3e f18e 523d
000001f0: b4aa e03a b8c3 1c3d 9994 023e 7a9d 70be
00000200: c964 9ebd ed0f f93b aeb0 a7bd 4809 0dbd
00000210: 0915 04bc 8521 9a3c 1c5d 193d 0f82 47be
00000220: 68b7 1c3c be8e b43d 83ea 813d 8e06 0f3d
00000230: d8e2 41be dcf9 23bc 0e92 333e 8d24 1dbd
00000240: 0c6e 0cbe 3d4a e5bd bef1 503d 9217 56bd
00000250: 68b3 243e 71f0 d63d 4d4a 40bd 897a 57bc
00000260: 0adf f13c be9e f03a cdc0 023c 95c9 07be
00000270: 6aff 003e 6ad4 c4bd fb53 883e 27f5 81ba
00000280: e32a f9bd f5a8 a7bd fe63 c43d 6279 723d
00000290: 7e57 07be b82e 06be e633 98bd 0f8a b03d
000002a0: ee9d 413e cc94 4e3d 3097 d13d 5b14 07be
000002b0: c0d2 0eb9 d612 14bd 4f1b 32bd 79b8 38bd
000002c0: 5af1 003e 9aa1 bdbd b402 05bc 49c4 e2bc
000002d0: 9ca8 03be dfda 32bc 0eec 073e ddac e3bc
000002e0: adf7 55be 2a5e 6abd 436c 4c3e e626 62bd
000002f0: 73c2 80be 955d a83c 123e 1abb ee32 b7bc
00000300: 568d c03c f385 11bd 8d43 473c 5bf4 d9bd
00000310: 7ef5 7abb a1d0 0f3b aa1b 97bd 9182 77bd
00000320: ac6a 9a3d 9032 2f3e 740d 3cbd 2e9e 04bd
00000330: 22a9 0d3c bb45 b93d 9711 b2bc a92f b7bd
00000340: 70a7 b2bc a5b1 a33d 8826 cabd 5348 b8bb
00000350: 820c 883d e380 223c 077b e0bc 8020 94bd
00000360: 1662 823d 1e53 7f3d ce27 9c3d 43d8 933d
00000370: 883f 5abd 0672 0ebc f30e 4c3e 5a37 42ba
00000380: a4e9 c63c 5f29 993c 7c2c 903b b0ed b3bd
00000390: f4f7 193e 0756 ed3b 98e0 b7bc f08f 8e3d
000003a0: 0316 ca3d 098b debd 6ad2 d23d 8c1a 683e
000003b0: 1bdd 833b b875 443d 482c aabd b78f aabd
000003c0: 4dac c93d ff57 103e f7d6 e73b f71b a03c
000003d0: 6170 e13d 4d38 c6ba a097 aabd cf73 bc3d
000003e0: 4427 fdbc 8584 0e3d fa34 473d 402b 103d
000003f0: c58f 8b3d 8a68 71bc 4497 9ebd 2ad3 bd3d
