results/Test2SpeedChangePeople24Novembre/MoveToGoal/MoveToGoal-999948.onnx (onnx, 100836 bytes, 9 tensors)

action_model._discrete_distribution.branches.0.bias f4 [3]
0	0x3cbc1d2f	0.022963135
1	0xbc2b873d	-0.010469255
2	0xbc8f8c84	-0.017523058

action_model._discrete_distribution.branches.0.weight f4 [3, 128]
0	0xbcde0536	-0.027102094
1	0xbc5c62cb	-0.013451288
2	0x3d31984f	0.043358143
3	0xbd34a8e8	-0.044106394
4	0xbcd01fcb	-0.025405785
5	0xbcb26f13	-0.02178148
6	0x3be5f899	0.0070181605
7	0xbdae822e	-0.085209236
8	0xbd69ab23	-0.057047974
9	0xbd89047d	-0.06690309
10	0x3d6e0398	0.058108896
11	0x3d1bc35b	0.038028102
12	0x3cdb2ac8	0.026753798
13	0x3c909b1c	0.017652087
14	0xbd7ad77f	-0.06124067
15	0xbd9b62c3	-0.07587197
16	0x3d03563a	0.032064654
17	0x3b8a0daa	0.0042130547
18	0x3d466896	0.048439585
19	0x3d1b107b	0.037857514
20	0xbb3189b6	-0.0027090139
21	0xbdb1a86e	-0.086747035
22	0x3d02d8db	0.03194509
23	0x3d8b8db2	0.068141356
24	0xbd8a880c	-0.0676423
25	0x3d269701	0.040671352
26	0xbd5e802c	-0.054321453
27	0x3d20aac2	0.039225347
28	0xbdaa44da	-0.08313914
29	0x3d1d3164	0.03837718
30	0xbd31bf1d	-0.04339515
31	0xbd5293a2	-0.051410325
32	0x3d091368	0.033465773
33	0xbc05df4a	-0.008170912
34	0x3ce41962	0.027844135
35	0x3d63da3d	0.05562805
36	0xbd365b7e	-0.044520847
37	0x3bb69995	0.0055725076
38	0x3d7c6260	0.061617255
39	0x3d32c30a	0.043643035
40	0xbc4ce9e4	-0.012506936
41	0x3d805776	0.06266682
42	0xbac185e3	-0.0014764633
43	0x3b3cfe1b	0.0028837982
44	0xbcfc6542	-0.030810002
45	0xbb2ec510	-0.0026667751
46	0xbd190907	-0.037362125
47	0x3cef4a1b	0.02921014
48	0xbc88eee8	-0.016715482
49	0xbcbdd81f	-0.023174344
50	0xbd4f58c4	-0.050621763
51	0x3d111faf	0.035430606
52	0xbd0d74d0	-0.03453523
53	0xbdbc39e3	-0.091907285
54	0xbcc00deb	-0.023444137
55	0x3d56607c	0.05233811
56	0x3d3a2b08	0.045451194
57	0xbd4e04ed	-0.050297666
58	0x3a0ecec6	0.0005447682
59	0x3d42b438	0.04753515
60	0xbd950c7f	-0.07277774
61	0x3d5baedc	0.053633556
62	0x3c8e79a8	0.017391995
63	0x3d5c12ed	0.053728987
64	0x3bd2d391	0.006433912
65	0x3d24d168	0.040238768
66	0x3cd5e0bd	0.02610814
67	0x3cb4265c	0.021990947
68	0x3ab31709	0.0013663481
69	0xbd5375ad	-0.051625896
70	0xbd9f80e4	-0.07788256
71	0xbc022bd5	-0.007945021
72	0x3d7c1068	0.061539084
73	0x3cf937b3	0.030422067
74	0x3c697737	0.014249614
75	0xbcdca39c	-0.026933484
76	0x3d0d43fa	0.034488656
77	0x3cc7996f	0.024365155
78	0xbd0108ba	-0.031502463
79	0xbceb0d13	-0.028692758
80	0x3d99591d	0.074877
81	0xbdb8df8c	-0.09027013
82	0x3d4ba390	0.049716532
83	0x3d3a75a0	0.045522332
84	0x3d5b6c38	0.053570002
85	0xbd8def29	-0.06930382
86	0x3d1d6cba	0.038433768
87	0xbd9358a6	-0.07194643
88	0xbd4e0c20	-0.050304532
89	0xbdc47d77	-0.09594243
90	0x3aae1b12	0.0013283214
91	0x3ca2bde3	0.019865936
92	0xbba4e79a	-0.005032492
93	0x3d6f5e41	0.058439497
94	0x3d33bc87	0.043880966
95	0x3d46bb00	0.04851818
96	0xbcdde910	-0.027088672
97	0xbc7b0635	-0.015321304
98	0x3d94ef3e	0.07272194
99	0x3cb3ed61	0.021963777
100	0xbd53cfbb	-0.05171178
101	0x3b9266cc	0.0044678207
102	0xbb9cdef7	-0.0047873217
103	0x3aa9f56c	0.0012966818
104	0x3d62dac7	0.055384424
105	0xbd9d6e32	-0.07687034
106	0x3d59060d	0.052984286
107	0x3c0c6ae3	0.008570406
108	0x3db67648	0.08909279
109	0x3d417dc8	0.047239095
110	0x3c2ce892	0.010553496
111	0x3d412745	0.04715659
112	0xbc3b8895	-0.011446138
113	0xbc1b0a97	-0.009462974
114	0xbd8926de	-0.066968665
115	0x3aeb8540	0.0017968789
116	0x3d1bb0bf	0.038010355
117	0x3d8c964e	0.06864606
118	0xbd24a6b6	-0.04019805
119	0xbcde5faf	-0.027145235
120	0xbc8cbae8	-0.017178968
121	0xbcc4f9f4	-0.024044968
122	0xbde2c7f0	-0.11073291
123	0x3d511309	0.051043544
124	0xbddc67b9	-0.10761971
125	0xbc4a8ea6	-0.012363112
126	0x3d5f94b8	0.05458519
127	0x3ca83cbb	0.020536771
128	0x3d129a94	0.03579195
129	0x3d03ac0b	0.032146495
130	0xbd3db88e	-0.046318583
131	0x3d0b64cf	0.034031685
132	0xbd8d449c	-0.06897852
133	0xbd6fb4b3	-0.058521938
134	0x3d9aec66	0.07564621
135	0x3c483391	0.012219326
136	0x3becb187	0.0072233113
137	0x3d81f9ff	0.06346511
138	0x3cd91608	0.026499763
139	0xbd93ef30	-0.07223356
140	0xbd92c17d	-0.07165811
141	0xbd6fc6db	-0.058539253
142	0x3d74a4a4	0.059727326
143	0x3d5311b7	0.051530566
144	0xbdb3a6c7	-0.08772045
145	0xbdbe2a6d	-0.09285436
146	0xbd0e96d5	-0.034811813
147	0xbdd5348c	-0.10410413
148	0xbd81858e	-0.06324302
149	0x3c8f52ea	0.017495591
150	0x3bf0519a	0.0073339464
151	0xbd9bf04d	-0.07614193
152	0x3c807a0f	0.015683202
153	0xbdabb799	-0.08384628
154	0x3cccab00	0.024983883
155	0xbd0bafd1	-0.03410322
156	0x3c7b94b2	0.015355276
157	0x3d56e6cf	0.05246621
158	0x3c964d93	0.018347537
159	0x3dc721e9	0.09723265
160	0x3d2b3592	0.041799136
161	0x3c53b72a	0.012922088
162	0xbdc6d1a2	-0.09707953
163	0xbd7c6e62	-0.061628707
164	0x3d36dc6c	0.044643804
165	0xbd60fc69	-0.054928217
166	0x3d2237a9	0.039603863
167	0xbd369c43	-0.044582617
168	0xbdc60336	-0.09668581
169	0x3cdf68a6	0.02727158
170	0x3a6ffe47	0.0009155017
171	0xbcf57ccc	-0.029966734
172	0xbd3aabb9	-0.045573924
173	0x3d2aef79	0.041732285
174	0xbd684584	-0.05670692
175	0xbc1cd93f	-0.00957328
176	0x3da9e348	0.082953036
177	0x3d3642bd	0.04449724
178	0x3d83b5cc	0.064311594
179	0x3d3716ab	0.044699352
180	0x3cb56e93	0.022147452
181	0x3d36d894	0.04464014
182	0xbd9c6b06	-0.076376006
183	0xbc1e0a57	-0.00964602
184	0xbd91c971	-0.071185
185	0x3d9f8578	0.07789129
186	0x3d6ea1dd	0.058259834
187	0x3d49c3a3	0.04925884
188	0x3d3ddd34	0.046353534
189	0xbd8a9145	-0.06765989
190	0x3d847677	0.06467908
191	0xbcefdb6f	-0.029279439
192	0xbd626d23	-0.055279862
193	0xbd28e6bd	-0.041235674
194	0x3d6bf338	0.057605
195	0x3aec1f31	0.0018014667
196	0xbda7808c	-0.08178815
197	0xbc93e671	-0.018054219
198	0x3cef1cf0	0.029188603
199	0x3d4dff41	0.050292257
200	0xbd062829	-0.032753143
201	0x3c932e1c	0.017966323
202	0x3d3dc3e6	0.0463294
203	0x3d91792d	0.071031906
204	0xbca3dc5b	-0.020002535
205	0x3d2f6a3d	0.042825926
206	0x3cc975b1	0.024592252
207	0xbc8908cf	-0.016727833
208	0x3c19416c	0.009353977
209	0x3dac2f82	0.08407499
210	0xbd55d457	-0.052204456
211	0xbd936811	-0.071975835
212	0x3cd14329	0.02554472
213	0x3d52ac88	0.05143407
214	0x3d197fba	0.037475325
215	0x3bf9cef2	0.0076235468
216	0x3d5d4217	0.054018106
217	0xbcb6781d	-0.022274071
218	0x3c121f5e	0.008918611
219	0xbda3f1b5	-0.08005086
220	0xbc60cfc5	-0.013721411
221	0xbdb6e030	-0.08929479
222	0xbdb78696	-0.08961217
223	0xbdcdfb32	-0.10057677
224	0x3d870088	0.06591898
225	0x3d0f78d6	0.035027348
226	0xbc94b7a9	-0.018153982
227	0x3cb3e94d	0.021961832
228	0x3c8aef58	0.016959831
229	0xbda09ecb	-0.07842787
230	0xbd40c07e	-0.047058575
231	0x3cbfc1e7	0.02340789
232	0xbd545732	-0.05184097
233	0x3d2c3898	0.04204616
234	0xbd45b177	-0.048264947
235	0xbd9b4a38	-0.075825155
236	0x3bd8b410	0.006613262
237	0xbdda83df	-0.10669684
238	0xbdd0a25a	-0.10187216
239	0xbdb980f8	-0.09057802
240	0xbdb938ed	-0.09044061
241	0x3d41e358	0.047335953
242	0x3d018787	0.03162339
243	0xbd88793d	-0.06663749
244	0x3d51469b	0.051092725
245	0x3bb623c4	0.005558463
246	0x3d5e27c8	0.054237157
247	0x3c9f8123	0.019470757
248	0x3da789ff	0.081806175
249	0x3d8dc52c	0.06922373
250	0x3cc113bf	0.023568986
251	0x3c3ef0b4	0.011654068
252	0x3d1a3ee7	0.037657645
253	0xbd7d94de	-0.06190955
254	0xbba48b8c	-0.005021518
255	0xbcadb3fb	-0.021203985

action_model._discrete_distribution.branches.1.bias f4 [3]
0	0x3c4ad77d	0.012380478
1	0xbc280bbf	-0.010256707
2	0xbb5b13c3	-0.0033428527

action_model._discrete_distribution.branches.1.weight f4 [3, 128]
0	0xb9bc143c	-0.0003587323
1	0xbd28b26e	-0.04118579
2	0xb9e8590d	-0.00044316836
3	0xbc6f4782	-0.014604451
4	0x3c6b9712	0.01437928
5	0x3cfdb445	0.030969748
6	0x3ae670a1	0.0017581173
7	0x3ba3a6c1	0.004994244
8	0xba19faf5	-0.00058738823
9	0xbceeac6b	-0.02913495
10	0xbb6930b6	-0.0035582012
11	0x3b3f8426	0.0029223054
12	0xbb34a43e	-0.0027563716
13	0x3bf50ae8	0.0074781068
14	0xbd07847f	-0.033085342
15	0xbcb52d78	-0.022116408
16	0x3b2d7e94	0.0026473152
17	0x3c9efb9f	0.019407092
18	0xbc060516	-0.0081799235
19	0x3b6e616c	0.0036373986
20	0x3c194184	0.009353999
21	0x3b727f16	0.0037002019
22	0xbc77c219	-0.01512196
23	0xbb3d9dcc	-0.0028933166
24	0xbc0f0b01	-0.008730651
25	0xbcb4a313	-0.022050416
26	0xbbd5bf09	-0.0065230173
27	0x3a9cbcab	0.0011958083
28	0xbc8d26a0	-0.017230332
29	0x38344f31	4.2989097e-05
30	0xbb8879d4	-0.0041649137
31	0xbd07e48a	-0.033176936
32	0xbc015499	-0.007893705
33	0x3b984dd5	0.00464795
34	0x3c7dfd3c	0.01550227
35	0xba9c36c1	-0.0011918173
36	0xbbde56a5	-0.006785231
37	0xbc94d10b	-0.018166086
38	0x3b942f7b	0.0045222617
39	0x3c8171ed	0.015801394
40	0x3bc98e73	0.0061510145
41	0xbcc2ec06	-0.023794185
42	0xbc63df93	-0.013908285
43	0xbcd7cafe	-0.026341911
44	0xba91320e	-0.001107754
45	0x3bcd0906	0.006257179
46	0x3c23934c	0.009983849
47	0x3d1dfaa5	0.03856911
48	0xbca7197b	-0.020397892
49	0xbb78ce5b	-0.0037964794
50	0xbc826575	-0.01591752
51	0xba2e604f	-0.00066519243
52	0x3a4dd972	0.0007852531
53	0xbcc4fc9a	-0.024046231
54	0x3c87c356	0.016572636
55	0x3ccb1370	0.024789542
56	0xbcd3ad7a	-0.025839556
57	0xbc73b19e	-0.01487389
58	0xbc0e1733	-0.008672523
59	0xbca1ab39	-0.019734966
60	0xbc29a42a	-0.010354081
61	0xbc457ab4	-0.0120531805
62	0xbbeef6dc	-0.0072926115
63	0xbc294200	-0.010330677
64	0xbc1e789f	-0.009672313
65	0x3c062074	0.008186448
66	0xba644e93	-0.0008709218
67	0xbc1dce12	-0.0096316505
68	0x3c0c6e39	0.008571201
69	0xbc20ca21	-0.009813816
70	0xbc5d33b4	-0.0135010965
71	0xbc00f334	-0.007870484
72	0x3bf4799d	0.0074607865
73	0x3c5fbf42	0.013656439
74	0xbb8de733	-0.0043305396
75	0x3bd9f9a6	0.006652075
76	0xbbd5a535	-0.0065199384
77	0xbc33e0de	-0.0109789055
78	0xbcf4af11	-0.029868634
79	0x3c3e7ca1	0.0116263935
80	0x3b012ab0	0.0019709282
81	0xbceb6f2c	-0.028739534
82	0xbb50463a	-0.003178014
83	0x3b3e70af	0.0029058864
84	0xbbd6c6e4	-0.0065544713
85	0xbcd97157	-0.026543302
86	0xbb1341e2	-0.002246969
87	0xbc09e4c7	-0.008416361
88	0x3c89b3ff	0.016809462
89	0x3b82adef	0.0039880197
90	0x3cb46dd2	0.022025023
91	0x3c890738	0.016727075
92	0xbb8c3cd2	-0.0042797113
93	0xbc8c72b8	-0.017144546
94	0xbc37d610	-0.01122047
95	0xbbc55695	-0.0060222843
96	0xbc653c6c	-0.0139914565
97	0xbc887617	-0.016657872
98	0xbc3a58b7	-0.01137369
99	0xbc59b95e	-0.013288824
100	0xbc557711	-0.013028876
101	0xbae046e6	-0.0017110973
102	0x3b430cdd	0.0029762306
103	0x3c23ab35	0.009989549
104	0xba75ecc4	-0.0009381289
105	0xbccffe12	-0.025389705
106	0xbd037990	-0.032098353
107	0x3be14af5	0.0068753907
108	0x3b5348d6	0.0032239459
109	0xbca6a76c	-0.020343505
110	0x3c8f8938	0.017521486
111	0xbb96dc7a	-0.0046039196
112	0x3b9a30c1	0.004705519
113	0xbd000cf9	-0.03126237
114	0xbc5fc8f7	-0.013658754
115	0xbc70fc32	-0.014708566
116	0xbc0b6aa1	-0.008509309
117	0x3c33c010	0.010971084
118	0xbd237de0	-0.039914966
119	0xbc84424a	-0.01614489
120	0xbc43f8f7	-0.011961213
121	0xbbea316f	-0.007147006
122	0xbc786fa6	-0.015163338
123	0xbbccd1c7	-0.0062505933
124	0xbc2f7940	-0.010710061
125	0x3a9b4b8c	0.0011848076
126	0x3c5849e0	0.013201207
127	0xbc4306b4	-0.011903454
128	0xbc816228	-0.015793875
129	0x3cb721a3	0.022354906
130	0x3bbab05e	0.005697294
131	0xbbc565a6	-0.0060240803
132	0xbd0aecc2	-0.033917196
133	0xbca9a379	-0.020707833
134	0x3b93dd8d	0.004512495
135	0xbd02164e	-0.031759553
136	0xbd771c96	-0.060329996
137	0xbcd7e2f8	-0.026353344
138	0x3c05e12a	0.008171359
139	0x3985a78c	0.0002549257
140	0xbc02628d	-0.007958067
141	0xbc30773f	-0.010770618
142	0xbc9b037e	-0.018922564
143	0xbce63b43	-0.02810443
144	0xbd27c847	-0.040962484
145	0xbc6ff349	-0.014645406
146	0x3ae1ba79	0.0017221711
147	0xbc418997	-0.011812589
148	0xbbf2f644	-0.007414611
149	0xbd2493d8	-0.040180057
150	0x3ca45c10	0.02006343
151	0xbb1bc102	-0.0023766165
152	0xbd0f9bc1	-0.035060648
153	0x3b791a85	0.0038010192
154	0xbd216ceb	-0.039410513
155	0x3c94d3ca	0.018167395
156	0xbd28dedb	-0.041228157
157	0x3c84d462	0.016214553
158	0xbd45f2f4	-0.0483274
159	0xba21cd1f	-0.0006172228
160	0x3cc76659	0.024340795
161	0xbd3d1f95	-0.046172697
162	0xbc7101d0	-0.014709905
163	0xbb9bb369	-0.004751612
164	0xbd0d73ca	-0.034534253
165	0x3c27cba4	0.010241423
166	0xbb6eb752	-0.0036425185
167	0xbb8cf944	-0.0043021757
168	0xbc21b9e8	-0.009870984
169	0x3c556c71	0.013026343
170	0x3c8bd602	0.01706982
171	0x3ca4ff62	0.020141307
172	0xbca7ad02	-0.020468239
173	0xbc7fdc7d	-0.015616533
174	0xbd1c71bf	-0.038194414
175	0xbd66af40	-0.056319475
176	0x3c96c195	0.018402854
177	0x3c42996b	0.011877398
178	0xbcfd7e2e	-0.030943956
179	0x3c6ec654	0.014573652
180	0xba53c30a	-0.00080780743
181	0xbd321c35	-0.04348393
182	0xbc11eed3	-0.008907038
183	0xbc9eed8d	-0.019400382
184	0x3c30b392	0.010785
185	0xbc5d84b8	-0.013520412
186	0xbc797b9c	-0.015227225
187	0x3b247389	0.0025093278
188	0xbc86196e	-0.016369548
189	0x3c79f4e0	0.015256137
190	0x3c9eb2f9	0.01937245
191	0x3ccd11cb	0.025032898
192	0x3beb6680	0.00718385
193	0x3c084654	0.008317549
194	0x3abe1f4b	0.0014505176
195	0x3ccc53d2	0.024942312
196	0xbc2e733d	-0.010647592
197	0xbce8a92a	-0.028400976
198	0xbd0b4617	-0.03400239
199	0x39ac475d	0.00032859566
200	0xbc76873a	-0.015046889
201	0xbcecac83	-0.028890854
202	0xbbdf7276	-0.0068190647
203	0xbcf04530	-0.029329866
204	0x3c9b3e86	0.018950712
205	0x3c0cf494	0.008603234
206	0x3cde3c6a	0.027128417
207	0xbd3bace0	-0.045819163
208	0xbbfa1164	-0.0076314677
209	0xbc5736ed	-0.013135654
210	0x3b290adb	0.0025793824
211	0xbc0a9cfe	-0.008460281
212	0xbc692f90	-0.014232531
213	0xbd026812	-0.03183753
214	0xbc7b71b3	-0.015346932
215	0xbca4cd3d	-0.020117396
216	0xbc64ab96	-0.013956925
217	0xbd53081d	-0.05152141
218	0xbcfd5814	-0.030925788
219	0x3b8bb56e	0.0042635715
220	0xbc44188f	-0.011968746
221	0xbc0e69d7	-0.008692226
222	0x3c3ac2b8	0.011398964
223	0xbca6be4c	-0.020354412
224	0x3c4f507c	0.012653466
225	0xbca2fca7	-0.019895865
226	0xbad91752	-0.0016562736
227	0xbc8a357d	-0.016871208
228	0xbd26c1f6	-0.04071232
229	0xbb7f0ede	-0.0038918774
230	0xbc10b195	-0.008831401
231	0xbd310c48	-0.043224603
232	0x3c3b6363	0.01143727
233	0xbd08f88e	-0.033440165
234	0x3cc98912	0.024601493
235	0xbcdb8f7f	-0.026801823
236	0x3c070daa	0.008243004
237	0xbb77c6cb	-0.0037807699
238	0xbc616a86	-0.013758307
239	0x3bc71366	0.0060753105
240	0xbc2ec034	-0.010665942
241	0x3c214d47	0.0098450845
242	0xbd0cf36d	-0.034411836
243	0x3c2a987c	0.010412332
244	0x3c2f1cf7	0.010688058
245	0xbab97a34	-0.0014150799
246	0xbca0c915	-0.019627133
247	0x3c72526d	0.01479016
248	0x3c760f60	0.015018314
249	0x3c178eb3	0.009250331
250	0xbcccd6ef	-0.025004832
251	0x3c0401b6	0.008057049
252	0xbcb1a591	-0.021685394
253	0xbb33748a	-0.0027382695
254	0xbc029e39	-0.0079722935
255	0x3c79920f	0.015232577

discrete_action_output_shape f4 [1, 2]
0	0x40400000	3.0
1	0x40400000	3.0

network_body._body_endoder.seq_layers.0.bias f4 [128]
0	0xbc648556	-0.013947805
1	0xbc249ca3	-0.010047111
2	0x3bd81bfc	0.006595133
3	0xbb05eee5	-0.0020436582
4	0x3d2a1bb4	0.041530326
5	0xbb58e59a	-0.0033095838
6	0x3cda5aed	0.026654685
7	0x3c7bcf8c	0.015369307
8	0x3c89a0c7	0.016800297
9	0x3ba1d19b	0.004938317
10	0xbd2deb7f	-0.042460915
11	0x3cc26e80	0.023734331
12	0x3c48bcaf	0.012252017
13	0x3c147abf	0.009062468
14	0xbcefa776	-0.029254656
15	0x3c814281	0.015778782
16	0x3ae45071	0.0017418993
17	0xbb7bc8bb	-0.0038419205
18	0x3ce59986	0.028027307
19	0xbb4cf817	-0.0031275803
20	0x3ce56537	0.028002365
21	0x3d6c1770	0.05763954
22	0x3ba9ff1b	0.0051878816
23	0x3bbd0e79	0.0057695475
24	0x3d0abbb0	0.0338704
25	0x3a0b4aab	0.00053135556
26	0x3ce0f9f5	0.027462939
27	0x3bb47874	0.005507523
28	0x3d4a3749	0.04936913
29	0xbbd85998	-0.0066024773
30	0x3d0dec5a	0.03464923
31	0x3cda3b80	0.0266397
32	0xbbca5d83	-0.0061756982
33	0x3cf06130	0.029343218
34	0x3bce8f46	0.0063037006
35	0xbbc76d2b	-0.006086012
36	0x3b3b7ce8	0.0028608385
37	0x3d00ca54	0.031442955
38	0xb840c1bf	-4.5956807e-05
39	0xbb314120	-0.0027046874
40	0x3cfed83f	0.031108974
41	0x3ca1bd84	0.019743688
42	0x3d028579	0.03186557
43	0xbb1804c5	-0.0023196202
44	0x3cc83167	0.02443762
45	0x3d20a33c	0.039218172
46	0x3d1215e2	0.0356654
47	0x3c3b9203	0.011448386
48	0x3d866244	0.065617114
49	0x3cbb43e6	0.022859525
50	0x3cfabd73	0.030607915
51	0xbb285e17	-0.0025690848
52	0xba9aa99f	-0.0011799819
53	0x3d8f8fd4	0.07009855
54	0x3bec0a8f	0.007203407
55	0xbc3c0663	-0.011476132
56	0x3d2721ff	0.040803906
57	0xbca77fd1	-0.02044669
58	0x3d036a26	0.032083653
59	0x3cb82234	0.022477247
60	0xba785636	-0.00094732956
61	0xbd05a836	-0.03263112
62	0x3c926ac9	0.017873185
63	0x3d3bd8bd	0.045860995
64	0xbcdeff11	-0.027221235
65	0x3c8b2ead	0.01699003
66	0x3d3a5b68	0.045497328
67	0x3d5a55fc	0.053304657
68	0x3cdf2851	0.027240904
69	0x3cb3a47b	0.021929016
70	0x3d50b08f	0.05094963
71	0x3ca156f6	0.019694787
72	0x3ce7fd31	0.028318973
73	0xbbc816cb	-0.0061062328
74	0x3d1ccabe	0.038279288
75	0x3d178801	0.036994938
76	0x3d148c50	0.036266625
77	0x3cca736d	0.024713242
78	0x3cd92829	0.026508408
79	0x3ca43adf	0.020047603
80	0x3c8db6a4	0.017299004
81	0x3c16d0b5	0.009205033
82	0xbca8d16a	-0.020607669
83	0x3ca53155	0.020165125
84	0x3cb5fccd	0.022215271
85	0x3d3323ff	0.0437355
86	0x3ba72a60	0.005101487
87	0xbc0c4039	-0.008560234
88	0x3cb20a03	0.02173329
89	0x3c5111ee	0.012760622
90	0xbc1095ff	-0.008824824
91	0x3d24181f	0.040062066
92	0x3c8e3252	0.017357979
93	0x3ce506a5	0.02795727
94	0xbb496d25	-0.0030735221
95	0x3d01d34f	0.03169566
96	0x3c9514cf	0.018198399
97	0x3b9b9393	0.004747817
98	0x3c80409d	0.01565581
99	0x3d074d66	0.033032797
100	0x3c9c37eb	0.019069633
101	0xbb22ebeb	-0.0024859856
102	0xbd045f38	-0.03231737
103	0xbcfe6ec5	-0.031058678
104	0x3b1d7e77	0.0024031678
105	0x3c22e053	0.009941178
106	0xbc1f6f13	-0.009731072
107	0x3d12dae5	0.035853285
108	0x3cc24749	0.023715632
109	0x3c52c5ae	0.012864513
110	0x3cfcb1c2	0.03084648
111	0x3cf8ebd4	0.03038589
112	0x3c8784ea	0.01654287
113	0xbcf58810	-0.029972106
114	0x3d0eeb19	0.034892175
115	0x3cee1b40	0.029065728
116	0x3a231bcb	0.0006222098
117	0x3cfac745	0.030612597
118	0x3d55761d	0.052114595
119	0x3cc73f93	0.024322307
120	0xbc5d4fb1	-0.013507769
121	0x3d030fcc	0.031997487
122	0x3cd9bf68	0.026580527
123	0x3d2f249f	0.042759534
124	0x3b7bbd7f	0.003841251
125	0x3cdcc37f	0.026948689
126	0xbbea4ad1	-0.007150032
127	0x3c7aaacc	0.01529951

network_body._body_endoder.seq_layers.0.weight f4 [128, 55]
0	0x3e49e000	0.19714355
1	0x3d7b3803	0.061332714
2	0xbe080ea0	-0.13286829
3	0xbe2983fb	-0.16554253
4	0x3e2c6da4	0.168387
5	0x3e497651	0.1967404
6	0xbdedae8f	-0.1160556
7	0xbd95fc34	-0.073234946
8	0xbda66de4	-0.08126429
9	0xbd9db1d3	-0.07699933
10	0x3e14c327	0.1452757
11	0x3dc095b0	0.094035506
12	0x3e6ee1be	0.23328301
13	0x3dccc5f9	0.09998698
14	0x3c2f8828	0.0107136145
15	0xbe5430d7	-0.20721756
16	0xbdaa53d4	-0.0831677
17	0xbd89e01e	-0.067322
18	0xbd818595	-0.06324307
19	0xbeced989	-0.4040034
20	0x3d19678e	0.037452273
21	0xbe1a6938	-0.150792
22	0xbe6b9b0c	-0.23008364
23	0xbcb11e37	-0.021620853
24	0xbe5183a1	-0.20460369
25	0x3cb5d98f	0.022198467
26	0xbd60698a	-0.05478815
27	0x3d54c424	0.051944867
28	0x3e4631b3	0.19354896
29	0x3de23d6c	0.110468715
30	0x3ded7997	0.11595457
31	0xbe074460	-0.13209677
32	0xbcfc8ce8	-0.030828908
33	0x3dca04d5	0.09864203
34	0xbd0fa9dc	-0.0350741
35	0x3e5c250c	0.21498507
36	0xbe25774f	-0.16158794
37	0xbd950cbd	-0.0727782
38	0xbc26e185	-0.010185604
39	0xbe642005	-0.2227784
40	0xbd941e98	-0.07232398
41	0xbd0a52f0	-0.0337705
42	0x3be6f924	0.007048743
43	0xbd4906c7	-0.04907873
44	0x3d26a2ee	0.040682726
45	0x3dbfa2ee	0.09357248
46	0x3d7a838c	0.06116061
47	0xbcc96631	-0.024584861
48	0x3d9de708	0.07710081
49	0xbd1c4213	-0.03814895
50	0x3dd85f9b	0.1056511
51	0xbe18ca93	-0.14921026
52	0xbc9b50cd	-0.018959427
53	0x3d25b9e9	0.0404605
54	0xbe2effa4	-0.17089707
55	0x3cc0ed83	0.023550754
56	0xbccfc86c	-0.025364123
57	0x3c5aed1b	0.013362194
58	0xbdf5e8bd	-0.12007282
59	0xbab6392f	-0.001390254
60	0xbe6a71c9	-0.22894968
61	0x3dfbb657	0.12290638
62	0xbd507788	-0.050895244
63	0x3d1e4fbd	0.038650263
64	0x3cb52063	0.02211017
65	0xbda48fcd	-0.0803524
66	0x3da2b8a9	0.079453774
67	0xbe06a98d	-0.13150616
68	0xbb9e808f	-0.0048371027
69	0xbe6eeaa2	-0.23331693
70	0x3e0cb3dd	0.13740487
71	0xbcf2a5ba	-0.02962004
72	0x3d4eccaa	0.05048815
73	0x3e06e53e	0.13173386
74	0x3d88ac8e	0.06673537
75	0xbe569bb3	-0.20957832
76	0xbd81c92d	-0.06337199
77	0x3b0b24f3	0.002123174
78	0x3e0daaa9	0.13834633
79	0x3e0c4a2c	0.1370017
80	0x3e81593c	0.25263393
81	0xbd4ecde8	-0.050489336
82	0x3e713e2c	0.23558873
83	0xbdded44d	-0.10880337
84	0x3dab1e81	0.083554275
85	0x3e0cf8fa	0.13766852
86	0xbb5aad7b	-0.0033367563
87	0x3d97f18b	0.074191175
88	0x3d27888c	0.040901706
89	0x3c7372d9	0.014858925
90	0x3daee903	0.08540537
91	0xbcd1056d	-0.025515283
92	0xbdf973c2	-0.12180282
93	0x3ac97747	0.001537063
94	0xbd7c7e56	-0.06164392
95	0xbd89f93a	-0.06736989
96	0x3e52228d	0.20520993
97	0x3bd204b4	0.006409252
98	0xbd45a836	-0.04825612
99	0xbbfe0051	-0.0077515026
100	0x3d292f8f	0.04130512
101	0x3d2fb74f	0.042899426
102	0x3e0000b8	0.12500274
103	0xbd920741	-0.0713029
104	0xbc8d0c9f	-0.017217932
105	0xbd9cf414	-0.07663742
106	0x3db55b95	0.088553585
107	0x3d129b48	0.03579262
108	0xbe0de710	-0.13857675
109	0xbe49c90a	-0.19705597
110	0x3e252b1d	0.16129728
111	0xbd87d650	-0.06632674
112	0x3e4835fb	0.19551842
113	0xbce46662	-0.027880851
114	0x3cab724e	0.020928528
115	0x3db51ee8	0.088437855
116	0x3ea97dde	0.33103842
117	0x3da18454	0.07886568
118	0xbdea4650	-0.11439192
119	0x3dde52a9	0.1085561
120	0x3e1262b8	0.1429547
121	0xbe99fd57	-0.30076095
122	0xbd8e83dc	-0.06958744
123	0xbd922ca3	-0.0713742
124	0x3dd3605b	0.10321113
125	0xbe6ac5be	-0.22926995
126	0x3df78b79	0.12087149
127	0xbd5c84fe	-0.05383777
128	0xbbea6459	-0.0071530757
129	0x3db013bb	0.08597513
130	0x3da642cd	0.0811821
131	0xbe479750	-0.19491315
132	0x3d254149	0.040345464
133	0x3d324f94	0.043532923
134	0x3c230817	0.009950659
135	0xbdca05b9	-0.09864373
136	0x3e0b55f2	0.13607004
137	0x3dce2ff4	0.1006774
138	0x3cca30ca	0.024681468
139	0xbd970571	-0.07374085
140	0xbdc962bc	-0.09833285
141	0xbdaef3de	-0.08542608
142	0x3da0d78d	0.07853613
143	0x3e8af6a2	0.2714129
144	0x3d9c127d	0.07620714
145	0xbca3e6ab	-0.020007452
146	0xbe11f913	-0.1425517
147	0xbd805700	-0.06266594
148	0x3cad41d6	0.021149557
149	0xbdd0aa4d	-0.10188732
150	0xbd7eb625	-0.062185425
151	0xbe18a041	-0.14904882
152	0xbd725910	-0.059166968
153	0xbdc6c939	-0.09706349
154	0xbc641e72	-0.013923274
155	0xbcb5500d	-0.022132898
156	0x3e21c065	0.15796049
157	0xbe05533b	-0.13020031
158	0x3ddd5772	0.108076945
159	0x3e725d0b	0.23668306
160	0x3de0947a	0.1096582
161	0x3dafacac	0.085778564
162	0x3e03b270	0.12861037
163	0x3ddd2275	0.10797588
164	0xbe379aed	-0.17930193
165	0x3e96b6d6	0.29436368
166	0xbcccdaf7	-0.025006754
167	0x3e3b440d	0.18287678
168	0xbd82dce7	-0.0638979
169	0x3e146463	0.1449142
170	0x3c872a00	0.01649952
171	0x3e9842ff	0.29738614
172	0xbc5d6f85	-0.013515358
173	0xbd988f05	-0.07449154
174	0xbe01b1fc	-0.12665552
175	0x3dfce5dc	0.1234853
176	0xbdcb2a64	-0.09920195
177	0xbbc48226	-0.00599696
178	0xbe4f5f0a	-0.20251098
179	0x3cad9495	0.021189013
180	0xbdef4d96	-0.1168472
181	0x3e0b4fc9	0.13604654
182	0xbcefd571	-0.029276581
183	0x3e41c63c	0.18923277
184	0xbd007d7d	-0.031369675
185	0x3e749d16	0.23888049
186	0xbc8a1a46	-0.016858231
187	0xbee001a2	-0.43751246
188	0x3d004538	0.031316012
189	0x3d5ecad2	0.054392643
190	0xbe04d78c	-0.1297285
191	0x3cfb5bfd	0.030683512
192	0x3e015ba8	0.1263262
193	0xbe0e2374	-0.13880712
194	0xbd9318ab	-0.071824394
195	0x3e27a582	0.1637173
196	0x3e4ce3f2	0.20008829
197	0x3e4ed287	0.20197497
198	0xbea56bea	-0.32308894
199	0x3e64d89d	0.22348256
200	0xbd3ce6ca	-0.046118535
201	0xbe0a7994	-0.13522941
202	0x3d4e4b52	0.0503648
203	0x3d752d2c	0.059857532
204	0x3e04434b	0.12916295
205	0xbe1e4a29	-0.15457977
206	0x3ec478a5	0.38373294
207	0x3e1ef62e	0.15523598
208	0xbe211453	-0.1573041
209	0xbda93f77	-0.08264058
210	0x3dedb8c8	0.1160751
211	0x3e63142e	0.22175667
212	0xbe53b00c	-0.20672625
213	0x3bdb6624	0.0066955257
214	0xbe1048f8	-0.14090335
215	0x3d0ed513	0.034871172
216	0xbd412737	-0.04715654
217	0xbd934547	-0.07190948
218	0x3e0f9f44	0.14025599
219	0xbeb0c628	-0.3452618
220	0xbea6fb31	-0.3261352
221	0x3e85ccbb	0.2613276
222	0x3e534814	0.20632964
223	0x3e1bce4e	0.15215418
224	0x3e9a3cfb	0.3012465
225	0xbe05525f	-0.13019703
226	0x3dec019c	0.115237445
227	0xbeaebc87	-0.3412821
228	0x3daa3fa3	0.08312919
229	0x3dc85212	0.09781279
230	0x3c5c5533	0.013448047
231	0x3dbc1374	0.09183398
232	0xbd2bcff4	-0.041946366
233	0x3d94b8d5	0.072618164
234	0x3e33e291	0.17566897
235	0xbe0a2977	-0.1349238
236	0x3e42aa8a	0.19010368
237	0x3d9f2cd2	0.07772221
238	0x3c59824c	0.013275694
239	0x3d2d4d7b	0.04231022
240	0x3d72690b	0.059182208
241	0x3c2790b2	0.010227369
242	0xbe00f3f2	-0.12593058
243	0xbc6c61a5	-0.014427577
244	0x3df4bdda	0.11950274
245	0x3d840fb2	0.06448306
246	0x3d35e16e	0.04440444
247	0xbbe6a56f	-0.007038764
248	0x3c9395f8	0.018015847
249	0x3d957230	0.0729717
250	0x3e57a520	0.21059084
251	0x3e8d451c	0.2759179
252	0xbe22813d	-0.15869613
253	0x3d557ed0	0.05212289
254	0x3decc6ab	0.115613304
255	0x3dbc0320	0.091802835

network_body._body_endoder.seq_layers.2.bias f4 [128]
0	0xbb1e4396	-0.002414917
1	0x3ba61a46	0.00506905
2	0x3c29d7e1	0.010366411
3	0xbcdcad0d	-0.026937986
4	0x3b8d81ae	0.0043184375
5	0x3b994330	0.004677199
6	0x3cf78b6f	0.030217854
7	0x3c5e6986	0.013574963
8	0x3bc83b51	0.0061105867
9	0x3aa42413	0.0012522958
10	0x3cfa7e7d	0.030577892
11	0x3d168b15	0.036753733
12	0x3c8eae89	0.01741721
13	0x3ba0cee7	0.004907477
14	0xbae592b4	-0.0017515034
15	0xbc63a2f7	-0.013893834
16	0x3ccd4cef	0.025061099
17	0x3cc468d0	0.02397576
18	0x3cc50d2f	0.024054138
19	0x3cd15fb8	0.025558338
20	0x3b4b7832	0.0031046984
21	0xbbec4fe1	-0.0072116707
22	0x3ce538c3	0.027981168
23	0x3d1a0f25	0.0376121
24	0xb9b1010d	-0.00033760854
25	0x3ce1a9d4	0.0275468
26	0xbbee558e	-0.0072733825
27	0x3c911698	0.017710969
28	0xb9f9920b	-0.0004760179
29	0x3d1d8058	0.038452476
30	0xbc25c0fa	-0.01011681
31	0x3c9ae7ab	0.018909296
32	0x3cce3150	0.025169998
33	0xbb31e910	-0.0027146973
34	0x3d26e37a	0.040744282
35	0x3d35f8f1	0.044426862
36	0x390b50c1	0.00013286156
37	0x3c4b59c2	0.012411537
38	0x3d10341e	0.035205953
39	0x3c9fcb5e	0.019506153
40	0x3cb51c1f	0.022108136
41	0x3ccdc47c	0.025118105
42	0x3c277fac	0.01022331
43	0x3c8314ff	0.016001223
44	0x3a93a990	0.0011265744
45	0x3c0961ba	0.008385116
46	0x3b699e8b	0.0035647477
47	0x3c87f8ef	0.016598193
48	0x3ca44dcc	0.020056628
49	0x3c390c18	0.011294387
50	0xbacb57ae	-0.0015513801
51	0x3ce41f03	0.027846819
52	0xbc584ff6	-0.013202658
53	0x3ca7c8ab	0.020481428
54	0x3c5c000a	0.013427744
55	0x3cc444e4	0.02395863
56	0x3ce67b8e	0.028135087
57	0x3c0c919c	0.008579638
58	0x3c91c9b2	0.017796371
59	0x3cc4e438	0.024034604
60	0xbbc61d56	-0.0060459776
61	0x3d23e182	0.040009983
62	0x3cebe55e	0.028795894
63	0x3cee00a2	0.029053036
64	0x3b1f2e62	0.002428912
65	0x3ce4f682	0.027949575
66	0x3d0e9f86	0.034820102
67	0x3cb701d1	0.022339733
68	0x3c9d40e9	0.01919599
69	0xbba80f13	-0.00512875
70	0xbbc9a89a	-0.006154132
71	0x3ba52e03	0.0050408854
72	0x3cf550dd	0.029945785
73	0x3c83051a	0.015993644
74	0x3ce7c0ab	0.028290113
75	0x3c8b0335	0.016969303
76	0x3ce8b8fd	0.028408522
77	0x3cfb47c3	0.030673867
78	0xbcb4a174	-0.022049643
79	0xbc05e675	-0.008172621
80	0x3cfbd0a1	0.03073913
81	0x3a44985a	0.0007499509
82	0x3cbfa3a2	0.023393456
83	0x3cf01fb6	0.029311996
84	0x3c9ce3d7	0.019151611
85	0x3ac8ba7c	0.0015314366
86	0x3cd9d327	0.026589943
87	0xbad55aa2	-0.0016277621
88	0x3b0dd95c	0.002164445
89	0x3ba369f8	0.0049869977
90	0x3b485cee	0.0030572969
91	0x3c96579b	0.01835232
92	0xbb25dc8a	-0.0025308453
93	0x3cc333e2	0.02382845
94	0x3cd4394e	0.025906231
95	0x3d2b5700	0.041831017
96	0x3b99ef71	0.004697733
97	0x3abb40ca	0.0014286276
98	0x3d0fc4c6	0.035099767
99	0x3c951186	0.018196832
100	0xbc5fa1fc	-0.01364946
101	0x3c41ab87	0.01182068
102	0xbb7b8f88	-0.0038385112
103	0x3a47d61d	0.0007623153
104	0x3d00ad11	0.03141505
105	0xbcb4e636	-0.02208243
106	0x3d0525b9	0.03250668
107	0x3c6785ed	0.0141310515
108	0x3cfef569	0.03112288
109	0x3ccffb02	0.025388245
110	0x3cc269ab	0.023732027
111	0x3ced9106	0.028999817
112	0x3bc6f347	0.0060714814
113	0x3b03f308	0.0020133872
114	0xbbbb82cf	-0.0057223807
115	0xb9e50ad2	-0.00043686345
116	0x3ce8e2f4	0.028428532
117	0x3d1bcf8a	0.03803972
118	0xbc537712	-0.012906807
119	0xbbced03a	-0.0063114436
120	0x3ca06bcc	0.019582652
121	0x3c407820	0.01174739
122	0x3be0d6b1	0.0068615307
123	0x3d08204f	0.033233937
124	0x3bfc8e14	0.0077073667
125	0x3c14d054	0.009082872
126	0x3cd488c1	0.025944116
127	0x3c9da9c5	0.019245991

network_body._body_endoder.seq_layers.2.weight f4 [128, 128]
0	0xbd82ee91	-0.06393159
1	0xbe865e9f	-0.26244065
2	0x3c911eb2	0.017714832
3	0xbd63e572	-0.055638738
4	0xbd036a44	-0.032083765
5	0x3d7fd572	0.062459417
6	0x3dfb2049	0.12262017
7	0xbc6fac02	-0.014628412
8	0xbc13f700	-0.009031057
9	0xbd09461c	-0.033514127
10	0xbd887177	-0.06662267
11	0x3e18ce69	0.14922489
12	0xbdd577fa	-0.10423274
13	0xbd5bc8eb	-0.053658407
14	0xbdb49876	-0.08818142
15	0xbda016ef	-0.07816874
16	0xbdb0feb1	-0.086423285
17	0x3dc6c7e8	0.09706098
18	0x3c8b6709	0.017016904
19	0xbde0bd22	-0.10973574
20	0x3d4ca13d	0.049958456
21	0xbd3beb9b	-0.045878988
22	0x3df99fe6	0.12188701
23	0x3a4cba61	0.0007809755
24	0x3d0ffec8	0.035155088
25	0xbc73c826	-0.014879262
26	0xbe2f2e4e	-0.17107508
27	0xbb7c0566	-0.0038455366
28	0xbdc693c2	-0.09696151
29	0x3db50f37	0.088407926
30	0x3e1b451c	0.15163082
31	0x3d296da7	0.04136434
32	0xbcbe9289	-0.023263233
33	0x3d7088a2	0.058724053
34	0x3d2df262	0.042467482
35	0x3d2b8102	0.04187108
36	0x3dfb83c4	0.12280992
37	0xbd261db3	-0.040555667
38	0xbde5a1b5	-0.11212484
39	0x3dd9e224	0.10638836
40	0x3d505d6d	0.050870348
41	0xbbaa055b	-0.0051886267
42	0x3c366728	0.011132993
43	0x3d956ff9	0.07296748
44	0xbd339d51	-0.0438512
45	0x3c330375	0.010926117
46	0x3d6aa651	0.057287518
47	0x3bf2bc1b	0.007407678
48	0x3dc4c967	0.09608727
49	0xbe3e1b7d	-0.18565173
50	0xbd62f7e5	-0.055412192
51	0xbcc96232	-0.024582956
52	0xbb7204b6	-0.0036929077
53	0x3e346da6	0.17619953
54	0xbd08a6ab	-0.033362072
55	0x3d4e21b0	0.050325096
56	0xbe09d99d	-0.13461919
57	0x3e1b422e	0.15161964
58	0x3cfa9129	0.030586796
59	0x3dfa6d2b	0.122278534
60	0x3da6ed4d	0.0815073
61	0xbccc99db	-0.024975708
62	0x3dbd7447	0.09250694
63	0x3e239274	0.15973836
64	0xbccabee8	-0.024749234
65	0x3bf492e9	0.007463802
66	0x3e10282e	0.14077827
67	0x3dcb31a6	0.09921579
68	0xbe40d390	-0.18830705
69	0x3da3ce08	0.07998282
70	0x3e1e4fe1	0.15460159
71	0x3d28fd55	0.04125722
72	0x3c8f1569	0.017466264
73	0xbc4aa9e8	-0.01236961
74	0x3a0f8c90	0.00054759625
75	0xbde937f7	-0.113876276
76	0xbce36ea6	-0.027762722
77	0x3e560020	0.20898485
78	0x3d4b83ae	0.049686126
79	0x3b3c6d79	0.0028751774
80	0x3e0f6d97	0.14006649
81	0x3e0416f1	0.12899376
82	0xbd128eb3	-0.03578062
83	0x3ceefb6c	0.029172622
84	0x3dc9762a	0.09836991
85	0x3ca032c9	0.019555466
86	0xbd77903b	-0.060440283
87	0xbdb50972	-0.08839692
88	0xbcc2da38	-0.023785695
89	0xbd71b4d6	-0.05901035
90	0x3e01944e	0.1265423
91	0xbe0f5fea	-0.14001432
92	0xbca4f177	-0.02013467
93	0x3e221614	0.15828735
94	0x3e17c0e1	0.14819671
95	0xbd58a28a	-0.052889384
96	0x3d4f45b4	0.050603583
97	0x3c4a34d9	0.012341701
98	0x3db91653	0.09037461
99	0xbd1805c0	-0.03711486
100	0xb9cffca5	-0.00039670352
101	0xbd300aa6	-0.042978905
102	0x3d488c18	0.04896173
103	0xbce24fa8	-0.027625874
104	0xbd2f28e9	-0.042763624
105	0x3ce4a6e8	0.027911618
106	0xbcab3351	-0.020898493
107	0xbe2a068e	-0.16604063
108	0xbe2d6302	-0.169323
109	0x3e4e7094	0.20160133
110	0xbdf1f394	-0.11814037
111	0xbd72babd	-0.05926012
112	0xbe10f8fd	-0.14157481
113	0x3d013d4c	0.031552598
114	0x3d5f0238	0.054445475
115	0xbd7235a4	-0.059133187
116	0x3e3718a6	0.17880496
117	0x3e19c5b3	0.15016823
118	0x3d622fc9	0.055221353
119	0xbe0a1222	-0.1348348
120	0xbc0ad537	-0.008473686
121	0x3d227efc	0.039671883
122	0x3e1d9cc1	0.15391828
123	0x3d5b1a23	0.053491723
124	0xbb893205	-0.004186871
125	0x3cf1ef41	0.02953303
126	0x3e0cd010	0.13751245
127	0xbe7146f2	-0.2356222
128	0xbda04139	-0.0782494
129	0x3c418a70	0.011812791
130	0xbda862e4	-0.08221987
131	0xbd567f11	-0.052367274
132	0xbc3f8d5d	-0.0116914185
133	0x3d1c5289	0.03816465
134	0x3d055aa8	0.03255716
135	0xbe41a890	-0.18911958
136	0x3cf1df83	0.029525524
137	0x3d652657	0.055944767
138	0x3d4b396f	0.04961532
139	0x3d091da6	0.03347554
140	0xbe3fff86	-0.18749818
141	0xbc2f3475	-0.010693659
142	0x3e387894	0.18014747
143	0xbd043c36	-0.032283984
144	0xbe0d402d	-0.13794012
145	0xbdef90da	-0.1169755
146	0x3d464dc2	0.048414
147	0xbd673170	-0.05644363
148	0x3e2efdbc	0.1708898
149	0x3dd077c4	0.101790935
150	0xbd2995d9	-0.04140267
151	0xbc524d85	-0.012835865
152	0x3c6b073d	0.014344987
153	0x3c1d8982	0.009615304
154	0xbbec9ad5	-0.007220606
155	0xbe097e8b	-0.13427179
156	0x3dcc034f	0.099615686
157	0xbde336d2	-0.110944405
158	0x3e8ef0fa	0.27918226
159	0x3bd045aa	0.006355961
160	0xbdf3cd32	-0.11904372
161	0xbdb6bc78	-0.08922666
162	0x3de34b1e	0.11098312
163	0x3d7bdcc3	0.06148983
164	0xbe09d0c6	-0.13458547
165	0xbded27fb	-0.11579891
166	0xbdb0588c	-0.08610639
167	0x3dcaf002	0.09909059
168	0x3e50555a	0.20345059
169	0x3da2420c	0.07922754
170	0x3dee212d	0.116274215
171	0xbe0897f5	-0.13339217
172	0x3b901850	0.0043974295
173	0xbd3461c9	-0.044038568
174	0xbd38bd39	-0.04510233
175	0xbd51f86d	-0.051262308
176	0x3e04996f	0.12949155
177	0xbdd2b390	-0.10288155
178	0xbc4b2485	-0.012398844
179	0xbcc3f649	-0.023921149
180	0xbe053f01	-0.13012315
181	0xbc5b7221	-0.01339391
182	0x3e04d058	0.12970102
183	0xbd103bc3	-0.035213243
184	0xbe475bd7	-0.19468628
185	0xbd57f8c1	-0.052727465
186	0x3e3584f8	0.17726505
187	0xbd647216	-0.055772863
188	0xbe663df2	-0.22484568
189	0x3c91d933	0.017803764
190	0xbc8bebcb	-0.017080208
191	0xbd2b83e0	-0.041873813
192	0x3bc540e2	0.0060196975
193	0xbd12ccf0	-0.035839975
194	0x3c9035d4	0.017603792
195	0xbdf9d0dc	-0.1219804
196	0x3c026499	0.007958555
197	0x3b953714	0.004553685
198	0xbda258f5	-0.079271235
199	0xbd674ef0	-0.056471765
200	0x3db371d4	0.08761945
201	0x3e3f6606	0.18691263
202	0xbd23721d	-0.03990375
203	0xbd165fd7	-0.036712494
204	0x3c2f9ae1	0.010718078
205	0x3dacaba5	0.08431176
206	0xbcfc1bbf	-0.03077495
207	0xbdd54711	-0.104139455
208	0xbcf5d05c	-0.03000658
209	0x3da0a345	0.07843641
210	0xbdc77d35	-0.09740678
211	0xbc3f4933	-0.011675167
212	0x3d29dac5	0.0414684
213	0x3bb3e796	0.0054902537
214	0xbc09120b	-0.008366118
215	0xbda56b28	-0.08077079
216	0x3da711e0	0.08157706
217	0x3da3006c	0.07959065
218	0x3d930a06	0.07179646
219	0x3db71c5f	0.08940958
220	0xbd54b0de	-0.051926486
221	0xbc5f39e9	-0.013624647
222	0x3e5527f7	0.20816027
223	0xbab2eed9	-0.0013651504
224	0x3ce83798	0.028346822
225	0x3c4efe33	0.012633848
226	0xbad389fd	-0.0016139146
227	0xbdc38b77	-0.09548085
228	0x3e19528a	0.14972892
229	0x3c769635	0.015050461
230	0xbca99879	-0.020702587
231	0x3d9573b2	0.07297458
232	0x3daf4ce1	0.08559585
233	0xbdf0b31a	-0.11752911
234	0x3dcb65e6	0.09931545
235	0x3e64f818	0.22360265
236	0x3c12b54c	0.008954357
237	0x3d31d20c	0.043413207
238	0xbdc438f4	-0.095811754
239	0xbdb7e676	-0.08979504
240	0x3dab7ffd	0.08374021
241	0x3e178812	0.14798
242	0x3c607a4d	0.013701034
243	0x3ca33f55	0.01992766
244	0x3df8fecb	0.12157973
245	0xba19d180	-0.0005867705
246	0xbdb65a5c	-0.089039534
247	0x3daae23a	0.083439305
248	0xbce35a93	-0.02775315
249	0x3d1e0480	0.03857851
250	0x3d1680e8	0.03674403
251	0x3d42fcad	0.04760425
252	0x3d91db56	0.07121913
253	0xbab886ec	-0.0014078296
254	0xbd9e96e0	-0.07743621
255	0x3da87b8e	0.08226691
