results/TestSpeedChangePeople24Novembre/MoveToGoal/MoveToGoal-999957.pt (torch, 597047 bytes, 40 tensors)

discrete_act_size_vector f4 [1, 2]
00000000: 0000 4040 0000 4040
3.0 3.0

network_body._body_endoder.seq_layers.0.weight f4 [128, 55]
00000000: 5267 11be d964 a93d 9e2d 3e3e 9327 bf3d
00000010: 1b15 5e3d 5e96 49bd e812 263e f27d f53c
00000020: 74a5 10bd 399c 823d 2ee9 8c3c ca25 9dbe
00000030: cf45 cabd 9e0f 1ebe fec4 8b3d d8ad 1bbd
00000040: 9b83 e5bd 29bd 60bd 16f8 cd3d 36ed 85bd
00000050: 72f9 a73e 2ec7 3fbe 5fc9 7bbd f532 b23b
00000060: d40d 90bc 4d7c fbbd d02b 2c3e 7b0c 583d
00000070: 0c8b 9dbd dd05 06be 906b 6d3d 651c c03d
00000080: 3421 893d f9e8 4ebe 438f 8d3e cceb f53c
00000090: 9f7c 3b3e 95ae 693e f6a8 613d 90c8 ccbd
000000a0: 208f fdbc edf4 5b3d 257e 94bd 221f 553d
000000b0: 5ad8 23be db18 903e 3bc3 cfbd bfa1 b6bd
000000c0: 9e55 12be 4db9 d73d b039 d1bc 60a6 833d
000000d0: 0cb8 f1bd 0954 8fbd d465 90be 449d 2cbd
000000e0: 84b0 ac3e ff53 71bd 12bf f73d 0071 5f3b
000000f0: 404c 93be 0531 2a3d 1f3c 3dbd 65cd e9bc
00000100: 17c5 7f3d 03d8 1c3e 46db ccbc df13 b039
00000110: 8cf0 db3d 94d8 03bd 7b09 1e3e 84e4 bebd
00000120: 38f8 873d 9e19 fbbd 7caf 1e3e a682 253e
00000130: 0002 923e 78b5 2b3e fd61 35be 4fa5 7a3e
00000140: 294a 17be eff5 b1bd 4eea 4b3e 70d5 a8bd
00000150: 10cf 0b3e 5973 103c 8ba6 86bc 5586 8c3e
00000160: 9d74 643d 16ee 02be a7ec 46bb 8d39 c63d
00000170: 7fe9 e03c b78d 79be b0b6 f93c ea9c b8bd
00000180: 0d05 aebd 490e 5c3d 7ffb 98bc c6e5 723e
00000190: 9247 063e da18 b9bc 9f84 203b 6143 f63d
000001a0: 9849 133e 8e06 9a3e c20c cb3d 96e8 0d3e
000001b0: 4501 31be 3179 f7bd b941 e03d fd27 fcbc
000001c0: 5d34 cf3d f168 0abe e687 003c 057a 453e
000001d0: ec86 66be 5cef 283b 44d5 003e 5407 1cbd
000001e0: f829 1c3e 8849 05bd d210 b73c 71e2 833d
000001f0: ac33 18be c904 6dbd 54ac 31bd 0ae1 df3d
00000200: 0ff1 b0bd 78a4 23bc 4475 853e c129 b5bc
00000210: 1c34 413d 989f 2cbc 6dd6 b23d 0a6b 8b3c
00000220: b1fe 703d dac7 58be 91e0 92bc 9ec5 5bbe
00000230: 4b91 26bc 2d54 153d 2610 20be 814b 543e
00000240: 5e7c b63d 6314 bebd f1cd 8abe d2a5 9b3c
00000250: 2dae e73c 3f62 253e a43a 49be c74e b43d
00000260: e713 f63d 6c33 a2bd de8e 60be a094 f3bd
00000270: 04ae b4bb 5993 9abe ddfe 163d 2f5e ac3e
00000280: b9f4 dfbc 1c9d e43d ceaa 6cbd c53b b6bb
00000290: 1ccc 963e ad2d c73b 8665 083e 1350 f43d
000002a0: 1353 70be bdb8 193c 91d1 26be f464 bbbd
000002b0: 1eaf d8be 017c a23d 1cdf 413e fe71 9eba
000002c0: 1c72 ab3d 1c62 fdbd 71a7 89bd 934b b03e
000002d0: 5ead c2bd 4e4e e63d f57a f3bd 3884 2cbe
000002e0: 7cf5 61be 181c 653e faa7 9a3d 373e 97bc
000002f0: c72b d33d db89 803d e9a7 adbd 30df 9fbb
00000300: bb5c 433e 3999 c83d 0ec0 843e 79da bb3e
00000310: cd12 cdbd 0851 20be 954a 1dbe 37e5 643d
00000320: 4ab5 f9bc ac28 073e b7d5 c03c 8478 783d
00000330: de3b 973e 3168 acbd afe7 3e3e 2cac 373d
00000340: 01bc 1ebe 8a75 3dbe a024 633e d57b 68bd
00000350: c23c 2138 40af 53bc d706 a33e 8019 00bc
00000360: 9fdb 37be 9c0c 0fbe 1e72 32bd 0570 f83d
00000370: b1f4 29be 2836 1bbe 630b e23d f96d 81bc
00000380: 878b a73e 2396 2e3e 707f e7bc dc0e 01bd
00000390: 87cf 2dbe 718a f53d bfda 103e 003d 643e
000003a0: 9c6f f93d e7a0 93be 5c55 573e 5e4e 713e
000003b0: c655 e5bc 9ed7 c43d dce5 743d d304 d3bd
000003c0: 67f3 bcbd 7e7e 8f3e 6b41 1b3e 7ac2 623e
000003d0: 42ad 2c3d d86b fe3d 8d44 8cbd 0fdb c83e
000003e0: 9dee 69be 578f 7b3d 69c8 b1bd ed90 483e
000003f0: a55a 1d3e f46e d5bd e05b f83b 3e0b 843e
-0.1419957 0.08271188 0.18572089 0.0933372 0.054219346 -0.049215667 0.1621815 0.029967282
-0.03531404 0.06377453 0.017201032 -0.30692893 -0.09876596 -0.15435645 0.06824683 -0.038007587
-0.112067424 -0.054867897 0.10057084 -0.06539385 0.328075 -0.18728325 -0.06147134 0.0054382035
-0.017584719 -0.12279568 0.16813588 0.052746277 -0.07692537 -0.13088174 0.057963908 0.09380416
0.06695786 -0.2020606 0.27648363 0.030019663 0.18309258 0.22820504 0.055092774 -0.09999192
-0.030952036 0.053700376 -0.07250623 0.052031644 -0.160005 0.28143963 -0.10144659 -0.08917569
-0.14290473 0.1053339 -0.025540203 0.06428218 -0.11802682 -0.0699845 -0.2820269 -0.042142168
0.3372842 -0.058917996 0.12096991 0.0034094453 -0.28769112 0.041550655 -0.046199914 -0.028540323
0.06244382 0.15316777 -0.025006901 0.0003358414 0.1073924 -0.032188967 0.15433304 -0.0932093
0.06639141 -0.122607455 0.1549663 0.1616312 0.2851715 0.16768444 -0.17713161 0.24477123
-0.14774384 -0.08689486 0.19913599 -0.08243835 0.13653207 0.0088165635 -0.016436836 0.27446237
0.055775274 -0.12786135 -0.0030353458 0.09678946 0.02745509 -0.24370466 0.03048262 -0.09014304
-0.08497057 0.05372456 -0.01867461 0.23720464 0.1311324 -0.022594858 0.002449311 0.1202457
0.14383543 0.30083126 0.09914543 0.13858256 -0.1728564 -0.12083662 0.109500356 -0.030780787
0.101174094 -0.13516594 0.007844901 0.19284828 -0.22512406 0.0025777435 0.12581354 -0.038092926
0.15250385 -0.032540828 0.022346888 0.06439675 -0.14863461 -0.05786589 -0.043377236 0.10931595
-0.08639728 -0.009987943 0.2606603 -0.022114636 0.047168836 -0.010536097 0.08732305 0.017018814
0.058836643 -0.21169987 -0.017929347 -0.21462104 -0.0101664765 0.03645723 -0.1563116 0.20731927
0.0891044 -0.09281232 -0.27110246 0.018999968 0.028281296 0.16150759 -0.19651276 0.08804088
0.12015515 -0.07919964 -0.219295 -0.11893582 -0.0055139083 -0.30190542 0.03686415 0.33665606
-0.027338373 0.11162779 -0.05778008 -0.0055613243 0.29452598 0.006078443 0.13319978 0.119293354
-0.2346919 0.009382424 -0.1629088 -0.09150115 -0.42321104 0.07933808 0.18932766 -0.0012088416
0.08371374 -0.123722285 -0.0672139 0.3443266 -0.095057234 0.11245404 -0.118886866 -0.16847312
-0.22066301 0.22373998 0.0755157 -0.018462284 0.10311084 0.06276294 -0.08479292 -0.004878901
0.19078343 0.0979485 0.25927776 0.3669012 -0.100133516 -0.15655911 -0.15360482 0.05588266
-0.030481953 0.13199109 0.023539407 0.060661808 0.29537863 -0.084183104 0.18643068 0.04484193
-0.15501405 -0.18501869 0.2218194 -0.05675872 3.8441976e-05 -0.012920201 0.31841156 -0.00781858
-0.17954873 -0.13969654 -0.043565862 0.12130741 -0.16597249 -0.15157378 0.11037328 -0.01579951
0.32723638 0.1704946 -0.02825901 -0.03150831 -0.16973697 0.11989296 0.14145945 0.22288895
0.12179491 -0.28833696 0.21028656 0.23565051 -0.027995002 0.09611438 0.059789523 -0.103036545
-0.09226113 0.28026193 0.15161674 0.221445 0.04215742 0.12422913 -0.068490125 0.39229628
-0.2284493 0.061415996 -0.08680803 0.19586535 0.1536661 -0.10421553 0.0075793117 0.25789827

network_body._body_endoder.seq_layers.0.bias f4 [128]
00000000: c24a d33c 9029 4c3c 2e81 37bc af7d 853c
00000010: 20d0 653d 72ae 5b3c 11a1 12bd 2fd7 7d3c
00000020: 51f3 e73c 1d63 d33b 2859 b2bc 3b12 8cbc
00000030: c859 c33c b20d 7bbc 9ede 1a3d c522 313d
00000040: 5ea5 5bb9 6abf ecbc c676 19bb adc5 e8bb
00000050: 50c2 903b 68fc 2f3d 3391 f1bb a840 11bc
00000060: 62e7 093c 84c7 fd3c 75b0 a3bc 0fd5 ac3c
00000070: 1066 1d3c a3d6 14bd ecce 13bd f646 923c
00000080: 3bdd a73b 84ea fc3c 0675 9abc 8dfe 253c
00000090: b6a2 943c 6132 773c d4a1 1a3d 7f28 cd3c
000000a0: a0b4 c5bc 4b4c 7e3c fe0d 1a3d af26 123d
000000b0: ff3d e93b e903 173d 8bf2 1b3d edb1 c1bc
000000c0: 9d0e bf3c bd9a 003d f890 0bbc 16ff b13c
000000d0: c66f 043d 4c65 4cbc f578 4f3c c031 bcba
000000e0: 1103 afbb d84f 883a fc21 443d c2e9 f63c
000000f0: 6f37 27bd 59f3 433a f206 03bd d1b0 e0bc
00000100: 150a e13c 01de b9bc 252b 6b3c 9a1d d63c
00000110: 289e 813c 3682 373d 7bda 2cbd e7a8 d43c
00000120: 9652 c43c 5458 3e3d 075e dcbb 3503 47bc
00000130: 51b9 cd3c ae12 f53c a2c5 683d e106 cebb
00000140: 020c 243d e8fe 223d e6df fdbc 1227 b13c
00000150: 657b df3a 6149 4d3d 0f9d 68ba d4ff de3c
00000160: a15d 823c 00cd fe3c 5e5c a13c 455d 263d
00000170: 1a33 f7bc 3f1f c23b cce6 1cbc f6d3 c83c
00000180: e333 013d 4168 b83c 28c7 933b ca2b 1ebd
00000190: 6f19 a93c 31da 643c 78ef 2d3d 652d a8bc
000001a0: cad1 193c a7da f03b 1aa3 d9bb 3d40 cdbc
000001b0: e09f 1b3d 538f 063d dfdb f23c ce00 a1bc
000001c0: 6fd9 2b3c 06ff fb3b b825 00bb a8d9 de3c
000001d0: c3f0 b93c 02bc e4bc 021c d83c 910d fcbc
000001e0: 78db e43c 789a 1fbd 623a 55bc b3cd f13c
000001f0: ccf0 103d 99cd d5bc a9ad 003c 2130 83bc
0.025792483 0.012461081 -0.011200232 0.016295282 0.056106687 0.01340829 -0.035798136 0.015493198
0.028314264 0.006451024 -0.021771029 -0.017098537 0.023846522 -0.015323089 0.03780996 0.04324605
-0.00020947072 -0.028899867 -0.0023416742 -0.007103643 0.004417695 0.042965323 -0.0073720454 -0.008865513
0.008416982 0.030978926 -0.019981602 0.021097688 0.009606853 -0.036337506 -0.036086008 0.017856102
0.0051228083 0.030873545 -0.01885463 0.01013149 0.018143993 0.015087695 0.037751988 0.025043724
-0.02413398 0.015521119 0.037611 0.035681423 0.007117986 0.036868963 0.038073104 -0.023644412
0.023322398 0.03139757 -0.00851845 0.02172808 0.032333158 -0.012475323 0.012663116 -0.0014358088
-0.0053409417 0.0010399772 0.047883973 0.030140761 -0.04082435 0.00074749213 -0.031989045 -0.027428063
0.027470628 -0.022688868 0.014353548 0.026137162 0.015822485 0.044801913 -0.042200547 0.025959445
0.023965161 0.046470955 -0.006725076 -0.012146761 0.02511278 0.029916134 0.056829102 -0.006287441
0.040050514 0.03979388 -0.030990552 0.021625075 0.0017050324 0.050118808 -0.0008873501 0.027221598
0.015913786 0.031103611 0.019697364 0.040616293 -0.030175734 0.005924135 -0.009576511 0.024515133
0.031543624 0.02251065 0.0045098253 -0.03861598 0.02064201 0.0139680365 0.042464703 -0.020529458
0.0093883965 0.007350284 -0.0066417577 -0.025055045 0.037994266 0.03285153 0.029645858 -0.019653704
0.010488852 0.0076903133 -0.0019553732 0.027203396 0.022697812 -0.02792168 0.026380543 -0.030768188
0.027936682 -0.038965672 -0.013014408 0.02951703 0.03538589 -0.026099013 0.007853904 -0.01601416

network_body._body_endoder.seq_layers.2.weight f4 [128, 128]
00000000: dda4 58bd c4ce 24be 7b0d 0cbc 6eee 28be
00000010: 2b73 08be 5123 9d3d 1a81 bb3d 7e3e 99bd
00000020: 7bfb f6bc 9c0e 733d 4a29 7dbd 411f 2a3e
00000030: 6e0f 203d 14ec f63d e866 aebd 5ef1 a4bd
00000040: ff49 a53d 4b9f f2bc 74f0 b8bd 6de8 61bd
00000050: 8219 4a3e bd68 1a3c 3a9b 393d f545 d73c
00000060: b732 4b3e e692 fabc 599b 9a3d 75d0 e83d
00000070: c99b 5abd 898b 113b 3f48 fa3d 9370 8cbd
00000080: 7fea b9bd 373f a83d 34d2 70bd bf92 10bd
00000090: 5bb4 bd3d 5c12 073c 7c0f 763d f9fd 83bd
000000a0: 8024 07be cddd f1bd b33f 353c dacc 9fbd
000000b0: d431 42bd 24dd 0ebc 259d 6e3c fcbf b13d
000000c0: 3679 54bd caa2 903c 6dbf c83d 13e4 04bd
000000d0: c5d4 aabd 7da2 3f3e 9883 7cbd 61ef b23d
000000e0: 8dcc 0e3b ee08 eb3d 07ca 83bd d870 fbbd
000000f0: d73f b2bd c540 ba3d 3ab8 9e3d 0718 153e
00000100: 3a49 1a3d 2bdf 073d 5c80 a8bc b980 b73d
00000110: 0f56 9cbc d80a f33d 4614 71bc 9e33 c53d
00000120: 6424 59bb 7e2d 16be 6766 f0bd 66dc a23c
00000130: b903 10be ab5e 15bd 53f8 e5bd a1dd 0e3e
00000140: 28c9 9fbd fe9a f4bd 8f36 a33c 3220 36be
00000150: aa2f ddbd 9077 1d3d deb0 02bd aa11 bf3c
00000160: dd16 063e 529a b2bc dd6d 38bd 2be3 32be
00000170: 18fc 893d bfa7 53bd 81fc 50bd 607a edbd
00000180: f9e8 cfbd 8de1 8e3d 0c04 063e 896d 2e3c
00000190: 5a56 3abe d577 de3d df36 6fbd 8bfe 9d3d
000001a0: 6eda e93c 9dfa 25bd 3825 a0bd 32d9 293c
000001b0: 6f96 3e3b fe94 0f3d f7c0 d6bd 24f7 9fbd
000001c0: abfe 3dbe 35e5 aa3d 4593 efbc 54c5 d3bd
000001d0: 05be 463c 4716 ddbc 167c f13d 3774 5abd
000001e0: 9151 813c d409 803d 3b10 afbd 7533 df3d
000001f0: 9e74 373d 5067 5a3e 0bab ffbc c279 41bd
00000200: e100 d8bd 5a25 f1bb 7d1e b5bd 44f8 493e
00000210: 4ed1 8c3d 2be4 6e3d aae3 86bd 288e 5abb
00000220: f4cc 123e 1835 893e f51f 65bb e4f5 0c3e
00000230: 2525 f73c d1b6 813d d7d7 9d3d 1059 d03c
00000240: 297e 1cbe 0955 5abe 709a e03c d41f 49bc
00000250: 28c7 9abd 0481 7b3e e065 f1bb 6914 6dbe
00000260: fce1 813d c1c3 ddbd 22b9 e43d d512 863d
00000270: f616 afbc 5ce8 ff3c d046 c93d 1748 d93c
00000280: 9667 213e 5174 53bc 8dc0 36bd b60c 03be
00000290: 78c3 d83d 8aa9 853d d488 30bd efc4 4fbc
000002a0: d8c3 40be a37a 0cbe f738 3ebd dfc7 803e
000002b0: 7c6a b03d 1be6 e4bd 4eb5 2abd cb28 a2bd
000002c0: 4cec 94bd f0ef fa3c 67df 7ebc ad41 ad3d
000002d0: a679 a23d 925a 8f3c 59f2 63bd cfab 94bc
000002e0: 0cce 9fbc 189a 2cbd 91bc df3a 4a05 0a3d
000002f0: 4371 05be 35f9 c1bc 8cd2 a53d 7697 b2bc
00000300: 983b ba3d d970 2abe 156c 79bd a17c 2d3e
00000310: 2498 8bbd a453 88bd 43f7 273d 9e7b 01be
00000320: 9bb1 073b 2176 d43d 09cd b33d 12ca 24be
00000330: d44e cfbc a06b f13d 5179 64bd 6e73 bfbc
00000340: 22a7 b5bd cdf6 ec3c 354e 12be a3d9 0b3e
00000350: fb4c ddbc 5cc4 a73d b16d a8bc 469f d93d
00000360: b38f 3fb9 ddf6 483d 4af5 e53d e933 71bd
00000370: 7ac5 3bbe c435 aebd 3b6d 13bc e13d e0bd
00000380: 9f2b 8c3e 1a19 abbc d333 cabc 1ac8 81bd
00000390: e2a2 2c3a 4f81 e33d 681b 32bd 58ed 3fbc
000003a0: 3ac5 63bd 3451 90bd 6a3e ecbc e910 e9bb
000003b0: 1fb6 c23c 7786 e33d 942e 37be fdc9 cbbc
000003c0: 27f5 ba3c 09e0 923d f2d5 c7bd f9ee fd3b
000003d0: 45e4 383b ac7f b63d 6b05 cf3b bdb8 813d
000003e0: 0573 7a3d 7052 cc3d 47fc b83d 0dc5 1abd
000003f0: 6a82 213c 95d7 773d 515b 433d dab1 90bd
-0.0528916 -0.160945 -0.008548136 -0.16497204 -0.13325183 0.07672752 0.091554835 -0.074826226
-0.030149212 0.059340104 -0.061806954 0.16613485 0.039077215 0.12056747 -0.085157216 -0.0805385
0.08070754 -0.029616972 -0.09030238 -0.0551533 0.19736293 0.009424386 0.04531405 0.026278475
0.19843565 -0.030587625 0.075491615 0.11367885 -0.053371225 0.0022208414 0.12220811 -0.06857409
-0.0907793 0.08215182 -0.058794215 -0.035296198 0.09262916 0.008244123 0.06007336 -0.06444926
-0.13197517 -0.11809883 0.01106255 -0.07802744 -0.0474108 -0.008719716 0.014563833 0.08679196
-0.05187341 0.017655749 0.098021366 -0.03244407 -0.08341364 0.18714328 -0.061648935 0.08737064
0.0021789402 0.114763126 -0.06435018 -0.122773826 -0.08703583 0.09094385 0.07749982 0.14559947
0.03766749 0.033171814 -0.020569019 0.08960099 -0.019084005 0.11867303 -0.014714306 0.09628986
-0.0033133263 -0.14665791 -0.11738282 0.019880485 -0.1406392 -0.036467236 -0.11229005 0.13951732
-0.078020394 -0.11943625 0.019923477 -0.17785719 -0.10800107 0.0384441 -0.031906955 0.023323853
0.13094659 -0.021802101 -0.04502665 -0.1746947 0.06737536 -0.051673647 -0.051022056 -0.11595607
-0.10151858 0.06976614 0.13087481 0.010646232 -0.18197003 0.108627 -0.05840194 0.07714566
0.028546538 -0.040522207 -0.07819599 0.010366725 0.0029081365 0.0350542 -0.10486024 -0.0781081
-0.1855418 0.08344499 -0.029245028 -0.10340372 0.012130265 -0.026988162 0.11791246 -0.053333487
0.015785964 0.062518746 -0.085480176 0.108984865 0.04478895 0.21328473 -0.03120949 -0.047235258
-0.10547043 -0.007359189 -0.08843706 0.19723612 0.06875859 0.058323067 -0.06586392 -0.0033348892
0.14335996 0.2679832 -0.0034961675 0.13765675 0.03016908 0.063336976 0.07707184 0.025433093
-0.15282501 -0.21321501 0.027417392 -0.012275655 -0.07557517 0.24560934 -0.007366881 -0.23152317
0.06341931 -0.10828353 0.11168124 0.06546561 -0.021373253 0.031238727 0.098279595 0.026523633
0.15762171 -0.01290615 -0.044617224 -0.12797818 0.10584158 0.06526478 -0.04309924 -0.01268123
-0.18824708 -0.13718657 -0.046441045 0.2515249 0.0861406 -0.11176702 -0.041676812 -0.07917937
-0.072716326 0.03063199 -0.015556193 0.08459792 0.07933359 0.017499242 -0.055651043 -0.018148331
-0.01950743 -0.042139143 0.0017069747 0.03369645 -0.13031487 -0.023678401 0.08096799 -0.021800738
0.09093398 -0.1664461 -0.06089409 0.16942073 -0.06816128 -0.06656578 0.04100729 -0.12644812
0.0020705226 0.10374094 0.08779342 -0.16092709 -0.025306143 0.11788106 -0.05577976 -0.02337047
-0.08869769 0.028926278 -0.14287646 0.1365724 -0.027014246 0.081917495 -0.020560117 0.10626082
-0.00018268712 0.049063552 0.11228426 -0.058887396 -0.1833705 -0.08506349 -0.008998211 -0.109493025
0.2737703 -0.020885993 -0.024682915 -0.063369945 0.0006585551 0.11108648 -0.043483168 -0.011714302
-0.05560801 -0.07046738 -0.028838355 -0.0071126116 0.023768483 0.111096315 -0.17888862 -0.024876589
0.022821976 0.071716376 -0.09757604 0.007749435 0.002821223 0.0891107 0.0063177845 0.06334064
0.061144847 0.09976661 0.09032493 -0.03778558 0.009857753 0.06050833 0.047694508 -0.070651725

network_body._body_endoder.seq_layers.2.bias f4 [128]
00000000: 6f9b 93bc 504f 3a3c 4ee6 343d 883f 7dbb
00000010: 55c9 e8bc 9d08 f4bc 6012 12bb 3d20 88bc
00000020: d3dd 513c d6fd 3cbc 3499 04bd 0e83 f9bc
00000030: bd12 223d af8b e338 f00c eb3b cb0c 133d
00000040: 82c1 f73c 62cf c53c 7e38 1cbb 7231 1d3d
00000050: 0cb7 f6bc f045 8c3b be7b 353d 3dad 073d
00000060: 2cb7 13bc 8181 13bc 7098 a43c b715 81bc
00000070: e5b5 be3c a5c6 f8bb 9f4a 28bc 0285 be3c
00000080: 3c4b eb3b 7edb 66bc e3fb e03c 0046 053d
00000090: b0ee 5cbc 8d73 66bc a66d b6bc 64d3 b33c
000000a0: 59d3 a0ba a4ff 103c 6442 a5bc 33d7 633c
000000b0: 059b 183d 8955 47bc 4d4a d2bc 802f 4cbc
000000c0: cb7b 18bb 1400 b53c fceb 113d cc7c 61bc
000000d0: 0c83 96bc 1525 833c 4122 203d 6f58 a73c
000000e0: 5c16 c23c fd9c 21bc 4f3a 0b3d 009b ed3c
000000f0: 2c0f b8bc d9ab a1bc d2a5 5b3c c977 df3c
00000100: d786 cb3c 8228 f9bc 6650 163d b8ad b43c
00000110: 8511 a23c 8e01 2e3d 1d30 ca3c 1fbe cf3c
00000120: bb54 71bc 9368 a4bc 65ce 6ebc e346 d43c
00000130: 56d0 563b 0cf3 a23b f818 833c b359 e9bc
00000140: 5d4f 113d cb56 f3bb 8670 8c3c 8fae 1f3d
00000150: 63e1 c33c fe04 70bc 1c36 4f3c ef5f 4d3c
00000160: c5cc e53c 53d0 c63c c474 56bb 5029 343b
00000170: 598b 21bc 2492 173d 6726 f3bb cf89 d83c
00000180: dad5 2d3c abc6 2e3d d8d8 08bb 61e2 e3bc
00000190: d428 513c f187 6d3c 255f 473c 1f42 2a39
000001a0: 1a2a 083d 8cd6 c73c e324 3b3d 9b4d 9fbc
000001b0: 7c00 133d f7a0 b53c 24f5 953c 8a22 5b3c
000001c0: aed8 a0bc 994b e33c 93fe 2c3c e88c 1b3d
000001d0: 2d37 b6bc 3d06 ae3c dc02 173d d240 5b3c
000001e0: 1283 96bb ba35 c03c b929 8dbc c450 283d
000001f0: e6b4 a236 6870 2f3d b918 bdba e933 6e3c
-0.018018452 0.011371449 0.04416495 -0.0038642604 -0.028416315 -0.029789263 -0.0022288784 -0.016616935
0.012809235 -0.011535129 -0.03237267 -0.030458 0.03956865 0.000108502216 0.007173173 0.035900872
0.030243639 0.02414674 -0.0023837383 0.038377233 -0.03011658 0.004280798 0.044307463 0.033124197
-0.00901584 -0.009003044 0.02009222 -0.015757425 0.023280093 -0.0075920396 -0.010271697 0.023256782
0.0071805995 -0.014090417 0.027463859 0.03253746 -0.013484642 -0.014065635 -0.022269081 0.021951385
-0.0012270018 0.008850012 -0.02017326 0.013906288 0.037257213 -0.012166389 -0.025670195 -0.012462497
-0.0023267146 0.022094764 0.035625443 -0.013762664 -0.018373035 0.016008893 0.039095167 0.02042791
0.023692302 -0.009864089 0.033991154 0.029004574 -0.022468172 -0.019735264 0.013406234 0.027278798
0.02484457 -0.030414823 0.036697768 0.022055492 0.019783745 0.04248195 0.024681145 0.025359211
-0.014729674 -0.020069396 -0.0145755755 0.025912708 0.0032777986 0.004972821 0.016003117 -0.028485155
0.035476077 -0.007426118 0.0171435 0.03898483 0.023911184 -0.014649628 0.012647178 0.012535079
0.028051743 0.024269259 -0.0032723406 0.0027490444 -0.009859883 0.037004605 -0.0074203494 0.0264329
0.010610068 0.042669933 -0.0020881202 -0.027817907 0.012766082 0.014497743 0.01216868 0.00016237095
0.033243276 0.024394296 0.045689475 -0.019446185 0.035889134 0.02217148 0.018305369 0.013374934
-0.01963457 0.027746009 0.010558742 0.037976176 -0.022243107 0.021243209 0.03686796 0.013382154
-0.0045932615 0.023463119 -0.017231809 0.04109265 4.8490356e-06 0.04283181 -0.0014426924 0.0145387435

action_model._discrete_distribution.branches.0.weight f4 [3, 128]
00000000: 9f9f 2ebd b4d1 fc3c f776 6f3d e6f5 abbb
00000010: ce73 57bd ef3a 61bd 353e 42bc b484 c0bc
00000020: 2645 f93b 0b3f 6ebd ce55 54bd 7630 52bd
00000030: 136b 763d 4edc d7bb 1c69 9bbb 672d 8a3d
00000040: 2316 f03c d448 493d 3c85 9a3c 7154 eb3c
00000050: 081a 74bd e9f6 82bc 40ef 6b3d 4854 8d3d
00000060: 3e6e 00bd a10c f0bc ee38 593d fad7 51bd
00000070: 1eb5 083d 58af 6dbc e0fd 56bd 022d 523c
00000080: 7e88 10bc e38a 88bd 2a74 523d d902 4d3d
00000090: 1e9a 73bc fd55 0fbd d982 28bd 0e43 cb3c
000000a0: b5d0 27bc dce0 513b 017f 43bd ceb0 e43c
000000b0: a24b 713d 38c2 a5bc 427f 36bd 1617 ffbc
000000c0: a1e5 a13c 0812 a23c d09c 793d ce3b 28bd
000000d0: 45bf e6bc b09c 233d 0bbd a73d ad71 f23c
000000e0: e640 163d 1874 56bd dcd9 423d a9f3 4f3d
000000f0: 9b44 48bd 06e2 1ebd 5d69 283d 6d4c 953c
00000100: d17d 243d e625 41bd 4448 8e3d 2f10 6f3c
00000110: e7cc 113d 3f52 593d 1576 c33c 3693 4c3d
00000120: 052b 28bd 06fe 89bd 0d4b 01bd b292 e83c
00000130: c8a6 05bd e67f c73c 1aae f83c fafb 2abd
00000140: 6e7d 773d 31cf 7abc 501e 0b3d 1a55 4b3d
00000150: 9f19 3c3d 93ed f2bc 6d20 0d3c dda8 423c
00000160: 0b4e 173d 49f2 1a3d ecb2 f4bc 1ad7 373c
00000170: 2473 39bd d4f1 523d 9351 b4bc 84df 593d
00000180: bcb0 de3c a6ec 5f3d 2178 12bd 13ab 38bd
00000190: 62e0 eb3c bc08 053d 1c91 33bb 533d 26bd
000001a0: 6e55 5e3d d8f8 543d 7b3a 883d eb5e 16bd
000001b0: 9d80 4f3d c89b 803c b495 2d3c 2341 c23c
000001c0: 4acf 61bd 28b2 973d 191d b0bc 18c1 0d3d
000001d0: 6b48 37bd eecd ca3c c3c4 383d 37a7 1a3d
000001e0: d4aa 1fbd 3bd2 d83c b959 a1bc 2071 863d
000001f0: ff04 77bc 9af8 883d 40a8 5e3c 03b4 9d3c
00000200: fde7 e53c 7066 67bc 78c2 ce3a b41a 99bd
00000210: dc09 d23c 9d91 f43b 540e afbc 1981 3bbd
00000220: 49af 193d 9f80 613d 6684 ae3c 888a e63c
00000230: a900 5fbd 56ee 7cbd 504d 97bd 6279 54bc
00000240: 44f6 fe3c c13b d8bd 08bd 58bd cf2e d23c
00000250: 28d0 413d 00a1 48bd b7c4 6cbd 0ba7 03bd
00000260: b26f 803d 4edb fb3b ef8d 60bd f5f1 293c
00000270: 1601 bebd 5992 f1bc ded3 613d a777 573d
00000280: de86 8ebd bc9a e13c 30ac c03b f5c0 1bbd
00000290: 5d45 84bb 6d85 42bc 3173 b03c 5464 833c
000002a0: 7dc1 253d e601 573d 14d7 3b3c 33ce 87bd
000002b0: ac53 26bd 7c37 41bd d841 d93c 4cbf 8d3d
000002c0: 32ea a1bd 8174 633d 6ae6 05bd aa36 a83c
000002d0: 07e9 4abc 5991 fdbc d0d8 7fbd 0a3a 95bd
000002e0: 5f8c bdbd 05cc 743d 2a5f 4fbc f19d 18bd
000002f0: 663c db3b 7dc6 933c cb67 c3bb 7db7 313d
00000300: 9f87 82bd f81e 243c f8a5 bbbd ee04 743d
00000310: 9a30 6dbd d6b8 2abd 4914 8cbd dd33 2dbd
00000320: 9d74 c43c c272 2d3d b55f cd39 8eaf bfbd
00000330: 65b2 323d ebda 8abd cb3e ea3c ec80 d93c
00000340: adb9 23bc a901 debc 4ccd a2bd 11bf 54bc
00000350: 3a5e f13c 52a9 99bc ea6d a8bd 684e 97bd
00000360: 3d7a e83b 8031 3fbc 795f b33c 3aff 7abd
00000370: 8390 793d 3621 cbbd 80d4 f0bc ccbe 35bd
00000380: 7836 f23c ac0a c7bd 38e1 073d 71b4 973a
00000390: d2e9 013c c43d 3ebd b497 873d 585a 7d3d
000003a0: cbfb bebc a4cf cdbc 5131 08bd 06f0 97bc
000003b0: 4450 40bd 4e37 99bd 06d3 b0bd 94c2 bd3c
000003c0: 0d49 1f3d 71d3 673a cc1d 903d 729e c6bd
000003d0: bc44 133d e1d9 bfbd 42ce 5fbb 23d7 253c
000003e0: 72af 4e3d 4e4a a8bd db6b 38bd 3a7f 8dbd
000003f0: 8b43 1abd 8e12 87bd cc71 88bd d6db 383d
-0.042632695 0.030861713 0.058463063 -0.0052478192 -0.052600674 -0.054987844 -0.011855652 -0.023500778
0.00760712 -0.05816559 -0.051839642 -0.051315747 0.060160708 -0.0065875417 -0.0047427546 0.06746941
0.02930743 0.04914172 0.01886236 0.028726788 -0.059595138 -0.015986877 0.057601213 0.06900841
-0.031355135 -0.029302897 0.053032808 -0.051231362 0.03337585 -0.014507137 -0.052488208 0.0128281135
-0.008821605 -0.066671155 0.051380314 0.050051544 -0.014868287 -0.034994114 -0.04114041 0.024812248
-0.010242631 0.0032024896 -0.047728542 0.027916338 0.05891002 -0.020234212 -0.044554956 -0.031138938
0.019762816 0.019783989 0.060940564 -0.04107266 -0.028167376 0.03994435 0.08190354 0.02959522
0.036682986 -0.05235681 0.04757105 0.05076948 -0.048893552 -0.03878977 0.041116107 0.01822492
0.04015905 -0.047155283 0.06947377 0.014591261 0.0355958 0.05305695 0.023860017 0.04994508
-0.04105665 -0.06737904 -0.031565715 0.028390262 -0.032629758 0.024352979 0.030356456 -0.04174421
0.060422353 -0.015308187 0.033964455 0.049641706 0.04592287 -0.0296543 0.008613688 0.01188108
0.036939662 0.037828717 -0.029870473 0.011220718 -0.045275822 0.051500157 -0.022011554 0.053191677
0.027183883 0.054669045 -0.035759095 -0.045085024 0.028793518 0.032479033 -0.0027399724 -0.040585827
0.05428069 0.05199513 0.06651779 -0.036711615 0.050659765 0.015699282 0.010594774 0.0237127
-0.055129327 0.074070275 -0.02149825 0.034607977 -0.044746798 0.024756398 0.04510952 0.037757125
-0.038981274 0.026467433 -0.019696103 0.06564546 -0.015076875 0.06688042 0.013589919 0.019250875
0.028064722 -0.014123544 0.0015774509 -0.07475796 0.025639467 0.0074636475 -0.021369137 -0.045777414
0.03752068 0.055054303 0.021303367 0.028142229 -0.05444399 -0.061750732 -0.07387793 -0.012968393
0.031123288 -0.10558272 -0.05291465 0.025657086 0.047317654 -0.048981667 -0.05780479 -0.032141726
0.06271304 0.0076860553 -0.05482286 0.010372628 -0.09277551 -0.02948873 0.055133693 0.052604344
-0.069593176 0.027539603 0.0058799013 -0.038025815 -0.004036589 -0.0118726315 0.021539303 0.016039051
0.040467728 0.052492045 0.011464853 -0.06631126 -0.04060714 -0.047172055 0.026520655 0.069212526
-0.07905997 0.05553103 -0.032690443 0.020533878 -0.01238466 -0.030953096 -0.062462628 -0.07286461
-0.09255289 0.05976488 -0.012656966 -0.03726 0.0066905497 0.018038983 -0.005963301 0.04338788
-0.06373524 0.010017149 -0.091625154 0.059575014 -0.05790768 -0.04168018 -0.068398066 -0.04228579
0.023981387 0.04234577 0.00039171954 -0.09359656 0.04362716 -0.067800365 0.028594395 0.026550733
-0.009992999 -0.027100401 -0.079493135 -0.012985007 0.029463876 -0.018757496 -0.082240894 -0.07388002
0.00709465 -0.011669517 0.02189611 -0.06127856 0.060928833 -0.09918444 -0.029398203 -0.04437141
0.029566988 -0.097188324 0.03317377 0.0011574161 0.007929282 -0.046445623 0.06620732 0.061853737
-0.023313424 -0.025123425 -0.033250157 -0.01854707 -0.046951547 -0.07481252 -0.086339995 0.023164071
0.038888026 0.0008843458 0.07036933 -0.0969819 0.035954222 -0.09367729 -0.003415004 0.010122093
0.050460286 -0.082172975 -0.045024734 -0.06909032 -0.03766207 -0.06595336 -0.0666233 0.045131527

action_model._discrete_distribution.branches.0.bias f4 [3]
00000000: 91cb 233d 7bc7 84bc 2c15 f7bc
0.039989058 -0.016208401 -0.030161463

action_model._discrete_distribution.branches.1.weight f4 [3, 128]
00000000: 9628 093c 61b7 67bc f887 733b de21 e5bc
00000010: f7c8 8cbc 2dfe 75ba 177f 0fbd c8fe 00bc
00000020: 8671 393c 0f6b 253b 297c 62bc 87a1 233a
00000030: 2588 fa3a 7ded 0ebd 0fec 13bd b239 c9bb
00000040: cecd 6d3c d058 39bc 39e1 fcbc 1d0a 163c
00000050: 8b2d 67bb 1faa 18bd 3e61 5cbc 3604 f83b
00000060: 9d81 553c 04a0 26bc bf18 4cbc 6b99 f83b
00000070: de50 d5bc 562d 58bc 0295 933c ad16 833c
00000080: 1570 ffbc f948 863c 4af8 2e3c 1ba9 51bc
00000090: ba6f bdbc a7e3 89bc 4775 4bbc 4121 563b
000000a0: 0e30 403c 9cc4 8138 8536 523b f50d 03bd
000000b0: adc3 603c 1010 0dbd 8032 163c 8bb7 8d3c
000000c0: 597d 0abd 0eab 733c a199 98bc 3697 693c
000000d0: d92f 50bc 916c b23a 6417 12b9 3d3c f0bc
000000e0: b302 3ebd 8d73 6c3a e7dd 9abb 50c1 033c
000000f0: 4cab 48bb ee64 b2bb 09eb 7f3c 7b76 09ba
00000100: e3ce d8bc 28b1 fdbb 74e7 e1bc 448e 1ebb
00000110: d0a4 c5bc bc4e 40ba ebb3 0cbd fe20 013c
00000120: cb77 4cbc 3ebb 65bb a8ce a4bc 6c62 57bc
00000130: 8ce4 ab3c 520e a0bc 029b 933c ad20 a2bb
00000140: 8684 40bb 69b8 53bd ca03 22bd 18b6 2f3b
00000150: 6dda 243b 6586 22bc 0495 45bd 6ba2 bdbc
00000160: 85e2 d037 abc2 74bb e73b 07bc d447 a7bc
00000170: b27f ad3c 619c fbbc 0b2c fabc a7af 76bc
00000180: 87b7 bb3c ac65 75bc 5573 3b3c cbec a6bc
00000190: 8274 163c 77e7 bbbb 470c 7f3c 1fa7 cb3c
000001a0: 4083 f43b 9375 b53c faa0 f63a cc6d 16bd
000001b0: 59b8 52bb cd55 00bd b3ba 09bd b79b 8d3c
000001c0: c2d5 c83c 4afa 7a3c 5480 7e3c de0c 12bd
000001d0: de24 af3b 7d99 28bd fbf7 923a 9f40 7e3c
000001e0: 3a09 703c 69d3 29bd 9af9 00bd 4b7b f03a
000001f0: ee30 bebc ed01 f0ba cb64 e4bc d15b 173c
00000200: 6354 b9bb b19c 0e3c 3400 f8bb 738b 4a3c
00000210: 2765 b9bc d41b a03b 6825 9c3c 2cca c63c
00000220: 8b49 82bb 1b63 cbbb ccf3 b7bb c953 023c
00000230: 70d2 9f3a 1bd0 e33c ec4e d43c 6e35 d8bc
00000240: 8483 4ebc 0a50 7a3c 13d3 b43b 8dce 40bb
00000250: 06ff 11bc a623 b53c c1a2 02ba 7535 583c
00000260: 241d 0a3b 5833 793c 2689 8b3b f1c4 37ba
00000270: 6487 9d3c d365 0f3c 4e03 82bb 716d 23bc
00000280: 6a9e 8e3c 7b2e 3b3c 4558 c7bb 9c71 b13c
00000290: 3166 d03c 7bf1 933c 55b6 94ba 0601 a4bc
000002a0: 7f31 84bc 95fe 0bbc 9e26 26bb 9f4d ad3c
000002b0: 3734 33bc ef09 533c 9333 8d3b d235 a4bc
000002c0: da62 8c3c f254 ebbb c348 b2bc 0eae 053c
000002d0: 95f2 603c 0160 0cbc 8184 cbb9 b2f4 153d
000002e0: afe7 533c df4e dbb9 1c84 843b 87cc 6b3c
000002f0: 9de3 a93b 545e b83b 59f2 8fbb 0c12 c2bb
00000300: c45b 773c de8f 3d3b f181 483c 3791 59bc
00000310: 0d5d 67bb 4c20 993b 1476 033d 976e b1b9
00000320: 615b cfbb f690 ef3b c1d3 663c b5db 063d
00000330: e271 07bd b054 e43c 7d10 a6ba 59b0 cc3a
00000340: fdb4 b2bb 6cad 103c f069 083d 7ec1 663a
00000350: 3c0f 823b 9e44 d53b 2252 003d 97c1 b63c
00000360: cc07 04bc 42c4 15bc 0f55 b1b8 dfa0 fe3c
00000370: c566 14bc 7e5d d73b 3ac4 823c 9db6 cb3b
00000380: 8819 dbbc fe12 413c 633f 813b 1d10 633c
00000390: d2d4 3bbc 7a90 9939 0678 8ebc f580 15bb
000003a0: 2670 0fba 617f 38bc 5636 c13b 31a0 c63a
000003b0: 6879 483b 8754 de3c 362e f23b 80b5 6bbc
000003c0: 4309 61bc e498 8f3c 9daa e7bc 7b4b 623c
000003d0: 236d fcbb 0f7f eb3c e0d7 62bc 7a35 053b
000003e0: 4f79 38bc 1524 8d3c 3f0a c93c 6d46 613c
000003f0: c8d6 e63c f7d3 1f39 73ea 8f3c f4ee c1bc
0.008371493 -0.014142842 0.00371599 -0.02797025 -0.017185671 -0.00093838834 -0.03503331 -0.007873245
0.01131857 0.0025240814 -0.013823547 0.0006242026 0.001911406 -0.034894455 -0.036113795 -0.006140911
0.0145144 -0.011312678 -0.030869113 0.009157685 -0.0035274948 -0.037271615 -0.013450919 0.0075688614
0.0130313905 -0.010169987 -0.012457072 0.007586648 -0.026039537 -0.013194403 0.018015388 0.016002024
-0.031181375 0.016392218 0.010679314 -0.012796666 -0.023124564 -0.016832186 -0.012418098 0.003267363
0.011730207 6.187821e-05 0.0032075953 -0.031995732 0.013718528 -0.034439147 0.009167314 0.017299434
-0.033810947 0.014872326 -0.018627943 0.014257243 -0.01270672 0.0013612678 -0.00013932359 -0.029325599
-0.046389293 0.0009019904 -0.00472616 0.008041695 -0.003061968 -0.0054441607 0.015620002 -0.000524379
-0.026465839 -0.007742066 -0.027576186 -0.0024193684 -0.02412644 -0.0007335951 -0.03435127 0.007881401
-0.012479733 -0.0035054232 -0.020118073 -0.013146024 0.020983003 -0.019538078 0.01801825 -0.004947743
-0.0029375865 -0.05168954 -0.039554395 0.0026811417 0.0025154606 -0.0099197375 -0.048237815 -0.023148736
2.4901014e-05 -0.0037347476 -0.008254028 -0.020419993 0.021179054 -0.030714216 -0.03053858 -0.015056527
0.022914661 -0.014977854 0.0114410715 -0.020376584 0.009183051 -0.00573438 0.015566892 0.024859963
0.0074619353 0.02215079 0.0018816285 -0.036725804 -0.0032153337 -0.031331826 -0.033625316 0.017286165
0.02451599 0.015318463 0.0155335255 -0.035656802 0.005344971 -0.041162003 0.001121282 0.015518337
0.014650637 -0.041461382 -0.03148804 0.0018347291 -0.02321669 -0.0018311121 -0.027880093 0.009238199
-0.0056558116 0.00870435 -0.0075683836 0.012362349 -0.022631241 0.00488613 0.019060805 0.024266325
-0.003976052 -0.0062068827 -0.0056137796 0.007954546 0.0012193453 0.027809193 0.02591654 -0.026392665
-0.012604598 0.015277872 0.005518326 -0.002941999 -0.0089109 0.022111725 -0.00049833587 0.013196339
0.0021074498 0.015209995 0.0042582927 -0.00070102426 0.019229598 0.008752304 -0.003967679 -0.009974823
0.017409522 0.011424656 -0.0060835206 0.021660618 0.025439354 0.018059483 -0.0011345843 -0.02002002
-0.016136883 -0.008544584 -0.0025352607 0.021155177 -0.010937742 0.012880786 0.0043091266 -0.020045195
0.01713698 -0.007181757 -0.021763211 0.008159174 0.013729711 -0.008567811 -0.000388179 0.036610313
0.012933656 -0.000418297 0.004044069 0.014392025 0.0051846043 0.005626479 -0.0043929038 -0.0059225615
0.015097562 0.0028924863 0.012238012 -0.013279251 -0.0035303265 0.0046730395 0.03209503 -0.00033842467
-0.006328032 0.007310982 0.014088572 0.032924373 -0.03306759 0.027872413 -0.0012669709 0.001561652
-0.0054537044 0.0088304095 0.033304155 0.00088026363 0.0039691012 0.006508424 0.031328328 0.022309108
-0.0080585 -0.00914103 -8.455861e-05 0.031082569 -0.009057705 0.0065724244 0.015962709 0.0062168376
-0.026745573 0.011784313 0.003944324 0.013858822 -0.011464315 0.00029290078 -0.017391216 -0.002281246
-0.00054717285 -0.011260838 0.00589637 0.0015153942 0.0030589942 0.027139915 0.0073907627 -0.014386535
-0.013735118 0.017528959 -0.028279597 0.013811941 -0.00770344 0.02874711 -0.013845414 0.0020326064
-0.011259391 0.01722912 0.024541019 0.013749701 0.028178588 0.00015242385 0.017567849 -0.023673512

action_model._discrete_distribution.branches.1.bias f4 [3]
00000000: 80a1 2cbb 7a9e fb39 41ae 993b
-0.0026341379 0.00047992525 0.004689962

exp_avg f4 [128, 55]
00000000: 4f01 19b7 3b9b 3a38 847d f835 7224 cdb7
00000010: 66ec 87b7 bad4 03b8 b122 3538 817d f835
00000020: a220 b1b5 a821 f9b6 008a 3d37 89e3 b737
00000030: fe83 8bb3 ddef a8b7 ab77 78b7 68d1 8db8
00000040: ac3b a938 0ded 9bb2 0000 0000 01cf b8b6
00000050: 6909 2fb8 ec76 6638 8ebd 91b3 0000 0000
00000060: b402 abb6 74b2 f1b6 6816 aa37 0ded 9bb2
00000070: 0000 0000 1564 cb35 802d 36b8 1f5e 6d38
00000080: 3665 41b2 0000 0000 266b 0eb5 86f8 6437
00000090: 1606 1ab5 4568 9d33 17b5 aa2e 2ed1 fe36
000000a0: 3545 e237 89fb 03b2 54dd c0b1 69bd 67b7
000000b0: 2766 0836 117b d636 9f60 b3b4 4568 9d33
000000c0: ff6d 9d90 c5cb 7736 059d 5f37 ad7a 0eb5
000000d0: 0cfb 33b3 ab11 eab6 70a0 9536 af51 1d38
000000e0: 336c 1438 2a7f f9b5 4f10 14b7 d8e1 5135
000000f0: b690 2338 3d44 eb37 1f7f f9b5 84ca 27b6
00000100: 41e1 30b5 593c 9f37 c211 5c38 73d2 f9b2
00000110: 1a97 21b7 4ae7 fa35 e49d 5938 9555 2937
00000120: 6ba6 66b4 0000 0000 2ec2 aab2 4c55 eeb6
00000130: 3571 9038 36ac f5b2 0000 0000 f4cb f636
00000140: 392c d838 da64 2cb8 6ba6 66b4 0000 0000
00000150: 2ae2 4235 9e27 07b6 b7cc 8538 5355 37b3
00000160: 0000 0000 f109 3437 dd0b 8438 09fb 8db5
00000170: 3012 2eb4 e7c8 01b0 9185 acb6 6b6a b135
00000180: 56a1 b731 174e ddb0 5d6a 7d38 f5aa c238
00000190: b979 9638 23ce acb5 3012 2eb4 4851 7e11
000001a0: f5bc 50b6 9733 7e38 dc5c c2b4 c830 c3b2
000001b0: 0c9e 2337 94a8 8038 5330 ebb7 6451 40b7
000001c0: 6c0d 5e35 147f 8e35 74c0 71b6 6f71 ebb7
000001d0: a62d 48b7 530d 5e35 6b9b cc35 4d13 90b5
000001e0: 66dd d1b7 2f5d 64b7 783d 6e32 030a 8a35
000001f0: 672f ceb6 c3e4 17b8 7986 c1b5 e2f9 b333
00000200: 0000 0000 b0f4 51b6 4416 5737 1f49 53b8
00000210: a8c6 6332 0000 0000 c89b 00b7 2ce6 53b8
00000220: 20d3 5737 e2f9 b333 0000 0000 7357 17b6
00000230: 0982 1737 616f 43b8 b74a cc32 0000 0000
00000240: 84ee 13b7 0992 20b8 41bf 3535 2d5d 8933
00000250: 10c8 3730 de3a f033 81a8 cb36 05f3 09b2
00000260: afd0 5cb0 79e1 36b8 28ee b0b8 2a09 43b8
00000270: 37da 4b35 2d5d 8933 ac80 c491 8abd 8fb5
00000280: ad25 44b8 4b98 8b34 430d a731 a476 b235
00000290: d647 1ab8 f9ea aa37 f4b4 5138 16ae df34
000002a0: 2ad0 0cb8 1b9b b7b7 4ffd 24b8 91b4 a438
000002b0: 27ae df34 080a 27b6 b2a1 53b7 8561 3a37
000002c0: f1aa 6938 691f c3b3 6b0c f8b7 15b7 9ab7
000002d0: c346 b7b8 38c8 0239 8933 20b4 0000 0000
000002e0: 6afa 02b7 872e a7b8 ee88 f538 9884 c9b3
000002f0: 0000 0000 7701 61b6 100f 8838 9f13 e7b7
00000300: 8933 20b4 0000 0000 0b77 1936 4027 a2b8
00000310: e060 f038 066b 0db3 0000 0000 481a 9136
00000320: e42e 2238 1445 bbb5 e3e1 65b1 6c07 00b0
00000330: 4944 1f36 4f6c 9f37 2416 96b1 79ba 1fb2
00000340: 1353 9937 b8c6 a338 0d50 2638 2d7d b4b5
00000350: e3e1 65b1 e5cd 8711 2a90 27b5 bb29 bc38
00000360: a0fc 49b5 1605 98b3 1a0e 58b8 487e a637
00000370: f3d0 c537 3247 0938 dfb3 80b6 8aee 8d37
00000380: c57f b637 03b7 d738 21a5 d8b7 d4b3 80b6
00000390: 2d44 4ab6 b1bb 1237 bd9c 3e38 dfc1 2837
000003a0: 7b85 6b32 3fef 5c37 a5bb bf37 795b 5a39
000003b0: 5100 12b9 cf72 cdb4 0000 0000 5a5a 1f37
000003c0: b2b7 1938 5eaa 0538 a33c 8c32 0000 0000
000003d0: 2b6d 9537 5bb4 3239 3cb2 d4b8 cf72 cdb4
000003e0: 0000 0000 6b1c 6fb6 16f3 4538 ae8d b337
000003f0: 4d44 8cb3 0000 0000 9373 8737 dede 9238
-9.119815e-06 4.4490425e-05 1.851397e-06 -2.4454876e-05 -1.6203336e-05 -3.143095e-05 4.318607e-05 1.8513966e-06
-1.3197025e-06 -7.4246964e-06 1.12974085e-05 2.1921254e-05 -6.496701e-08 -2.0138856e-05 -1.4809814e-05 -6.762409e-05
8.069663e-05 -1.8152173e-08 0.0 -5.5077257e-06 -4.1732015e-05 5.4947028e-05 -6.7865685e-08 0.0
-5.096512e-06 -7.2031344e-06 2.0276013e-05 -1.8152173e-08 0.0 1.5153806e-06 -4.3434557e-05 5.659286e-05
-1.1257091e-08 0.0 -5.3055044e-07 1.3647723e-05 -5.7378327e-07 7.329849e-08 7.762873e-11 7.5941416e-06
2.6973526e-05 -7.682396e-09 -5.6130975e-09 -1.3812773e-05 2.032504e-06 6.392024e-06 -3.341165e-07 7.329849e-08
-6.2095057e-29 3.6924478e-06 1.3328395e-05 -5.307764e-07 -4.190501e-08 -6.9758003e-06 4.4592234e-06 3.750779e-05
3.5386718e-05 -1.8588955e-06 -8.825285e-06 7.8187213e-07 3.8997e-05 2.8045959e-05 -1.8588943e-06 -2.5002819e-06
-6.5892897e-07 1.8982379e-05 5.2468626e-05 -2.9083116e-08 -9.631529e-06 1.8693765e-06 5.188388e-05 1.0093111e-05
-2.1480962e-07 0.0 -1.9878907e-08 -7.1028826e-06 6.8875415e-05 -2.8600066e-08 0.0 7.3551146e-06
0.0001030792 -4.110192e-05 -2.1480962e-07 0.0 7.2599744e-07 -2.0139628e-06 6.380065e-05 -4.268561e-08
0.0 1.0731151e-05 6.29646e-05 -1.057838e-06 -1.621163e-07 -4.7215426e-10 -5.1415486e-06 1.3218499e-06
5.3443427e-09 -1.6102061e-09 6.041896e-05 9.282484e-05 7.17523e-05 -1.2874992e-06 -1.621163e-07 2.0062114e-28
-3.1104403e-06 6.0606366e-05 -3.620288e-07 -2.2723171e-08 9.752355e-06 6.134916e-05 -2.8036686e-05 -1.1463042e-05
8.2720976e-07 1.0616809e-06 -3.602382e-06 -2.8067005e-05 -1.1931557e-05 8.2720834e-07 1.5244417e-06 -1.0734453e-06
-2.5017838e-05 -1.3611555e-05 1.38674e-08 1.0284715e-06 -6.1447968e-06 -3.6214256e-05 -1.4418757e-06 8.3807905e-08
0.0 -3.1285854e-06 1.2820183e-05 -5.037442e-05 1.3258308e-08 0.0 -7.665665e-06 -5.0520684e-05
1.2864155e-05 8.3807905e-08 0.0 -2.2551656e-06 9.0305775e-06 -4.6595353e-05 2.3782702e-08 0.0
-8.8174165e-06 -3.828298e-05 6.7706065e-07 6.396508e-08 6.685932e-10 1.1186579e-07 6.069488e-06 -8.029706e-09
-8.033209e-10 -4.360217e-05 -8.436694e-05 -4.6500158e-05 7.594094e-07 6.396508e-08 -3.1002648e-28 -1.0709493e-06
-4.676513e-05 2.6001575e-07 4.8618474e-09 1.3296562e-06 -3.6783364e-05 2.0374997e-05 4.999801e-05 4.166365e-07
-3.357247e-05 -2.1887527e-05 -3.933656e-05 7.8537625e-05 4.16637e-07 -2.4890778e-06 -1.2614228e-05 1.11091695e-05
5.571073e-05 -9.0861086e-08 -2.9569686e-05 -1.8443485e-05 -8.7393004e-05 0.00012472353 -1.491991e-07 0.0
-7.806908e-06 -7.971847e-05 0.000117080155 -9.3839105e-08 0.0 -3.3528465e-06 6.487791e-05 -2.7546483e-05
-1.491991e-07 0.0 2.2868069e-06 -7.732073e-05 0.00011462136 -3.2926458e-08 0.0 4.3243963e-06
3.866748e-05 -1.395269e-06 -3.3452288e-09 -4.6576676e-10 2.3732593e-06 1.9004712e-05 -4.3680917e-09 -9.297417e-09
1.8277706e-05 7.80946e-05 3.9652037e-05 -1.3447476e-06 -3.3452288e-09 2.1426137e-28 -6.2422134e-07 8.9723115e-05
-7.524595e-07 -7.078977e-08 -5.1511546e-05 1.9847546e-05 2.358153e-05 3.272965e-05 -3.835637e-06 1.6919588e-05
2.1755588e-05 0.000102860875 -2.58261e-05 -3.835632e-06 -3.014003e-06 8.745978e-06 4.5445504e-05 1.0058719e-05
1.370915e-08 1.3168726e-05 2.2856353e-05 0.00020824176 -0.00013923763 -3.826776e-07 0.0 9.498175e-06
3.6649122e-05 3.1868338e-05 1.632572e-08 0.0 1.781302e-05 0.0001704259 -0.000101421465 -3.826776e-07
0.0 -3.5630317e-06 4.719485e-05 2.1404438e-05 -6.531682e-08 0.0 1.6147073e-05 7.003335e-05

exp_avg_sq f4 [128, 55]
00000000: 5cc4 d131 773e bb33 86ca b131 c42b 5c30
00000010: f443 8431 b762 9332 967e a233 4d64 b431
00000020: 1638 1c30 5c69 7e31 34c9 cf31 1c27 bd33
00000030: c193 ae31 01fb 6530 0b81 8831 a083 1433
00000040: b240 7b33 19dc b331 0000 0000 ecdf 6831
00000050: 5130 0032 2686 be33 64ac a731 0000 0000
00000060: 0cf2 8131 d12e 2933 33c2 6033 2519 b331
00000070: 0000 0000 8a30 7231 0efd 2032 99e6 bf33
00000080: bcb5 7031 0000 0000 ac8f 9531 947a d333
00000090: 857a 1f30 66f0 992f d4ff b92f f188 0732
000000a0: 77a4 bb33 1448 3030 e1b3 a22f bde0 5a32
000000b0: b385 f932 5921 d433 5325 f82f 830f 872f
000000c0: 50ca 832e 45e4 bf31 858a c033 ca06 2730
000000d0: 9afe 812f d61d 3732 9e6a b932 1413 2033
000000e0: 7c06 1334 9b40 fd31 a6a7 0630 42c2 c731
000000f0: 298e d733 b135 9c33 bb64 0332 a4e9 f52f
00000100: 1779 aa31 81f2 7332 3251 2e34 dcba f831
00000110: ab50 1430 0e31 da31 cf57 1134 3d5d 3033
00000120: 652d fd31 0000 0000 26a8 8531 6fee 0232
00000130: d72f 3934 696a ed31 0000 0000 1e97 ea31
00000140: b341 1a34 b209 1233 39ef f331 0000 0000
00000150: 8a87 7031 a8d4 2a32 1de9 3834 c5df ab31
00000160: 0000 0000 99b6 0e32 0243 4a34 3f5b 0c30
00000170: f476 8e30 dc5c 8c2f c823 eb31 03e9 1734
00000180: 53ce 4930 5c9d 4130 59fb 3c33 bfe2 d333
00000190: 465e 4a34 ac1f 1a30 5117 8c30 f27a da2e
000001a0: ad58 a631 4cc9 0e34 97db 5030 f33f 0630
000001b0: 1bf1 5933 54e4 b133 c286 9733 7545 b533
000001c0: 5edb 8c31 a620 862f 3cea 9831 7a49 1534
000001d0: 73b9 9532 ed88 8431 f95b 962f e69b 6131
000001e0: b3c6 e832 58b2 0d34 a721 8a31 4cac 9e2f
000001f0: a71a b331 2d55 1f34 f01b 2432 fb4f 7a31
00000200: 0000 0000 8728 1931 9cc9 8632 5b9c 1c34
00000210: 32bb 7931 0000 0000 b5a3 c531 ecad 2234
00000220: 2016 fb31 b479 6631 0000 0000 aad2 f030
00000230: bcce 7532 c36f 1e34 26cd 1d31 0000 0000
00000240: 51ef f231 95bd 3034 0d36 172f bdad 752f
00000250: 2a0f 1c30 d44f 6031 c299 0734 c41b a330
00000260: a997 5030 1cc7 0c33 7c95 c733 09a3 3134
00000270: 2c7b 5c2f 0753 362f f27d b62f e91e 2231
00000280: 8098 ad33 ee08 8e30 24d3 0a30 8544 ac33
00000290: a491 e333 d8bf fc33 eb51 eb34 a85d 3232
000002a0: 2efa 0031 4908 9e32 69e7 9d34 d55c 8d34
000002b0: be66 3f32 931b 0831 2573 8b32 41dd 4533
000002c0: e6e1 0935 d644 3232 cb23 d530 4cfc a632
000002d0: 3564 cb34 4d5c 4234 e714 4732 0000 0000
000002e0: b2fc 6232 b09d 3733 613b 0e35 b012 2f32
000002f0: 0000 0000 7187 b232 f22b de34 6f2c 1a34
00000300: cf59 4432 0000 0000 e1b9 5632 f32e 6833
00000310: c2ef 0d35 fa43 a631 0000 0000 f570 d632
00000320: ac02 1b35 73d6 eb30 237f 8130 29a0 c130
00000330: 9fd5 d032 9a6d 0135 5f1d 4a31 5593 9830
00000340: ee70 cc33 f772 8b34 3554 1b35 bd66 e130
00000350: c26a 3830 bf65 3a30 e8d5 9632 dc5a d434
00000360: 90e3 1331 c485 2f30 4980 3f34 361d 8c34
00000370: b7da 8934 4704 4235 9518 0d33 66e3 1b31
00000380: d7c2 0633 d133 1835 d83b d334 3684 0a33
00000390: ecd8 fe30 1f02 e032 ff01 9033 4832 7835
000003a0: 934e 0733 1c71 1d31 d55c 1533 e9c8 4a35
000003b0: a96c 7734 1107 0833 0000 0000 1dc6 af32
000003c0: ec5d 1c33 c444 8135 ff2f 0333 0000 0000
000003d0: 2d6f 2133 f616 5935 3d66 3c34 42fe 0533
000003e0: 0000 0000 b94c 9e32 9725 5833 4471 8035
000003f0: 99e9 b832 0000 0000 cf53 4433 f526 8a35
6.105024e-09 8.7192284e-08 5.1744022e-09 8.009773e-10 3.849431e-09 1.7157943e-08 7.566739e-08 5.2500924e-09
5.683217e-10 3.7021755e-09 6.047367e-09 8.808112e-08 5.080864e-09 8.366641e-10 3.9727914e-09 3.4578648e-08
5.849933e-08 5.234608e-09 0.0 3.3887728e-09 7.4615665e-09 8.871966e-08 4.8799382e-09 0.0
3.7819117e-09 3.9390958e-08 5.2330687e-08 5.2124443e-09 0.0 3.5243226e-09 9.370764e-09 8.936076e-08
3.50279e-09 0.0 4.3528043e-09 9.84775e-08 5.8017974e-10 2.800135e-10 3.383308e-10 7.889171e-09
8.737782e-08 6.4130856e-10 2.959544e-10 1.274037e-08 2.9048215e-08 9.878085e-08 4.5137458e-10 2.456738e-10
5.993128e-11 5.584783e-09 8.965893e-08 6.0763894e-10 2.3645869e-10 1.0658786e-08 2.1585318e-08 3.7270254e-08
1.3692801e-07 7.370614e-09 4.898716e-10 5.813747e-09 1.00375765e-07 7.2740825e-08 7.648107e-09 4.4731252e-10
4.9614175e-09 1.4199601e-08 1.6234551e-07 7.2389934e-09 5.395672e-10 6.350212e-09 1.3536122e-07 4.1062993e-08
7.36843e-09 0.0 3.8899257e-09 7.621209e-09 1.7246872e-07 6.9097053e-09 0.0 6.8274764e-09
1.4366269e-07 3.4002092e-08 7.0994273e-09 0.0 3.5001642e-09 9.943655e-09 1.7221141e-07 5.0021947e-09
0.0 8.307006e-09 1.8837093e-07 5.106137e-10 1.0365668e-09 2.5531832e-10 6.843468e-09 1.414774e-07
7.341658e-10 7.043661e-10 4.400076e-08 9.866698e-08 1.8847012e-07 5.606988e-10 1.0192968e-09 9.935332e-11
4.841317e-09 1.3298012e-07 7.5982015e-10 4.8839793e-10 5.0743534e-08 8.2837374e-08 7.055998e-08 8.4411035e-08
4.0994754e-09 2.4397656e-10 4.4504116e-09 1.3903437e-07 1.7430215e-08 3.8572723e-09 2.7350192e-10 3.2830427e-09
2.7098713e-08 1.319653e-07 4.0201544e-09 2.8862457e-10 5.2126157e-09 1.4839016e-07 9.552409e-09 3.6425252e-09
0.0 2.2287467e-09 1.5691334e-08 1.4585514e-07 3.6340677e-09 0.0 5.752066e-09 1.5150698e-07
7.3075768e-09 3.3538585e-09 0.0 1.7522173e-09 1.4307883e-08 1.4755555e-07 2.296312e-09 0.0
7.070334e-09 1.6460247e-07 1.3752573e-10 2.2344344e-10 5.677402e-10 3.2641667e-09 1.2628792e-07 1.1867702e-09
7.588548e-10 3.277738e-08 9.293851e-08 1.6543721e-07 2.0052643e-10 1.6582301e-10 3.3195097e-10 2.3591673e-09
8.08368e-08 1.0334398e-09 5.0504156e-10 8.021838e-08 1.0597003e-07 1.17695606e-07 4.3831764e-07 1.0382259e-08
1.8768662e-09 1.8397389e-08 2.9411902e-07 2.633084e-07 1.1141024e-08 1.9806279e-09 1.6234091e-08 4.6068866e-08
5.13652e-07 1.0376615e-08 1.5507963e-09 1.9439675e-08 3.7884607e-07 1.8101237e-07 1.1588077e-08 0.0
1.3212388e-08 4.2751424e-08 5.298553e-07 1.019059e-08 0.0 2.0783519e-08 4.1382697e-07 1.4358532e-07
1.1429122e-08 0.0 1.2498703e-08 5.405941e-08 5.2875487e-07 4.838964e-09 0.0 2.4964246e-08
5.774589e-07 1.715945e-09 9.42212e-10 1.4088118e-09 2.431153e-08 4.8215736e-07 2.9411564e-09 1.110133e-09
9.520032e-08 2.5974416e-07 5.7864537e-07 1.6400105e-09 6.709052e-10 6.7810996e-10 1.7559572e-08 3.9554186e-07
2.152067e-09 6.385472e-10 1.7834931e-07 2.6098286e-07 2.5677375e-07 7.2276856e-07 3.2851478e-08 2.268473e-09
3.1376512e-08 5.6699815e-07 3.9345355e-07 3.2250874e-08 1.8542585e-09 2.6077997e-08 6.7058856e-08 9.246037e-07
3.15036e-08 2.2910802e-09 3.4776196e-08 7.5543227e-07 2.3043198e-07 3.1671394e-08 0.0 2.0462773e-08
3.6407002e-08 9.631262e-07 3.0544467e-08 0.0 3.7586847e-08 8.087221e-07 1.7546058e-07 3.119772e-08
0.0 1.842851e-08 5.0325607e-08 9.569708e-07 2.1526647e-08 0.0 4.571103e-08 1.0293139e-06

exp_avg f4 [128]
00000000: 76b6 c336 21b3 9238 9834 3db8 52d9 1c38
00000010: cfbd a838 0c4a 7638 c977 1e37 6e82 61b8
00000020: 00c1 b037 26c2 f5b7 c1a7 cab7 e127 35b6
00000030: 4451 c538 4200 9db7 38fe d4b6 9483 9438
00000040: 6f03 4437 d1fd b637 52b6 57b8 c870 84b8
00000050: 938c 54b7 6928 2b38 5284 4ab7 822d 6ab7
00000060: 6dc9 f0b7 c872 9636 f467 63b7 09f3 3cb8
00000070: bf9f f637 7b11 8db7 31c0 b236 385a a2b8
00000080: 5b09 b3b7 1d5f 83b8 e682 07b7 9854 26b6
00000090: ffb9 07b6 aadf ecb6 1ffd c138 53ca f138
000000a0: 3650 a5b8 eaa3 e0b7 17a6 8e38 265e 0338
000000b0: 2166 6e38 d543 d337 4733 bb36 a3f0 6bb7
000000c0: ff55 55b8 bf3c 8138 7ac9 c7b6 55a6 0937
000000d0: f823 b638 72eb 61b7 5ffa 2738 6907 cab7
000000e0: 6b77 e4b8 586f adb7 59b0 8c37 16d1 db38
000000f0: 70f5 abb6 63a9 8bb8 1990 12b8 9493 9cb7
00000100: 9fd9 8d38 7296 d4b6 c556 bf37 93bf 1c37
00000110: 9e0f 05b8 9648 66b6 18a4 c534 615b ba37
00000120: 7556 4838 6d7b be37 67b5 8b37 15c0 1ab7
00000130: 39c9 be38 bcc9 c4b7 f68c c237 01d2 de36
00000140: e664 4638 242f 42b7 9c5a 0cb7 9936 5d37
00000150: f996 a337 8068 9938 931f 0db8 ab43 6138
00000160: 9cdf cc37 9d2c 8b38 d97e 6eb8 1a6b d438
00000170: 33dc 9ab6 a75a 6cb8 e3e7 b936 4231 9036
00000180: 4c8b 03b7 de93 4537 2de0 09b8 025b 69b7
00000190: ef2c 2838 446b bfb7 18b2 5038 770d 0d35
000001a0: 2e8e e4b6 32d3 8eb6 ae6f a9b8 f0d5 4936
000001b0: f685 dc37 fb26 9bb7 cc1b ad38 f9dd 7bb7
000001c0: 01de e337 ff09 d9b6 9d43 3c38 badd 2fb8
000001d0: 76cb cf37 2e90 0cb8 c8ad cc38 4c26 d036
000001e0: 7bb4 5d38 c416 0bb7 3712 9bb7 2194 5ab8
000001f0: 3ac1 8a38 4b5b b8b6 feee 1037 3816 3fb8
5.832694e-06 6.995188e-05 -4.5110093e-05 3.7395694e-05 8.046219e-05 5.8719932e-05 9.4454235e-06 -5.3765652e-05
2.1070708e-05 -2.9296683e-05 -2.4158393e-05 -2.6994314e-06 9.408829e-05 -1.8715979e-05 -6.3476873e-06 7.081698e-05
1.168331e-05 2.1814283e-05 -5.1429794e-05 -6.3152576e-05 -1.2668915e-05 4.0807212e-05 -1.20709465e-05 -1.39580825e-05
-2.8704026e-05 4.4837107e-06 -1.3554458e-05 -4.5049037e-05 2.9399873e-05 -1.681665e-05 5.3271874e-06 -7.7415665e-05
-2.134282e-05 -6.264283e-05 -8.077104e-06 -2.4785168e-06 -2.0224832e-06 -7.059386e-06 9.2501046e-05 0.00011529461
-7.8827536e-05 -2.677921e-05 6.802024e-05 3.1320516e-05 5.6838737e-05 2.5184747e-05 5.5790038e-06 -1.4063119e-05
-5.0863247e-05 6.162514e-05 -5.954117e-06 8.2045635e-06 8.685136e-05 -1.3465864e-05 4.004908e-05 -2.4083727e-05
-0.000108941305 -2.0675056e-05 1.6771419e-05 0.00010481679 -5.12477e-06 -6.659587e-05 -3.4943314e-05 -1.866537e-05
6.763939e-05 -6.3356065e-06 2.280938e-05 9.342929e-06 -3.1724216e-05 -3.4314921e-06 3.6813503e-07 2.221548e-05
4.7764235e-05 2.270724e-05 1.6654563e-05 -9.223838e-06 9.097387e-05 -2.345896e-05 2.3192242e-05 6.6405632e-06
4.7300848e-05 -1.1574277e-05 -8.365747e-06 1.31853385e-05 1.9501416e-05 7.315073e-05 -3.3646425e-05 5.37072e-05
2.4422821e-05 6.6363464e-05 -5.6861758e-05 0.00010128897 -4.615192e-06 -5.635121e-05 5.540425e-06 4.297269e-06
-7.840641e-06 1.1776543e-05 -3.2872125e-05 -1.3909072e-05 4.009617e-05 -2.2818924e-05 4.9756927e-05 5.2546187e-07
-6.8114814e-06 -4.256516e-06 -8.07935e-05 3.0075862e-06 2.6288424e-05 -1.8495592e-05 8.2544604e-05 -1.5012448e-05
2.7163887e-05 -6.4682677e-06 4.4885663e-05 -4.192975e-05 2.4771067e-05 -3.351288e-05 9.759847e-05 6.2033414e-06
5.285859e-05 -8.290346e-06 -1.8485922e-05 -5.2113206e-05 6.616344e-05 -5.494255e-06 8.638714e-06 -4.555864e-05
