results/TestAddestramento22NovembreRidotto3/MoveToGoal/MoveToGoal-2499951.pt (torch, 590407 bytes, 33 tensors)

network_body._body_endoder.seq_layers.0.weight f4 [128, 55]
00000000: 5d90 863d a54e 8b3d dc18 783e 932e 853e
00000010: bede 593e e099 4cbe 6a22 423e fbbe 4b3e
00000020: d822 1f3d ec1f bbbd 9b5f 613e c140 16be
00000030: 97fc 243d 40a5 4abd 8ba5 123e 0839 363d
00000040: 9292 273e 1863 b03d a3b2 63be 28d5 6d3e
00000050: 5d42 103e a34b 4c3c ab22 a1bd 6433 e73d
00000060: 8ed2 0bbe d674 093d d7bb 863e 2c36 663d
00000070: 4025 2abe 144b 10be fc6c 123e caa2 133d
00000080: 1a25 52bc 0155 ee3d fb91 b7bd d283 cdbd
00000090: ddb5 483e e566 fa3b 51f4 b33d 2906 2f3d
000000a0: c97a 7d3c 98a0 cfbd 65c6 273d d4d2 9f3d
000000b0: b303 1ebc 705f 5dbe a9dc 053d 894b 363d
000000c0: 40e1 d5bd f6a1 783c 0c28 f93d ba8c 933c
000000d0: 69fe 18bd e0ae ed3d 5fe9 6dbe 4f4b 85bc
000000e0: e132 edbc e95b 26be 2ace b2bd cdd5 163e
000000f0: d5fc eb3d e455 bb3d 163a 49bd 3c58 a03c
00000100: 28ba 133e 9c35 0abe 1cab e83d 5e95 abbe
00000110: d7dd 783d 92de b43e 9cde 773e c2f4 36be
00000120: 11fa 28bd dc4b 5fbd 38f4 c8bc 66b5 41be
00000130: f2dd 3b3e a8f1 d83d 7211 653e 7df0 293e
00000140: 7037 a3bd 8af1 9ebe 3d93 7d3c 7e43 d9bc
00000150: 84b2 c73d 69f2 c7be 0540 05bd a9bb 5d3b
00000160: 9fc4 ddbd a413 c23d 423b ca3d d97e 5bbe
00000170: 3ed5 93bc e9d0 113e 6d7d 6abe 5258 f93c
00000180: c8f4 9abd b7ea ea3d eea4 02bd d63d ef3d
00000190: 7edf 753e 2f55 193d 88f7 ca3d 2e22 e0bc
000001a0: 110e 56be 4bff 933d 360f c33b 37e1 dcba
000001b0: c99e 123c 2911 f838 1435 bcba 9e98 223e
000001c0: ba1a a13e 456f a03c a7b1 713d 1173 653e
000001d0: 3d0c 833c 6f3a 07be 50fe 1d3e 0ed4 4c3e
000001e0: 4f4b 123c 2f93 3bbe cfa6 023d 4363 ce3a
000001f0: 640e 9b3d 6e17 9bbb 4060 9a3d 7d43 1ebd
00000200: 9b6c 603e d057 633d c6bd ac3e 196b 463e
00000210: 1f9d e6bc e973 89bd d927 cc3d 7a28 873d
00000220: 472f 1dbe 8f8c 5a3c 231e 9fbd 9ed8 633c
00000230: 08ec 45bb 53e3 9f3e 24e9 febd 3cf4 f5bd
00000240: c222 99bd b08b 47be 425d 823c 8e5d 143e
00000250: e8ff 473e ba7e 97bb 41e0 423d f4b5 e53d
00000260: c0fc 37be 165b 13bc 7d65 263e f4df 013e
00000270: d310 5cbe dee2 83ba d306 ab3c 00b6 8ebe
00000280: 30cb ca3d ba4e 423e 9c71 3b3e e126 10bd
00000290: 323d 7b3e 24a6 96bd 36f4 c23d fb08 8b3d
000002a0: 9164 b43d 0514 083e 3d09 91be 0e63 273e
000002b0: 2ed7 9f3c ae72 b6be 7adf cabd 9534 0b3e
000002c0: 8e93 9bbb ac40 8e3b b0c5 95bd 5a43 363e
000002d0: d6f9 163e dd30 9e3c ac70 e0bd cac9 123e
000002e0: 4fe4 88bd 7c51 c93d 9aa7 b2bd ab49 8dbd
000002f0: 9428 923d e8a0 ce3d d086 39be 8650 123e
00000300: 81e0 afbb dd0b 023e 6ab0 80be 63ed abbd
00000310: ca79 01be 87d6 d53c 76bd 85bd 8ddd bc3d
00000320: da50 c13d 6857 14be ab62 49be dbe8 953e
00000330: 21ce 633c d515 643d 7273 8fbd 5500 cc3d
00000340: a82e a9bd 93fb 6bbe 4dde ec3d dced ee3d
00000350: ac5a 88bc a108 1a3e 7d08 093e 003e 683e
00000360: 9ef5 e53c 9a21 833d 228e f6bd e19c 913d
00000370: 8ee7 203d 5255 2cbe dd87 9ebd 2447 793d
00000380: 5045 53be 0664 bf3e 855c 6c3c 01e2 af3b
00000390: 6964 f93d 94d8 8c3d b3f6 d33d 9606 673e
000003a0: 9a3b 8dbc ddbd 68be e5aa 82bd 06b2 9f3c
000003b0: a0dc 0abe 4f5a a73c 99fc 253e 3dad 813e
000003c0: 2df8 3abd a96c 2fbd 6b8c 8ebc 7952 2ebd
000003d0: 2f19 81bd 1c6f 153e 673c 99bd ab4a 843c
000003e0: 8652 893d eb83 c0bc 840d 6f3a 05a5 7bbd
000003f0: 5cc2 42be 5b8c 153d c805 0f3d 738d 9e3c
0.06570504 0.0680211 0.24228233 0.26012096 0.21276376 -0.19980574 0.1895844 0.19897072
0.03885159 -0.09136948 0.22009127 -0.14673139 0.04027995 -0.049474 0.14320962 0.044487983
0.16364506 0.08612651 -0.22236113 0.23225844 0.14087816 0.012469205 -0.078679405 0.11289099
-0.13654539 0.03355869 0.26315185 0.056204006 -0.16615772 -0.1409114 0.14299387 0.03604392
-0.0128262285 0.11637307 -0.089633904 -0.10034908 0.19600625 0.0076416605 0.08786834 0.042730484
0.015471169 -0.10138053 0.04096069 0.07803884 -0.009644437 -0.21618438 0.03268114 0.04450563
-0.10443354 0.015175333 0.121658415 0.01801144 -0.037352 0.116056204 -0.23233555 -0.016271261
-0.028954925 -0.16245998 -0.08730729 0.14729996 0.11522833 0.09147242 -0.04912766 0.019573323
0.14426482 -0.13497013 0.113607615 -0.33512396 0.060758438 0.35326058 0.24206012 -0.17866805
-0.041254107 -0.054515705 -0.024530515 -0.18916854 0.18346384 0.10592967 0.22369936 0.16595645
-0.07969558 -0.31043655 0.015476999 -0.02652144 0.09750846 -0.39052132 -0.032531757 0.0033833778
-0.10828518 0.094764024 0.09874584 -0.21435107 -0.018046018 0.14239849 -0.22899409 0.030437622
-0.075662196 0.114705496 -0.03189557 0.11681716 0.24011037 0.037434753 0.09910494 -0.027360048
-0.20903803 0.07226428 0.005952741 -0.0016851787 0.00894899 0.00011828758 -0.001435908 0.15878531
0.31465703 0.019584307 0.059007313 0.22407176 0.015997047 -0.13205884 0.15429044 0.20002767
0.008929088 -0.18317865 0.031897362 0.0015746135 0.07571104 -0.0047330176 0.075378895 -0.03863858
0.2191643 0.055503666 0.33738536 0.19376792 -0.028151093 -0.06711561 0.09968538 0.06599517
-0.15350066 0.013339176 -0.0776942 0.013906626 -0.00302005 0.31228122 -0.12446812 -0.12009475
-0.07477333 -0.1948688 0.01591361 0.14488813 0.19531214 -0.0046232613 0.047577146 0.112163454
-0.1796751 -0.008993885 0.16249652 0.12683088 -0.21490793 -0.0010062119 0.020877277 -0.2787323
0.09902036 0.18975344 0.18305057 -0.035193328 0.24535063 -0.073559076 0.09519236 0.06788822
0.08808244 0.13288887 -0.2832736 0.1634638 0.019511785 -0.3563437 -0.09905906 0.13594277
-0.0047478145 0.0043412056 -0.073130965 0.1779913 0.14743742 0.01931041 -0.109589905 0.14334789
-0.066841714 0.09829995 -0.08723374 -0.06898817 0.07136646 0.10089284 -0.18117833 0.1428853
-0.005367339 0.12699838 -0.25134593 -0.08394887 -0.12644115 0.026103271 -0.065302774 0.09221945
0.09439249 -0.14486468 -0.19666545 0.29279217 0.013904125 0.055684883 -0.07004441 0.09961001
-0.08260852 -0.23045187 0.11565838 0.11666462 -0.016644798 0.15042354 0.13382144 0.22679901
0.028071221 0.06402893 -0.120388284 0.071100004 0.039283328 -0.16829422 -0.077407576 0.06085886
-0.2063191 0.37381 0.014426355 0.005367518 0.12177355 0.068772465 0.103497885 0.22561106
-0.017240334 -0.22728677 -0.06380252 0.019494068 -0.13560724 0.020428805 0.1620964 0.25327483
-0.045646835 -0.042828236 -0.01740094 -0.04255912 -0.063036315 0.14593166 -0.07482224 0.016148886
0.06705193 -0.023500403 0.00091191404 -0.06143667 -0.19019455 0.036510807 0.034917623 0.019354558

network_body._body_endoder.seq_layers.0.bias f4 [128]
00000000: 6fa7 573d d6c7 80bb 0b3c 593c 3c82 753d
00000010: e9df 84bc c115 603d 239c 403d bf96 f3bd
00000020: 9c31 ba3d 263c 3fbd 31e3 893d cb14 773d
00000030: db75 a3bc 58be b9bc ff33 e5bc 8d2b 1dbd
00000040: e883 933d 7971 f13c cbdf 723d b82d 6bbd
00000050: 52fc 1bbd cbc0 ba3d 18e8 2ebd 6a32 bfbd
00000060: 40ce 02be 7bf8 60bd 05ae 48bd 0c18 ac3d
00000070: 5832 58bc 56c5 c33b d4d4 443d 3b2d 4c3d
00000080: 1efa a33d 3024 db3c c1c8 913d 69ae 833a
00000090: a2dc 11bd b9f3 ecbd 9d70 873d 0d95 ad3d
000000a0: dac9 a9bd 48b6 063c 9174 7cbc 4926 b2bd
000000b0: 304b aa3d 947c 9cbd 6db0 9c3d 3443 383d
000000c0: c6c5 cfbd ab82 97bd 668f 903d b339 df3d
000000d0: d1fa 2e3d 997e 803d 8427 493d 612b 593d
000000e0: 378e 903d 53c5 8fbd f927 9b3b cfb6 2fbd
000000f0: 4f5d 853d 5dff 243d 5eb4 51bd 2d03 1a3d
00000100: 1721 f4bc dcd9 bf3d bee9 e6bc 8b17 833d
00000110: 6347 74bd d4b4 12bd 06b7 6a3d 7e49 86bd
00000120: 05c1 77bc 17f7 c63c cdcc 8fbd b346 11bd
00000130: c159 b43d f0a5 24ba 473d 8dbd 283c d4bd
00000140: 5785 483d 92c4 903d fa0c 903d adbe 953d
00000150: 643a c43c 0dd3 873d 42e6 82bd 6dc6 6bbd
00000160: 3f23 d13d 42e5 88bd 5713 ac3d 0b67 80bb
00000170: 8255 86bc c739 873c 45cf a03d 759f 4b3d
00000180: 7335 7fbc 0394 2e3d 901c fc3c ee9c 6fbd
00000190: a14b 6a3d c7f8 86bc c0f3 6bbd 23fb 953d
000001a0: b8f2 ee3c d20e 04bd fdb5 ab3d 4098 2f3d
000001b0: 6032 37bd c4b8 cfbb 5f0d 92bd a366 923d
000001c0: 6255 57bc f5a7 a2bc 285c b03c 7268 55bc
000001d0: 0ee2 8f3d 49ac eebc 19e9 133d 5405 aa3d
000001e0: a874 0d3d a997 983d 400b 4bbd 14da a93d
000001f0: ebd8 c43d 9401 533d 7362 9f3d d6f6 b63d
0.05264991 -0.0039300723 0.013258944 0.059938654 -0.01622005 0.054708246 0.047023904 -0.11893987
0.090914935 -0.04668822 0.067327864 0.060322564 -0.019953659 -0.02267377 -0.027978895 -0.03837161
0.072028935 0.029473053 0.059295457 -0.057416648 -0.03808243 0.091188036 -0.04270181 -0.093357876
-0.1277399 -0.05492447 -0.048994083 0.08403024 -0.013195597 0.005974452 0.04805453 0.049847823
0.080066904 0.026750654 0.07118369 0.0010046485 -0.035610802 -0.11569924 0.06613276 0.08475695
-0.08290453 0.00822217 -0.015408651 -0.086987086 0.08315122 -0.07640949 0.07650838 0.044985965
-0.10145144 -0.0739797 0.07058601 0.10899677 0.042719666 0.062741466 0.04910995 0.053019885
0.07058375 -0.070200585 0.0047349897 -0.04289895 0.06511938 0.040282596 -0.051197402 0.037600685
-0.029800935 0.09367725 -0.028187629 0.06400975 -0.059638392 -0.035816982 0.05730345 -0.06556986
-0.015121703 0.024287743 -0.070214845 -0.035467815 0.08806182 -0.000628083 -0.06896453 -0.103630364
0.048955288 0.07068743 0.07033725 0.07311759 0.023953624 0.066320516 -0.063915744 -0.05756228
0.10211801 -0.066843525 0.08402126 -0.0039185337 -0.016398195 0.016507043 0.078520335 0.049712617
-0.015576708 0.042621624 0.030775338 -0.05849927 0.05720103 -0.016476048 -0.057605505 0.07323291
0.029168472 -0.032240696 0.08384321 0.042869806 -0.044725776 -0.0063391645 -0.071314566 0.07148483
-0.013142915 -0.019855479 0.021528319 -0.01302539 0.070255384 -0.029134886 0.03611097 0.083017975
0.03453508 0.07450802 -0.049571276 0.08293548 0.09611686 0.051515177 0.077824496 0.08933799

network_body._body_endoder.seq_layers.2.weight f4 [128, 128]
00000000: 3974 90bd e9ec 9e3d c8f8 1a3e e9b6 fb3d
00000010: bd80 813d 9365 bebc 11a6 26be f2c5 0ebd
00000020: 0006 803d 7bd5 01be 1bd5 adbd 4ad7 eabd
00000030: bb57 003d ca57 b53d 28cf 1d3d 96a3 5d3d
00000040: c495 8ebc 454a 76bb 34d5 93bd 9b77 453e
00000050: 5390 46be 80f7 d73d c18c b63d 1756 21bd
00000060: a8a3 97bd 8771 5ebd be40 0f3d 11d3 15be
00000070: bebd 203e 3a4c 4ebd 1f83 3a3d f907 0fbe
00000080: 4d13 60be 86d0 a73d b9ae 113e 3e51 393e
00000090: 3f67 f03d 3e42 a2bd cf83 963b 3a19 b53d
000000a0: f3fc 2cbd 757c 03be ece1 d83d 4f68 043d
000000b0: 83aa 4abc abd5 1abc 91cc 343d 6782 043e
000000c0: 4574 b03b ed6e 013e 50f7 9dbd c9c1 6abd
000000d0: ce08 313e db6d abbd af28 bdbd e76c 85bd
000000e0: fa5b 773d 0da2 bdbb 8f34 c73d e086 d7bd
000000f0: ad7c 2dbd 3342 09be 20e5 b33d ef36 1f3d
00000100: 44b4 6abd 2383 60bd fb44 10be f94f da3c
00000110: 2fd9 953d 4592 96bc 5a97 3f3e 8b08 1dbe
00000120: 86c6 85be d20c 0b3d 59d7 003d 6ff5 a53d
00000130: fe93 883c bcb2 df3d f9d2 06be cd5d 0b3e
00000140: 0506 8fbe 616f a33d 8e99 0abd 00f6 243e
00000150: dcbd 103e 3635 f8bd 6742 f83d 7008 593d
00000160: b0a7 8dbd 2a3a 0b3e 9886 993d 0779 a53d
00000170: 899d 05bd b39c 7e3c 0898 4c3d bda8 89be
00000180: b9f1 78bd 367f 473e dffe 653d 7235 e13d
00000190: a694 cf3d 720f e83d 6462 e03d f3c6 febc
000001a0: f55c 28be 808b af3d f528 e0bd d179 71bb
000001b0: 2ae0 1cbc eaeb 203c c63e a6bc 4a7f 14bd
000001c0: e52a debc d297 793e 2bc9 e5bd 4d7c 28be
000001d0: 6db8 003e 407a 3e3b 1b52 c03d ecfc d53d
000001e0: e16c 8f3d aad7 933c c896 163d 2b8c a23c
000001f0: 0a81 91be 9f84 843d c46c 883d 7d37 e6bd
00000200: 2c08 75be 091d 3c3e 027e 993e 85f3 8bbe
00000210: e238 143d 62b1 a0bd 885e ccbd 3c80 743d
00000220: 7225 ca3b fd2a 953d fbbc 02be 7ca5 653d
00000230: 950e 1c3e fd2d e13d 4635 943d 6e11 7f3d
00000240: 1c00 c3bd 5b06 153d 44dc 09bd 4fa0 62bc
00000250: 900e f4bd f0ce 1a3d d9e3 a8bb 38f6 963b
00000260: c6c5 883c ab59 a4bc 9c58 833d 48c8 6b3a
00000270: 89a9 123e 1b24 ed3d b888 97bd 161b 82bd
00000280: 2ba1 5bbd de89 85bd 176c 693e 1f7f 5d3e
00000290: cc5d 1d3a 3eeb 373c e022 d53c 9513 0dbd
000002a0: 3fa8 cfbd 9b99 5fbc 9f03 17bd 7b24 19bc
000002b0: 40bc 913d 94a3 3f3d 6814 1e3c 9e2c d53d
000002c0: c513 503e af2f 1fbe 2074 a83d 2844 05bc
000002d0: cf3f dfbb c281 bb3d 2bc1 e9bd 9ad0 193e
000002e0: 9c58 713c 3cfd dc3c 123a 0dbc e96f 97bd
000002f0: 3032 8abd 7822 07bc 552e ff3c 3fd4 a13c
00000300: 4d93 c6bd 46d4 2ebe 0486 e0bd f36f eebb
00000310: 93ea f33d 5cd0 4ebc cb67 973d df9b 6abd
00000320: d11d 9fbd 3d80 3abc 9740 083d 1024 d33d
00000330: 69a9 6abd 6890 ba3c c720 ab3d 2829 d03d
00000340: 443f 3ebe 1607 b73d ec17 73bd 619b 093c
00000350: 20b3 ac3d 46a0 6cbe 7372 f33b 6195 903e
00000360: 9f00 26be 3f94 d53d 0d06 993d be03 0d3d
00000370: b650 71bc 4253 e33c 7059 b5bd 77ba 5abe
00000380: 2686 b0bc 54db 2f3e 30a4 a33d e348 86bd
00000390: 510c 8c3d 7602 ecbb 966a 423b 4968 1e3d
000003a0: 05d9 10be 9e1d 443d ab9d b43c 17e8 eabb
000003b0: 890c 4cbd 5f4f 1f3d acc6 33bb 4610 57bd
000003c0: 056d 04bd c27e 193d 6a20 23bd aa4a 353c
000003d0: fd1d 0ebd b55e 893e ec30 bdbd 0848 be3d
000003e0: c417 1a3d 37a5 373e a3f8 8e3d daed 16be
000003f0: 180d fe3d 0f11 263d 2e5f 38bd 0947 0c3e
-0.07053418 0.07760031 0.15133965 0.12290747 0.06323383 -0.023241794 -0.16274287 -0.034856744
0.062511444 -0.12679093 -0.08487912 -0.114668444 0.031333666 0.08854635 0.038527638 0.054111086
-0.017405398 -0.003758089 -0.072184 0.19283907 -0.19390993 0.10545254 0.089135654 -0.039388742
-0.07404262 -0.054307487 0.034973852 -0.14631297 0.15697381 -0.050365664 0.045535203 -0.13967885
-0.21882363 0.081940696 0.14226808 0.18097398 0.11738443 -0.07922791 0.0045933495 0.08842702
-0.04223342 -0.12840445 0.10589966 0.03232604 -0.012369755 -0.0094503565 0.044140402 0.1294037
0.005384954 0.12639971 -0.07713187 -0.057313714 0.17288515 -0.08370563 -0.092362754 -0.06514912
0.06039045 -0.00578714 0.09726822 -0.10523772 -0.04235523 -0.13404159 0.087839365 0.038870748
-0.05730082 -0.05481256 -0.14088814 0.026649462 0.07316815 -0.018380294 0.1871008 -0.1533529
-0.26128024 0.033947773 0.03145537 0.08103453 0.01667213 0.10922763 -0.13166417 0.13610001
-0.2793428 0.07980228 -0.033837847 0.16109467 0.14134926 -0.12119524 0.1212204 0.052986562
-0.069167495 0.13596407 0.07496375 0.08079725 -0.03262094 0.01554029 0.049949676 -0.2688655
-0.0607774 0.19482121 0.056151267 0.10996522 0.10135774 0.11331071 0.109562665 -0.031100726
-0.1644171 0.085715294 -0.10945312 -0.003684629 -0.009574929 0.009821871 -0.020293605 -0.036254205
-0.027120063 0.24374321 -0.1122001 -0.16453667 0.12570353 0.0029064566 0.093906604 0.10448632
0.07003189 0.018047173 0.03676489 0.019842228 -0.28418761 0.06470608 0.066613704 -0.11241052
-0.23928899 0.18370451 0.2997895 -0.27334228 0.03618706 -0.07846333 -0.09978968 0.059692606
0.0061690146 0.0728359 -0.12767403 0.05606602 0.15239938 0.109951 0.072367236 0.06227248
-0.09521505 0.036383014 -0.033657327 -0.013832166 -0.1191684 0.037795007 -0.0051541147 0.0046069883
0.016695868 -0.020062288 0.06413385 0.0008994383 0.14322485 0.11579152 -0.07399124 -0.063528225
-0.0536205 -0.06520437 0.22795139 0.21630524 0.00060030515 0.01122552 0.026017606 -0.034442503
-0.10139512 -0.013647462 -0.036868688 -0.0093470765 0.07115984 0.04678686 0.00964842 0.10408901
0.20320041 -0.15545534 0.08225274 -0.0081339255 -0.0068130265 0.09155609 -0.11413797 0.15020981
0.014730599 0.02697622 -0.008619802 -0.07394392 -0.06747854 -0.008247964 0.031150023 0.019754527
-0.09696064 -0.17073163 -0.109630615 -0.007276529 0.11909976 -0.012622919 0.07392844 -0.057277557
-0.07769359 -0.011383113 0.033264723 0.10309613 -0.05729047 0.022773936 0.08355861 0.101641
-0.18578821 0.089368984 -0.059348986 0.008398862 0.08432603 -0.23108014 0.007429415 0.28238967
-0.16211174 0.10428666 0.07471857 0.034427397 -0.014728716 0.027749661 -0.088549495 -0.21360193
-0.021548342 0.17173511 0.07990301 -0.06556871 0.06838287 -0.007202442 0.002966558 0.038673673
-0.14145286 0.047879808 0.022047838 -0.0071687805 -0.049816642 0.038894054 -0.002743165 -0.052505754
-0.03233053 0.0374744 -0.039825834 0.011065165 -0.034696568 0.26830068 -0.09237847 0.092910826
0.03762032 0.17934118 0.069810174 -0.1473917 0.12404841 0.040543612 -0.045012645 0.13698973

network_body._body_endoder.seq_layers.2.bias f4 [128]
00000000: e23a 24bc b47d a3bc a0f9 703d 3f20 6a3d
00000010: 2f6a 973d 362e aabc 6ba4 b7bc 4cdf c13c
00000020: 03ae 7c3d d81e 02bd baca ddbc 84b4 49bd
00000030: d1c3 0abd 845a b13d 3c5c 153c 9858 95bd
00000040: 0a98 6fbd d549 b9bc 45d9 a03d 9610 733d
00000050: 026d 813d 775d 943d db41 2d3d 39d2 133d
00000060: 6ca9 713d 3d4c 903d df28 853d d166 723c
00000070: c3ea b63d c94e a33d ba76 10bd bd9b 823d
00000080: 866f 80bc d01b 7c3d 4cec 1d3d 3bfa b7ba
00000090: d7b3 ae3d 0294 03bd 16fc 913d 8ee4 90bd
000000a0: b11e 0dbd 65a9 893d fdc9 0a3d 5bd5 92bc
000000b0: 90f9 833d af1a 713d cb7e b5bd f348 543c
000000c0: 0640 603d 0650 e2bc 65db 00bc a4dd 813d
000000d0: 9d33 0abd 04c1 813d a363 14bd d21a 6c3d
000000e0: 0f61 e0bb dc42 7dbd f0c4 823d 1b40 813c
000000f0: 672c eb3c 9b6c b7bb c4a6 5e3d 519e 4bbd
00000100: 041d 933d 255d 913d 9b1a a73d 75b5 863d
00000110: 470c 74bd 3fb8 933d 1945 433d cde8 673d
00000120: c1fd 1b3d 19d0 37bd 6ab7 b83d 7127 5b3d
00000130: 1df8 973d d41b 8b3d 90db 953d 4dec 923d
00000140: 741a 973d 303a dfbc df58 483d 77b6 e1bc
00000150: 47a3 673d c3b6 9fbd 62b7 0d3c 4a20 083d
00000160: c5cf 6b3d 331b 51bd 18e4 3bbd 8c37 963d
00000170: 4b4a 39bd 4efc 86bc d2a9 9f3d 30a2 633d
00000180: d1f7 973d 2629 9e3d c53a 8c3d 05ca 053d
00000190: 5a29 69bd b86d 963d c470 873d 5a0c 0cbc
000001a0: 0693 823d 2168 53bd 492b 5bbd a37b 0dbd
000001b0: b77b 783d 98b8 7f3d 2a30 0d3c a50a 853d
000001c0: 9968 cebc edc6 7a3d 35e5 17bd 683b f13c
000001d0: 705a b6bd 5a0b 44bd a3f3 c73b 059a 8c3d
000001e0: 9d5f 233d 5cac 8b3d c746 1d3d 39dc a03d
000001f0: d32e 883d d522 a03d 7d33 8a3d f3e1 723d
-0.010023804 -0.0199574 0.05883181 0.05715966 0.073933 -0.020773988 -0.022417268 0.023666047
0.061689388 -0.031767696 -0.027074207 -0.04924442 -0.03387815 0.086598426 0.009116229 -0.072922885
-0.058494605 -0.022618214 0.07853941 0.05934199 0.0631962 0.072443895 0.042299133 0.036089156
0.058999464 0.07045791 0.06501936 0.014795021 0.08931496 0.079740115 -0.035269476 0.06377361
-0.015678179 0.06154996 0.03855543 -0.0014036366 0.085303955 -0.032123573 0.0712816 -0.07074843
-0.034453098 0.067217626 0.033884037 -0.017924001 0.06444085 0.058863338 -0.088620745 0.012956846
0.054748558 -0.027626049 -0.007864808 0.06341103 -0.03374063 0.06335643 -0.036227833 0.057642765
-0.006847508 -0.06183134 0.06385219 0.015777638 0.028707696 -0.0055976636 0.05435826 -0.04971153
0.07183269 0.07097844 0.081593715 0.06577579 -0.05958202 0.072128765 0.04767332 0.0566185
0.038083795 -0.04487619 0.090193585 0.05350441 0.07420371 0.06792417 0.07317269 0.07173977
0.073780924 -0.027249426 0.04891288 -0.027552826 0.056552198 -0.07798531 0.008649679 0.03323392
0.05757119 -0.05105133 -0.045871824 0.073348135 -0.045236867 -0.01647773 0.077960625 0.055574596
0.07420314 0.07722692 0.06847147 0.032663364 -0.0569242 0.07345146 0.06613305 -0.008547867
0.06375699 -0.051612977 -0.053508077 -0.034541737 0.06066486 0.0624319 0.00861744 0.06496171
-0.02519636 0.061224867 -0.037083823 0.029447272 -0.08903968 -0.04786239 0.006102042 0.068653144
0.039886106 0.06819984 0.038397577 0.07854504 0.06649556 0.07819144 0.06748102 0.059297513

action_model._discrete_distribution.branches.0.weight f4 [3, 128]
00000000: a635 2fbd 491a 6cbd d57b c03c df1e 8b3c
00000010: 9609 063d 458a 88bd 885c b4bd 0af0 8abc
00000020: f1bc 713d 160b c7bd 848d b4bc 83c8 55bd
00000030: af7b 9dbd 5413 4a3d 253b 60bc c6d3 5fbd
00000040: ab3f a2bd 765f 80bd f3cb 773d 66b4 2f3d
00000050: 4a40 fd3c 1daf 483d adce d73b e003 07bc
00000060: 7344 643d 21f7 d73c eb1d 2d3d 0405 9ebc
00000070: c0cc 683d 036f 853d 6e95 06bd 65e9 983d
00000080: 7057 74bd d485 d63a 85d9 d93b 9eaa c9bc
00000090: ad35 153d 6efb 1abd 86e2 a33d c3f2 a4bd
000000a0: e3b8 77bd c3cc 6a3d a6d1 1f3c 98c5 babd
000000b0: 4cbf 923d e0f8 033d dbaa 4fbd bc75 efbb
000000c0: 3f56 6a3d 1b13 41bd 902e f1bc a7c9 f53b
000000d0: 1523 8cbd 1a2c 4e3d 965d 99bd a984 223d
000000e0: 7480 13bd b762 a7bd 69c3 993d b5fd 82bc
000000f0: 80c7 643b 6ee8 13bd 4c82 0c3c 3dd5 9fbd
00000100: 1590 923d da64 053d baca 783d 242d 473d
00000110: 71a4 95bd cbd2 a03c 4b88 023d cd95 633c
00000120: 0df6 c43b 829e 85bd aef4 573d 2425 5b3c
00000130: a807 a83c 4b06 3d3d 0d94 a83c ff96 3e3d
00000140: 6688 5f3d 0a23 e1bd 6ed8 803c 2890 b3bd
00000150: c025 873c f17e 94bd dd76 48bc 2253 26bc
00000160: 3024 293d c8ab 22bd 1ad6 8fbd c897 433d
00000170: a90f 92bd ec71 04bd ae30 873d ed53 243d
00000180: c0a3 2c3d 78d4 583d 3e9f 863d e165 233c
00000190: 1d0d 2fbd 2559 ec3c b30c 053d b820 2fbd
000001a0: 95a2 303d cf61 47bd ecad 54bd 2e58 69bd
000001b0: 45b2 b83c 8e7d 223d 5c84 34bd b259 393d
000001c0: ac01 7dbd a05e 833d 201c 92bd bc1f 0ebc
000001d0: 2ae7 98bd 6aa9 9bbd 65bd 12bc f357 6f3d
000001e0: a260 e83c a07b 193d 569d 903b 4fc9 623d
000001f0: 3ab4 4b3c 76e6 7c3d 36dd 633d 08cd 213d
00000200: bcf2 24bd 27aa 46bd 7db2 6c3d 2856 f13c
00000210: 2da1 493d 9469 9e3d 40a5 a13d 5bac 4b3d
00000220: 3b2c afbd 2a34 843d 69fb c9bc 5177 033d
00000230: 1942 923d c931 af3c 625e fb3c 5adf 053d
00000240: 245a 913c e7f0 4abd f103 a4bb 4860 e7bc
00000250: 2c96 c4bd 5908 07be 39c3 663d ea06 5d3d
00000260: 93d2 cabd ec6a 0f3d 3b0d 5cbd 690e 8dbd
00000270: 2091 2b3c 9e97 ddbc 7b7e 4c3d b497 1abd
00000280: 40cc 18bd 020a 343d c075 453d d05f 87bd
00000290: 81e5 df3c 25fa 99bc 0914 69bc 1a75 3b3d
000002a0: c9fa a73d 5088 953c 92dd d8bd a962 ab3d
000002b0: 9dae cfbc f712 b5bb 771b 2f3d 18c3 e83c
000002c0: 2eac abbd ec7e 5b3d a143 463d ccd5 693d
000002d0: 31b6 0a3c 1037 0abe 47da 9c3d 0e61 d2bd
000002e0: 5179 8ebd 3a30 373d 54a2 82bd 8212 aabd
000002f0: 205d 523d b52f a23d 254a 283d 04b0 ec3c
00000300: 9c14 8bbc babf f63b d649 80ba ddf2 ffbd
00000310: d421 2e3d 4268 f53c f796 cfbd 9ab4 c23c
00000320: 3359 3f3d 95fe e73c 77cd 183d 9d43 843d
00000330: 6696 f73c ec59 96ba aace 8e3c ce02 febd
00000340: 3549 dbbd fc14 c73d 56e7 fabd 1e0b d23d
00000350: 43f8 1c3d 3e38 4b3d 8325 523d 8695 633d
00000360: 2a0d 71bc 5c9a 35bc 2a55 a33b b80b fdbb
00000370: 0ea5 5c3d 5c1c 44bd 7e07 e2bc 639d a3bd
00000380: b667 d83c 0d6c b6bd 0913 f6bd b834 bebd
00000390: b9fb 7b3c 9c99 17be d8a2 1c3c 3752 82bd
000003a0: a4d9 f5bd 4e33 31bc c716 0e3c eb9c 90bc
000003b0: cde7 df3c dc5c f4bd f0d3 8fbd aceb 09bd
000003c0: 2968 02bd bc4c 97bd a875 9bbc 72a3 d5bd
000003d0: 2e3b 0c3d 106e 6c3d 789b 2f3d f14a 8abd
000003e0: b1f1 3ebd 1d37 68bd d5e9 01be 55b9 c7bb
000003f0: e909 96bd 9c16 aebd c3e2 98bc 4da7 eebc
-0.042775773 -0.057642255 0.023496548 0.016982494 0.032723986 -0.06666998 -0.088067114 -0.016960163
0.05901808 -0.09718911 -0.022040136 -0.052193176 -0.076896064 0.04933484 -0.013685976 -0.054645322
-0.079223 -0.06268208 0.060497236 0.04289665 0.030914444 0.048995126 0.006585917 -0.00824067
0.05572934 0.026362957 0.04226486 -0.019289501 0.05683589 0.065153144 -0.03285735 0.074663915
-0.0596537 0.0016366788 0.006648245 -0.02461749 0.036428142 -0.03783744 0.0800219 -0.080541156
-0.060479056 0.057324182 0.009754574 -0.09119719 0.07165393 0.032219768 -0.05070005 -0.007307736
0.057211157 -0.04713736 -0.029441148 0.0075008455 -0.06842629 0.050335027 -0.07488553 0.039677296
-0.036011174 -0.08173125 0.07507975 -0.015990118 0.003490895 -0.036110334 0.008575987 -0.07804344
0.07156388 0.032566883 0.06074021 0.048627034 -0.07306755 0.019631764 0.03186826 0.013890696
0.006010777 -0.065243736 0.05272358 0.013375554 0.020511463 0.04614858 0.020578409 0.04653072
0.05457344 -0.10993011 0.015728202 -0.0876773 0.016497493 -0.07250775 -0.01223537 -0.010151656
0.041294277 -0.039714605 -0.070232585 0.04775217 -0.07131893 -0.032335207 0.06601082 0.0401191
0.04214835 0.052937 0.06573342 0.00997302 -0.042737115 0.028851101 0.032482814 -0.042755812
0.0431238 -0.048677262 -0.051923677 -0.05696886 0.022545943 0.03967052 -0.04407154 0.045251556
-0.061769173 0.06414533 -0.07134271 -0.008674558 -0.07465966 -0.076006725 -0.008956288 0.058433484
0.02836639 0.037471414 0.004413287 0.055367764 0.012433106 0.061743222 0.055630885 0.039502174
-0.040270552 -0.048502114 0.057787407 0.029460028 0.049225975 0.07734981 0.07892847 0.049724918
-0.08553358 0.06455262 -0.024656015 0.03209621 0.071415134 0.021386044 0.030684654 0.032683708
0.017743178 -0.04954615 -0.0050053527 -0.028244153 -0.095989555 -0.13186778 0.056338523 0.053961672
-0.09903445 0.035014078 -0.053723555 -0.06887514 0.010471612 -0.027049836 0.04992531 -0.03774233
-0.037304163 0.043954857 0.048208 -0.06610072 0.027331116 -0.018796036 -0.014225968 0.045765974
0.0820213 0.018253475 -0.10589136 0.08368427 -0.025351817 -0.0055259424 0.042750802 0.02841334
-0.0838245 0.05358784 0.04840434 0.05708866 0.008466289 -0.13497567 0.076588206 -0.10272418
-0.06956733 0.044723727 -0.06378618 -0.08304311 0.051358342 0.07919256 0.041086335 0.028892525
-0.0169776 0.00753018 -0.000978763 -0.12497494 0.04251273 0.02995694 -0.10136216 0.023767758
0.046715926 0.028319636 0.03730532 0.06458209 0.030223083 -0.0011470891 0.01743253 -0.12402879
-0.107073225 0.09720799 -0.12251155 0.10256027 0.0383227 0.049614184 0.051305305 0.05556252
-0.014712611 -0.011084165 0.0049845176 -0.0077223442 0.053868346 -0.047878608 -0.027591463 -0.079890035
0.02641664 -0.08907328 -0.120153494 -0.09287399 0.01537984 -0.14804691 0.009560309 -0.063633375
-0.12004402 -0.010815455 0.008672423 -0.01765295 0.02733221 -0.11931774 -0.07022846 -0.03367202
-0.031837616 -0.07387683 -0.018977001 -0.10431565 0.034236126 0.05772215 0.042872876 -0.06752575
-0.046617214 -0.056693185 -0.12686856 -0.0060950913 -0.07326109 -0.08500406 -0.018662816 -0.02913251

action_model._discrete_distribution.branches.0.bias f4 [3]
00000000: df80 673d e8ae ecbc a5d4 35bd
0.056519385 -0.028891996 -0.044392247

exp_avg f4 [128, 55]
00000000: bdde 7cb7 40ed d639 6d8e 0b37 93fb 3eb4
00000010: 69e5 7236 afcb 3cb8 cbc9 e439 6d8e 0b37
00000020: 3031 f834 f640 3837 d276 06b8 9c67 e139
00000030: 6d8e 0b37 1a86 3794 9e71 9837 e529 8db7
00000040: 1965 d839 6d8e 0b37 078c 1f35 5280 2338
00000050: eafc 54b8 39c8 f239 96af 8a9d 8974 8c35
00000060: ee16 7139 c9b8 0b38 f9a8 cb39 6d8e 0b37
00000070: 2d61 2136 8ff8 6738 97a2 fc39 e6ba 5cb8
00000080: 0400 0000 7f75 2836 18b8 1039 9b10 8f38
00000090: af17 c239 6d8e 0b37 f7a9 88b4 5491 4a38
000000a0: a754 d139 2e90 86b7 0400 0000 24da d9b6
000000b0: 1123 ff38 bd20 39b8 188c be39 4b31 91b2
000000c0: 0400 0080 58bf 1b38 476d b639 4edb 69b7
000000d0: 0400 0000 7d25 fa30 6932 f138 b524 0438
000000e0: 784f f7b9 1f23 c334 192f 8c34 842b b2b5
000000f0: 2aa1 9538 c607 04ba 1f23 c334 b012 74b5
00000100: 61da 6ab7 15e4 3638 dc1f 00ba 1f23 c334
00000110: c65f c814 3094 9ab7 8d9e 4638 6a4c ffb9
00000120: 1f23 c334 7a56 d2b5 0aaf 4ab8 06d7 9938
00000130: e356 0bba 1faf da9a c945 c7b5 1580 8cb9
00000140: 960e f8b6 0101 f7b9 1f23 c334 0d07 95b6
00000150: 6247 90b8 ebe4 17ba 90f3 9e38 0400 0080
00000160: dee8 87b6 0be1 29b9 2980 81b8 4735 e7b9
00000170: 1f23 c334 c697 1435 eb43 8db8 0b5f dab9
00000180: 09d7 7a37 0400 0080 f278 0d37 73ce 14b9
00000190: bd48 7438 4fa7 e1b9 1105 6a32 0400 0000
000001a0: 5f1e 74b8 351f fdb9 2d06 3737 0400 0000
000001b0: d2ee f9b1 2bae 1fb9 10bc 9b37 76f0 8db7
000001c0: ad76 05b7 7f65 3834 d55a 9937 a3c0 8138
000001d0: bfe5 66b8 ad76 05b7 3963 18b5 20df 4537
000001e0: d267 48b6 409f dc36 ad76 05b7 6a1a bc14
000001f0: 7aaa 9d37 2a67 a636 1371 eeb5 ad76 05b7
00000200: 29cf 92b5 1df5 9035 eb20 3637 1e02 80b7
00000210: fa51 611d 2566 0bb5 5d12 2737 ce45 d8b6
00000220: c98b 22b7 ad76 05b7 961e b935 ceaf 7c36
00000230: 2603 22b8 c6ce 6b38 0400 0000 88c4 0ab6
00000240: 1cf3 e035 42ca c636 8ca2 30b7 ad76 05b7
00000250: b895 fbb4 8130 2c37 2345 a1b6 ce45 d937
00000260: 0400 0000 43b4 a636 be6e dd36 8d18 b738
00000270: 2473 10b7 2ba2 0332 0400 0080 301d 0038
00000280: 368d cf38 932e b337 0400 0080 afbe 00b2
00000290: 5690 b737 d95d 6bb7 5d56 0b3a 0f43 0137
000002a0: fb59 49b4 4be9 1fb5 e84d 86b8 043a 173a
000002b0: 0f43 0137 62ba a434 72bf f036 2017 97b7
000002c0: 0011 0d3a 0f43 0137 7707 4694 106f b737
000002d0: 47c6 efb6 dcec 093a 0f43 0137 0e31 8835
000002e0: dd2c 1d38 38ec e1b8 ae06 283a 136f 5d9d
000002f0: 8b59 cb35 94c4 9b39 c08c 4c38 44fe 043a
00000300: 0f43 0137 bcb8 5736 1459 5f38 b9ac 1c3a
00000310: 6ebb 5fb8 0400 0000 5cf3 7636 cbbf 2839
00000320: af31 c838 1e51 f939 0f43 0137 9ffe abb4
00000330: 93c6 3a38 5d2a f939 3a5d 87b5 0400 0000
00000340: f03f d2b6 6770 1439 af5b eeb8 3801 f439
00000350: 4cf6 8bb2 0400 0080 3d26 8e37 8c0a af39
00000360: 241e 0c36 0400 0080 90d2 1531 6700 0339
00000370: 7877 bb36 c4ab 1235 e323 5bb6 3424 0534
00000380: 63f0 6837 7e16 2838 2057 fbb7 e323 5bb6
00000390: 6a7a 99b4 24ce 2237 b17d 0537 c6ed 6cb5
000003a0: e323 5bb6 5ccd 1514 0985 9b37 21d9 b536
000003b0: ad66 1036 e323 5bb6 563a 6eb5 df04 a534
000003c0: d674 7db6 e9ba 8836 0d3a b71c 9a0a f4b4
000003d0: 14e9 9c37 b9b5 83b7 1231 8b36 e323 5bb6
000003e0: 8c94 4835 98b2 1db5 65d0 6ab7 09dd ed37
000003f0: 0400 0000 e126 c4b5 fa2e 6435 578a c334
-1.5072231e-05 0.00040994026 8.318207e-06 -1.7786651e-07 3.6194344e-06 -4.5012388e-05 0.00043637896 8.318207e-06
4.6229388e-07 1.09823795e-05 -3.205875e-05 0.0004299254 8.318207e-06 -9.265586e-27 1.817272e-05 -1.6828018e-05
0.00041274054 8.318207e-06 5.943588e-07 3.8981736e-05 -5.0780283e-05 0.00046307014 -3.6709847e-21 1.0464729e-06
0.00022992093 3.3312277e-05 0.00038845072 8.318207e-06 2.4047433e-06 5.530618e-05 0.00048186324 -5.262615e-05
6e-45 2.5102343e-06 0.0001380149 6.8218644e-05 0.0003702021 8.318207e-06 -2.545564e-07 4.82959e-05
0.00039926657 -1.6041184e-05 6e-45 -6.492499e-06 0.00012165879 -4.4137927e-05 0.00036344002 -1.6902638e-08
-6e-45 3.7133083e-05 0.00034795163 -1.3938943e-05 6e-45 1.8200549e-09 0.00011501165 3.150544e-05
-0.0004717072 3.6347134e-07 2.61113e-07 -1.3274698e-06 7.134893e-05 -0.0005036559 3.6347134e-07 -9.092428e-07
-1.3998332e-05 4.36046e-05 -0.000488756 3.6347134e-07 2.0232615e-26 -1.8427236e-05 4.735454e-05 -0.00048694323
3.6347134e-07 -1.5671387e-06 -4.832357e-05 7.33566e-05 -0.00053153763 -9.044561e-23 -1.4846966e-06 -0.0002679831
-7.392674e-06 -0.0004711226 3.6347134e-07 -4.441367e-06 -6.879751e-05 -0.00057943043 7.579394e-05 -6e-45
-4.050423e-06 -0.00016200931 -6.175071e-05 -0.00044099448 3.6347134e-07 5.5355156e-07 -6.736055e-05 -0.00041651013
1.4951228e-05 -6e-45 8.432415e-06 -0.00014191288 5.8241876e-05 -0.0004304 1.3621745e-08 6e-45
-5.820242e-05 -0.00048279171 1.0909088e-05 6e-45 -7.2740045e-09 -0.00015228304 1.8565013e-05 -1.6920483e-05
-7.955049e-06 1.717326e-07 1.8281318e-05 6.187081e-05 -5.505024e-05 -7.955049e-06 -5.67688e-07 1.1794065e-05
-2.9862754e-06 6.57505e-06 -7.955049e-06 1.8993567e-26 1.8795243e-05 4.9591954e-06 -1.7765291e-06 -7.955049e-06
-1.0938139e-06 1.0800173e-06 1.085571e-05 -1.5259775e-05 2.9820883e-21 -5.1930175e-07 9.958251e-06 -6.445428e-06
-9.688499e-06 -7.955049e-06 1.3792476e-06 3.7653258e-06 -3.8626742e-05 5.622094e-05 6e-45 -2.0677999e-06
1.6760055e-06 5.9244057e-06 -1.0528263e-05 -7.955049e-06 -4.6861328e-07 1.0263292e-05 -4.8062225e-06 2.5900921e-05
6e-45 4.9681707e-06 6.5992053e-06 8.730693e-05 -8.609877e-06 7.662076e-09 -6e-45 3.054476e-05
9.896832e-05 2.136015e-05 -6e-45 -7.493937e-09 2.1882512e-05 -1.4028942e-05 0.00053152983 7.7046125e-06
-1.8752318e-07 -5.95716e-07 -6.404129e-05 0.0005768838 7.7046125e-06 3.0682992e-07 7.1748445e-06 -1.8011371e-05
0.00053812563 7.7046125e-06 -9.9979176e-27 2.1867017e-05 -7.1458376e-06 0.000526143 7.7046125e-06 1.0147066e-06
3.74735e-05 -0.00010772835 0.0006409687 -2.930653e-21 1.5150739e-06 0.00029710366 4.8768474e-05 0.0005073289
7.7046125e-06 3.2145026e-06 5.3250304e-05 0.00059766654 -5.33419e-05 6e-45 3.679851e-06 0.00016093177
9.5459975e-05 0.00047553418 7.7046125e-06 -3.2036493e-07 4.4530792e-05 0.00047524544 -1.0085416e-06 6e-45
-6.265931e-06 0.00014156253 -0.00011365802 0.00046540215 -1.6293733e-08 -6e-45 1.6945525e-05 0.0003338646
2.087917e-06 -6e-45 2.1802045e-09 0.00012493283 5.5869423e-06 5.463919e-07 -3.2654432e-06 1.2399761e-07
1.3884247e-05 4.007527e-05 -2.9962102e-05 -3.2654432e-06 -2.858754e-07 9.703948e-06 7.956683e-06 -8.8262857e-07
-3.2654432e-06 7.5630776e-27 1.853939e-05 5.4194975e-06 2.1517437e-06 -3.2654432e-06 -8.87468e-07 3.073719e-07
-3.7767945e-06 4.074875e-06 1.212493e-21 -4.5456255e-07 1.8705185e-05 -1.5701038e-05 4.1482353e-06 -3.2654432e-06
7.472197e-07 -5.8746946e-07 -1.39960075e-05 2.835553e-05 6e-45 -1.4614453e-06 8.500498e-07 3.6422236e-07

exp_avg_sq f4 [128, 55]
00000000: 904a aa32 e8e2 5f34 d2ad 4331 a839 4d2e
00000010: 378b a932 b5dc 0833 163d 5234 f4e9 6431
00000020: 0fdc 832f 83b6 9a32 944d 4e33 4f20 4634
00000030: 30a0 4331 1dd4 fc2c 81c9 9832 4a53 f433
00000040: bfc9 2f34 1e00 6531 b899 1f2f fb92 ee32
00000050: 9b40 9133 0f12 3934 570f 2731 002d e92d
00000060: 730d b932 b4d2 e034 508e 1834 e852 6531
00000070: dbea 922e c9f8 5233 5497 fc33 58b2 0d34
00000080: cff8 412f ec53 852f 0964 9932 a3ab 1235
00000090: b7b0 ff33 9233 7c31 50bb 542c 6594 7533
000000a0: f35b 9434 c9d6 d933 ee61 9b2d 547d 6530
000000b0: 4dbe ba32 e705 9635 588d de33 2872 7831
000000c0: c03e 9c2b a50c c433 c04b 8535 e378 b533
000000d0: 2ec0 8f2d 9cc0 1530 9802 5b33 fea8 e232
000000e0: cc01 6a34 fe38 0731 5c73 912e aed8 1d33
000000f0: eab5 8d33 b7bc 3d34 ccd9 1531 c881 e02f
00000100: f9ac 1833 01df 9233 7e69 4434 ce38 0731
00000110: 570e 382d 363f 0f33 0a17 8134 58b4 ea33
00000120: 02db 1531 3e79 962f 8744 6533 7c80 e833
00000130: ed09 2f34 4415 0131 d275 542e e407 2d33
00000140: c18e 5435 f61c ad33 3972 1631 a1a7 722f
00000150: 14f0 c633 0deb 6334 30f9 b833 0470 a02f
00000160: 3217 2f30 33cb 1933 c62f 9335 895c 4933
00000170: 7e1f 2e31 da08 e62a 9feb ec33 d06b 1235
00000180: 07d0 0633 9203 cb2d 3727 9a30 8366 2b33
00000190: 4577 1a36 2501 2333 8132 2e31 65e4 c228
000001a0: 1b62 3934 f138 c135 b4a0 7732 cd25 bf2d
000001b0: 818b 3630 79ae a433 4032 e932 7c5e 9433
000001c0: 3d29 1b2f 23a1 282e 2d43 5832 b520 2533
000001d0: 01a8 7e33 1fe6 912f cb18 582f e001 8632
000001e0: ceb8 1833 3556 8633 51a3 1a2f 1e06 112d
000001f0: 7272 2e32 9ebb a933 1db8 4f33 d217 922f
00000200: 99db 132f 44a6 8632 ee72 3733 7b2c 7533
00000210: 85ea b62e 1bfb eb2c 4e73 4332 c8aa 5f34
00000220: fe9a 1c33 98e3 912f 9472 062e b863 c332
00000230: c650 7833 67e2 2b33 0b7c 232e 81af 4a2f
00000240: 41a7 2f32 1588 8234 8f67 c332 4ea5 e62f
00000250: 914e 132c 4803 cb32 4152 df33 2daf a632
00000260: b110 612c 1109 cb2f f714 2032 dcd4 e634
00000270: 2ca2 3832 9139 cc2f 6761 152b 5380 1133
00000280: a388 8b34 8e96 3532 cfeb 262c b20a a52f
00000290: e924 6c32 ec06 2633 c2c4 8e34 597f 4b30
000002a0: 50a2 592e 111d 4633 5cbe 5933 4cba 8634
000002b0: b5b3 8d30 f158 712f bb12 1d33 082e c933
000002c0: fab9 6634 657e 4b30 1399 812c 8b44 0a33
000002d0: 854c 5c34 537a 5334 3fb8 8d30 01a3 9a2f
000002e0: e329 5d33 eded 0f34 b8df 4634 2871 2c30
000002f0: 28fe 702e 664b 3a33 2d90 5535 08db 3734
00000300: c02c 8e30 aabf a52e 7f86 d033 ceb5 6534
00000310: d07a ea33 5169 aa2e e760 0c30 0c4d 1333
00000320: 38f2 9d35 74c3 dc33 c243 a830 007f a12a
00000330: b3be 0434 8fca 0435 9d3e 8a33 dd9f fd2c
00000340: 8f5f 6030 5fab 1c33 a493 2736 cee4 a033
00000350: 1ced a130 def1 2429 ab95 5334 f011 e735
00000360: 903b 4133 90cb e62c c6f5 6630 9c62 bd33
00000370: 329d ee32 a015 d532 c058 0e2f 3e09 b22d
00000380: 680b 1132 7232 0233 0694 cf32 7b05 532f
00000390: 7b16 af2e 18a5 5f32 d24a 0133 689c ca32
000003a0: 2043 0e2f 534f b42b f82b e831 5cbe 3b33
000003b0: 545f 0833 431c 532f e4d3 ae2e 49b2 4b32
000003c0: 9b5e 1833 632c a032 c6d6 002f 37a0 ae2c
000003d0: c54f e531 5445 2e34 bf2e 0033 f1ca 522f
000003e0: f7df 172d 1b63 9b32 7b6b 4433 cef3 1032
000003f0: 25d0 4a2e a994 e22e 0d80 b731 877a 5534
1.9824512e-08 2.0851041e-07 2.847504e-09 4.6662813e-11 1.9737497e-08 3.18657e-08 1.9579997e-07 3.3311354e-09
2.3985122e-10 1.8010956e-08 4.803367e-08 1.8451941e-07 2.846729e-09 7.18582e-12 1.7786762e-08 1.13772856e-07
1.637154e-07 3.3323952e-09 1.4515578e-10 2.7773686e-08 6.76384e-08 1.7236037e-07 2.4310418e-09 2.6509017e-11
2.154295e-08 4.1876558e-07 1.4207876e-07 3.3371013e-09 6.68103e-11 4.9120704e-08 1.1762191e-07 1.319653e-07
1.7641642e-10 2.425219e-10 1.7857035e-08 5.4639e-07 1.1906507e-07 3.670014e-09 3.0230991e-12 5.717847e-08
2.763405e-07 1.0143919e-07 1.766495e-11 8.3487817e-10 2.1739789e-08 1.1177589e-06 1.0363391e-07 3.615364e-09
1.1101883e-12 9.129261e-08 9.931318e-07 8.4504585e-08 1.6342563e-11 5.44796e-10 5.099227e-08 2.6386711e-08
2.1793602e-07 1.9677482e-09 6.6143285e-11 3.675148e-08 6.598914e-08 1.7670651e-07 2.1806157e-09 4.0837578e-10
3.5547576e-08 6.839219e-08 1.82923e-07 1.9677375e-09 1.0462373e-11 3.3352272e-08 2.4044886e-07 1.09292785e-07
2.1806845e-09 2.737099e-10 5.3380543e-08 1.0826713e-07 1.6301756e-07 1.8784059e-09 4.8307865e-11 4.0286878e-08
7.918389e-07 8.061208e-08 2.18928e-09 2.2069326e-10 9.2637634e-08 2.1226533e-07 8.6134946e-08 2.9183422e-10
6.369759e-10 3.5807897e-08 1.0966257e-06 4.688312e-08 2.5338234e-09 4.086235e-13 1.10324656e-07 5.4546126e-07
3.1388506e-08 2.3080014e-11 1.121612e-09 3.9907274e-08 2.3017212e-06 3.7952436e-08 2.534904e-09 2.1637377e-14
1.7265158e-07 1.4396193e-06 1.4413832e-08 2.1730973e-11 6.640946e-10 7.6685815e-08 2.7147621e-08 6.908974e-08
1.4111819e-10 3.8341896e-11 1.2588129e-08 3.8446803e-08 5.9291782e-08 2.6538857e-10 1.9653894e-10 1.5600506e-08
3.5558337e-08 6.255542e-08 1.406424e-10 8.243654e-12 1.0154155e-08 7.903803e-08 4.8363393e-08 2.657417e-10
1.3447589e-10 1.5675262e-08 4.2712536e-08 5.7083962e-08 8.318061e-11 6.70698e-12 1.1376711e-08 2.0830623e-07
3.6462545e-08 2.6537061e-10 3.056984e-11 2.2746335e-08 5.7815463e-08 4.0019952e-08 3.717208e-11 1.8434144e-10
1.022437e-08 2.43134e-07 2.274808e-08 4.1954212e-10 2.093357e-12 2.3633802e-08 1.03992086e-07 1.9404604e-08
3.1983689e-12 3.6931927e-10 9.317993e-09 4.2995714e-07 1.0747083e-08 3.7148287e-10 5.3070607e-13 3.3877154e-08
2.5990184e-07 1.0569819e-08 2.3720919e-12 3.0020925e-10 1.37454e-08 3.8656182e-08 2.659272e-07 7.403194e-10
4.948425e-11 4.6126903e-08 5.069738e-08 2.5094994e-07 1.0310176e-09 2.195042e-10 3.6571446e-08 9.368165e-08
2.1488077e-07 7.4030587e-10 3.683395e-12 3.219297e-08 2.0516934e-07 1.9695408e-07 1.0311466e-09 2.8128258e-10
5.1493668e-08 1.340447e-07 1.8521575e-07 6.273404e-10 5.4795418e-11 4.3375074e-08 7.9558487e-07 1.7122886e-07
1.0344579e-09 7.537378e-11 9.7102195e-08 2.1393427e-07 1.09188136e-07 7.749413e-11 5.106941e-10 3.429618e-08
1.1767906e-06 1.0280101e-07 1.2242867e-09 2.868747e-13 1.2362834e-07 4.9468593e-07 6.437515e-08 7.208441e-12
8.162652e-10 3.647744e-08 2.4970877e-06 7.4922e-08 1.1781682e-09 3.66251e-14 1.9705355e-07 1.7216062e-06
4.4990486e-08 6.559593e-12 8.402278e-10 8.818935e-08 2.777833e-08 2.4806297e-08 1.2946355e-10 2.0240361e-11
8.442704e-09 3.0313863e-08 2.4165285e-08 1.9192285e-10 7.962072e-11 1.3017846e-08 3.01032e-08 2.358702e-08
1.2938672e-10 1.2811786e-12 6.7570873e-09 4.371246e-08 3.1751668e-08 1.9200379e-10 7.950243e-11 1.18566925e-08
3.54763e-08 1.8646636e-08 1.1717835e-10 4.963165e-12 6.673846e-09 1.6230234e-07 2.9844838e-08 1.9171488e-10
8.633086e-12 1.8089443e-08 4.573256e-08 8.437338e-09 4.6114352e-11 1.03036975e-10 5.3405587e-09 1.9881746e-07

exp_avg f4 [128]
00000000: 6a9a 8b39 a8d1 e7b9 3335 4139 7910 6539
00000010: f35c 4439 fa7f c0b9 6255 cc39 c623 7239
00000020: a854 21bb 3515 233a 4cef c7b9 7ef9 7dba
00000030: 4b6c a139 e423 2239 ae94 9639 fa7c 513a
00000040: e96b 44ba c54c b73a 3cb6 07ba 7e54 9f39
00000050: 24f6 a039 f73e 63ba 75dc 593a c5b4 2339
00000060: 7905 c639 2b5d d03a 9c67 613a a208 edba
00000070: a093 a438 9f78 9639 268d e8ba 8136 063a
00000080: d580 15bb 2a21 5f3a 5c22 8cba 2b6e 9737
00000090: a09b 383a 8dc0 a239 5c47 f5b9 0c9c 16bb
000000a0: b195 c739 d4ab 183a 9e0a 2939 193f 4239
000000b0: de83 68ba b129 703a 3bc8 a4ba 6359 50ba
000000c0: 5c98 ce39 bd21 cf39 c8be afba afa3 92ba
000000d0: 1f43 90ba 6635 f4ba 36fe 2c3a 6c60 89ba
000000e0: 3943 86ba f00d e139 f20f a93a 12f1 e039
000000f0: 96e4 0a3a bd09 a23a d85c b239 685b 77ba
00000100: 12dc 383a 9216 afba 931f c33a 4a4a a3ba
00000110: dee1 6039 ec45 d439 b075 c4ba f9ca 9939
00000120: a979 4a3a a359 423a 91d3 c939 47c2 e339
00000130: de85 21bb 7cbf acb8 efad 3838 1420 bd39
00000140: e6f5 93b9 8c94 0dbb e0c2 23ba 2f99 ceba
00000150: 7325 11ba 4329 bbba 6da9 6939 e616 9339
00000160: 17f0 9aba ca53 9d39 fb75 36bb fdec 3db9
00000170: 9b41 9d3a c6b0 e0b9 d046 20ba 7e4c 5f3a
00000180: 06b4 9039 cede 9aba 121b 2eba 4dce e738
00000190: 19b1 99ba 6686 033a 0592 103a d883 04ba
000001a0: cc09 883a e53f b7b7 e402 acba 1cb9 68b9
000001b0: 2842 433a ff0b 3e3a 1024 233a 37cb b6ba
000001c0: d1df d637 d656 8f39 df7c ca3a 772c b53a
000001d0: b2af afba 5cc2 533a 94fa 2dba cb53 59bb
000001e0: 6402 0bba 1966 d2ba 4898 1d3a 3d65 08bb
000001f0: 1321 acba e94e b3b8 521b 4dba 7456 ddb9
0.00026627193 -0.0004421596 0.00018425733 0.00021845278 0.00018726643 -0.00036716444 0.00038973527 0.00023092245
-0.002461711 0.00062211166 -0.00038134528 -0.00096883613 0.00030788998 0.00015462894 0.00028721004 0.000799134
-0.00074928865 0.0013984671 -0.00051769963 0.00030389795 0.00030700967 -0.0008668745 0.0008310744 0.00015612233
0.0003776958 0.0015896907 0.0008598508 -0.0018084238 7.847627e-05 0.000287001 -0.0017742261 0.0005119816
-0.0022812386 0.0008511717 -0.0010691392 1.8051904e-05 0.0007042233 0.0003104251 -0.00046783208 -0.0022981195
0.00038067767 0.0005823944 0.00016121051 0.00018524787 -0.00088697474 0.0009161486 -0.001257188 -0.000794789
0.00039404898 0.00039507254 -0.0013408298 -0.0011187698 -0.0011006332 -0.0018631637 0.00065991597 -0.0010481006
-0.0010243423 0.00042925728 0.0012898429 0.0004290422 0.0005298344 0.0012362521 0.0003401998 -0.0009435923
0.0007051836 -0.0013358167 0.0014886729 -0.0012458053 0.00021446447 0.00040487887 -0.0014988687 0.0002933366
0.0007723817 0.00074138696 0.00038495337 0.00043441562 -0.0024646441 -8.237266e-05 4.4031007e-05 0.0003607279
-0.00028221234 -0.0021603433 -0.0006246995 -0.0015762205 -0.00055368914 -0.0014279265 0.00022283728 0.00028055086
-0.001182082 0.000300078 -0.0027841318 -0.0001811273 0.0011997701 -0.00042856316 -0.00061140675 0.0008518173
0.00027599948 -0.0011815669 -0.0006641607 0.00011053365 -0.0011725753 0.00050172803 0.00055149227 -0.00050550466
0.0010378896 -2.1845053e-05 -0.001312342 -0.00022194203 0.0007448518 0.00072497124 0.000622333 -0.0013946061
2.561501e-05 0.00027339783 0.0015448591 0.0013822456 -0.0013403802 0.0008077973 -0.00066367653 -0.0033161517
-0.00053027854 -0.0016052156 0.00060117664 -0.0020812296 -0.0013132415 -8.550083e-05 -0.00078242004 -0.00042216817

exp_avg_sq f4 [128]
00000000: 813a 1236 c70e 6436 0858 2e35 d8e4 8636
00000010: 2092 2a35 1902 8c34 09e0 5334 1f06 ad34
00000020: 8b32 aa36 c793 9a35 fd8e 1e36 2a25 7f35
00000030: 92a7 6236 e22d 5e36 2091 3934 b414 ec35
00000040: ce58 5d36 3c3f 1536 9b65 4535 6852 0635
00000050: f849 2535 f557 2d35 52bc 9535 30c6 cf34
00000060: 8737 e634 b48d 5f36 11c5 9035 00d2 7236
00000070: fa33 b735 3a3f a134 cdae a736 390e 1736
00000080: aec7 d036 5c99 3036 7232 b336 2568 9636
00000090: 9ab8 c335 fd16 0935 8d80 b835 5857 a336
000000a0: 54a1 8834 a44c 7735 3a18 1c34 95f4 0e35
000000b0: af46 b236 349b 7d35 7f22 1d36 826d 1835
000000c0: b0c5 b134 0fea 8d35 62b5 3e36 1055 be36
000000d0: 7b68 1a36 7020 a936 fc2d 2236 a61f c935
000000e0: a3b7 a135 3b03 3635 53e1 0636 1afd 4835
000000f0: 0610 a836 9a5b 5936 b7a6 5b35 0fef 2a36
00000100: 6703 2f35 73d0 8636 fbba 0936 e74c 3b36
00000110: a113 7735 b7dd 0d35 6550 b336 fb23 4435
00000120: 2df5 a335 712a d135 b48c 0b35 db8f 1836
00000130: 2c07 aa36 5f05 b535 0c5e 0533 eb80 8b35
00000140: a137 aa34 2a9f 9136 6143 9e36 aaed 5936
00000150: ee72 4c36 740f 6736 1b04 3035 cb3d 4835
00000160: d81b b536 ae48 a735 f58f e736 9174 a035
00000170: 1d0b ee35 f13c e635 9c74 5c36 fb83 8f36
00000180: f207 3334 5000 8c36 cd69 7b36 18e9 e133
00000190: b5aa d636 8e80 a035 8e53 fe35 f6b2 f035
000001a0: 9cfb 6835 294f 9233 08e4 4c36 b174 e534
000001b0: 6497 4635 685e ad35 67b5 9335 d51d b635
000001c0: 7856 b636 7d57 3036 da7f 4e36 bd46 5e36
000001d0: b4c0 6736 a8be 3d36 ccc9 9235 4f87 0837
000001e0: 6dcb 4d36 c126 2b36 989f a935 f997 9636
000001f0: f479 f436 ae2a 1635 86b6 7435 aa38 7b35
2.178975e-06 3.398325e-06 6.4948154e-07 4.020152e-06 6.3542575e-07 2.6078558e-07 1.973241e-07 3.2228215e-07
5.072279e-06 1.1516903e-06 2.3627065e-06 9.5048983e-07 3.3774163e-06 3.3107285e-06 1.7282264e-07 1.7589396e-06
3.2983257e-06 2.2239537e-06 7.3536074e-07 5.0038807e-07 6.157493e-07 6.4575516e-07 1.1156174e-06 3.8700955e-07
4.288124e-07 3.3312072e-06 1.078619e-06 3.6183046e-06 1.364969e-06 3.003459e-07 4.9973373e-06 2.2509032e-06
6.222129e-06 2.631531e-06 5.3404883e-06 4.4824724e-06 1.4582358e-06 5.106993e-07 1.3746481e-06 4.8679467e-06
2.5449356e-07 9.21262e-07 1.4537446e-07 5.3255036e-07 5.313042e-06 9.4475695e-07 2.3414902e-06 5.678377e-07
3.3112656e-07 1.0573439e-06 2.8417785e-06 5.672344e-06 2.3008604e-06 5.0403687e-06 2.4166648e-06 1.4984878e-06
1.204888e-06 6.7804984e-07 2.0098712e-06 7.487412e-07 5.0086555e-06 3.238884e-06 8.182646e-07 2.5471124e-06
6.519753e-07 4.017778e-06 2.0523428e-06 2.7909934e-06 9.2043234e-07 5.284923e-07 5.343975e-06 7.306805e-07
1.2215802e-06 1.5584066e-06 5.1986285e-07 2.27335e-06 5.0672297e-06 1.3487114e-06 3.105201e-08 1.0393827e-06
3.1705443e-07 4.339866e-06 4.716611e-06 3.2473858e-06 3.0465267e-06 3.4430677e-06 6.5571083e-07 7.4595727e-07
5.397462e-06 1.2463622e-06 6.9010953e-06 1.1954854e-06 1.7735616e-06 1.7154072e-06 3.285043e-06 4.2770967e-06
1.6673565e-07 4.1723615e-06 3.7463499e-06 1.05197785e-07 6.39757e-06 1.1958343e-06 1.8948792e-06 1.7933478e-06
8.6792875e-07 6.813054e-08 3.05311e-06 4.2739478e-07 7.398105e-07 1.291698e-06 1.1005149e-06 1.3568739e-06
5.434089e-06 2.6276969e-06 3.0770811e-06 3.3121753e-06 3.453385e-06 2.8274171e-06 1.0936578e-06 8.137736e-06
3.066579e-06 2.5503543e-06 1.2637929e-06 4.4880403e-06 7.285964e-06 5.594146e-07 9.116269e-07 9.3587244e-07
