results/test1/MoveToGoal/MoveToGoal-6743.onnx (onnx, 73881 bytes, 9 tensors)

action_model._continuous_distribution.log_sigma f4 [1, 2]
0	0x00000000	0.0
1	0x00000000	0.0

action_model._continuous_distribution.mu.bias f4 [2]
0	0x00000000	0.0
1	0x00000000	0.0

action_model._continuous_distribution.mu.weight f4 [2, 128]
0	0xbbeb0ff8	-0.0071735345
1	0xbc6c4b20	-0.014422208
2	0x3cb25ddb	0.02177327
3	0xbcbf2f05	-0.02333785
4	0xbd3f5b34	-0.046717837
5	0x3b8029e5	0.003911244
6	0x3ca4cf7e	0.020118471
7	0xbc8cb27f	-0.017174957
8	0xbc5e0c5b	-0.01355275
9	0xbc1baf11	-0.009502188
10	0x3cbcdd03	0.023054605
11	0xbceeb41d	-0.02913862
12	0x3cca4887	0.024692787
13	0x3a38a7bb	0.0007044037
14	0x3c828c95	0.015936175
15	0xbcee80a5	-0.029114077
16	0xbceb9f82	-0.028762583
17	0x3cbd3adf	0.023099361
18	0x3c8e2947	0.017353667
19	0x3c8e8b60	0.017400444
20	0x3bb56db5	0.0055367597
21	0x3c63ef57	0.0139120435
22	0xbb01a3a0	-0.0019781366
23	0x3a99b320	0.0011726357
24	0xbd207b7b	-0.03918026
25	0xbce992bb	-0.02851235
26	0x3ce92875	0.028461674
27	0x3b173d03	0.0023077137
28	0x3c09b2a7	0.00840441
29	0x3c51bb3f	0.012800991
30	0xbcc903c7	-0.024537934
31	0x3add9033	0.0016903937
32	0xbbe44553	-0.006966272
33	0xbb3d4378	-0.0028879326
34	0xbbcf1057	-0.0063190865
35	0x3d22a7cb	0.0397108
36	0xbbb0808c	-0.0053864177
37	0x3b8a88fe	0.0042277565
38	0x3bb55af6	0.005534525
39	0xbb8b34ff	-0.004248261
40	0x3c516142	0.012779536
41	0x3c6b7f40	0.0143736005
42	0x3c01849b	0.007905151
43	0xbb841537	-0.0040308493
44	0xbc80f11f	-0.015739975
45	0xbcb7e85b	-0.022449663
46	0x3cacbb1e	0.021085318
47	0x3cb5cac9	0.022191422
48	0x3c2dc743	0.01060659
49	0x3c8a5ed3	0.016890919
50	0xbcba9fc7	-0.022781266
51	0x3bea12cb	0.0071433536
52	0x3cee491a	0.029087592
53	0x3c9c9932	0.019116018
54	0x3c097047	0.008388585
55	0xbcb6429e	-0.022248562
56	0xbbe27175	-0.006910498
57	0x3bdb2895	0.0066881874
58	0xbcbe3ec7	-0.023223294
59	0xbc928d11	-0.017889531
60	0x3c08527b	0.008320446
61	0xba33bcd7	-0.00068564474
62	0x3a2507bf	0.0006295405
63	0x3cb7b017	0.022422833
64	0x3bb56baf	0.0055365185
65	0x3b162c6a	0.0022914656
66	0x3cd414ba	0.02588879
67	0x3b30db99	0.002698636
68	0x3c1c3d01	0.009536029
69	0xbab3c8e5	-0.0013716487
70	0xbc1f3faf	-0.009719773
71	0x3c8b135b	0.016977003
72	0x3bec9800	0.0072202682
73	0x3c37a055	0.01120766
74	0xbb93d292	-0.004511186
75	0xbc56f45d	-0.013119784
76	0x3b4772fd	0.0030433529
77	0xbcb60e92	-0.022223745
78	0x3c033e3b	0.008010442
79	0xba731ec7	-0.00092743005
80	0xbc2debe3	-0.010615322
81	0xbbc7bec2	-0.006095738
82	0xbc05b6ff	-0.008161305
83	0xbc15ec47	-0.009150571
84	0xbc90cbc0	-0.01767528
85	0x3c414825	0.011796986
86	0x3abaab76	0.0014241773
87	0xbabb2c76	-0.0014280218
88	0x3c24c9ac	0.010057848
89	0xbc8a0dcb	-0.01685228
90	0xbba130a0	-0.0049191266
91	0xbcc428df	-0.02394527
92	0x3c9e7cf3	0.01934669
93	0x3d0b717e	0.03404378
94	0xbbf8e0ff	-0.007595181
95	0x3c856442	0.016283158
96	0x3d0af214	0.03392227
97	0x3cb4ad77	0.02205537
98	0x3c1b295f	0.009470313
99	0xbc9ad215	-0.018899003
100	0x3b8b45ed	0.004250279
101	0xbca1d6a1	-0.019755663
102	0xbcb43d63	-0.022001928
103	0xbce8a9e5	-0.028401325
104	0x3ced2c1a	0.028951693
105	0x3cbbfe5f	0.022948442
106	0x3ba07c6f	0.004897646
107	0xbcf8841d	-0.030336434
108	0x3c1aa344	0.00943834
109	0xb94d8215	-0.00019598783
110	0xbc648847	-0.013948507
111	0x38d61b8f	0.000102094484
112	0x3d0cf3db	0.034412246
113	0x3bed099b	0.007233811
114	0xbaad386b	-0.0013215666
115	0x3adeac2b	0.0016988566
116	0x3b4af650	0.0030969568
117	0x3cf0ffb3	0.029418802
118	0x3b314ccb	0.0027053829
119	0xbab97638	-0.0014149612
120	0x3c6fb48d	0.014630449
121	0xbb5bf222	-0.003356107
122	0xbc622522	-0.013802798
123	0x3b8366a1	0.004010037
124	0xbd0fb71f	-0.035086747
125	0x3c64ee4d	0.013972831
126	0xbbe784a0	-0.0070653707
127	0x3c940f3f	0.018073676
128	0x3ce0d9ea	0.02744766
129	0xbc18f77b	-0.009336348
130	0x3c6ee1cd	0.014580202
131	0xbc1b3843	-0.009473863
132	0xbad0e3c7	-0.0015937024
133	0x3ca5f46b	0.02025815
134	0xbc87a76f	-0.01655933
135	0xbc46298a	-0.012094865
136	0x3cac9376	0.021066409
137	0x3bb03d57	0.005378406
138	0x3b5819c5	0.0032974344
139	0x3bdc0352	0.006714263
140	0xbcf90035	-0.030395607
141	0x3d22d1e5	0.039750952
142	0xbcd4fad0	-0.025998503
143	0xbc9deb8c	-0.019277357
144	0x385bceb8	5.240619e-05
145	0x3b95655a	0.004559201
146	0xba9c20f0	-0.0011911672
147	0x3c9ec603	0.019381529
148	0x3d153a4f	0.03643256
149	0xbc70afcb	-0.01469035
150	0xba2ac1c8	-0.0006513861
151	0x3a0eb0e0	0.00054432265
152	0xbc3e7037	-0.011623434
153	0x3bd9aa97	0.0066426503
154	0xbc96c337	-0.018403633
155	0x3b1c4881	0.0023846927
156	0x3ca421ba	0.020035613
157	0x3b93434b	0.004494106
158	0xbc8ef451	-0.017450484
159	0x399c9fb7	0.00029873636
160	0x3c86f853	0.016475832
161	0xbc8fa3e6	-0.017534208
162	0x3ce5f2af	0.028069822
163	0x39a35eca	0.00031160406
164	0xbc0590d2	-0.008152204
165	0xbb5a9223	-0.0033351264
166	0x3c73144a	0.01483638
167	0xbc40cc66	-0.011767482
168	0xbb154dec	-0.002278204
169	0x3c56664a	0.013085911
170	0x3c2d2e77	0.01057016
171	0x3ceb3ee5	0.028716514
172	0x3c16e590	0.009210005
173	0x3b56b615	0.0032762338
174	0x3bb7263a	0.0055892738
175	0xbca0e3a2	-0.019639794
176	0x3c3219d1	0.010870413
177	0xbc8fc5fb	-0.01755046
178	0xbc0655ff	-0.008199214
179	0xbc039aea	-0.00803254
180	0x3b1757cd	0.0023093105
181	0x3c430de2	0.011905165
182	0x3cc5a6bf	0.024127362
183	0x3bbe623c	0.0058100503
184	0xbaae6419	-0.0013304978
185	0x3d10ee59	0.035383556
186	0x3bcccd97	0.006250094
187	0xbd001219	-0.03126726
188	0xbbd1f1a5	-0.00640698
189	0x3cd5b3c8	0.026086703
190	0x3c33cd22	0.0109742
191	0xbc1c5791	-0.009542362
192	0xbcfa7910	-0.030575305
193	0xbcc81456	-0.02442376
194	0xbb368c82	-0.0027854745
195	0xbc411374	-0.011784423
196	0x3cd1fdb8	0.025633678
197	0x3c8e0823	0.017337864
198	0x3ba73695	0.005102942
199	0xbc9eb4ca	-0.019373316
200	0xbaa7c270	-0.0012799036
201	0xbbdd97b3	-0.0067624687
202	0x3c2ad62d	0.01042704
203	0xbc12419c	-0.008926775
204	0xbc0d3eaf	-0.008620902
205	0x3cd71613	0.026255643
206	0xbc01cf85	-0.007923012
207	0x3b89d0bd	0.0042057917
208	0xbaa17b5f	-0.0012320093
209	0x3c828b4e	0.015935566
210	0xbd089b8a	-0.03335146
211	0xbc68468b	-0.014176975
212	0xbbd2cb7d	-0.006432949
213	0xbc1cccef	-0.009570344
214	0x3c5b4e1d	0.013385323
215	0x3c412bfc	0.011790272
216	0x39e09bfa	0.0004284082
217	0xbc1b1f42	-0.009467902
218	0xba449ad0	-0.00074998755
219	0xbb3339fb	-0.0027347791
220	0x3cc24cb1	0.02371821
221	0xbd0c5116	-0.034257017
222	0x3aef0308	0.0018235156
223	0x3cdca875	0.026935795
224	0xbd133bc5	-0.035945673
225	0xbcc11217	-0.023568196
226	0x3bdd17ca	0.0067472206
227	0x3c839937	0.01606427
228	0xb8bfd760	-9.1477064e-05
229	0xbcbc9747	-0.023021353
230	0xbc033aab	-0.008009593
231	0x3ba54e50	0.005044736
232	0x3d1e4882	0.038643368
233	0xbcb9a43b	-0.022661319
234	0xbc812f78	-0.015769705
235	0xbc458bf4	-0.012057293
236	0xba8153b3	-0.0009866863
237	0xb94ffa93	-0.00019834405
238	0x3beb9c47	0.0071902606
239	0x3d03af2f	0.03214949
240	0x3b722c10	0.0036952533
241	0xbce4e0e5	-0.02793927
242	0xbca126d2	-0.019671831
243	0xbc62a90a	-0.013834247
244	0x3cff57fa	0.03116988
245	0x3c829f27	0.01594503
246	0xbb83db23	-0.004023926
247	0x3bbad9e1	0.0057022427
248	0x3c795a2a	0.015219251
249	0x3c509b13	0.012732285
250	0x3c6a133b	0.014286811
251	0xbd0026b4	-0.03128691
252	0x3c63495a	0.013872469
253	0xbbeef5df	-0.0072924937
254	0xbce3584a	-0.02775206
255	0x3b61b0c3	0.0034437634

action_model._discrete_distribution.branches.0.bias f4 [5]
0	0x00000000	0.0
1	0x00000000	0.0
2	0x00000000	0.0
3	0x00000000	0.0
4	0x00000000	0.0

action_model._discrete_distribution.branches.0.weight f4 [5, 128]
0	0x3c344f73	0.01100527
1	0x3c06dab7	0.008230857
2	0xbbf45a8f	-0.0074570845
3	0xbcc8b5f1	-0.024500819
4	0x3b5dc1d0	0.0033837445
5	0x3bfe78c8	0.007765863
6	0xbb9a540f	-0.0047097276
7	0xbb09025d	-0.002090595
8	0xbc1df9cf	-0.009642079
9	0x3bb362f6	0.0054744435
10	0x3b0bde1e	0.002134211
11	0x3a8ebfd9	0.0010890915
12	0xbba215bb	-0.004946438
13	0x3a00fed8	0.0004920787
14	0x3c1117ef	0.008855804
15	0xb99b241f	-0.00029590816
16	0xbc524f33	-0.012836265
17	0xbc018762	-0.007905813
18	0x3c27fa2b	0.010252516
19	0x3bf86442	0.007580311
20	0xbb88b54c	-0.004172003
21	0x3b36cbd0	0.0027892478
22	0x3b8106fc	0.0039376
23	0x3b7ead93	0.0038860783
24	0xbbe889f8	-0.0070965253
25	0xbb2a86b4	-0.002602023
26	0xbadb91d7	-0.0016751838
27	0x3a0db14e	0.00054051436
28	0xbc8486b8	-0.01617752
29	0xba919c8e	-0.0011109279
30	0x3c344f92	0.011005299
31	0xbca78543	-0.020449286
32	0xbaebc9d0	-0.0017989222
33	0x3b6fb0ef	0.0036573966
34	0x3a953409	0.0011383306
35	0xbafad2bb	-0.0019136289
36	0xbb93bd72	-0.0045086676
37	0xbc0cb6ba	-0.008588487
38	0x3b3ee2ae	0.002912681
39	0x3b8697d1	0.0041074534
40	0x3c4eca33	0.01262145
41	0x39df9e5a	0.00042651856
42	0xbb5d7408	-0.0033791084
43	0xbb02455f	-0.0019877774
44	0xbc42da14	-0.011892814
45	0x3bd1c7fd	0.0064020143
46	0xbcd6e13a	-0.026230443
47	0x3bc91d42	0.006137521
48	0x3aac6abf	0.0013154371
49	0x3b929dd5	0.0044743815
50	0x3c41454b	0.011796306
51	0xbc6d05db	-0.014466728
52	0xbb51db98	-0.0032021757
53	0xbbfe611a	-0.0077630403
54	0x3bf1acd5	0.0073753395
55	0xbbed102a	-0.007234593
56	0x3899ce98	7.3340896e-05
57	0xbb84324d	-0.0040343166
58	0xba3ebda8	-0.0007276186
59	0xbaadd5ed	-0.0013262607
60	0xbba123b9	-0.0049175886
61	0xbb9ffce8	-0.0048824437
62	0x3ac85a73	0.0015285745
63	0xbb6f71d0	-0.0036536343
64	0xbb32f4c6	-0.002730654
65	0xbbcd9870	-0.0062742755
66	0x3c04449d	0.008072999
67	0x3be33b80	0.006934583
68	0xba1637c3	-0.0005730355
69	0xbb8a738d	-0.0042252005
70	0xbb820b2f	-0.0039686183
71	0xbca73b9e	-0.02041417
72	0x3c12c24b	0.008957456
73	0xbbae1be7	-0.005313385
74	0xbc4ba94a	-0.012430498
75	0xb95f5b3d	-0.00021300926
76	0x3c2afd25	0.010436331
77	0xbc917788	-0.017757192
78	0xbc91c567	-0.017794324
79	0xbc6c5f47	-0.014427013
80	0xbac6b0c7	-0.0015158885
81	0x3bb15b19	0.005412471
82	0xba37d3c6	-0.00070124527
83	0xbab6cdc9	-0.0013946827
84	0xbb415b77	-0.002950398
85	0xbc037e91	-0.008025781
86	0xbb335df4	-0.0027369233
87	0xbc4a96f2	-0.01236509
88	0x3be83da2	0.0070874253
89	0xbb3bbd14	-0.0028646635
90	0x3bd5771b	0.0065144426
91	0x3a39dc73	0.00070900394
92	0xbc435a79	-0.011923426
93	0x3aeb1158	0.0017934246
94	0x3a2bf710	0.00065599475
95	0xbb406d2d	-0.002936195
96	0xbb8b646f	-0.004253916
97	0xbc11c48a	-0.008896956
98	0x3c0c7fd1	0.008575396
99	0x3c10d373	0.008839476
100	0xbabbf7a2	-0.0014340768
101	0xbbc8c877	-0.006127413
102	0x3c0b8547	0.0085156625
103	0xbc19c555	-0.0093854265
104	0x3ba66b74	0.0050787274
105	0x3b3ceb05	0.0028826606
106	0x3bff2230	0.007786058
107	0xbc58a780	-0.013223529
108	0xbaab8d57	-0.0013088387
109	0xbca844f3	-0.02054069
110	0x3b873485	0.004126134
111	0x3c2341be	0.009964405
112	0xbbf3c59d	-0.007439329
113	0x3bf4e010	0.0074729994
114	0x3ab6c27f	0.0013943462
115	0x3b814e2b	0.003946086
116	0x3b8839f0	0.0041572973
117	0xbbf7ab8d	-0.0075582922
118	0xbb5550b3	-0.0032549321
119	0x3cad6c9d	0.021169955
120	0x3ca4f56b	0.020136556
121	0x3b25028e	0.0025178525
122	0xbc850658	-0.016238376
123	0xbc903333	-0.017602539
124	0x3b092453	0.0020926192
125	0xb9887595	-0.00026027547
126	0xbba0b79a	-0.0049046995
127	0x3c02eedd	0.00799152
128	0x3c55bcbb	0.013045485
129	0xb632ad56	-2.6624962e-06
130	0xbb88c5ba	-0.0041739615
131	0x3c1ad267	0.009449578
132	0x3b97a411	0.0046277125
133	0x3bd24cef	0.0064178626
134	0xbcb21d82	-0.021742586
135	0xbc03e377	-0.008049837
136	0x3bfa9aab	0.0076478324
137	0x3bb5f78e	0.0055531925
138	0xbc42b184	-0.011883143
139	0x3bd292d0	0.006426193
140	0xbb8714f0	-0.004122369
141	0x3c19b646	0.009381836
142	0x3ac3ca8e	0.0014937685
143	0x3c30840d	0.010773671
144	0x3aa7a9bb	0.0012791672
145	0xbb537ce0	-0.0032270476
146	0x3bb8d2bf	0.0056403573
147	0x3c5ea112	0.013588207
148	0x3b8de6f3	0.00433051
149	0xbc8dfa51	-0.017331274
150	0x3bacbd7a	0.005271611
151	0xbb1e08d7	-0.0024114156
152	0x3b932d3f	0.0044914777
153	0x3c1c1d09	0.009528407
154	0xbc17ab8a	-0.009257207
155	0xbc1b69b4	-0.009485651
156	0x3bba1a53	0.0056794076
157	0xbbb1dd4a	-0.005427991
158	0xbc3a4168	-0.011368133
159	0xbb69aad2	-0.0035654795
160	0x3c0d5f93	0.008628744
161	0xbae71033	-0.0017628729
162	0x3b5cf82b	0.0033717256
163	0xbc96a095	-0.018387118
164	0x3c65aca3	0.014018211
165	0x3b981734	0.004641438
166	0xba67eb10	-0.0008846978
167	0xbc01c76e	-0.007921083
168	0xbbf385b5	-0.0074317106
169	0xbbbfc198	-0.0058519356
170	0x3c46e8eb	0.012140493
171	0xbab2727b	-0.001361444
172	0x3b76002d	0.0037536726
173	0x39b75258	0.0003496583
174	0xbbb8ac86	-0.005635801
175	0xbc029512	-0.007970111
176	0xbc5050d7	-0.012714586
177	0x3a8aad26	0.0010580167
178	0x3a471981	0.0007595048
179	0x3c136987	0.008997328
180	0x3b687dcd	0.0035475374
181	0x3b4df473	0.003142622
182	0xbb8f1058	-0.004365962
183	0x3b09c0cb	0.0021019455
184	0xbbc3d6b7	-0.0059765237
185	0x3c7a0220	0.015259296
186	0x3ba5f00e	0.005064017
187	0xbc992e36	-0.018698793
188	0xbba566e0	-0.005047664
189	0x3b49fc3a	0.0030820505
190	0x3b3fd33c	0.0029270193
191	0xbb761b73	-0.0037552982
192	0xbaaea231	-0.0013323483
193	0x3c4efe08	0.012633808
194	0xba416abd	-0.0007378271
195	0xba1f878f	-0.00060855685
196	0xbc067f63	-0.008209082
197	0xbb5ca5bd	-0.0033668124
198	0x3b9a64cf	0.0047117244
199	0x3bacfd26	0.005279201
200	0xbaf61e52	-0.0018777347
201	0xbb9bc25b	-0.0047533936
202	0x3b95c327	0.004570383
203	0x3bb8f62a	0.0056445794
204	0xbc213e1d	-0.009841469
205	0xb9c3d5c0	-0.00037352555
206	0x3bd130ab	0.0063839755
207	0xbb4eff63	-0.0031585328
208	0xbc3c146b	-0.011479477
209	0xbace3527	-0.0015732393
210	0x3be1acd8	0.0068870597
211	0x3c8c19db	0.017102173
212	0x3bba659d	0.005688383
213	0xbacb51ae	-0.0015512013
214	0x3af14252	0.0018406606
215	0x3994505d	0.00028288635
216	0x3bd44823	0.006478326
217	0x3c24d4ef	0.010060533
218	0x3ca74e53	0.02042309
219	0x3c29788d	0.010343683
220	0xbbca7197	-0.0061780917
221	0xbbaa52ef	-0.0051978747
222	0xbb1e67ac	-0.002417068
223	0xbc02e7a5	-0.007989799
224	0xbb168e9f	-0.0022973192
225	0x3b2209a3	0.0024724982
226	0xbc5e20ef	-0.013557657
227	0x3c15b764	0.009137962
228	0xbaf5e8a2	-0.0018761347
229	0xbbaab193	-0.005209157
230	0x3c804333	0.015657043
231	0xbaa6ac85	-0.001271621
232	0x3b8437e1	0.0040349816
233	0x3c34a1b7	0.011024884
234	0xbc00a3d7	-0.007851562
235	0xbc47eaf5	-0.012202014
236	0x3b0022d7	0.0019552016
237	0xbbed9e0a	-0.0072515057
238	0xb9e8e36a	-0.00044419925
239	0x3a14528a	0.0005658051
240	0x3b85192e	0.0040618395
241	0xba894293	-0.0010472111
242	0x3a93ed1e	0.0011285876
243	0x3c73ff2d	0.014892382
244	0xbc057f34	-0.008148003
245	0x3c5a9070	0.013340101
246	0xbb7d478a	-0.0038647377
247	0xbb30a20b	-0.0026952054
248	0xbb9bf65f	-0.0047595943
249	0xbaa0b312	-0.0012260398
250	0xbaf0d9c0	-0.0018375441
251	0x3a15bfb7	0.00057124667
252	0x3c4a3aa9	0.012343087
253	0x3bf02f12	0.00732983
254	0x3ca6ceee	0.020362344
255	0x3c1f827f	0.009735703

network_body._body_endoder.seq_layers.0.bias f4 [128]
0	0x00000000	0.0
1	0x00000000	0.0
2	0x00000000	0.0
3	0x00000000	0.0
4	0x00000000	0.0
5	0x00000000	0.0
6	0x00000000	0.0
7	0x00000000	0.0
8	0x00000000	0.0
9	0x00000000	0.0
10	0x00000000	0.0
11	0x00000000	0.0
12	0x00000000	0.0
13	0x00000000	0.0
14	0x00000000	0.0
15	0x00000000	0.0
16	0x00000000	0.0
17	0x00000000	0.0
18	0x00000000	0.0
19	0x00000000	0.0
20	0x00000000	0.0
21	0x00000000	0.0
22	0x00000000	0.0
23	0x00000000	0.0
24	0x00000000	0.0
25	0x00000000	0.0
26	0x00000000	0.0
27	0x00000000	0.0
28	0x00000000	0.0
29	0x00000000	0.0
30	0x00000000	0.0
31	0x00000000	0.0
32	0x00000000	0.0
33	0x00000000	0.0
34	0x00000000	0.0
35	0x00000000	0.0
36	0x00000000	0.0
37	0x00000000	0.0
38	0x00000000	0.0
39	0x00000000	0.0
40	0x00000000	0.0
41	0x00000000	0.0
42	0x00000000	0.0
43	0x00000000	0.0
44	0x00000000	0.0
45	0x00000000	0.0
46	0x00000000	0.0
47	0x00000000	0.0
48	0x00000000	0.0
49	0x00000000	0.0
50	0x00000000	0.0
51	0x00000000	0.0
52	0x00000000	0.0
53	0x00000000	0.0
54	0x00000000	0.0
55	0x00000000	0.0
56	0x00000000	0.0
57	0x00000000	0.0
58	0x00000000	0.0
59	0x00000000	0.0
60	0x00000000	0.0
61	0x00000000	0.0
62	0x00000000	0.0
63	0x00000000	0.0
64	0x00000000	0.0
65	0x00000000	0.0
66	0x00000000	0.0
67	0x00000000	0.0
68	0x00000000	0.0
69	0x00000000	0.0
70	0x00000000	0.0
71	0x00000000	0.0
72	0x00000000	0.0
73	0x00000000	0.0
74	0x00000000	0.0
75	0x00000000	0.0
76	0x00000000	0.0
77	0x00000000	0.0
78	0x00000000	0.0
79	0x00000000	0.0
80	0x00000000	0.0
81	0x00000000	0.0
82	0x00000000	0.0
83	0x00000000	0.0
84	0x00000000	0.0
85	0x00000000	0.0
86	0x00000000	0.0
87	0x00000000	0.0
88	0x00000000	0.0
89	0x00000000	0.0
90	0x00000000	0.0
91	0x00000000	0.0
92	0x00000000	0.0
93	0x00000000	0.0
94	0x00000000	0.0
95	0x00000000	0.0
96	0x00000000	0.0
97	0x00000000	0.0
98	0x00000000	0.0
99	0x00000000	0.0
100	0x00000000	0.0
101	0x00000000	0.0
102	0x00000000	0.0
103	0x00000000	0.0
104	0x00000000	0.0
105	0x00000000	0.0
106	0x00000000	0.0
107	0x00000000	0.0
108	0x00000000	0.0
109	0x00000000	0.0
110	0x00000000	0.0
111	0x00000000	0.0
112	0x00000000	0.0
113	0x00000000	0.0
114	0x00000000	0.0
115	0x00000000	0.0
116	0x00000000	0.0
117	0x00000000	0.0
118	0x00000000	0.0
119	0x00000000	0.0
120	0x00000000	0.0
121	0x00000000	0.0
122	0x00000000	0.0
123	0x00000000	0.0
124	0x00000000	0.0
125	0x00000000	0.0
126	0x00000000	0.0
127	0x00000000	0.0

network_body._body_endoder.seq_layers.0.weight f4 [128, 1]
0	0xbf0c8ee9	-0.54905564
1	0xbfb82ccb	-1.438867
2	0x3fb78adc	1.4339252
3	0x3f9bd12b	1.2173208
4	0xbf833db6	-1.0253208
5	0x3fb9ec1c	1.452518
6	0x3e84ea61	0.25960067
7	0xbfadc25b	-1.3574938
8	0x3f093f72	0.53612435
9	0xbfbb0e3a	-1.4613717
10	0x3ead8407	0.3388979
11	0xbe324df2	-0.17412546
12	0x3f496846	0.78674734
13	0x3e88f6ec	0.26750886
14	0x3eea7c68	0.4579804
15	0xbfa52eca	-1.2904904
16	0xbf044a6d	-0.51676065
17	0x3f2d2f12	0.6764995
18	0xbfa24f4a	-1.2680447
19	0x3e9ca177	0.30591938
20	0xbfffe9ae	-1.9993188
21	0xbf91fdf9	-1.1405631
22	0xbf82ddc2	-1.0223925
23	0x3f947f2d	1.1601311
24	0xbeb79395	-0.35854784
25	0xbf9fcf58	-1.2485151
26	0xbfc124a1	-1.5089303
27	0xbffeb650	-1.9899387
28	0xbed88e3a	-0.4229601
29	0xbed7e2c1	-0.42165187
30	0xbebf9a93	-0.37422618
31	0x3f67958d	0.9046257
32	0xbf54bc73	-0.8310005
33	0x3f9d061d	1.2267491
34	0x3ee7ae2f	0.4525008
35	0xbf941fdb	-1.1572222
36	0x3f2caba6	0.67449415
37	0xbfda84bf	-1.7071761
38	0x3f46ab6d	0.77605325
39	0xbf5431f4	-0.8288872
40	0xbf2f70d1	-0.6853152
41	0xbfb39dbd	-1.4032513
42	0x3edd7982	0.43256766
43	0xbf98cc12	-1.1937277
44	0xbf4de319	-0.8042465
45	0x40132b23	2.2995079
46	0x3d0485dd	0.032354224
47	0x400d75ee	2.2103229
48	0xbf77c951	-0.9679156
49	0xbfc64488	-1.5489664
50	0x3e93514f	0.2877297
51	0x3ea12339	0.31472185
52	0xbf3f07e4	-0.74621415
53	0x3fa9e00d	1.32715
54	0xbe7bf439	-0.24604882
55	0x3ff3e988	1.9055643
56	0xbf1b8bcf	-0.60760206
57	0x3f74eb49	0.95671517
58	0x3f2d91c0	0.6780052
59	0xbf54669b	-0.82969064
60	0xbd0c4ddf	-0.03425395
61	0xc007679e	-2.1156993
62	0x3f4a73d8	0.79083014
63	0xbe36e673	-0.17861347
64	0xbf9bac40	-1.2161942
65	0xbf47ec22	-0.78094685
66	0x3f6e575b	0.93102044
67	0x3eae3f63	0.34032735
68	0x3da49c17	0.08037584
69	0xbfd9530d	-1.697847
70	0x3e930b1a	0.28719407
71	0xbf71917e	-0.9436263
72	0x3e1a34e9	0.15059246
73	0x3e92ee22	0.28697306
74	0x3ebdb209	0.37049893
75	0xbe93eb5c	-0.28890502
76	0x3f97b467	1.185193
77	0x408369ed	4.1066804
78	0x3f9189aa	1.1370137
79	0xbf8e709f	-1.1128119
80	0xbf73e88f	-0.9527673
81	0xbf38b6f6	-0.72154176
82	0xbf770edf	-0.96507066
83	0x3e907297	0.28212425
84	0x3dcdf699	0.100568004
85	0x3f6940db	0.91114587
86	0x3fbc5cb7	1.4715794
87	0xbd739301	-0.059466366
88	0xbdce831f	-0.10083603
89	0x3f2798fd	0.65467817
90	0xbebb7502	-0.36612707
91	0x3f6a54d8	0.9153571
92	0xbfa9c0cc	-1.3261962
93	0x3e87fbb6	0.26559228
94	0xbfa07fff	-1.2539061
95	0x3effae0d	0.49937478
96	0xbf1b1967	-0.60585636
97	0xbf98b018	-1.192874
98	0xbec947d2	-0.39312607
99	0xbf257181	-0.6462632
100	0x3fc1c077	1.5136861
101	0x3e87691e	0.26447386
102	0x3fa9fba3	1.3279918
103	0xbf07c3a0	-0.53032875
104	0x3f8e1ee7	1.1103181
105	0x3fce0b73	1.6097244
106	0xbf6af80b	-0.91784734
107	0xbf74836d	-0.9551304
108	0xbcc7fb1a	-0.024411727
109	0xbee7e5d4	-0.45292532
110	0x3fe1490c	1.7600417
111	0xbfc9993a	-1.5749886
112	0x3f9463cd	1.1592957
113	0xbf0246e8	-0.50889444
114	0xbe15e310	-0.14637399
115	0xbfe3d8f5	-1.7800585
116	0x3fdb12fe	1.7115171
117	0x3ea3e1c5	0.32008186
118	0x3f4f4f50	0.80980396
119	0x3f395d34	0.7240784
120	0xbf1fb8c4	-0.62391305
121	0x3fd98ea1	1.6996652
122	0x3ff41fc9	1.90722
123	0xbf5b9ab8	-0.8578296
124	0x3facdc48	1.3504725
125	0x3f0c4d86	0.5480579
126	0x3f42a531	0.7603331
127	0xbbdb9dca	-0.0067021595

network_body._body_endoder.seq_layers.2.bias f4 [128]
0	0x00000000	0.0
1	0x00000000	0.0
2	0x00000000	0.0
3	0x00000000	0.0
4	0x00000000	0.0
5	0x00000000	0.0
6	0x00000000	0.0
7	0x00000000	0.0
8	0x00000000	0.0
9	0x00000000	0.0
10	0x00000000	0.0
11	0x00000000	0.0
12	0x00000000	0.0
13	0x00000000	0.0
14	0x00000000	0.0
15	0x00000000	0.0
16	0x00000000	0.0
17	0x00000000	0.0
18	0x00000000	0.0
19	0x00000000	0.0
20	0x00000000	0.0
21	0x00000000	0.0
22	0x00000000	0.0
23	0x00000000	0.0
24	0x00000000	0.0
25	0x00000000	0.0
26	0x00000000	0.0
27	0x00000000	0.0
28	0x00000000	0.0
29	0x00000000	0.0
30	0x00000000	0.0
31	0x00000000	0.0
32	0x00000000	0.0
33	0x00000000	0.0
34	0x00000000	0.0
35	0x00000000	0.0
36	0x00000000	0.0
37	0x00000000	0.0
38	0x00000000	0.0
39	0x00000000	0.0
40	0x00000000	0.0
41	0x00000000	0.0
42	0x00000000	0.0
43	0x00000000	0.0
44	0x00000000	0.0
45	0x00000000	0.0
46	0x00000000	0.0
47	0x00000000	0.0
48	0x00000000	0.0
49	0x00000000	0.0
50	0x00000000	0.0
51	0x00000000	0.0
52	0x00000000	0.0
53	0x00000000	0.0
54	0x00000000	0.0
55	0x00000000	0.0
56	0x00000000	0.0
57	0x00000000	0.0
58	0x00000000	0.0
59	0x00000000	0.0
60	0x00000000	0.0
61	0x00000000	0.0
62	0x00000000	0.0
63	0x00000000	0.0
64	0x00000000	0.0
65	0x00000000	0.0
66	0x00000000	0.0
67	0x00000000	0.0
68	0x00000000	0.0
69	0x00000000	0.0
70	0x00000000	0.0
71	0x00000000	0.0
72	0x00000000	0.0
73	0x00000000	0.0
74	0x00000000	0.0
75	0x00000000	0.0
76	0x00000000	0.0
77	0x00000000	0.0
78	0x00000000	0.0
79	0x00000000	0.0
80	0x00000000	0.0
81	0x00000000	0.0
82	0x00000000	0.0
83	0x00000000	0.0
84	0x00000000	0.0
85	0x00000000	0.0
86	0x00000000	0.0
87	0x00000000	0.0
88	0x00000000	0.0
89	0x00000000	0.0
90	0x00000000	0.0
91	0x00000000	0.0
92	0x00000000	0.0
93	0x00000000	0.0
94	0x00000000	0.0
95	0x00000000	0.0
96	0x00000000	0.0
97	0x00000000	0.0
98	0x00000000	0.0
99	0x00000000	0.0
100	0x00000000	0.0
101	0x00000000	0.0
102	0x00000000	0.0
103	0x00000000	0.0
104	0x00000000	0.0
105	0x00000000	0.0
106	0x00000000	0.0
107	0x00000000	0.0
108	0x00000000	0.0
109	0x00000000	0.0
110	0x00000000	0.0
111	0x00000000	0.0
112	0x00000000	0.0
113	0x00000000	0.0
114	0x00000000	0.0
115	0x00000000	0.0
116	0x00000000	0.0
117	0x00000000	0.0
118	0x00000000	0.0
119	0x00000000	0.0
120	0x00000000	0.0
121	0x00000000	0.0
122	0x00000000	0.0
123	0x00000000	0.0
124	0x00000000	0.0
125	0x00000000	0.0
126	0x00000000	0.0
127	0x00000000	0.0

network_body._body_endoder.seq_layers.2.weight f4 [128, 128]
0	0xbd13b05a	-0.036056854
1	0x3bae66b5	0.005322302
2	0xbd9e746b	-0.07737049
3	0xbd2c0497	-0.041996565
4	0x3caa5d2d	0.020796383
5	0x3d99275d	0.07478211
6	0xbd2e5e59	-0.042570446
7	0x3ba8ee32	0.005155348
8	0xbcbca774	-0.023029067
9	0x3dd1ebe0	0.10250068
10	0xbc713b63	-0.014723632
11	0xbb793959	-0.0038028567
12	0xbc965e0f	-0.018355398
13	0xbded22b9	-0.115788884
14	0xbc258195	-0.010101696
15	0xbd153ca1	-0.036434773
16	0x3e2fd0fc	0.17169565
17	0x3e6a4c14	0.22880584
18	0x3c088da0	0.008334547
19	0x3dbccfa4	0.09219292
20	0x3ca45ce4	0.020063825
21	0x3d9f299c	0.07771608
22	0xbe0dafa9	-0.1383654
23	0xbca89f62	-0.020583812
24	0xbe0aa383	-0.13538937
25	0xbdca0a98	-0.09865302
26	0x3d75d185	0.060014267
27	0x3dcf90f9	0.10135073
28	0xbd60762a	-0.05480019
29	0xbd70428a	-0.058657207
30	0x3e09de48	0.134637
31	0x3cd3c851	0.025852354
32	0xbc80a078	-0.015701517
33	0x3d88d896	0.066819355
34	0x3e1f298d	0.15543194
35	0x3db9dde5	0.09075526
36	0xbdcfaf67	-0.10140877
37	0x3bba8373	0.0056919395
38	0xbd328046	-0.043579362
39	0xbd1ea452	-0.038730927
40	0x3e19e697	0.1502937
41	0xbe52ded8	-0.2059282
42	0x3d8063f0	0.062690616
43	0xbdf0399a	-0.117297366
44	0xbd54338e	-0.05180698
45	0x3d0ebe87	0.03484967
46	0x3bd32887	0.00644404
47	0x3d3614fe	0.044453613
48	0x3de65c87	0.11248117
49	0x3d8151bc	0.06314418
50	0x3da6c901	0.08143807
51	0xbda237d8	-0.079208076
52	0x3d506e4a	0.05088643
53	0xbdc8287b	-0.09773346
54	0xbd3d7203	-0.04625131
55	0x3d1ea886	0.038734935
56	0xbe1bd2da	-0.15217152
57	0x3c5589cd	0.013033343
58	0x3d9250a4	0.07144287
59	0x3da00d29	0.0781501
60	0xbccec933	-0.025242424
61	0x3e1f043f	0.15528964
62	0xbbf634f2	-0.007513636
63	0x3e1090a7	0.1411768
64	0xbc511f9f	-0.012763887
65	0xbdb80de3	-0.08987024
66	0xbd100de4	-0.035169497
67	0x3bf7a0ae	0.0075569963
68	0xbc3cf9da	-0.011534179
69	0x3dfac242	0.12244083
70	0xbe12400d	-0.14282246
71	0xbd9f6583	-0.07783034
72	0x3caa17f0	0.020763367
73	0xbd39c0ff	-0.04535007
74	0xbdc8629e	-0.09784435
75	0xbdcc11b3	-0.09964313
76	0x3bbed2c8	0.005823467
77	0x3d81b3c2	0.06333114
78	0x3cec97c0	0.028880954
79	0xbd9dbed1	-0.07702411
80	0x3c9b1e3e	0.018935319
81	0xbd9d72a8	-0.076878846
82	0xbbef9dc0	-0.0073125064
83	0x3d8d5c97	0.06902426
84	0xb8648eea	-5.4492535e-05
85	0x3d863cce	0.06554566
86	0xbc5c1d3f	-0.013434707
87	0xbd51626f	-0.051119264
88	0xbd4afc7e	-0.0495572
89	0xbcc16c28	-0.023611143
90	0x3da0d20c	0.07852563
91	0x3d9c03e0	0.076179266
92	0xbd3c54b6	-0.045979224
93	0x3c85a7b4	0.016315319
94	0xbdfcb21b	-0.123386584
95	0x3cb19b81	0.021680595
96	0xbcd53a83	-0.026028877
97	0x3d10f1e6	0.035386942
98	0x3d836fb5	0.06417791
99	0xbcbc65c6	-0.022997748
100	0x3cb0025b	0.021485498
101	0x3dfc39d6	0.12315719
102	0x3da145c3	0.07874634
103	0xbd9d5d31	-0.076837905
104	0xbc8d2afb	-0.017232409
105	0xbd19dd87	-0.03756478
106	0x3d8a0657	0.067394905
107	0xbdaa99e6	-0.08330135
108	0x3dc7414c	0.09729251
109	0x3c8faa38	0.017537221
110	0x3acce000	0.0015630722
111	0x3ce535d3	0.027979767
112	0xbdbb2ede	-0.091397986
113	0xbb0f834c	-0.0021898327
114	0x3d87a5ec	0.06623444
115	0xbb2f7015	-0.0026769687
116	0xbd0dc051	-0.034607235
117	0xbcc85496	-0.024454396
118	0xbad19dfd	-0.0015992519
119	0x3a37e1ef	0.0007014563
120	0x3d460c2f	0.048351463
121	0xbc88939e	-0.016671952
122	0x3d8deb48	0.06929642
123	0xbc2f53bb	-0.010701115
124	0x3d34b99f	0.044122335
125	0x3e133fa8	0.14379752
126	0xbd85dca4	-0.065362245
127	0xbd9b66fd	-0.07588003
128	0x3c89b036	0.016807657
129	0xbe1a4bf2	-0.15068033
130	0xbcf40ae6	-0.029790353
131	0xbc8d0f7e	-0.017219301
132	0x3d854836	0.06507914
133	0x3d0d10f9	0.034440015
134	0x3d08d4a7	0.033405926
135	0x3b397616	0.0028299144
136	0xbd276f91	-0.040877882
137	0x3d0ab49b	0.033863645
138	0x3bdbb3bb	0.006704775
139	0xbd708670	-0.05872196
140	0x3e017e6b	0.12645881
141	0xbe262357	-0.16224419
142	0x3d94f9fd	0.07274244
143	0x3e05efbe	0.13079736
144	0xbd0aec3e	-0.033916704
145	0xbcdf753c	-0.027277581
146	0x3d2a9be4	0.041652575
147	0xbe161bae	-0.14658996
148	0xbe162631	-0.14663006
149	0x3e1318d0	0.14364934
150	0x3cc7f7a1	0.02441007
151	0xbc81a215	-0.015824357
152	0xbd630c51	-0.055431668
153	0xba9ea468	-0.001210344
154	0xbc65a53a	-0.014016444
155	0x3c500c08	0.012698181
156	0xbd5112f7	-0.051043477
157	0x3db3028c	0.0874072
158	0x3d20ed6a	0.039288916
159	0xbc4895cd	-0.012242747
160	0x3dacfcf3	0.08446684
161	0x3d74148e	0.059589915
162	0x3cc623dd	0.024187023
163	0xbca31184	-0.019905813
164	0x3d761ff8	0.06008908
165	0xbd7b0785	-0.061286468
166	0xbc883ee4	-0.016631551
167	0x3d61afe5	0.055099387
168	0x3d53b8bc	0.05168985
169	0xbd6c5ca1	-0.057705525
170	0xbe0dd23a	-0.13849726
171	0xbd4ab2bb	-0.049486857
172	0xbcd15368	-0.025552467
173	0xbd2e5280	-0.042559147
174	0x3e09176f	0.13387845
175	0xbd14b7a0	-0.03630793
176	0x3d9472f2	0.072484866
177	0xbd7cee2a	-0.06175057
178	0x3d3a1b68	0.045436293
179	0xbd8c667a	-0.06855483
180	0xbdc2745c	-0.0949485
181	0xbdff54ce	-0.12467347
182	0xbd9ad803	-0.07560732
183	0xbce894af	-0.02839121
184	0x3e417f7f	0.18896292
185	0xbdad0c27	-0.084495835
186	0xbb0549c3	-0.0020338155
187	0x3e1c1feb	0.1524655
188	0xbdd02f28	-0.10165244
189	0x3c9034bd	0.017603273
190	0x3d80d091	0.06289781
191	0x3e276679	0.16347684
192	0xbd9ccac1	-0.0765586
193	0x3ded963a	0.11600919
194	0x3d55b91b	0.052178483
195	0x3d29c86a	0.041450895
196	0xbd7a0024	-0.06103529
197	0x3dc2d0b0	0.0951246
198	0xbde352d2	-0.11099781
199	0xbd9a8adf	-0.07546019
200	0x3d2e5786	0.042563938
201	0xbd9bdd2e	-0.07610546
202	0x3d0e102a	0.034683384
203	0xbd6a5534	-0.057210162
204	0xbe505f47	-0.20348845
205	0xbcae1b90	-0.021253377
206	0x3e11d369	0.14240803
207	0xbda216f2	-0.07914533
208	0x3ce495f1	0.027903529
209	0x3d44f9a1	0.048089627
210	0x3e042b4e	0.12907144
211	0xbd86f719	-0.06590099
212	0x3c5f1256	0.0136152115
213	0x3d70bfe8	0.058776766
214	0xbd970485	-0.07373909
215	0xb9939117	-0.00028146125
216	0xbe885fda	-0.2663563
217	0xbc82b616	-0.015955966
218	0x3ce58ed3	0.028022205
219	0x3da5aaa8	0.08089191
220	0x3d9fb929	0.07798988
221	0xbdf700a7	-0.12060671
222	0x3deae514	0.114694744
223	0x3c7906b7	0.015199355
224	0x3d59a176	0.053132497
225	0xbe17c889	-0.14822592
226	0xbdd86784	-0.10566619
227	0xbe3f046b	-0.18654029
228	0x3cd34d96	0.025793832
229	0x3da7fce8	0.08202535
230	0x3e5349c2	0.20633605
231	0xbb7666e5	-0.003759795
232	0x3dd65741	0.10465861
233	0xbe0cf1ad	-0.13764067
234	0xbcf0446c	-0.029329501
235	0xbddf2529	-0.108957596
236	0xbd86f2e1	-0.06589294
237	0x3e568a82	0.20951274
238	0xbd83a521	-0.0642798
239	0x3c9b9a74	0.018994547
240	0x3d1920a0	0.03738463
241	0x3dad9dd6	0.084773704
242	0x3df6ebd6	0.12056701
243	0xbc70e535	-0.014703085
244	0x3dd627f2	0.10456838
245	0x3cc22b7c	0.023702376
246	0x3d229842	0.039695986
247	0x3c13a777	0.009012095
248	0x3e1b29f6	0.15152726
249	0xbdeb719b	-0.11496278
250	0x3e088e9e	0.13335654
251	0xbc271179	-0.010197037
252	0x3db5be84	0.088742286
253	0xbcf98030	-0.030456632
254	0xbe3ff5a5	-0.1874605
255	0x3cd74c63	0.026281541
