results/TestPeople25Novembre/MoveToGoal/MoveToGoal-499983.pt (torch, 597047 bytes, 40 tensors)

discrete_act_size_vector f4 [1, 2]
00000000: 0000 4040 0000 4040
3.0 3.0

network_body._body_endoder.seq_layers.0.weight f4 [128, 55]
00000000: ef91 d63d e821 2bbd 7666 a73c f999 293e
00000010: a5db 11be bf32 f83d 85c2 78bd 0136 0b3e
00000020: 509d 413e 1bc9 a53d 9a2c 44bc 305e b53d
00000030: 4490 6cbe 31bd 003e 62f7 db3d e723 043e
00000040: d4e3 903e a89c 5dbe 811f 803e eda1 14be
00000050: 0b67 633d 4521 11be 92d3 f83c b776 1d3e
00000060: 59bf 993e 959c 493e 00dd 6fbe 6cd4 cabd
00000070: 93ce 83be fe5a ec3d 11bd b83d 4599 133c
00000080: c325 a2bd 93a1 58be 12ba 803e 47aa ea3c
00000090: 0017 d4bd 4b2d f13c 55c7 b2bd 9f08 153d
000000a0: 6e80 be3c 9819 9f3e 4abd dbbd d587 fdbc
000000b0: 47cd 8fbd bcd9 a6bd 2fc9 13be e7f2 0d3d
000000c0: 8a7b 1a3c b248 3d3b 4f44 3a3b dbb1 77bd
000000d0: d7b3 96bd 4c4b eb3d 92d6 84be 2413 6a3a
000000e0: 9685 713e 8f23 29be 6620 9bbe 5f6d 403e
000000f0: ca1c 023d 97d0 593d 289b f23d 1be5 99bc
00000100: 399c e53d 1a59 b0bd 3d97 363e d9ee 7f3d
00000110: 92fc a53d 1c0d 1f3e ced2 31be 8e01 493e
00000120: c19d 6dbe 983d 1dbd 3517 5a3d 357d 0ebe
00000130: 1188 183e 52c7 043e 2192 95bc cbc8 5d3d
00000140: 2fea 51bd 1e90 6b3e 8fe2 c3bc 839a 993d
00000150: da79 0e3e 3ff1 783d f35c 463d 51bc 513d
00000160: b29f c13d b7d4 883d 410d 053e e89e 0dbe
00000170: 1c92 313d 49a7 643e 0147 7f3e 433b 363e
00000180: 0412 453e e5ee ba3d f733 49be ebfd 77be
00000190: c3c3 923d 220c 233e 78bf ea3d 7fde 0bbc
000001a0: df6b 87be 719c dabd 0663 3f3d 8554 863d
000001b0: 36d4 71bc 4bb0 bcbc cc91 953d 7ecc 6cbd
000001c0: b2b6 c93d e6fd 3cbe c5a4 05bd fb5b 703e
000001d0: b269 58be 2be9 9b3e 727d 66bc e788 e1bd
000001e0: e44a adbc 91d1 d4be c0f8 c6bd 2811 a3bd
000001f0: 9086 40be f269 47bd 03be 8a3d 23d7 843d
00000200: ce9e 533e 97d1 543e a12f 623e 5e33 8abe
00000210: 4ec2 c7bd 702d 3bbe 8112 0dbe e272 8d3c
00000220: 3013 01be bea8 e6bd 8e33 2f3d b8f8 fc3c
00000230: 7eee 85bd 77ea 6a3c 17db 35be e9b9 52be
00000240: f9f8 d4bd 6f9b d7bb 7bf4 c5be 738a 0dbe
00000250: 920f 83bb 74db 29bd 539d dc3d d9c6 30bd
00000260: f819 63bd 9e74 413d 94f1 de3d e47d 95bb
00000270: 15c2 cebd 40ca 003e bad7 0a3d ccb3 513d
00000280: 0977 843d d471 edbc 2935 97bc c5de 4f3b
00000290: 3055 a9bd 839a 2a3d 5208 c2be d22a c03d
000002a0: 573e 3b3d 0647 d03d b27f 7f3e 5247 1a3e
000002b0: ee31 b1bd c4b4 a8bd a18d a8be 484f a4bd
000002c0: bbd2 27be 8a27 113e a8e4 db3d 568f b73c
000002d0: 84f2 bc3d 1c9b c73d 1d71 f1bd da3c 993b
000002e0: 17a3 2b3c d5f2 d93d cd0f 33be 2f23 b03d
000002f0: dae4 18be 0143 acbd 9eb6 a83d 4030 0c3d
00000300: f6bd 6dbd d1a7 423e 9765 c13d ded5 9cbc
00000310: 63bf 0cbe bdcc 123e 2d55 f1bd 81e2 3abd
00000320: 76a0 b2be 2ec4 903e 2f36 80be 527a de3b
00000330: a8eb e73d e624 66bc cbee e53d 2287 eabd
00000340: 45dd 06be b98c 90bb 1531 a43d 7f8f 323c
00000350: fe03 febd 0de7 863d 4291 b7bd ef64 403e
00000360: 63fc 303d 0476 2a3e add2 6cbe 53ff d8b9
00000370: 61c3 3139 b16a 4ebe e63f c3bb 675e c4bc
00000380: 3c8c c2bd a5de 083d 6af2 5bbd 4160 84be
00000390: 6717 3dbd 28b3 3fbe 6dfa 4e3e dc8e 1ebe
000003a0: 9969 3e3e 7b42 3f3d 6431 7b3d a2a3 703e
000003b0: 2504 8abe 2a9e a83d 6037 2fbe 3300 12be
000003c0: 62c7 2bbe 78bf 5dbe a84c 90bb 0bf3 383e
000003d0: 3e5f 59be a239 d83d 8a3b 913d c9d3 e0bd
000003e0: aa90 d0bc 277f b7bc 1eda 0e3e 8ba1 513c
000003f0: f3d0 9abd 3a30 9fbd 36b2 0a3e 751d 163d
0.104770534 -0.041780382 0.0204346 0.16562642 -0.14243944 0.12119054 -0.060732383 0.1359482
0.18907666 0.080949984 -0.0119735245 0.088558555 -0.23101908 0.12572171 0.10740544 0.1290432
0.2829882 -0.21641791 0.25024036 -0.14514895 0.05551819 -0.14172848 0.030374322 0.15377317
0.300288 0.19688638 -0.23424149 -0.099037975 -0.2574354 0.11540793 0.090204366 0.00900871
-0.07917359 -0.21155386 0.2514196 0.028645648 -0.103559494 0.029440543 -0.08729426 0.036385175
0.0232546 0.31074214 -0.107294634 -0.030948559 -0.070215754 -0.08146998 -0.14432214 0.034655478
0.009428868 0.002888244 0.0028422063 -0.06047235 -0.073585205 0.11488971 -0.25944954 0.0008929244
0.23586115 -0.16517471 -0.30298156 0.18791722 0.031765737 0.053177442 0.11846 -0.018786004
0.11211438 -0.08610745 0.1783113 0.062483642 0.081048146 0.15532345 -0.17365572 0.196295
-0.2320471 -0.03838882 0.05324479 -0.1391495 0.14895655 0.1296666 -0.018258156 0.05414657
-0.051248726 0.23004195 -0.023911742 0.07500174 0.1391367 0.060776945 0.048428487 0.051204983
0.094542876 0.06681197 0.12993337 -0.13830149 0.04335223 0.22329439 0.2492943 0.17796044
0.19245154 0.09127597 -0.1964873 -0.24217956 0.07166245 0.15922597 0.11462301 -0.008536934
-0.26449487 -0.1067437 0.046725295 0.065590896 -0.014760068 -0.023033282 0.07303199 -0.057812206
0.098492995 -0.1845623 -0.03262784 0.23472588 -0.2113407 0.3045133 -0.014067994 -0.1101244
-0.021153875 -0.41566136 -0.09715414 -0.07962257 -0.18801332 -0.04868502 0.06774523 0.064863466
0.20666048 0.20783077 0.22088481 -0.26992315 -0.097538576 -0.18279052 -0.1377659 0.017266694
-0.12604976 -0.11262654 0.042773776 0.030880317 -0.065396294 0.014338127 -0.17759357 -0.20578732
-0.1039905 -0.0065798084 -0.38663086 -0.13822345 -0.003999659 -0.041469052 0.10772195 -0.043158386
-0.055444688 0.047230355 0.10885921 -0.0045621265 -0.10095612 0.12577152 0.03389714 0.05119686
0.06468017 -0.028984942 -0.018457966 0.0031718474 -0.08268201 0.04165126 -0.37896973 0.09383167
0.04571375 0.10169797 0.24951056 0.15066269 -0.086521015 -0.08237603 -0.32920554 -0.08022934
-0.16388981 0.14175239 0.10736972 0.022407215 0.09225944 0.09746382 -0.11789153 0.0046764435
0.010475895 0.1064202 -0.17486496 0.08600461 -0.1493105 -0.084112175 0.082379565 0.034225702
-0.05804249 0.1900933 0.09443205 -0.019144949 -0.13744883 0.14335914 -0.11783824 -0.045626167
-0.34888047 0.28274673 -0.2504134 0.006789484 0.11324245 -0.014046883 0.11227187 -0.11451556
-0.13170345 -0.0044113067 0.08017174 0.01089847 -0.12403105 0.06587038 -0.089632526 0.18788503
0.043209445 0.16646582 -0.23127241 -0.00041388962 0.0001695282 -0.20157887 -0.005958545 -0.023970796
-0.09499404 0.033415455 -0.05369798 -0.25854686 -0.046164896 -0.18720686 0.20212717 -0.15484184
0.1859497 0.04669426 0.0613264 0.23499921 -0.26956287 0.082332924 -0.17110968 -0.14257888
-0.16775277 -0.21655071 -0.0044036694 0.18061464 -0.21227738 0.105578676 0.07091434 -0.10977895
-0.025459606 -0.022399498 0.13950393 0.0127948625 -0.07559385 -0.0777287 0.13544545 0.036649186

network_body._body_endoder.seq_layers.0.bias f4 [128]
00000000: bfc5 123d 9dbf 4d3d 4adf 06ba 349d a63c
00000010: eaac f73b e6c8 113d e520 b1bc 0363 ae3c
00000020: 5305 4abb 306b 953c d787 eabb b669 dc3b
00000030: f04b bd3c 0296 1abc 754d 253d d724 d53a
00000040: f25d 0f3c ca87 dc3b ea1e 483c d552 81bc
00000050: 5b86 eebb 848f c83c 4134 07bd 4782 2bbc
00000060: beb0 753c 8c3e e83c d398 d43c 17c1 b0bb
00000070: 0ccc a73c 6cc6 aebc eb65 1fbc 7721 fd3c
00000080: 0e98 cbbb c334 f6ba 348b 823d c0fd 703c
00000090: 230b 19bd 71d5 943c b05c 543c cef4 84ba
000000a0: cef2 733c 3e3b 0fbc 8969 9c3c c0fe 443c
000000b0: a0b9 cb3c b6d7 bd3c b43a b6bb 083a 153d
000000c0: e282 be3c 958d b93b 4b09 d63c db1c 9d3c
000000d0: e4de 423d dcb3 61bb 1d53 22bc dbb9 dab9
000000e0: 850c 1c3d b0ea 92bc 4218 103c 490f 143d
000000f0: 88d9 673d 0c5a 513d bce9 163d 6d9f 913c
00000100: 8102 f43b ae01 a4bc e55b 573d b062 c83c
00000110: 8763 273d bd52 b13c 9d3d 82bb 7ffc 363c
00000120: 510a 013d 04f2 e23c ae2e 2a3c b7dc 3c3c
00000130: 11b8 ad3a 5278 643c 5bcf 443c 6e20 d93a
00000140: fffa 0a3d 98db 153d 34e8 673d fe6d 993c
00000150: e3d8 3d3b 7a17 243d aec7 953d 67dd b1bc
00000160: 7478 b93c 8f37 1f3c e374 b1bb 1004 f8bb
00000170: 4402 1f3a 0a3c dbbc 67c5 aa3c 0239 e6bc
00000180: 9de4 103d f41e c23c 0a48 cc3b 11ff cbbc
00000190: 00ab adb7 1e7e 51bc 29fc f0bc f55d 36bd
000001a0: 6aed be3c e6ea d73c a983 01bd 767e b13b
000001b0: 71f1 1a3c 1277 473c 21ec 2b3d c6ca 2d3c
000001c0: 10a1 7b3c 9348 79bc 6f9c 603c 0923 0a3d
000001d0: 80e6 cd3c 030b 813b 69ba 1dbc 5d5d d13b
000001e0: 621b e53c aca4 f13c 678d da3b e31a c03c
000001f0: 81d0 2f3d d056 4a3c e0a2 d7ba 494c a23c
0.035833117 0.050231565 -0.0005144967 0.020338632 0.0075584548 0.035591982 -0.02162213 0.021287447
-0.0030825927 0.018239588 -0.0071573067 0.006726469 0.023107499 -0.009435179 0.040357072 0.001626159
0.008750426 0.0067300545 0.012214402 -0.015786568 -0.0072792 0.024482496 -0.033008818 -0.010468072
0.014995752 0.028350137 0.025951779 -0.005394112 0.02048304 -0.02133485 -0.009728889 0.030899746
-0.0062131947 -0.0018784035 0.06374207 0.014708936 -0.037364136 0.018168183 0.012961552 -0.0010143758
0.014889432 -0.008742152 0.019093292 0.012023628 0.024868786 0.023174148 -0.005561197 0.036432296
0.02325577 0.00566263 0.026127478 0.019178798 0.047575846 -0.003443948 -0.009907511 -0.00041718673
0.038097877 -0.017934173 0.008794846 0.03614739 0.05660394 0.051111266 0.036844 0.017776215
0.0074465876 -0.020020332 0.05257787 0.02446112 0.0408664 0.021645898 -0.00397463 0.011168598
0.03150398 0.027703293 0.010387106 0.011527232 0.0013253709 0.013944702 0.012012328 0.0016565451
0.033930775 0.036586374 0.05661793 0.018729206 0.0028968386 0.04006145 0.073134765 -0.021712018
0.022640444 0.009717836 -0.0054155453 -0.0075688437 0.0006065706 -0.026762027 0.020846082 -0.028103355
0.035374273 0.0236964 0.0062341737 -0.024901899 -2.0702835e-05 -0.012786416 -0.029417114 -0.0445232
0.023306567 0.026357125 -0.0316197 0.0054166866 0.009456978 0.012174385 0.041973237 0.010607427
0.0153582245 -0.015215057 0.013709172 0.03372482 0.025134325 0.0039380803 -0.009626963 0.0063893036
0.027967159 0.029497467 0.0066696885 0.02345032 0.042923454 0.012349799 -0.0016451739 0.019811766

network_body._body_endoder.seq_layers.2.weight f4 [128, 128]
00000000: 4201 ef3d 2a68 c23d f566 7dbb 4011 333d
00000010: 7caa 463d 52d7 f1bd c38d 3ebe 93dc f73d
00000020: a66a b53d 9465 b43c ee33 10bd 113c 84bd
00000030: c07e fe3d 2ddf 25be 2be3 3c3d b702 ff3c
00000040: 9563 613e 9b4a 18bb 9753 263d 8cc0 11bd
00000050: a28f b83d 3836 b3bd 7bec 9a3c 9e5d 82be
00000060: a96c 07bd 6e32 ff3b f093 363d c021 11bb
00000070: 5baf 66bd e457 a13d 83a5 973c d4b8 6e3d
00000080: f61a d83d 6e53 723b 5e0c 0f3d 98f1 98bc
00000090: bfbe 89bc 8684 813c 1510 2b3e 9efb a5bd
000000a0: 6e51 d5bd 1698 18be 883d ef3c 6e4d 373d
000000b0: e845 82bd 0f2e ad3d 01dd 1ebd c5b6 003e
000000c0: c7e5 40be 3049 3a3e cd62 3c3e a274 6b3d
000000d0: eff3 0e3e 2031 01bd 5759 89bd 912c 6ebd
000000e0: 3eac 2ebd dd99 ab3d 395b bcbc 50a9 5b3c
000000f0: 9176 363e 7e4f 1d3e 07ee bdbd 31dd de3d
00000100: 1caf 4cbc 6299 173d aa3b cabd 5c5e 9abc
00000110: 7626 e5bc dc4e 863c 50ce 47bd d8df 30be
00000120: 1504 ab3d 3d81 523e b6f4 be3d e306 bbbd
00000130: 98b6 6c3d f7b0 313e 6bf7 823c 0875 32bd
00000140: 68f0 593d 8eb0 853d ffb7 273e 6f41 ccbc
00000150: fea8 ddbd 4194 f93d 92a2 423d 2f05 9ebd
00000160: 8600 22bd e321 003d 4602 6f3d 844c 19bd
00000170: 47ac 693c 8e36 c1bd dea0 b3bd 5d78 3cbd
00000180: 11f0 1a3d d554 fe3d 7e06 2fbe 66be 6bbe
00000190: 249d ca3d cb84 0e3c 1dae 2ebe b002 a73c
000001a0: e4ec b83d 04de df3c 3fab e1bd f3a1 58bc
000001b0: 6aa1 b9bd e0c8 61bd 5d23 59be 1217 983c
000001c0: 1f58 b9bd 4a36 553d 38fb c7bc 0e77 ca3d
000001d0: b156 01be 20b0 623c 3884 023d e8b0 e33d
000001e0: 69b0 7b3d ceaa d9bd 482e c33d 6414 8fbd
000001f0: 6d6e 8f3c c89c 763d 79a2 f43d cdc4 4e3c
00000200: 6acf a13d 5c55 f73d 3ef5 8aba d1e3 38be
00000210: 662a e63d efbe 823c aecb c23d 57ab 06bd
00000220: 12ad 7bbd 6acd 19be 3f80 5e3d 22b1 253c
00000230: 004e 223e eec9 27be be19 113e d924 833c
00000240: 3037 92bd d98f 1f3d bf04 743d e3e3 033d
00000250: ae94 5cbc f5d8 73bc 6c34 933d a59d 163b
00000260: b42d bfbd 349f 523e fb43 9abd 1f6b 043d
00000270: 9df2 093d 8bdd 02be 8df3 3f3d 7484 413e
00000280: 4260 16be ab17 8a3d 8901 68be 8e17 b6bc
00000290: 28f5 a0bd 453a a9bd 607d 70be ed5a babd
000002a0: 3b89 4dbd 40ca 2bbe 807f b3bc 4bc3 71bd
000002b0: 5231 03be 9042 c8bd 5031 1abd fb5b 183d
000002c0: 037d 57bd ce32 f4bc 4da2 5abd ba0d 4f3e
000002d0: d692 713d 8753 f6bc 13c6 ddbb 8e49 ca3b
000002e0: 73c0 f43d cb1b 353a 6624 0e3b 26fc b6bd
000002f0: 8d71 193e 2f51 103e 0eb8 d4bd f134 843d
00000300: 77c2 063b 24ac 8b3d d504 a73d a4ef 5dbb
00000310: 7eee e43c 1306 cf3d c420 abbd 66c9 17bd
00000320: 95ad 3bbc c7ce 46bc c460 0d3e 9218 d5bd
00000330: 1586 253d cfe6 ff3c c152 44bc 3855 b13c
00000340: c573 9eba d97b c7bc 26be c33b 6351 8a3c
00000350: e345 0b3e 83c4 99bd 4ba8 5c3c 119d de3c
00000360: a585 ee3d 17cd 19bd 9c50 f8bc d91f 3ebe
00000370: c746 233e a686 febd cc57 933d 2700 603d
00000380: b9cd 853d c491 febc df63 253d bbe9 62bd
00000390: f071 f43b 75ec 723d 713b 873d c23e 1abe
000003a0: c932 07bc 269f a73b 0a31 d5bd 0b5f 7c3d
000003b0: 54d9 d53d ad5d 19be 2507 a23e 5d30 e93d
000003c0: 87d6 c43b a699 bd3d 4d7a febd e1b7 853b
000003d0: 7f30 c03c f877 f5bd 1d05 883d 925a 4bbe
000003e0: f2ff 653e 6e59 c83d b73d 6abd 1323 33be
000003f0: 07cb 5d3a 1f04 52bd 4be0 4cbe c7d9 ee3d
0.11670162 0.09492524 -0.0038666104 0.043717623 0.04850243 -0.11808647 -0.18608765 0.12102618
0.08858232 0.022021092 -0.035205774 -0.06456769 0.124265194 -0.16198416 0.04611508 0.031129224
0.22010644 -0.0023237828 0.04060706 -0.035584018 0.09011771 -0.08750576 0.01891159 -0.2546205
-0.03306261 0.007787994 0.044574678 -0.002214536 -0.056319576 0.07878092 0.01851154 0.058281735
0.105520174 0.0036975998 0.034923904 -0.018669888 -0.016814588 0.015810262 0.16705354 -0.08104633
-0.10415922 -0.14901766 0.029204145 0.044751577 -0.0636099 0.084560506 -0.038784984 0.12569721
-0.18837653 0.18191981 0.18397065 0.057484277 0.13960241 -0.03154099 -0.06706493 -0.05814797
-0.04264473 0.083789565 -0.022992717 0.013407066 0.17818667 0.15362355 -0.09273916 0.10882033
-0.012492921 0.03701151 -0.09874661 -0.018843822 -0.027972441 0.016395025 -0.04878074 -0.1727289
0.08350388 0.20557113 0.09324019 -0.09132173 0.057791322 0.17352663 0.015987119 -0.04356864
0.053207785 0.06527816 0.16378783 -0.024933545 -0.10823248 0.1218648 0.04751832 -0.077158324
-0.03955128 0.031282317 0.058351777 -0.037426487 0.0142622655 -0.094342336 -0.08770917 -0.046013225
0.0378266 0.12418524 -0.1709232 -0.2302185 0.098932534 0.0086986525 -0.17058606 0.020387024
0.09029558 0.027327545 -0.11018991 -0.013222205 -0.090639904 -0.05512321 -0.21204896 0.018565688
-0.09050011 0.052053727 -0.024411783 0.09885989 -0.12630726 0.013835937 0.031864375 0.111177266
0.061447535 -0.106282815 0.09530312 -0.06986311 0.01750871 0.060208112 0.11945052 0.012620163
0.07900889 0.12076828 -0.0010601652 -0.18055655 0.112385556 0.015960185 0.09511505 -0.032878246
-0.06144435 -0.15019765 0.054321524 0.010113033 0.15850067 -0.16385624 0.14169976 0.016008781
-0.071394324 0.038955543 0.05957484 0.03219975 -0.013463182 -0.01488327 0.07187733 0.0022982147
-0.09334889 0.20568544 -0.075324975 0.03232872 0.03367864 -0.12779824 0.046863127 0.18898183
-0.14685157 0.067427956 -0.22656836 -0.022228029 -0.0785926 -0.08263067 -0.23485327 -0.09099374
-0.0501797 -0.16776371 -0.021911383 -0.059024137 -0.12811783 -0.09778321 -0.037644684 0.037197094
-0.052609455 -0.029809382 -0.05337744 0.2022008 0.058977924 -0.030069126 -0.006767997 0.006173319
0.11950769 0.00069087435 0.0021689176 -0.08934812 0.14984722 0.14093469 -0.10386668 0.0645541
0.0020562687 0.068199426 0.081552185 -0.003386476 0.027945753 0.101085804 -0.08355859 -0.037057303
-0.011454959 -0.0121342605 0.13806444 -0.10405077 0.040411074 0.031237988 -0.011982621 0.02164708
-0.0012088945 -0.024351047 0.005973595 0.016884511 0.13600878 -0.07508185 0.013467859 0.027174504
0.116465844 -0.037549105 -0.030311875 -0.18566836 0.15944968 -0.12428026 0.0719448 0.054687645
0.06533379 -0.031075366 0.040378448 -0.055398684 0.0074598715 0.059307534 0.066031344 -0.15063003
-0.008251854 0.0051154075 -0.10409744 0.061614078 0.10441843 -0.1497714 0.31646076 0.11386178
0.006007019 0.09257822 -0.12425671 0.004080758 0.023460625 -0.11985773 0.066416 -0.19858769
0.22460917 0.09782682 -0.057187762 -0.17493849 0.00084607344 -0.05127346 -0.20007436 0.116626315

network_body._body_endoder.seq_layers.2.bias f4 [128]
00000000: 671d b63c 7eb1 0f3d caca b93c 16af 05bc
00000010: ee83 993b 3fb8 bf3c a3f7 7f3c f446 3fbc
00000020: 3718 dd3c 8c8c 133d fbf0 523c 4dab 093c
00000030: 8b14 783c c06e e2bb 7329 9bb9 5a22 cf3c
00000040: 44bd 5abc af6b 91bc ca19 80bc 4fe3 83bc
00000050: a662 9dba a003 ad3c 36c9 083d a970 513c
00000060: 82a6 bd3c 5cb5 4f3c 5468 cc3c b587 e73b
00000070: 416e 123d d883 bfbc fecf 84bc 7cae 1a3c
00000080: 8bb9 37bc 2f5a d4bb 2788 a13c 79b7 013d
00000090: cfb6 cd3c b15a b13c 224b be3a 446e 79bb
000000a0: 731c ab3c 9b4c ba3c 452e c53b c5df 533a
000000b0: 4fd1 0c3d 97bb 3a3c 2623 273c f4c5 51bc
000000c0: 5fdb 293c 08d3 173d 67ef d93c b08a 8fba
000000d0: 4cff 1c3d bcbe ed3c 2e01 1d3d 7945 1a3d
000000e0: bd7f 0e3d d718 12bc cd39 b33c f69b 643c
000000f0: 1f91 a9b9 49b4 fb3c bdc3 d33c c015 c2bb
00000100: 9e90 62bb bdfb 363c a7d4 a2bb ee76 9f3b
00000110: a977 203c 32d0 783a 35c1 a4bb 7768 2a3d
00000120: 5afc 8b3c 7c22 573c 3cda 003d e6c2 983b
00000130: db99 20bb c6a4 933b de92 ca3b a566 c2bb
00000140: 73f9 283d db13 173c fde8 893c 5478 963c
00000150: 45b7 bd3b a474 f23b 2b53 eb3c fd75 e33a
00000160: 426a 823c 369c f03c 2f26 f73c 2899 d5bb
00000170: d5a6 763c dd0c 653c 7a5c aabc 808b cb3a
00000180: d665 c73a f453 86bc ca90 74bc 64eb dc3c
00000190: e686 dabb 79f5 83bb e716 223d f671 36ba
000001a0: a5c2 a43c 9f75 a13c 4467 3a3d fc0c a13c
000001b0: 39ff 80bb 820b 86bc 4293 2d3c 5a1f 1a3d
000001c0: 1cdc 5ebc 4781 1cbc 8104 9a3c c62f ad3a
000001d0: e753 173d 65de b43c 4dfc df3c 880c e73c
000001e0: 8072 703b 5e41 2bbc 79b3 073d c971 cb3c
000001f0: 37df 803c bcaa c43b f8f6 ce3c f919 a63c
0.022230817 0.03508138 0.022679705 -0.0081594195 0.0046849167 0.023403285 0.015623006 -0.011674631
0.026989086 0.036022708 0.012874837 0.008402658 0.015141617 -0.006910175 -0.00029594786 0.025284935
-0.0133507885 -0.017751543 -0.015637297 -0.0160996 -0.0012007549 0.021119893 0.033395015 0.012783208
0.023150686 0.012677517 0.024952091 0.007065738 0.035749678 -0.023378298 -0.01621246 0.009441014
-0.0112136705 -0.0064804773 0.019718243 0.031669114 0.025111584 0.02164969 0.0014518241 -0.0038060108
0.02088759 0.022741606 0.0060174786 0.00080823555 0.0343793 0.011397264 0.010201251 -0.012803543
0.010367244 0.03706649 0.026603414 -0.0010951366 0.038329408 0.029021613 0.038331203 0.03766391
0.03478979 -0.008917055 0.021878147 0.0139532 -0.00032342316 0.030725615 0.025850171 -0.005923003
-0.0034571062 0.0111684175 -0.004969198 0.0048664724 0.009794154 0.0009491473 -0.005027915 0.04160353
0.017088104 0.01313078 0.031458125 0.0046619056 -0.0024505768 0.0045057265 0.0061820587 -0.0059326463
0.04125352 0.0092210425 0.01683473 0.018367924 0.0057896697 0.0073991586 0.028726181 0.0017353889
0.015919808 0.029371362 0.030169575 -0.006518502 0.015054424 0.013980118 -0.02079605 0.0015529245
0.0015212845 -0.016397454 -0.0149270985 0.026967712 -0.006668913 -0.0040270654 0.039572623 -0.00069597305
0.020112345 0.019709406 0.045508638 0.019659512 -0.003936675 -0.01636291 0.010594191 0.037627555
-0.013602283 -0.0095523065 0.018800976 0.001321309 0.03694525 0.022078702 0.027341986 0.028204218
0.003668934 -0.0104525965 0.033130143 0.02483453 0.015731437 0.0060017984 0.025264248 0.020276057

action_model._discrete_distribution.branches.0.weight f4 [3, 128]
00000000: 0e20 083d 8382 423c 54aa fd3b f65b cbbc
00000010: 44ba 90bc 1573 6c3d a448 453c d5a3 ab3a
00000020: 193c 7abb 8264 233d ed1b f4bc 0331 06bd
00000030: 9619 663c 5e45 7bbd d327 97bc 9e2b 453d
00000040: cc72 85bd 588f 11bd 564c 2fbd 2b21 aabc
00000050: 8ee9 16bd 4740 5e3d b400 463d de7a 5f3b
00000060: bee1 fe3c fe30 953c 944f a33d f6e4 34bd
00000070: 73f0 9c3d efaf 1ebd 53a8 eebc 9f2a 1cbc
00000080: 1e7b 73bd 8e43 65bc e243 e93c 1fdf 4a3d
00000090: f6a6 c73b f6a3 803d 39c5 abbc 9dc3 e6bc
000000a0: 7988 853a 4c88 ee3b c2fd 243b 24d8 2cbd
000000b0: 6fa1 443c f081 39bd b4d9 163b 4de9 09bd
000000c0: e025 c6bc 46ef 9e3d 8681 073d 9baf 1ebd
000000d0: 812b 8a3d e86f 623c 2cfe 363c 3a5c 543d
000000e0: 0289 833d 3e53 10bd 8538 a03c 3a7d ab3c
000000f0: bd5a 73bd fd1c 353d 4653 6c3d ff1f 8fbd
00000100: 4eed 3fbd f852 1ebd bff9 05bd 20be 1abd
00000110: 23c6 f83c 8e48 99bd 0c5d 44bd 48c1 813d
00000120: 2d23 553c 2757 e1bc 53be 2b3d 695e 07bd
00000130: 92c7 79bd c257 a6bc 170b 6dbd cce8 afbb
00000140: 7fc5 823d 93bc cabb 1f8b 573c 1028 133c
00000150: 3d91 5bbd b527 85bb 049e 9b3d f7ff 74bc
00000160: 2c3d 623b 964c 203d 07e9 8d3d b83c 513a
00000170: bf25 d4bb 7dbd a03c ce42 3dbd d701 32bd
00000180: 6e16 38bd 8912 2bbd 78a2 22bd adb7 543d
00000190: 6eb9 5cbd 82d9 3fbd 8de9 e93c f39c 99bc
000001a0: db96 acba 1549 20bd cd9e 393d 898f 283d
000001b0: 4b74 26bd f5a3 2ebd 7aff 3f3c e399 aa3c
000001c0: 452d 1cbd 54cd 16bd 02c0 b7bc f3e6 02bd
000001d0: 73ac 863d 08e1 af3b 819c 043d 4d80 4f3c
000001e0: dc3e e3bc b61e 29bd 0fbe 0a3d 28c9 473d
000001f0: 858b 6cbb f480 f23c 023f ab3b 4236 2c3d
00000200: b317 e53c dc42 8dbd 4315 4cbd 339f 363d
00000210: de16 593d 4092 4abd c43d 6ebd bce2 d93c
00000220: 1fc3 a7bd 5ce5 2b3d 6a42 843d 7880 8c3d
00000230: ab9a a23c 7122 833d 3296 5c3d 18ed a13c
00000240: 0c22 2d3d 825e 853c c1bb 013d dc92 fd3c
00000250: ee5f 403c 080b 9cbd ea21 bdbc b93d 13bd
00000260: 7d52 a3bd fdbc e43c 00fd d9ba f4e1 3abc
00000270: e432 57bd 3fa8 d93c e9c3 473d 0c0e d0bc
00000280: f982 223d c6c1 813a 3716 96bd cd44 fcbc
00000290: b491 78bd 039b a9bc f245 213d 932c 873d
000002a0: 46f3 92bd 4b3e 1ebd ec42 6a3c 7c1a 923d
000002b0: 165a 8fbd 8fa2 a43d de27 933b 7c76 133d
000002c0: cd1c 833d bf63 8cbc 729b 8cbd 5497 893d
000002d0: 79b6 81bd b9d8 b8bd 3735 81bd f1c7 4cb9
000002e0: 851a f8bc 2ef2 9e3c 6fa4 5e3d 9a99 503c
000002f0: 5c68 6dba ef4f 10bd 2eba 163d 6d97 ff3a
00000300: e13b 6d3d 3c7d e3bc 8dff 013d a02a 883b
00000310: 73f7 3a3d 9c2f 6e3d 6532 823c 9f5a eebc
00000320: 30c2 63bb 238d a63d c383 65bd 9282 9b3d
00000330: e422 993d c151 9d3d a8b8 5a3c 93a8 b93c
00000340: 2b5d 38bc a328 20bd 27f6 093d 7790 823d
00000350: 7aa7 a63d 83d0 13bd 424d 47bd 5a3e d7bc
00000360: 0248 5dbd e449 ccbd 9ca9 a2bc 8b60 08bd
00000370: d5f6 8abd ae3e 273d ec66 d73c 1ccd 1bbc
00000380: 506d 823d a8ad de3c 37d0 6c3d 3798 583c
00000390: d9b6 633d 7de1 3a3c cccb a8bd 9bd5 a23c
000003a0: 7d3d 7b3d 7452 7ebd b4f2 97bd ce95 753d
000003b0: 0d09 6d3d 19c0 e63c 37f5 ea3c 4ee5 73bd
000003c0: ba83 db3c 0a7f 223d f2c2 71bd 1ea6 8fbc
000003d0: 424f 74bd 7a1b 793d 4fcf 29bd d375 353d
000003e0: c138 913d ed33 a13c cb11 9abd 5594 22bc
000003f0: b4ba 8f3d 3f08 41ba 075b aabd 1c2e ec3c
0.033233695 0.011871937 0.007741252 -0.024824124 -0.017666943 0.05772694 0.012041245 0.001309509
-0.0038182794 0.039890774 -0.029798472 -0.032761585 0.014044186 -0.06134545 -0.018451607 0.0481373
-0.065160364 -0.035537094 -0.04279741 -0.020767769 -0.03684383 0.05426052 0.048340514 0.0034100334
0.031113502 0.018211838 0.07974163 -0.044163667 0.076630495 -0.038742002 -0.029132998 -0.009531646
-0.059443586 -0.013993157 0.028474752 0.04952919 0.0060929013 0.06281273 -0.020968067 -0.028169448
0.0010187767 0.0072794314 0.0025175666 -0.042198315 0.012001379 -0.045289934 0.0023017945 -0.03366976
-0.024187982 0.077604815 0.033082508 -0.03874169 0.06746579 0.013820626 0.011168998 0.051845767
0.064226165 -0.035235636 0.0195582 0.020933736 -0.059412707 0.0442171 0.057696603 -0.06988525
-0.04685717 -0.038653344 -0.03270888 -0.037778974 0.030367916 -0.07484542 -0.0479403 0.063356936
0.013008875 -0.027507378 0.041929554 -0.03304902 -0.06098134 -0.020305518 -0.057871904 -0.0053683277
0.06385326 -0.0061870306 0.013155728 0.00898172 -0.053605307 -0.0040635713 0.075984985 -0.014953605
0.0034521325 0.039135538 0.06929212 0.0007981765 -0.0064742262 0.019621605 -0.046206288 -0.043458786
-0.044943266 -0.041765723 -0.039705724 0.05193298 -0.053887777 -0.04683829 0.028553749 -0.018751597
-0.0013167517 -0.039132196 0.04531746 0.04115251 -0.04063825 -0.04263683 0.011718625 0.020825332
-0.03812911 -0.03681691 -0.022430424 -0.03195853 0.06575861 0.005367402 0.032375816 0.012664867
-0.027739935 -0.041289054 0.03387266 0.048775822 -0.0036093902 0.029602505 0.005226017 0.04204393
0.027965402 -0.06897518 -0.049824964 0.044585418 0.053000323 -0.04945588 -0.058164373 0.026597373
-0.08191513 0.04196678 0.0645798 0.06860441 0.019849142 0.064030536 0.053854175 0.019766375
0.042268798 0.016280416 0.031673197 0.030953817 0.011741621 -0.076192915 -0.02308746 -0.035947535
-0.07974718 0.027922148 -0.0016631186 -0.0114064105 -0.052538767 0.026569484 0.04877082 -0.025397323
0.039675687 0.0009899668 -0.07328456 -0.030794526 -0.06068583 -0.020703798 0.039373346 0.06600299
-0.07175307 -0.038633626 0.014298182 0.07133958 -0.069996044 0.08038818 0.0044908365 0.036001667
0.06401978 -0.017137406 -0.06865586 0.06718317 -0.06333632 -0.090257116 -0.06308978 -0.0001952944
-0.030286083 0.01940259 0.054356035 0.012731934 -0.0009056383 -0.03523248 0.03679865 0.0019500084
0.057918433 -0.027769677 0.031737853 0.004155472 0.045646142 0.058150873 0.01589317 -0.029095946
-0.0034753196 0.081323884 -0.05603386 0.07593264 0.07477358 0.07681609 0.01334969 0.02266339
-0.011252682 -0.039101254 0.033682015 0.06375211 0.08137412 -0.036087524 -0.048657663 -0.026274849
-0.05402375 -0.09975031 -0.019856267 -0.033295196 -0.06785361 0.04083126 0.026294194 -0.009509351
0.06368506 0.027182415 0.057815757 0.013219885 0.0555943 0.0114063 -0.08241996 0.019877246
0.061337937 -0.062090352 -0.07419339 0.059957318 0.05786996 0.028167771 0.02868138 -0.059544854
0.02679621 0.039671935 -0.059023805 -0.017535266 -0.0596459 0.06081722 -0.04145747 0.04430182
0.07090903 0.01967808 -0.07522925 -0.00992306 0.07018033 -0.00073635945 -0.08318143 0.02883058

action_model._discrete_distribution.branches.0.bias f4 [3]
00000000: d0d1 913c 8c21 23bc 2b94 ffbb
0.017800242 -0.009956729 -0.0077996454

action_model._discrete_distribution.branches.1.weight f4 [3, 128]
00000000: 9d51 cb3c be0b 8e3c 7725 20bc d885 ff3b
00000010: 9fc3 55bc 1a49 d73b 6e58 fc3c e62c 4e3c
00000020: da62 833b 048e 5c3a 81da 8dbc 97f2 bc3a
00000030: 197f 54bc 3185 b7bc 0984 d43c 5883 27bc
00000040: 71f3 96bc 5d2d 2c3c 857b cd3b 6985 ad3c
00000050: e2af d23c 2b8e a4bb 81dd 0fbd fffa 4dbc
00000060: 1e69 03bc 86ec 20bc 43b7 a83b a8cd 103c
00000070: ea61 973b f5a0 87b9 d28a 573c 7b03 ab3c
00000080: 6010 a93c 46f9 173c 9a8c 073d e2b5 c0bc
00000090: 2dd4 b93c f543 ff3c 16fe f7bb d6d7 853b
000000a0: 7a6b b33a 33f5 55bc bdb4 8fbc 0f5b 433c
000000b0: ef8f 9e3b 4544 16bb 4fdf e3ba 7277 97bb
000000c0: 4bf9 1e3c 3010 593c bb4f 173c 3943 de3b
000000d0: e797 023c a01f 033b edfd 773b 8116 04bc
000000e0: d0be 56bc 2e3b b23c 224c dabb 5de9 133c
000000f0: d0b0 d13c ac44 bebc 921a 04bc 98f0 5a3a
00000100: 072c 033a 3689 8e3c c94f 653c 3b98 823c
00000110: 4388 a9bc 235b 393b 1c35 df3b db1b c8bb
00000120: be45 33bb 62c4 eabb 2eda a6bc 54d2 d0bc
00000130: 7bf6 12bc 3144 cdbc 943c f63a c12a 65ba
00000140: 3dbf a8bb ef01 103d ef10 bd3b 1214 68bc
00000150: 9c43 eeba 2919 9b3c ebe8 853c b333 2a3c
00000160: 78b5 b73c 9071 ef3b 1e6e 24bc 1caa 503c
00000170: 7c0f 793c 15f4 1bbc 2b44 c9bb 4a18 dabb
00000180: 6002 97bc 09b6 063c 8001 77bc 0e84 6637
00000190: a184 b63c 2e8e 133c ba25 d43c fe19 20bc
000001a0: 0657 56bb 24bf 873c bb00 e9ba ee11 06bd
000001b0: 6f1f 073b 46d1 9f3b 9e1d 923c 52ab 013c
000001c0: 4182 c23c 1860 3ebc eb02 093d e188 123d
000001d0: f4ff e73a 4659 8cbc a4e9 213b d1d5 08bd
000001e0: 4fdd 153c 2631 783c 3520 753c 11a7 8dbc
000001f0: 1669 063b 03ac 143c 4689 d43c 0a5b dbbc
00000200: 60cc 13bc e6a4 a43b 2d12 6cbc 7c8a 483b
00000210: f67a ae3c 84fa f93b 4706 84bc 9ca7 7ebc
00000220: fd1f 23bc 2e85 743a fb1d 493c 24f2 903c
00000230: 63d3 7e3b 3065 8cbb 52cb 10bc 7328 4abb
00000240: 08a3 8cbb d680 5abb 1c4d 2f3c 916a 85bc
00000250: 5a77 8abc 2def 273c ef41 7e3c 7b76 57bc
00000260: 97ce 903b c9a7 0d3d 75e0 313c 8a52 a4bc
00000270: a890 c93a c5d3 24bc f516 a93c ac5d d8bc
00000280: c315 083c dc72 70bc 7485 5fba 1ab1 bf3a
00000290: eb74 5abc 8e5d babb 1cfc cebb 9e36 90bb
000002a0: e234 26bc 8349 ed3b a64b 06ba 34a4 8f3b
000002b0: 11d0 b2bb 6ea4 1a3c 93b2 5b3b c9f5 ef3b
000002c0: 12cb 0bbc 6a54 043c 182b 7ebc fa43 3d3c
000002d0: f0df 9339 9058 083b 43c9 a4bb 6398 afbb
000002e0: dfd6 3f3c 77c6 14bc 2059 f73b aa5f 02bb
000002f0: cfe7 b4bc d428 743c d845 ff3b ebbc 3ebc
00000300: 7134 0b3c f797 f1bc 93bd 913c db75 9fbc
00000310: de6d 68bc a131 993c 5319 f8bb 5313 20bc
00000320: 6dc3 bebc ea8c 983b dac9 ef3c 23f8 703c
00000330: 61e5 413c ec40 393c 5500 64bc f1e3 21bb
00000340: a6be 1a3c 6409 90bc f7b4 943c f123 ceb9
00000350: 178f 463c 0f82 abbc d676 3dbc a3a1 2bbc
00000360: bd90 87bc de42 dabb e0f2 87bc 3335 a2bb
00000370: 950c 05bc 60bf d83b 3045 77ba 3f67 52bc
00000380: fbb7 633c fbe5 783a 9de4 4cbc f0ae dd3a
00000390: 963c ff38 addd 263c 610b 573b 330c ff3c
000003a0: d698 cd3b 2ee0 f1bc 2689 a3bc 620b 053c
000003b0: d1d6 d43b 08f3 80b9 d2ce 0dbb 0935 39bb
000003c0: dcde b7bc cb41 203b 0d6b f4bb 8fa8 09bd
000003d0: c0e8 61bc 7e71 c33b cb61 493c 2e8f 083c
000003e0: 3daf f03b af17 f2bb 87a6 613b f967 c139
000003f0: eaeb 033c 70d7 a4bb c3eb d6bc 8d3a 473c
0.02481919 0.017339583 -0.009774557 0.007797938 -0.013047128 0.0065699937 0.030803885 0.012583947
0.0040095868 0.0008413496 -0.017316105 0.0014415559 -0.012969756 -0.022402378 0.025941866 -0.010224186
-0.018426629 0.010508862 0.006270828 0.021181779 0.025718633 -0.0050218306 -0.035123352 -0.012572049
-0.008020667 -0.009822017 0.0051487996 0.008838095 0.0046198266 -0.0002586913 0.013155656 0.020875683
0.020637691 0.00927574 0.033093072 -0.023524228 0.022684181 0.031160334 -0.007568131 0.0040845675
0.0013688647 -0.013058948 -0.017542237 0.0119235655 0.0048389356 -0.0022928875 -0.0017385277 -0.0046223933
0.009702991 0.013248488 0.009235318 0.006782916 0.007970787 0.0020007864 0.003784056 -0.008062006
-0.013107017 0.021756735 -0.006661908 0.009027806 0.025597006 -0.023226105 -0.0080629755 0.00083518913
0.0005003814 0.017399412 0.013996073 0.01594173 -0.020694857 0.0028283081 0.006811751 -0.0061068363
-0.0027354802 -0.007164524 -0.020367708 -0.025490917 -0.008969898 -0.02505693 0.0018786364 -0.00087420276
-0.0051497505 0.035158094 0.005769841 -0.014164941 -0.0018178108 0.018932896 0.016346416 0.010388303
0.022425398 0.007307239 -0.01003602 0.01273587 0.015201446 -0.009518643 -0.0061421595 -0.0066557275
-0.01843375 0.0082221115 -0.015076041 1.3739815e-05 0.02228004 0.009006066 0.025896896 -0.009771822
-0.0032705679 0.016570635 -0.0017776707 -0.032731943 0.00206181 0.0048772423 0.017836388 0.007914381
0.02374375 -0.01161959 0.03345005 0.03577507 0.0017700181 -0.017132413 0.002470591 -0.033407036
0.009147002 0.015148437 0.014961292 -0.017291578 0.0020509413 0.009074214 0.025944363 -0.02677681
-0.009020895 0.0050245402 -0.01440863 0.0030600121 0.021298867 0.0076287407 -0.016116275 -0.015542891
-0.009956357 0.00093277066 0.012275214 0.017693587 0.003888332 -0.0042845234 -0.008837538 -0.0030846864
-0.004291896 -0.0033340952 0.010699537 -0.016286166 -0.016902614 0.010249895 0.0155186495 -0.013150807
0.0044191587 0.03458384 0.010856737 -0.020058889 0.0015378194 -0.010060255 0.02064083 -0.026411854
0.00830597 -0.014675822 -0.0008526661 0.0014624924 -0.0133335395 -0.005687422 -0.006316675 -0.004401042
-0.010144444 0.0072414293 -0.0005122967 0.004383588 -0.0054569324 0.009438617 0.0033523187 0.007323001
-0.008532302 0.0080767665 -0.015513204 0.011551851 0.0002820487 0.002080474 -0.005028875 -0.005358742
0.011708944 -0.009080521 0.0075484663 -0.0019893446 -0.022083191 0.014902312 0.0077903084 -0.011641721
0.00849639 -0.029491408 0.017790591 -0.019465378 -0.014186351 0.018700423 -0.0075713783 -0.009770232
-0.023286546 0.00465547 0.029271055 0.014707598 0.011834473 0.0113069825 -0.013916095 -0.0024702514
0.009444868 -0.017582603 0.018152697 -0.0003931816 0.012119076 -0.02093604 -0.011563977 -0.010475549
-0.016548509 -0.006660803 -0.016595304 -0.0049501895 -0.008120676 0.0066146106 -0.0009432612 -0.012841999
0.013898845 0.0009494719 -0.0125056775 0.0016913097 0.000121706325 0.010184688 0.003281318 0.031133747
0.006274323 -0.029525843 -0.019962858 0.00812039 0.0064953347 -0.00024595135 -0.0021638167 -0.0028260371
-0.022445135 0.0024453278 -0.0074590505 -0.033608016 -0.013788402 0.005964457 0.012291382 0.008334918
0.007345109 -0.007388077 0.0034431533 0.00036889294 0.008051852 -0.005030565 -0.026235467 0.012159956

action_model._discrete_distribution.branches.1.bias f4 [3]
00000000: d400 8e3b 0ab5 82b8 fd36 41bb
0.004333595 -6.232604e-05 -0.0029482238

exp_avg f4 [128, 55]
00000000: c2b1 d138 b98d d537 e87b a3aa e212 f7b7
00000010: 0d88 afb5 64be af38 2fc0 a537 e87b a3aa
00000020: 62df fdb6 e2b6 d937 7f55 2038 1d46 4c38
00000030: e87b a3aa 3d15 1837 1cab be37 7533 0638
00000040: 4333 6138 4596 2c1e bee8 2c37 617d 3d38
00000050: c0ac 4238 e295 5338 e87b a3aa 46be 86b5
00000060: 117f aa37 c055 0834 6477 e538 0f04 52a8
00000070: cd58 63b7 2946 4538 796c c438 5b9c 3b36
00000080: e87b a3aa 22e8 29b5 c668 8e37 17a8 d438
00000090: 010c d8b6 9577 44ab b147 8a35 5bd3 7d38
000000a0: 49f0 cb38 11a5 1fb5 e87b a3aa 154d 32b5
000000b0: c33a 1937 3e40 c738 2d0e 8435 d742 90ab
000000c0: e87b a3aa 803e 8c38 d3be cd38 bc92 1036
000000d0: e87b a3aa a72d 8fb6 f421 db36 903f 3439
000000e0: 1030 91b8 8ce3 40ac 5c86 0a38 db18 8bb7
000000f0: df81 9a38 df6a c838 8ce3 40ac f7b4 0cb8
00000100: 9c45 76b7 34ff 6f39 cf3b b3b8 8ce3 40ac
00000110: 0483 01b7 b3b2 3636 1cbb 0238 7093 ef37
00000120: bbc1 281f d44f 9f38 e302 f536 eed0 1d39
00000130: 6507 7ab7 8ce3 40ac 79bb 34b5 3a9e 0eb8
00000140: 7599 8cb8 5dd6 7239 8941 5ba8 3704 f2b7
00000150: ae89 bd37 00d4 ee38 227a a937 8ce3 40ac
00000160: 5146 9f35 fe34 d6b7 9825 fc38 67da 3a37
00000170: 5276 07ad 0815 9136 085f 6338 8590 de38
00000180: 5a9b fa37 8ce3 40ac 307d a7b4 7084 86b7
00000190: 4a09 ef38 ad23 b637 3687 27ad 90e3 40ac
000001a0: b460 b438 407c 1839 87f2 43b7 8ce3 40ac
000001b0: baff 0236 102f dab6 f4a8 a8b8 9053 a9b7
000001c0: 331e 8d2b 4fd9 f7b5 dd52 8cb7 b377 99b8
000001d0: 56b5 00b8 331e 8d2b 6748 bd35 b425 b9b7
000001e0: 2762 cab8 1bae 88b6 331e 8d2b db0c fcb5
000001f0: e70e 04b8 3707 2cb8 d095 38b8 cb9a aa9e
00000200: e73a 92b7 c140 f8b7 dbfe d4b8 40e9 38b5
00000210: 331e 8d2b 7f8b 33b4 68e3 90b7 338c 0638
00000220: da6b 1cb9 c819 4a27 12a3 7537 5b6b 06b8
00000230: b278 d2b8 fc28 16b6 331e 8d2b 919f 6034
00000240: 1dc2 67b7 6f21 fbb8 5210 ad37 9640 032c
00000250: 43fb 5fb6 4963 81b8 d463 d4b8 5e42 9ab5
00000260: 331e 8d2b 2708 f9b2 2e3b 30b7 867d d4b8
00000270: b8eb 97b5 4a40 302c 331e 8d2b bb01 70b8
00000280: 38e3 c1b8 c465 24b7 331e 8d2b b79f 5ab4
00000290: c513 11b7 7f40 6fb8 fbaf 1cb8 c2f3 ec2b
000002a0: eead c9b5 4a7b 3db8 cf6e 5fb8 1aa9 26b8
000002b0: c2f3 ec2b 0c60 42b6 d327 1cb8 e099 b7b8
000002c0: 65e0 0ab6 c2f3 ec2b 47e1 d2b6 9d2b 97b8
000002d0: 9d77 92b7 2ef7 99b8 acee d99e dc9d a8b6
000002e0: b5ab 3cb8 bde5 d8b8 f0b5 0a37 c2f3 ec2b
000002f0: a021 2cb5 4302 27b8 615b 9238 5065 44b9
00000300: 111e 02a7 0041 b537 25f1 47b8 0f17 f3b8
00000310: efcf a937 c2f3 ec2b edab d8b1 c546 edb7
00000320: 17e2 16b9 a2ef 6038 c831 be2b 7c29 bdb6
00000330: 60c5 b6b8 50c5 e7b8 2e5d 7837 c2f3 ec2b
00000340: aab8 46b4 31e4 a1b7 3762 e3b8 071a 5237
00000350: 55bd 162c c2f3 ec2b c208 94b8 7eb0 bdb8
00000360: b0b2 ccb6 c2f3 ec2b 7859 2e35 21dc 6fb7
00000370: 9cab 03b9 6aa5 8938 f199 9b2a 6007 3ab8
00000380: 02ef 6135 4078 b3b8 5c3c d0b7 f199 9b2a
00000390: b21d cd36 0db1 4f37 1ce4 33b9 d0cf 7a38
000003a0: f199 9b2a 45ad fa36 5323 1037 d4f9 bab8
000003b0: fff5 7437 2a5e 1f9e a369 f9b7 34b8 9637
000003c0: bf83 12b9 be04 1438 f199 9b2a c20a 7634
000003d0: 18a9 8c37 a1c4 fb37 d759 1bb9 c9a0 6fa5
000003e0: 7168 6837 a827 e236 d00e deb8 07da b835
000003f0: f199 9b2a 3f3b 9834 9361 5737 f7e5 fbb8
9.9990066e-05 2.5457573e-05 -2.9040594e-13 -2.9453488e-05 -1.3078112e-06 8.380113e-05 1.9759025e-05 -2.9040594e-13
-7.5659927e-06 2.5953577e-05 3.8226597e-05 4.870269e-05 -2.9040594e-13 9.064851e-06 2.2729444e-05 3.1996013e-05
5.369192e-05 9.136679e-21 1.0306188e-05 4.517788e-05 4.641409e-05 5.044591e-05 -2.9040594e-13 -1.0039155e-06
2.032475e-05 1.2697183e-07 0.00010941809 -1.1658222e-14 -1.355093e-05 4.7033802e-05 9.366213e-05 2.7956182e-06
-2.9040594e-13 -6.3295204e-07 1.6976508e-05 0.00010140257 -6.438699e-06 -6.979914e-13 1.0302666e-06 6.051674e-05
9.724551e-05 -5.947232e-07 -2.9040594e-13 -6.6422336e-07 9.133192e-06 9.5010255e-05 9.838892e-07 -1.0250367e-12
-2.9040594e-13 6.687362e-05 9.8107055e-05 2.1543083e-06 -2.9040594e-13 -4.2670467e-06 6.5306613e-06 0.00017189817
-6.923091e-05 -2.7411155e-12 3.3026896e-05 -1.6581665e-05 7.3674826e-05 9.5566495e-05 -2.7411155e-12 -3.3547138e-05
-1.467895e-05 0.00022887887 -8.546525e-05 -2.7411155e-12 -7.719504e-06 2.722413e-06 3.1168674e-05 2.8559676e-05
3.5735634e-20 7.59658e-05 7.301905e-06 0.00015050519 -1.4902883e-05 -2.7411155e-12 -6.7328034e-07 -3.40028e-05
-6.704304e-05 0.00023158775 -1.2171153e-14 -2.885061e-05 2.2594668e-05 0.000113882124 2.0203242e-05 -2.7411155e-12
1.1866888e-06 -2.5535464e-05 0.00012023299 1.1137315e-05 -7.700134e-12 4.323785e-06 5.4209522e-05 0.00010612704
2.9874664e-05 -2.7411155e-12 -3.119726e-07 -1.6035716e-05 0.00011398138 2.1712704e-05 -9.522874e-12 -2.7411164e-12
8.601081e-05 0.00014542136 -1.16793735e-05 -2.7411155e-12 1.9520362e-06 -6.502385e-06 -8.042334e-05 -2.0185282e-05
1.0027035e-12 -1.8466179e-06 -1.6727887e-05 -7.317904e-05 -3.068646e-05 1.0027035e-12 1.4102669e-06 -2.2071275e-05
-9.650393e-05 -4.0733844e-06 1.0027035e-12 -1.8779205e-06 -3.148513e-05 -4.1014715e-05 -4.4008542e-05 -1.8063471e-20
-1.7431985e-05 -2.9594057e-05 -0.00010156418 -6.8884765e-07 1.0027035e-12 -1.6721422e-07 -1.7272032e-05 3.207866e-05
-0.00014917497 2.8047107e-15 1.4641106e-05 -3.2048072e-05 -0.000100360616 -2.2375598e-06 1.0027035e-12 2.0919676e-07
-1.38138685e-05 -0.0001197484 2.0630807e-05 1.8652072e-12 -3.3375843e-06 -6.169693e-05 -0.00010127542 -1.149321e-06
1.0027035e-12 -2.8991122e-08 -1.0504196e-05 -0.00010132328 -1.131898e-06 2.5046792e-12 1.0027035e-12 -5.722207e-05
-9.24528e-05 -9.798856e-06 1.0027035e-12 -2.0360936e-07 -8.647276e-06 -5.7042107e-05 -3.7357193e-05 1.6836465e-12
-1.5026287e-06 -4.5175933e-05 -5.327054e-05 -3.9734972e-05 1.6836465e-12 -2.896416e-06 -3.7230388e-05 -8.7547814e-05
-2.0694217e-06 1.6836465e-12 -6.2847134e-06 -7.208365e-05 -1.7460256e-05 -7.341649e-05 -2.3074481e-20 -5.0251674e-06
-4.4982608e-05 -0.00010342475 8.267802e-06 1.6836465e-12 -6.4123924e-07 -3.981801e-05 6.978843e-05 -0.00018729758
-1.8057423e-15 2.160715e-05 -4.766988e-05 -0.00011591438 2.0243197e-05 1.6836465e-12 -6.305973e-09 -2.8285556e-05
-0.0001438934 5.3628937e-05 1.3514129e-12 -5.6374683e-06 -8.7152e-05 -0.00011051691 1.4803647e-05 1.6836465e-12
-1.8507367e-07 -1.9298956e-05 -0.000108424974 1.2523035e-05 2.1421382e-12 1.6836465e-12 -7.058821e-05 -9.0450965e-05
-6.1004757e-06 1.6836465e-12 6.4950245e-07 -1.4296763e-05 -0.00012557063 6.56348e-05 2.764035e-13 -4.4352724e-05
8.4166834e-07 -8.5577834e-05 -2.482364e-05 2.764035e-13 6.112933e-06 1.2379384e-05 -0.00017155748 5.9798185e-05
2.764035e-13 7.470752e-06 8.591293e-06 -8.915705e-05 1.4600809e-05 -8.4368626e-21 -2.9732304e-05 1.796717e-05
-0.00013972724 3.5290366e-05 2.764035e-13 2.2914449e-07 1.6768041e-05 3.0013094e-05 -0.0001481542 -2.0784422e-16
1.3852595e-05 6.7399415e-06 -0.00010588544 1.3772523e-06 2.764035e-13 2.8355313e-07 1.2837717e-05 -0.00012011447

exp_avg_sq f4 [128, 55]
00000000: d96d b633 d44e 8133 bfdf de2e 129f 8531
00000010: fb3f f932 728f cf33 0813 4d33 45ca df2e
00000020: e867 1e32 ee72 0c33 bdf8 ad33 0d5c 8933
00000030: 2f25 e02e d865 eb30 e737 d032 beab ec33
00000040: d081 2a33 5f24 d62e 034d 2d31 992c db32
00000050: f937 d533 1658 5033 78cd df2e 1c14 9330
00000060: 0cd4 a432 42c2 0b34 9b29 8532 08f1 962e
00000070: 09a8 6330 dcf8 a832 b2e5 f033 df93 1c33
00000080: 9be8 f32e e44a de2f c202 4232 a495 1534
00000090: f02e 3432 1965 8c2e 7c89 ed2f b647 7132
000000a0: 6fc9 0434 3eef d932 d205 ba2e 8426 8a2f
000000b0: 3fea 0132 9cbb 1f34 c59e ec31 b446 842e
000000c0: d2d1 4b2f 640f 4b32 b6d4 1134 5ef8 8332
000000d0: 5df8 1b2f a6ab 1c2f 6bf0 af31 1493 8534
000000e0: cf60 b434 06b4 4831 9f9b 9931 5700 c733
000000f0: eafb 9734 d050 9634 65e1 4831 d405 0e33
00000100: 8498 fe33 ca8b 8034 f81a a734 b0b3 4831
00000110: cf2a b431 d149 a533 9bda 9e34 afd8 8a34
00000120: 9d9b 3a31 662e c432 682e e733 14a9 9334
00000130: 7396 9934 9293 4931 20fc 0931 d663 6533
00000140: 73ad d834 b30a 4134 20f0 1831 26b7 0a32
00000150: af02 b333 dd59 d134 680a 5034 ebb9 4631
00000160: d7eb 0831 a8fa 0133 1b0e ff34 f778 dc33
00000170: 5b91 e530 bc7e dc31 4452 8833 7217 f434
00000180: 8228 1c34 17f9 1f31 a4b2 3b30 aa95 a332
00000190: 58ec 1035 e1dd 9c33 9765 c430 fe75 9e30
000001a0: c8ca 5633 0a2a 0635 fffe d633 d448 3831
000001b0: d0cd 1030 e8f3 7232 2351 9933 58db 6532
000001c0: 7799 9a30 a3d3 f52f 4059 6032 d930 9233
000001d0: 0a26 3532 1c9f 9a30 4dda 0332 d6dc a232
000001e0: 7627 a433 1e89 de31 c737 9a30 e7e1 412f
000001f0: 0b9f 0732 19b8 6733 2bec c032 bd01 9c30
00000200: 4c11 0232 0254 ab32 fbca a833 5ad2 8431
00000210: d9c6 9530 6478 102f 24b4 7a31 4599 8f33
00000220: 6c05 9032 b2a5 8530 524d a130 99d0 6132
00000230: a9f4 aa33 e135 9831 8a38 8630 6b63 e82e
00000240: c4c1 3331 eff7 af33 ee24 5431 7c17 5530
00000250: bb6d 832f 4618 ef31 1090 b033 a548 6e31
00000260: d1b7 3130 f6c5 8c2f d281 3f31 82b5 b733
00000270: 5244 8a30 8d7c 4830 954e 342f 0507 c331
00000280: fc94 b133 6ea9 3d31 fa68 4d30 3633 352f
00000290: 4b60 3b31 704e ca33 0b4b aa32 7adb c930
000002a0: 9a58 0431 b7ef 8932 4459 b533 4319 da32
000002b0: f5de c930 c081 8531 4c33 a232 4c8e cb33
000002c0: d692 c632 35c4 c930 f0ce 3730 4e1e 3f32
000002d0: 7c17 b233 1ecd f432 ed94 c230 6723 9331
000002e0: ec39 a832 7884 db33 d002 8732 6ba2 c430
000002f0: 1f01 d42e b412 bf31 317b bb33 b126 ec32
00000300: 9c2d 8d30 f691 2a31 8d0a 7d32 9d2d e633
00000310: 502d 3f32 d715 b830 5760 ae2e ee9b 6131
00000320: 9c5e d433 406f a832 bff8 6030 6501 1d30
00000330: 3f4b 3732 37f8 ed33 ff3a 2632 9774 6b30
00000340: ff4e 742e 353c 6431 4a77 ee33 973d 0d32
00000350: d301 4930 9954 282f 2cf1 1f32 b367 fa33
00000360: 2164 f531 448c 6330 b7a4 f02d 7fe9 4a31
00000370: 49d1 b833 16f0 e232 ade4 b730 32d5 9330
00000380: 1eaa 8232 ce42 c833 50f1 9a32 65e3 b730
00000390: 2fab a530 b980 6c32 b4cf af33 bbd0 ff32
000003a0: 8dc8 b730 8238 a230 ab50 8f32 8edc d733
000003b0: 581c 3732 1a35 b730 5b67 c830 95d7 5732
000003c0: 2b01 ae33 d24a 0733 f350 b830 167d 2530
000003d0: 035b 5332 5d6c d333 4d4c 7332 bf4c 3f30
000003e0: 100a a530 3b96 3732 7bee b533 9107 0033
000003f0: 09c2 bd30 12ae b12f bc53 1e32 9f47 ee33
8.4950166e-08 6.0213694e-08 1.01351365e-10 3.8888937e-09 2.901651e-08 9.665281e-08 4.774759e-08 1.0176796e-10
9.220436e-09 3.2700818e-08 8.1011855e-08 6.3963036e-08 1.0192946e-10 1.7127446e-09 2.4239808e-08 1.1020846e-07
3.9699273e-08 9.738054e-11 2.521859e-09 2.5515236e-08 9.928767e-08 4.8508888e-08 1.01773645e-10 1.0701373e-09
1.918854e-08 1.3016054e-07 1.5502158e-08 6.864026e-11 8.282091e-10 1.9670942e-08 1.1217652e-07 3.645607e-08
1.109168e-10 4.0434778e-10 1.1292913e-08 1.3931145e-07 1.0488051e-08 6.3844215e-11 4.3207737e-10 1.40443515e-08
1.2366739e-07 2.537092e-08 8.4593346e-11 2.512942e-10 7.56205e-09 1.4876281e-07 6.886554e-09 6.0152244e-11
1.8537286e-10 1.1819655e-08 1.3581561e-07 1.5363351e-08 1.4185404e-10 1.4249099e-10 5.1205027e-09 2.4880194e-07
3.359805e-07 2.9206162e-09 4.470578e-09 9.2667214e-08 2.8309233e-07 2.7998476e-07 2.9231952e-09 3.3067252e-08
1.1855539e-07 2.3943568e-07 3.1125796e-07 2.920597e-09 5.2435563e-09 7.6968384e-08 2.958885e-07 2.586216e-07
2.7155018e-09 2.2838503e-08 1.0765217e-07 2.7503904e-07 2.8607937e-07 2.9333234e-09 2.007944e-09 5.3409018e-08
4.0359336e-07 1.7978418e-07 2.2255406e-09 8.0743e-09 8.335825e-08 3.8994668e-07 1.9375295e-07 2.8918474e-09
1.9924664e-09 3.0263124e-08 4.7507714e-07 1.0266552e-07 1.6703255e-09 6.4172507e-09 6.3479575e-08 4.54656e-07
1.4543369e-07 2.3279136e-09 6.828407e-10 1.9043757e-08 5.3988106e-07 7.3046756e-08 1.428975e-09 1.1529548e-09
5.0010186e-08 4.9980065e-07 1.0011535e-07 2.6816922e-09 5.267937e-10 1.4141712e-08 7.1393764e-08 1.3379427e-08
1.1248592e-09 4.4715617e-10 1.3058809e-08 6.80754e-08 1.0544236e-08 1.1250196e-09 7.674839e-09 1.8959707e-08
7.644023e-08 6.476639e-09 1.1220828e-09 1.7633504e-10 7.894196e-09 5.3951315e-08 2.2459139e-08 1.1350988e-09
7.570929e-09 1.9945222e-08 7.8600316e-08 3.86562e-09 1.0897693e-09 1.3139495e-10 3.6482186e-09 6.686836e-08
1.6766272e-08 9.724117e-10 1.1736268e-09 1.3144153e-08 7.960745e-08 4.4299076e-09 9.765853e-10 1.0567799e-10
2.6158071e-09 8.1941714e-08 3.0871052e-09 7.752232e-10 2.390673e-10 6.958575e-09 8.2218435e-08 3.4674852e-09
6.4653444e-10 2.560651e-10 2.7867952e-09 8.5546176e-08 1.0060239e-09 7.2936573e-10 1.6398823e-10 5.676045e-09
8.269305e-08 2.759943e-09 7.4727746e-10 1.6480048e-10 2.7266818e-09 9.420626e-08 1.982473e-08 1.4687054e-09
1.9258892e-09 1.6057909e-08 8.4447066e-08 2.5390028e-08 1.4688043e-09 3.8855603e-09 1.888261e-08 9.478808e-08
2.3117007e-08 1.468044e-09 6.686909e-10 1.1124554e-08 8.293043e-08 2.8498615e-08 1.4157685e-09 4.282288e-09
1.9584114e-08 1.0222078e-07 1.5717347e-08 1.4307039e-09 9.640843e-11 5.560958e-09 8.7302745e-08 2.749161e-08
1.0272063e-09 2.4821225e-09 1.4728937e-08 1.07185066e-07 1.1127966e-08 1.3393969e-09 7.929717e-11 3.2830445e-09
9.8892286e-08 1.9608365e-08 8.1844215e-10 5.711825e-10 1.0669111e-08 1.10813225e-07 9.675886e-09 8.5658186e-10
5.554934e-11 3.321259e-09 1.1104437e-07 8.221284e-09 7.3125966e-10 1.5309566e-10 9.309854e-09 1.1660395e-07
7.141822e-09 8.278145e-10 2.735799e-11 2.9527596e-09 8.6062364e-08 2.6419041e-08 1.3379996e-09 1.0756251e-09
1.5211352e-08 9.3253774e-08 1.8037696e-08 1.3379632e-09 1.2053983e-09 1.3766276e-08 8.1868535e-08 2.9780827e-08
1.3372002e-09 1.1803112e-09 1.6684075e-08 1.0051836e-07 1.0658447e-08 1.3330095e-09 1.4581291e-09 1.2563665e-08
8.102719e-08 3.1500186e-08 1.3410769e-09 6.020441e-10 1.230251e-08 9.845164e-08 1.416181e-08 6.959446e-10
1.200819e-09 1.068616e-08 8.471849e-08 2.9809204e-08 1.3806708e-09 3.2319797e-10 9.215849e-09 1.10957664e-07

exp_avg f4 [128]
00000000: ad54 c938 264b 0e39 05e2 d6b8 1323 c9b8
00000010: 0db7 dab8 b416 8539 9b54 d037 47d4 4cb9
00000020: 975c b9b8 1646 5039 5e78 8cb8 4306 acb7
00000030: 7ff5 87b9 7ced 8ab8 1535 a639 716c 74b9
00000040: 01b9 84b8 cc57 61b8 8bff a837 5d13 af37
00000050: 162e 01b9 cffc 8e38 f993 02b7 f179 e1b6
00000060: 9646 39b7 4d6e 5e39 ff8c 36b9 a9f7 ebb8
00000070: 4366 3239 365c 3237 4f80 9138 5a39 0d39
00000080: 2132 10b9 366a 1b38 7157 86b7 6dca 00b9
00000090: 3bfa ccb7 f560 0bb9 9953 28b9 87dc 93b8
000000a0: 8c13 03b9 a2c5 9ab5 ee0a fc38 96e9 5a39
000000b0: 18d1 2bb8 9d41 b2b8 3258 d7b7 e1c6 1939
000000c0: 56d4 fe36 a523 0538 f5b2 47b9 6af1 7239
000000d0: 204b dc37 d484 dfb7 8378 0ab7 5367 b138
000000e0: 68c7 9e38 fc3a 4fb8 3d8a 06b9 1b2e 7238
000000f0: c733 ed38 cb49 3e39 4403 b338 69a0 c238
00000100: f9aa 93b8 8d6a ee35 4058 0b39 b563 b038
00000110: 8153 cb39 a82f 8538 d010 adb7 1093 7eb9
00000120: 4723 0ab8 5f3a 2c37 e253 d2b8 549c 2fb8
00000130: 5458 7ab7 e368 c7b8 39b1 52b9 d065 58b9
00000140: 68dc 2238 1856 07b9 64a0 aa38 7fb2 c537
00000150: 438a 67b8 7409 14b9 963c 2238 3b95 85b7
00000160: 6391 0539 e347 27b9 2e17 37b8 5189 2fb7
00000170: ed0b b4b7 ee5e 1ab8 016e 6c39 a405 08b5
00000180: c1a1 5d39 ac7b e238 a3bc 08b8 95f2 7935
00000190: 150a d2b8 675c fdb7 8af4 98b8 9159 a4b6
000001a0: 3a51 0ab9 d909 2938 bc6d 11b8 1e1a 2339
000001b0: 4754 d138 4156 a0b9 cea6 2f39 fdd8 a1b8
000001c0: 06a3 3239 6c27 a6b8 4890 3939 d19a e437
000001d0: 2bce 0339 6cbd 06b9 dee0 96b7 420e c0b8
000001e0: 4a83 3f39 1691 4839 677d c4b8 2aed ed38
000001f0: 75f6 2b39 9683 4337 f692 2fb9 d2d2 ad38
9.600199e-05 0.0001357017 -0.000102464146 -9.59096e-05 -0.00010429146 0.00025384652 2.483493e-05 -0.00019534036
-8.8387336e-05 0.00019862535 -6.69814e-05 -2.0506914e-05 -0.00025932115 -6.624588e-05 0.00031701536 -0.00023310051
-6.32871e-05 -5.3725948e-05 2.0146157e-05 2.0870642e-05 -0.00012319567 6.818177e-05 -7.783056e-06 -6.7197184e-06
-1.1043294e-05 0.0002121266 -0.00017409398 -0.000112518035 0.00017013498 1.0631096e-05 6.938038e-05 0.00013468173
-0.00013751585 3.7053796e-05 -1.6014763e-05 -0.00012282441 -2.4435218e-05 -0.00013292192 -0.00016052871 -7.050583e-05
-0.00012500415 -1.1531413e-06 0.00012018332 0.00020877118 -4.096431e-05 -8.499923e-05 -2.5671066e-05 0.00014665305
7.594509e-06 3.1742868e-05 -0.00019044786 0.00023168852 2.6261027e-05 -2.6645524e-05 -8.2535e-06 8.459263e-05
7.5711694e-05 -4.940758e-05 -0.00012830734 5.7740235e-05 0.00011310685 0.00018147302 8.5359934e-05 9.2805196e-05
-7.0413524e-05 1.7763392e-06 0.00013288949 8.410906e-05 0.00038781393 6.350811e-05 -2.0631036e-05 -0.00024278113
-3.293462e-05 1.02655895e-05 -0.00010029205 -4.1868843e-05 -1.4921727e-05 -9.508596e-05 -0.00020093181 -0.00020637293
3.882908e-05 -0.00012906676 8.136107e-05 2.3567349e-05 -5.5203458e-05 -0.00014117901 3.8680235e-05 -1.5924326e-05
0.00012738029 -0.00015953141 -4.3652188e-05 -1.0462784e-05 -2.1463225e-05 -3.680487e-05 0.00022547694 -5.0672156e-07
0.0002113646 0.000107995555 -3.260061e-05 9.311273e-07 -0.00010015458 -3.0202978e-05 -7.293474e-05 -4.898008e-06
-0.00013190965 4.030191e-05 -3.4672892e-05 0.00015554621 9.9815945e-05 -0.00030581842 0.0001675144 -7.7174955e-05
0.00017036134 -7.92284e-05 0.00017696724 2.725181e-05 0.00012569937 -0.00012849801 -1.7986105e-05 -9.157929e-05
0.00018264088 0.00019127535 -9.369366e-05 0.00011345216 0.00016399643 1.1653543e-05 -0.00016744048 8.288551e-05
