results/TrainPeoplePuddlesHoles_NewPuddleBehaviour_ReplacedHoles_10Dicembre5/MoveToGoal.onnx (onnx, 106468 bytes, 9 tensors)

action_model._discrete_distribution.branches.0.bias f4 [3]
0.07064356 -0.05518323 -0.03158577
00000000: 92ad 903d d007 62bd 1560 01bd

action_model._discrete_distribution.branches.0.weight f4 [3, 128]
0.05206388 -0.01400555 -0.10231178 -0.11676605 0.07103458 0.005969678 0.051260367 0.08853128
-0.08666082 0.031687796 -0.039034534 0.00082261016 0.036821052 0.064239316 -0.017263902 0.0030640569
0.07202637 -0.021549616 -0.049832895 -0.02983136 0.012010675 0.018659031 0.061592698 0.03987491
0.034714967 -0.12868005 0.023899006 0.024863983 -0.1420787 -0.037743784 0.0026598864 -0.06568474
0.08347319 -0.053693783 0.00586207 -0.07037246 0.0645039 -0.061902486 0.0013449698 0.078379005
0.01396107 0.063709185 0.037612516 0.051913857 -0.11243335 -0.017169207 0.03386218 0.034819618
0.05685883 -0.027139038 -0.06982174 0.0651612 -0.0036139893 0.07953922 0.0045014373 0.028309196
0.05008069 -0.10707106 0.064604186 -0.012642118 -0.059921082 -0.013298658 -0.12419548 -0.01240783
0.042536102 0.075642094 -0.105039604 -0.05575945 0.017233303 -0.025505545 0.06836471 0.09185464
-0.044491995 0.021257466 0.0043354733 -0.11457644 0.06995288 0.027519094 0.03615823 -0.06378645
-0.013835595 0.0537639 -0.05006631 0.09391798 -0.046243373 0.013310937 0.062134374 -0.032747723
-0.038165137 -0.049536366 0.010656757 0.031163082 -0.09475582 -0.09642251 0.03417485 0.006075448
-0.074999996 0.073180735 0.083558336 0.071970955 0.08433997 -0.053228445 0.06703134 0.021863064
-0.0039476072 0.07852663 0.037739933 0.08399132 0.09809661 -0.1039888 0.09421932 0.078242645
0.068072826 0.08045001 0.016636847 0.023042433 0.0556524 -0.119437635 0.0745677 0.07739851
-0.09855798 0.05980778 0.04309256 0.050108682 0.031778645 0.04953231 0.096710265 0.06902871
-0.13931221 -0.024324602 0.1482221 0.12914631 0.03141143 -0.1137519 -0.1224764 -0.00131774
0.06833853 -0.06739485 0.035488408 -0.11138727 -0.042854298 -0.03635968 0.07614355 -0.17690378
-0.047856975 0.03684911 -0.029027905 0.046257053 -0.028168488 -0.12498249 0.046806045 0.07443029
-0.16059011 0.071971826 0.087583706 -0.051262196 0.113602355 -0.019295925 0.106825165 -0.03597624
-0.06815988 0.019359048 0.064086325 0.01743521 0.04080649 0.055999357 -0.11105343 0.010239807
-0.17311609 -0.12084001 -0.089941375 0.028327623 0.051145937 -0.12799788 -0.15391006 -0.12120876
-0.107555464 0.101449914 0.11904076 -0.121708624 0.11700573 -0.014526449 -0.08123627 0.052829385
0.0777356 0.11377195 -0.03524461 0.014683714 -0.0025189046 0.12589835 0.18778825 -0.03841543
0.070152335 -0.14251383 0.042241752 0.112501755 -0.13858403 -0.08472635 -0.12533376 -0.09409111
0.042840816 -0.07140784 0.08041202 0.15370625 -0.16731139 0.086352825 -0.059000537 0.03756883
0.09026303 -0.14408328 0.121898785 -0.026480198 0.016365243 -0.08854052 -0.115981966 0.02175934
-0.004525916 0.0120341545 0.10058183 0.108198754 0.016102903 0.07012906 -0.14551604 -0.11382556
0.1448657 0.053237043 0.05777155 -0.029695947 0.050141204 0.1110412 0.05634361 0.046931356
-0.10366921 -0.07141201 0.0828665 -0.13600726 -0.120296225 0.08729772 -0.14848529 0.020689417
-0.106253445 -0.009272266 0.09082501 0.060953274 0.06723489 0.054627147 -0.14068696 -0.03483227
0.038239777 -0.13424495 -0.20347407 0.06168414 0.058577046 -0.17517796 -0.025930459 -0.11357345
00000000: ef40 553d 8977 65bc d788 d1bd 0a23 efbd
00000010: 947a 913d 4a9d c33b 64f6 513d e34f b53d
00000020: 3a7b b1bd 10cb 013d ade2 1fbd 6fa4 573a
00000030: acd1 163d e78f 833d 076d 8dbc 58ce 483b
00000040: 9082 933d d288 b0bc 941d 4cbd e560 f4bc
00000050: 6cc8 443c d3da 983c a048 7c3d e053 233d
00000060: 4831 0e3d b4c4 03be d9c7 c33c 8daf cb3c
00000070: 147d 11be 3a99 1abd 7d51 2e3b b985 86bd
00000080: fef3 aa3d 03ee 5bbd 9b16 c03b 701f 90bd
00000090: 9f1a 843d 768d 7dbd b349 b03a 2c85 a03d
000000a0: f9bc 643c f679 823d 950f 1a3d a0a3 543d
000000b0: 7543 e6bd 70a6 8cbc 12b3 0a3d 049f 0e3d
000000c0: cee4 683d b052 debc b3fe 8ebd 3c73 853d
000000d0: aed8 6cbb 75e5 a23d cb80 933b b0e8 e73c
000000e0: 6921 4d3d 1248 dbbd 334f 843d e320 4fbc
000000f0: cf6f 75bd 9de2 59bc 335a febd 364a 4bbc
00000100: 563a 2e3d 3eea 9a3d 011f d7bd 0564 64bd
00000110: db2c 8d3c 01f1 d0bc cc02 8c3d 491e bc3d
00000120: 3d3d 36bd 2324 ae3c 9610 8e3b 0da7 eabd
00000130: 7543 8f3d b96f e13c a71a 143d 78a2 82bd
00000140: b1ae 62bc 8937 5c3d 5512 4dbd 1258 c03d
00000150: b169 3dbd 1e16 5a3c 9d80 7e3d 7a22 06bd
00000160: 0c53 1cbd a5e6 4abd ae99 2e3c b849 ff3c
00000170: 570f c2bd 2a79 c5bd edfa 0b3d 8d14 c73b
00000180: 9999 99bd c8df 953d a220 ab3d 8265 933d
00000190: 6fba ac3d 1206 5abd ba47 893d 2b1a b33c
000001a0: ee5a 81bb 92d2 a03d 3095 1a3d a403 ac3d
000001b0: e0e6 c83d 14f8 d4bd 0ff6 c03d ae3d a03d
000001c0: c469 8b3d fac2 a43d ff49 883c 7cc3 bc3c
000001d0: c5f3 633d b89b f4bd f3b6 983d 1c83 9e3d
000001e0: c4d8 c9bd 01f9 743d d381 303d c33e 4d3d
000001f0: 532a 023d 64e2 4a3d 0810 c63d ed5e 8d3d
00000200: dca7 0ebe 6344 c7bc 89c7 173e ee3e 043e
00000210: 46a9 003d c2f6 e8bd e8d4 fabd 04b8 acba
00000220: 12f5 8b3d 5006 8abd 4b5c 113d 021f e4bd
00000230: fd87 2fbd e3ed 14bd 26f1 9b3d 4426 35be
00000240: ad05 44bd 18ef 163d eecb edbc 0978 3d3d
00000250: 9ac1 e6bc d2f6 ffbd b2b7 3f3d e86e 983d
00000260: bc71 24be f765 933d 165f b33d 4ff8 51bd
00000270: 5aa8 e83d 7d12 9ebc 27c7 da3d d25b 13bd
00000280: 6897 8bbd de96 9e3c b13f 833d 49d4 8e3c
00000290: b524 273d 955f 653d fb6f e3bd ddc4 273c
000002a0: 5845 31be f87a f7bd 2f33 b8bd 550f e83c
000002b0: 677e 513d e011 03be 999a 1dbe 4c3c f8bd
000002c0: 0a46 dcbd f9c4 cf3d a4cb f33d 5f42 f9bd
000002d0: b3a0 ef3d 5800 6ebc 345f a6bd a063 583d
000002e0: d833 9f3d 4501 e93d a75c 10bd f693 703c
000002f0: 3514 25bb 7feb 003e 904b 403e 7f59 1dbd
00000300: 07ac 8f3d 25ef 11be b005 2d3d 5267 e63d
00000310: f9e8 0dbe 0285 adbd 7e57 00be d7b2 c0bd
00000320: da79 2f3d 463e 92bd 0faf a43d 2c65 1d3e
00000330: ad53 2bbe c0d9 b03d 8caa 71bd c6e1 193d
00000340: d3db b83d 918a 13be 12a6 f93d 00ed d8bc
00000350: 6710 863c bb54 b5bd f487 edbd a540 b23c
00000360: 234e 94bb e72a 453c d9fd cd3d 4f97 dd3d
00000370: 3cea 833c d39f 8f3d 2802 15be 601d e9bd
00000380: ad57 143e 160f 5a3d dca1 6c3d ea44 f3bc
00000390: dd60 4d3d 9269 e33d 8fc8 663d 183b 403d
000003a0: 8650 d4bd 7640 92bd e9b5 a93d 7d45 0bbe
000003b0: de5d f6bd 26c9 b23d 870c 18be da7c a93c
000003c0: 689b d9bd b4ea 17bc 7602 ba3d 24aa 793d
000003d0: 72b2 893d b7c0 5f3d 3e10 10be 48ac 0ebd
000003e0: 50a1 1c3d 8277 09be 825b 50be 82a8 7c3d
000003f0: 7cee 6f3d da61 33be 1d6c d4bc 3299 e8bd

action_model._discrete_distribution.branches.1.bias f4 [3]
-0.0032226308 0.0011577251 0.0031518526
00000000: c632 53bb cfbe 973a 508f 4e3b

action_model._discrete_distribution.branches.1.weight f4 [3, 128]
0.0017436228 -0.0026762893 -0.0015167658 -0.037064668 -0.008801282 0.005675641 -0.0071136053 0.016410844
-0.0044368063 -0.011947169 -0.037558682 0.0053965705 -0.015600752 0.033629585 -0.008387342 0.002545269
0.00752616 0.016816815 -0.019548666 0.032527834 0.013402969 -0.02102316 0.020264857 0.0026242118
-0.013616381 -0.053943712 0.0071812826 0.0025047506 -0.058597706 0.005122832 0.008829479 0.003669907
0.00041200325 -0.055014078 -0.023551174 -0.03774466 0.06274234 -0.04223009 0.002018004 0.007032764
0.025059719 0.032237478 -0.024162019 0.01459645 -0.040411264 0.003765712 -0.001343051 0.010500406
-0.0044663376 -0.04172323 -0.01974373 0.050384138 0.007576401 0.011294593 -0.040354963 -0.027888972
0.036384393 -0.009968503 0.03939595 0.022555264 -0.05644603 -0.015046752 -0.02374155 0.00419077
0.015147003 0.031007115 -0.06794375 -0.041663226 0.003948866 -0.0079760775 0.01390748 0.00039619193
-0.07659487 -0.02651303 -0.023117274 -0.06119688 0.0010301534 -0.009545959 0.018695988 0.004392955
-0.025595756 0.010222062 -0.034955334 0.024925353 -0.0112224175 -0.003368185 0.019915244 -0.066889785
-0.041821018 -0.05734778 -0.013802171 -0.013104999 -0.040068757 -0.095698595 -0.026722034 -0.008298964
0.008870383 0.03339147 0.015874738 0.0338564 0.014603928 -0.04590361 0.021417065 0.013170666
-0.034780484 -5.0258783e-05 0.036380798 -0.009829981 0.026345888 -0.013271364 0.02458329 0.01934113
0.014129668 0.010906121 -0.018373812 0.016270163 0.021028645 -0.04852347 0.005121865 -0.0003697375
-0.07562393 0.010890427 0.011999892 0.008685217 -0.01575299 0.014815782 0.031217523 -0.0021868949
0.01138185 0.023973968 0.001818693 0.019497868 -0.011585096 -0.0072934534 0.03999333 -0.0003226584
0.022162575 0.05045263 -0.0048169494 0.028626312 0.00037691998 0.0055836276 0.0015110525 -0.008064586
0.022746552 -0.0023876987 -0.000120093704 0.010847025 0.010794874 0.038201433 0.0018087053 -0.013955025
0.0054670502 0.02825464 -0.002817569 0.017536443 0.02766059 -0.013935202 -0.009042714 -0.003200315
0.023659008 0.05652315 -0.0034433685 0.024911538 0.017075142 0.0028124643 0.01140023 0.008545386
-0.0026471037 0.014538965 0.013014578 -0.0066796825 0.021605631 -0.021325223 0.02317025 0.007193957
0.022650259 0.016045999 0.038607996 -0.04844243 0.020884175 -0.025185343 0.0018666559 0.004930477
-0.0012515705 0.031594876 0.004584511 0.007963227 0.016664125 -0.009471965 0.051175147 0.022595407
-0.04191212 0.003109323 0.00558385 0.043089524 -0.010969161 0.007336182 0.011544101 0.012833364
0.037638906 -0.0049510254 0.02724729 0.04942251 0.014121253 0.022095393 0.013759802 -0.014780348
0.013866462 -0.0054110084 -0.0013589122 -0.015553085 0.026905835 0.0046481956 0.015422516 0.03290863
0.0030311837 0.020872943 0.0363603 0.029220503 0.01551508 0.059673224 0.029652108 -0.0008274163
0.020875819 -0.0005503928 0.0049099033 0.024219 -0.009482294 0.039844442 0.003216833 -0.002738582
0.035128433 0.0031336355 -0.0048348117 0.013805718 0.023700211 0.0038120465 -0.0024002618 -0.0021854478
0.025035644 0.02382061 0.010379203 0.003488293 0.0054541407 0.03700495 0.011467466 0.008626651
0.02461027 -0.01699196 0.0128437 0.019966345 0.0028579643 0.011660172 -0.029177697 0.012084484
00000000: 468a e43a af64 2fbb 37ce c6ba 1fd1 17bd
00000010: 4133 10bc bafa b93b 3f19 e9bb 0970 863c
00000020: a162 91bb 0fbe 43bc 22d7 19bd b7d5 b03b
00000030: 4c9a 7fbc 2dbf 093d 106b 09bc 87ce 263b
00000040: 029e f63b 6bc3 893c 8624 a0bc e83b 053d
00000050: 2098 5b3c c338 acbc 7c02 a63c f8fa 2b3b
00000060: 3e17 5fbc 15f4 5cbd f750 eb3b be26 243b
00000070: 2604 70bd 6edd a73b 85a9 103c d382 703b
00000080: 2402 d839 7156 61bd 64ee c0bc 259a 1abd
00000090: 0e7f 803d 75f9 2cbd 7d40 043b 1a73 e63b
000000a0: 0a4a cd3c 720b 043d 6def c5bc f325 6f3c
000000b0: 4886 25bd 2aca 763b 5009 b0ba e509 2c3c
000000c0: 5b5a 92bb fae5 2abd 9abd a1bc 995f 4e3d
000000d0: 7543 f83b f50c 393c 3f4b 25bd 6a77 e4bc
000000e0: cd07 153d ef52 23bc a65d 213d d1c5 b83c
000000f0: f433 67bd a786 76bc a47d c2bc ba52 893b
00000100: 232b 783c a202 fe3c 1826 8bbd 0fa7 2abd
00000110: 7d65 813b 18ae 02bc 33dc 633c fbb7 cf39
00000120: c5dd 9cbd db31 d9bc 7060 bdbc 94a9 7abd
00000130: 3606 873a a766 1cbc 5428 993c c7f2 8f3b
00000140: 31ae d1bc 6f7a 273c 532d 0fbd 4130 cc3c
00000150: 3bde 37bc c4bc 5cbb 4b25 a33c 83fd 88bd
00000160: 844c 2bbd 81e5 6abd 8022 62bc 5ab6 56bc
00000170: 231f 24bd a0fd c3bd 2be8 dabc 61f8 07bc
00000180: 1555 113c 7ec5 083d bd0b 823c 02ad 0a3d
00000190: 5045 6f3c 6c05 3cbd d772 af3c c7c9 573c
000001a0: fb75 0ebd f5cc 52b8 0804 153d ee0d 21bc
000001b0: 55d3 d73c 2370 59bc e562 c93c 4a71 9e3c
000001c0: 1f80 673c 96af 323c ad84 96bc 0149 853c
000001d0: 4444 ac3c 8cc0 46bd 51d5 a73b 54d9 c1b9
000001e0: b8e0 9abd c36d 323c 329b 443c 714c 0e3c
000001f0: 6a0c 81bc e5bd 723c e4bb ff3c 0252 0fbb
00000200: f07a 3a3c 0e65 c43c 3661 ee3a feb9 9f3c
00000210: 6acf 3dbc ecfd eebb 0cd0 233d 7a2a a9b9
00000220: 4a8e b53c 6ba7 4e3d 80d7 9dbb ba81 ea3c
00000230: 589d c539 ddf6 b63b 820e c63a 5321 04bc
00000240: fa56 ba3c f07a 1cbb d1da fbb8 b8b7 313c
00000250: fcdc 303c 1b79 1c3d 1412 ed3a 9ea3 64bc
00000260: f124 b33b 4676 e73c f7a6 38bb 96a8 8f3c
00000270: 7698 e23c 7950 64bc e427 14bc 60bc 51bb
00000280: 89d0 c13c d284 673d 23aa 61bb 4813 cc3c
00000290: 2be1 8b3c 5251 383b 08c8 3a3c f201 0c3c
000002a0: 087b 2dbb d734 6e3c 193b 553c 3de1 dabb
000002b0: 4bfe b03c 3cb2 aebc 89cf bd3c 49bb eb3b
000002c0: 098d b93c e672 833c 6b23 1e3d 926b 46bd
000002d0: 4a15 ab3c 7e51 cebc 94aa f43a d78f a13b
000002e0: bd0b a4ba a169 013d aa39 963b 3278 023c
000002f0: 3483 883c 4d30 1bbc 089d 513d 011a b93c
00000300: 0bac 2bbd c9c5 4b3b bbf8 b63b a47e 303d
00000310: ffb7 33bc 5b64 f03b 7823 3d3c 0843 523c
00000320: 412b 1a3d 363c a2bb b535 df3c 426f 4a3d
00000330: d45c 673c 6601 b53c cb70 613c 4629 72bc
00000340: 2830 633c d44e b1bb 871d b2ba 5ed2 7ebc
00000350: a069 dc3c e44f 983b b8ae 7c3c 33cb 063d
00000360: d3a6 463b bcfd aa3c 8aee 143d d65f ef3c
00000370: f632 7e3c e96b 743d fae8 f23c f8e6 58ba
00000380: c403 ab3c 3c48 10ba 41e3 a03b ed66 c63c
00000390: a05b 1bbc ed33 233d 81d1 523b c879 33bb
000003a0: d5e2 0f3d ae5d 4d3b 576d 9ebb 6131 623c
000003b0: f226 c23c 87d3 793b b64d 1dbb bb39 0fbb
000003c0: 8d17 cd3c 7123 c33c 880d 2a3c d89b 643b
000003d0: a6b8 b23b 8192 173d 0ae2 3b3c cc56 0d3c
000003e0: 7a9b c93c b932 8bbc 626e 523c 7690 a33c
000003f0: af4c 3b3b 4e0a 3f3c 1106 efbc 00fe 453c

discrete_action_output_shape f4 [1, 2]
3.0 3.0
00000000: 0000 4040 0000 4040

network_body._body_endoder.seq_layers.0.bias f4 [128]
0.038472805 0.03662582 0.005591753 -0.012391172 0.06780891 0.050813045 0.036878213 0.08128524
0.07349288 -0.08094127 0.031527653 -0.005124382 0.009759933 0.024342723 0.0010971171 0.04536764
-0.01068032 0.1187641 0.053893715 -0.05332911 -0.069961146 0.018290829 0.040127546 0.052644875
0.04604876 0.043502416 0.065268435 0.037010174 -0.039178804 -0.027420018 -0.0069462713 -0.0038095163
0.029191893 0.070718184 0.056912694 0.057017185 0.08898374 0.014734746 0.06721296 -0.028096298
-0.058026616 -0.06380522 0.053947438 -0.095665716 -0.0025192676 0.06360293 0.05792347 0.047141083
0.09283126 0.039671764 0.042294562 0.083736196 0.073257685 0.09042832 0.08440185 -0.067199916
0.0060770568 0.035507508 0.018263843 -0.004611117 -0.063665114 0.037403457 0.027908867 -0.20082429
0.031338017 0.0552852 0.078485936 0.03664587 0.04099513 0.03197235 -0.0030384532 0.06326048
0.061725024 0.027162291 -0.0060433117 -0.008702199 -0.02466645 0.061819304 0.07574723 -0.06464357
-0.025908362 -0.08464859 0.04039229 0.01052695 0.036743168 0.054064695 -0.067061596 0.10778897
-0.044735264 0.028501455 0.05124322 0.071932666 0.03679194 -0.031733617 -0.00039160476 0.079732925
0.05992675 -0.050059643 -0.014221935 0.08295319 -0.04465569 -0.013857006 0.069805354 -0.01042973
0.025736857 -0.0098228995 -0.042467277 0.01449602 -0.17734024 0.07216129 0.06897705 0.07971493
-0.050841592 -0.008219271 0.027312592 -0.015483469 0.041575797 0.0901498 -0.08082179 -0.04002236
-0.045064855 -0.032571428 -0.03179248 0.019439915 -0.06239761 0.013084546 0.0043944316 0.103044376
00000000: a995 1d3d f504 163d 063b b73b 5804 4bbc
00000010: 66df 8a3d 5721 503d 9c0d 173d e078 a63d
00000020: 6f83 963d 89c4 a5bd 2423 013d 6fea a7bb
00000030: 20e8 1f3c 646a c73c 24cd 8f3a 6bd3 393d
00000040: 82fc 2ebc 983a f33d a8bf 5c3d a06f 5abd
00000050: ca47 8fbd a6d6 953c c85c 243d 27a2 573d
00000060: a09d 3c3d 972f 323d 75ab 853d fb97 173d
00000070: f479 20bd f29f e0bc 8c9d e3bb 14a9 79bb
00000080: d623 ef3c b2d4 903d 491d 693d da8a 693d
00000090: 1b3d b63d 016a 713c f3a6 893d 352a e6bc
000000a0: 51ad 6dbd 50ac 82bd fdf7 5c3d 63ec c3bd
000000b0: 4c1a 25bb 4142 823d 2941 6d3d 0217 413d
000000c0: 511e be3d dc7e 223d 103d 2d3d e27d ab3d
000000d0: 2008 963d 7c32 b93d e1da ac3d 1ca0 89bd
000000e0: 0c22 c73b 5270 113d 0e9e 953c da18 97bb
000000f0: db62 82bd 5e34 193d 23a1 e43c e2a4 4dbe
00000100: 4b5c 003d bc72 623d 3cbd a03d fb19 163d
00000110: 82ea 273d 70f5 023d c920 47bb b68e 813d
00000120: 61d3 7c3d 7483 de3c f906 c6bb ab93 0ebc
00000130: 4c11 cabc 3d36 7d3d 5d21 9b3d d963 84bd
00000140: c63d d4bc 3d5c adbd 6372 253d 3a79 2c3c
00000150: 0180 163d f172 5d3d 9757 89bd 77c0 dc3d
00000160: 533c 37bd e27b e93c 69e4 513d 6f51 933d
00000170: 25b3 163d 1cfb 01bd 4d50 cdb9 044b a33d
00000180: c075 753d 570b 4dbd 1e03 69bc 5de3 a93d
00000190: e3e8 36bd 7f08 63bc 1cf6 8e3d 75e1 2abc
000001a0: 1ad6 d23c 3af0 20bc 2bf2 2dbd b780 6d3c
000001b0: ae98 35be 4cc9 933d d743 8d3d 9541 a33d
000001c0: 463f 50bd 1faa 06bc a8be df3c 60ae 7dbc
000001d0: 624b 2a3d 75a0 b83d e585 a5bd 7cee 23bd
000001e0: ed95 38bd 9e69 05bd d538 02bd 7540 9f3c
000001f0: a394 7fbd 9060 563c 2aff 8f3b ee08 d33d

network_body._body_endoder.seq_layers.0.weight f4 [128, 66]
0.011947908 -0.2625166 0.23277327 -0.008765665 -0.09015313 0.22478591 -0.01860684 0.15262133
-0.03220584 0.09358035 0.07341664 -0.023857705 0.08296045 -0.19440259 0.021303313 0.1377083
-0.1438822 0.119664975 0.2533961 0.2371289 -0.014238122 -0.09479635 0.16490597 0.26867867
-0.006503114 -0.20983565 0.03681189 0.25079525 0.10062258 -0.30358255 -0.25711262 0.10803268
-0.351152 0.025004234 -0.06525438 0.24762551 0.055856895 -0.07027196 0.13463631 0.3870374
-0.00072639674 -0.18802579 0.009405547 0.12657896 0.0055073905 -0.048918083 -0.039244644 -0.012676831
0.082710154 -0.0620482 0.05966662 0.013373389 -0.048528627 0.072675005 0.102791816 0.09735949
-0.18168877 0.044443402 0.15570334 0.18356408 -0.049039427 0.040703204 0.08462477 0.16787377
0.11399585 -0.14753453 0.18824738 0.23813537 0.016519824 0.014499534 -0.16558559 -0.010844262
0.055674266 0.04668461 -0.08711173 -0.00018966457 0.18680534 0.01902229 -0.024798168 0.1728597
-0.19540252 0.04161589 -0.23539227 0.004684791 0.1895338 -0.23678505 -0.088841654 -0.09401588
-0.17241898 0.19701101 -0.10005041 0.08780666 0.07489342 -0.028265655 0.20255587 0.12581924
0.117069334 -0.14980078 -0.1453823 0.087580495 -0.14922334 -0.059263702 -0.13176768 -0.019730749
-0.07082676 -0.20287858 -0.08251964 0.14743955 0.08900202 -0.06486815 0.068385355 -0.10059507
0.15646458 -0.028502902 0.21409722 -0.088276796 -0.018235093 -0.097410396 -0.14784373 0.1653437
-0.008066163 0.0524743 -0.0070416387 -0.098760344 0.063263625 0.22683322 0.07089264 0.025463417
-0.03182482 -0.16453202 0.15602927 0.2005285 0.081158794 0.10927697 0.14769289 0.26797223
-0.15292023 -0.20119832 -0.05707367 0.18377218 0.05655808 -0.09389722 -0.0483806 0.08446286
0.11087215 0.06068964 -0.14463495 -0.060234807 0.10674736 0.03243674 0.19860414 0.047451764
0.21142094 -0.09777562 0.23252594 0.07235466 -0.0640516 -0.14121476 0.0556249 0.22417101
-0.053365517 0.039920058 -0.08174353 0.2686503 0.0029657779 0.16448025 0.10798711 0.2022875
0.2086995 -0.2346198 -0.0021818476 0.07814393 -0.0032393706 0.03487987 0.14372967 -0.0074026235
-0.17730431 -0.24881168 0.00965192 0.10818206 0.078301206 -0.17025943 0.0005465745 -0.11399084
-0.029712224 0.14789507 -0.20576583 0.08135721 0.17276166 -0.3286778 0.12860048 0.09454002
-0.058933802 -0.1190476 0.1983826 -0.076525845 -0.12735961 -0.08375706 -0.034468282 -0.09336281
-0.07485019 0.036216438 -0.009228522 0.061545223 -0.0005379 0.049685024 0.044731587 0.24261011
-0.024276836 -0.07953221 0.09205724 0.07974453 -0.026388876 -0.006568566 -0.20171489 -0.1989474
0.22814289 -0.18635668 -0.03806866 0.07087768 0.16607653 -0.031710234 0.024958562 0.020980174
-0.24080676 -0.20701684 0.18342233 0.017109206 0.22339424 -0.2063616 0.16701041 0.008916839
0.2839796 -0.074995905 0.17181899 0.06964003 -0.22691669 0.30571264 0.022792427 0.233642
0.15291548 -0.16577406 -0.34954083 0.03051134 -0.13846982 -0.023551004 -0.18542013 -0.07891969
-0.15708232 0.08214787 0.048443705 0.10899391 0.0352508 -0.008634193 -0.053667106 0.28230518
00000000: 29c1 433c 9368 86be 1e5c 6e3e dd9d 0fbc
00000010: 34a2 b8bd 472e 663e 5f6d 98bc c448 1c3e
00000020: 45ea 03bd 0ea7 bf3d 775b 963d 3c71 c3bc
00000030: 2be7 a93d 7911 47be 4984 ae3c 6803 0d3e
00000040: db55 13be e912 f53d 22bd 813e ebd1 723e
00000050: 0347 69bc 9724 c2bd 1cdd 283e 4090 893e
00000060: 1318 d5bb 28df 56be 10c8 163d 3c68 803e
00000070: 3613 ce3d 2c6f 9bbe 44a4 83be 3d40 dd3d
00000080: 32ca b3be aed5 cc3c 17a4 85bd 8b91 7d3e
00000090: 33ca 643d bfea 8fbd 1ade 093e c429 c63e
000000a0: a96b 3eba d589 40be b919 1a3c ea9d 013e
000000b0: 5777 b43b 545e 48bd febe 20bd 7cb2 4fbc
000000c0: f163 a93d 4126 7ebd fc64 743d 0f1c 5b3c
000000d0: f4c5 46bd a2d6 943d 8484 d23d 6a64 c73d
000000e0: 9f0c 3abe 490a 363d b270 1f3e 39f8 3b3e
000000f0: 91dd 48bd 67b8 263d c04f ad3d 1ae7 2b3e
00000100: a876 e93d 4b13 17be ecc3 403e c2d9 733e
00000110: 9554 873c 748f 6d3c 458f 29be 22ac 31bc
00000120: b30a 643d 5d38 3f3d a267 b2bd b2e0 46b9
00000130: e649 3f3e a2d4 9b3c 8725 cbbc 2202 313e
00000140: 9917 48be 6c75 2a3d ac0a 71be e082 993b
00000150: 2615 423e c877 72be 9df2 b5bd 668b c0bd
00000160: 9a8e 30be 41bd 493e 3be7 ccbd fad3 b33d
00000170: b961 993d 608d e7bc ce6a 4f3e c2d6 003e
00000180: 0cc2 ef3d 6065 19be 19df 14be 675d b33d
00000190: 01ce 18be 7fbe 72bd 1bee 06be 61a2 a1bc
000001a0: 9f0d 91bd 67bf 4fbe 0f00 a9bd 65fa 163e
000001b0: b146 b63d 98d9 84bd 9f0d 8c3d ca04 cebd
000001c0: 4038 203e eb7e e9bc 4d3c 5b3e 77ca b4bd
000001d0: c361 95bc 1a7f c7bd 5964 17be dc4f 293e
000001e0: f127 04bc 4bef 563d 8cbd e6bb dd42 cabd
000001f0: 5c90 813d f846 683e 2930 913d a898 d03c
00000200: be5a 02bd 157b 28be 23c6 1f3e 5857 4d3e
00000210: 9536 a63d 9bcc df3d ce3c 173e a833 893e
00000220: 1f97 1cbe ef06 4ebe 15c6 69bd c62e 3c3e
00000230: 72a9 673d 304d c0bd bc2a 46bd ddfa ac3d
00000240: f010 e33d b395 783d 2f1b 14be c6b8 76bd
00000250: 5c9e da3d 63dc 043d e25e 4b3e c85c 423d
00000260: bb7e 583e 963e c8bd 481b 6e3e ae2e 943d
00000270: 7c2d 83bd 9a9a 10be efd6 633d 168d 653e
00000280: cd95 5abd 3783 233d 2769 a7bd 888c 893e
00000290: 7f5d 423b 836d 283e 5928 dd3d 7424 4f3e
000002a0: 52b5 553e 2c40 70be 54fd 0ebb ed09 a03d
000002b0: 9f4b 54bb 32de 0e3d df2d 133e b591 f2bb
000002c0: 438f 35be 7dc8 7ebe 1623 1e3c 8e8e dd3d
000002d0: 625c a03d 7d58 2ebe fe47 0f3a 0874 e9bd
000002e0: 0d67 f3bc ce71 173e 47b4 52be 9c9e a63d
000002f0: 6fe8 303e 7548 a8be d8af 033e 339e c13d
00000300: 9264 71bd 3acf f3bd cf24 4b3e 95b9 9cbd
00000310: 8f6a 02be d288 abbd 9d2e 0dbd 0035 bfbd
00000320: 0e4b 99bd b057 143d 3a33 17bc d816 7c3d
00000330: dc01 0dba 8682 4b3d 7838 373d c96e 783e
00000340: 37e0 c6bc c9e1 a2bd 8288 bc3d 1a51 a33d
00000350: 7c2d d8bc 203d d7bb 598e 4ebe deb8 4bbe
00000360: 4a9e 693e 49d4 3ebe e2ed 1bbd 5128 913d
00000370: f70f 2a3e 97e2 01bd e675 cc3c 9dde ab3c
00000380: 0c96 76be 39fc 53be 10d3 3b3e 9b28 8c3c
00000390: 76c1 643e 7550 53be c704 2b3e ef17 123c
000003a0: c665 913e 7497 99bd 51f1 2f3e 6f9f 8e3d
000003b0: d95c 68be 5e86 9c3e 2fb7 ba3c d93f 6f3e
000003c0: e095 1c3e adc0 29be 04f7 b2be ebf2 f93c
000003d0: 08cb 0dbe 09ee c0bc c6de 3dbe a5a0 a1bd
000003e0: 30da 20be 243d a83d e86c 463d 3338 df3d
000003f0: 2563 103d 6e76 0dbc 0ad2 5bbd 4e8a 903e

network_body._body_endoder.seq_layers.2.bias f4 [128]
0.081228025 0.001308966 -0.02110883 -0.032116257 0.05988734 0.023356393 0.06053158 0.071159154
-0.059101123 0.033870924 -0.050901704 0.04523943 0.039958414 0.065955766 -0.015147036 0.052395705
0.07101484 -0.021293689 -0.0020692255 -0.004625617 0.03520975 0.04802443 0.062164705 0.05016272
0.05600498 -0.04121704 0.030683963 0.04915583 -0.03479657 -0.036446203 0.02199043 -0.021290842
0.07729065 -0.01116454 0.0048781116 -0.017980065 0.05344025 -0.047263335 0.0103078205 0.064719096
0.043491017 0.06869169 0.04669621 0.053795014 -0.036371764 0.024429863 0.05918793 0.06362202
0.06784498 0.009214158 -0.009597411 0.060834914 0.0052865837 0.052578643 0.030165153 0.033755198
0.07437013 -0.041387755 0.049382452 -0.009450642 -0.019389037 0.0075638387 -0.0046929945 6.7814115e-05
0.02233602 0.10427734 -0.031448852 0.0031054185 0.042463828 0.0262964 0.093762025 0.08166235
-0.043620665 0.020418966 0.010847332 0.0046347985 0.09103798 0.021349141 0.06545 -0.11631696
0.0052524763 0.07187777 -0.0029399178 0.080140136 -0.023927718 0.038889058 0.07649173 -0.009451373
-0.019128464 -0.0426983 0.020715337 0.03484651 -0.051007126 -0.020826632 0.06101699 0.03650124
-0.034340538 0.053425957 0.06504047 0.07173285 0.06799193 -0.007375535 0.05199354 0.017709142
0.043630563 0.07357082 0.04292617 0.10018896 0.09985369 -0.06745486 0.09690737 0.074897796
0.084425054 0.07048084 0.029529465 0.039455898 0.03349768 -0.025311153 0.07668284 0.08694509
-0.018586492 0.080671094 0.06500975 0.053839583 0.03763818 0.08668755 0.0786979 0.07852877
00000000: e15a a63d 9c91 ab3a 6dec acbc 568c 03bd
00000010: 6d4c 753d e855 bf3c f6ef 773d e4bb 913d
00000020: 0514 72bd 3dbc 0a3d 4e7e 50bd fb4c 393d
00000030: 6fab 233d d113 873d 462b 78bc e19c 563d
00000040: 3a70 913d 1a70 aebc d89b 07bb 7d92 97bb
00000050: 1938 103d 44b5 443d 6ba0 7e3d 6d77 4d3d
00000060: 7a65 653d 33d3 28bd ef5c fb3c a057 493d
00000070: d986 0ebd 9d48 15bd 4625 b43c 226a aebc
00000080: 8f4a 9e3d 7aeb 36bc 91d8 9f3b ee4a 93bc
00000090: 2ae4 5a3d 3397 41bd 22e2 283c 728b 843d
000000a0: a323 323d 3bae 8c3d 8644 3f3d 2958 5c3d
000000b0: 8ffa 14bd 2321 c83c 0b6f 723d 434c 823d
000000c0: 4ff2 8a3d fbf6 163c 763e 1dbc 082e 793d
000000d0: 143b ad3b b45c 573d e91c f73c e442 0a3d
000000e0: 5e4f 983d 3586 29bd 4145 4a3d ded6 1abc
000000f0: c2d5 9ebc 14da f73b b1c7 99bb 6d37 8e38
00000100: 07fa b63c 5c8f d53d 83d0 00bd 4784 4b3b
00000110: 8dee 2d3d 8c6b d73c 4e06 c03d 973e a73d
00000120: 95ab 32bd ad45 a73c 02b9 313c 82df 973b
00000130: 1f72 ba3d 65e4 ae3c a60a 863d 9637 eebd
00000140: f71c ac3b a734 933d a3ab 40bb 8320 a43d
00000150: 1004 c4bc 224a 1f3d b2a7 9c3d eed9 1abc
00000160: 4cb3 9cbc 6ae4 2ebd 36b3 a93c 37bb 0e3d
00000170: d9ec 50bd 9d9c aabc f4ec 793d 5382 153d
00000180: aaa8 0cbd 2dd5 5a3d f033 853d ace8 923d
00000190: 5a3f 8b3d 79ae f1bb 2ef7 543d c312 913c
000001a0: f6b5 323d 4cac 963d 5ad3 2f3d df2f cd3d
000001b0: 1780 cc3d c625 8abd 5f77 c63d 0464 993d
000001c0: 0be7 ac3d 4258 903d c7e7 f13c 829c 213d
000001d0: dd34 093d 5659 cfbc e50b 9d3d 4410 b23d
000001e0: b342 98bc e336 a53d d523 853d e586 5c3d
000001f0: 7e2a 1a3d 3e89 b13d 5d2c a13d b1d3 a03d

network_body._body_endoder.seq_layers.2.weight f4 [128, 128]
-0.004520055 0.050533086 -0.12880832 -0.08767258 0.117414884 -0.057155993 0.023194185 0.038666707
-0.03795991 -0.031461056 -0.015231752 -0.07105258 0.079353325 0.073825195 -0.014254448 -0.10987285
0.12263624 0.13369805 0.087184235 -0.037338816 0.03885848 0.11694091 0.016972503 0.15700467
-0.12271258 -0.12484459 0.10447552 -0.06410804 0.017213972 -0.1324968 -0.17316388 -0.06085004
0.0047051455 -0.017266223 -0.066746205 0.13526626 0.24354076 -0.28310418 -0.05180882 -0.05075408
0.034187805 -0.11828502 0.1317225 -0.08950388 -0.016027424 0.15481213 0.033700094 0.024619186
0.044887256 0.024558995 -0.17363866 0.011322158 0.0667606 0.107381426 0.16113405 0.020256573
0.027108572 0.060847078 0.03793129 -0.19793682 -0.037787423 -0.049068555 -0.15020373 -0.020525545
0.069696225 0.07455119 -0.017220411 0.100404255 0.12449288 0.019770995 0.07546173 -0.026789509
0.27116638 0.052592523 -0.041517816 -0.066490464 0.04790258 0.10484942 0.109716766 -0.0608898
-0.1268692 -0.0123117 -0.28884012 -0.039852265 0.02475634 0.0619507 -0.027414255 0.19977172
-0.019437991 -0.07063002 0.1796762 0.15227595 0.051775526 -0.041542705 0.06646635 0.03846969
0.08592792 -0.094587274 0.10064497 0.26183718 -0.20435227 -0.11255095 0.112057924 0.06376513
0.08408163 -0.09436389 0.08337046 -0.0025073907 -0.07651674 -0.044971015 -0.19848463 0.19502625
-0.026979174 -0.12524007 0.09692368 0.03612827 0.17282534 0.0005899098 -0.077531256 -0.033379693
-0.0022821035 -0.09592987 -0.009583158 -0.07902373 -0.052020043 -0.023558429 0.16533877 0.070535325
-0.14645572 -0.116512366 0.107336976 -0.13530073 0.057524048 -0.0106240595 0.09813835 0.003436808
-0.06335168 0.02078507 0.08431554 -0.046376623 -0.00438691 0.07217036 -0.021451317 0.033505566
0.08310931 0.09398717 -0.01592784 0.035006747 -0.08558135 0.11019141 -0.052850146 0.00216205
0.0033766334 -0.14748277 0.10503308 -0.11952702 0.059330754 -0.09643739 -0.06120757 -0.027619429
-0.18088254 -0.064656444 0.115070276 0.077929445 0.0026973363 -0.05442331 0.099795714 0.08980718
0.098240666 -0.04066037 -0.11333421 0.24580152 0.032932818 0.045970973 -0.02005299 -0.06984866
-0.08441758 0.1276285 -0.06715023 0.025298797 -0.11217277 0.15963456 0.10922399 0.024290504
-0.03022929 -0.12356829 0.06431712 0.01367733 0.081095144 0.098094486 -0.1205903 0.00816334
0.07199159 0.044242088 -0.15127514 -0.12981237 0.1332532 0.07188451 0.051402215 0.056016684
-0.16905081 0.18902196 0.12550084 0.05873434 -0.041756924 -0.059306327 -0.099049 -0.093438335
-0.088505805 -0.0707695 -0.15332988 0.035420448 0.022127625 0.10359583 -0.08571597 0.024708789
0.01746126 -0.053069036 -0.0051469635 0.070988335 0.10422879 -0.10771849 0.023833606 0.023069805
-0.06790188 0.07334258 0.11858172 0.19285701 -0.073055014 0.058342513 0.10505699 -0.057542946
-0.019661842 -0.05245226 0.19171181 0.04295906 0.05194966 -0.05078401 0.095016815 -0.1274336
0.10838125 -0.1293334 0.059190135 0.038453996 -0.077983126 -0.10453057 0.064099416 -0.04973464
0.13458684 0.045905434 0.10242774 0.022023583 0.0026968908 0.21185678 0.06028592 -0.13852951
00000000: f81c 94bb c8fb 4e3d 54e6 03be ae8d b3bd
00000010: 3777 f03d 671c 6abd bb01 be3c fb60 1e3d
00000020: da7b 1bbd 4fdd 00bd 998e 79bc 0484 91bd
00000030: ff83 a23d aa31 973d 7d8b 69bc 0405 e1bd
00000040: b628 fb3d 24e8 083e a68d b23d 96f0 18bd
00000050: 122a 1f3d b77e ef3d eb09 8b3c d5c5 203e
00000060: bc50 fbbd 85ae ffbd 43f7 d53d 134b 83bd
00000070: 5104 8d3c 3ead 07be df51 31be e43d 79bd
00000080: 9f2d 9a3b e571 8dbc 3cb2 88bd 3d83 0a3e
00000090: c062 793e 08f3 90be 7c35 54bd 83e3 4fbd
000000a0: 8308 0c3d 6b3f f2bd 43e2 063e cf4d b7bd
000000b0: f24b 83bc 1287 1e3e 1c09 0a3d 2dae c93c
000000c0: b3db 373d f22f c93c 55ce 31be 9380 393c
000000d0: c8b9 883d cbea db3d 5300 253e 1df1 a53c
000000e0: cc12 de3c c93a 793d d75d 1b3d f3af 4abe
000000f0: fcc6 1abd 1cfc 48bd 02cf 19be 3025 a8bc
00000100: e5bc 8e3d 4bae 983d d211 8dbc bfa0 cd3d
00000110: 20f6 fe3d c8f6 a13c ae8b 9a3d ac75 dbbc
00000120: 52d6 8a3e 426b 573d 960e 2abd 272c 88bd
00000130: 7f35 443d 4bbb d63d 2fb3 e03d 9567 79bd
00000140: 00ea 01be 03b7 49bc dae2 93be 213c 23bd
00000150: cfcd ca3c 04c0 7d3d dc93 e0bc f590 4c3e
00000160: 6c3c 9fbc 79a6 90bd 0afd 373e 3aee 1b3e
00000170: 9312 543d af28 2abd 821f 883d 6592 1d3d
00000180: fafa af3d f9b6 c1bd f31e ce3d 860f 863e
00000190: b941 51be 1d81 e6bd a07e e53d 4b97 823d
000001a0: fd32 ac3d db41 c1bd 22be aa3d 0953 24bb
000001b0: cfb4 9cbd 8733 38bd 8e3f 4bbe f6b4 473e
000001c0: 6e03 ddbc ef3e 00be ec7f c63d 3dfb 133d
000001d0: 20f9 303e 2da4 1a3a b5c8 9ebd 25b9 08bd
000001e0: 588f 15bb e176 c4bd ae02 1dbc 31d7 a1bd
000001f0: f812 55bd 9bfd c0bc 914e 293e d374 903d
00000200: 7df8 15be 099e eebd 7dd3 db3d 468c 0abe
00000210: 569e 6b3d 8910 2ebc c2fc c83d 123c 613b
00000220: 87be 81bd 7345 aa3c a0ad ac3d 6af5 3dbd
00000230: 11c0 8fbb 0ece 933d acba afbc 223d 093d
00000240: 3735 aa3d 587c c03d 1a7b 82bc 3c63 0f3d
00000250: 4645 afbd 09ac e13d 6579 58bd 2eb1 0d3b
00000260: 824a 5d3b b905 17be 951b d73d 95ca f4bd
00000270: ce04 733d f780 c5bd cab4 7abd 2442 e2bc
00000280: 4639 39be 996a 84bd f7a9 eb3d 7999 9f3d
00000290: cbc5 303b faea 5ebd b261 cc3d d4ec b73d
000002a0: 6732 c93d 7d8b 26bd c41b e8bd 65b3 7b3e
000002b0: 90e4 063d 0f4c 3c3d 2b46 a4bc d00c 8fbd
000002c0: 20e3 acbd 0cb1 023e 0f86 89bd 6c3f cf3c
000002d0: d6ba e5bd 3e77 233e d4b0 df3d e1fc c63c
000002e0: 6aa3 f7bc 5f11 fdbd b2b8 833d e116 603c
000002f0: 3615 a63d c3e5 c83d 0cf8 f6bd 88bf 053c
00000300: 5470 933d 3137 353d dfe7 1abe 89ed 04be
00000310: 8773 083e 3038 933d 218b 523d c071 653d
00000320: a81b 2dbe f98e 413e 4b83 003e 6b93 703d
00000330: 4f09 2bbd 31eb 72bd 34da cabd 995c bfbd
00000340: 8842 b5bd 9aef 90bd 8202 1dbe 0815 113d
00000350: fe44 b53c 0d2a d43d db8b afbd 166a ca3c
00000360: eb0a 8f3c eb5e 59bd dca7 a8bb 5562 913d
00000370: e775 d53d 839b dcbd b23e c33c e3fc bc3c
00000380: 2410 8bbd a234 963d f9da f23d 4f7c 453e
00000390: de9d 95bd 8ff8 6e3d 1f28 d73d 27b2 6bbd
000003a0: df11 a1bc 2ed8 56bd 1a50 443e d7f5 2f3d
000003b0: 2bc9 543d e502 50bd 2d98 c23d f47d 02be
000003c0: fdf6 dd3d fa6f 04be 5b71 723d f081 1d3d
000003d0: 9eb5 9fbd 2014 d6bd 8e46 833d 8db6 4bbd
000003e0: 22d1 093e 5607 3c3d a3c5 d13d cd6a b43c
000003f0: 52be 303b fcf0 583e 5eee 763d aeda 0dbe
